output/electricity_cnn_20260221_233600/checkpoints/epoch_5.pt (torch, 766789 bytes, 23 tensors)

conv.0.weight f4 [64, 15, 7]
0.08713908 -0.02155008 0.05683516 0.09095882 -0.032850243 0.023235 -0.010208198 -0.08800457
-0.098505646 0.0010056986 -0.09019791 -0.058475953 -0.04891465 -0.006614093 -0.05509073 0.06159113
-0.058875438 -0.097835384 -0.085817955 0.05262063 -0.018340679 0.022652777 -0.033989724 0.018979078
-0.08122501 0.023960881 -0.08687549 0.02858651 0.037421517 -0.050318398 0.057361837 -0.023485875
0.011623263 -0.04359358 -0.054085396 0.0738529 0.030339062 0.061842892 -0.08124585 -0.038693752
0.024276678 0.057846017 -0.064433135 0.020593831 -0.007454895 -0.0020729536 0.051783342 -0.037079826
0.046047635 -0.09319147 -0.019613432 -0.034163363 -0.055485494 -0.08903597 -0.080471456 -0.010650785
0.073151685 -0.024934838 -0.041835755 -0.021762073 -0.019283812 -0.0030208647 0.09707862 0.017012583
-0.037198327 0.024175039 0.05198727 -0.05516405 0.06484306 0.08040939 0.0030362778 -0.069228105
-0.00077034836 -0.057110414 0.09059792 -0.013475398 0.042023964 -0.040202722 -0.047213618 0.08366831
-0.07000855 0.03885793 0.040812384 0.095825925 0.03820942 0.037327822 0.023489218 0.09140256
0.099621676 0.069208324 -0.016704533 -0.09481371 -0.043914214 0.029987821 0.0614341 -0.06843524
0.026084414 0.08007575 -0.033428743 0.09111125 0.074619934 -0.088475965 0.05783968 0.04641612
-0.03134122 0.06559502 0.009332879 0.0728391 0.03252675 0.0022938484 -0.001201782 0.011558191
-0.025067084 -0.051737215 -0.013751981 -0.07182684 -0.059468236 0.08599858 0.07778141 -0.019680109
0.058321375 0.019048424 0.041498967 -0.024988828 -0.05202463 -0.08067188 -0.08076558 0.0035368528
-0.09863414 -0.023244713 -0.029807338 -0.033734445 0.072767384 -0.062313188 0.004128152 0.06564605
-0.030849 -0.012400267 -0.0426931 0.009930314 -0.07650925 -0.07214778 -0.08865083 0.08220754
-0.041687485 0.008538961 0.05199773 0.071117535 -0.052798558 -0.08043781 0.04458877 0.102553904
-0.03940481 -0.061292864 0.043098554 0.028129198 -0.05288757 0.03686613 0.050867293 0.019531984
-0.019789254 0.00044787818 0.09869223 0.051672723 0.11656802 0.13030635 0.044541147 -0.022166776
-0.045980375 -0.06984732 0.034377202 -0.06709133 0.101525456 0.0072979988 0.0049214484 0.014281826
0.05907063 0.088239245 0.028622616 -0.010592623 0.022329945 -0.024354372 0.076479435 -0.03461188
-0.09178601 -0.043802284 -0.09172264 -0.056519207 0.06349008 0.07500467 -0.016506486 -0.057813518
-0.065446965 0.012161121 0.059810095 0.07846752 -0.016242677 -0.008740577 0.031165494 -0.034220584
-0.07516579 0.0835236 -0.037200782 -0.049756814 -0.09424617 -0.090607256 -0.080823906 -0.059900515
0.024738075 -0.08385831 0.0106566 -0.04840826 0.029693795 0.0754666 -0.06465731 -0.0008404061
0.040411003 -0.09145136 0.0014294994 0.036583446 -0.02185359 0.08124199 0.025313249 -0.059038896
-0.012624573 -0.08619175 -0.0789083 -0.053125925 0.05122293 0.07424417 -0.10152734 0.082455136
-0.0727036 -0.03753288 -0.07966172 0.06678734 -0.040601633 0.01278502 0.05654309 0.009995572
0.046633165 -0.004438685 0.0132058505 0.07890247 -0.09117302 0.0530053 -0.059842404 -0.012625776
0.08208015 0.07794168 0.0070666424 -0.019133257 0.08726418 -0.07694861 -0.049733747 -0.088016786
00000000: f975 b23d cb89 b0bc fccb 683d 9e48 ba3d
00000010: fa8d 06bd 5457 be3c 4940 27bc bd3b b4bd
00000020: 54bd c9bd a5d1 833a afb9 b8bd 7b84 6fbd
00000030: ba5a 48bd 09bb d8bb d1a6 61bd fb46 7c3d
00000040: 5f27 71bd eb5d c8bd 53c1 afbd bb88 573d
00000050: 313f 96bc 5192 b93c cf38 0bbd 037a 9b3c
00000060: 4c59 a6bd 9c49 c43c c7eb b1bd 422e ea3c
00000070: 4e47 193d aa1a 4ebd 3ff4 6a3d 7365 c0bc
00000080: 806f 3e3c 2f8f 32bd a688 5dbd 3040 973d
00000090: a089 f83c f94e 7d3d 3964 a6bd 577d 1ebd
000000a0: e2df c63c f2ef 6c3d 85f5 83bd 65b4 a83c
000000b0: 3148 f4bb 64da 07bb c51a 543d 04e1 17bd
000000c0: 729c 3c3d 2bdb bebd 59ac a0bc e2ee 0bbd
000000d0: c244 63bd 7e58 b6bd 38ce a4bd a180 2ebc
000000e0: 8dd0 953d 2544 ccbc f85b 2bbd 6046 b2bc
000000f0: 16f9 9dbc b3f9 45bb 28d1 c63d f95d 8b3c
00000100: 465d 18bd bb0a c63c 9bf0 543d b3f3 61bd
00000110: 70cc 843d aead a43d 4afc 463b 77c7 8dbd
00000120: 34f1 49ba 9cec 69bd 678b b93d eac7 5cbc
00000130: 5221 2c3d 9cab 24bd 1163 41bd 4a5a ab3d
00000140: a560 8fbd 7e29 1f3d e32a 273d 6240 c43d
00000150: 7b81 1c3d 0fe5 183d 766c c03c 4431 bb3d
00000160: 7306 cc3d 18bd 8d3d f2d7 88bc b12d c2bd
00000170: 64df 33bd 05a9 f53c 53a2 7b3d c627 8cbd
00000180: fbae d53c c1fe a33d 94ec 08bd 8998 ba3d
00000190: 56d2 983d e332 b5bd 4de9 6c3d d41e 3e3d
000001a0: a75f 00bd af56 863d efe8 183c ab2c 953d
000001b0: c53a 053d 6454 163b 1d85 9dba 915e 3d3c
000001c0: 7c59 cdbc 67ea 53bd fd4f 61bc f319 93bd
000001d0: f794 73bd 0620 b03d dc4b 9f3d 2e38 a1bc
000001e0: 65e2 6e3d 710b 9c3c d2fa 293d 5fb5 ccbc
000001f0: c717 55bd 4c37 a5bd 6d68 a5bd 8bca 673b
00000200: b200 cabd b26b bebc 852e f4bc 212d 0abd
00000210: 1107 953d 1d3c 7fbd 7345 873b 7071 863d
00000220: 0bb7 fcbc 7d2a 4bbc f6de 2ebd c1b2 223c
00000230: e2b0 9cbd 37c2 93bd 918e b5bd 6d5c a83d
00000240: 7fc0 2abd 00e7 0b3c 92fb 543d 12a6 913d
00000250: 4d43 58bd 94bc a4bd b7a2 363d c807 d23d
00000260: f066 21bd 3a0e 7bbd 1c88 303d 346f e63c
00000270: a3a0 58bd f000 173d 395a 503d 8a01 a03c
00000280: 131d a2bc 31d1 ea39 271f ca3d c7a6 533d
00000290: 37bb ee3d 076f 053e c770 363d 1997 b5bc
000002a0: eb55 3cbd 1d0c 8fbd 1ccf 0c3d 2e67 89bd
000002b0: 94ec cf3d 0d24 ef3b 1a44 a13b 52fe 693c
000002c0: 0cf4 713d c7b6 b43d fa79 ea3c ae8c 2dbc
000002d0: 4aed b63c d282 c7bc 40a1 9c3d 30c5 0dbd
000002e0: 4efa bbbd 066a 33bd 14d9 bbbd af80 67bd
000002f0: 1607 823d 0c9c 993d 9c38 87bc decd 6cbd
00000300: 0f09 86bd 703f 473c 6efb 743d 94b3 a03d
00000310: 5d0f 85bc a334 0fbc c74e ff3c e22a 0cbd
00000320: 86f0 99bd 6c0e ab3d d95f 18bd cdcd 4bbd
00000330: 2304 c1bd 4c90 b9bd 0187 a5bd 3e5a 75bd
00000340: 81a7 ca3c e8bd abbd 0599 2e3c bd47 46bd
00000350: 6740 f33c 3c8e 9a3d 0d6b 84bd b34e 5cba
00000360: 0286 253d da4a bbbd 0a5e bb3a 86d8 153d
00000370: 4d06 b3bc 3362 a63d bb5d cf3c c5d2 71bd
00000380: 4cd7 4ebc 4d85 b0bd ad9a a1bd 929a 59bd
00000390: 23cf 513d 540d 983d 91ed cfbd 3dde a83d
000003a0: a0e5 94bd 14bc 19bd af25 a3bd cdc7 883d
000003b0: e64d 26bd 4378 513c ba99 673d 78c4 233c
000003c0: 6b02 3f3d 6372 91bb 5a5d 583c 9e97 a13d
000003d0: ecb8 babd 161c 593d 4f1d 75bd 58dc 4ebc
000003e0: a319 a83d e39f 9f3d 4b8f e73b 59bd 9cbc
000003f0: 90b7 b23d 3c97 9dbd 9db5 4bbd 2542 b4bd

conv.0.bias f4 [64]
0.07454354 -0.0034720544 0.0499242 -0.009565547 -0.00034005195 -0.07299475 -0.013804653 0.03454219
-0.00685133 -0.076707765 -0.062212355 -0.02330233 -0.071228005 -0.057610385 0.074926086 -0.07280899
0.0105928 0.067344 -0.08459858 -0.043417558 0.07084558 0.01780841 0.033863436 -0.0388302
-0.06689862 0.006570878 0.020760056 0.04108314 0.034999777 -0.037106935 -0.007285975 0.078699626
0.093758255 0.03301612 -0.012035653 -0.08309587 -0.035464842 0.06915898 -0.011477284 -0.09620231
0.089852534 -0.060621664 0.09197803 -0.06468295 -0.04906064 0.08510315 0.018257372 -0.00016375755
0.028412849 -0.04463514 0.08127461 0.01819263 -0.03243909 -0.03579339 0.045109462 -0.043744504
-0.03452357 -0.0646162 0.055847593 -0.019871773 0.05769307 0.09352856 0.025211062 -0.0073915287
00000000: 49aa 983d 688b 63bb 517d 4c3d d0b8 1cbc
00000010: 0049 b2b9 467e 95bd e92c 62bc 1d7c 0d3d
00000020: 1f81 e0bb f618 9dbd 62d2 7ebd 87e4 bebc
00000030: fddf 91bd def8 6bbd d972 993d e11c 95bd
00000040: 6c8d 2d3c a7eb 893d 0542 adbd 9cd6 31bd
00000050: 7d17 913d f1e2 913c 63b4 0a3d 6a0c 1fbd
00000060: 2502 89bd 8550 d73b fe10 aa3c cb46 283d
00000070: ed5b 0f3d 71fd 17bd 30bf eebb 452d a13d
00000080: 5404 c03d e93b 073d 3031 45bc 2b2e aabd
00000090: 9543 11bd 39a3 8d3d 380b 3cbc b705 c5bd
000000a0: 9b04 b83d 6c4e 78bd fa5e bc3d 7f78 84bd
000000b0: cff3 48bd 8f4a ae3d 7c90 953c 55b6 2bb9
000000c0: 10c2 e83c 56d3 36bd 4d73 a63d b608 953c
000000d0: dade 04bd 179c 12bd b3c4 383d 702d 33bd
000000e0: 9668 0dbd 8055 84bd 72c0 643d 21ca a2bc
000000f0: 924f 6c3d e78b bf3d 6e87 ce3c a334 f2bb

conv.1.weight f4 [64]
0.983556 0.9554955 0.97869915 0.98559594 1.0173398 0.9844107 0.9981419 0.9530759
0.9659127 1.0016285 1.0767578 0.9498848 1.0081834 1.0164913 1.0019203 0.98050374
0.97435087 0.99528706 0.9826977 0.99008197 1.0070673 1.0863318 0.99776596 0.9807227
1.0053593 0.9932998 0.980224 0.9893744 1.1109936 0.9995643 1.0177541 0.95924044
1.0375926 0.9880334 0.9922924 0.980385 1.0002007 0.9978541 1.01367 0.95942646
1.0421475 1.02168 0.9948257 1.0085714 0.9899617 1.0218418 1.0348667 1.0669608
0.9643529 1.0392734 1.0064186 1.0051132 1.0144324 1.0460756 0.9468393 0.9855621
1.0002993 0.9895855 1.0025098 1.0249919 0.9816635 0.9899254 0.9283845 1.0804513
00000000: 53ca 7b3f 5a9b 743f 078c 7a3f 0450 7c3f
00000010: 3138 823f 5702 7c3f 3a86 7f3f c8fc 733f
00000020: 0e46 773f 5d35 803f 33d3 893f a62b 733f
00000030: 270c 813f 631c 823f ed3e 803f 4b02 7b3f
00000040: 0f6f 793f 22cb 7e3f 1492 7b3f 0376 7d3f
00000050: 95e7 803f ec0c 8b3f 976d 7f3f a510 7b3f
00000060: 9daf 803f e548 7e3f f6ef 7a3f a447 7d3f
00000070: 0a35 8e3f 72e3 7f3f c445 823f c890 753f
00000080: d6cf 843f c2ef 7c3f e006 7e3f 83fa 7a3f
00000090: 9406 803f 5e73 7f3f f0bf 813f f99c 753f
000000a0: 1765 853f 69c6 823f e6ac 7e3f de18 813f
000000b0: 216e 7d3f b6cb 823f 8376 843f 2c92 883f
000000c0: d5df 763f e906 853f 53d2 803f 8da7 803f
000000d0: ecd8 813f cee5 853f 0f64 723f cc4d 7c3f
000000e0: cf09 803f 7a55 7d3f 3e52 803f ef32 833f
000000f0: 4d4e 7b3f c06b 7d3f 9baa 6d3f 3a4c 8a3f

conv.1.bias f4 [64]
-0.028339768 -0.03025059 -0.021939 -0.033082586 -0.022293383 -0.024211599 -0.0012332593 -0.027696019
-0.016242718 -0.026632452 0.0141019495 -0.026168793 -0.010156935 -0.0066442224 -0.013625328 -0.017489823
-0.034534324 -0.010223214 -0.034119375 -0.02822099 -0.008630782 0.021071296 -0.016752716 -0.027355125
-0.015764017 -0.025173957 -0.026932059 -0.013799401 0.06032182 -0.022136478 -0.012576438 -0.019773781
0.0010784812 -0.020157956 -0.035059363 -0.018001374 -0.051300697 -0.02342983 0.00341467 -0.02387014
0.012973438 -0.0012091544 -0.012137267 -0.0064578936 -0.008470123 -0.034362916 -0.0031495553 0.010063434
-0.009810087 -0.0026379756 -0.013142838 -0.0009488345 0.018496206 -0.0006545886 -0.06553487 0.004284842
-0.020421624 -0.023296153 -0.008080727 -0.010264589 -0.02309921 -0.005531867 -0.0687658 0.0047165495
00000000: cd28 e8bc 16d0 f7bc 6bb9 b3bc 9b81 07bd
00000010: 9da0 b6bc 6757 c6bc 51a5 a1ba c3e2 e2bc
00000020: 730f 85bc 4d2c dabc dd0b 673c f05f d6bc
00000030: 4669 26bc c7b7 d9bb c53c 5fbc d146 8fbc
00000040: dd73 0dbd 447f 27bc c2c0 0bbd b52f e7bc
00000050: 2068 0dbc b69d ac3c fe3c 89bc db17 e0bc
00000060: 8a23 81bc 9d39 cebc 9fa0 dcbc e216 62bc
00000070: 0314 773d 8f57 b5bc 670d 4ebc a0fc a1bc
00000080: d35b 8d3a 4c22 a5bc 689a 0fbd 9e77 93bc
00000090: ae20 52bd eaef bfbc a8c8 5f3b 508b c3bc
000000a0: 8b8e 543c 7d7c 9eba 63db 46bc bd9c d3bb
000000b0: 45c6 0abc 21c0 0cbd c568 4ebb 1ae1 243c
000000c0: 7dba 20bc e3e1 2cbb 0f55 57bc 35bb 78ba
000000d0: 5b85 973c b398 2bba 2537 86bd dc67 8c3b
000000e0: 404b a7bc 93d7 bebc 0765 04bc cf2c 28bc
000000f0: 8e3a bdbc aa44 b5bb 15d5 8cbd 498d 9a3b

conv.1.running_mean f4 [64]
0.07441634 0.0021608889 0.0488751 -0.011757068 -0.0026816488 -0.07514392 -0.01683416 0.038028922
-0.0032997462 -0.07635121 -0.06438551 -0.02409746 -0.071551375 -0.063489564 0.0765569 -0.07498899
0.011686487 0.063222356 -0.08470675 -0.03863458 0.075332925 0.018123673 0.03480729 -0.036527973
-0.06883583 0.00649721 0.020613423 0.0417353 0.02936494 -0.0406166 -0.0002867524 0.07603483
0.09030275 0.031185174 -0.0139952395 -0.07929959 -0.039069504 0.06855798 -0.010453501 -0.09664838
0.0877192 -0.0579685 0.09501751 -0.06384991 -0.045055173 0.07967892 0.014481289 -0.009311111
0.024056872 -0.047976263 0.07828922 0.018000014 -0.034604333 -0.03441621 0.043628413 -0.047259014
-0.034304332 -0.06785662 0.057593714 -0.019017372 0.057292406 0.09425875 0.030127382 -0.010340122
00000000: 9867 983d b39d 0d3b 4231 483d b8a0 40bc
00000010: 9abe 2fbb 0ee5 99bd cbe7 89bc 37c4 1b3d
00000020: 8e40 58bb 065e 9cbd 8ddc 83bd 0968 c5bc
00000030: 8789 92bd d106 82bd ddc9 9c3d d493 99bd
00000040: ae78 3f3c b97a 813d bc7a adbd 4b3f 1ebd
00000050: 2648 9a3d 1978 943c 1792 0e3d 5b9e 15bd
00000060: cdf9 8cbd 8ce6 d43b 7bdd a83c a2f2 2a3d
00000070: be8e f03c 985d 26bd 4157 96b9 26b8 9b3d
00000080: a6f0 b83d 0d78 ff3c 4a4c 65bc d367 a2bd
00000090: 5807 20bd 2068 8c3d 2945 2bbc 96ef c5bd
000000a0: 20a6 b33d 6170 6dbd 8a98 c23d bec3 82bd
000000b0: c68b 38bd b42e a33d ee42 6d3c a18d 18bc
000000c0: eb12 c53c c282 44bd 1956 a03d c474 933c
000000d0: 46bd 0dbd 03f8 0cbd b5b3 323d ab92 41bd
000000e0: b382 0cbd 69f8 8abd 63e7 6b3d 52ca 9bbc
000000f0: 71ab 6a3d bb0a c13d b3cd f63c 9d69 29bc

conv.1.running_var f4 [64]
0.6377038 0.51970184 0.47436383 0.31721672 0.23632617 0.51812094 0.9497485 0.6449426
1.1746844 0.33654457 0.5626591 0.52341276 0.4004844 0.557693 0.31561103 0.52281386
0.2876388 0.22474407 1.0647663 0.3944771 0.74191207 0.98561263 0.35575917 0.23689137
0.31391546 0.91030663 0.49281597 0.3135811 0.50923467 0.38147002 0.3510825 0.4376455
0.68407017 0.44855985 0.24323285 1.0791849 0.66569036 0.5097111 0.5379907 0.47438198
0.6559085 0.62995064 0.4337017 0.74378777 0.4499052 0.47850814 1.0714318 0.83865786
0.4479718 0.5045944 0.4443493 0.348998 0.3716227 1.1631896 0.92375594 0.5334888
0.27637884 0.5186585 0.45664385 0.54138607 0.96950305 0.66652346 0.67906266 0.57823646
00000000: 8e40 233f 2e0b 053f d1df f23e 3b6a a23e
00000010: 7dff 713e 93a3 043f b822 733f f51a 253f
00000020: 0f5c 963f 924f ac3e 6d0a 103f 61fe 053f
00000030: 4b0c cd3e f8c4 0e3f c597 a13e 21d7 053f
00000040: 6545 933e 4f23 663e 434a 883f e7f8 c93e
00000050: f3ed 3d3f 1c51 7c3f 1126 b63e a793 723e
00000060: 87b9 a03e db09 693f 6052 fc3e b48d a03e
00000070: 345d 023f 0a50 c33e 16c1 b33e 1213 e03e
00000080: 391f 2f3f a3a9 e53e 0812 793e bb22 8a3f
00000090: af6a 2a3f 6d7c 023f c2b9 093f 32e2 f23e
000000a0: 9fe9 273f 7244 213f 260e de3e e068 3e3f
000000b0: f959 e63e 05ff f43e ad24 893f 48b2 563f
000000c0: 8f5c e53e 192d 013f c081 e33e deaf b23e
000000d0: 5545 be3e 66e3 943f 457b 6c3f b992 083f
000000e0: 8781 8d3e cec6 043f 39cd e93e 4798 0a3f
000000f0: 5a31 783f 48a1 2a3f 0dd7 2d3f 4e07 143f

conv.5.weight f4 [128, 64, 5]
-0.017466258 0.060709737 0.044153906 -0.0037262335 -0.010226159 -0.022493115 0.046626844 -0.029619751
0.023065599 -0.0036953 0.0027825665 0.008805124 0.027843244 -0.00026736132 0.043064628 0.03790356
0.050130673 0.049028214 0.029209822 0.047736622 -0.046977386 -0.048041094 -0.05588234 -0.018546468
-0.024142252 -0.038897514 0.01316544 0.03250726 -0.025992366 0.051911585 0.0077932724 -0.015872633
-0.05367793 -0.014093336 -0.016388476 -0.012904668 0.02539307 0.045671534 0.043186296 0.0028141267
-0.036202338 -0.0613009 -0.004644864 0.015412756 0.025660621 -0.064335145 0.028822698 -0.038697287
0.006794014 -0.05922284 -0.00039970013 0.041561082 0.0049363077 -0.014377085 -0.018443488 -0.021618111
-0.030224247 -0.04254439 -0.02556072 -0.048640925 -0.048036225 -0.021436837 0.021950345 -0.03302386
0.028209925 0.03819858 0.014428488 -0.04460845 0.023027863 -0.011700312 0.010124536 0.020730322
0.031226601 -0.0534352 -0.035597205 0.01802643 -0.0514586 -0.027449524 0.016930787 0.024640668
0.009953307 -0.015978716 0.012093268 0.029070374 -0.05322541 -0.05833169 -0.049599655 -0.0609632
0.03404035 0.05458906 -0.0574095 0.028317299 -0.057656243 0.0054751216 -0.018692173 -0.003540866
-0.0386383 -0.05251738 -0.0049601407 -0.04254649 0.028553795 0.0019110782 0.0134405 -0.038899794
0.0074781687 0.029633913 0.055462055 0.064755 -0.049392756 0.015784753 0.023305522 -0.003936065
0.011177822 -0.017749373 0.03231232 -0.03530957 -0.008214126 -0.042445466 -0.05006657 0.01587491
-0.06530199 -0.06158472 -0.03835962 -0.026304007 0.0032658847 0.050684877 0.05072557 -0.044785723
0.027203485 0.034479484 0.01041166 0.01793335 0.02062859 -0.04248647 -0.052597545 0.03542618
-0.0032867775 0.03793918 0.045927044 -0.041871022 0.029566968 -0.008489252 0.005576994 0.027558241
-0.0099547375 0.022509458 -0.018053403 -0.013899196 -0.025703393 0.015453913 -0.008974894 -0.023117773
-0.05596461 -0.06215321 0.043708432 0.04318679 -0.045514457 -0.05387355 0.05753992 -0.021217428
0.044665113 0.033713326 0.03812685 0.059318572 0.025476303 0.046598468 0.036509212 -0.035241116
0.007128041 0.01045685 -0.05590442 0.01712142 -0.011441498 -0.05597094 0.05813358 0.044783313
0.04909486 -0.04402377 0.005196219 -0.03272629 0.041841425 0.032068253 -0.002271446 0.036861084
-0.049868055 0.020780364 -0.009620018 0.0058532883 -0.033847157 -0.024857417 -0.0021443733 0.018349608
0.0145723 -0.020520905 -0.006107996 -0.04637559 0.040407497 -0.032670155 0.023540525 -0.002859794
0.033126622 0.060290955 -0.013461246 -0.009450742 0.031255558 0.016592234 0.041208506 -0.035065707
-0.035767533 -0.028615313 -0.010196792 -0.0106674675 -0.020702532 0.015085511 0.011418228 0.020545697
0.04511515 0.022244787 0.030336032 0.027621822 -0.053641956 0.0404772 0.011599682 -0.00075305265
0.0043631187 0.012312675 -0.049792558 0.014882607 -0.03095217 -0.026661277 0.029270936 -0.033588186
0.046500627 -0.04411592 0.03161265 0.044732776 -0.035830583 -0.034675058 0.04514959 0.04378092
0.00919416 -0.036210384 0.024672212 0.013605028 -0.0019908617 0.011938005 0.05785286 0.06837323
-0.01350604 0.05410141 0.007985464 0.01512967 -0.02883014 -0.062052563 0.028132305 -0.014222738
00000000: 6615 8fbc c6aa 783d bada 343d d333 74bb
00000010: 9f8b 27bc 7b43 b8bc cafb 3e3d 1fa5 f2bc
00000020: 11f4 bc3c d92c 72bb b85b 363b 5e43 103c
00000030: 8417 e43c a12c 8cb9 8964 303d c340 1b3d
00000040: d255 4d3d cfd1 483d 7049 ef3c 7a87 433d
00000050: 5c6b 40bd bdc6 44bd e1e4 64bd c3ee 97bc
00000060: f9c5 c5bc 0053 1fbd dcb3 573c 5526 053d
00000070: f1ed d4bc 3ea1 543d b55e ff3b 5307 82bc
00000080: 64dd 5bbd bce7 66bc 2041 86bc 1a6e 53bc
00000090: 2105 d03c 1312 3b3d 1de4 303d 366d 383b
000000a0: e748 14bd a716 7bbd f133 98bb c985 7c3c
000000b0: 3936 d23c 25c2 83bd 941d ec3c 0c81 1ebd
000000c0: 52a0 de3b a693 72bd d88e d1b9 f43b 2a3d
000000d0: c0c0 a13b dd8d 6bbc cc16 97bc 7718 b1bc
000000e0: d798 f7bc 0743 2ebd b764 d1bc b53b 47bd
000000f0: a2c1 44bd 4e9c afbc 36d1 b33c 0744 07bd
00000100: 8018 e73c 1d76 1c3d 7765 6c3c 5ab7 36bd
00000110: eea4 bc3c aab2 3fbc 62e1 253c a3d2 a93c
00000120: eece ff3c dede 5abd 60ce 11bd 2aac 933c
00000130: 41c6 52bd d3dd e0bc 6fb2 8a3c 3adb c93c
00000140: 3213 233c cce5 82bc d822 463c fe24 ee3c
00000150: e302 5abd 36ed 6ebd 0229 4bbd 8cb4 79bd
00000160: e56d 0b3d c798 5f3d 3926 6bbd aef9 e73c
00000170: f428 6cbd a668 b33b 5420 99bc e00d 68bb
00000180: 3243 1ebd 771c 57bd ad88 a2bb 3a45 2ebd
00000190: a6e9 e93c 257d fa3a 8b35 5c3c 6455 1fbd
000001a0: 6d0b f53b d2c2 f23c 2e2c 633d 459e 843d
000001b0: 0f50 4abd 074f 813c 39eb be3c 1bfa 80bb
000001c0: 2f23 373c 2267 91bc ec59 043d c5a0 10bd
000001d0: 8b94 06bc 4cdb 2dbd 9b12 4dbd 190c 823c
000001e0: 0dbd 85bd 4240 7cbd fa1e 1dbd 807b d7bc
000001f0: 7408 563b f29a 4f3d 9ec5 4f3d 3c71 37bd
00000200: d8d9 de3c 5c3a 0d3d ab95 2a3c f6e8 923c
00000210: 4afd a83c 4b06 2ebd 8670 57bd 0b1b 113d
00000220: fa66 57bb 1d66 1b3d ff1d 3c3d f380 2bbd
00000230: 6d36 f23c 8116 0bbc 37bf b63b d2c1 e13c
00000240: 3219 23bc c165 b83c bbe4 93bc 74b9 63bc
00000250: ec8f d2bc 6932 7d3c 6f0b 13bc 7c61 bdbc
00000260: 263b 65bd 5d94 7ebd 9d07 333d a2e4 303d
00000270: 5e6d 3abd 83aa 5cbd fbae 6b3d 2cd0 adbc
00000280: c4f2 363d fc16 0a3d e62a 1c3d 08f8 723d
00000290: aeb3 d03c 09de 3e3d af8a 153d fd58 10bd
000002a0: 5792 e93b 3553 2b3c 08fc 64bd 3842 8c3c
000002b0: 1f75 3bbc c941 65bd 7a1d 6e3d b56e 373d
000002c0: b117 493d 4552 34bd 0b45 aa3b 010c 06bd
000002d0: ea61 2b3d 005a 033d 8adc 14bb a6fb 163d
000002e0: 7242 4cbd 953b aa3c 489d 1dbc f1cc bf3b
000002f0: 51a3 0abd c8a1 cbbc 9d88 0cbb eb51 963c
00000300: a8c0 6e3c 751b a8bc 9625 c8bb 55f4 3dbd
00000310: 5582 253d 24d1 05bd 0fd8 c03c 626b 3bbb
00000320: c8af 073d a6f3 763d 8f8c 5cbc 49d7 1abc
00000330: d405 003d 70ec 873c 40ca 283d 0fa1 0fbd
00000340: fa80 12bd a96a eabc 7210 27bc 9ac6 2ebc
00000350: 5b98 a9bc 3829 773c 8513 3b3c 734f a83c
00000360: aaca 383d b33a b63c 4583 f83c 2947 e23c
00000370: abb7 5bbd 6ccb 253d 980c 3e3c 8268 45ba
00000380: 7ef8 8e3b 1abb 493c 48f3 4bbd 2ed6 733c
00000390: 688f fdbc c068 dabc 9ac9 ef3c c493 09bd
000003a0: 7177 3e3d e5b2 34bd 447c 013d b739 373d
000003b0: 17c3 12bd 6f07 0ebd c7ee 383d 9f53 333d
000003c0: 1aa3 163c 5751 14bd 611d ca3c a0e7 5e3c
000003d0: 1e79 02bb 9f97 433c 1ff7 6c3d 4407 8c3d
000003e0: 7048 5dbc 7199 5d3d 77d5 023c 6fe2 773c
000003f0: 302d ecbc d42a 7ebd b875 e63c 7d06 69bc

conv.5.bias f4 [128]
-0.0032399504 -0.02443129 0.018208291 -0.051576804 0.036158368 0.041483685 -0.04278709 -0.012395175
-0.013948165 0.03286047 0.009220729 -0.03266803 0.03979323 -0.0021081886 -0.014629235 0.04374974
-0.04870219 -0.03305904 -0.03394228 0.0436939 0.05129617 -0.028895974 -0.01430803 -0.011270663
-0.037974004 0.0031524054 -0.012217443 -0.026807547 0.032712173 -0.025990974 -0.002335579 0.05303296
-0.04411267 -0.038037013 0.019932147 0.03001228 -0.04405343 0.036941603 -0.05340097 0.0009485358
0.029892066 0.026707478 -0.011608929 0.008670751 -0.007928977 -0.03414521 -0.018696504 -0.04178613
0.029129205 0.00027510233 0.041477982 -0.029646361 0.020748192 0.0071962383 -0.022759546 0.017668003
-0.044318102 0.009993067 0.04821066 0.03346064 0.055016547 -0.027047187 -0.03683964 0.048233733
-0.0013190289 -0.05031498 -0.04656554 0.02234602 -0.039892145 0.04981372 -0.05544879 -0.009251684
-0.054539233 0.02674993 0.016479557 0.026762972 -0.0029018237 -0.03937868 0.04015669 0.047852065
0.0011201098 0.03489082 -0.017278634 -0.030360373 0.049669866 -0.009831553 0.02677926 0.043323766
-0.035106063 -0.031128773 -0.0019281983 -0.046502892 0.038667012 0.02898521 -0.014618797 -0.029658848
-0.0072444244 -0.012142576 -0.0022402566 0.04502656 0.042378657 0.045533255 0.008784308 -0.050626125
0.0024087736 -0.045900892 -0.013546787 0.031155558 0.05295106 -0.0019933234 0.0115373675 -0.04190411
0.006779045 0.014449596 0.048664283 -0.012455724 -0.038152624 -0.02367449 -0.0067782337 0.057247996
0.050731387 0.04304232 0.04673428 0.023367144 0.052201938 -0.018259484 -0.028389065 0.02563169
00000000: 5955 54bb 2124 c8bc 8e29 953c 3342 53bd
00000010: cc1a 143d ccea 293d 8441 2fbd 2215 4bbc
00000020: d886 64bc b398 063d 8a12 173c eace 05bd
00000030: 3afe 223d 8929 0abb 75af 6fbc ed32 333d
00000040: f37b 47bd ea68 07bd 0f07 0bbd 60f8 323d
00000050: ef1b 523d 40b7 ecbc 3a6c 6abc 96a8 38bc
00000060: a18a 1bbd 9698 4e3b ac2b 48bc 809b dbbc
00000070: 33fd 053d 06eb d4bc 8310 19bb 1739 593d
00000080: 7daf 34bd b3cc 1bbd be48 a33c 50dc f53c
00000090: 5f71 34bd 1450 173d faba 5abd 29a7 783a
000000a0: 35e0 f43c a4c9 da3c 6133 3ebc c40f 0e3c
000000b0: 8ae8 01bc d9db 0bbd 6929 99bc ef27 2bbd
000000c0: 5fa0 ee3c 9c3b 9039 d1e4 293d eddc f2bc
000000d0: 1df8 a93c 6cce eb3b 3a72 babc 7dbc 903c
000000e0: e686 35bd f6b9 233c 8b78 453d 060e 093d
000000f0: 0859 613d 1092 ddbc 2ae5 16bd bc90 453d
00000100: 44e3 acba 1517 4ebd 82bb 3ebd 000f b73c
00000110: f265 23bd 7909 4c3d 451e 63bd 6094 17bc
00000120: 8864 5fbd ab22 db3c 2300 873c 053e db3c
00000130: 862c 3ebb 8a4b 21bd 577b 243d 8700 443d
00000140: a6d0 923a ade9 0e3d ec8b 8dbc 51b6 f8bc
00000150: a172 4b3d 8614 21bc 2e60 db3c 4374 313d
00000160: 60cb 0fbd c501 ffbc 99bb fcba d179 3ebd
00000170: 4d61 1e3d 6472 ed3c ae83 6fbc 1df7 f2bc
00000180: a362 edbb a8f1 46bc 45d1 12bb c56d 383d
00000190: 3e95 2d3d 1481 3a3d 0fec 0f3c 575d 4fbd
000001a0: 84dc 1d3b 9302 3cbd 58f3 5dbc f139 ff3c
000001b0: 36e3 583d 6ba2 02bb 3a07 3d3c a5a3 2bbd
000001c0: c022 de3b 00be 6c3c 3354 473d 1813 4cbc
000001d0: ed45 1cbd 01f1 c1bc f21b debb e07c 6a3d
000001e0: b7cb 4f3d 254d 303d 726c 3f3d 746c bf3c
000001f0: b3d1 553d ea94 95bc 2f90 e8bc 8df9 d13c

conv.6.weight f4 [128]
0.9997889 1.0663135 0.99828535 1.0174184 0.99774396 0.99725765 0.99077976 1.0036488
1.0207324 0.98962116 1.0045325 1.0016539 0.9879497 0.99191356 0.96289057 0.9827696
1.0113643 1.0166227 0.96087885 1.0365502 0.9906312 1.0064071 1.0693375 0.9900166
1.0091393 1.0570112 0.98212737 0.9943642 1.0071685 0.97163385 0.9782123 0.98709655
1.0607668 0.9927378 1.0431081 0.98626 0.9779379 1.0605031 0.9810212 1.0583408
0.9791838 1.0235716 1.0208294 1.0200262 0.99767846 0.9918077 0.9861984 0.97824913
0.9830699 0.9801655 1.0122553 0.99684036 1.0047996 0.9482697 1.0488101 1.0437819
0.99488133 0.9912246 1.0050623 1.0108466 0.98901206 0.981429 1.0175084 1.0296046
0.9872893 1.0013063 0.98394346 0.97737026 1.0099924 0.9958641 1.0585468 1.0430216
0.9875221 0.99855405 1.0133493 1.0037774 1.0133679 0.99434793 0.9698964 1.0130876
0.9663641 0.9790671 0.9905511 1.0478772 0.9938351 0.97591907 1.0159061 0.9831609
0.98532015 0.99690866 0.9940256 1.0093571 0.9910942 1.0241256 0.9859432 0.9863077
1.0572821 1.0072639 1.0628725 1.004034 1.0209516 0.9946288 0.9857664 1.035625
1.0026054 1.0092089 1.0430521 0.9803069 0.9977957 1.0068258 1.0046014 1.0246338
1.0714142 0.9991488 0.96537125 1.063104 1.0385481 1.0138093 1.0053596 1.0017233
1.0030532 0.988505 0.9940989 1.0024829 1.0026644 0.9887001 1.0117507 0.99625236
00000000: 2af2 7f3f f67c 883f a18f 7f3f c43a 823f
00000010: 266c 7f3f 474c 7f3f bea3 7d3f 9077 803f
00000020: 5ca7 823f d057 7d3f 8594 803f 3236 803f
00000030: 46ea 7c3f 0cee 7d3f ff7f 763f ca96 7b3f
00000040: 6374 813f b120 823f 28fc 753f adad 843f
00000050: 029a 7d3f f3d1 803f 0de0 883f ba71 7d3f
00000060: 7a2b 813f 254c 873f b36c 7b3f a78e 7e3f
00000070: e6ea 803f ffbc 783f 1f6c 7a3f 5cb2 7c3f
00000080: 35c7 873f 1124 7e3f 9184 853f 897b 7c3f
00000090: 235a 7a3f 91be 873f 3524 7b3f b677 873f
000000a0: caab 7a3f 6504 833f 8aaa 823f 3890 823f
000000b0: db67 7f3f 1ce7 7d3f 8077 7c3f 896e 7a3f
000000c0: 78aa 7b3f 20ec 7a3f 9591 813f ee30 7f3f
000000d0: 469d 803f cec1 723f 693f 863f a59a 853f
000000e0: 8bb0 7e3f e5c0 7d3f e2a5 803f 6c63 813f
000000f0: e52f 7d3f ee3e 7b3f b73d 823f 15ca 833f
00000100: febe 7c3f ce2a 803f b8e3 7b3f f034 7a3f
00000110: 6e47 813f f3f0 7e3f 767e 873f bb81 853f
00000120: 40ce 7c3f 3da1 7f3f 6eb5 813f c77b 803f
00000130: 0ab6 813f 968d 7e3f 214b 783f dbac 813f
00000140: a363 773f 24a4 7a3f c294 7d3f d720 863f
00000150: fa6b 7e3f d5d5 793f 3609 823f 6fb0 7b3f
00000160: f13d 7c3f 6835 7f3f 7678 7e3f 9d32 813f
00000170: 59b8 7d3f 8c16 833f c666 7c3f a97e 7c3f
00000180: 0555 873f 06ee 803f 350c 883f 3084 803f
00000190: 8bae 823f fe9f 7e3f 305b 7c3f 5c8f 843f
000001a0: 6055 803f c22d 813f bb82 853f 65f5 7a3f
000001b0: 8a6f 7f3f abdf 803f c796 803f 3327 833f
000001c0: 1a24 893f 37c8 7f3f 9222 773f cb13 883f
000001d0: 25ef 843f 81c4 813f a0af 803f 7838 803f
000001e0: 0c64 803f aa0e 7d3f 447d 7e3f 5c51 803f
000001f0: 4f57 803f 731b 7d3f 0c81 813f 650a 7f3f

conv.6.bias f4 [128]
-0.0028274283 -0.03834043 -0.031616975 -0.016195308 -0.00050695665 -0.046305355 -0.021250576 -0.030151978
-0.027908927 -0.030393185 -0.05318015 -0.0415314 -0.032087445 -0.025236808 -0.049820688 -0.032071624
0.006571619 -0.049258694 -0.033250242 -0.029823529 -0.04014534 -0.00264618 -0.025077112 -0.029459909
-0.018261073 -0.052847825 -0.018204212 -0.031547204 -0.012417267 -0.037721433 -0.03882837 -0.019273756
-0.011317018 -0.034127932 -0.036639057 -0.012956941 -0.020040078 -0.03544504 -0.03561243 -0.040925648
-0.050207783 -0.050200187 -0.045454666 -0.020766055 -0.053324375 -0.048153788 -0.033172455 -0.027292857
-0.012425812 -0.02417377 -0.04528412 -0.019986609 -0.053182982 -0.05511674 -0.027062654 -0.033978503
-0.014834043 -0.02731975 -0.0043844758 0.0031669699 -0.021969046 -0.035794023 -0.045539 -0.015612148
-0.046786107 -0.033953615 -0.035346873 -0.025273167 -0.0052883504 -0.030147137 -0.02436867 -0.030267462
-0.016305769 -0.04468964 -0.028061826 -0.060737316 -0.047233567 -0.03966433 -0.02232092 -0.03502935
-0.045491308 -0.025984298 -0.02299283 -0.018168304 -0.036144532 -0.05450663 -0.045452967 -0.02601738
-0.057446845 -0.042785488 -0.022117972 -0.020019108 -0.030757543 -0.0102261845 -0.038290497 -0.024204016
-0.008257004 -0.03233392 -0.018828036 -0.0046764277 -0.0120060975 -0.025665019 -0.018802363 -0.006232614
-0.026752787 -0.030320698 -0.061549358 -0.037663814 -0.019366564 -0.030082313 -0.04572573 -0.057883237
-0.024656836 -0.007723271 -0.042437118 -0.055754703 -0.017790541 -0.002843147 -0.021291757 -0.06119296
-0.028198851 -0.039270338 -0.01743787 -0.01971603 0.0067817345 -0.024864849 -0.034831464 -0.00028763752
00000000: 604c 39bb db0a 1dbd cd80 01bd 06ac 84bc
00000010: 49e5 04ba afaa 3dbd b015 aebc 4801 f7bc
00000020: 43a1 e4bc 21fb f8bc 6ed3 59bd d41c 2abd
00000030: 206e 03bd 6cbd cebc c710 4cbd 895d 03bd
00000040: bc56 d73b 7cc3 49bd 6831 08bd 7950 f4bc
00000050: 716f 24bd 896b 2dbb 846e cdbc e855 f1bc
00000060: 3f98 95bc f676 58bd 0021 95bc a437 01bd
00000070: cb71 4bbc ca81 1abd 7f0a 1fbd ffe3 9dbc
00000080: 046b 39bc bbc9 0bbd d612 16bd 5949 54bc
00000090: 172b a4bc d12e 11bd 57de 11bd a7a1 27bd
000000a0: ada6 4dbd b69e 4dbd ac2e 3abd 931d aabc
000000b0: a96a 5abd e83c 45bd d7df 07bd 4595 dfbc
000000c0: a295 4bbc 1208 c6bc d77b 39bd f5ba a3bc
000000d0: 66d6 59bd 17c2 61bd 80b2 ddbc 0b2d 0bbd
000000e0: 7c0a 73bc abcd dfbc a6ab 8fbb f08c 4f3b
000000f0: 6ef8 b3bc c19c 12bd 1a87 3abd 18ca 7fbc
00000100: caa2 3fbd f212 0bbd e2c7 10bd ac09 cfbc
00000110: e649 adbb 21f7 f6bc cea0 c7bc 78f3 f7bc
00000120: ad93 85bc 7c0c 37bd eae1 e5bc b1c7 78bd
00000130: fc77 41bd 1177 22bd 5dda b6bc f07a 0fbd
00000140: 1855 3abd 06dd d4bc 765b bcbc b2d5 94bc
00000150: 4a0c 14bd 5842 5fbd e42c 3abd 6722 d5bc
00000160: 624d 6bbd d63f 2fbd c030 b5bc 1dff a3bc
00000170: 3ef7 fbbc ba8b 27bc 7fd6 1cbd 8047 c6bc
00000180: 6348 07bc 9370 04bd 413d 9abc b83c 99bb
00000190: 39b5 44bc 723f d2bc 6a07 9abc f53a ccbb
000001a0: a928 dbbc 1d63 f8bc 2e1b 7cbd 5f45 1abd
000001b0: a1a6 9ebc 2f6f f6bc e74a 3bbd f916 6dbd
000001c0: 22fd c9bc 7e13 fdbb 8bd2 2dbd 0b5f 64bd
000001d0: 78bd 91bc 1754 3abb 0d6c aebc 78a5 7abd
000001e0: 4701 e7bc efd9 20bd ddd9 8ebc 8383 a1bc
000001f0: 5039 de3b 5eb1 cbbc 70ab 0ebd 0ece 96b9

conv.6.running_mean f4 [128]
0.04191461 0.10187147 -0.029477054 -0.54953593 0.35697493 -0.8831233 -0.52308303 -0.9965543
-0.2607168 -0.82353014 -0.8640741 -0.793329 -0.4791462 -0.09269546 0.1340249 -0.45194224
-0.37442243 -0.21682137 -0.2525423 -0.4002161 -0.79164034 -0.37577045 -0.7142144 -0.19532615
-1.0686619 0.398019 -0.47066665 -0.52077276 -0.09977089 -0.46290022 -0.8144762 -0.82862693
-0.840046 0.80232 -0.53275335 -0.020431893 -0.0073677497 0.4823695 -0.15424336 0.24750482
0.18417208 0.72269183 -0.38971964 -0.32137695 0.24233384 -0.14351234 -0.18723287 -0.45897123
-0.48800823 -0.45979488 -0.44239494 -0.2768214 -0.64067155 -0.13284142 -0.9632946 -0.7440912
0.026447468 0.115304515 -0.27306375 0.1770525 -0.35599035 -0.28124085 -0.12771595 0.49441198
-0.7304018 -0.22405489 0.49067315 0.08420396 -0.24512555 0.65343124 -0.9564752 0.39729702
-0.7384 -0.57079405 0.6308899 -0.34084955 -0.576988 -0.71651787 -0.45035917 -0.40575173
-0.5917051 -0.07304158 -0.74975073 -0.45696 0.39734718 -0.10432937 0.36479247 0.21608108
-0.40971136 -0.6094128 0.2681523 -0.10256831 -0.18060923 -0.5183312 -0.044032317 0.06250024
0.32971317 -0.78519064 -0.82483494 -0.19867685 0.40450326 -0.38861892 -0.39886448 0.29287452
-0.659532 -0.5613858 -1.0134453 -0.20080204 -0.5007993 0.81876975 0.62363875 -0.9223921
-0.069451325 -0.11231269 -0.513016 0.6344874 0.47055852 -0.33302885 0.07464354 -0.47420043
-0.5634692 -0.058820266 -0.19898602 -1.0093341 -0.44331592 -0.18057036 -0.09170392 0.081048995
00000000: a7ae 2b3d fda1 d03d dd79 f1bc 63ae 0cbf
00000010: 6bc5 b63e 5e14 62bf c5e8 05bf 2f1e 7fbf
00000020: ac7c 85be dfd2 52bf f633 5dbf 9c17 4bbf
00000030: a752 f5be 1ed7 bdbd d33d 093e f964 e7be
00000040: 4cb4 bfbe 6c06 5ebe 394d 81be 20e9 ccbe
00000050: f1a8 4abf fc64 c0be c1d6 36bf 9403 48be
00000060: eac9 88bf 25c9 cb3e 38fb f0be 5d51 05bf
00000070: ae54 ccbd 4201 edbe 8381 50bf e520 54bf
00000080: 410d 57bf d864 4d3f 8662 08bf c960 a7bc
00000090: 2a6d f1bb 23f9 f63e f9f1 1dbe e771 7d3e
000000a0: 9b97 3c3e 5502 393f 5589 c7be 858b a4be
000000b0: 5d26 783e e6f4 12be f9b9 3fbe 47fe eabe
000000c0: 37dc f9be 3c6a ebbe 9781 e2be 89bb 8dbe
000000d0: 0d03 24bf 9507 08be 7a9a 76bf c37c 3ebf
000000e0: 5ca8 d83c c624 ec3d 03cf 8bbe 404d 353e
000000f0: 5e44 b6be cdfe 8fbe f8c7 02be 9123 fd3e
00000100: 9dfb 3abf a56e 65be 8339 fb3e 2073 ac3d
00000110: 3102 7bbe 4547 273f 8fdb 74bf 846a cb3e
00000120: c807 3dbf 8f1f 12bf 0082 213f d583 aebe
00000130: 7cb5 13bf b76d 37bf 7a95 e6be b1be cfbe
00000140: fc79 17bf d396 95bd aaef 3fbf a9f6 e9be
00000150: 1771 cb3e a3aa d5bd 14c6 ba3e 5c44 5d3e
00000160: b0c5 d1be 7a02 1cbf 424b 893e 560f d2bd
00000170: a0f1 38be 5bb1 04bf 3b5b 34bd 2000 803d
00000180: 2ad0 a83e 4102 49bf 6228 53bf f271 4bbe
00000190: 0d1b cf3e 0ff9 c6be f737 ccbe a6f3 953e
000001a0: 17d7 28bf fbb6 0fbf 93b8 81bf 0d9f 4dbe
000001b0: 6234 00bf e59a 513f caa6 1f3f e321 6cbf
000001c0: 7f3c 8ebd 3204 e6bd 0455 03bf c46d 223f
000001d0: 0ced f03e c282 aabe b6de 983d 66ca f2be
000001e0: 843f 10bf 85ed 70bd fec2 4bbe dc31 81bf
000001f0: 4efa e2be 70e7 38be 44cf bbbd 04fd a53d

conv.6.running_var f4 [128]
0.44616506 0.46436584 0.24629895 0.48554218 0.5196743 1.0438823 0.55355674 0.66446567
0.41662204 1.145102 0.43771172 0.7287717 0.7056 0.6974851 0.27346382 0.4437661
0.6013105 0.29456842 0.5128078 0.33628744 0.33176813 0.48596147 0.78143054 0.36442888
0.4950716 0.2871176 0.88462305 0.70785236 0.438094 0.6599126 0.44700938 0.6506178
1.0775155 0.4481273 0.37987646 0.61254495 0.37523362 0.45326328 0.6507183 0.36009592
0.4036251 0.34795442 0.34397417 1.001342 0.37781298 0.9317896 0.72458714 0.65327686
0.502599 0.42955172 0.32728526 0.52308273 0.31222272 0.49266183 0.5159823 0.8717206
0.47069326 0.6122464 0.38870218 0.36502123 0.7542465 0.35326636 0.40062344 0.67413443
0.7890003 0.37113985 0.5544508 0.63477355 0.338277 0.56705797 0.99949086 0.4972736
0.6443539 0.32048026 0.55959 0.30907875 0.42308354 0.8289052 0.41151783 0.4089974
1.3734401 0.47955644 0.930406 0.6860233 0.20243669 0.36119464 0.35396802 0.50024104
0.39780265 0.8300542 0.5845085 0.5246035 0.39401257 0.7457243 0.28963652 0.20808037
0.6178773 0.37068295 0.9695936 1.2321256 0.5113682 0.58422464 0.5555464 0.679174
0.5106454 0.5641539 0.47592553 0.59137005 0.3678225 0.5537261 0.62297386 0.5389069
0.4674179 0.61294335 0.58104014 0.2794156 0.7071237 0.2101274 0.33607942 0.32238626
0.56815684 0.47640496 0.27820536 0.39072356 0.8770066 0.5165803 0.42962804 0.7376201
00000000: bf6f e43e 5cc1 ed3e cb35 7c3e fc98 f83e
00000010: 6009 053f ef9d 853f e5b5 0d3f 6c1a 2a3f
00000020: 7c4f d53e b492 923f c01b e03e c890 3a3f
00000030: 34a2 343f 628e 323f 7303 8c3e 4f35 e33e
00000040: 7cef 193f acd1 963e 5f47 033f de2d ac3e
00000050: 83dd a93e f1cf f83e d50b 483f 6c96 ba3e
00000060: 067a fd3e 1401 933e a876 623f d035 353f
00000070: db4d e03e 08f0 283f 6ade e43e e38e 263f
00000080: 07ec 893f f170 e53e 2b7f c23e bfcf 1c3f
00000090: 9f1e c03e 2012 e83e 7995 263f 7e5e b83e
000000a0: f3a7 ce3e 1527 b23e 621d b03e fa2b 803f
000000b0: b470 c13e c389 6e3f 8b7e 393f 273d 273f
000000c0: 54aa 003f 34ee db3e ef91 a73e c0e8 053f
000000d0: a8db 9f3e 2c3e fc3e 6a17 043f 1529 5f3f
000000e0: b5fe f03e 2ebc 1c3f f903 c73e 10e4 ba3e
000000f0: 4c16 413f 54df b43e 841e cd3e 1394 2c3f
00000100: ecfb 493f 0b06 be3e 7df0 0d3f 8580 223f
00000110: a532 ad3e b62a 113f a2de 7f3f a59a fe3e
00000120: 61f4 243f fd15 a43e 4a41 0f3f 923f 9e3e
00000130: 689e d83e 2233 543f 77b2 d23e 1b68 d13e
00000140: e3cc af3f 6c88 f53e 162f 6e3f 399f 2f3f
00000150: 904b 4f3e 81ee b83e 4c3b b53e cc0f 003f
00000160: caac cb3e 6f7e 543f 59a2 153f 6a4c 063f
00000170: 04bc c93e cae7 3e3f 3d4b 943e 0513 553e
00000180: 352d 1e3f 28ca bd3e 4937 783f 4bb6 9d3f
00000190: 07e9 023f bf8f 153f 4a38 0e3f 59de 2d3f
000001a0: a8b9 023f 646c 103f 83ac f33e 0764 173f
000001b0: 3b53 bc3e fec0 0d3f 377b 1f3f cdf5 093f
000001c0: 6651 ef3e dbe9 1c3f 0cbf 143f 900f 8f3e
000001d0: 0f06 353f a32b 573e 9a12 ac3e d00f a53e
000001e0: ba72 113f 5aeb f33e ef70 8e3e eb0c c83e
000001f0: 8183 603f 9b3e 043f 35f8 db3e acd4 3c3f

conv.10.weight f4 [256, 128, 3]
-0.0043699862 -0.003584724 0.017119927 0.0312699 -0.03595789 0.034687333 -0.006788947 0.038383953
-0.0050379364 -0.054634195 0.0003591783 -0.024359008 0.00015844313 0.047634657 0.002682202 0.0060251346
-0.044815667 -0.0042682667 0.0073687537 -0.031509254 -0.055774387 0.003849982 0.007838672 -0.037576627
-0.0061141434 -0.030528912 -0.004801146 0.044903286 0.03268832 0.031149654 -0.032897513 0.008520213
0.016891157 0.054097306 0.02233122 0.04574803 -0.036895845 0.02546327 -0.038614616 0.043857157
0.023605647 -0.027665751 0.029334066 -0.039456617 0.0032545184 -0.018263506 0.0027752006 0.016641274
-0.03461817 0.047976952 -0.048449095 -0.033916306 0.0057913275 0.009361477 0.0029380892 -0.03178428
-0.006853501 -0.055713296 -0.036229927 -0.07815921 -0.025789866 0.00034559547 0.027996749 0.019930493
-0.037125032 -0.007880833 0.024713702 0.011249329 -0.024358453 0.023759477 -0.005211784 0.0065052197
0.030122044 0.043594155 -0.052684847 0.011886523 -0.027084501 -0.0527793 -0.006063268 0.045874186
0.001555059 0.009762509 -0.04042689 -0.016395332 0.0333304 0.053630475 0.0061219353 0.023624813
-0.0039730733 0.023355037 0.009948757 0.025155118 0.013443581 0.002451163 -0.01301741 -0.025156913
0.018286634 -0.017848153 -0.009111963 -0.05867365 0.018337896 -0.035647493 0.016391087 -0.001195279
-0.080040075 -0.0017633245 0.022187889 -0.039065454 -0.046434563 0.0019627414 -0.02126891 -0.007011477
-0.04704027 -0.020602195 -0.02114592 -0.024118045 0.044827957 -0.028012812 -0.02697506 -0.010309123
-0.03020317 -0.055355623 0.03682989 -0.066556245 0.012583783 -0.057676084 -0.001442379 -0.04007273
-0.021878194 -0.045369305 -0.0002921305 0.010237076 0.007514569 -0.057855837 -0.032775264 -0.04086456
0.027917756 -0.014061886 -0.031527303 0.041592553 0.027670288 -0.0046803043 -0.014683516 -0.041396845
-0.03415839 0.050058223 -0.017907768 0.05666523 -0.029607812 0.034995943 0.0031644213 -0.050373647
0.033476334 0.038008455 -0.046178 0.026916571 0.026657779 -0.026761109 0.0075876606 -0.017974664
0.009197737 0.01924836 0.036069565 -0.05488009 0.009273139 0.02122438 -0.00559921 -0.022095459
-0.036099486 -0.023854883 0.043531403 -0.0010554139 0.050685056 -0.035140276 0.04907002 0.0142556485
-0.0263369 -0.059608724 -0.018452084 -0.0589019 -0.04279557 0.025956789 0.026667181 0.0013917346
0.056874312 -0.027703365 0.0097103985 0.019898906 -0.04174335 -0.050920397 0.052555244 -0.029871434
-0.0037897904 -0.010989424 -0.059230316 0.020826925 0.048499607 -0.05475333 0.03143153 -0.02517325
-0.023649115 -0.003940465 -0.0031983496 -0.047703937 0.0464452 0.054499984 0.03501576 0.03181214
-0.05357232 0.035816394 -0.016637316 0.0073538525 0.019541819 0.044769328 0.002043447 0.024198662
-0.040069435 0.037886426 -0.018659621 0.04042416 -0.015128022 -0.00010042565 0.0072889673 -0.032000843
0.034168873 0.013743956 0.012302253 -0.039125863 -0.052953735 -0.032259133 -0.0017354744 -0.03660998
0.054111 -0.042836532 -0.014977693 0.0044376175 -0.0076931417 0.028977262 0.026022676 -0.07007979
0.04274292 0.023915695 0.028481217 -0.043409374 -0.023369484 0.067176186 0.029607197 0.045971353
0.00684464 4.5903507e-05 0.009065583 0.00766964 -0.065283984 -0.047063313 -0.04007995 -0.038739175
00000000: 1a32 8fbb b0ed 6abb 173f 8c3c de14 003d
00000010: 9548 13bd 4e14 0e3d d175 debb 7e38 1d3d
00000020: 4615 a5bb 1bc8 5fbd 1850 bc39 8b8c c7bc
00000030: c123 2639 8f1c 433d e2c7 2f3b 7e6e c53b
00000040: a290 37bd d1dc 8bbb 9675 f13b d90f 01bd
00000050: af73 64bd fb4f 7c3b c66d 003c f3e9 19bd
00000060: 2759 c8bb c517 fabc ef52 9dbb 82ec 373d
00000070: 30e4 053d 8f2d ff3c 8bbf 06bd 5d98 0b3c
00000080: 535f 8a3c 2395 5d3d f6ef b63c 4962 3b3d
00000090: 1920 17bd 5998 d03c 5c2a 1ebd 90a3 333d
000000a0: a160 c13c 49a3 e2bc ff4d f03c 439d 21bd
000000b0: c249 553b 599d 95bc 24e0 353b 4853 883c
000000c0: c8cb 0dbd 7b83 443d 8f72 46bd d3eb 0abd
000000d0: 2dc5 bd3b e160 193c f58c 403b 3c30 02bd
000000e0: 5593 e0bb a033 64bd d565 14bd f011 a0bd
000000f0: 4545 d3bc 0a31 b539 7059 e53c 4645 a33c
00000100: 6b10 18bd 9c1e 01bc 6474 ca3c 1b4f 383c
00000110: 618b c7bc 3ca3 c23c 9dc7 aabb bd29 d53b
00000120: 81c2 f63c c98f 323d 11cc 57bd b1bf 423c
00000130: 51e0 ddbc 1b2f 58bd 61ae c6bb 92e6 3b3d
00000140: 1fd3 cb3a eef2 1f3c ab96 25bd 814f 86bc
00000150: 7585 083d a1ab 5b3d 849a c83b d388 c13c
00000160: 8e30 82bb 1053 bf3c 1c00 233c 1b12 ce3c
00000170: 7742 5c3c b1a3 203b fa46 55bc df15 cebc
00000180: dacd 953c 4a36 92bc 584a 15bc c853 70bd
00000190: 5b39 963c 1b03 12bd 9a46 863c e8aa 9cba
000001a0: 0dec a3bd 5a1f e7ba 60c3 b53c 1903 20bd
000001b0: 2b32 3ebd 56a1 003b 233c aebc 88c0 e5bb
000001c0: 4cad 40bd efc5 a8bc 353a adbc 3593 c5bc
000001d0: 859d 373d 207b e5bc cdfa dcbc 99e7 28bc
000001e0: a36c f7bc 94bc 62bd f0da 163d a44e 88bd
000001f0: 362c 4e3c c23d 6cbd 350e bdba 4e23 24bd
00000200: e639 b3bc 2ad5 39bd 1829 99b9 69b9 273c
00000210: c63c f63b 3efa 6cbd 5b3f 06bd 9961 27bd
00000220: c7b3 e43c d363 66bc c622 01bd f45c 2a3d
00000230: cdac e23c 3d5d 99bb 2193 70bc bd8f 29bd
00000240: abe9 0bbd da09 4d3d 50b3 92bc cd19 683d
00000250: 158c f2bc e857 0f3d 2e62 4f3b 9954 4ebd
00000260: 7b1e 093d c1ae 1b3d 2425 3dbd 2480 dc3c
00000270: 6a61 da3c 1d3a dbbc e9a1 f83b 9a3f 93bc
00000280: 1bb2 163c bdae 9d3c aebd 133d f2c9 60bd
00000290: 5dee 173c c0de ad3c 9479 b7bb 8901 b5bc
000002a0: 0edd 13bd 516b c3bc fc4d 323d d055 8aba
000002b0: 229b 4f3d 40ef 0fbd a5fd 483d 8690 693c
000002c0: 7cc0 d7bc 4728 74bd d328 97bc 1e43 71bd
000002d0: 684a 2fbd 55a3 d43c 2275 da3c dd6a b63a
000002e0: 0af5 683d 2bf2 e2bc 5d18 1f3c 0803 a33c
000002f0: 13fb 2abd e891 50bd 2b44 573d f0b4 f4bc
00000300: 225e 78bb fc0c 34bc 7d9b 72bd 3a9d aa3c
00000310: 86a7 463d 0745 60bd 59be 003d 2238 cebc
00000320: cabb c1bc 041f 81bb 679b 51bb 3465 43bd
00000330: 523d 3e3d 603b 5f3d b06c 0f3d 724d 023d
00000340: a66e 5bbd 36b4 123d fb4a 88bc 96f8 f03b
00000350: 2a16 a03c 0b60 373d 5aeb 053b 463c c63c
00000360: d91f 24bd cc2e 1b3d 10dc 98bc ce93 253d
00000370: 86db 77bc 9c9b d2b8 4ad8 ee3b 5113 03bd
00000380: a9f4 0b3d 542e 613c 648f 493c 7142 20bd
00000390: 04e6 58bd 2722 04bd dc78 e3ba 59f4 15bd
000003a0: 7fa3 5d3d 5c75 2fbd ff64 75bc 6f69 913b
000003b0: c016 fcbb b961 ed3c 822d d53c fe85 8fbd
000003c0: 3313 2f3d d9ea c33c 7151 e93c 07ce 31bd
000003d0: 5c71 bfbc ab93 893d cb8a f23c 754c 3c3d
000003e0: 0049 e03b 8488 4038 d087 143c 9a51 fb3b
000003f0: 9cb3 85bd 76c5 40bd e02a 24bd f8ac 1ebd

conv.10.bias f4 [256]
0.021758085 -0.0108464 0.006855224 0.04948773 0.0493718 0.0130819725 0.03477938 -0.022758508
0.019621557 -0.04154336 0.006080096 0.02346996 -0.0037918997 -0.035628885 0.030869449 0.014842864
0.024702119 0.024114702 0.029321525 -0.032272823 0.0044472725 0.01384086 -0.009365203 0.03838205
0.028530622 -0.027865691 -0.027502837 -0.049523078 0.022790045 -0.013075058 -0.008481859 -0.038502652
0.038937565 -0.012583914 -0.011562898 -0.04385056 0.038835447 -0.015921945 0.018156148 0.04924491
-0.03958714 -0.013072196 -0.042246368 -0.01510414 0.0143699525 -0.047316987 -0.043929927 -0.033596545
-0.0017957713 -0.049212564 -0.037688788 0.019845564 0.023758966 0.049873013 -0.00816467 -0.045928583
0.002134414 -0.04096151 0.03347775 -0.04780085 0.00770034 -0.038271457 -0.0063317623 0.044378035
0.0072448454 -0.018122816 -0.047792647 -0.008330615 -0.011747051 -0.042555623 -0.0453463 -0.019776396
-0.025036778 -0.00610537 -0.022169927 0.025146786 -0.031046955 0.015951512 0.033367746 -0.0072686295
-0.035810594 0.014759517 -0.009988726 0.04090472 -0.03758672 -0.01152876 0.047712404 -0.023378376
-0.015736522 -0.016069323 -0.0009083499 -0.028582249 0.008291834 0.027232386 -0.011917455 -0.024469147
-0.043299194 0.049835004 0.006860977 -0.048985615 -0.0069990717 -0.025897881 -0.026723366 -0.011772878
-0.0024308732 -0.018668769 0.03988447 0.022139646 -0.04658222 0.024104899 -0.015355414 0.020329555
0.025981436 -0.03840996 -0.03903845 -0.04506365 0.0038850831 0.038920432 0.03675296 0.04294728
0.023775617 -0.0414083 -0.03941877 0.004276572 -0.0011282084 0.01622665 0.03886462 -0.02126648
-0.042368613 -0.03978309 -0.03259738 -0.03898003 0.032504614 0.0411568 0.0135106165 0.015695225
-0.028687775 0.015437701 -0.03713454 -0.044231154 0.00263624 0.0046785595 -0.009403545 -0.03710656
-0.03289228 0.005078836 0.0029041693 0.0102939885 0.00841101 -0.041895103 -0.004483324 0.022583993
0.014500022 0.03360815 -0.04423761 0.039673697 -8.772444e-05 0.015910478 -0.032549284 0.042355902
-0.013734109 0.002148448 -0.047571864 0.04373641 -0.005480815 -0.018704535 0.046065327 0.006921679
-0.046313047 -0.003095232 -0.00577443 0.029121855 0.017628519 -0.043282505 -0.0492952 0.0051869582
0.010246619 -0.042268958 -0.05044298 0.02408489 -0.0001677457 -0.001602965 0.01077983 0.015499976
-0.0065401215 -0.025167756 0.04209942 -0.007587409 0.005660905 0.0017439164 0.046354488 -0.018469727
-0.033914544 0.024599036 -0.03134776 0.036491334 -0.047994684 0.035642322 0.04476247 -0.040869277
0.046554815 -0.021341547 0.034362175 -0.025647184 0.029051544 -0.049552392 -0.009009114 0.03917548
0.04554938 -0.00048622309 -0.041051988 -0.022594802 -0.024900887 0.029050376 0.016631678 0.042891897
-0.01631362 -0.020148098 -0.045129627 0.019616183 0.028208515 0.040599123 -0.008795443 -0.0062629734
-0.017897256 0.0005134662 -0.026536098 -0.013787258 -0.04557715 0.04414664 0.04593845 -0.0075193685
0.04242046 0.0063277795 -0.026157912 0.042309288 -0.042932082 0.012260785 -0.024185084 -0.0297207
-0.03413942 -0.028565552 -0.04481508 -0.046682682 0.022635764 -0.04701359 -0.020692572 -0.030246913
-0.04046694 -0.039554857 0.025222538 0.010268249 -0.03379291 -0.022309085 -0.033968635 0.025992198
00000000: 033e b23c 19b5 31bc c9a1 e03b a5b3 4a3d
00000010: 163a 4a3d c555 563c d374 0e3d 0d70 babc
00000020: 63bd a03c 5f29 2abd 8b3b c73b 1344 c03c
00000030: 8581 78bb 98ef 11bd ede1 fc3c 7c2f 733c
00000040: 195c ca3c 328c c53c b233 f03c 8230 04bd
00000050: 6dba 913b c6c4 623c 8270 19bc 7f36 1d3d
00000060: 0db9 e93c 9746 e4bc a14d e1bc b6d8 4abd
00000070: 30b2 ba3c c538 56bc 7ff7 0abc f5b4 1dbd
00000080: ff7c 1f3d c32c 4ebc 4f72 3dbc a59c 33bd
00000090: eb11 1f3d bd6e 82bc 34bc 943c 08b5 493d
000000a0: 2026 22bd c42c 56bc 870a 2dbd 5b77 77bc
000000b0: f36f 6b3c 75cf 41bd deef 33bd 889c 09bd
000000c0: 1660 ebba 1d93 49bd 8f5f 1abd 2a93 a23c
000000d0: 2aa2 c23c a547 4c3d 1cc5 05bc 9c1f 3cbd
000000e0: 86e1 0b3b 42c7 27bd f71f 093d d3ca 43bd
000000f0: 2253 fc3b 88c2 1cbd ac7a cfbb bec5 353d
00000100: 2b66 ed3b 4d76 94bc 39c2 43bd 227d 08bc
00000110: b476 40bc ce4e 2ebd 0bbd 39bd 1c02 a2bc
00000120: ee19 cdbc 8e0f c8bb b59d b5bc a200 ce3c
00000130: 2f56 febc bfac 823c 9eac 083d af2d eebb
00000140: 21ae 12bd e7d1 713c c1a7 23bc b58b 273d
00000150: 88f4 19bd 20e3 3cbc 156e 433d 0284 bfbc
00000160: e1e9 80bc d0a3 83bc 541e 6eba 5225 eabc
00000170: 79da 073c 7416 df3c 6e41 43bc 8573 c8bc
00000180: 7f5a 31bd ca1f 4c3d 0cd2 e03b 24a5 48bd
00000190: 7858 e5bb cb27 d4bc f6ea dabc 07e3 40bc
000001a0: 494f 1fbb 3fef 98bc e65d 233d 345e b53c
000001b0: ffcc 3ebd a377 c53c 4695 7bbc 2b8a a63c
000001c0: 05d7 d43c c353 1dbd c8e6 1fbd a994 38bd
000001d0: e19c 7e3b 086b 1f3d 468a 163d 7de9 2f3d
000001e0: 15c5 c23c c09b 29bd 9375 21bd 7c22 8c3b
000001f0: 64e0 93ba c0ed 843c 8230 1f3d 0b37 aebc
00000200: b68a 2dbd 98f3 22bd d584 05bd 86a9 1fbd
00000210: 8f23 053d 0894 283d a25b 5d3c 4693 803c
00000220: a002 ebbc 69ee 7c3c 631a 18bd ba2b 35bd
00000230: c5c4 2c3b 9a4e 993b 5411 1abc 0cfd 17bd
00000240: 0eba 06bd 5d6c a63b e053 3e3b 1ea8 283c
00000250: 55ce 093c 339a 2bbd d9e8 92bb 1102 b93c
00000260: 8091 6d3c b3a8 093d 7f32 35bd e380 223d
00000270: b3f8 b7b8 b156 823c 6652 05bd 627d 2d3d
00000280: 0705 61bc facc 0c3b b7da 42bd f324 333d
00000290: 6998 b3bb 413a 99bc ffae 3c3d 40cf e23b
000002a0: c0b2 3dbd 60d9 4abb 6e37 bdbb f590 ee3c
000002b0: af69 903c ff48 31bd c3e9 49bd 5cf7 a93b
000002c0: 6fe1 273c 3722 2dbd 4c9d 4ebd ad4d c53c
000002d0: e5e4 2fb9 951a d2ba e29d 303c 9df3 7d3c
000002e0: 844e d6bb 9c2c cebc 7170 2c3d cd9f f8bb
000002f0: 1d7f b93b 2094 e43a 34de 3d3d d34d 97bc
00000300: fae9 0abd eb83 c93c 8266 00bd f077 153d
00000310: 1396 44bd affd 113d da58 373d 8b66 27bd
00000320: 43b0 3e3d 78d4 aebc 5abf 0c3d 0b1a d2bc
00000330: 81fd ed3c 73f7 4abd f69a 13bc 7876 203d
00000340: fd91 3a3d c2eb feb9 2126 28bd bc18 b9bc
00000350: f2fc cbbc 0efb ed3c 283f 883c 6aaf 2f3d
00000360: 24a4 85bc a00d a5bc d8d9 38bd 1eb2 a03c
00000370: 8b15 e73c 444b 263d c31a 10bc a139 cdbb
00000380: 449d 92bc 229a 063a 3b62 d9bc f4e3 61bc
00000390: 1baf 3abd 1bd3 343d f529 3c3d 0965 f6bb
000003a0: 14c1 2d3d 4359 cf3b 1e49 d6bc 814c 2d3d
000003b0: 8dd9 2fbd 76e1 483c cc1f c6bc d378 f3bc
000003c0: c7d5 0bbd 4e02 eabc 0490 37bd 5736 3fbd
000003d0: a36e b93c 5291 40bd 7883 a9bc 60c8 f7bc
000003e0: a9c0 25bd 4604 22bd 7f9f ce3c 283c 283c
000003f0: 6f6a 0abd 8bc1 b6bc b222 0bbd 97ed d43c
