output/electricity_cnn_20260221_233600/checkpoints/epoch_10.pt (torch, 767268 bytes, 23 tensors)

conv.0.weight f4 [64, 15, 7]
0	0x3db2f57b	0.08738228
1	0xbcb37989	-0.021908538
2	0x3d65bc16	0.056087576
3	0x3db8e7fa	0.09028621
4	0xbd0de6b5	-0.034643847
5	0x3ca569f3	0.020192122
6	0xbc6b766d	-0.014371497
7	0xbda86ab3	-0.08223476
8	0xbdb852cd	-0.09000168
9	0x3c3a3023	0.011364016
10	0xbda3c4ca	-0.07996519
11	0xbd3eef26	-0.04661479
12	0xbd0ba2ab	-0.03409068
13	0x3c1ae6b5	0.009454419
14	0xbd53c78b	-0.05170397
15	0x3d85bd03	0.06530192
16	0xbd610d1a	-0.054944135
17	0xbdc0912c	-0.09402689
18	0xbda8fbce	-0.08251153
19	0x3d644187	0.055726554
20	0xbc80b212	-0.01570991
21	0x3c70ef1f	0.014705448
22	0xbd2d56c9	-0.042319093
23	0x3c1b0812	0.009462373
24	0xbdb9618a	-0.09051807
25	0x3c6b2012	0.014350908
26	0xbdc17282	-0.09445669
27	0x3cb0d0d8	0.02158396
28	0x3d19ac6e	0.037517957
29	0xbd4d7ec3	-0.050169718
30	0x3d64aac9	0.055826936
31	0xbcd01365	-0.025399873
32	0x3c16d31a	0.009205604
33	0xbd40a8f0	-0.04703611
34	0xbd72553d	-0.05916332
35	0x3d91fc0f	0.071281545
36	0x3ce65c92	0.028120313
37	0x3d755edf	0.05990493
38	0xbdaa601e	-0.08319114
39	0xbd2a02f2	-0.041506715
40	0x3cb80cd3	0.022467053
41	0x3d65ce71	0.05610508
42	0xbd82f36c	-0.06394085
43	0x3ca8ecb0	0.020620674
44	0xbbf9a4b4	-0.007618511
45	0xbb0cc76c	-0.002148117
46	0x3d4fec6e	0.050762586
47	0xbd1f86fb	-0.038947087
48	0x3d31d1f0	0.043413103
49	0xbdf0d93b	-0.117601834
50	0xbd313b7c	-0.04326962
51	0xbd6a5bb5	-0.057216365
52	0xbda12f8a	-0.078703955
53	0xbde69d5c	-0.11260483
54	0xbdd48be6	-0.10378246
55	0xbd0a97eb	-0.033836287
56	0x3d9bcacd	0.076070406
57	0xbcb3d425	-0.021951744
58	0xbd1ee356	-0.038791023
59	0xbc99093f	-0.018681167
60	0xbc861299	-0.01636629
61	0xb9cbdd8a	-0.00038884237
62	0x3dcbdf02	0.09954645
63	0x3cbf004d	0.023315573
64	0xbcfd8067	-0.030945016
65	0x3cf7a3cd	0.030229473
66	0x3d6e0b59	0.05811629
67	0xbd49d6bb	-0.04927705
68	0x3d90e755	0.07075373
69	0x3db012e4	0.08597353
70	0x3b3e997f	0.002908319
71	0xbd8d9d35	-0.069147505
72	0xb9fa67ab	-0.00047760954
73	0xbd68bc01	-0.05681992
74	0x3db9be7f	0.09069537
75	0xbc69e6d0	-0.014276221
76	0x3d28c291	0.041201178
77	0xbd5581ec	-0.052125856
78	0xbd743655	-0.059622128
79	0x3d8cb50a	0.06870468
80	0xbda8511d	-0.08218596
81	0x3cd9957c	0.026560538
82	0x3d11c9be	0.035592787
83	0x3db771b0	0.08957231
84	0x3cf6dda1	0.030134978
85	0x3ceb4f2f	0.028724281
86	0x3d31ca3f	0.043405768
87	0x3dbcd19a	0.09219666
88	0x3db8d03e	0.09024094
89	0x3d7de5f3	0.061986875
90	0x3b8a9ace	0.00422988
91	0xbdc530dd	-0.096284606
92	0xbd3a68d6	-0.045510136
93	0x3ce9f629	0.028559761
94	0x3d760dee	0.060071878
95	0xbd8ee6ac	-0.06977591
96	0x3cc68a23	0.02423579
97	0x3da0b709	0.07847411
98	0xbd0f1736	-0.034934245
99	0x3db81d9c	0.089900225
100	0x3d95adb1	0.0730852
101	0xbdb818b8	-0.0898909
102	0x3d6676ec	0.056265756
103	0x3d367472	0.044544645
104	0xbd06c70f	-0.03290468
105	0x3d93419e	0.0719025
106	0x3c683eae	0.0141751
107	0x3d9eba03	0.07750323
108	0x3d1048b9	0.035225604
109	0x3b9baf77	0.0047511416
110	0x398f25ff	0.00027303395
111	0x3c603e37	0.013686708
112	0xbd023b16	-0.03179463
113	0xbd6f6e99	-0.058455084
114	0xbca640d4	-0.020294584
115	0xbd9db24e	-0.077000245
116	0xbd83a43b	-0.06427809
117	0x3da6fd00	0.08153725
118	0x3d950e83	0.072781585
119	0xbcafd7ab	-0.021465143
120	0x3d635ffd	0.055511463
121	0x3c854e7b	0.016272774
122	0x3d1d2347	0.03836372
123	0xbce59827	-0.028026653
124	0xbd63366e	-0.05547183
125	0xbdacca14	-0.08436981
126	0xbd95ffe0	-0.07324195
127	0x3c1f5b7a	0.0097264
128	0xbdbdd831	-0.09269751
129	0xbca329d8	-0.019917414
130	0xbcda822a	-0.026673395
131	0xbcfe3137	-0.031029327
132	0x3d9a8e03	0.07546618
133	0xbd6edd8b	-0.05831675
134	0x3c026d72	0.007960664
135	0x3d8ed27d	0.06973741
136	0xbccfdf2d	-0.025374973
137	0xbbe0f5a3	-0.0068652197
138	0xbd1e60e4	-0.03866662
139	0x3c620cae	0.013796968
140	0xbda74274	-0.08166972
141	0xbda004b6	-0.078133985
142	0xbdc00e20	-0.09377694
143	0x3d9bd230	0.076084495
144	0xbd4306ee	-0.04761403
145	0x3af7626c	0.0018873936
146	0x3d3e9335	0.046527106
147	0x3d9b3a2b	0.07579454
148	0xbd4ba60e	-0.04971891
149	0xbd9ec5fd	-0.07752607
150	0x3d3a9171	0.04554886
151	0x3dd39658	0.1033141
152	0xbd214f24	-0.039382115
153	0xbd78be96	-0.060728632
154	0x3d2c35bb	0.04204343
155	0x3ce4acf7	0.027914507
156	0xbd4ee95c	-0.050515518
157	0x3d20bfdb	0.039245468
158	0x3d572281	0.05252314
159	0x3cadcc63	0.021215623
160	0xbc8c801d	-0.017150933
161	0x3c312183	0.0108112125
162	0x3ddf680a	0.10908516
163	0x3d7e3893	0.062065672
164	0x3e021dc3	0.12706666
165	0x3e102c53	0.14079408
166	0x3d6395b3	0.055562686
167	0xbc33bb83	-0.010969999
168	0xbd440574	-0.047856763
169	0xbd92ce60	-0.07168269
170	0x3d055bc8	0.032558233
171	0xbd8cd8fb	-0.06877323
172	0x3dcc83eb	0.09986099
173	0x3bcf0566	0.006317782
174	0x3b8466ba	0.0040405663
175	0x3c352175	0.01105534
176	0x3d63a34d	0.055575658
177	0x3dad655e	0.084666
178	0x3ccc149f	0.024912177
179	0xbc6a409d	-0.014297632
180	0x3c990931	0.01868114
181	0xbce5906c	-0.028022967
182	0x3da43ba8	0.08019191
183	0xbcf58fff	-0.02997589
184	0xbdb05552	-0.086100236
185	0xbd270a1b	-0.04078112
186	0xbdb5f879	-0.08885283
187	0xbd5bd182	-0.0536666
188	0x3d86aa18	0.065754116
189	0x3da14629	0.0787471
190	0xbca843a3	-0.020540064
191	0xbd6fa315	-0.058505137
192	0xbd6c071e	-0.057623975
193	0x3c6d3127	0.014477051
194	0x3d731246	0.0593436
195	0x3da24cf1	0.07924832
196	0xbcb054f3	-0.021524882
197	0xbc33e432	-0.010979699
198	0x3cf2a7f6	0.029621106
199	0xbd0fe3e8	-0.035129458
200	0xbd9c5b45	-0.07634596
201	0x3dabfea4	0.08398178
202	0xbd15e223	-0.036592614
203	0xbd65564c	-0.055990502
204	0xbdc2fa0d	-0.0952035
205	0xbdba7cc7	-0.09105831
206	0xbda4d474	-0.08048335
207	0xbd746a9a	-0.059671976
208	0x3cf73510	0.03017667
209	0xbda00d83	-0.07815077
210	0x3c824439	0.015901672
211	0xbd3b861d	-0.045782197
212	0x3d025e22	0.031828053
213	0x3d9dea71	0.07710732
214	0xbd80525a	-0.06265707
215	0x3ac30f0b	0.0014881802
216	0x3d2edeb1	0.042692844
217	0xbdb4016e	-0.08789335
218	0x3bcef7ef	0.006316177
219	0x3d2c31e2	0.04203976
220	0xbc84110f	-0.016121415
221	0x3daeed4e	0.08541356
222	0x3cec9c00	0.02888298
223	0xbd62a921	-0.055337075
224	0xbbeba117	-0.0071908343
225	0xbda7cc5d	-0.08193276
226	0xbd98f283	-0.074681304
227	0xbd48a292	-0.048983164
228	0x3d603d52	0.05474598
229	0x3d9f21e4	0.07770136
230	0xbdc895f1	-0.09794224
231	0x3da10c37	0.07863658
232	0xbd9ef7ec	-0.07762131
233	0xbd2efd6d	-0.042722154
234	0xbdadffe4	-0.08496073
235	0x3d7eaac8	0.06217459
236	0xbd3632dd	-0.0444821
237	0x3c06e1f3	0.008232581
238	0x3d6192b1	0.055071536
239	0x3c04bc64	0.008101556
240	0x3d38926b	0.04506151
241	0xbbbe3eab	-0.0058058104
242	0x3c42000d	0.011840832
243	0x3d9e1afe	0.07719992
244	0xbdbdbe54	-0.09264818
245	0x3d6a5b44	0.057215944
246	0xbd67679f	-0.056495305
247	0xbc1d5f83	-0.009605291
248	0x3dad9dc5	0.08477358
249	0x3da3b6db	0.07993861
250	0x3c172aca	0.00922651
251	0xbc88afef	-0.016685454
252	0x3dbe4ba2	0.092917696
253	0xbd96dbf7	-0.07366174
254	0xbd40023c	-0.04687713
255	0xbdaf187e	-0.085495934

conv.0.bias f4 [64]
0	0x3d9b0b11	0.0757047
1	0xbb76fb2b	-0.003768633
2	0x3d4af98d	0.049554396
3	0xbc18443d	-0.009293613
4	0xba3dae0a	-0.00072357117
5	0xbd96711e	-0.07345794
6	0xbc52653f	-0.012841522
7	0x3d106a7c	0.0352578
8	0xbbf19714	-0.0073727462
9	0xbd9b2875	-0.07576076
10	0xbd6be6bc	-0.057593092
11	0xbcbe6201	-0.023240091
12	0xbd8af3ae	-0.067847595
13	0xbd7e1698	-0.062033266
14	0x3d9a0842	0.07521106
15	0xbd97eaaa	-0.074178055
16	0x3c40db92	0.0117711
17	0x3d86bcd9	0.065789886
18	0xbdabd4f5	-0.08390228
19	0xbd2dd46a	-0.042438902
20	0x3d913a33	0.07091179
21	0x3c7f5e99	0.015586519
22	0x3d0d65e3	0.034520995
23	0xbd219b5a	-0.039454795
24	0xbd88649b	-0.06659814
25	0x3bee7c25	0.007277983
26	0x3cb71988	0.022351041
27	0x3d1a47ff	0.037666317
28	0x3d0cde8b	0.03439192
29	0xbd1b08c2	-0.03785015
30	0xbbf3f7e5	-0.007445323
31	0x3d9f1462	0.077675596
32	0x3dbfc330	0.09363401
33	0x3d101011	0.035171572
34	0xbc2ac03e	-0.010421811
35	0xbda9540c	-0.08267984
36	0xbd06a834	-0.032875255
37	0x3d8e662a	0.0695308
38	0xbc5829d2	-0.0131935645
39	0xbdc55f8f	-0.09637367
40	0x3db22be1	0.086997755
41	0xbd8574d5	-0.065164246
42	0x3dc137bb	0.09434458
43	0xbd856b6b	-0.06514629
44	0xbd41e4f2	-0.04733748
45	0x3daa50b3	0.083161734
46	0x3c9c0ea4	0.01904995
47	0x3a0fd9e5	0.0005487486
48	0x3ce9168b	0.028453132
49	0xbd495de2	-0.0491618
50	0x3dad8f67	0.084746175
51	0x3c83bc2e	0.016080942
52	0xbcf33d7f	-0.02969241
53	0xbd118bcb	-0.035533708
54	0x3d3d448a	0.046207942
55	0xbd356469	-0.04428521
56	0xbd0f0e5d	-0.034925807
57	0xbd8480ec	-0.064699024
58	0x3d4b2c37	0.049602713
59	0xbc9eeff0	-0.01940152
60	0x3d6d4ee9	0.057936583
61	0x3dbfc990	0.09364617
62	0x3ccb0831	0.02478418
63	0xbba310fe	-0.004976391

conv.1.weight f4 [64]
0	0x3f75ea82	0.96060956
1	0x3f6ec336	0.9326662
2	0x3f775f92	0.96630204
3	0x3f787d3b	0.97066087
4	0x3f82386a	1.0173466
5	0x3f7adb0a	0.9799048
6	0x3f7cd449	0.9876142
7	0x3f76957e	0.96321857
8	0x3f72e09a	0.94873965
9	0x3f7dec72	0.9918891
10	0x3f8e11f4	1.1099229
11	0x3f6b0799	0.9180847
12	0x3f82a5af	1.0206813
13	0x3f8339fb	1.0252069
14	0x3f7d4be2	0.98943913
15	0x3f7aaafd	0.9791716
16	0x3f7650c2	0.96216977
17	0x3f7c66e9	0.9859453
18	0x3f783a31	0.96963793
19	0x3f750abd	0.9571951
20	0x3f80466f	1.0021495
21	0x3f8c5f07	1.09665
22	0x3f8021c6	1.0010307
23	0x3f77bf33	0.9677612
24	0x3f7f50ae	0.9973248
25	0x3f7d1f95	0.98876315
26	0x3f7a9a98	0.9789214
27	0x3f7b4971	0.9815894
28	0x3f908c5e	1.1292837
29	0x3f800aaa	1.0003254
30	0x3f81f7b8	1.0153723
31	0x3f6f02fb	0.9336392
32	0x3f871bdc	1.0555377
33	0x3f79f7d2	0.9764377
34	0x3f7a3797	0.97741073
35	0x3f7b52a1	0.98172957
36	0x3f7cc294	0.987344
37	0x3f7c0734	0.9844849
38	0x3f85db76	1.0457599
39	0x3f724138	0.94630766
40	0x3f8974f0	1.0738811
41	0x3f827f20	1.0195045
42	0x3f7b9cdb	0.9828622
43	0x3f7ee6c2	0.9957086
44	0x3f77a085	0.9672931
45	0x3f82ed7f	1.0228728
46	0x3f869f11	1.0517293
47	0x3f8a83c2	1.0821459
48	0x3f74d97b	0.9564435
49	0x3f8620fb	1.0478815
50	0x3f8073ab	1.0035299
51	0x3f8042bf	1.0020369
52	0x3f82337d	1.0171963
53	0x3f8a60ae	1.0810754
54	0x3f6f2d22	0.9342824
55	0x3f780450	0.9688158
56	0x3f7f6d0c	0.9977577
57	0x3f78f0b3	0.9724228
58	0x3f8014ce	1.0006349
59	0x3f82d26c	1.0220466
60	0x3f7a1a3f	0.976963
61	0x3f7abc84	0.979439
62	0x3f63c98b	0.88979405
63	0x3f8cbb7c	1.0994716

conv.1.bias f4 [64]
0	0xbd601dc1	-0.054715876
1	0xbd2d1d50	-0.042264283
2	0xbcf6d6cd	-0.030131722
3	0xbd58c93e	-0.052926295
4	0xbcbe7347	-0.023248328
5	0xbd0ba13d	-0.034089316
6	0xbc0c39f9	-0.008558744
7	0xbcb84015	-0.022491494
8	0xbd01d1b3	-0.031694125
9	0xbd3b90a6	-0.045792244
10	0x3c2a1433	0.010380792
11	0xbd45db60	-0.048304915
12	0xbab171cf	-0.0013537946
13	0xbc8d5c04	-0.01725579
14	0xbd00cb68	-0.031443983
15	0xbca7a3b0	-0.020463794
16	0xbd77aa1b	-0.06046496
17	0xbc9373af	-0.017999498
18	0xbd4bb576	-0.0497336
19	0xbd71b360	-0.059008956
20	0xbcb071eb	-0.021538695
21	0x3c760971	0.015016899
22	0xbc8c7fc7	-0.017150773
23	0xbd348def	-0.04408067
24	0xbc726aba	-0.014795953
25	0xbd2e950b	-0.042622607
26	0xbd0cd18d	-0.03437953
27	0xbccff163	-0.025383657
28	0x3d8af91b	0.06785794
29	0xbced1f13	-0.028945481
30	0xbcc8ce96	-0.02451257
31	0xbd279bbf	-0.040920015
32	0x3aaa1ba2	0.0012978206
33	0xbcdb910b	-0.02680256
34	0xbd94469f	-0.072400324
35	0xbc8c4e16	-0.017127078
36	0xbd8d9026	-0.0691226
37	0xbd2f30c9	-0.042771135
38	0x3c6d5133	0.014484691
39	0xbd04dbb5	-0.03243609
40	0x3c5e70a6	0.013576662
41	0xbc728993	-0.014803308
42	0xbcfe8f23	-0.031074112
43	0xbca1e596	-0.019762795
44	0xbc973bdd	-0.018461162
45	0xbd1d39b0	-0.038385093
46	0x3b41ad34	0.00295527
47	0x3c89ac2c	0.01680573
48	0xbcb52c8b	-0.022115966
49	0xbca2a933	-0.019856071
50	0xbc5854f1	-0.013203845
51	0x3ad6d87c	0.0016391422
52	0x3c0f0ffa	0.008731836
53	0xbb5085d2	-0.0031818044
54	0xbdb5dc0b	-0.088798605
55	0xbc1a29f0	-0.009409413
56	0xbd08d6dc	-0.03340803
57	0xbd3dbefb	-0.04632471
58	0xbcbb0436	-0.022829156
59	0xbcaf59c7	-0.021405114
60	0xbceee99a	-0.029164124
61	0xbc585901	-0.013204814
62	0xbdd63e8c	-0.104611486
63	0x3a907931	0.0011022446

conv.1.running_mean f4 [64]
0	0x3d90d213	0.070713185
1	0xbbe2ef8d	-0.0069255293
2	0x3d27b10a	0.040940322
3	0xbb5f8e87	-0.0034112053
4	0x3c4bc2ec	0.01243661
5	0xbd84364a	-0.06455667
6	0xbca8477c	-0.020541899
7	0x3d3982b1	0.045290653
8	0xbb104575	-0.0022014056
9	0xbd925642	-0.071453586
10	0xbd609ab4	-0.054835036
11	0xbccfdbaf	-0.025373308
12	0xbd88bd5e	-0.06676744
13	0xbd787ed9	-0.060667846
14	0x3d9aeb64	0.075644284
15	0xbd6e627c	-0.05819939
16	0x3c88c70d	0.016696477
17	0x3d93ffd0	0.07226527
18	0xbdafb882	-0.08580114
19	0xbd154ad8	-0.03644833
20	0x3d721bf0	0.059108675
21	0x3ccffdf5	0.02538965
22	0x3d2db9f7	0.042413678
23	0xbd1508a2	-0.036385186
24	0xbd82a68c	-0.063794225
25	0xbc4ab694	-0.012372632
26	0x3cf4b181	0.029869797
27	0x3d004ed7	0.031325188
28	0x3d145fc1	0.03622413
29	0xbd0e2879	-0.034706566
30	0xbc978d84	-0.018500097
31	0x3da3fdfc	0.08007428
32	0x3dcdc73f	0.10047769
33	0x3d085f63	0.033294093
34	0xbc106e4f	-0.008815362
35	0xbd80ccfe	-0.06289099
36	0xbcdbcdae	-0.026831474
37	0x3d9d9b67	0.07695656
38	0xbbce0535	-0.006287242
39	0xbdba5360	-0.09097934
40	0x3dbc8778	0.09205526
41	0xbd8ab069	-0.06771929
42	0x3dbe6beb	0.092979275
43	0xbd81c4b2	-0.06336345
44	0xbd5c159f	-0.053731557
45	0x3dcc1d90	0.09966576
46	0x3d044c5f	0.032299396
47	0x3b8ab901	0.00423348
48	0x3cd12b2a	0.025533278
49	0xbd490c8a	-0.049084224
50	0x3dc7094e	0.097185716
51	0x3cbfd2c5	0.023415932
52	0xbd0446d6	-0.032294117
53	0xbce31de3	-0.027724212
54	0x3d315955	0.043298084
55	0xbd54ea3b	-0.051981192
56	0xbd471310	-0.048602164
57	0xbd7078f8	-0.058709115
58	0x3d0d4d02	0.03449727
59	0xbcbc12c9	-0.022958176
60	0x3d535e42	0.051603563
61	0x3db3bdb7	0.087764196
62	0x3cb3b613	0.021937406
63	0x3a402a0a	0.0007330483

conv.1.running_var f4 [64]
0	0x3f1b95e0	0.60775566
1	0x3f122e87	0.57102245
2	0x3f09a43e	0.5376624
3	0x3ec137b7	0.3773782
4	0x3eb1fb42	0.34762007
5	0x3f2f9d90	0.68599796
6	0x3f921c44	1.1414876
7	0x3f551962	0.83241856
8	0x3fc28b89	1.5198833
9	0x3ecb30b8	0.39685607
10	0x3f32338f	0.6960992
11	0x3f3b7b96	0.7323545
12	0x3ef77804	0.48333752
13	0x3f175927	0.5912041
14	0x3eb4f661	0.35344222
15	0x3f1bf88a	0.60926116
16	0x3e9cca10	0.3062291
17	0x3eb3bfa7	0.35107157
18	0x3f8aa5b4	1.0831819
19	0x3ee60e67	0.44932863
20	0x3f4b29bd	0.7936056
21	0x3f974bf9	1.182006
22	0x3ee8afa2	0.45446497
23	0x3e82abe0	0.25521755
24	0x3ec2f74c	0.38079298
25	0x3f7a59ca	0.9779326
26	0x3f0554fc	0.520828
27	0x3ea8e3db	0.3298634
28	0x3f1f0279	0.6211315
29	0x3edb8599	0.42875364
30	0x3ee0e29b	0.43922886
31	0x3f126295	0.57181674
32	0x3f5d25a4	0.8638556
33	0x3eefd16c	0.46839464
34	0x3e7ae748	0.2450229
35	0x3fa87ba2	1.316273
36	0x3f3d7f35	0.7402223
37	0x3f0c6aa8	0.54850245
38	0x3f4381c9	0.7636991
39	0x3f12ec50	0.57391834
40	0x3f2f275b	0.68419427
41	0x3f25a672	0.647071
42	0x3ef89336	0.48549813
43	0x3f6e76a1	0.93149763
44	0x3efaafa1	0.4896212
45	0x3f1c546c	0.6106632
46	0x3fb6452e	1.4239862
47	0x3f9268b8	1.1438208
48	0x3f0f1cff	0.5590362
49	0x3f0d697b	0.55239075
50	0x3f07cc87	0.5304646
51	0x3edd6231	0.43238977
52	0x3ed0e605	0.4080049
53	0x3f946a86	1.1595008
54	0x3f64b484	0.89337945
55	0x3f53020a	0.82424986
56	0x3eb625ca	0.35575706
57	0x3f0ab040	0.54175186
58	0x3f0606d2	0.52354157
59	0x3f17e0cf	0.59327406
60	0x3fa5261a	1.2902253
61	0x3f5500d8	0.8320441
62	0x3f34ef33	0.7067749
63	0x3f3fa462	0.74860203

conv.5.weight f4 [128, 64, 5]
0	0xbca4578d	-0.020061279
1	0x3d5721b6	0.052522384
2	0x3d1aadcb	0.0377634
3	0xbbddcc77	-0.006768759
4	0xbc81eaef	-0.015859095
5	0xbcde2304	-0.027116306
6	0x3d240da0	0.040052056
7	0xbd0fb111	-0.035080973
8	0x3c937e9c	0.018004708
9	0xbc0e8406	-0.008698469
10	0x3b00681b	0.0019593302
11	0x3c08a798	0.008340739
12	0x3ce3bcfe	0.02780008
13	0xb7bb5bac	-2.2334825e-05
14	0x3d302f0b	0.043013614
15	0x3d222f9e	0.039596193
16	0x3d54e41e	0.051975362
17	0x3d5154ca	0.05110625
18	0x3d058dcb	0.032605927
19	0x3d541ea3	0.05178703
20	0xbd3bc5cd	-0.045842934
21	0xbd41c9c4	-0.04731156
22	0xbd5f7f72	-0.0545649
23	0xbc9fd1a9	-0.019509153
24	0xbcb41b19	-0.021985577
25	0xbd1d7915	-0.03844555
26	0x3c6d3173	0.014477122
27	0x3d0dca60	0.034616828
28	0xbcce844d	-0.02520957
29	0x3d51892a	0.0511562
30	0x3bc4c02a	0.006004353
31	0xbc85b6e0	-0.016322553
32	0xbd5d3bc5	-0.05401208
33	0xbc8b046c	-0.016969882
34	0xbca8ad56	-0.020590466
35	0xbb57fc0c	-0.0032956628
36	0x3d0837ee	0.033256464
37	0x3d64faab	0.055903118
38	0x3d52f9ae	0.051507644
39	0x3c25cabd	0.010119137
40	0xbd248671	-0.040167276
41	0xbd851619	-0.064983554
42	0xbbd65085	-0.0065403604
43	0x3c3d8afe	0.011568783
44	0x3cae8a8a	0.021306295
45	0xbd881da0	-0.066462755
46	0x3cd86373	0.026414609
47	0xbd21deeb	-0.03951923
48	0x3b9c091f	0.0047618295
49	0xbd7d3c59	-0.06182513
50	0x3c08baf0	0.008345351
51	0x3d41b42a	0.04729096
52	0x3c5486d0	0.012971595
53	0xbbe93eca	-0.0071180807
54	0xbc4345d1	-0.011918501
55	0xbcb905ed	-0.022585833
56	0xbd029d8b	-0.031888526
57	0xbd36874e	-0.04456263
58	0xbcf14f7b	-0.029456845
59	0xbd5089ae	-0.05091255
60	0xbd424847	-0.04743221
61	0xbc9ff26c	-0.019524775
62	0x3cc2ac8c	0.023763917
63	0xbd0640f6	-0.032776795
64	0x3cda4069	0.026642041
65	0x3d2be013	0.04196174
66	0x3cabab63	0.020955747
67	0xbd18db55	-0.037318546
68	0x3cdbdaae	0.026837673
69	0xbc0e34f8	-0.008679621
70	0x3c44db8b	0.012015234
71	0x3cbbb473	0.022913193
72	0x3cf153e5	0.02945895
73	0xbd4a8b64	-0.04944934
74	0xbd090992	-0.033456393
75	0x3c8ea04a	0.017410416
76	0xbd4eba31	-0.050470535
77	0xbcdb7f41	-0.026794078
78	0x3c993422	0.018701617
79	0x3cc9a9c5	0.024617085
80	0x3b8d8e27	0.0043199244
81	0xbcb3920e	-0.02192023
82	0x3bcc74a1	0.006239489
83	0x3ce0cc9f	0.027441321
84	0xbd6602ae	-0.0561549
85	0xbd4e1fda	-0.050323345
86	0xbd3057ee	-0.043052606
87	0xbd652f22	-0.055953152
88	0x3d2564ec	0.04037945
89	0x3d72e900	0.059304237
90	0xbd6f7b77	-0.058467355
91	0x3ce2863e	0.027651902
92	0xbd797e09	-0.060911212
93	0x3b5d01d4	0.0033723013
94	0xbc947944	-0.01812423
95	0xbadc398a	-0.0016801816
96	0xbd0c5bcf	-0.034267243
97	0xbd47cf53	-0.048781704
98	0x3a8cb9bd	0.0010736507
99	0xbd0e9e8c	-0.03481917
100	0x3d14e862	0.03635443
101	0x3c198b5b	0.009371604
102	0x3c816014	0.015792884
103	0xbd09671e	-0.033545606
104	0x3c37b610	0.011212841
105	0x3d1dd18a	0.03852991
106	0x3d887be1	0.06664253
107	0x3d95fc3f	0.07323503
108	0xbd311faa	-0.043243088
109	0x3cb3dc32	0.021955583
110	0x3cfa6440	0.030565381
111	0x3bb48848	0.00550941
112	0x3ca2d09b	0.019874861
113	0xbc00dc3e	-0.00786501
114	0x3d26c797	0.040717687
115	0xbd2182c5	-0.039431352
116	0xbc55477b	-0.013017531
117	0xbd4787bd	-0.048713434
118	0xbd52f381	-0.051501755
119	0x3c439c3c	0.011939105
120	0xbd71c4a2	-0.059025414
121	0xbd61e608	-0.055151016
122	0xbd0c268e	-0.034216456
123	0xbc9d7b2f	-0.019223778
124	0x3c0be204	0.008537773
125	0x3d561eb0	0.05227536
126	0x3d581e67	0.05276337
127	0xbd2de2cd	-0.042452622
128	0x3ce92b87	0.028463138
129	0x3d17636f	0.03696006
130	0x3c10d220	0.00883916
131	0x3c9d5c28	0.019208983
132	0x3caa22be	0.02076852
133	0xbd304855	-0.04303773
134	0xbd5fb8b3	-0.054619502
135	0x3d0d76c1	0.03453708
136	0xbb7c8396	-0.003853058
137	0x3d10ae04	0.035322204
138	0x3d309cc5	0.043118257
139	0xbd3a9752	-0.045554467
140	0x3d0a6861	0.03379095
141	0xba595eb8	-0.0008292007
142	0x3c3d6a12	0.011560934
143	0x3d076fb0	0.033065498
144	0xbb9dbc6a	-0.0048137205
145	0x3caf7e27	0.021422459
146	0xbc9ba0be	-0.018997546
147	0xbc7757b5	-0.015096595
148	0xbcd67f18	-0.02618365
149	0x3c71fb3c	0.014769372
150	0xbbe14f1b	-0.006875885
151	0xbca2b444	-0.019861348
152	0xbd67a4d8	-0.05655369
153	0xbd7cdd1b	-0.0617343
154	0x3d32026f	0.043459352
155	0x3d204d5f	0.039136287
156	0xbd45b4ec	-0.048268244
157	0xbd59b7d4	-0.053153828
158	0x3d5ff7a4	0.054679528
159	0xbcdbb12e	-0.026817884
160	0x3d4bb483	0.049732696
161	0x3d25edd7	0.040510025
162	0x3d2bd3de	0.0419501
163	0x3d857f47	0.06518417
164	0x3d0c8370	0.034305036
165	0x3d416f63	0.047225367
166	0x3d15629b	0.03647099
167	0xbd1832b2	-0.03715772
168	0x3bd4706d	0.0064831288
169	0x3c2b2f39	0.0104482705
170	0xbd5b4f07	-0.053542163
171	0x3c9c4ae9	0.019078689
172	0xbc58ccd1	-0.013232426
173	0xbd5d83aa	-0.054080643
174	0x3d60a2e2	0.054842837
175	0x3d59855f	0.05310571
176	0x3d6d65f0	0.057958543
177	0xbd12415a	-0.035706855
178	0x3c2d4d31	0.010577486
179	0xbce448a8	-0.027866676
180	0x3d2fa8a9	0.042885456
181	0x3d02ac43	0.031902563
182	0x3a836582	0.0010024759
183	0x3d1d0790	0.03833729
184	0xbd3a3176	-0.045457326
185	0x3ca9ebce	0.020742323
186	0xbbf47dd5	-0.0074612894
187	0x3bdb7f20	0.006698504
188	0xbcf5b640	-0.02999413
189	0xbcb695b8	-0.022288188
190	0x3a913850	0.0011079405
191	0x3cd16b72	0.02556393
192	0x3cb432c9	0.021996872
193	0xbc5d30df	-0.013500421
194	0x38cf310f	9.879667e-05
195	0xbd4aa5df	-0.049474593
196	0x3d213aab	0.03936259
197	0xbd08b86c	-0.033379003
198	0x3cad8806	0.021183025
199	0xbbadb97b	-0.005301652
200	0x3d345d26	0.044034146
201	0x3d922a22	0.071369424
202	0xbb8db88b	-0.0043249778
203	0x3aef9b91	0.0018280615
204	0x3d265cad	0.040615726
205	0x3c63d378	0.013905399
206	0x3d26028f	0.040529784
207	0xbd174582	-0.036931522
208	0xbd189e6f	-0.03726047
209	0xbd006c57	-0.03135332
210	0xbc33ec0e	-0.010981573
211	0xbc5875b4	-0.013211656
212	0xbcb89097	-0.022529883
213	0x3c7bbd73	0.015364992
214	0x3c2cf548	0.0105565265
215	0x3c935aa5	0.017987559
216	0x3d32157b	0.043477517
217	0x3cb14d39	0.021643268
218	0x3ce24372	0.027620051
219	0x3ccfcccc	0.02536621
220	0xbd554831	-0.0520708
221	0x3d2ad4dd	0.04170691
222	0x3c8400a4	0.016113587
223	0xb92e6e23	-0.00016634962
224	0x3c015eea	0.007896164
225	0x3c656a4e	0.014002396
226	0xbd3864e1	-0.04501808
227	0x3c839fe1	0.016067447
228	0xbcdf5569	-0.027262406
229	0xbcc425e9	-0.023943858
230	0x3d2392e0	0.039934993
231	0xbcbd861e	-0.023135241
232	0x3d6ee6d8	0.05832562
233	0xbd0fe17d	-0.03512715
234	0x3d2ae1d3	0.04171927
235	0x3d62640a	0.055271186
236	0xbcd93c88	-0.026518121
237	0xbcb7a4bb	-0.022417417
238	0x3d5dcf5f	0.054152843
239	0x3d5fc56a	0.054631628
240	0x3c5862f4	0.013207186
241	0xbcf331bc	-0.029686801
242	0x3cf4ea42	0.02989686
243	0x3ca966bf	0.020678876
244	0x3b80d2da	0.0039313855
245	0x3c522f06	0.012828594
246	0x3d6d2ce0	0.057904124
247	0x3d911b23	0.07085254
248	0xbc3ce3bf	-0.011528908
249	0x3d5162e6	0.051119708
250	0x3c09f663	0.00842056
251	0x3c64d91d	0.013967779
252	0xbcf59d6c	-0.029982291
253	0xbd799c0c	-0.060939834
254	0x3cdc1a6c	0.026868068
255	0xbc528fe5	-0.01285169

conv.5.bias f4 [128]
0	0xbb5a477c	-0.0033306768
1	0xbcd6e5c7	-0.026232613
2	0x3c958b60	0.018254936
3	0xbd55a817	-0.052162256
4	0x3d160e36	0.036634646
5	0x3d2cd8f4	0.04219909
6	0xbd2fb33e	-0.042895548
7	0xbc537ebb	-0.012908633
8	0xbc55ccd1	-0.01304932
9	0x3d06d542	0.032918222
10	0x3c16250a	0.009164104
11	0xbd048381	-0.032351974
12	0x3d229633	0.039694022
13	0xbaf0f212	-0.001838269
14	0xbc778456	-0.015107235
15	0x3d3682d5	0.044558365
16	0xbd47839d	-0.0487095
17	0xbd0bdb7b	-0.03414486
18	0xbd09d730	-0.033652484
19	0x3d45a57f	0.048253532
20	0x3d5711d9	0.052507255
21	0xbce7f309	-0.02831413
22	0xbc6365ed	-0.0138792815
23	0xbc3495b1	-0.011022017
24	0xbd251e50	-0.04031211
25	0x3bf55f00	0.0074881315
26	0xbc4e7da9	-0.012603202
27	0xbcdaf7e2	-0.026729528
28	0x3d02f47e	0.031971447
29	0xbcd2dd42	-0.02574027
30	0xbaa72d40	-0.0012754574
31	0x3d5b73a5	0.053577084
32	0xbd388337	-0.04504701
33	0xbd1dd9f8	-0.03853795
34	0x3cb9d1b3	0.022683
35	0x3cf3b503	0.029749399
36	0xbd352fea	-0.044235148
37	0x3d122c1e	0.035686605
38	0xbd59f215	-0.053209383
39	0x3c0051fe	0.007832048
40	0x3cf49d62	0.029860202
41	0x3cd23dd8	0.025664255
42	0xbc32af7f	-0.010906099
43	0x3c168fe6	0.0091895815
44	0xbbda9012	-0.0066700066
45	0xbd0c2737	-0.034217086
46	0xbc9529a5	-0.018208334
47	0xbd2a3a62	-0.041559584
48	0x3ced1ea8	0.028945282
49	0x3a567737	0.00081812165
50	0x3d29a41b	0.04141627
51	0xbcf3ab1c	-0.029744677
52	0x3cadd3e2	0.021219198
53	0x3bf3ef27	0.0074442807
54	0xbcc79ed3	-0.024367725
55	0x3c974f16	0.018470328
56	0xbd330b07	-0.04371169
57	0x3c24801d	0.01004031
58	0x3d40199e	0.04689943
59	0x3d0a58fc	0.03377627
60	0x3d627efa	0.055296876
61	0xbcdd40f6	-0.027008515
62	0xbd12f270	-0.035875738
63	0x3d429310	0.04750353
64	0xba969cb5	-0.0011490794
65	0xbd4b7673	-0.04967351
66	0xbd3c72b0	-0.046007812
67	0x3cb25da9	0.021773176
68	0xbd230774	-0.03980203
69	0x3d4a06ee	0.049323015
70	0xbd61fe64	-0.055174246
71	0xbc1f3ca6	-0.00971905
72	0xbd6086a3	-0.0548159
73	0x3cdd7170	0.02703163
74	0x3c9b9cf4	0.01899574
75	0x3ce1a26e	0.027543273
76	0xba996bce	-0.0011705102
77	0xbd223154	-0.039597824
78	0x3d2525fc	0.040319428
79	0x3d46b5c2	0.04851318
80	0x3a69a1a7	0.00089123327
81	0x3d1062d6	0.035250507
82	0xbc90048a	-0.01758029
83	0xbd02c7a1	-0.031928662
84	0x3d5827d3	0.052772354
85	0xbc1c3ff9	-0.009536737
86	0x3cda0cdf	0.026617466
87	0x3d314451	0.043278042
88	0xbd11f769	-0.03563634
89	0xbcfe69b4	-0.031056263
90	0xbacd39df	-0.0015657506
91	0xbd3e356b	-0.046437662
92	0x3d2409d7	0.040048447
93	0x3ce4076a	0.027835567
94	0xbc6dbcc3	-0.014510336
95	0xbce81465	-0.028330037
96	0xbbdb6000	-0.0066947937
97	0xbc42e7f1	-0.011896119
98	0xba99d25b	-0.0011735664
99	0x3d3ac0d7	0.045594063
100	0x3d33dd4e	0.043912224
101	0x3d3d391c	0.046197042
102	0x3c0a929a	0.008457804
103	0xbd512610	-0.05106169
104	0x3b28fe84	0.0025786469
105	0xbd36d7f3	-0.04463954
106	0xbc429dd4	-0.0118784495
107	0x3cff77b4	0.031185009
108	0x3d5a9e74	0.05337377
109	0xba5453e3	-0.00080996583
110	0x3c487b81	0.012236477
111	0xbd2d1d3f	-0.04226422
112	0x3c025158	0.007953964
113	0x3c782108	0.015144594
114	0x3d45d174	0.048295453
115	0xbc026fec	-0.007961255
116	0xbd1dd1ad	-0.03853004
117	0xbccf5134	-0.025307275
118	0xbbca6273	-0.006176287
119	0x3d6f33f0	0.05839914
120	0x3d4fe733	0.050757598
121	0x3d31c223	0.043398034
122	0x3d3c04cd	0.045903016
123	0x3cc03c3d	0.023466224
124	0x3d5760b1	0.052582446
125	0xbc94b2da	-0.01815169
126	0xbce68022	-0.02813727
127	0x3cccc471	0.024996014

conv.6.weight f4 [128]
0	0x3f7e9eb9	0.9946094
1	0x3f89a1f2	1.0752547
2	0x3f82e495	1.0226008
3	0x3f832551	1.0245763
4	0x3f802c91	1.00136
5	0x3f7ec8b8	0.9952502
6	0x3f7b45e7	0.9815354
7	0x3f839bba	1.0281899
8	0x3f81e665	1.0148436
9	0x3f7dd939	0.9915958
10	0x3f7eed0c	0.99580455
11	0x3f7ed942	0.9955026
12	0x3f7a707d	0.97827893
13	0x3f7b5663	0.9817869
14	0x3f70e64c	0.94101405
15	0x3f7ba991	0.9830561
16	0x3f825194	1.0181146
17	0x3f816552	1.0109046
18	0x3f708936	0.9395937
19	0x3f866262	1.0498774
20	0x3f807702	1.0036318
21	0x3f8022da	1.0010636
22	0x3f89b942	1.0759661
23	0x3f7b4271	0.98148257
24	0x3f832cea	1.0248082
25	0x3f89c47c	1.0763087
26	0x3f7bacad	0.9831036
27	0x3f7af9ce	0.9803742
28	0x3f82443f	1.0177077
29	0x3f756dd3	0.95870703
30	0x3f81d767	1.014386
31	0x3f7b3ac6	0.98136556
32	0x3f888719	1.0666229
33	0x3f7d1be5	0.9887069
34	0x3f87af1d	1.0600315
35	0x3f79f987	0.97646374
36	0x3f7697a0	0.9632511
37	0x3f89eeee	1.077604
38	0x3f76ae72	0.9635993
39	0x3f8ad861	1.0847284
40	0x3f7a8022	0.97851765
41	0x3f83b9c2	1.0291064
42	0x3f81e90d	1.0149246
43	0x3f83277a	1.0246422
44	0x3f7fda39	0.99942356
45	0x3f7b1f79	0.980949
46	0x3f7c250c	0.9849403
47	0x3f77ec40	0.96844864
48	0x3f7c37a0	0.98522377
49	0x3f79856d	0.97469217
50	0x3f816de1	1.0111657
51	0x3f7d4a0b	0.98941106
52	0x3f809191	1.0044423
53	0x3f70b854	0.9403126
54	0x3f8a61fc	1.0811152
55	0x3f8612cd	1.0474488
56	0x3f7dd9e1	0.9916058
57	0x3f7b4a72	0.9816047
58	0x3f83448d	1.0255295
59	0x3f82dd74	1.0223832
60	0x3f7c3b6d	0.98528177
61	0x3f790570	0.9727392
62	0x3f81f0cf	1.0151614
63	0x3f85166a	1.0397465
64	0x3f75e717	0.9605574
65	0x3f7d9be7	0.99066013
66	0x3f7b8793	0.98253745
67	0x3f78b4bc	0.9715078
68	0x3f81f1c0	1.0151901
69	0x3f7f0997	0.9962401
70	0x3f89a2d3	1.0752815
71	0x3f869400	1.0513916
72	0x3f7b76b0	0.9822798
73	0x3f7bf875	0.9842599
74	0x3f827762	1.0192683
75	0x3f7f0b04	0.99626184
76	0x3f8168d2	1.0110114
77	0x3f7c7e47	0.98630184
78	0x3f75b7b6	0.95983446
79	0x3f84a32d	1.0362297
80	0x3f7726d8	0.96543646
81	0x3f76d22a	0.96414435
82	0x3f7fd292	0.9993068
83	0x3f87ec7e	1.0619047
84	0x3f80597c	1.0027308
85	0x3f75bb1b	0.95988625
86	0x3f833059	1.024913
87	0x3f79f5bc	0.97640586
88	0x3f789349	0.9709974
89	0x3f7caebb	0.9870412
90	0x3f7bd22c	0.9836757
91	0x3f80ab28	1.0052233
92	0x3f7c38de	0.9852427
93	0x3f866828	1.0500536
94	0x3f7a4fbf	0.9777793
95	0x3f7e88d5	0.9942754
96	0x3f87880a	1.0588391
97	0x3f81cb3b	1.0140146
98	0x3f889a8f	1.0672168
99	0x3f7e76be	0.99399936
100	0x3f8257d8	1.0183058
101	0x3f8001e0	1.0000572
102	0x3f7a17b5	0.97692424
103	0x3f8406d1	1.031458
104	0x3f7e934c	0.9944351
105	0x3f8145c7	1.0099419
106	0x3f885f42	1.065407
107	0x3f761ed3	0.96140784
108	0x3f7e7d7c	0.99410224
109	0x3f80f4f6	1.0074756
110	0x3f8043db	1.0020708
111	0x3f86fe85	1.0546423
112	0x3f89b846	1.0759361
113	0x3f7e8b6a	0.9943148
114	0x3f779cbf	0.9672355
115	0x3f89d4b5	1.0768038
116	0x3f860d17	1.0472745
117	0x3f83c832	1.029547
118	0x3f817ab8	1.0115576
119	0x3f7c9cdb	0.9867684
120	0x3f7f62cf	0.99760145
121	0x3f7ae108	0.9799962
122	0x3f827121	1.0190774
123	0x3f810654	1.0080056
124	0x3f801deb	1.000913
125	0x3f7aa0cc	0.97901607
126	0x3f80b387	1.0054787
127	0x3f7e68a9	0.9937845

conv.6.bias f4 [128]
0	0xbc679011	-0.014133469
1	0xbd4d6284	-0.05014278
2	0xbd314e46	-0.043287538
3	0xbcd2e632	-0.025744531
4	0xbc3c3d93	-0.01148929
5	0xbd4d7b43	-0.05016638
6	0xbd1dc9c5	-0.0385225
7	0xbd4286a5	-0.04749169
8	0xbd354d47	-0.04426315
9	0xbd018148	-0.031617433
10	0xbda9a8aa	-0.08284123
11	0xbd481c92	-0.04885537
12	0xbd31e761	-0.04343355
13	0xbd379df9	-0.04482839
14	0xbd84b88d	-0.06480513
15	0xbd22f587	-0.039784934
16	0x3a7518d3	0.00093497074
17	0xbd912b14	-0.070882946
18	0xbd72e95f	-0.05930459
19	0xbd866344	-0.06561902
20	0xbd37d96d	-0.044885088
21	0xbc6f4046	-0.014602726
22	0xbd3fd7d7	-0.0468367
23	0xbd33749f	-0.04381239
24	0xbd090aae	-0.03345745
25	0xbda47225	-0.08029584
26	0xbcc8e677	-0.024523957
27	0xbd4bba9f	-0.049738523
28	0xbc749e2a	-0.014930287
29	0xbd706f49	-0.05869988
30	0xbd4cc641	-0.049993757
31	0xbcf31de0	-0.029677331
32	0xbcd18119	-0.025574254
33	0xbd4d53db	-0.0501288
34	0xbd74138a	-0.059588946
35	0xbcdee7b5	-0.027210096
36	0xbd1704ea	-0.03686992
37	0xbd3134e5	-0.043263335
38	0xbd6d4616	-0.057928167
39	0xbd6d3750	-0.05791408
40	0xbd832411	-0.064033635
41	0xbd8edcf0	-0.06975734
42	0xbd83b619	-0.06431217
43	0xbd300a54	-0.0429786
44	0xbdacbd1f	-0.084345095
45	0xbd90f5d2	-0.070781365
46	0xbd340696	-0.043951593
47	0xbd447e8a	-0.04797224
48	0xbc52da05	-0.012869363
49	0xbd0f9ce6	-0.03506174
50	0xbd9a08c4	-0.07521203
51	0xbd1558d4	-0.036461666
52	0xbd90a9af	-0.070636146
53	0xbd834eef	-0.0641154
54	0xbd3b5806	-0.045738243
55	0xbd4b0609	-0.049566302
56	0xbcdb06ad	-0.026736582
57	0xbd3d881d	-0.046272386
58	0xbb1c7783	-0.0023874945
59	0xbb03c078	-0.0020103734
60	0xbce745b5	-0.028231481
61	0xbd338625	-0.043829102
62	0xbd8f25ba	-0.06989618
63	0xbcb22820	-0.021747649
64	0xbd9ac4b4	-0.075570494
65	0xbd54e459	-0.05197558
66	0xbd7213ac	-0.05910079
67	0xbd13fb0e	-0.036128096
68	0xbc373679	-0.011182421
69	0xbd37572e	-0.044760875
70	0xbd20ce09	-0.03925899
71	0xbd448ebf	-0.047987696
72	0xbc8981f8	-0.016785607
73	0xbd84ee5b	-0.06490775
74	0xbd2f4fee	-0.042800836
75	0xbd9ddedd	-0.077085234
76	0xbd8c3abf	-0.068471424
77	0xbd3e5612	-0.0464688
78	0xbd009b38	-0.031398028
79	0xbd1091bc	-0.035295233
80	0xbd45c0e8	-0.048279673
81	0xbd35d7f7	-0.044395413
82	0xbc8d581e	-0.017253932
83	0xbcd92441	-0.026506545
84	0xbd8e4621	-0.0694697
85	0xbd9d5e98	-0.07684058
86	0xbd4aadda	-0.049482204
87	0xbcff9459	-0.031198667
88	0xbda5b5a9	-0.080912896
89	0xbd63df34	-0.055632785
90	0xbd2bf705	-0.041983623
91	0xbd1acd78	-0.037793607
92	0xbd32207b	-0.043488007
93	0xbc3d9be4	-0.011572812
94	0xbd853601	-0.06504441
95	0xbcc7f237	-0.02440749
96	0xbc693ced	-0.014235717
97	0xbd2bbb59	-0.041926716
98	0xbcf6450f	-0.030062227
99	0xbc899073	-0.016792512
100	0xbcc39f22	-0.023879591
101	0xbd3eea50	-0.046610177
102	0xbd0eb2af	-0.034838375
103	0xbc7f2864	-0.015573595
104	0xbd2512d6	-0.040301166
105	0xbd296f4b	-0.041365903
106	0xbdbc37b5	-0.09190313
107	0xbd82bb3d	-0.06383369
108	0xbced5a3d	-0.028973693
109	0xbd1d123a	-0.03834746
110	0xbd7c7f6d	-0.06164496
111	0xbdb20c63	-0.08693769
112	0xbd284898	-0.041084856
113	0xbcc265c2	-0.023730163
114	0xbd7a9aad	-0.061182667
115	0xbdba546f	-0.09098136
116	0xbce75750	-0.028239876
117	0xbb7f67d5	-0.00389718
118	0xbcd51963	-0.026013082
119	0xbda1af2c	-0.078947395
120	0xbd4e54a1	-0.050373677
121	0xbd5fe29a	-0.054659463
122	0xbcb89d64	-0.022535987
123	0xbcc95753	-0.024577772
124	0x3c3aa3f5	0.011391629
125	0xbd1b5de3	-0.037931334
126	0xbd7ca266	-0.061678313
127	0xbbde4c7f	-0.0067840214

conv.6.running_mean f4 [128]
0	0x3e7f1273	0.24909382
1	0x3e911d4a	0.28342658
2	0x3d01e493	0.031712126
3	0xbf012431	-0.5044585
4	0x3f19562f	0.5989713
5	0xbf7e6160	-0.9936733
6	0xbf06b87c	-0.5262525
7	0xbf356a9d	-0.70865804
8	0xbe3717b5	-0.17880137
9	0xbf7d910a	-0.9904944
10	0xbf45c5e8	-0.77255106
11	0xbf7a5b3d	-0.9779547
12	0xbf0571e8	-0.5212693
13	0xbde666ca	-0.11250074
14	0x3cf20336	0.029542547
15	0xbef88462	-0.485385
16	0xbef48d83	-0.47764215
17	0xbe28f365	-0.16499098
18	0xbf06cc2b	-0.52655286
19	0xbf0dcaf8	-0.5538783
20	0xbf59d054	-0.8508351
21	0xbea017cc	-0.31268156
22	0xbf410d46	-0.7541088
23	0xbdc52210	-0.096256375
24	0xbfb2fdf2	-1.3983748
25	0x3ea2a0ff	0.31763455
26	0xbe65478f	-0.22390579
27	0xbf0ff44b	-0.56232136
28	0xbe1f6bf7	-0.15568529
29	0xbf4398ec	-0.76405215
30	0xbe878145	-0.26465812
31	0xbf649c28	-0.89300776
32	0xbf782465	-0.96930534
33	0x3f82722b	1.0191091
34	0xbf2f6803	-0.68518084
35	0x3d144e64	0.03620757
36	0xbebce6e9	-0.3689492
37	0x3ef5b04e	0.47986072
38	0xbea69b35	-0.3254029
39	0x3e03cc13	0.12870817
40	0x3e8db0c1	0.27673915
41	0x3f572d0e	0.84053123
42	0xbe82df99	-0.25561216
43	0xbd2e38eb	-0.04253475
44	0x3e739d32	0.23790434
45	0x3d88956d	0.06669126
46	0xbe8577e9	-0.26068047
47	0xbf3516ba	-0.70737803
48	0xbf3cb372	-0.7371131
49	0xbf530665	-0.8243163
50	0xbe3121a9	-0.17297997
51	0xbea72996	-0.32648915
52	0xbefd1b6f	-0.49434993
53	0xbe6eb05c	-0.23309463
54	0xbfa2274b	-1.2668241
55	0xbf5ca2be	-0.86185825
56	0x3d721f25	0.059111733
57	0x3d9db5c7	0.07700687
58	0xbec88618	-0.39164805
59	0xbc9fddbf	-0.019514916
60	0xbf141def	-0.57858175
61	0xbece371b	-0.40276417
62	0x3e3bd786	0.18343934
63	0x3f2d6de0	0.6774578
64	0xbf456a06	-0.77114904
65	0xbe5a1abb	-0.2129926
66	0x3f3ff6bc	0.7498586
67	0x3e68c518	0.22731435
68	0xbee55a84	-0.4479562
69	0x3f67221b	0.90286416
70	0xbfa42a65	-1.2825438
71	0x3f377e38	0.7167697
72	0xbf76d566	-0.9641937
73	0xbec77831	-0.38958886
74	0x3f7b1bc7	0.9808926
75	0xbe953760	-0.2914381
76	0xbef39fa2	-0.47582728
77	0xbf6afd2a	-0.9179255
78	0xbf4b8e87	-0.79514354
79	0xbef4f907	-0.47846243
80	0xbf61d0d2	-0.8820926
81	0xbeafeb09	-0.34359005
82	0xbf80c043	-1.0058674
83	0xbf16279c	-0.5865419
84	0x3e97b7af	0.29632327
85	0xbd528797	-0.05139884
86	0x3ee0def3	0.43920097
87	0x3d5d55c3	0.054036867
88	0xbec9f438	-0.39444137
89	0xbf356947	-0.70863765
90	0x3ed72ec3	0.42027864
91	0x3e2667b7	0.16250502
92	0xbb404191	-0.0029335956
93	0xbf275688	-0.6536641
94	0xbd0e1796	-0.034690462
95	0xbdb6cd66	-0.089258954
96	0x3f0313e5	0.5120223
97	0xbf776379	-0.9663616
98	0xbf877fb2	-1.0585845
99	0xbe8788f9	-0.2647169
100	0x3f18a1f6	0.5962213
101	0xbf26e287	-0.65189403
102	0xbeee298c	-0.46516073
103	0x3f008678	0.50205183
104	0xbf44ca40	-0.7687111
105	0xbf694451	-0.9111987
106	0xbfabee4b	-1.3432096
107	0xbec75627	-0.38932917
108	0xbf1dd048	-0.61645937
109	0x3f8b349c	1.087543
110	0x3f5b2ccf	0.8561525
111	0xbfa8b89d	-1.318134
112	0x3d2e2d53	0.042523693
113	0xbc69a812	-0.0142612625
114	0xbe376595	-0.17909844
115	0x3f13a85c	0.5767877
116	0x3f2ef344	0.68339944
117	0xbcdb4f4e	-0.026771214
118	0x3e09def0	0.1346395
119	0xbeb0d659	-0.34538534
120	0xbf007b0c	-0.50187755
121	0xbe1fb4a9	-0.1559626
122	0x3e08f2d8	0.13373888
123	0xbf7aa911	-0.97914225
124	0xbf349d9e	-0.70553005
125	0xbecb4b56	-0.39705914
126	0x3e1f48ea	0.15555158
127	0xbe0f1ad0	-0.13975072

conv.6.running_var f4 [128]
0	0x3f0952b6	0.5364183
1	0x3f423c94	0.75873685
2	0x3ecc6404	0.39920056
3	0x3f0db085	0.5534747
4	0x3f239bb0	0.63909435
5	0x3f9f5825	1.2448775
6	0x3f16d1c4	0.58913827
7	0x3e7c7030	0.24652171
8	0x3f0fafa7	0.561274
9	0x3f9f5320	1.2447243
10	0x3f1af33e	0.6052741
11	0x3f712041	0.9418984
12	0x3f68d680	0.909523
13	0x3f334903	0.7003328
14	0x3ed355bd	0.4127635
15	0x3f29d75d	0.66344243
16	0x3f2135c8	0.6297269
17	0x3ed06563	0.40702352
18	0x3f2969ce	0.6617707
19	0x3f188194	0.5957272
20	0x3eea0bb8	0.45712066
21	0x3ea291a0	0.31751728
22	0x3f959c92	1.1688406
23	0x3e9e56a6	0.30925483
24	0x3f23a8fc	0.63929725
25	0x3eec3e64	0.4614135
26	0x3f50eabd	0.8160818
27	0x3f45ba2f	0.7723722
28	0x3f4c9a47	0.7992291
29	0x3f599b3e	0.85002506
30	0x3dfb7f81	0.12280179
31	0x3f1bb8aa	0.6082865
32	0x3faf2b8e	1.3685167
33	0x3f1d30c9	0.61402565
34	0x3f15e034	0.5854523
35	0x3f7cf493	0.9881069
36	0x3e9e10b6	0.30872124
37	0x3f16466e	0.5870122
38	0x3f088ea6	0.53342664
39	0x3f0cc517	0.54988235
40	0x3f1c5091	0.61060435
41	0x3ef5cbf4	0.48007166
42	0x3f0501ea	0.51956046
43	0x3f757582	0.9588243
44	0x3f1b7d22	0.6073781
45	0x3fa0c280	1.2559357
46	0x3f942b3e	1.1575696
47	0x3f498588	0.7871938
48	0x3f20267a	0.6255871
49	0x3f182c12	0.59442246
50	0x3ee0eee6	0.43932265
51	0x3f018bdb	0.5060403
52	0x3edfdb9a	0.4372223
53	0x3f04c39f	0.51860994
54	0x3f453c37	0.77045006
55	0x3fab5383	1.3384861
56	0x3f1a2e1d	0.60226613
57	0x3f3420f3	0.70362777
58	0x3f40ae74	0.75266194
59	0x3ee42026	0.44555777
60	0x3f52ddd2	0.8236972
61	0x3ecf4235	0.404802
62	0x3ef8d590	0.48600435
63	0x3f62a173	0.885276
64	0x3fae86a2	1.3634837
65	0x3ecd4a69	0.40095833
66	0x3f55d980	0.83535004
67	0x3f410cce	0.75410163
68	0x3f363cfa	0.7118679
69	0x3f3aaac3	0.7291681
70	0x3fb2a633	1.395697
71	0x3f2ffa81	0.68741614
72	0x3f7ed084	0.9953692
73	0x3ee6dac7	0.4508879
74	0x3f2bfae1	0.67179686
75	0x3ec88ae7	0.39168474
76	0x3f11cf29	0.56956726
77	0x3f96f3f2	1.1793196
78	0x3f04262c	0.51620746
79	0x3ed84261	0.42238143
80	0x3fb0eda9	1.3822528
81	0x3f27263f	0.65292734
82	0x3f409abe	0.7523612
83	0x3f585c63	0.8451597
84	0x3ebcc525	0.3686916
85	0x3ef9e6e8	0.4880898
86	0x3ed41cd6	0.4142825
87	0x3ef875f9	0.48527506
88	0x3f21d82e	0.6322049
89	0x3f982dbf	1.1888961
90	0x3edf061e	0.43559355
91	0x3eb75594	0.35807478
92	0x3eeb0352	0.4590097
93	0x3f9f24c6	1.2433097
94	0x3ebdf6e6	0.3710243
95	0x3e72fe5c	0.23729843
96	0x3f6f05b2	0.93368065
97	0x3f04796a	0.51747763
98	0x3fb6421c	1.4238925
99	0x3fc5d000	1.5454102
100	0x3f45f14d	0.7732132
101	0x3f544b6b	0.8292758
102	0x3ed301e1	0.4121237
103	0x3f62a94e	0.8853959
104	0x3f161f99	0.58641964
105	0x3f728dc6	0.9474758
106	0x3f592190	0.8481684
107	0x3f236cd7	0.6383795
108	0x3f0e813f	0.55665964
109	0x3f2e364a	0.6805159
110	0x3f5bb0d2	0.8581668
111	0x3f7bd156	0.98366296
112	0x3f3a2540	0.7271309
113	0x3f82e405	1.0225836
114	0x3f20c8e8	0.6280656
115	0x3edc7f10	0.4306569
116	0x3f6e750b	0.93147343
117	0x3e774a96	0.24149546
118	0x3e7eb21e	0.24872634
119	0x3eda65cf	0.426558
120	0x3f4490ac	0.7678325
121	0x3f49de81	0.7885514
122	0x3ec9c17a	0.39405423
123	0x3f09e0ee	0.5385884
124	0x3f8bdbd7	1.0926465
125	0x3f204c85	0.6261676
126	0x3f15495a	0.5831505
127	0x3f4e1c51	0.8051196

conv.10.weight f4 [256, 128, 3]
0	0x3a8e6e65	0.001086664
1	0x3b3fad56	0.0029247603
2	0x3ce9d1b2	0.028542373
3	0x3cdc71c4	0.026909716
4	0xbd1bdc64	-0.038051978
5	0x3d109598	0.035298914
6	0x3c8cca6b	0.017186364
7	0x3d86b2c0	0.065770626
8	0x3cb76d3c	0.022390954
9	0xbd854d1a	-0.065088466
10	0xbc4d974a	-0.012548277
11	0xbcf9a4ed	-0.03047415
12	0x3bbd86a2	0.0057838717
13	0x3d532d37	0.051556792
14	0xbb1552fb	-0.0022785056
15	0xbab61ff7	-0.0013895024
16	0xbd770526	-0.060307644
17	0xbb9ef316	-0.0048507554
18	0x3c916ad9	0.017751144
19	0xbcac509a	-0.021034528
20	0xbd2637e9	-0.040580664
21	0xbc9532b7	-0.01821266
22	0x3d10337b	0.035205346
23	0xbd8962a1	-0.06708265
24	0xbbbccbdf	-0.005761608
25	0xbd176939	-0.036965583
26	0xbc30d044	-0.010791842
27	0x3d2f9faf	0.042876896
28	0x3c9a23bd	0.01881587
29	0x3cb0a3ce	0.021562483
30	0xbd1ce2dc	-0.038302287
31	0x3b9c1077	0.004762705
32	0x3c0feed9	0.008784973
33	0x3d352f3f	0.04423451
34	0x3cceeab8	0.025258407
35	0x3d23cca8	0.039990097
36	0xbd16a044	-0.036773935
37	0x3cd4365c	0.025904827
38	0xbd1430cc	-0.03617935
39	0x3d4d2237	0.050081458
40	0x3cde5df4	0.02714441
41	0xbc8e7979	-0.017391907
42	0x3ceb3f4c	0.028716706
43	0xbd2f95c8	-0.042867452
44	0x3c71b9b0	0.014753744
45	0x3c39a1d3	0.011330086
46	0x3c731867	0.014837361
47	0x3c32a9c8	0.010904737
48	0xbcae8c03	-0.021306997
49	0x3d98eef0	0.07467449
50	0xbd5d029e	-0.053957574
51	0xbced150e	-0.028940704
52	0x3ba8596d	0.0051376135
53	0x3b6d8bc5	0.003624664
54	0x3ae50b84	0.0017474745
55	0xbcfaf04c	-0.03063216
56	0x3a63abdc	0.0008684972
57	0xbd850244	-0.06494573
58	0xbd57fec3	-0.052733194
59	0xbdb18305	-0.08667568
60	0x3b609553	0.0034268692
61	0x3d18ff62	0.037352927
62	0x3cbcfd0c	0.02306988
63	0x3c125704	0.008931879
64	0xbd4c0ccc	-0.04981689
65	0xbc50604c	-0.012718271
66	0x3cf9748f	0.030451087
67	0x3c701493	0.014653343
68	0xbca03e7c	-0.019561045
69	0x3cac77d9	0.021053242
70	0xbc741b80	-0.014899135
71	0x3c347012	0.011013048
72	0x3cd04b74	0.025426604
73	0x3d33b246	0.043871187
74	0xbd3a67d4	-0.045509174
75	0x3c07bd12	0.008284824
76	0xbd0e534a	-0.0347474
77	0xbd898d87	-0.06716447
78	0x3b85832b	0.0040744743
79	0x3d64a7dc	0.055824146
80	0xbc7add53	-0.015311557
81	0x3c21aed9	0.009868347
82	0xbd2dca71	-0.04242939
83	0xbbe2d2d1	-0.006922104
84	0x3cdfa803	0.027301794
85	0x3d556153	0.05209477
86	0x3aae51bc	0.0013299505
87	0x3c548444	0.012970988
88	0xbcacc3ab	-0.021089396
89	0x3c87dbf7	0.01658438
90	0xbb8da0b2	-0.004322135
91	0x3d6c6b9c	0.05771981
92	0xbc3d9095	-0.011570116
93	0xb9b4507b	-0.00034392238
94	0xbcbfeb52	-0.02342764
95	0xbcc65ac8	-0.02421321
96	0x3cd975f5	0.026545504
97	0xbc22f464	-0.009945963
98	0xb9ef581b	-0.00045651276
99	0xbd2be2f7	-0.041964497
100	0x3d1c7461	0.038196925
101	0xbcf478ce	-0.02984276
102	0x3a958666	0.0011407852
103	0xbc1cc493	-0.009568351
104	0xbdaeab86	-0.08528809
105	0x3c963c94	0.018339433
106	0x3d2a49d9	0.041574333
107	0xbcbcc07c	-0.023041002
108	0xbd60b33b	-0.054858427
109	0xbbedb314	-0.007254014
110	0xbca133a4	-0.019677944
111	0x3c2a8253	0.010407048
112	0xbcfb7e25	-0.030699799
113	0xbcc5713d	-0.024101848
114	0xbca449a1	-0.02005464
115	0xbcd220c1	-0.025650384
116	0x3d5afac6	0.053461812
117	0xbd06ed9f	-0.032941457
118	0xbd1f949c	-0.038960084
119	0xbd1721c5	-0.03689744
120	0xbcdd3f99	-0.027007865
121	0xbd52461f	-0.051336404
122	0x3d01a237	0.03164884
123	0xbd14db5e	-0.036342017
124	0x3d17e791	0.037086073
125	0xbd634cd6	-0.0554932
126	0xb810303a	-3.437719e-05
127	0xbd24a6b4	-0.040198043
128	0xbcdd215f	-0.026993452
129	0xbd43b116	-0.047776304
130	0xbabf08f7	-0.0014574815
131	0x3c2fe23a	0.010735089
132	0x3a7c7113	0.00096298865
133	0xbd7989da	-0.06092248
134	0xbd1eefb1	-0.038802806
135	0xbccb40bb	-0.02481114
136	0x3d25d507	0.04048636
137	0xbcb986c7	-0.022647275
138	0xbd189e0f	-0.03726011
139	0x3d087d47	0.0333226
140	0x3c3f5f94	0.011680502
141	0xbc0af55d	-0.008481351
142	0xbca0188b	-0.019542953
143	0xbd090c9b	-0.033459287
144	0xbcf587b0	-0.029971927
145	0x3d77bff6	0.060485803
146	0xbd214713	-0.039374422
147	0x3d42bbf3	0.047542524
148	0xbd320774	-0.04346414
149	0x3d2f0377	0.042727914
150	0xbb20ed82	-0.0024555628
151	0xbd79b097	-0.060959425
152	0x3cd79654	0.0263168
153	0x3cf55458	0.029947445
154	0xbd70c744	-0.058783785
155	0x3ce9532f	0.028482048
156	0x3cc063ed	0.023485148
157	0xbd0c9164	-0.034318343
158	0x3ade97fd	0.0016982552
159	0x3b3b431f	0.0028573943
160	0x3c818af4	0.015813328
161	0x3c035edc	0.008018222
162	0x3cd50719	0.026004361
163	0xbd51b599	-0.051198576
164	0x3b263e95	0.0025366892
165	0x3d007021	0.031356934
166	0x3b841ff5	0.00403213
167	0xbc60d419	-0.013722443
168	0xbcbeaa71	-0.023274632
169	0xbc8ab738	-0.016933069
170	0x3d383c41	0.044979338
171	0xba5a4e0d	-0.00083276705
172	0x3d4aa2aa	0.049471535
173	0xbce3ee6b	-0.027823647
174	0x3d33e078	0.043915242
175	0x3bd61e79	0.0065343943
176	0xbd005f0c	-0.031340644
177	0xbd6a264c	-0.05716543
178	0xbc72ae3e	-0.01481205
179	0xbd665879	-0.056236718
180	0xbd20bfc4	-0.039245382
181	0x3d2f9aa5	0.04287209
182	0x3c6ab06e	0.014324291
183	0xbb9d253f	-0.0047957
184	0x3d2e292f	0.042519744
185	0xbcc7be11	-0.024382623
186	0x3c2037cf	0.009778931
187	0x3c939667	0.018016053
188	0xbd48b2bc	-0.04899858
189	0xbd1354c0	-0.035969496
190	0x3d7a0b1f	0.061045762
191	0xbca54031	-0.02017221
192	0xbb900535	-0.004395152
193	0xbc67afb6	-0.014141014
194	0xbd80e0c6	-0.06292872
195	0x3cac0c83	0.02100206
196	0x3d3785be	0.04480528
197	0xbd568ee2	-0.052382357
198	0x3d4164f6	0.047215424
199	0xbc796fad	-0.0152243795
200	0xbc584d6d	-0.0132020535
201	0x3c2bb97b	0.010481234
202	0xbc02b4a1	-0.007977636
203	0xbd30417c	-0.0430312
204	0x3d06c7ac	0.032905266
205	0x3d2f9a28	0.042871624
206	0x3c4fd3b5	0.012684752
207	0x3d2feb32	0.04294891
208	0xbd366260	-0.04452741
209	0x3d3a67db	0.0455092
210	0xbc75e2c2	-0.015007677
211	0x3c125e50	0.008933619
212	0x3cc47ac2	0.023984317
213	0x3d250351	0.040286366
214	0xb82b9862	-4.0911495e-05
215	0x3cba9f50	0.022781044
216	0xbd554275	-0.05206533
217	0x3cb87695	0.022517482
218	0xbcbc8de0	-0.02301687
219	0x3d125814	0.03572853
220	0xbc7c490f	-0.015398278
221	0xbbd4d53b	-0.0064951456
222	0x3c87de20	0.01658541
223	0xbcb86242	-0.02250779
224	0x3d2e0d0b	0.042492907
225	0x3c765be5	0.015036558
226	0x3c817860	0.01580447
227	0xbd3198a4	-0.04335846
228	0xbd5baf55	-0.053634007
229	0xbd222640	-0.03958726
230	0xbc563217	-0.013073466
231	0xbd394d20	-0.045239568
232	0x3d4ad3a9	0.04951826
233	0xbd3ad9ca	-0.045617856
234	0xbbd2fc70	-0.0064387843
235	0x3c57e842	0.013177933
236	0xbb285491	-0.002568517
237	0x3c045de3	0.008079025
238	0x3a45e07b	0.0007548404
239	0xbdb229ee	-0.08699404
240	0x3d62e3ac	0.055392906
241	0x3cbf565c	0.023356609
242	0x3be67b76	0.0070337607
243	0xbd3ead7a	-0.04655216
244	0xbd184014	-0.037170485
245	0x3d86b303	0.065771125
246	0x3c879cf8	0.01655434
247	0x3d4e44b6	0.050358497
248	0x3aa889ec	0.0012858487
249	0x3c6e6e6a	0.014552692
250	0x3cdfd0a1	0.027321162
251	0x3cb537e9	0.022121387
252	0xbd71d8b2	-0.059044547
253	0xbca18f9c	-0.019721799
254	0xbd83e3df	-0.06439947
255	0xbd054d88	-0.032544643
