output/electricity_cnn_20260221_233600/checkpoints/model_best.pt (torch, 767330 bytes, 23 tensors)

conv.0.weight f4 [64, 15, 7]
00000000: 933b ad3d ee7f d8bc bedb 593d d465 b43d
00000010: 4a33 24bd 5897 213c 368f f2bc a275 5ebd
00000020: f246 76bd d0df 0f3d 6de2 6ebd 13ae e4bc
00000030: 9233 f3bb c568 203d cbbc 1fbd 63f0 9e3d
00000040: d39f 35bd b1e8 acbd 887b 9ebd d462 763d
00000050: 2636 66bc b14e e83b 6278 54bd 91dd 28bb
00000060: efaa cabd fba6 533b 992f d3bd 516c 253c
00000070: 5916 e13c f9e8 6cbd 11ee 553d 70a4 eabc
00000080: 3f4a c53b b82f 50bd e58d 7cbd b07f 6f3d
00000090: 2f2e 843c aa9b 543d 4f02 b9bd 6a0f 58bd
000000a0: 0e21 fe3b a6cd 1d3d eaec 80bd 71d9 a33c
000000b0: f7d5 f6bb df07 d6ba 1053 423d f592 3cbd
000000c0: 4a9a 013d 311f 25be 349e adbd 14e9 cabd
000000d0: d299 f5bd 42fc 1ebe 89c6 14be c9ea 9abd
000000e0: b638 863d 4a9d 04bd 557f 4bbd 43a8 f2bc
000000f0: ea7e e2bc 02e4 48bc 2a7d b23d ec9b a43c
00000100: 45e4 0abd 9ccb db3c e9ee 5e3d a09b 5abd
00000110: 5d0b 873d 91e8 a53d cbae 453b 0b24 8fbd
00000120: e1b4 fdba 44b6 6cbd 546c b73d 9d4e 86bc
00000130: 2f2d 1b3d 8c2a a8bd 0f3a b6bd 4c3c 1e3d
00000140: b895 dcbd a66b 483b 0829 2d3c a5c4 8c3d
00000150: 987d 7e3c 622f ce3c 1b2f 563d a6d8 db3d
00000160: 0f9c 9c3d 789f 783d 2be6 763c bc07 cebd
00000170: a294 4bbd 8a5c cc3c 1c92 693d bec9 94bd
00000180: 7bcf ad3c 97e8 9c3d 4798 18bd 9fd4 b33d
00000190: 5e6b 913d db57 bbbd cede 583d 873c 243d
000001a0: fc07 18bd be12 973d 4a3c 683c 0c8f a13d
000001b0: 637c 183d 18d4 c13b 0c50 7cbb f06b 193c
000001c0: ef1b d9bc 65c1 5dbd 8b76 8ebc cede 97bd
000001d0: 4ad7 77bd c6d0 af3d 3c13 9d3d ad91 83bc
000001e0: e325 713d 711d 9c3c 9566 2a3d 3b9f c8bc
000001f0: e200 5ebd afdd abbd 0b27 9ebd 82f9 e03a
00000200: 3d1d cebd c973 eabc ac11 12bd 91f0 33bd
00000210: aa59 803d 9a36 8dbd e8b9 21ba 7a04 7f3d
00000220: fafb 01bd ed4c 5cbc c2de 4abd c27e 323b
00000230: e014 a3bd 9bc6 a1bd ae34 c0bd ad3a 973d
00000240: 85df 4cbd c5d1 feb9 8875 353d 06b0 a53d
00000250: b491 41bd 8977 98bd f951 493d eac0 d93d
00000260: 23d0 28bd 4216 81bd ba5b 243d 1c71 c63c
00000270: 175f 51bd 4cf5 103d 467d 503d 41be c73c
00000280: f62b 19bc 93c7 a33c c7d4 f13d 65f9 913d
00000290: e30a 0c3e 3af4 193e e71c 873d 5772 5739
000002a0: 5e17 46bd 5c24 94bd 2599 023d a845 8dbd
000002b0: ded7 cb3d b32b df3b da25 a73b a541 dd3b
000002c0: cd1b 513d 101c a43d fb14 a83c c5bd 99bc
000002d0: a79b 673c ad42 07bd 74ee 833d 52c0 4cbd
000002e0: 6f7b c7bd 736c 65bd 5aee d8bd 63fb 84bd
000002f0: 96e2 6e3d 5db2 933d ba21 babc ea62 62bd
00000300: 9d0d 40bd 1e77 ec3b 8fc4 823d 8a85 b53d
00000310: 07dd c7bc ae11 4ebc 5279 e63c ce01 13bd
00000320: fd2c 9ebd aa72 b03d f995 08bd 2273 66bd
00000330: 06ca c1bd f2d3 b5bd 0b96 9dbd e5ee 5fbd
00000340: 069e 123d 3e51 94bd 6dc0 ac3c 1c18 31bd
00000350: d619 0a3d 1c6a a23d 408e 80bd 363e 6c3b
00000360: 547c 323d 77bf aabd 8e23 533c 079e 4a3d
00000370: 1e57 1fbc 6cc9 c13d b099 0c3d 3e77 3fbd
00000380: ee5d b2ba 535f 9dbd 67f9 8dbd 61c1 34bd
00000390: af0d 773d 333e a93d 9017 bcbd 4ed5 a53d
000003a0: 5764 98bd 7d4e 27bd 98f6 a8bd e949 7b3d
000003b0: 0b5d 29bd 82e4 fc3b 9f90 6f3d f3c2 183c
000003c0: 09a8 3d3d 4cd6 02bc ebc4 2f3c 5bff 9a3d
000003d0: 3766 bebd 7c69 4f3d 8e2b 82bd 6e57 8abc
000003e0: 216b 993d 5533 8b3d 22b5 7fbb 8f43 f4bc
000003f0: 28c2 ca3d b7ae 8ebd eba9 31bd 2248 a6bd
0.084586285 -0.02642819 0.053188078 0.08808485 -0.040087976 0.009862743 -0.029609304 -0.054311402
-0.060126252 0.035125554 -0.058321405 -0.027915036 -0.007421919 0.039162416 -0.038998406 0.07760694
-0.044341873 -0.0844282 -0.077384055 0.060152844 -0.014050996 0.007089459 -0.05187262 -0.002576683
-0.09895884 0.0032295573 -0.10311813 0.010096625 0.027476477 -0.057839368 0.05222899 -0.028642863
0.0060208137 -0.05082676 -0.06165876 0.05847138 0.016135303 0.051906265 -0.090336435 -0.052749075
0.0077554053 0.0385262 -0.06295188 0.020001145 -0.007532831 -0.001632925 0.047442496 -0.046038587
0.031641282 -0.1612518 -0.084774405 -0.099077374 -0.119922295 -0.15525916 -0.1452886 -0.07564313
0.065537855 -0.032376565 -0.04968198 -0.029621249 -0.027648408 -0.012261393 0.087152794 0.02009388
-0.0339091 0.026830487 0.05442706 -0.05337107 0.06593964 0.08100999 0.0030164 -0.069892965
-0.0019356274 -0.05779101 0.08956209 -0.016394908 0.037884887 -0.0821124 -0.088977925 0.038631722
-0.10770744 0.0030581742 0.010568865 0.068734445 0.015532874 0.025169078 0.052291017 0.10734682
0.07646953 0.060698956 0.015069525 -0.10060069 -0.049702294 0.02494647 0.057024106 -0.07265042
0.021217098 0.076615505 -0.037254598 0.08780789 0.07100557 -0.091476165 0.052946858 0.040096786
-0.03711699 0.07376622 0.01417453 0.07888612 0.037228 0.005915176 -0.003849986 0.009364113
-0.026502578 -0.054139514 -0.01739051 -0.074155435 -0.06050805 0.08584742 0.07669684 -0.016060675
0.058874022 0.019057008 0.041601736 -0.02448999 -0.05420006 -0.08391892 -0.077222906 0.0017164203
-0.100641705 -0.028619664 -0.035661384 -0.043930594 0.06267102 -0.0689518 -0.0006169365 0.06226013
-0.031734444 -0.013446075 -0.049528845 0.0027236198 -0.07962966 -0.07899209 -0.09385048 0.073842384
-0.050017852 -0.00048602946 0.04430154 0.080902144 -0.047258094 -0.074446745 0.04915044 0.106324986
-0.04121412 -0.063030735 0.04012654 0.024223857 -0.051116075 0.035390183 0.05090072 0.024382712
-0.00934886 0.019992625 0.11808162 0.07127646 0.13676028 0.15034571 0.065973096 0.00020546593
-0.04836213 -0.072334975 0.03188433 -0.068980515 0.09953283 0.0068106293 0.005100948 0.00675221
0.051051904 0.08013165 0.020517817 -0.018767247 0.0141362315 -0.03302257 0.06441966 -0.0499881
-0.0974034 -0.05601163 -0.10592337 -0.06493261 0.058321558 0.072117545 -0.02272116 -0.055270113
-0.046887983 0.0072163483 0.06385147 0.08863361 -0.024397386 -0.012577457 0.028134022 -0.035890393
-0.077234246 0.086156204 -0.03334615 -0.056262143 -0.09462361 -0.08878316 -0.07694634 -0.054671187
0.035795234 -0.07242058 0.02108785 -0.043235883 0.033716045 0.07930395 -0.06277132 0.0036047823
0.0435756 -0.083373 0.012886895 0.049467113 -0.00972536 0.09462246 0.034326255 -0.046744578
-0.0013608315 -0.07684197 -0.06932335 -0.044129733 0.060315784 0.08263817 -0.09184182 0.08097325
-0.07441013 -0.040846337 -0.08250159 0.061349783 -0.0413485 0.00771767 0.05848753 0.009323823
0.04630283 -0.007985663 0.010728101 0.075682364 -0.0929684 0.050637707 -0.06355964 -0.016887393
0.07491136 0.067969 -0.0039017876 -0.02981737 0.099003136 -0.06966918 -0.043374937 -0.08119227

conv.0.bias f4 [64]
00000000: e055 993d 68b9 98bb 4f10 463d e29b 1dbc
00000010: c47b 21bc b57c 9abd a614 62bc 864d 213d
00000020: 9801 dbbb 7687 95bd dcbe 8bbd 1c99 bbbc
00000030: 79e0 8ebd 6b8d 88bd 70fe 993d 104b 9bbd
00000040: 47e6 663c d3a9 843d 47d7 aabd 612d 2ebd
00000050: 7c54 943d 7e9c 9f3c 9954 f93c 0075 25bd
00000060: 0afd 89bd 40c7 0b3c a679 d13c 46ba 293d
00000070: a0c8 193d 52b6 d8bc 0475 73bc ed9c 9c3d
00000080: 5169 ad3d 91c9 223d 6333 29bc c4ab a5bd
00000090: 9445 02bd 647e 913d 8348 18bc ef8c c1bd
000000a0: 2979 c13d 7103 92bd 2d6a c33d 656e 86bd
000000b0: 9191 42bd d422 a63d d623 c83c 6dbd 533b
000000c0: 5b90 083d 299c 01bd 2ccc c03d 7ca6 883c
000000d0: e462 1dbd 89bf 29bd 18c5 3e3d 6e54 2ebd
000000e0: 5a48 f2bc a2a9 83bd 2434 863d d414 95bc
000000f0: 6258 753d dffc c13d 6df2 cc3c 5c04 d5bb
0.074870825 -0.004660774 0.048355397 -0.009619685 -0.009856168 -0.07543317 -0.013798868 0.039380573
-0.0066835396 -0.07301228 -0.06823513 -0.022900157 -0.069764085 -0.06667598 0.07519233 -0.075826764
0.014092988 0.06477704 -0.08341842 -0.042523745 0.072426766 0.019483801 0.030435847 -0.040394783
-0.067377165 0.008531392 0.025570702 0.04143741 0.037544847 -0.026454125 -0.014859442 0.07647119
0.08467353 0.03974301 -0.010327193 -0.08089402 -0.031804636 0.07104185 -0.009294632 -0.09450709
0.094469376 -0.07129563 0.09541736 -0.06564025 -0.047502104 0.08112112 0.02443115 0.0032308951
0.033340793 -0.031643067 0.09413943 0.016680948 -0.038424388 -0.041442428 0.046574682 -0.042560987
-0.029575516 -0.06428839 0.06552914 -0.018198408 0.05989874 0.094720595 0.025017941 -0.006500764

conv.1.weight f4 [64]
00000000: b69c 6c3f 35cb 663f 16c1 6d3f 6964 733f
00000010: 4c79 823f 6d16 733f 9139 763f b647 803f
00000020: 2fd3 6d3f c7e3 753f af9d 923f 8ac9 5f3f
00000030: 4107 853f 660d 853f c4da 743f 805d 793f
00000040: 0376 713f 2730 7b3f a0e3 743f 0c3a 693f
00000050: 336f 7e3f c1c4 8c3f 634d 803f 9566 743f
00000060: 3d1a 803f 9c7a 7d3f 7d58 773f 2ee9 793f
00000070: b70e 923f f2df 7f3f 31b0 813f 32d7 663f
00000080: 7c55 883f d10c 773f f960 733f 123c 7c3f
00000090: 939d 783f 79da 703f 2584 8c3f b3b5 6c3f
000000a0: fbcb 8b3f b34e 823f f61b 753f 06be 793f
000000b0: e15a 6b3f f008 833f 13dd 873f c36e 8b3f
000000c0: 4638 733f 1233 873f 997c 7f3f 9315 803f
000000d0: d2e8 823f 9fa5 8d3f 8290 6a3f 3019 723f
000000e0: 08f1 7e3f e12a 773f 122b 7f3f d499 833f
000000f0: e8e9 763f 86d4 773f cf25 5a3f ab42 8e3f
0.9242662 0.9015382 0.9287275 0.9507509 1.0193267 0.94956094 0.9618159 1.0021884
0.92900366 0.96050686 1.1454371 0.874169 1.0392839 1.0394714 0.9564631 0.97408295
0.94320697 0.9812035 0.9565983 0.911042 0.99388427 1.0997545 1.0023617 0.9546903
1.0008007 0.9901521 0.966194 0.9762143 1.1410741 0.9995109 1.0131894 0.9017211
1.0651088 0.9650393 0.95069844 0.9852916 0.9711544 0.9408336 1.0977827 0.9246475
1.0921625 1.0180267 0.9574579 0.9755558 0.91935545 1.0237103 1.0614341 1.0893177
0.9500774 1.056246 0.99799496 1.0006584 1.0227301 1.1066169 0.9162675 0.94569683
0.99586535 0.96549803 0.99675095 1.028132 0.9645066 0.9680866 0.8521394 1.1114095

conv.1.bias f4 [64]
00000000: 074b dabd 0de4 7dbd 0952 5ebd bc5a 9abd
00000010: 79eb cabc 16bc a3bd c246 adbc f4b9 92bc
00000020: 37cb 6abd 2f5c a3bd ff34 8ebb 5b55 a3bd
00000030: fc84 02bb c6bb 4dbd 5743 81bd ffa4 cfbc
00000040: e4c4 a9bd 5acf 13bd 7220 80bd 6bf8 c8bd
00000050: 1c01 21bd 069d 153c 6b08 fbbc 5792 86bd
00000060: 9b0a 6abc 6180 57bd 8f39 73bd b5ed 1fbd
00000070: 85d0 593d c5b4 08bd 9492 23bd d490 92bd
00000080: c93e 01bb 888f 33bd 2b32 01be 1cd2 69bc
00000090: 78db a4bd 2ad1 98bd 7e84 e33b 0826 71bd
000000a0: 9261 863b 6297 19bd eba1 57bd 7a2b 55bd
000000b0: 7ec8 1bbd 4abb 2cbd dc6c c63b bc6f 933c
000000c0: a762 0dbd 8f7c 6fbd fde3 75bc e16d cb3b
000000d0: f16d 86bc 6a8f 6ebc 1710 e8bd 2cb0 1bbd
000000e0: 9d49 4abd 5249 6ebd 197f 24bd 088d 5abd
000000f0: 410c 75bd d899 e2bc bdc5 28be ccc8 1dbd
-0.106588416 -0.061985064 -0.054277454 -0.075368375 -0.024770485 -0.07994859 -0.021151904 -0.017910935
-0.057322707 -0.07976567 -0.0043398137 -0.07975265 -0.001991569 -0.050227903 -0.06311672 -0.025347231
-0.08289507 -0.036086418 -0.062561885 -0.09813007 -0.0393077 0.009131676 -0.030643662 -0.06570881
-0.014284755 -0.052612666 -0.059381064 -0.039045054 0.053177375 -0.03337552 -0.03993471 -0.0715653
-0.001972126 -0.043838054 -0.12616794 -0.014271285 -0.08049673 -0.0746177 0.0069432845 -0.05887416
0.0041009868 -0.037497886 -0.05264465 -0.052043416 -0.038033 -0.0421708 0.0060554575 0.017997615
-0.03451791 -0.058468398 -0.01500797 0.006208167 -0.016409846 -0.01456056 -0.11331194 -0.038009807
-0.04938661 -0.058175392 -0.040160272 -0.053357154 -0.05982614 -0.027661249 -0.16481681 -0.038521573

conv.1.running_mean f4 [64]
00000000: f6f5 9c3d 6dce 5c3a 6142 4a3d 92fb 69bc
00000010: 3e2f 23bc 42f8 a3bd 9b20 7fbc 7f23 1b3d
00000020: 5af8 afbb a97c 93bd beb7 98bd d47b adbc
00000030: 8ab6 95bd c9f9 94bd b1f7 9e3d 30d4 98bd
00000040: 18a0 953c 1c8c 7a3d e23e a4bd 77d9 16bd
00000050: 3afa a13d 1a24 6f3c 7673 f23c f0a1 12bd
00000060: ecf1 94bd f7f4 233c 13aa f23c d8ef 1b3d
00000070: a99f 083d 27a5 ccbc 407a 40bc 8499 9e3d
00000080: 98ec a03d e87f 0d3d 53c2 45bc a09b a4bd
00000090: b20a 12bd bc00 933d da00 3dbc 509b c2bd
000000a0: a108 b63d b198 95bd bc8e cc3d 91f2 92bd
000000b0: 99a7 29bd b43c a23d c1cd 873c affb 0cbc
000000c0: 890a e63c 8806 15bd d799 c63d cc8b 5a3c
000000d0: 05d0 2bbd b872 38bd 31e3 493d df59 3fbd
000000e0: 18d6 02bd 076c 91bd 0e4b 853d 46a9 5dbc
000000f0: 5b05 6d3d ea07 be3d 420c 063d 7afc 2bbc
0.07664101 0.0008423094 0.04937971 -0.01428117 -0.009959994 -0.08006336 -0.015571739 0.03787565
-0.005370182 -0.072015114 -0.07456921 -0.02117721 -0.07310207 -0.07274205 0.07762087 -0.074623466
0.018264815 0.061168775 -0.080198064 -0.036828484 0.07909055 0.01459601 0.029596072 -0.035798967
-0.072727054 0.010007135 0.029622113 0.03807053 0.03335539 -0.024981095 -0.011747897 0.077441245
0.07857627 0.03454581 -0.012070256 -0.080374956 -0.03565473 0.071778744 -0.011535848 -0.0950228
0.088883646 -0.07304514 0.09988162 -0.07175172 -0.0414196 0.079217345 0.016577603 -0.008604928
0.028081195 -0.03638318 0.09697311 0.013338994 -0.04194643 -0.04503128 0.049288932 -0.046716567
-0.031942457 -0.07100683 0.06508456 -0.013529127 0.057866435 0.09278853 0.032726534 -0.010497207

conv.1.running_var f4 [64]
00000000: 9fce 413f dd28 313f 9f85 383f 6dc5 203f
00000010: 54e8 0f3f 60bf 8f3f 5806 bf3f 09da 963f
00000020: 3790 f93f faab a83e 3cd8 6a3f cd86 8a3f
00000030: 10ef 293f 6343 2d3f 43a1 fa3e ca8b 4d3f
00000040: 95eb e93e cb0d 003f c9ee a63f 9df5 0a3f
00000050: 883b 813f 83e2 b53f bdc9 1b3f 2881 873e
00000060: 9c50 223f 5604 9a3f 5841 043f 0775 d83e
00000070: 2cdd 4d3f ff97 123f aa64 093f 9be9 393f
00000080: a422 8a3f 8ecf 0e3f 3d22 b53e 8dec dc3f
00000090: 0f22 853f 19ac 3f3f 8e4e 863f 6c0c 6d3f
000000a0: e2fa 533f e034 293f 6048 203f 704e 8f3f
000000b0: 2d7d 183f cedd 5d3f 5b92 0240 c30b c33f
000000c0: 14b1 173f 1cb9 243f 1e89 4d3f bbde 373f
000000d0: 1b8f ff3e 7e4f a53f 062f 813f fd14 a13f
000000e0: 10ef e33e cf42 783f db36 2b3f dccc 1d3f
000000f0: c12a af3f cf44 783f 4ccf 183f d6a2 673f
0.75705904 0.6920298 0.7207889 0.6280125 0.5621388 1.1230278 1.4923811 1.1785289
1.9497136 0.32943708 0.917362 1.0822388 0.66380405 0.6768095 0.48951158 0.80291426
0.45687547 0.50021046 1.3041621 0.54281026 1.0096292 1.4209751 0.60854703 0.26465726
0.6340425 1.2032573 0.51662207 0.42276785 0.80415606 0.5726318 0.53669226 0.7262208
1.0791821 0.55785453 0.35377684 1.725969 1.0401019 0.74871975 1.0492723 0.9259708
0.8280469 0.66096306 0.62610435 1.1195812 0.59566003 0.8666657 2.0401828 1.5237964
0.59254575 0.64344954 0.8028735 0.71824235 0.49913868 1.2914884 1.0092475 1.258453
0.44518328 0.9697694 0.6688058 0.61640716 1.3684922 0.96979994 0.5969131 0.9048284

conv.5.weight f4 [128, 64, 5]
00000000: 0a46 bcbc 24d8 433d fe6b f13c 3b5e 51bc
00000010: 1d07 a9bc f541 dfbc 4d98 1d3d e30a 0cbd
00000020: 420c b13c 588d 05bc 1bc4 52b9 b9f2 a13b
00000030: 8e52 c03c a64e d03a 7129 3a3d 9203 3f3d
00000040: 92cb 6b3d 0c5b 663d 1ea1 153d 9cd8 6e3d
00000050: bcaa 22bd 58dc 32bd 9f82 5dbd 2f9b a8bc
00000060: 2e97 afbc 1203 25bd 8fff 653c 3b57 153d
00000070: a9e0 ccbc 51f5 523d 8982 b1bb 39fa c2bc
00000080: 18e6 77bd f031 c6bc e410 e3bc b32b f83b
00000090: fd88 143d 97b0 893d 8848 653d 17cf 903c
000000a0: 6bc3 2ebd 1514 86bd 53e3 20bc 4710 fb3b
000000b0: 9db5 913c aa8c 99bd 9c99 673c dfe9 67bd
000000c0: 7e83 edbb 13f9 90bd d6b7 aa3c 7aa9 823d
000000d0: aaef c43c ab92 003b db76 a5ba a44d e5bc
000000e0: bb30 0cbd e560 47bd 8176 0bbd 55ce 5cbd
000000f0: ced3 babc 37af 4fba c475 253d 90d2 77bc
00000100: 6920 283d 00f9 3b3d 3b01 0b3d 7b9e ecbc
00000110: 3e74 263d 1911 8ebb 6b44 863c 38af d33c
00000120: 251f d03c b6c5 43bd 4836 f6bc 18db 943c
00000130: f253 3dbd 48ca 9ebc 1d6c 933c 96fc b53c
00000140: 9a95 7dba 18da f7bc f695 d9b9 41af a03c
00000150: 389d 88bd 6787 2ebd 2d5e 0abd e802 49bd
00000160: a5ec 323d b363 7a3d 61c1 8fbd b35d 803c
00000170: 8bc6 9fbd 8187 37bc 1a74 dcbc 43ba 2c3a
00000180: ab28 10bd 022f 4bbd 7065 77bb ed4a 29bd
00000190: e02a 143d 07b6 173c 5901 433c 7e19 0fbd
000001a0: 65a8 333c 1dab 333d 29b8 9c3d 8f32 a33d
000001b0: d2cc 28bd f103 ae3c 9301 0b3d 0eb1 763c
000001c0: 6154 c53c 5a29 a93b 1f44 303d 33f8 4ebd
000001d0: d472 d6bc abe9 80bd da48 76bd fd6c f2b9
000001e0: 75fe 71bd f3bb 69bd 4f31 fcbc 463c c6bc
000001f0: da0d 293b ac28 623d 80c9 603d 4e68 1abd
00000200: ab24 f83c 8710 1f3d 3356 cf3b f391 893c
00000210: e0d9 833c daa7 47bd 6332 6ebd 9e12 e63c
00000220: b310 25bc b1a2 f03c ab59 233d 5330 4ebd
00000230: 32a7 033d 29db d03b 4742 ae3c f485 173d
00000240: f95e 383b 4e92 263c b888 efbc 6374 ecbc
00000250: 6971 28bd 332c d43a c621 47bc 5f48 b0bc
00000260: 893b 73bd e52c 7cbd bb00 1f3d 6505 cc3c
00000270: 6250 84bd f2be 8dbd 2c7d 183d c0b2 3abd
00000280: cf5a 4a3d 30eb 1b3d c3a3 0c3d 9f8b 723d
00000290: c9f7 983c 361a 553d f10c 243d c5b8 11bd
000002a0: 3919 3c3c 8cd6 843c 5a17 81bd dd89 bf3b
000002b0: b5d1 c6bc 1a70 81bd 0312 2e3d 3049 8b3d
000002c0: 0113 883d 16ee bdbc 252f b43c c8c0 93bc
000002d0: 3e94 483d 77cb ff3c d3ce 3fba 6d7b 223d
000002e0: 8939 3cbd f625 923c 20b7 20bc 2a5a ed39
000002f0: ffca 13bd 0def eabc de90 053c b46f f93c
00000300: 0150 cc3c 0e0f f3bb 1c5e 823b 378a 2ebd
00000310: b358 333d 0e64 f1bc a1ae d53c 7b4f 2fbb
00000320: c073 483d eb24 a33d 4247 8a3a e7a7 a23b
00000330: ef44 263d e603 6f3c cf20 093d e5bf 2dbd
00000340: b88b 30bd cc28 09bd 34d7 69bc ff16 d0bc
00000350: 05f6 ecbc b1bc 123c 1331 c63b 4eee 723c
00000360: 218d 253d 73c0 973c 9882 ba3c e1ab b23c
00000370: c75e 56bd af2b 253d c410 7b3c 3ae8 233b
00000380: 3089 3a3c b5c5 993c 90ac 02bd c2c1 a83c
00000390: e69f b6bc 1032 a0bc 9a2b 513d 8af1 9dbc
000003a0: 13c8 903d 5652 0abd f8f8 473d c9df 873d
000003b0: b23b 55bc 5a24 4bbc 1e60 753d 79c3 743d
000003c0: 55a2 793c 6f14 bfbc 039d 1c3d 9973 f63c
000003d0: d17e 0c3c dc55 863c c3ec 633d 559f 993d
000003e0: 26f8 c0bb 6a7d 373d d01f cabb 86fc 593a
000003f0: fc07 36bd 047c 95bd ffbe 2f3c 1bcb 06bc
-0.022982616 0.04781355 0.02947044 -0.012778814 -0.020633275 -0.02725313 0.038475323 -0.03419007
0.02161229 -0.008151375 -0.00020100216 0.004942265 0.023476865 0.001589258 0.045449678 0.046634264
0.057567187 0.056239173 0.036530606 0.058312044 -0.039713606 -0.043667167 -0.054079648 -0.02058181
-0.021434393 -0.04028613 0.014037981 0.036460143 -0.02500947 0.051503483 -0.0054171723 -0.023800956
-0.06052217 -0.024193734 -0.027718015 0.0075735687 0.036263455 0.06723135 0.055977374 0.017676873
-0.042666834 -0.06546799 -0.009819823 0.0076618525 0.017786795 -0.07497533 0.014135744 -0.05661952
-0.007248341 -0.07078757 0.020839613 0.06379981 0.024040062 0.001961867 -0.0012623923 -0.027991123
-0.03422616 -0.04867639 -0.03404856 -0.05390771 -0.022806074 -0.00079225324 0.040395513 -0.015125886
0.041046534 0.04589176 0.03393672 -0.028884163 0.0406382 -0.0043355343 0.016390046 0.025840387
0.025405476 -0.047795974 -0.03005518 0.018170878 -0.046222635 -0.019383565 0.017995888 0.022215169
-0.00096734765 -0.030255362 -0.00041501195 0.019614818 -0.06670612 -0.0426096 -0.03378122 -0.049075037
0.043682713 0.061130237 -0.07019306 0.01566968 -0.07801541 -0.01120174 -0.02691083 0.00065890345
-0.035195034 -0.049605377 -0.003774967 -0.04133122 0.0361737 0.009259707 0.011902177 -0.03493642
0.010965441 0.04386436 0.07652313 0.07968628 -0.041210957 0.021242114 0.03393705 0.015056862
0.024088087 0.0051624 0.043033715 -0.05052967 -0.026177801 -0.06294569 -0.06012807 -0.0004623904
-0.05908056 -0.057064008 -0.03078523 -0.024198662 0.002579561 0.05521457 0.054879665 -0.03769713
0.030290922 0.03883412 0.0063274144 0.016793227 0.016095102 -0.04874406 -0.05815352 0.02808505
-0.010074782 0.029374452 0.039880436 -0.050339054 0.03214187 0.006373782 0.021271838 0.036992982
0.002813278 0.010166718 -0.029239997 -0.028864091 -0.04112378 0.0016187489 -0.012154048 -0.021518884
-0.05938295 -0.061566252 0.038819056 0.024904916 -0.06460644 -0.069211856 0.03722875 -0.045580626
0.049403008 0.03806609 0.034335863 0.059215184 0.01867284 0.05202695 0.040051404 -0.0355766
0.011480623 0.016215585 -0.06303282 0.005845292 -0.024269918 -0.0632021 0.042497646 0.06801069
0.0664425 -0.023184817 0.021995137 -0.018036261 0.0489695 0.03122495 -0.0007316891 0.03966849
-0.045953307 0.017840367 -0.009809285 0.0004527134 -0.036082264 -0.028678441 0.008152215 0.030448772
0.024940493 -0.007417566 0.003978504 -0.04261228 0.043785762 -0.029466655 0.026084246 -0.0026750255
0.048938513 0.07966026 0.0010549801 0.004963863 0.040593084 0.014588332 0.033478554 -0.042419333
-0.043101996 -0.033486173 -0.0142725 -0.02540159 -0.028925905 0.00895612 0.0060483306 0.014827324
0.040417794 0.018524384 0.02276735 0.021810474 -0.05233648 0.040324863 0.015323821 0.0025010244
0.011385247 0.018771032 -0.03190285 0.020600203 -0.022293042 -0.019555122 0.051066972 -0.019280214
0.07069411 -0.033769928 0.04882142 0.066344805 -0.013014721 -0.012398804 0.059906118 0.05975673
0.015236457 -0.023325173 0.038235676 0.030084418 0.008575157 0.016398363 0.055645715 0.07501093
-0.0058889566 0.04479734 -0.006168343 0.0008315522 -0.04444121 -0.07299045 0.010726689 -0.008227135

conv.5.bias f4 [128]
00000000: 4691 88bb e7b7 d0bc 78a7 923c 971e 4fbd
00000010: 6ccf 193d 4544 283d ce65 32bd 5d47 48bc
00000020: 0e8b 4ebc 02d7 053d a1bb 243c 3198 04bd
00000030: 3466 233d d899 7eba d300 77bc feec 393d
00000040: 86c0 41bd 849b 0fbd 3f87 08bd cb0e 563d
00000050: 5d31 5a3d c8bb e8bc 37cb 43bc 07e6 3ebc
00000060: c592 22bd 3a2e 2a3c 56a7 3dbc 2796 d3bc
00000070: cf06 063d f9c6 d1bc f65a 2cbb 3bdf 5d3d
00000080: 1b0b 3fbd 795f 15bd 0b45 8e3c a2ed f43c
00000090: ccda 36bd 231d 033d 1118 5abd 8146 633c
000000a0: e413 f13c b5be de3c 86ba 34bc 04f3 1a3c
000000b0: 1532 06bc 8f4f 08bd 6fdd 95bc ebcb 27bd
000000c0: a2b9 f43c 3f05 9f3a ad3b 2f3d b5c1 f7bc
000000d0: 7768 bf3c 642d f13b 7b16 c0bc d01e ab3c
000000e0: 00e9 32bd 87c4 283c 6679 3b3d b2ac 103d
000000f0: 4276 633d 1dac dabc fa69 0abd fabc 443d
00000100: 0246 4cba 369d 50bd fa6f 32bd 29b4 a83c
00000110: 5c1a 24bd 17e8 493d a8c3 57bd 733e 02bc
00000120: 5878 5fbd af99 e13c 005c ae3c acec e93c
00000130: c032 2eba 3ff6 22bd b527 243d 5aed 493d
00000140: 17b6 4b3a 4d23 113d f6ba 85bc ed01 02bd
00000150: d01c 5c3d c211 17bc 378f ee3c b751 323d
00000160: 4ef4 0fbd b5eb 02bd 9815 46b9 e575 3cbd
00000170: 7690 233d 57ba f33c c59b 5abc baa7 edbc
00000180: f851 f4bb 82bb 37bc 7737 6cba 3bc8 3b3d
00000190: d1e4 333d 26d4 423d 823a f63b 098e 53bd
000001a0: 9a3b 863b 8572 2fbd b149 25bc fe3a 003d
000001b0: 17c4 553d dd94 bfba c811 313c 08a3 37bd
000001c0: eedf 233c 6645 7d3c f19c 453d 65f8 6a3b
000001d0: ef0f 19bd 99e2 ffbc a69e d7bb 1030 753d
000001e0: 066d 513d a80f 353d 8aa1 393d f9ed cc3c
000001f0: b4a4 573d 8710 98bc 7f24 e2bc 9849 cd3c
-0.0041677086 -0.025478316 0.017902121 -0.050566282 0.03755133 0.041080732 -0.04355412 -0.012224046
-0.012606395 0.03267575 0.0100545 -0.032371704 0.03989239 -0.00097122556 -0.01507588 0.04539203
-0.047302745 -0.03506042 -0.033332106 0.0522602 0.053269733 -0.028409854 -0.011950306 -0.0116515225
-0.03969075 0.010386998 -0.0115755405 -0.025828434 0.032721337 -0.025607573 -0.0026299334 0.054167967
-0.04664145 -0.036468003 0.017366907 0.029898468 -0.044642255 0.03201021 -0.053245608 0.01387179
0.02942843 0.027190546 -0.011030799 0.0094573535 -0.008190651 -0.033278998 -0.018294064 -0.040965956
0.029873673 0.0012132301 0.04278152 -0.030243734 0.023365242 0.0073601473 -0.02344822 0.020888716
-0.043679237 0.010300762 0.04577007 0.035320945 0.0555327 -0.026693398 -0.033792473 0.048031785
-0.00077924144 -0.050931178 -0.04356382 0.02059372 -0.0400642 0.049293604 -0.052676827 -0.007949459
-0.054558128 0.027539102 0.021284103 0.028555237 -0.00066451356 -0.03978562 0.04007693 0.04929862
0.0007770969 0.035434056 -0.016324501 -0.031740118 0.053738415 -0.009220542 0.029121025 0.04353496
-0.035145096 -0.03196307 -0.00018890796 -0.04601087 0.03993269 0.02975194 -0.013342802 -0.029010642
-0.0074560605 -0.011214139 -0.00090109505 0.04584525 0.04391939 0.0475656 0.007514299 -0.051649127
0.0040964605 -0.042833824 -0.01008837 0.03130626 0.05218896 -0.0014616508 0.010807462 -0.044833213
0.0100021195 0.01545844 0.048245374 0.003585362 -0.03736871 -0.03123598 -0.0065801917 0.05986029
0.051129363 0.044204384 0.04532007 0.025015818 0.052647308 -0.018562568 -0.027605293 0.025059506

conv.6.weight f4 [128]
00000000: 3ff7 7b3f 7910 8c3f b55f 873f 0b4f 843f
00000010: 0a47 813f 11fe 7d3f 5738 783f 3e8e 823f
00000020: a4a2 803f ce80 7d3f a7ed 7c3f cdb9 7f3f
00000030: 56e1 753f 3485 763f 6cc4 6a3f e305 7b3f
00000040: 291a 823f 9508 7f3f 2736 723f 84c0 863f
00000050: 8420 803f 9cb3 813f 2926 8a3f cdbe 7e3f
00000060: 668e 863f c173 8a3f 2923 763f 8dc4 783f
00000070: 483d 843f f515 763f 3bf6 803f b5f2 7e3f
00000080: 3ed3 883f fef2 7c3f e495 883f 6dfe 793f
00000090: ace2 733f e3d1 8a3f 5d4c 703f 7f11 8d3f
000000a0: 5e4e 7b3f f6de 833f ce39 803f 9849 853f
000000b0: 7413 803f 5269 773f 0233 7d3f 02af 773f
000000c0: c2be 7a3f c50a 803f 8246 813f e444 793f
000000d0: 3aac 7f3f edb8 703f 4de9 8b3f cf33 863f
000000e0: 3b6e 7e3f 77b9 763f 84ab 863f 5472 833f
000000f0: 4fe5 793f 7bbc 7b3f aa14 813f 583d 883f
00000100: bfb3 6e3f 632b 7a3f 5500 7a3f 11ed 773f
00000110: 81e8 833f e4bc 7f3f b2b2 8b3f aa98 873f
00000120: b58b 7c3f bdf0 723f fbd6 823f e9a4 7a3f
00000130: 141a 7f3f c2e3 7c3f daae 723f ddd2 873f
00000140: aa10 773f 4710 713f 0155 813f 1838 893f
00000150: f755 813f cd0a 733f 53b0 833f 9bd4 763f
00000160: fe6c 753f 4622 7b3f a739 7d3f 93ac 803f
00000170: f79f 7c3f 2d08 8a3f 4c4a 7c3f d019 813f
00000180: cce2 873f b609 833f 9cdb 883f 800e 7b3f
00000190: 0b4c 813f 78de 803f 8288 7a3f 3700 833f
000001a0: 545a 7d3f 9005 813f e381 893f 3623 6e3f
000001b0: 28fe 813f 2f4a 813f 3f8a 7f3f 930b 893f
000001c0: f65e 8a3f e2c3 7f3f c85e 7b3f ee28 8a3f
000001d0: 6e4a 863f d981 853f ff5b 833f 980b 773f
000001e0: 8870 7c3f 3a89 793f 27ae 843f 9040 803f
000001f0: b87d 813f d265 783f b7dc 7d3f 25c0 7e3f
0.9842414 1.0942527 1.0576082 1.0336622 1.0099804 0.992158 0.9696097 1.0199659
1.0049634 0.99024665 0.9880013 0.99892884 0.9604696 0.96297 0.91705966 0.9805586
1.0164233 0.9962247 0.9461388 1.0527501 1.0009923 1.0132937 1.0792896 0.9950989
1.0512207 1.0816575 0.961474 0.9717491 1.0331202 0.96127254 1.0075144 0.9958909
1.0689466 0.98808277 1.0670743 0.9765385 0.9526775 1.0845302 0.9386652 1.1020964
0.98166454 1.0302417 1.001764 1.0413084 1.0005937 0.9664508 0.98905957 0.96751416
0.97947323 1.0003287 1.0099642 0.97370744 0.9987217 0.94032174 1.0930573 1.0484561
0.9938695 0.96376747 1.0521092 1.0269265 0.9761552 0.98334473 1.0084431 1.0643721
0.9324302 0.9772245 0.97656757 0.9684611 1.030533 0.998976 1.0913908 1.0593464
0.98650676 0.9489859 1.0221857 0.9790788 0.9964917 0.9878503 0.9479805 1.0611225
0.965098 0.9416546 1.0104066 1.0720243 1.0104359 0.94938356 1.0288185 0.9641816
0.95869434 0.9809917 0.98916095 1.0052665 0.98681587 1.0783745 0.9855087 1.0086002
1.0616088 1.0237339 1.069202 0.98069 1.0101331 1.0067892 0.97864544 1.023444
0.98965955 1.0079823 1.0742763 0.9302248 1.0155687 1.0100764 0.9982032 1.0706657
1.081023 0.9990827 0.981915 1.0793741 1.0491464 1.0430251 1.026245 0.96502066
0.9860921 0.97475016 1.0365647 1.0019703 1.0116491 0.97030365 0.9916491 0.9951194

conv.6.bias f4 [128]
00000000: f3a6 1fbd b687 41bd 61c9 81bd dfb9 fabc
00000010: 7301 abbc 8188 82bd c4b9 8fbd 68cc a1bd
00000020: 54b0 70bd 5e63 febc 2cb9 e7bd 6879 14bd
00000030: d19c 8cbd e8cf a1bd eb03 b4bd 6430 81bd
00000040: a99c c9bc 42ef bbbd b434 9dbd 31fe bbbd
00000050: 57c1 88bd ada2 a0bc a85c 8dbd a902 b1bd
00000060: 760e 64bd 2d44 d8bd 2d6b 87bd 0cea 81bd
00000070: 2395 85bc d9f1 bcbd 8476 b3bd d612 1dbd
00000080: 17f1 29bd 6b8d 8cbd 6187 a1bd 1531 43bd
00000090: 0934 89bd 818f 70bd 999c c4bd 1b80 96bd
000000a0: b72b a9bd a493 b8bd 2fe8 a6bd 4c8e 56bd
000000b0: 7a02 e2bd 8594 d0bd 5fc7 54bd ee8f 90bd
000000c0: 014a 00bd 4850 27bd ccd8 e4bd c06e 6dbd
000000d0: 3ec9 c2bd e03c acbd 2a9e 86bd ea8e 92bd
000000e0: 16e6 56bd b245 9ebd 3062 8a38 180a a1bc
000000f0: ab62 66bd da0c 62bd b8bb bebd 181a f0bc
00000100: 97ea e2bd 3cab 85bd 012b afbd a410 4cbd
00000110: d129 fbbb ce49 77bd adf2 62bd 6c42 87bd
00000120: d306 85bc 22bc dcbd 27fb 6cbd ed8e c2bd
00000130: aee5 bfbd 2616 2dbd e47e 4fbd 725e 0abd
00000140: 177d 32bd 8b05 b3bd 49f2 b2bc 6ff5 0cbd
00000150: 7a81 babd 8c4d d0bd 0351 62bd 0487 56bd
00000160: 0551 d4bd 0e57 85bd e821 8fbd 53e5 42bd
00000170: cc41 51bd 3f2d 53bc c292 97bd 7a18 36bd
00000180: 2d18 b9bc 84f7 65bd ade3 3bbd 93fc f9bc
00000190: 95d5 1dbd 3f15 85bd f06f 84bd 581b edbc
000001a0: 5e03 77bd 31f2 5fbd 50d9 f0bd e65e dabd
000001b0: c7a9 c7bc 580c 53bd b25d a0bd 23a9 debd
000001c0: c90d 5fbd b561 11bd c305 95bd 9c72 00be
000001d0: 97c4 3fbd 4b42 df39 b841 d4bc 962b babd
000001e0: b0c7 9abd 2736 a1bd 2c56 bbbc 3691 34bd
000001f0: 0c57 493c 24d7 b9bd acfd c6bd cae2 96bc
-0.038977575 -0.047248565 -0.06337238 -0.030606208 -0.020874714 -0.06373692 -0.07017854 -0.079003155
-0.05876191 -0.031053241 -0.113146156 -0.036248595 -0.06865848 -0.07900983 -0.0878981 -0.06308058
-0.024610834 -0.09176494 -0.07676068 -0.091793425 -0.06677502 -0.01960882 -0.069024384 -0.086430855
-0.055677854 -0.105598785 -0.06612239 -0.06343469 -0.016306465 -0.09225816 -0.087628394 -0.03834804
-0.041489687 -0.06862911 -0.078871496 -0.04765423 -0.06699378 -0.058730606 -0.09600181 -0.07348653
-0.08260291 -0.09012535 -0.08149754 -0.0523818 -0.110356286 -0.10184578 -0.051947948 -0.070587024
-0.031320576 -0.040848047 -0.11174163 -0.057966948 -0.0951104 -0.084100485 -0.06573136 -0.07156165
-0.05246552 -0.07728137 6.5986416e-05 -0.019658133 -0.05624644 -0.055188037 -0.09313148 -0.029309317
-0.11079901 -0.06526801 -0.08553124 -0.049820557 -0.007664897 -0.06037312 -0.055407215 -0.06604466
-0.016238606 -0.10778071 -0.057856705 -0.09499917 -0.0936998 -0.04225745 -0.05065812 -0.033781476
-0.043576326 -0.087412916 -0.021844046 -0.03441375 -0.09106727 -0.10171041 -0.05525304 -0.052374855
-0.10367016 -0.06510745 -0.06988889 -0.047581982 -0.05108814 -0.0128892055 -0.07401039 -0.044456936
-0.022594536 -0.056144252 -0.045871425 -0.030515945 -0.038533766 -0.06498193 -0.06466663 -0.028943703
-0.060305946 -0.05467433 -0.11760199 -0.10662632 -0.024372948 -0.051525444 -0.07830371 -0.10872104
-0.054456506 -0.03549357 -0.072764896 -0.1254372 -0.046818342 0.00042583267 -0.025910243 -0.090903446
-0.075576186 -0.07871657 -0.022868238 -0.044083796 0.01228882 -0.09074238 -0.09716353 -0.018418688

conv.6.running_mean f4 [128]
00000000: 04d9 763e 3946 f13e c8b3 97bb 24c2 eabe
00000010: 088d 423f a06a a6bf e1cc 19bf 95e4 f2be
00000020: cf51 43bd 3f22 95bf 3095 57bf 1a1e abbf
00000030: c15e 2abf edc3 13be 7110 39bd 4720 1dbf
00000040: 2402 dabe 1cd7 c0bd fb28 91be c30d 23bf
00000050: efbd 5dbf c388 1abf f2b4 3ebf 7a90 143d
00000060: 74b4 d9bf e03a a43e beca 9cbe d2c0 15bf
00000070: 075d 8cbe a889 90bf 3216 b93d cec7 4ebf
00000080: a73e 8bbf 28cf 913f 4cad 3dbf 5c7c b83e
00000090: d3e3 a3be bdf1 e63e c414 1cbf 57aa db3d
000000a0: 8f64 8b3e 39aa 593f 3502 4ebe 3e05 c03d
000000b0: 5f50 c63e e6dc 9cbc 9445 fcbe 0138 8abf
000000c0: 2f0f 36bf 54b1 84bf b6bc 7c3d e40b 12bf
000000d0: d8e9 42bf 3fda b7bd a68a cebf 5baa 48bf
000000e0: 8349 4bbe 1375 98be 907e 06bf 87b2 05be
000000f0: f32c 44bf b848 20bf 1526 ea3e df9d 1c3f
00000100: 3f22 51bf 0595 85be c644 343f 0c73 9b3e
00000110: cac5 46bf e5ea 813f 1093 d0bf e44b 863f
00000120: e35d 97bf c029 c9be ed8d 8a3f 757d d5be
00000130: ebf9 dfbe 12d0 99bf cd3a 91bf 1cd4 51bf
00000140: fdce a0bf edfb 1dbf 058a 77bf a82d 2ebf
00000150: 7d98 6e3e de0e 393d 0393 263f 2903 fcbc
00000160: 2977 76be ea34 81bf 810d 2f3f 838d 9d3e
00000170: ce4b a23c 1582 56bf 3c36 6a3c 55d0 b6be
00000180: 307f 063f c40d 91bf 9b1a a3bf c26a c9be
00000190: 30f1 2a3f a046 8dbf 756d 01bf 49e6 0d3f
000001a0: 8a1e 7bbf a6e6 9cbf dee9 d7bf c1e2 77bf
000001b0: 0866 2ebf 7d1c 9d3f ca5a 473f 8d33 cdbf
000001c0: cc94 da3d 5731 75bd f8e8 49bd 89ce 183f
000001d0: 997d 233f 4f36 8dbe 06f5 7e3e 67c0 a7be
000001e0: ad53 56bf 5a40 02bf 4149 c23e 4c92 83bf
000001f0: 08ca 79bf b718 3abf a1c8 c33e 953c 8abd
0.24106222 0.47123888 -0.004629586 -0.45851243 0.75996447 -1.3001289 -0.60078245 -0.4744002
-0.04768544 -1.1651076 -0.8421202 -1.3368561 -0.66550833 -0.14430209 -0.045181695 -0.61377376
-0.42579758 -0.09416029 -0.28351578 -0.63692874 -0.8661794 -0.6036493 -0.7449485 0.036270596
-1.7008195 0.32076168 -0.3062343 -0.58497345 -0.27414724 -1.1292009 0.090374365 -0.8077363
-1.0878495 1.1391344 -0.74092555 0.3603238 -0.32009754 0.45106307 -0.60969186 0.10725849
0.27225158 0.85025364 -0.2011803 0.09376 0.38733193 -0.019148301 -0.49271834 -1.0798341
-0.7111692 -1.0366616 0.061703406 -0.57049394 -0.7613807 -0.08977174 -1.6136062 -0.7838494
-0.19852261 -0.2977682 -0.5253687 -0.13056384 -0.7663109 -0.6261096 0.4573218 0.6117839
-0.8169288 -0.26090255 0.7041744 0.3036121 -0.7764555 1.0149809 -1.629488 1.049191
-1.1825527 -0.39289665 1.0824562 -0.4169728 -0.4374536 -1.2016623 -1.134607 -0.8196428
-1.2563168 -0.61712533 -0.96694976 -0.68038416 0.23300357 0.045180194 0.6506807 -0.030763226
-0.24068893 -1.0094273 0.6837998 0.30772027 0.019811537 -0.8379224 0.014295157 -0.3570582
0.5253782 -1.1332326 -1.2742494 -0.39339262 0.6677427 -1.1037178 -0.50557643 0.5542951
-0.98093474 -1.2257888 -1.6868246 -0.96830374 -0.6812444 1.2274319 0.7787291 -1.6031357
0.10672912 -0.059861507 -0.049294442 0.5969015 0.6386352 -0.27580497 0.24898157 -0.3276398
-0.8372143 -0.5087944 0.37946513 -1.0279021 -0.975739 -0.7269396 0.38239005 -0.06749836

conv.6.running_var f4 [128]
00000000: f22c 5d3f e93a a33f 59c9 333f 2573 d23e
00000010: 77fc 8c3f b6b0 d93f 21a0 503f 657a ca3e
00000020: 6ee5 453f dc9c 0640 c6cf 7c3f 9078 bf3f
00000030: c0f2 bd3f 9f72 4b3f 0b5b 2b3f ccb7 913f
00000040: 8bf2 143f 0e02 2a3f c8c1 813e 30f2 813f
00000050: 49a4 503f 4635 a63e d565 c43f 9a8b ac3e
00000060: ead0 653f 7fcc 293f a266 663f d07d 023f
00000070: c21c c93f 69f8 3d3f 934b 3e3e 9b8f de3e
00000080: f1ee c63f f5bf 313f c3ba 833f a3a2 7f3f
00000090: a931 9e3e 7c28 563f 1e35 fb3e bea3 4d3f
000000a0: 59e8 333f 28d9 fe3e 07fa 453f 9588 903f
000000b0: 0560 6a3f 220c ad3f e74c 0240 b730 0c3f
000000c0: 424d 403f 3525 e33e 0930 1a3f b799 573f
000000d0: 2c31 233f 0a1a 8a3e 7521 993f c85e c23f
000000e0: d908 823f 0053 583f a90f b63f 76cf 0e3f
000000f0: 203d 913f 967b 0b3f 0338 3f3f a805 9e3f
00000100: 09dc d83f 8e05 b23e be02 4f3f e5e4 423f
00000110: 16f1 b63f eb0f 7d3f a727 dd3f a901 853f
00000120: ae86 e43f 0d62 203f 0228 463f 740d 243f
00000130: 3b34 503f e561 f83f 3746 2c3f 6cb4 e93e
00000140: 76f1 dd3f 934a 5a3f 7cf5 483f 2345 8e3f
00000150: 5aaf 173f a965 253f 56a4 1e3f ee07 bb3e
00000160: 1efe 743f 4e92 ef3f 78cc 033f 7578 983e
00000170: 3073 f93e cd8f 0b40 5f5b 133f f4fe c13e
00000180: 318d 973f dcfd 393f 05fb d23f 468d 0540
00000190: 55cc 663f 1fd7 8d3f 9181 cf3e d1a5 853f
000001a0: dcd1 153f 3834 a23f bf70 a73f cc6c 783f
000001b0: 030c 6a3f d970 4f3f c44a 603f 8cc7 ad3f
000001c0: ee8e 853f 7a29 ae3f b7fd 563f 33e7 133f
000001d0: 44f4 843f 3dfd 8c3e 79e0 fe3e a188 1d3f
000001e0: 2b2c 923f 7807 a33f 599e 453f bf85 4e3f
000001f0: 476a c63f b9c7 243f b554 753f b2a7 343f
0.86396706 1.2752353 0.7022911 0.41103473 1.1014546 1.7007053 0.8149434 0.39546505
0.77303207 2.103324 0.9875454 1.4958668 1.4839706 0.7947177 0.66935796 1.1384215
0.5818259 0.66409385 0.25343156 1.0152035 0.8150068 0.3246252 1.5343577 0.33700258
0.897719 0.6632766 0.90000355 0.50973225 1.5711901 0.7420717 0.18583517 0.43468937
1.5541669 0.6943353 1.029137 0.9985754 0.30897263 0.83655524 0.49063963 0.80327976
0.7027641 0.49775052 0.77334636 1.1291682 0.91552764 1.3519328 2.0359437 0.5476183
0.75117886 0.44364324 0.60229546 0.84218925 0.63746905 0.2697299 1.1963335 1.5185175
1.015895 0.8450165 1.4223529 0.5578531 1.1346779 0.5448545 0.7469484 1.2345476
1.6942149 0.34769863 0.8086356 0.76130515 1.4292324 0.98852414 1.7277726 1.0391132
1.7853601 0.62649614 0.774048 0.6408303 0.813297 1.9404875 0.6729464 0.45645463
1.7339313 0.8527004 0.7849958 1.1114849 0.5925194 0.64608246 0.61969507 0.36529487
0.9570025 1.8716524 0.5148387 0.297794 0.48720694 2.180652 0.57561296 0.37889826
1.1839963 0.72652984 1.6482855 2.0867476 0.90155536 1.1081275 0.4052854 1.0441228
0.58523345 1.2672186 1.3081282 0.9704101 0.9142458 0.81031567 0.87614083 1.3576522
1.0434244 1.3606408 0.8398089 0.57774657 1.0387044 0.27536955 0.49780634 0.61536604
1.1419729 1.2736654 0.77194744 0.8067283 1.5501183 0.6436725 0.9583238 0.7056838

conv.10.weight f4 [256, 128, 3]
00000000: 926e e5bb cd0d 163b 6071 b23c 284e b73c
00000010: 4e31 25bd d35d 1a3d 35c4 153d 288f b83d
00000020: eade 6d3d f7bc 8cbd fcf2 d7bc 9300 e1bc
00000030: a6d5 863b 0a32 2e3d c425 49bc 70aa 173b
00000040: b878 8ebd 36ff a5ba 5625 803c 7d46 dcbc
00000050: 993d b5bc 91ec 42bd 957a 143d 3c36 c3bd
00000060: 70c2 db3b 308d 1cbd c72f a4bc e10e 5d3d
00000070: 2e5a 583d 2b16 e63c 4b8f 4dbd 8a87 34bc
00000080: 3d51 cfbb 9574 6e3d 0154 163c fe40 9b3c
00000090: c1b3 c8bc 006e d63c 4c2c 1dbd 6448 3d3d
000000a0: 0997 6a3c c2dd 5ebc 6ec3 ae3c 260f 65bd
000000b0: 7b61 fc3c 719f d63c d4a4 bf3c 9f6b a23b
000000c0: 86b3 0dbd 1700 a93d d2e7 a1bd d789 a6bc
000000d0: 94a5 ac3b 2e9b d9bb 3205 93bc 9e25 053c
000000e0: 3f53 58bb f55a 48bd 1b4e 43bd 57e2 c6bd
000000f0: 2010 513c f20e e83c f4b5 93bb f4a8 36bc
00000100: feba 75bd 9f2d dfbc fbc7 393d 0566 c13c
00000110: c18e 5a3b 423e 9cbb ce52 3bbd 296e e23c
00000120: 400c b53c d85a ba3c d731 2dbd 4275 bc3c
00000130: 823c acbc 2e0c cabd 306f b33c fde0 3d3d
00000140: d1c6 25bd 0ef3 cc3b de54 62bd d856 b13b
00000150: a7f2 153d 61b9 693d 7c04 37bc 62ed c63a
00000160: b9f3 49bd d2fa 903c 51b9 c4bc 8a69 773d
00000170: 9a97 63bd e023 00ba b8c5 7dbd 550a f2bc
00000180: 3e33 e63c 89ff b7bc 221a 143c 5e3e 32bd
00000190: 6a93 183d 5cd2 68bd 2a20 9a3c 3719 0cbc
000001a0: 3702 b6bd 8f96 663c 14fe 283d 15b8 54bc
000001b0: 43c1 96bd 933e b7bc 0548 b43a 0992 9d3c
000001c0: 841a c2bc 8349 7cbd c8d0 a8bc bacf 06bd
000001d0: b104 923d a715 4ebc a2cd ddbc a66e 94bd
000001e0: d2e6 aabc ae89 14bd 9cd5 913c b73b 96bc
000001f0: c353 093d 206a a3bd a115 1d3c 800f 2abd
00000200: 538f 0abd a248 0cbd 76de 2739 35c2 ba3b
00000210: 9415 443b f6dd 6cbd 1b09 5cbd 3b3d cabc
00000220: c629 423d 1cb3 61bd 07a5 dfbc dee0 1a3d
00000230: 0458 17bb 0e63 75bc ab3b 19bd 2e65 82bc
00000240: 1593 7ebc ffb1 953d 2195 82bd 195a 823d
00000250: 063f 6dbd 10dd 883d 511a 59bc 50c9 97bd
00000260: 34de f93b 0b30 bf3c 515c 7abd 4d96 e53c
00000270: 10e9 193d 6819 4cbd 2e9e 153c e286 d43c
00000280: 6a8f 91bb deb5 fabb 97e8 063d ec7d 38bd
00000290: dad3 74bc ad72 0e3d 97df cd3b f75b 973b
000002a0: 6757 80bc 2a1d f1bb ebe2 363d 20f3 dcbb
000002b0: 77f0 fe3c dd92 b9bc fb37 6a3d b3a4 c43b
000002c0: 97c3 2bbd fa70 4fbd 0cfc 12bc e6f7 77bd
000002d0: f382 d3bb 4536 853d f105 4f3c f969 bdb9
000002e0: 92c9 cb3b 6754 51bc 844e d93b 29cd 363c
000002f0: 3b6b 69bd 107e e6bc 4e0c 7c3d d9c4 9dbc
00000300: d3aa 4b3c cb1f 30bc 003a 8cbd c1bd 6b3c
00000310: 053c 163d cdc0 40bd 4b64 503d 47c8 ddbc
00000320: 038d 39bc 731c 9f3c 6633 b9bc 3276 76bd
00000330: 8238 5b3c b7a5 363d 7b0a a0bc 33fc 263d
00000340: 1077 58bd 7c89 e93c 598f a4bb 6f9e 0bbb
00000350: ef7f 493c aaa0 e43c 2140 323b ca7b a33c
00000360: 4503 08bd 882e a03c d5ab 60bc ee38 2a3d
00000370: eb3b 08bc f4f1 30bc 65aa 463c 84e4 b5bc
00000380: 3612 2f3d e173 7e3c 7ebe 8c3c ad31 3ebd
00000390: bb02 50bd 37ae 36bd cb81 9abc 4e55 02bd
000003a0: 0c9e 553d b2c8 7abd c79e 88bc 7ec1 1e3b
000003b0: 96b7 d8bc 58d7 03ba bffd febc 1ff9 aabd
000003c0: 80ec 8d3d 8aa1 d93c ad1c 5fbc 76c7 3ebd
000003d0: 38b2 49bd 735a 843d 440a a93c 0a21 983d
000003e0: 94f5 f43b 2289 c93c 17ed 993c 974c 3c3c
000003f0: f692 e9bc e8b7 dbbb aa04 e7bd 1af4 9ebc
-0.0070017064 0.002289641 0.021782577 0.022376135 -0.040330224 0.037687134 0.03656407 0.0901168
0.058073916 -0.0687198 -0.026360981 -0.027466094 0.0041148243 0.04252819 -0.01227707 0.002314236
-0.06956619 -0.001266456 0.015642803 -0.02688908 -0.022124099 -0.04758889 0.036249716 -0.09531829
0.0067065284 -0.038220584 -0.020042313 0.053969268 0.052820377 0.028086742 -0.050185483 -0.011018643
-0.006326823 0.05821665 0.0091753015 0.01895189 -0.024499776 0.026175499 -0.038372323 0.046211615
0.014318236 -0.013602676 0.021333423 -0.05592265 0.030808201 0.026199074 0.023394026 0.004956677
-0.034595035 0.0825197 -0.07905544 -0.020329399 0.005268762 -0.0066408133 -0.017946813 0.008126644
-0.0033008603 -0.04891487 -0.04768191 -0.0971114 0.012760192 0.028327439 -0.0045077745 -0.01114868
-0.059992783 -0.027243434 0.04535673 0.023608217 0.0033349248 -0.004768164 -0.045733266 0.02764042
0.022100568 0.022748396 -0.04228386 0.023005132 -0.021024946 -0.09865604 0.021903604 0.046357144
-0.04047281 0.0062545603 -0.055256717 0.005411964 0.036608364 0.057061557 -0.011170503 0.0015176947
-0.049304698 0.017697725 -0.024014147 0.060403384 -0.0555645 -0.00048881583 -0.061956137 -0.029545942
0.028100606 -0.022460716 0.009039434 -0.04351651 0.03724996 -0.05684124 0.018814165 -0.008550934
-0.08887141 0.014073982 0.041257933 -0.012983342 -0.073610805 -0.022368705 0.0013754374 0.019234674
-0.023694284 -0.061593544 -0.020607367 -0.032912947 0.07129801 -0.0125784045 -0.027075592 -0.07247667
-0.020862017 -0.036264114 0.017802052 -0.018339021 0.033527147 -0.07979226 0.009587676 -0.04151869
-0.03382809 -0.034248956 0.00016009234 0.005699421 0.0029920088 -0.057828866 -0.05371962 -0.0246874
0.04740312 -0.055102453 -0.02730037 0.037812106 -0.0023093233 -0.01497723 -0.03741042 -0.015917387
-0.015537997 0.07309341 -0.063761 0.06364841 -0.057921432 0.06682789 -0.013250903 -0.07411444
0.0076253656 0.023338338 -0.061123196 0.02802577 0.03757578 -0.049828917 0.009131951 0.025943223
-0.004442145 -0.007651075 0.03293666 -0.045041963 -0.0149430875 0.034777332 0.0062827575 0.0046191174
-0.015666677 -0.007358213 0.04465 -0.00674285 0.031120522 -0.022653038 0.057182293 0.006001079
-0.041934576 -0.050644852 -0.0089712255 -0.06053915 -0.0064548193 0.06504492 0.012635694 -0.00036127845
0.0062190974 -0.012776471 0.0066316742 0.011157312 -0.05698703 -0.028136283 0.061535172 -0.019258903
0.012430864 -0.010749768 -0.06847 0.014388503 0.036678333 -0.04705887 0.050876897 -0.027073039
-0.011325124 0.019422745 -0.022607516 -0.060171314 0.013380172 0.04459163 -0.019536247 0.04076786
-0.05284792 0.02850794 -0.005021971 -0.002130415 0.012298568 0.027908642 0.0027198868 0.019956488
-0.033206243 0.019553438 -0.013712843 0.0415582 -0.008315067 -0.010799874 0.012125586 -0.022203691
0.042741977 0.015530557 0.017180678 -0.046434093 -0.050783854 -0.044599738 -0.018860718 -0.031819634
0.05215268 -0.061226554 -0.016677273 0.0024224217 -0.026454728 -0.0005029342 -0.031126855 -0.08348297
0.069298744 0.026566286 -0.013617677 -0.04657694 -0.04924223 0.06462564 0.020634778 0.07428177
0.0074755643 0.024601523 0.018789811 0.01149287 -0.02851246 -0.006705273 -0.112801865 -0.019403506

conv.10.bias f4 [256]
00000000: 790e a03c 4b33 2bbc a38f f03b e91c 4b3d
00000010: 23d4 443d a586 563c 1e75 133d 7b57 b9bc
00000020: 331f a13c b838 2abd 2073 ae3b a1c2 be3c
00000030: 60ae 9fbb 7d89 11bd 37e9 003d 4c87 7f3c
00000040: 14b0 c93c 73f6 c53c e718 f53c c242 04bd
00000050: cb42 863b 11e4 683c b856 16bc a4f8 193d
00000060: 2c40 e63c 08a1 e1bc 6943 dbbc 8904 4abd
00000070: 6f9a be3c fd15 64bc 2059 12bc 88bc 1cbd
00000080: eba4 1e3d f437 5abc 7118 3abc b845 35bd
00000090: 7fca 203d c30d 88bc 6d76 943c 4049 4d3d
000000a0: 2bc5 22bd 64fc 55bc ae48 2abd da17 55bc
000000b0: 8967 5a3c 4a6b 44bd cfcb 38bd 1803 06bd
000000c0: 1c75 1fbb d0cf 46bd 6edb 19bd 3731 a63c
000000d0: 67b3 c33c d0bc 4d3d 974d 0ebc 0865 39bd
000000e0: 6aa1 083b ae1b 27bd 20b4 113d 7087 44bd
000000f0: 2e54 053c 89ab 1dbd 27ed c8bb 01c1 423d
00000100: 992b ec3b 20d5 9abc 4f79 43bd 124e 25bc
00000110: a579 36bc fa05 2ebd 4827 3abd 1628 a2bc
00000120: abb3 cdbc 953e d1bb 0d92 86bc 0733 cd3c
00000130: 5594 efbc e2e1 843c d2b2 093d 21f9 e6bb
00000140: 4827 15bd 0f13 863c 2fb5 11bc c65d 273d
00000150: 0893 1abd e8c4 33bc e9fb 443d 124d c5bc
00000160: e6e6 7bbc 4473 6ebc ea09 9aba 1cc3 ebbc
00000170: 2c8a f83b 97d8 dc3c 2159 42bc 494b c8bc
00000180: 6636 32bd a500 4c3d 1dd1 fb3b 185e 4cbd
00000190: dd62 d9bb 48df d3bc 442e d9bc 680b 46bc
000001a0: c1d7 14bb 0de7 98bc dcea 223d 9856 b63c
000001b0: ca30 43bd 2ad3 bb3c 23a6 7dbc 622e a73c
000001c0: 4305 d53c 95eb 1bbd 4760 1ebd a356 37bd
000001d0: 2ef7 8a3b 07b1 213d b27b 163d d974 303d
000001e0: 179b c93c e29e 29bd 3e1a 22bd 6ee7 893b
000001f0: dd6d c0ba a7d7 893c 1414 233d e283 abbc
00000200: c1e4 2dbd 6e4c 1dbd cc7b 10bd f0cb 1dbd
00000210: ad9b 073d cfee 283d 1346 5a3c ca37 883c
00000220: bfbb e3bc b957 743c 47c2 05bd a7f7 36bd
00000230: 370f 8d3b d270 8f3b 9928 15bc f1e3 1dbd
00000240: 546c 07bd 08d5 b63b 2ce2 ec3a b29a 453c
00000250: 9fa1 053c 280b 2bbd 4b6e 8ebb df00 aa3c
00000260: 3751 713c 2c6e 073d 9256 36bd 0dbd 263d
00000270: 96b9 d039 eb98 8b3c f762 04bd 71c4 2a3d
00000280: 7a4c 5dbc 0e56 9e3a 6e7d 44bd 9e5c 353d
00000290: 40a3 9fbb 5f17 80bc e7b6 3f3d 1b04 cb3b
000002a0: d070 3dbd a3c2 64bb ef6d dabb d328 f43c
000002b0: 4217 913c 8f25 33bd a352 49bd 598b b33b
000002c0: 6d08 2c3c 47e7 33bd 7593 51bd 47cb c73c
000002d0: e779 7a38 e56a e5ba 1cbc 2e3c 664f 7f3c
000002e0: e588 e0bb ca45 d4bc 80b9 2c3d 6089 e6bb
000002f0: e39f d53b 5e92 033b 145c 3d3d 373c 99bc
00000300: fc06 0abd 02b8 bd3c d0b2 fabc b3a1 173d
00000310: 94b5 46bd ac87 123d dae8 363d 7b8f 27bd
00000320: bf35 3e3d 383e d3bc edbf 0a3d 2bea d3bc
00000330: fa09 f53c f4f3 4cbd 865f 06bc 1d57 1a3d
00000340: 0b8d 3f3d df71 2eb9 6902 2abd c924 b8bc
00000350: 386f c8bc fc46 ec3c 36fb 9b3c 7583 2f3d
00000360: 89a4 80bc 9510 a5bc 129d 37bd dca6 a03c
00000370: c2eb 053d d001 2a3d abf7 10bc d0c1 cebb
00000380: 3dff 96bc 882f c03a 524a d6bc d5f6 5cbc
00000390: 7b24 3abd 65b4 303d 6d30 3a3d 1b2e f4bb
000003a0: 34bd 2e3d ace8 c63b b9f9 d4bc 2efc 373d
000003b0: a91a 34bd 2845 483c 6fd1 c7bc 5298 f1bc
000003c0: b925 0cbd 9993 f0bc b73a 35bd eabf 3ebd
000003d0: 736e b93c 1585 41bd 428f aabc beb7 f4bc
000003e0: 2210 28bd a3ba 20bd 9bcb c93c fd9c 293c
000003f0: 9ff8 0cbd d158 b6bc a0f3 0cbd c2fc d63c
0.019538151 -0.010449241 0.0073413416 0.049588118 0.04805387 0.013093625 0.036000364 -0.022624722
0.019668197 -0.041557997 0.0053237826 0.023286166 -0.004873082 -0.03553151 0.03147241 0.015596222
0.024620093 0.024165368 0.0299191 -0.032290228 0.004097318 0.0142145315 -0.009175949 0.037590638
0.028106771 -0.027542606 -0.026765542 -0.04932073 0.023266999 -0.013921258 -0.008932382 -0.038265735
0.038731497 -0.013319004 -0.011358366 -0.044255942 0.039255615 -0.016608125 0.018122876 0.050118685
-0.039738815 -0.013060663 -0.04157322 -0.013006175 0.013330349 -0.04795388 -0.045116242 -0.032717794
-0.0024331277 -0.04853803 -0.03756278 0.02028714 0.023889257 0.050228894 -0.008685491 -0.045262367
0.0020848163 -0.04079788 0.03557217 -0.047980726 0.008137746 -0.038493667 -0.0061317864 0.047547344
0.0072073457 -0.018900454 -0.04772311 -0.010089414 -0.011137401 -0.04248617 -0.045447618 -0.019794505
-0.025110086 -0.006385634 -0.016427064 0.025048746 -0.029245535 0.01622099 0.033617802 -0.0070487414
-0.036414415 0.01636651 -0.008893295 0.040860914 -0.037737876 -0.010972239 0.048091803 -0.024084602
-0.015374875 -0.014553849 -0.0011752222 -0.028779559 0.0075848307 0.026958747 -0.01186207 -0.024449961
-0.04350891 0.049805302 0.0076848404 -0.049894422 -0.0066341 -0.025863305 -0.026511319 -0.01208768
-0.0022711607 -0.018664861 0.03977476 0.022258088 -0.04765395 0.02292784 -0.015481505 0.02040786
0.026003486 -0.038066465 -0.038666036 -0.044760358 0.004240892 0.039475467 0.03673906 0.043080185
0.024610085 -0.041411288 -0.039575808 0.004208497 -0.0014681179 0.016826464 0.03981407 -0.02093691
-0.042454485 -0.038402967 -0.035274312 -0.038524568 0.03310745 0.04124337 0.013322371 0.016628165
-0.027799485 0.014913493 -0.03265598 -0.044669773 0.0043047923 0.004377463 -0.0091039175 -0.03854746
-0.033062294 0.0055795945 0.0018072776 0.012060808 0.008156209 -0.041758686 -0.004346644 0.020752368
0.014728836 0.033064052 -0.044516154 0.040707637 0.00039811124 0.01704069 -0.032320943 0.041691247
-0.013507003 0.001208009 -0.04797118 0.04427778 -0.004871756 -0.015636144 0.04680529 0.006195558
-0.046250165 -0.0034906052 -0.006665937 0.029804623 0.017711286 -0.04373699 -0.049151074 0.005479258
0.010500056 -0.043921735 -0.051166017 0.024388922 5.9718175e-05 -0.001750317 0.010664966 0.015582895
-0.0068522566 -0.025912184 0.042169094 -0.0070354193 0.006519304 0.0020076255 0.04623039 -0.01870547
-0.033698067 0.02315903 -0.030602843 0.037019443 -0.04851301 0.035773918 0.04465566 -0.040908318
0.046437975 -0.025786504 0.03387444 -0.025868496 0.029911984 -0.05003734 -0.0082014855 0.037680734
0.04676537 -0.00016636353 -0.041506205 -0.022478478 -0.024467096 0.028842442 0.019040685 0.042849977
-0.015703456 -0.020149508 -0.04482753 0.019610815 0.03269554 0.041505635 -0.008848111 -0.0063097253
-0.018432254 0.0014662603 -0.026158486 -0.013486584 -0.045444947 0.043140788 0.04545634 -0.0074517853
0.042660907 0.006070217 -0.025997983 0.04491823 -0.043970738 0.012223519 -0.024391858 -0.029491577
-0.034215663 -0.029367255 -0.044245448 -0.046569742 0.022635674 -0.047246058 -0.020820264 -0.029872771
-0.04103101 -0.03924049 0.02463322 0.01035237 -0.03441679 -0.022259148 -0.034412026 0.026243571
