output/electricity_cnn_20260221_204822/checkpoints/epoch_55.pt (torch, 174824 bytes, 21 tensors)

conv.0.weight f4 [32, 14, 3]
-0.11444233 -0.013975438 0.028931798 -0.00068555545 0.097528204 -0.09192588 -0.09350859 0.105191946
-0.09248785 0.027798897 -0.08534628 -0.008618275 -0.00072124746 -0.006903412 -0.019991146 0.030844687
0.05902481 -0.060683742 0.028409872 0.14855967 0.0126397135 0.018640326 -0.06955543 0.0034091538
0.4836531 0.41411802 0.568072 -0.84096843 -0.883253 -0.95594317 -0.2170343 -0.23634721
-0.16532727 -0.016408833 0.054282926 -0.01611092 -0.11304479 0.109228 0.010614025 -0.055836763
0.0025639415 0.07056742 -0.21145011 0.08643027 0.061888922 0.16471078 0.089661635 0.045465197
-0.12260712 -0.020134162 -0.026671806 0.1918029 0.1721732 -0.20394501 0.041488197 -0.014039064
0.10107888 0.058726374 0.045293685 -0.07325091 0.004025452 0.037768163 0.1625355 -0.0056247176
-0.05297809 0.083278716 -0.18731683 -0.020401653 -0.012232258 0.21190956 0.23832123 0.3857003
-0.5050887 -0.5878671 -0.49876863 0.033624075 0.113658376 -0.21738283 0.065206036 -0.07457293
-0.024540871 0.04217205 -0.061173342 0.11541612 0.09126235 0.14871062 -0.25067037 0.022669036
0.040360134 0.06276056 -0.033728216 0.032772526 -0.19405945 -0.08521655 0.15518856 -0.0066883303
0.08295803 -0.061706375 -0.021671187 -0.0063162614 0.025625298 -0.020205203 0.07120905 0.112394914
-0.06150839 -0.024475222 0.06880581 -0.0974293 -0.94890463 -0.69650096 -0.88866746 0.044130288
0.26289746 0.33032957 0.16406128 0.033990834 0.2696226 0.011365401 0.010184313 0.021638555
-0.048463363 0.14016336 -0.105490066 -0.08061836 -0.023297727 0.11914314 0.22732197 0.015607096
-0.10667705 -0.09302724 0.033118483 0.00021069516 0.016508307 0.0449134 -0.11450984 0.17590038
0.089017205 0.053982355 0.018169668 -0.003544984 -0.0660222 0.07447781 0.07006944 -0.007794008
0.011085482 0.119248666 -0.2197479 0.03466656 -0.21052499 0.061582454 0.05805968 0.12651576
0.191414 0.08099589 0.17002155 0.2966262 0.39114335 0.40888807 0.40509373 0.34275708
0.12863757 0.10357355 0.067324765 -0.09016855 -0.0697221 -0.010445531 0.060268074 0.07795714
0.11928146 -0.05638594 -0.08023988 0.019073838 -0.07309789 -0.0316777 0.06674629 0.0238576
-0.007901447 0.08216715 0.057124425 -0.061286718 0.0068721236 -0.011332179 -0.040578056 -0.004638843
-0.024109757 -0.021956967 -0.013852327 -0.0084776655 -0.06877141 0.05302927 0.03204444 0.0016868439
0.5166648 0.5556695 0.62474906 0.021748798 0.2323007 0.2775219 0.24548727 0.34611464
0.36397666 0.05320599 0.09970147 0.010281044 0.019763801 -0.0030035027 -0.034887157 -0.0668493
0.01988907 0.026357705 -0.0021292854 0.08929152 -0.094429046 0.16103055 -0.10357541 0.09650929
-0.01955296 -0.07504895 -0.10932213 -0.14303501 0.05324206 -0.089232564 0.0006282066 0.004589724
0.02497933 -0.0030801306 -0.0017324969 0.015855966 0.0013988675 0.22212501 -0.1694905 0.15176491
-0.05994404 -0.5521629 0.10620203 0.24385619 0.12681828 -0.4408753 -0.5500356 -0.5290611
0.42852023 0.19118962 0.39562744 0.10732347 0.12464306 0.033979293 -0.010371932 0.041112434
0.05933613 0.09080115 0.011217802 -0.16330115 -0.16082099 -0.17548521 0.23736718 0.005235059
00000000: be60 eabd 3cf9 64bc 6102 ed3c d9b6 33ba
00000010: debc c73d a343 bcbd 6e81 bfbd e06e d73d
00000020: 456a bdbd 83ba e33c 08ca aebd aa33 0dbc
00000030: 1912 3dba 0436 e2bb 79c4 a3bc ffad fc3c
00000040: 00c4 713d 848f 78bd d2bb e83c 0720 183e
00000050: cd16 4f3c 99b3 983c 1473 8ebd 1c6c 5f3b
00000060: 61a1 f73e 4707 d43e 2b6d 113f b549 57bf
00000070: de1c 62bf b1b8 74bf 3d3e 5ebe 0105 72be
00000080: 8d4b 29be d16b 86bc c657 5e3d 0cfb 83bc
00000090: 0784 e7bd eeb2 df3d 73e6 2d3c 17b5 64bd
000000a0: cd07 283b a785 903d 6186 58be 5a02 b13d
000000b0: 3d7f 7d3d f1a9 283e 85a0 b73d b739 3a3d
000000c0: 7119 fbbd 66f0 a4bc d57e dabc fb67 443e
000000d0: 2c4e 303e f6d6 50be 87ef 293d 1a04 66bc
000000e0: 7202 cf3d 118b 703d df85 393d 9304 96bd
000000f0: f0e7 833b cab2 1a3d b56f 263e 8d4f b8bb
00000100: 8eff 58bd 088e aa3d fccf 3fbe 5e21 a7bc
00000110: cf69 48bc d2fe 583e 7b0a 743e 827a c53e
00000120: 7e4d 01bf 757e 16bf 9a5e ffbe 66b9 093d
00000130: b9c5 e83d 9b99 5ebe be8a 853d b1b9 98bd
00000140: f009 c9bc 99bc 2c3d e690 7abd 495f ec3d
00000150: c1e7 ba3d 9947 183e de57 80be 6ab4 b93c
00000160: ab50 253d 9c88 803d 9926 0abd 7c3c 063d
00000170: 85b7 46be 0486 aebd c0e9 1e3e c829 dbbb
00000180: e6e5 a93d d3bf 7cbd c687 b1bc a4f8 cebb
00000190: 25ec d13c 6285 a5bc 0dd6 913d 4e2f e63d
000001a0: 39f0 7bbd 4380 c8bc 0fea 8c3d 0389 c7bd
000001b0: 6aeb 72bf e34d 32bf b67f 63bf f6c1 343d
000001c0: 7f9a 863e f520 a93e aeff 273e f939 0b3d
000001d0: f90b 8a3e f235 3a3c 1bdc 263c 5743 b13c
000001e0: 8581 46bd fc86 0f3e 2d0b d8bd 3d1b a5bd
000001f0: e0da bebc 5201 f43d 17c7 683e e8b4 7f3c
00000200: 7f79 dabd 1185 bebd 3fa7 073d 0dee 5c39
00000210: 6e3c 873c 1df7 373d 2384 eabd 3b1f 343e
00000220: a74e b63d 9a1c 5d3d 8ed8 943c f652 68bb
00000230: a636 87bd d287 983d 9180 8f3d e164 ffbb
00000240: e29f 353c a538 f43d 9805 61be 86fe 0d3d
00000250: dd93 57be e23d 7c3d fdcf 6d3d 598d 013e
00000260: 0802 443e 2ce1 a53d 211a 2e3e 64df 973e
00000270: f143 c83e c759 d13e 7268 cf3e db7d af3e
00000280: 91b9 033e 5f1e d43d 91e1 893d 4aaa b8bd
00000290: 76ca 8ebd bc23 2bbc a8db 763d fea7 9f3d
000002a0: d749 f43d f2f4 66bd ce54 a4bd bd40 9c3c
000002b0: 59b4 95bd 7ac0 01bd 47b2 883d 0371 c33c
000002c0: 1275 01bc 4047 a83d 4dfb 693d c807 7bbd
000002d0: 8d2f e13b 9baa 39bc 2d35 26bd 6f01 98bb
000002e0: d381 c5bc 19df b3bc dff4 62bc e8e5 0abc
000002f0: 06d8 8cbd 3835 593d 0841 033d 1719 dd3a
00000300: 2544 043f 5b40 0e3f 8eef 1f3f 892a b23c
00000310: 3ce0 6d3e 5a17 8e3e 0461 7b3e f035 b13e
00000320: 265b ba3e 86ee 593d 4930 cc3d d371 283c
00000330: b2e7 a13c 6ad6 44bb d6e5 0ebd 49e8 88bd
00000340: 67ee a23c 1dec d73c 7b8b 0bbb 79de b63d
00000350: 0464 c1bd 31e5 243e 581f d4bd aaa6 c53d
00000360: 872d a0bc 44b3 99bd 48e4 dfbd c577 12be
00000370: 5914 5a3d 90bf b6bd 3bae 243a 6565 963b
00000380: 74a1 cc3c 04dc 49bb f314 e3ba 5fe4 813c
00000390: 345a b73a bd74 633e eb8e 2dbe 4368 1b3e
000003a0: e287 75bd 8c5a 0dbf 7380 d93d 70b5 793e
000003b0: a7dc 013e 68ba e1be 22cf 0cbf 8c70 07bf
000003c0: 0167 db3e 36c7 433e ae8f ca3e 68cc db3d
000003d0: dc44 ff3d df2d 0b3d 09ef 29bc 8365 283d
000003e0: 710a 733d f4f5 b93d dfca 373c 6b38 27be
000003f0: 42ae 24be 65b2 33be 6210 733e dc8a ab3b

conv.0.bias f4 [32]
0.13255197 0.031130774 0.04990145 0.18077514 0.2535615 0.19499515 -0.124962546 0.020953944
0.046653893 0.121419236 0.03628864 0.09365275 -0.13026321 -5.7195302e-05 -0.0231331 -0.11926743
-0.032898676 0.065296665 0.19728643 0.09448647 0.022872848 0.27547944 0.27020383 -0.12678175
0.12196127 0.08069962 0.049752124 0.1673478 -0.09878454 -0.012575427 0.15567875 0.13232355
00000000: b4bb 073e f705 ff3c 7665 4c3d 1e1d 393e
00000010: d0d2 813e cfac 473e 5dec ffbd 9ba7 ab3c
00000020: 2718 3f3d a6aa f83d 66a3 143d 03cd bf3d
00000030: b863 05be fde4 6fb8 a081 bdbc 7b42 f4bd
00000040: c3c0 06bd 42ba 853d 7405 4a3e 1f82 c13d
00000050: d75f bb3c a40b 8d3e 2858 8a3e 13d3 01be
00000060: d5c6 f93d d845 a53d e2c8 4b3d 395d 2b3e
00000070: 8d4f cabd 2a09 4ebc 406a 1f3e d37f 073e

conv.1.weight f4 [32]
1.1326656 0.6778204 1.0615323 0.6942129 0.8690926 0.55891734 0.99338144 0.7621529
0.43876356 0.701066 0.9677283 0.43462995 0.7473311 0.6195465 0.65106136 1.0234815
0.7436049 1.1379297 0.760711 1.0863513 0.8573822 0.84761345 0.77411485 1.0539144
0.8767808 1.304238 0.7992351 0.5783019 0.88052016 0.7274029 0.7343461 0.88633585
00000000: 30fb 903f a385 2d3f 4ae0 873f f0b7 313f
00000010: da7c 5e3f 3515 0f3f 3f4e 7e3f 741c 433f
00000020: 9ea5 e03e 1079 333f 0bbd 773f d187 de3e
00000030: 1751 3f3f 999a 1e3f f5ab 263f 7101 833f
00000040: e45c 3e3f aea7 913f f5bd 423f 8f0d 8b3f
00000050: 667d 5b3f 32fd 583f 642c 463f abe6 863f
00000060: b574 603f 45f1 a63f ac9a 4c3f 980b 143f
00000070: c569 613f 1437 3a3f 1bfe 3b3f e8e6 623f

conv.1.bias f4 [32]
-0.3819269 -0.4241092 -0.33499688 -0.36306807 -0.3886021 -0.6247929 -0.33711323 -0.32326967
-0.26153237 -0.4676538 -0.2592632 -0.30848482 -0.5176543 -0.2976959 -0.2020286 -0.32116863
-0.46325693 -0.5656963 -0.43014 -0.26755664 -0.45508987 -0.699383 -0.69977826 0.13761263
-0.08177434 -0.28211325 -0.37070715 -0.59840375 -0.31890053 -0.2541214 -0.46208635 -0.46032166
00000000: ec8b c3be d724 d9be b684 abbe 0fe4 b9be
00000010: dbf6 c6be 6df2 1fbf 1b9a acbe 9a83 a5be
00000020: 92e7 85be 5270 efbe 25be 84be b9f1 9dbe
00000030: fe84 04bf 996b 98be 96e0 4ebe 3770 a4be
00000040: 0330 edbe 79d1 10bf 4f3b dcbe 2ffd 88be
00000050: 8a01 e9be c40a 33bf ab24 33bf 53ea 0c3e
00000060: 4e79 a7bd 2671 90be 54cd bdbe fd30 19bf
00000070: ee46 a3be 331c 82be 9596 ecbe 48af ebbe

conv.1.running_mean f4 [32]
0.08171079 0.050970238 -0.019813025 0.22296512 0.3431328 0.16400418 -0.20424654 -0.06770763
0.11435098 0.003180988 -0.049903203 0.1068735 -0.26234818 -0.082206875 -0.109176874 -0.27918285
-0.13863093 -0.0039408645 0.04108933 -0.014348346 -0.048569772 0.27170494 0.24202096 0.043343198
0.049402658 0.013395149 -0.06314622 0.12153687 -0.17598206 -0.08610494 0.18059106 0.065789185
00000000: fd57 a73d 2bc6 503d ed4e a2bc f850 643e
00000010: 1aaf af3e b6f0 273e 0126 51be 4caa 8abd
00000020: d930 ea3d 1f78 503b 4d67 4cbd 7ee0 da3d
00000030: 8052 86be 145c a8bd 2098 dfbd 0ef1 8ebe
00000040: 44f5 0dbe 5e22 81bb 494d 283d 5315 6bbc
00000050: 19f1 46bd e91c 8b3e 58d4 773e a388 313d
00000060: 715a 4a3d 5477 5b3c ce52 81bd 53e8 f83d
00000070: a434 34be c957 b0bd ddec 383e 7bbc 863d

conv.1.running_var f4 [32]
5.055075 3.029993 5.5139747 2.590029 4.675818 2.9544792 6.190927 4.9465127
2.028815 7.5987597 7.03265 6.2831244 9.704699 7.26572 5.540989 13.011269
4.791853 5.65452 11.593459 10.608411 6.422815 6.9776 1.4553475 15.306012
8.177471 6.476718 11.750057 3.072494 6.5483637 2.9329195 0.9943827 4.3133287
00000000: 2dc3 a140 68eb 4140 7b72 b040 09c3 2540
00000010: 4da0 9540 3016 3d40 131c c640 d549 9e40
00000020: 1bd8 0140 0a29 f340 780b e140 5b0f c940
00000030: 7246 1b41 c780 e840 c84f b140 282e 5041
00000040: dc56 9940 d4f1 b440 cf7e 3941 0dbc 2941
00000050: b387 cd40 8048 df40 d448 ba3f 6de5 7441
00000060: ecd6 0241 4641 cf40 3c00 3c41 bea3 4440
00000070: 328c d140 f4b4 3b40 dd8f 7e3f ca06 8a40

conv.5.weight f4 [64, 32, 3]
0.0295465 0.11640765 -0.07128665 -0.13793625 -0.16643098 -0.11667971 -0.30598146 -0.25328907
-0.24027339 -4.3682703e-05 -0.05165605 -0.027664578 -0.0002789754 0.18336044 -0.16006254 0.007489655
0.28024018 -0.063471004 -0.06250828 0.1688494 -0.032710187 0.1259017 -0.066939004 0.087944716
0.033079624 0.013403092 -0.06702878 0.07964012 0.083527125 0.17818424 -0.08625663 -0.041104607
-0.012662503 -0.00075318664 0.04341893 -0.002626595 0.003976581 0.10559191 0.208107 0.071381666
0.066672154 0.07735393 0.005408597 0.08205182 -0.061110076 0.15982835 0.09980893 0.2310369
0.008415013 -0.074111536 0.023714911 0.09455972 0.07256146 -0.08084826 0.18203793 0.05015905
0.036207326 -0.044733558 0.0056220274 -0.14193866 0.3805166 0.26689655 0.43128845 -0.14773528
-0.20426172 -0.6068207 -0.16679166 0.43261597 -0.3169816 -0.074311405 -0.06583205 -0.06020393
-0.14057456 -0.16601959 -0.28304398 -0.4173314 -0.3317762 -0.4657969 0.060436603 0.28718343
-0.23530585 0.07230957 0.24250732 0.069271594 0.20477857 0.15418184 0.0890179 -0.17125387
-0.20521551 0.08741505 0.019832605 0.36295652 -0.13297945 -0.08570283 -0.13843659 -0.17546703
-0.07776728 -0.01340628 -0.08173914 0.018296232 0.019993732 -0.020408953 0.39355126 0.4595814
0.52595097 0.16173512 -0.02511632 0.27678853 0.34846723 0.0407515 0.17856516 0.045259222
0.00273071 0.13803515 -0.059092417 0.07300113 0.061144747 0.14697754 0.081505105 0.20348766
-0.117625386 -0.11449203 0.049217355 -0.0058428426 -0.075386345 -0.034147255 -0.1196571 -0.10800985
-0.0543507 -0.0622597 0.004416201 -0.04687801 -0.13900954 -0.27415156 -0.047055386 -0.11107765
-0.1950188 -0.11160991 -0.090018205 0.004947568 -0.081011005 -0.17092451 -0.089351416 -0.1035541
-0.12629397 -0.16599865 -0.17899707 -0.022027537 0.009341198 0.02704949 0.056696936 0.08053516
0.11797812 -0.002050275 0.06541748 -0.0055366224 -0.056243803 0.049604062 -0.055167716 0.0011769313
0.0686387 -0.017645046 -0.049275078 0.058796216 0.18296482 0.035080217 0.09296534 0.0068896865
-0.04566063 0.032923546 0.088213675 0.2808777 0.17569526 1.2405007 0.0498956 0.1713894
0.034697436 -0.0474165 0.010930436 0.09293013 -0.03983234 0.111419335 0.022342987 -0.106315985
-0.049714543 -0.042092375 0.027910598 0.22469269 0.18503007 0.020570071 0.045888066 0.07616061
-0.043424815 -0.050260995 0.07408087 0.10834954 -0.015301899 -0.03718231 0.24673231 0.2601527
0.42768568 0.110694155 -0.029510308 -0.16338314 0.0077961944 -0.06315623 -0.066650905 -0.043332435
-0.060746867 -0.10776138 -0.5478652 -0.51023066 -0.49247724 0.1129902 -0.0816154 -0.054445423
-0.03894173 -0.096460596 -0.029106911 0.052769884 -0.07067645 0.12354896 -0.2579571 -0.21483494
-0.26959795 0.05723544 -0.10707036 0.10007147 -0.12025642 -0.17456473 -0.21979268 -0.023585908
-0.20346355 -0.20572455 0.0014838643 -0.11693267 -0.15674564 -0.16047814 -0.19479975 -0.06348611
-0.07376543 -0.05222813 -0.0017604842 -0.050950672 0.040734738 -0.0061401376 0.018540628 0.08568965
0.1318448 -0.6380452 -0.715056 -0.6423523 -0.048953056 0.00611894 -0.07101805 0.2889314
00000000: 800b f23c 2267 ee3d bcfe 91bd 293f 0dbe
00000010: e26c 2abe c6f5 eebd 9aa9 9cbe 1baf 81be
00000020: 3a0a 76be f237 37b8 4b95 53bd d3a0 e2bc
00000030: 7243 92b9 d7c2 3b3e 6fe7 23be c86b f53b
00000040: a47b 8f3e 16fd 81bd 5704 80bd dbe6 2c3e
00000050: 1efb 05bd 60ec 003e 5117 89bd 5c1c b43d
00000060: 807e 073d a498 5b3c 6346 89bd 5c1a a33d
00000070: 4510 ab3d ee75 363e 51a7 b0bd 4e5d 28bd
00000080: 6376 4fbc 8071 45ba 0cd8 313d f422 2cbb
00000090: fb4d 823b 9240 d83d 001a 553e 8d30 923d
000000a0: 698b 883d bd6b 9e3d 9a3a b13b c90a a83d
000000b0: 8f4e 7abd 0baa 233e a068 cc3d f094 6c3e
000000c0: 1fdf 093c cac7 97bd c645 c23c 87a8 c13d
000000d0: 1a9b 943d c693 a5bd 2768 3a3e 9373 4d3d
000000e0: 224e 143d 893a 37bd fc38 b83b 5e58 11be
000000f0: 12d3 c23e aaa6 883e d7d1 dc3e eb47 17be
00000100: fc29 51be 9a58 1bbf 6fcb 2abe d77f dd3e
00000110: 6a4b a2be 9430 98bd f4d2 86bd 6598 76bd
00000120: c7f2 0fbe 0a01 2abe 24eb 90be 76ac d5be
00000130: 92de a9be ee7c eebe 5f8c 773d b509 933e
00000140: 04f4 70be 0a17 943d d753 783e 44de 8d3d
00000150: 79b1 513e d8e1 1d3e 044f b63d 2d5d 2fbe
00000160: 0424 52be a906 b33d fd77 a23c 70d5 b93e
00000170: c42b 08be f784 afbd 52c2 0dbe a1ad 33be
00000180: 7444 9fbd 04a6 5bbc da66 a7bd fbe1 953c
00000190: e5c9 a33c ad30 a7bc 8d7f c93e 414e eb3e
000001a0: b9a4 063f e49d 253e bec0 cdbc 3ab7 8d3e
000001b0: 4c6a b23e 0beb 263d c9d9 363e bc61 393d
000001c0: b6f5 323b 1659 0d3e e40a 72bd 9e81 953d
000001d0: ea72 7a3d 4881 163e 26ec a63d 125f 503e
000001e0: 94e5 f0bd cc7a eabd 2398 493d 5175 bfbb
000001f0: 2864 9abd fedd 0bbd c80e f5bd 4534 ddbd
00000200: d79e 5ebd 0704 7fbd c7b5 903b 2803 40bd
00000210: 8458 0ebe 985d 8cbe 26bd 40bd ae7c e3bd
00000220: 02b3 47be bd93 e4bd 775b b8bd 351f a23b
00000230: 19e9 a5bd d606 2fbe e0fd b6bd 2c14 d4bd
00000240: 3553 01be 8dfb 29be 024b 37be 1873 b4bc
00000250: d30b 193c e496 dd3c 0c3b 683d 9eef a43d
00000260: 839e f13d e85d 06bb 9af9 853d 8e6c b5bb
00000270: e75f 66bd a12d 4b3d 8bf7 61bd 4343 9a3a
00000280: 7292 8c3d 588c 90bc aad4 49bd 4dd4 703d
00000290: 215b 3b3e 46b0 0f3d 9d64 be3d e1c2 e13b
000002a0: a406 3bbd d7da 063d 5fa9 b43d 34cf 8f3e
000002b0: 75e9 333e bac8 9e3f 545f 4c3d b480 2f3e
000002c0: e61e 0e3d ce37 42bd 9215 333c 2752 be3d
000002d0: 3c27 23bd d22f e43d a408 b73c 32bc d9bd
000002e0: 7aa1 4bbd 0e69 2cbd c4a4 e43c d715 663e
000002f0: 8678 3d3e 9182 a83c 20f5 3b3d 18fa 9b3d
00000300: 38de 31bd 79de 4dbd b6b7 973d 5de6 dd3d
00000310: d1b4 7abc 7a4c 18bd 65a7 7c3e bc32 853e
00000320: 9ef9 da3e 9eb3 e23d 9abf f1bc e94d 27be
00000330: 3877 ff3b 0e58 81bd 4580 88bd 5a7d 31bd
00000340: b5d1 78bd 00b2 dcbd e540 0cbf 7a9e 02bf
00000350: fa25 fcbe 6867 e73d fa25 a7bd 2a02 5fbd
00000360: 5d81 1fbd 228d c5bd 9e71 eebc 3c25 583d
00000370: d1be 90bd 3d07 fd3d f412 84be b1fd 5bbe
00000380: be08 8abe b56f 6a3d b447 dbbd 45f2 cc3d
00000390: ff48 f6bd 19c1 32be 5511 61be 3c37 c1bc
000003a0: c058 50be 75a9 52be 397e c23a 657a efbd
000003b0: ee81 20be 6254 24be 9679 47be 0105 82bd
000003c0: 5412 97bd 2aed 55bd 0cc0 e6ba a7b1 50bd
000003d0: 78d9 263d 3533 c9bb 84e2 973c 0e7e af3d
000003e0: 5302 073e ee56 23bf e90d 37bf 3371 24bf
000003f0: 0083 48bd 6481 c83b e971 91bd d1ee 933e

conv.5.bias f4 [64]
0.008916623 0.14651343 -0.028066402 0.08227542 -0.15224332 0.08549274 0.022987066 -0.029123189
0.054079533 -0.054041512 -0.056944735 -0.03337754 -0.02672887 -0.04040837 -0.03637989 0.10010867
0.13614321 0.026969459 0.01948509 0.025844416 0.006282997 0.010675762 0.04764782 -0.0695298
0.053210627 -0.041561466 -0.0674817 0.08378232 -0.07244345 0.0034280678 0.06908641 0.098299645
0.12770885 0.05922899 -0.010966599 0.0072009624 -0.012323291 -0.028325787 0.062963136 0.076310165
-0.030560454 -0.039651573 0.015454473 -0.019288588 -0.08331733 0.09942872 -0.05378501 -0.021078803
-0.020433694 0.04244239 -0.034584068 0.07537332 -0.08056546 -0.0074160546 0.093230575 0.04228848
0.0024495195 -0.00915061 0.06901625 0.069029175 -0.050439347 0.017797124 -0.004158855 0.030100562
00000000: 0717 123c 9e07 163e 83eb e5bc 0480 a83d
00000010: ace5 1bbe d116 af3d 5f4f bc3c c193 eebc
00000020: 8082 5d3d a25a 5dbd e23e 69bd e3b6 08bd
00000030: 81f6 dabc 3f83 25bd 1403 15bd c605 cd3d
00000040: 2069 0b3e 0eef dc3c 329f 9f3c abb7 d33c
00000050: 99e1 cd3b 64e9 2e3c 5c2a 433d a465 8ebd
00000060: 63f3 593d 5b3c 2abd d833 8abd 1196 ab3d
00000070: 3b5d 94bd 6fa9 603b 2d7d 8d3d 5351 c93d
00000080: 1cc6 023e 199a 723d 40ad 33bc 0df6 eb3b
00000090: a1e7 49bc 7b0b e8bc d1f2 803d 8148 9c3d
000000a0: eb59 fabc b069 22bd c234 7d3c 1a03 9ebc
000000b0: 47a2 aabd 49a1 cb3d ac4d 5cbd 74ad acbc
000000c0: 9064 a7bc 12d8 2d3d 06a8 0dbd 545d 9a3d
000000d0: 81ff a4bd 6002 f3bb acef be3d af36 2d3d
000000e0: 1e88 203b 71ec 15bc 6458 8d3d 2b5f 8d3d
000000f0: 7d99 4ebd 46cb 913c 0147 88bb 7495 f63c

conv.6.weight f4 [64]
0.9955672 1.0267644 1.035513 0.83938235 0.9600264 0.81062186 0.87208813 0.9604781
1.0416602 0.94684476 0.9666738 0.8544762 0.79236436 0.765484 0.96983236 0.8405769
1.1010754 0.98306125 1.0165161 0.88795954 0.96652955 0.91689813 0.97297007 1.0533696
0.93967736 0.8955186 1.0538652 1.109862 0.8219943 0.8822137 1.0602677 1.1023165
1.0336323 0.93440586 0.80154455 0.9836337 0.87215483 0.6737894 1.0056837 0.92814136
0.9296214 0.90403736 0.8974211 0.7930684 0.96130127 0.77831954 0.81393707 1.1998003
0.9152084 0.98070115 0.9148316 0.93667746 0.91061956 0.96056974 0.9467178 0.82954127
0.88296336 0.74038136 1.0643454 0.94112295 0.8288701 0.9800035 0.9041468 0.9344515
00000000: 7edd 7e3f 046d 833f b18b 843f c3e1 563f
00000010: 4ac4 753f ea84 4f3f 2b41 5f3f e5e1 753f
00000020: 1f55 853f 6b64 723f ef77 773f f4be 5a3f
00000030: 64d8 4a3f c2f6 433f ef46 783f 0c30 573f
00000040: 0af0 8c3f e7a9 7b3f 331d 823f 5151 633f
00000050: 7b6e 773f d6b9 6a3f 9114 793f d1d4 863f
00000060: b28e 703f b540 653f 0ee5 863f f50f 8e3f
00000070: 386e 523f c2d8 613f dab6 873f b518 8d3f
00000080: 104e 843f 3935 6f3f 0632 4d3f 6bcf 7b3f
00000090: 8a45 5f3f 767d 2c3f 3eba 803f ac9a 6d3f
000000a0: abfb 6d3f fe6e 673f 64bd 653f 8806 4b3f
000000b0: d717 763f f33f 473f 2e5e 503f 0e93 993f
000000c0: 194b 6a3f 3b0f 7b3f 6732 6a3f 18ca 6f3f
000000d0: 5d1e 693f e6e7 753f 195c 723f d15c 543f
000000e0: e309 623f a289 3d3f 783c 883f 6fed 703f
000000f0: d530 543f 82e1 7a3f 2a76 673f 3738 6f3f

conv.6.bias f4 [64]
-0.30686572 -0.15169038 -0.4709425 -0.45651835 -0.28585932 -0.35453513 -0.3703741 -0.24250205
-0.30197138 -0.32944745 -0.4792276 -0.2583106 -0.67473364 -0.067113124 -0.31596905 -0.36705688
-0.28275025 -0.25377333 -0.3863127 -0.095174715 -0.30708107 -0.4621924 -0.14751235 -0.37033048
-0.11529381 -0.3724412 -0.3896511 -0.29641965 -0.5094284 -0.23188008 -0.11590876 -0.21968518
-0.59070176 -0.43937945 -0.112696126 -0.24995615 -0.2384138 -0.35419315 -0.43319333 -0.4582218
-0.3028143 -0.2105588 -0.29703653 -0.86673087 -0.23386806 -0.29190496 -0.47662225 -0.240962
-0.3573282 -0.57246655 -0.24679889 -0.29350045 -0.21681646 -0.32078204 -0.54810494 -0.35243562
-0.3678011 -0.4874827 -0.2538379 -0.67249453 -0.27421632 -0.55364305 -0.43841267 -0.3703363
00000000: 811d 9dbe b954 1bbe 601f f1be c6bc e9be
00000010: 275c 92be a185 b5be ada1 bdbe 7552 78be
00000020: fe9b 9abe 56ad a8be 525d f5be 4941 84be
00000030: 58bb 2cbf 9b72 89bd b2c6 a1be e1ee bbbe
00000040: a4c4 90be 94ee 81be c7ca c5be f6ea c2bd
00000050: bb39 9dbe 7ba4 ecbe 7a0d 17be f59b bdbe
00000060: 291f ecbd 9db0 bebe 5980 c7be 51c4 97be
00000070: e669 02bf f971 6dbe 9261 edbd 27f5 60be
00000080: 3b38 17bf 58f6 e0be 3acd e6bd 81f4 7fbe
00000090: bf22 74be ce58 b5be 84cb ddbe 0c9c eabe
000000a0: 7a0a 9bbe ba9c 57be 2c15 98be 13e2 5dbf
000000b0: 1c7b 6fbe 9174 95be d507 f4be bebe 76be
000000c0: b9f3 b6be 2b8d 12bf d9b8 7cbe b145 96be
000000d0: 2205 5ebe 8b3d a4be 9b50 0cbf 7172 b4be
000000e0: 6d50 bcbe 5597 f9be 0bf7 81be 9a28 2cbf
000000f0: 1566 8cbe 8dbb 0dbf a077 e0be b89c bdbe

conv.6.running_mean f4 [64]
-0.396802 0.85262054 -0.8283354 0.958392 -1.1071603 -0.645594 -1.0808272 -0.3912493
-0.86134046 -0.77233565 -0.8360758 -1.5588123 0.74487764 0.28592145 -0.45291817 -0.63102543
-0.36138764 -0.20775387 -1.0396315 0.11634869 -0.79003245 -0.8633702 -1.3349253 -0.63121456
-0.34103805 -0.5753341 -1.3528568 -0.06435011 -0.8164092 -1.0321662 -0.32624072 0.023674544
-1.7270945 -0.38121322 -0.6656603 -1.0627576 -1.3242564 0.20126486 -1.7194605 -0.9475852
0.09443271 0.6004845 -0.80522436 -0.008340394 -1.526961 -1.1470749 -0.9936016 -0.79451287
-1.2288136 -1.8603677 -0.9398609 -0.7913613 -0.735119 -0.87272555 -0.64130694 -0.18223362
-0.3056918 -0.5430922 -0.13456361 0.77557546 -0.78399247 0.6062087 0.22846869 0.8692748
00000000: a229 cbbe 5745 5a3f ca0d 54bf 2e59 753f
00000010: 6eb7 8dbf a645 25bf 8c58 8abf d451 c8be
00000020: cf80 5cbf cab7 45bf 1009 56bf 2987 c7bf
00000030: 4db0 3e3f 4c64 923e e4e4 e7be e28a 21bf
00000040: cd07 b9be 6ebd 54be a512 85bf 3948 ee3d
00000050: 913f 4abf d405 5dbf d5de aabf 4797 21bf
00000060: 8a9c aebe 1849 13bf 692a adbf fec9 83bd
00000070: 3100 51bf 061e 84bf 0609 a7be 1ef1 c13c
00000080: 6f11 ddbf 612e c3be b768 2abf 7108 88bf
00000090: 3c81 a9bf 6018 4e3e 4817 dcbf f294 72bf
000000a0: f065 c13d 5ab9 193f 2f23 4ebf 26a6 08bc
000000b0: 7573 c3bf 5ad3 92bf ad5c 7ebf 3265 4bbf
000000c0: c449 9dbf 8720 eebf b99a 70bf a796 4abf
000000d0: c230 3cbf f16a 5fbf b12c 24bf 739b 3abe
000000e0: a383 9cbe 1708 0bbf 0bcb 09be 1d8c 463f
000000f0: bbb3 48bf 7e30 1b3f b2f3 693e cb88 5e3f

conv.6.running_var f4 [64]
0.8162717 1.378499 1.1890203 0.72561425 1.0920328 0.9803366 1.5135239 1.3190572
0.7453892 0.6217223 1.7767562 2.5661397 0.7624997 1.631795 0.51176745 1.4164544
1.3989059 1.1095443 1.6972507 1.6090603 1.074595 1.0715877 6.093455 1.4382856
0.38469684 0.79998094 2.3575788 0.43406045 0.4831189 3.5660074 2.9348288 1.3645471
2.8469255 0.5582449 2.5502462 3.9384582 1.7768193 0.7579426 2.6315324 2.20396
0.49802354 0.71389914 2.429923 0.29528597 4.2118053 1.2831815 1.0693668 2.8688033
2.92027 2.7268527 2.5787005 1.3003725 1.5911751 1.7237765 1.7932171 0.88683987
1.0457315 0.5328185 1.7805847 1.0313729 0.79010165 0.33502555 0.97690517 1.6375085
00000000: 2ff7 503f a872 b03f d131 983f dbc1 393f
00000010: bbc7 8b3f 57f7 7a3f 27bb c13f ded6 a83f
00000020: d4d1 3e3f 3129 1f3f bf6c e33f a23b 2440
00000030: 2e33 433f a9de d03f 3103 033f 614e b53f
00000040: 590f b33f 8c05 8e3f 833f d93f b0f5 cd3f
00000050: 548c 893f c929 893f 95fd c240 be19 b83f
00000060: fcf6 c43e 8dcb 4c3f 92e2 1640 2c3d de3e
00000070: 5c5b f73e 7739 6440 3cd4 3b40 7ba9 ae3f
00000080: 0734 3640 23e9 0e3f 3c37 2340 b30f 7c40
00000090: d16e e33f 8708 423f 076b 2840 ae0d 0d40
000000a0: f1fc fe3e 18c2 363f dc83 1b40 b92f 973e
000000b0: 1cc7 8640 4b3f a43f 03e1 883f 799a 3740
000000c0: b4e5 3a40 c184 2e40 6e09 2540 9b72 a63f
000000d0: a0ab cb3f b5a4 dc3f 2388 e53f f007 633f
000000e0: 88da 853f cb66 083f 33ea e33f 0704 843f
000000f0: 1a44 4a3f 7888 ab3e 7516 7a3f e199 d13f

conv.10.weight f4 [128, 64, 3]
0.078130305 0.025730422 0.13744676 0.18506445 0.13558356 0.2636568 0.10794963 0.3488378
0.06417082 0.19750713 0.06623384 0.0830405 -0.29636163 -0.06761932 -0.16421872 -0.040066797
0.06684542 0.12588769 0.019970251 0.12828484 0.18429828 0.0674093 0.09771623 0.029698242
-0.09850645 -0.11034567 0.058835562 -0.34225875 0.025054416 -0.22356097 0.07089254 0.124861546
0.08919106 0.027746191 0.27733403 0.099484526 0.41962868 0.17979959 0.029466446 0.008952326
0.07570332 0.04359737 0.1678758 0.046354596 0.03750553 -0.013040564 -0.018723838 0.015160659
0.0656721 0.1949625 -0.029168768 0.129653 0.047732897 0.12178629 0.045933757 0.11187944
0.060152296 0.10854812 0.060359422 0.13912232 0.121350154 0.08083291 0.07365903 0.045580048
0.22307104 -0.104059495 -0.053699467 -0.023134092 -0.08153145 0.07777386 0.22843592 0.090907395
-0.26430562 -0.26313365 -0.18436131 0.102234766 0.012063296 -0.21534461 -0.5192522 -0.45844722
-0.391949 0.14403893 0.103174195 0.1321954 -0.06956371 -0.042447522 -0.11370038 -0.07595191
-0.11215468 -0.41331902 0.10354659 0.12041133 0.15003507 0.011719237 -0.017739002 0.08305134
0.22673362 0.2612301 0.19068421 0.22944304 0.16859058 -0.05580695 0.074988924 -0.029804554
-0.1650552 0.0031392958 -0.064389005 -0.37720564 -0.0005396317 0.19917715 0.07480594 0.28937644
0.2220671 0.16708817 0.19243379 -0.022298956 0.030677991 0.044639006 0.09386173 0.13128278
-0.012813583 -0.03973081 0.011442848 0.04468523 0.08903969 0.091350146 -0.113153115 0.0065207225
-0.16144319 0.026377851 0.09486114 0.074762486 0.019291488 0.04797198 -0.36251354 0.025792334
0.30196357 0.35330048 -0.22449146 -0.14588219 -0.22124432 0.029338151 0.008629741 0.102708116
-0.2798182 -0.089291655 -0.3593209 0.19037619 0.20298602 0.1778082 -0.11703449 -0.1379687
-0.017016748 -0.03173685 -0.026181618 -0.24389736 0.022169251 0.1075527 0.1282833 -0.24031292
-0.2032024 -0.36688775 -0.1044019 0.01519548 -0.08609034 -0.06544702 0.1386006 0.17769481
-0.052706763 0.19642805 0.114712894 -0.10479617 -0.011695234 0.08480771 0.036091086 0.25419056
0.18959329 0.32964247 0.3468402 0.5974365 -0.1832294 -0.16788396 -0.29761684 0.38399392
0.26560283 0.40948758 0.25156683 0.12587377 0.0819567 0.20725492 0.1378788 0.24848388
-0.027804255 -0.41171637 -0.36513492 -0.24573727 -0.31487924 -0.3274399 -0.19942331 -0.027127238
-0.15283665 -0.034843355 -0.13874511 -0.087041415 0.05839184 0.03206062 0.11243684 -0.23975086
-0.0880465 0.074843876 0.018316533 0.0591336 0.059056718 -0.15635516 -0.049910992 -0.0050297785
-0.008927015 0.18423507 0.22804905 0.040731587 0.17929134 -0.084716484 0.02186218 -0.14333345
-0.027566195 -0.08006099 0.04871494 -0.16035424 -0.02348439 -0.18894991 -0.15730332 0.0065346234
-0.11355375 0.0154673485 0.1522677 -0.10857102 -0.19986516 -0.0033476336 -0.015449314 0.030913638
-0.16118763 -0.034652658 0.06638418 0.037553992 -0.042438 0.03825385 -0.026956033 -0.22655524
0.16708207 -0.10597308 -0.1773408 -0.024835957 0.13369513 -0.062465973 -0.029258205 -0.45000568
00000000: c802 a03d 9bc8 d23c d8be 0c3e 8981 3d3e
00000010: 6bd6 0a3e 06fe 863e b214 dd3d de9a b23e
00000020: fe6b 833d 4f3f 4a3e 9ca5 873d 2311 aa3d
00000030: b6bc 97be ff7b 8abd f428 28be 151d 24bd
00000040: 40e6 883d b4e8 003e a798 a33c 1a5d 033e
00000050: b0b8 3c3e e30d 8a3d 721f c83d ba49 f33c
00000060: c0bd c9bd e9fc e1bd 8ffd 703d 8a3c afbe
00000070: eb3e cd3c 2bed 64be 1c30 913d 69b7 ff3d
00000080: cda9 b63d fb4b e33c bafe 8d3e 8bbe cb3d
00000090: 92d9 d63e 621d 383e 9e63 f13c c7ac 123c
000000a0: 580a 9b3d 2893 323d a2e7 2b3e 51de 3d3d
000000b0: 669f 193d 17a8 55bc bc62 99bc 6a64 783c
000000c0: 187f 863d 40a4 473e 57f3 eebc c2c3 043e
000000d0: 9283 433d 176b f93d 0925 3c3d 0c21 e53d
000000e0: 4162 763d 7a4e de3d 713b 773d 1576 0e3e
000000f0: 6e86 f83d ba8b a53d 8cda 963d 25b2 3a3d
00000100: bc6c 643e 251d d5bd f9f3 5bbd b583 bdbc
00000110: f6f9 a6bd e747 9f3d 1beb 693e a82d ba3d
00000120: 1153 87be 74b9 86be 36c9 3cbe 7660 d13d
00000130: 21a5 453c 4c83 5cbe b6ed 04bf 98b9 eabe
00000140: 8aad c8be f17e 133e fe4c d33d 3b5e 073e
00000150: 6b77 8ebd 74dd 2dbd bfdb e8bd ad8c 9bbd
00000160: 5ab1 e5bd 8d9e d3be 3c10 d43d 379a f63d
00000170: cba2 193e 0b02 403c 6251 91bc d216 aa3d
00000180: dc2c 683e f4bf 853e b942 433e 1ef3 6a3e
00000190: 02a3 2c3e d495 64bd cb93 993d ae28 f4bc
000001a0: 3b04 29be a5bc 4d3b 62de 83bd 1921 c1be
000001b0: 1276 0dba 18f5 4b3e db33 993d 2629 943e
000001c0: 8f65 633e 2919 2b3e 5d0d 453e 4dac b6bc
000001d0: 6950 fb3c 64d7 363d 943a c03d fe6e 063e
000001e0: 10f0 51bc c6bc 22bd c87a 3b3c dc07 373d
000001f0: 715a b63d c915 bb3d d2bc e7bd c9ab d53b
00000200: 5d51 25be 5d16 d83c 8f46 c23d 131d 993d
00000210: 2f09 9e3c 447e 443d 609b b9be 724a d33c
00000220: f89a 9a3e cde3 b43e 17e1 65be 2462 15be
00000230: df8d 62be 9056 f03c c263 0d3c a258 d23d
00000240: 5544 8fbe 8bde b6bd e9f8 b7be faf1 423e
00000250: 91db 4f3e 5a13 363e c7af efbd ab47 0dbe
00000260: b566 8bbc 80fe 01bd d57a d6bc 3bc0 79be
00000270: 4a9c b53c 9744 dc3d b35c 033e 9714 76be
00000280: 4a14 50be b6d8 bbbe aad0 d5bd 76f6 783c
00000290: 2250 b0bd 1609 86bd 51ed 0d3e a1f5 353e
000002a0: 0ce3 57bd 6f24 493e 98ee ea3d 609f d6bd
000002b0: 5e9d 3fbc aaaf ad3d 3fd4 133d 4425 823e
000002c0: be24 423e e6c6 a83e 0a95 b13e 99f1 183f
000002d0: 7da0 3bbe c6e9 2bbe 3c61 98be da9a c43e
000002e0: 18fd 873e 5ba8 d13e 5ecd 803e 0ee5 003e
000002f0: ead8 a73d a23a 543e 1a30 0d3e 8f72 7e3e
00000300: c0c5 e3bc 7dcc d2be f7f2 babe 8da2 7bbe
00000310: da37 a1be 34a6 a7be a035 4cbe f139 debc
00000320: 3681 1cbe e8b7 0ebd 3313 0ebe c542 b2bd
00000330: 482c 6f3d ff51 033d 4945 e63d 4081 75be
00000340: b951 b4bd bf47 993d 8e0c 963c 1336 723d
00000350: 75e5 713d 911b 20be 786f 4cbd d7d0 a4bb
00000360: 9d42 12bc 1ea8 3c3e b185 693e 2ad6 263d
00000370: 2698 373e d67f adbd 5118 b33c 01c6 12be
00000380: 80d2 e1bc 04f7 a3bd 5189 473d e733 24be
00000390: 5662 c0bc 167c 41be 1f14 21be 6520 d63b
000003a0: de8e e8bd c36a 7d3c 10ec 1b3e 7c5a debd
000003b0: 74a9 4cbe f963 5bbb 1f1f 7dbc 993e fd3c
000003c0: 5f0e 25be f2ef 0dbd 6ef4 873d 37d2 193d
000003d0: 78d3 2dbd 12b0 1c3d e6d2 dcbc 19fe 67be
000003e0: 9017 2b3e 6a08 d9bd d498 35be c774 cbbc
000003f0: 60e7 083e 52dc 7fbd e7ae efbc 2567 e6be

conv.10.bias f4 [128]
0.07508547 0.027504554 0.0024066283 0.019912442 0.03409921 0.042327356 -0.058377057 0.026430536
0.014255917 -0.04414373 -0.04350428 0.021000473 0.055648215 -0.0667487 -0.022583956 0.019753076
0.012283819 -0.031890903 -0.024436828 -0.03859217 0.029483624 -0.022931762 0.050969645 0.06519058
0.04776948 0.04420641 -0.025661774 0.03730998 0.06888211 -0.042599875 -0.061028484 -0.019359235
-0.0069245943 -0.042141277 -0.056328733 -0.03961484 -0.06793071 0.044675287 -0.0006032664 0.044310994
-0.029129148 0.066050865 0.0028493395 0.016457714 -0.032255694 0.06743638 -0.06871354 -0.044321902
0.063133374 0.069702044 -0.009533506 -0.038182635 -0.05023727 0.023549588 -0.035263296 0.022090267
0.0004481184 0.008663382 0.031920142 0.002927716 -0.044221386 -0.0322985 -0.08694302 -0.037223097
-0.053048763 -0.023150975 0.036524985 0.077389725 -0.035580486 0.04532152 -0.04619144 -0.015166263
0.060913134 0.005826723 -0.027540367 0.07202842 0.07266305 0.0015281246 0.07779721 0.05373148
-0.033674534 0.040298812 -0.042562775 -0.052892536 0.07633111 -0.023789916 5.629382e-05 -0.056355823
0.017709274 0.02098814 -0.04905763 0.016224796 0.06377072 0.046355136 -0.0054811095 0.06444444
0.031708185 0.007950615 0.027047811 0.085885905 -0.012317453 0.008283394 0.009125727 0.010080911
0.03736144 0.058081765 -0.045011997 -0.027171409 -0.026427973 -0.066008575 0.0005404833 0.023377737
0.03315382 -0.021729214 0.003912012 0.06810411 -0.03770011 -0.032747686 -0.017744288 0.031615447
0.06296257 -0.03543549 0.024341533 -0.0032150892 -0.02189148 -0.043203566 -0.036683153 0.001885146
00000000: 69c6 993d 3b51 e13c 86b8 1d3b 6b1f a33c
00000010: 9dab 0b3d 735f 2d3d c81c 6fbd da84 d83c
00000020: a691 693c 0ed0 34bd 8b31 32bd 2f09 ac3c
00000030: 62ef 633d 8bb3 88bd fd01 b9bc 34d1 a13c
00000040: 1242 493c 09a0 02bd be2f c8bc d312 1ebd
00000050: a487 f13c 64db bbbc 8cc5 503d a482 853d
00000060: eea9 433d c811 353d a438 d2bc 59d2 183d
00000070: 1012 8d3d 357d 2ebd 01f9 79bd 4297 9ebc
00000080: b5e7 e2bb 559c 2cbd f5b8 66bd 2c43 22bd
00000090: 421f 8bbd 6ffd 363d 8624 1eba 727f 353d
000000a0: 40a0 eebc ad45 873d fcbb 3a3b 54d2 863c
000000b0: 8c1e 04bd 161c 8a3d afb9 8cbd e28a 35bd
000000c0: 124c 813d f2bf 8e3d 6c32 1cbc 6565 1cbd
000000d0: 98c5 4dbd 11eb c03c 3f70 10bd a6f6 b43c
000000e0: 6ff1 ea39 dcf0 0d3c b2be 023d ecde 3f3b
000000f0: 7c21 35bd 6f4b 04bd 2f0f b2bd 3f77 18bd
00000100: a949 59bd 1da7 bdbc 399b 153d 817e 9e3d
00000110: d8bc 11bd 0fa3 393d 3c33 3dbd eb7b 78bc
00000120: 0d80 793d 18ee be3b 569c e1bc a383 933d
00000130: 5dd0 943d 5a4b c83a 2554 9f3d 8a15 5c3d
00000140: 4fee 09bd 5e10 253d 4e56 2ebd d8a5 58bd
00000150: 7c53 9c3d 12e3 c2bc 071d 6c38 5dd5 66bd
00000160: 0a13 913c 52ef ab3c a7f0 48bd dde9 843c
00000170: 399a 823d e2de 3d3d e19a b3bb 72fb 833d
00000180: 71e0 013d 4c43 023c 5f93 dd3c f3e4 af3d
00000190: 24cf 49bc 13b7 073c 1384 153c 682a 253c
000001a0: 4f08 193d 25e7 6d3d 805e 38bd 9396 debc
000001b0: 7a7f d8bc 812f 87bd 38af 0d3a ab82 bf3c
000001c0: 4dcc 073d 7701 b2bc 5630 803b 2b7a 8b3d
000001d0: 6e6b 1abd 7022 06bd 785c 91bc 337f 013d
000001e0: 85f2 803d ce24 11bd e567 c73c 3fb4 52bb
000001f0: c355 b3bc 39f6 30bd 1341 16bd 0117 f73a

conv.11.weight f4 [128]
1.2311921 1.0848612 0.8981727 1.2833073 1.1175054 1.3784353 0.9219436 0.93862736
1.4318547 1.1145617 1.0929263 1.3273276 1.0102962 0.9995918 1.3605939 1.0732541
1.4820203 1.4211807 1.0874232 0.92634076 0.91874963 1.049705 1.1442488 0.9438244
1.3869405 1.0185661 1.2282494 1.7165811 1.1885765 0.9291799 1.1590512 1.161969
1.8092257 1.4616152 0.87748665 1.364325 1.2029754 1.5407063 0.9477794 1.9016275
1.9318955 1.3022531 1.0998734 1.8373172 0.894014 0.8985571 1.3649027 1.19699
1.2568641 0.95902866 1.9171866 1.3915182 1.5137575 1.3383654 1.0385462 1.3856122
2.0043306 0.92582107 0.9693287 0.9104066 1.559686 1.3011715 1.3238918 1.8886474
1.06492 0.8768893 1.0201702 1.1771448 0.9650329 0.99198514 1.9145911 1.1509359
1.1111279 1.4426883 1.546212 1.9421338 1.2832448 1.2129499 1.0631909 1.0644274
1.1155212 0.9237773 1.630909 2.0889904 1.4810331 1.2622428 1.1692096 1.2480706
1.1973916 0.90678847 0.98465186 1.0338521 1.1090995 0.98786247 1.0150287 0.9932319
1.3271885 0.8671352 2.181056 1.0309176 1.0999382 1.0572695 1.0281829 1.385218
1.3206779 1.3944966 1.4702061 1.381789 1.2851151 1.336885 1.1665579 1.2620595
0.9820141 1.9202346 0.922904 0.9272816 1.129223 0.91594845 1.3131876 0.8771968
0.90637606 1.5203879 1.1422405 1.0774615 1.340876 0.9773564 1.1931331 0.9422913
00000000: b497 9d3f bbdc 8a3f a5ee 653f 6a43 a43f
00000010: 6b0a 8f3f 9170 b03f 7f04 6c3f e249 703f
00000020: 0447 b73f f5a9 8e3f 02e5 8b3f dfe5 a93f
00000030: 6351 813f 40e5 7f3f f127 ae3f 6460 893f
00000040: d7b2 bd3f 40e9 b53f af30 8b3f ab24 6d3f
00000050: 2d33 6b3f bc5c 863f bf76 923f 7a9e 713f
00000060: 4487 b13f 6060 823f 4737 9d3f eeb8 db3f
00000070: 4623 983f bcde 6d3f ca5b 943f 66bb 943f
00000080: b594 e73f 3516 bb3f f7a2 603f 34a2 ae3f
00000090: 19fb 993f dd35 c53f aca1 723f 8868 f33f
000000a0: 5a48 f73f 3bb0 a63f a7c8 8c3f 362d eb3f
000000b0: 1ade 643f d707 663f 22b5 ae3f f836 993f
000000c0: ece0 a03f e782 753f 5f66 f53f 451d b23f
000000d0: cec2 c13f 8f4f ab3f 15ef 843f be5b b13f
000000e0: f446 0040 9c02 6d3f ed25 783f 6810 693f
000000f0: caa3 c73f ca8c a63f 4975 a93f 33bf f13f
00000100: 4c4f 883f d17b 603f f094 823f aeac 963f
00000110: 650c 773f bdf2 7d3f 5211 f53f de51 933f
00000120: 7039 8e3f 03aa b83f 46ea c53f d797 f83f
00000130: 5e41 a43f f141 9b3f a416 883f 283f 883f
00000140: 66c9 8e3f ab7c 6c3f a0c1 d03f 05b2 0540
00000150: 7e92 bd3f 2c91 a13f a9a8 953f c7c0 9f3f
00000160: 2144 993f 4a23 683f 2512 7c3f 4455 843f
00000170: f9f6 8d3f 8ee4 7c3f 76ec 813f 7244 7e3f
00000180: 50e1 a93f 93fc 5d3f 6c96 0b40 1cf5 833f
00000190: c6ca 8c3f 9b54 873f 7f9b 833f d34e b13f
000001a0: f90b a93f dd7e b23f b72f bc3f 76de b03f
000001b0: a77e a43f 0c1f ab3f c551 953f 2a8b a13f
000001c0: 4765 7b3f 3fca f53f 7043 6c3f 5462 6d3f
000001d0: 618a 903f 997b 6a3f 8816 a83f f88f 603f
000001e0: 4308 683f 129c c23f f034 923f 42ea 893f
000001f0: d3a1 ab3f 0734 7a3f 96b8 983f 013a 713f

conv.11.bias f4 [128]
-0.3667751 -0.050166477 -0.287017 -0.12235083 0.060458846 0.006977511 -0.124442965 -0.12633157
-0.09708346 -0.0649719 0.009900124 0.0004984131 -0.14365996 -0.10509169 -0.8920369 0.08305291
-0.09159123 0.09584217 0.02656394 -0.3037575 -0.4763968 -0.015535959 -0.5792389 -0.31180128
0.2488733 -0.2310656 -0.5814033 0.009574433 -0.10929412 -0.17638138 0.028737934 -0.095389366
0.030842988 -0.0012353078 -0.1493817 -0.20752084 -0.1260321 0.044441614 -0.2165041 0.23856409
0.07823883 0.0513546 -0.53222364 -0.001966854 -0.31195164 -0.4223158 0.06329021 0.035037808
0.090537354 -0.5662336 -0.059231494 -0.3924015 -0.02543824 -0.021006115 -0.112112984 0.039660588
0.059781037 -0.18459155 -0.20188439 -0.20804973 0.16133723 -0.08893858 -0.15394802 -0.5337112
-0.41492444 -0.586808 -0.23708974 -0.46144176 -0.37073496 -0.13920876 0.05219568 -0.05601229
-0.22550055 -0.030381236 -0.14935525 -0.21938539 0.0063868407 -0.3288575 -0.2614114 -0.08216288
0.11741828 -0.19865985 0.019023463 -0.13616362 -0.043861113 0.19494246 -0.12744677 -0.39519998
0.020293102 -0.36032262 -0.07434152 0.002472482 -0.07612785 -0.13918501 -0.22620505 -0.17315581
0.025464816 -0.28803262 0.09291542 -0.2706382 0.0048222034 -0.51475793 -0.37062553 0.11847556
-0.11551502 0.07857742 0.004092769 -0.09231738 -0.013681114 0.0011140524 0.046141222 -0.09285481
-0.25534734 -0.019887911 -0.3354089 -0.2816772 -0.077024534 -0.4271398 -0.40990674 -0.35332823
-0.37339726 -0.2789173 0.0070411726 0.018265795 -0.22994553 -0.08205666 -0.12879835 -0.50367385
00000000: f2c9 bbbe 5d7b 4dbd e4f3 92be 1293 fabd
00000010: b2a3 773d 9ba3 e43b f4db febd 105d 01be
00000020: b1d3 c6bd fd0f 85bd 2134 223c f0a7 023a
00000030: 991b 13be 503a d7bd 885c 64bf a517 aa3d
00000040: 2f94 bbbd e648 c43d 9f9c d93c 1a86 9bbe
00000050: 48ea f3be 898a 7ebc 0049 14bf 6ba4 9fbe
00000060: a4d8 7e3e 769c 6cbe d9d6 14bf 15de 1c3c
00000070: 98d5 dfbd 529d 34be d16b eb3c 805b c3bd
00000080: 6faa fc3c 0dea a1ba 84f7 18be 5880 54be
00000090: 8f0e 01be 6908 363d 40b3 5dbe 254a 743e
000000a0: ae3b a03d 3359 523d cf3f 08bf 56e6 00bb
000000b0: 20b8 9fbe c739 d8be 4c9e 813d ce83 0f3d
000000c0: a66b b93d aff4 10bf b99c 72bd d9e8 c8be
000000d0: db63 d0bc 0415 acbc 7e9b e5bd 2473 223d
000000e0: f6dc 743d 9105 3dbe c8ba 4ebe fd0a 55be
000000f0: 9635 253e 6e25 b6bd 8da4 1dbe 4ca1 08bf
00000100: fa70 d4be 0d39 16bf a7c7 72be 1842 ecbe
00000110: f9d0 bdbe be8c 0ebe 23cb 553d 256d 65bd
00000120: 9ee9 66be 12e2 f8bc 95f0 18be 90a6 60be
00000130: b448 d13b 0360 a8be b7d7 85be 0345 a8bd
00000140: ff78 f03d 7d6d 4bbe 18d7 9b3c 7a6e 0bbe
00000150: b6a7 33bd ff9e 473e 6881 02be a757 cabe
00000160: b83d a63c 357c b8be 5e40 98bd 5d09 223b
00000170: ebe8 9bbd 8486 0ebe 4ca2 67be c24f 31be
00000180: 979b d03c 0379 93be 714a be3d 1791 8abe
00000190: 9303 9e3b 2dc7 03bf a1c2 bdbe 50a3 f23d
000001a0: 2493 ecbd 33ed a03d a31c 863b e510 bdbd
000001b0: c026 60bc 6505 923a 94fe 3c3d aa2a bebd
000001c0: e3bc 82be f9eb a2bc b7ba abbe fe37 90be
000001d0: 0abf 9dbd 11b2 dabe 4cdf d1be 70e7 b4be
000001e0: ed2d bfbe 40ce 8ebe a3b9 e63b 26a2 953c
000001f0: d776 6bbe 520d a8bd b7e3 03be c5f0 00bf

conv.11.running_mean f4 [128]
1.7682936 -2.238286 -1.4237202 -0.2226919 0.050398752 0.60696465 -3.120379 -0.1339436
3.5168529 0.1740885 0.4216402 0.39441064 -1.8805095 -1.4352775 -1.7858747 0.22613361
1.8644805 -0.24897055 -0.41010156 -1.5562406 -1.2367886 0.23792517 -2.4966528 1.2026284
-0.25328422 -0.66118795 -2.321639 1.9013759 0.1829388 -1.6315819 1.3107402 1.869322
-0.89891106 1.0080241 -0.54944944 0.7126272 2.2622075 -0.52556413 -2.1694198 2.4661498
2.3017175 -0.41611752 -0.98020226 -0.30751687 -1.9594544 -0.91163355 -0.8642755 -0.02978277
1.6791465 -1.0706807 2.7081957 2.2730987 0.124822736 1.1836087 -1.9094986 0.3648214
-0.19108948 -2.224676 -1.4933491 -2.469331 -0.32247725 1.7508092 0.05613669 0.039984856
-1.2415375 -2.1709695 -3.0255594 -0.699141 -1.8332484 1.4572171 -0.66293734 -0.20954423
-1.6716769 2.1231265 0.83167446 0.6713465 2.7509913 2.7503798 0.10329708 0.74210984
0.7675567 -3.3609545 0.060675107 -0.32364625 -0.40877625 -0.549872 0.7793087 -1.3584578
1.1753638 -1.8990719 -3.751777 -0.55302376 -0.7520771 0.56250906 -0.78636014 -2.3105457
1.7743485 -2.1154046 -0.9122141 -0.9627475 0.05112022 -0.02430313 -0.09946144 -0.5478021
1.6014355 0.37455782 -0.90382916 2.2485337 1.4273651 3.0825076 0.6466928 -0.5315982
-1.6159209 -0.6015683 -1.6753596 -0.4209085 -0.363193 -0.5302036 -0.8198929 -0.485928
-2.317781 0.23094793 0.20744672 -0.71519244 0.17967603 -3.4085226 -1.1354485 -0.44980446
00000000: 7257 e23f 1440 0fc0 773c b6bf 5809 64be
00000010: ec6e 4e3d 0962 1b3f 4ab4 47c0 8328 09be
00000020: 1e14 6140 4144 323e 39e1 d73e 31f0 c93e
00000030: 89b4 f0bf 2cb7 b7bf 8b97 e4bf 928f 673e
00000040: 4ca7 ee3f 23f2 7ebe d5f8 d1be e432 c7bf
00000050: 174f 9ebf a8a2 733e 29c9 1fc0 baef 993f
00000060: 78ae 81be 9d43 29bf bc95 14c0 4960 f33f
00000070: 4f54 3b3e add7 d0bf 56c6 a73f f145 ef3f
00000080: 091f 66bf ef06 813f b8a8 0cbf bc6e 363f
00000090: 02c8 1040 5f8b 06bf c6d7 0ac0 66d5 1d40
000000a0: 574f 1340 5b0d d5be 89ee 7abf da72 9dbe
000000b0: 67cf fabf d160 69bf 2941 5dbf fffa f3bc
000000c0: 46ee d63f 110c 89bf 1453 2d40 737a 1140
000000d0: 10a3 ff3d 7d80 973f 736a f4bf dfc9 ba3e
000000e0: f6ac 43be 1761 0ec0 1026 bfbf 8509 1ec0
000000f0: bd1b a5be 841a e03f 96ef 653d 29c7 233d
00000100: b3ea 9ebf 2af1 0ac0 c4a2 41c0 e8fa 32bf
00000110: e2a7 eabf 1786 ba3f 43b6 29bf c392 56be
00000120: 82f9 d5bf 4ee1 0740 9ee8 543f 5ddd 2b3f
00000130: 3e10 3040 3906 3040 6b8d d33d e9fa 3d3f
00000140: 997e 443f e119 57c0 7686 783d f6b4 a5be
00000150: 1f4b d1be 69c4 0cbf c680 473f f2e1 adbf
00000160: 5272 963f ca14 f3bf 1d1d 70c0 f792 0dbf
00000170: 2088 40bf 9800 103f e64e 49bf fbdf 13c0
00000180: da1d e33f ca62 07c0 dd86 69bf 9f76 76bf
00000190: 7063 513d 5c17 c7bc 71b2 cbbd c23c 0cbf
000001a0: d7fb cc3f 0bc6 bf3e 5961 67bf fae7 0f40
000001b0: e6b3 b63f ce47 4540 a98d 253f d216 08bf
000001c0: 7fd6 cebf 6100 1abf 2f72 d6bf 5281 d7be
000001d0: 6ff4 b9be 6cbb 07bf 80e4 51bf 8ecb f8be
000001e0: 8656 14c0 9d7d 6c3e ea6c 543e da16 37bf
000001f0: fefc 373e 3c25 5ac0 6056 91bf c54c e6be

conv.11.running_var f4 [128]
4.79558 7.440288 2.4750593 2.8045259 2.761406 3.5549748 8.137362 4.7311296
12.461272 2.5359285 4.749801 3.8096166 3.7244585 3.35803 4.685869 3.10252
6.972889 5.2267923 2.0952349 8.121217 3.3078935 5.0314093 7.6219687 2.5183203
4.040836 3.4599366 7.8737445 11.912299 2.1661322 5.238265 2.7142253 2.4973903
3.6620657 3.6781266 2.8330014 3.130306 3.8828146 6.0807595 5.1653643 12.910237
17.402952 2.836694 1.3401453 3.421145 5.072891 2.3471074 4.418057 2.5008502
10.289538 5.066682 9.225816 7.9996142 4.2070007 2.7816436 5.3435636 5.657727
7.7904453 8.040707 8.415652 1.5493354 4.4421144 3.7067292 2.3184986 5.1252313
6.674569 3.1520703 9.557671 7.920997 4.7869735 2.75977 9.621257 5.9813223
3.8862195 3.2275875 7.0755258 5.7694674 10.324804 3.752466 1.4541554 4.9336085
3.878629 7.0640507 3.0316875 3.898726 4.205985 4.30159 6.752802 9.938997
4.0046225 4.8773093 11.099426 3.1670988 1.712412 3.05247 7.7081633 3.837033
7.5254955 3.3819249 12.024301 7.5658903 2.1370776 5.090812 3.1785884 2.6858952
2.370896 2.9046562 3.0988972 9.148194 5.404127 8.241071 4.0099435 4.263519
4.3685036 6.37617 2.8241324 2.3433955 2.3449228 3.0749242 3.279974 2.7553844
6.915211 4.609215 2.4401748 3.9079099 5.8963466 5.71166 9.059498 2.6950426
00000000: 6475 9940 d716 ee40 5f67 1e40 5a7d 3340
00000010: e0ba 3040 b584 6340 a232 0241 6a65 9740
00000020: 5f61 4741 a74c 2240 5ffe 9740 c2d0 7340
00000030: 875d 6e40 f7e9 5640 a4f2 9540 b08f 4640
00000040: e821 df40 e241 a740 5418 0640 81f0 0141
00000050: 87b4 5340 4e01 a140 2be7 f340 292c 2140
00000060: 874e 8140 9a6f 5d40 b7f5 fb40 c798 3e41
00000070: e9a1 0a40 de9f a740 deb5 2d40 3ed5 1f40
00000080: 495f 6a40 6d66 6b40 e54f 3540 ef56 4840
00000090: 0980 7840 9595 c240 aa4a a540 5590 4e41
000000a0: 3f39 8b41 658c 3540 e289 ab3f 0af4 5a40
000000b0: 2055 a240 0237 1640 b960 8d40 ee0d 2040
000000c0: f3a1 2441 4222 a240 f19c 1341 d7fc ff40
000000d0: c09f 8640 7306 3240 79fe aa40 190c b540
000000e0: 544b f940 bca6 0041 83a6 0641 9f50 c63f
000000f0: cd25 8e40 0d3b 6d40 4862 1440 e501 a440
00000100: 1296 d540 85bb 4940 38ec 1841 cf78 fd40
00000110: e32e 9940 12a0 3040 abf0 1941 fe66 bf40
00000120: d2b7 7840 cb90 4e40 b56a e240 7a9f b840
00000130: 6632 2541 6728 7040 c421 ba3f 1fe0 9d40
00000140: 753b 7840 b40c e240 2b07 4240 ba84 7940
00000150: 6e97 8640 a0a6 8940 f416 d840 2206 1f41
00000160: de25 8040 eb12 9c40 4097 3141 bfb1 4a40
00000170: 5130 db3f ab5b 4340 46a9 f640 f391 7540
00000180: dcd0 f040 7571 5840 8963 4041 c61b f240
00000190: e1c5 0840 efe7 a240 fe6d 4b40 b5e5 2b40
000001a0: c3bc 1740 e3e5 3940 5554 4640 015f 1241
000001b0: 9cee ac40 6ddb 0341 7551 8040 bf6e 8840
000001c0: c8ca 8b40 9609 cc40 96be 3440 31fa 1540
000001d0: 3713 1640 8fcb 4440 18eb 5140 3858 3040
000001e0: 6949 dd40 b07e 9340 d32b 1c40 321b 7a40
000001f0: dfae bc40 ebc5 b640 b4f3 1041 947b 2c40
