output/electricity_cnn_20260221_204822/checkpoints/epoch_40.pt (torch, 174824 bytes, 21 tensors)

conv.0.weight f4 [32, 14, 3]
000000 c2 f5 f1 bd 0e 70 8d bc 5e 8a bd 3c ae f6 31 bc
       -0.11814453 -0.017265346 0.023137268 -0.010862036
000010 86 15 ac 3d a7 ed cd bd 31 3a c9 bd 8c d4 ca 3d
       0.08402543 -0.10055094 -0.09825552 0.09903821
000020 5b b1 c0 bd 0a 4c 09 3d 12 16 9b bd e3 50 07 3c
       -0.09408828 0.033519782 -0.07572569 0.008259031
000030 6c 68 21 bc d0 cc fc 3b a4 01 09 bc 50 99 9c 3c
       -0.009851556 0.0077148452 -0.008362208 0.019116074
000040 76 ed 66 3d f5 82 9a bd b3 36 ca 3c 7f af 13 3e
       0.056378804 -0.07544509 0.024684286 0.14422415
000050 f9 e9 13 3c 01 7b d4 3c 78 1e 84 bd 03 88 55 bd
       0.009027951 0.02593756 -0.06451124 -0.052131664
000060 42 71 e5 3e 11 85 be 3e 6f 57 08 3f 5d 09 4b bf
       0.4481297 0.37210897 0.53258413 -0.7931116
000070 5c c1 57 bf 1f 60 68 bf d7 58 76 be e2 a9 86 be
       -0.8427942 -0.9077167 -0.24057327 -0.26301485
000080 5a 2e 42 be ac 13 11 bd c6 2e 8f 3d 07 4d 1b bd
       -0.18962994 -0.03541915 0.06991343 -0.037915256
000090 3f 49 fb bd 33 57 cb 3d a8 88 23 bc 3a e9 62 bd
       -0.1226983 0.09928741 -0.009981312 -0.055398203
0000a0 93 06 84 3b ae 50 89 3d 77 0c 5c be da c0 a2 3d
       0.004029104 0.067048416 -0.2148913 0.0794694
0000b0 33 9d 48 3d 91 02 07 3e a9 98 90 3d 02 c6 1a 3d
       0.04897804 0.13184573 0.070603676 0.03778649
0000c0 7a da 05 be d8 81 e0 bc fc d9 22 bd 3b 1e 52 3e
       -0.13071623 -0.027405664 -0.039758667 0.20519345
0000d0 5e a6 37 3e 5a 67 62 be 08 70 6d 3d bb c6 92 3b
       0.17934558 -0.22109738 0.05796817 0.004479257
0000e0 e8 84 eb 3d cd 6d 5b 3d 3a 8c 3c 3d c4 cd 83 bd
       0.11499959 0.05357151 0.046032168 -0.06435731
0000f0 b4 2e 9d bb 94 1a e3 3c 25 21 16 3e 2d 5c 49 bc
       -0.004796827 0.027722634 0.14661081 -0.012290043
000100 37 bc e7 bd d9 e8 da 3d b5 81 2f be f9 c1 ad bb
       -0.11315196 0.106889434 -0.17139323 -0.0053026644
000110 6b 4f 99 3b a2 37 54 3e 51 98 6f 3e 50 74 c3 3e
       0.004678657 0.20724347 0.23397948 0.38174677
000120 4e a5 e0 be 8e 51 06 bf ad 9d da be 44 5a 32 3d
       -0.43876117 -0.5246819 -0.42698422 0.043543115
000130 54 15 10 3e 15 ca 6b be aa 0f 55 3d be 27 9b bd
       0.14070636 -0.23026307 0.05201689 -0.075759396
000140 f8 67 2b bc a5 0f 02 3c e5 41 ae bd 4c 6b da 3d
       -0.0104618 0.0079383 -0.08508662 0.106649965
000150 3f a8 a3 3d b7 bd 10 3e 63 cd 80 be dc 2a 3b 3d
       0.07991075 0.1413487 -0.25156698 0.04569517
000160 21 fe 75 3d 0a 28 9d 3d 17 f8 01 bd 04 b9 06 3d
       0.06005681 0.076736525 -0.031730738 0.03289129
000170 08 5a 4b be 6f 0b d8 bd 14 c5 20 3e 65 61 50 bb
       -0.19858563 -0.10549056 0.1570018 -0.0031796333
000180 80 a8 cb 3d 0a cc 91 bd 0f 76 0e bd 02 7b ad bb
       0.09944248 -0.071189955 -0.03478056 -0.0052942047
000190 f5 36 ca 3c 22 b9 ee bc 04 78 79 3d b6 5e e0 3d
       0.024684409 -0.029141013 0.06090547 0.10955565
0001a0 3e 02 75 bd 4d 7f ab bc 39 e0 9a 3d 08 0f 09 be
       -0.05981659 -0.020934725 0.07562298 -0.1338464
0001b0 4c d4 63 bf a1 d8 24 bf c1 90 54 bf dc 3a 29 3d
       -0.88995814 -0.6439305 -0.83033377 0.0413159
0001c0 9e c6 83 3e 9d fe a7 3e 5a 52 29 3e c0 65 14 3d
       0.2573747 0.32811442 0.16535321 0.03622985
0001d0 ba 66 8b 3e 81 66 09 3c cb 20 b4 3b 1c fb ad 3c
       0.27226812 0.008386255 0.0054970733 0.021237902
0001e0 87 e7 61 bd 8b 8d 08 3e b6 1c 02 be c8 b4 cf bd
       -0.055152442 0.13335244 -0.12706265 -0.10141903
0001f0 c7 b6 16 bd 4d a5 d6 3d 04 03 76 3e ce 73 a4 3c
       -0.036795404 0.10480747 0.24024588 0.020074751
000200 7e d8 c7 bd 3d 7a ea bd d9 5d bb 3c 39 a4 d5 bb
       -0.097580895 -0.11449096 0.022871898 -0.006519821
000210 a5 79 11 bb 76 85 0e 3d dd ef ec bd 66 e9 26 3e
       -0.002219775 0.034795247 -0.11569188 0.16299972
000220 a4 97 9b 3d c1 0a 32 3d 17 5d 01 3d 3b a5 b8 3c
       0.075972825 0.043467287 0.031582918 0.022539726
000230 26 e0 73 bd e3 8b a1 3d 59 c5 b2 3d fd 09 b0 3c
       -0.059539936 0.078880094 0.08729047 0.021489138
000240 08 b1 35 3c 53 d4 e6 3d 69 39 5d be f9 32 46 3d
       0.011089571 0.112709664 -0.21603931 0.048388455
000250 61 e9 78 be e6 69 7b 3d 8c c2 0a 3e ec 53 57 3e
       -0.24307777 0.06138029 0.13550776 0.21028107
000260 67 53 87 3e a9 40 92 3d 92 66 22 3e 8b dc 90 3e
       0.26430818 0.07141239 0.1585944 0.2829326
000270 71 db af 3e e2 10 bd 3e 06 c0 b9 3e c5 73 a8 3e
       0.34347108 0.36926943 0.36279315 0.32900825
000280 89 b2 e1 3d 28 4c b9 3d e8 98 b1 3d 25 5a 8d bd
       0.11020381 0.09047729 0.08671743 -0.06901959
000290 e0 4e 58 bd 2d ca a3 3c 55 51 c9 3d 3d 12 eb 3d
       -0.052809596 0.019993866 0.09829966 0.11478088
0002a0 de 40 e7 3d 30 46 81 bd 02 9a a7 bd ff 65 ce 3c
       0.11291669 -0.06312215 -0.081836715 0.02519512
0002b0 f6 ab 80 bd 35 aa a9 bc 77 64 99 3d 76 a9 0f 3d
       -0.06282799 -0.020711044 0.07489865 0.03507372
0002c0 47 c3 9d 3b 7c cd 9a 3d 81 4b 56 3d a1 62 6c bd
       0.0048145386 0.07558724 0.0523181 -0.057711247
0002d0 0d 9c 22 bc 73 82 6e bc 52 3e 31 bd 62 8d 6b bc
       -0.009924901 -0.014557469 -0.043272324 -0.01437697
0002e0 67 8b 1a bd 27 17 0a bd 14 be 71 bc 8e 59 49 bc
       -0.0377306 -0.033713486 -0.014754791 -0.012289418
0002f0 04 36 86 bd c5 05 bc 3d 3b 95 7a 3d 5a 82 15 3d
       -0.065532714 0.09180788 0.061177474 0.036501266
000300 79 32 02 3f 40 23 0e 3f e6 cf 1d 3f db 60 7d bc
       0.50858265 0.5552254 0.6164535 -0.015464987
000310 c0 08 48 3e 5f f3 74 3e 3c 04 66 3e a5 84 a7 3e
       0.19534588 0.23920964 0.22462553 0.32718387
000320 26 81 b0 3e 2c d2 7f 3d 0d 0a db 3d 13 fe b9 3c
       0.34473532 0.062456295 0.106952764 0.02270416
000330 d4 7e 0f 3d 16 7e 2d 3c 78 4c 7e bc 8b 82 6c bd
       0.035033062 0.010589143 -0.015521161 -0.057741683
000340 39 89 01 3d af 2b 23 3d 29 03 0c 3c e0 40 cb 3d
       0.031625006 0.03983658 0.008545675 0.09924483
000350 6c f5 98 bd 0a 8c 12 3e 12 27 e9 bd c0 17 bc 3d
       -0.074686855 0.14311233 -0.11384405 0.091842175
000360 e7 19 f3 bc 8e ad 9f bd 14 c1 cb bd b7 bd 08 be
       -0.029675437 -0.07796775 -0.09948936 -0.1335362
000370 f2 bc 5d 3d bf 31 ba bd 39 18 9e bc cf 03 02 bc
       0.05413527 -0.090915196 -0.01929866 -0.007935478
000380 6c df f9 3b 19 59 27 bc 0e f0 ba 38 78 63 06 3d
       0.007625511 -0.010214114 8.913885e-05 0.032809705
000390 a0 b3 d6 3b 63 e9 69 3e 35 1d 19 be 47 11 1c 3e
       0.0065521747 0.22842936 -0.14952548 0.15240966
0003a0 be 7f 8b bd 8e 1d 02 bf de b4 eb 3d a7 39 85 3e
       -0.06811474 -0.50826347 0.11509107 0.26020548
0003b0 d1 ae 0a 3e a2 04 d4 be 01 02 06 bf 7a cc 00 bf
       0.1354325 -0.41409785 -0.5234681 -0.50312006
0003c0 f3 27 d2 3e 94 fe 33 3e 8b ff c2 3e 8e b3 25 3e
       0.41046104 0.17577583 0.3808559 0.16181776
0003d0 cc 42 1b 3e 26 28 52 3d c5 f0 36 bc 2c 75 24 3d
       0.151622 0.05130782 -0.011165802 0.040150806
0003e0 3a c8 7f 3d dc 07 b5 3d e3 1e 51 3c 43 0c 2b be
       0.06244681 0.0883939 0.012763712 -0.16703896
0003f0 e9 b3 2c be b2 69 33 be 77 73 6e 3e b5 07 8c 3c
       -0.16865505 -0.17520788 0.23286234 0.017093519

conv.0.bias f4 [32]
000000 74 a0 f1 3d 77 83 01 3d 0c eb 2c 3d b6 87 1f 3e
       0.11798182 0.031619515 0.042216346 0.15579113
000010 a8 0b 69 3e 93 46 28 3e 78 a7 cf bd a7 73 26 3d
       0.22758353 0.16433172 -0.10139364 0.04063764
000020 0d 6b 4f 3d e8 92 e9 3d 98 85 6f 3c 31 db b7 3d
       0.0506392 0.11404973 0.014619254 0.08977354
000030 94 2b ee bd 3a 37 87 3a 16 a3 b6 bc e6 91 ea bd
       -0.116294056 0.0010316141 -0.022294562 -0.11453609
000040 d3 31 51 bd 5e e1 b2 3d 0d e2 42 3e 8d 86 df 3d
       -0.051072907 0.08734392 0.19031544 0.109143354
000050 a0 3e 1b 3d 99 d9 64 3e 2e 8e 86 3e ec ca 06 be
       0.03790152 0.22348632 0.2628035 -0.13163346
000060 8a 8f 04 3e 77 9d e6 3d e2 3e 3b 3d 52 c3 2d 3e
       0.12945381 0.11260503 0.045714267 0.1696904
000070 f7 8f bc bd 6c 90 43 bc 59 8e 03 3e 2b b8 eb 3d
       -0.092071466 -0.011936288 0.1284727 0.115097366

conv.1.weight f4 [32]
000000 03 64 93 3f 8b 78 32 3f f9 70 88 3f 7d 22 38 3f
       1.1514896 0.69715184 1.0659477 0.71927625
000010 fe a2 5e 3f 56 86 11 3f 90 37 7d 3f bd 73 4d 3f
       0.86967456 0.56845605 0.98912907 0.8025473
000020 ea c9 d9 3e 2e a9 30 3f 9d 5c 78 3f 73 8f e5 3e
       0.4253686 0.6900815 0.97016317 0.44836006
000030 6e d8 43 3f 42 53 23 3f 9e cd 34 3f c2 6e 82 3f
       0.7650212 0.63798916 0.70626247 1.0190051
000040 b2 a6 40 3f 8d cb 91 3f e6 6e 4b 3f 83 b7 8a 3f
       0.75254357 1.1390244 0.7946609 1.0837253
000050 58 05 60 3f a8 a8 59 3f 1f a6 48 3f 9b 40 8c 3f
       0.87508154 0.85022974 0.7837848 1.0957216
000060 32 8d 62 3f 2f 79 a9 3f 94 df 56 3f f7 69 15 3f
       0.88496697 1.3240107 0.83934903 0.58364815
000070 02 83 67 3f 0b 6d 41 3f 50 ee 36 3f dc a9 63 3f
       0.9043428 0.7555701 0.71457386 0.8893106

conv.1.bias f4 [32]
000000 47 68 bc be 56 66 c9 be 0d bd 9d be 31 b0 9f be
       -0.36798307 -0.3933589 -0.30808297 -0.3118911
000010 f1 6a ce be 61 0a 19 bf 6f c7 ac be 29 6d 9e be
       -0.40315965 -0.5978146 -0.33745906 -0.30942658
000020 f6 46 a5 be f8 0f e7 be 27 f7 80 be 9d a4 a5 be
       -0.322807 -0.4512937 -0.25188562 -0.32352152
000030 d2 12 f4 be d4 0a 8b be 12 f8 66 be 3a 04 99 be
       -0.4767061 -0.271567 -0.22555569 -0.29886037
000040 e4 74 e2 be fe 7c 0f bf 8a 3a c9 be f9 dd 84 be
       -0.44229805 -0.560501 -0.39302474 -0.25950602
000050 ec 7f d8 be 3a d1 2d bf fd 11 2e bf 25 7a f8 3d
       -0.42285097 -0.6789738 -0.679962 0.12132672
000060 5e cb 30 bd 99 f5 71 be 77 35 aa be 90 f2 12 bf
       -0.043162696 -0.23628844 -0.33243915 -0.5740137
000070 70 53 a2 be bd 37 8b be dc 44 e7 be 99 23 eb be
       -0.31704283 -0.27190962 -0.45169723 -0.45925596

conv.1.running_mean f4 [32]
000000 6f 97 fd 3d 15 9b b4 3c 64 3e 8c 3c 2c a6 2e 3e
       0.12382399 0.022046605 0.017119594 0.17055577
000010 98 50 82 3e 06 99 2f 3e 12 87 02 be 95 39 1a 3d
       0.25452113 0.17148218 -0.12746838 0.03765257
000020 f2 a1 58 3d d6 fa c1 3d e7 9e 76 bc fb ad f5 3d
       0.052888818 0.09471671 -0.015052534 0.11996075
000030 17 d5 0f be a6 19 13 bc 09 4e 5a bd 98 55 16 be
       -0.14046131 -0.008978283 -0.053297076 -0.14681089
000040 bb e4 6a bd 76 e6 b8 3d 92 9c 33 3e 31 d3 8e 3d
       -0.05734704 0.09028332 0.17540196 0.06973875
000050 14 8e 48 3d c8 92 50 3e ba ff 89 3e 92 63 db bd
       0.04896362 0.20368493 0.26952916 -0.10712351
000060 46 20 c5 3d 87 62 ab 3d 31 e5 b5 3c 60 dd 39 3e
       0.09625296 0.08368402 0.022204014 0.18150854
000070 1c d9 b7 bd b8 55 a6 bb 09 4c fb 3d e4 28 a7 3d
       -0.08976957 -0.0050761364 0.12270362 0.08162096

conv.1.running_var f4 [32]
000000 65 0e 98 40 11 e7 26 40 35 ba 98 40 d8 3b 2c 40
       4.751757 2.6078532 4.7727304 2.6911526
000010 61 40 88 40 27 d3 29 40 89 df ad 40 96 f2 96 40
       4.2578588 2.6535127 5.433537 4.7171125
000020 6b 43 e5 3f 26 0d ea 40 b4 16 c2 40 1f 97 b1 40
       1.7911199 7.314105 6.0652714 5.5496974
000030 21 07 20 41 c3 68 c2 40 6b b2 96 40 5c 3b 42 41
       10.00174 6.0752883 4.7092795 12.139492
000040 a0 2c 93 40 ee 58 a2 40 4b 15 23 41 2f e2 18 41
       4.5991974 5.0733557 10.1926985 9.555221
000050 e7 4f ba 40 dc 4e c3 40 74 4b a0 3f 62 af 63 41
       5.8222537 6.1033764 1.2523026 14.230318
000060 96 71 e2 40 a8 77 b1 40 f9 55 25 41 03 ad 27 40
       7.0763655 5.5458565 10.333489 2.6199348
000070 de 68 ca 40 96 58 14 40 1f cc 80 3f 2a 45 74 40
       6.325301 2.3179069 1.0062293 3.8167214

conv.5.weight f4 [64, 32, 3]
000000 fa dc 45 3d 9c 9b fd 3d 63 ae 83 bd c0 b2 16 be
       0.048306443 0.12383196 -0.06429746 -0.14716625
000010 f5 1f 0b be 01 cb b7 bd a4 1b 82 be 27 da 5b be
       -0.1358641 -0.08974267 -0.25411713 -0.21469937
000020 b7 07 38 be 70 c4 45 bd e6 b9 13 bd 63 0e b4 bb
       -0.17971693 -0.04828304 -0.03606596 -0.005494879
000030 f0 62 cc bc 45 25 14 3e 0a 6d 5a be 78 4a fd bb
       -0.02494952 0.14467342 -0.21330658 -0.0077298246
000040 41 84 5a 3e a2 38 eb bc 29 9b 2c bd 8d 94 23 3e
       0.21339513 -0.028713528 -0.04214016 0.15974636
000050 5f 4c bd bc 18 39 0e 3e 67 29 c0 bd cd ed 23 3d
       -0.023107706 0.13888967 -0.09382897 0.040021706
000060 33 c2 bd 3c 71 f1 bb 3c 1a da 34 bc f9 68 c4 3c
       0.02316389 0.022942277 -0.011038328 0.023975836
000070 08 10 10 3d 71 f3 c0 3d f5 6f e6 bd 2a 32 fe bc
       0.03517154 0.09421433 -0.11251823 -0.03102978
000080 24 b8 ad 3b 1f b0 32 bd 49 f8 b8 bb 6f b3 78 bc
       0.0053014923 -0.043624993 -0.0056448323 -0.015179499
000090 86 c1 7e bc 11 c3 90 3d 52 4a 49 3e dd 13 85 3d
       -0.015549069 0.07068456 0.19657257 0.06497929
0000a0 ff 70 db 3d 8f a1 3e 3d 89 0e 72 3a 86 cb 30 3d
       0.10714912 0.046540793 0.0009233733 0.043162845
0000b0 ba dd a5 bd fd c3 23 3e 3c 40 06 3e fd 19 60 3e
       -0.080989316 0.15992732 0.13110441 0.21884914
0000c0 ff 88 4a bd a8 de d8 bd 39 48 5c bc 8d 26 d5 3d
       -0.049447056 -0.10589343 -0.013444954 0.104077436
0000d0 51 7d af 3d 0b a9 c0 bd 2a 41 12 3e 7d 17 03 3d
       0.08568824 -0.094072424 0.1428267 0.032004822
0000e0 43 24 04 3d ab 5e 9c 3c 3f b1 14 3c 92 f5 3d be
       0.032261144 0.01908811 0.009075462 -0.18550709
0000f0 5f 9b b7 3e 0d 50 74 3e 77 5d b0 3e 59 73 3e be
       0.35860726 0.23858662 0.34446308 -0.18598689
000100 72 d7 71 be 0a 60 1c bf fb 33 e9 bd 89 86 e1 3e
       -0.23617342 -0.61084044 -0.113868676 0.44047955
000110 ab 45 8b be e8 e8 9c bd d5 30 42 bd a6 8e 7f bd
       -0.2720159 -0.07661611 -0.04740985 -0.0623919
000120 5b 1a 6b bd 2a e4 8d bd 8a 9b 45 be fe 9b b0 be
       -0.05739818 -0.069282845 -0.19297615 -0.34494013
000130 82 e3 80 be f7 2c c1 be 9d 8e 43 3d 36 ac a2 3e
       -0.25173575 -0.37729618 0.04774343 0.31772012
000140 a6 07 9c be 07 15 b3 3d d5 de 4a 3e 41 ae 7e 3d
       -0.30474585 0.08744245 0.19811566 0.0621779
000150 eb e2 3f 3e 81 c0 f1 3d be a4 c2 3d 13 99 54 be
       0.18738906 0.11804295 0.09504078 -0.20761518
000160 16 a5 41 be 3b fc c1 3d 54 2b 3f bc 8e eb 85 3e
       -0.18910632 0.09471937 -0.011668045 0.26156276
000170 68 44 31 be d5 79 cf bd 9e a6 0d be 9b 01 31 be
       -0.17311251 -0.101306595 -0.1383309 -0.17285769
000180 c9 92 c5 bd 1b f4 f5 bc 2a c1 c8 bd 6c 21 59 3d
       -0.09647138 -0.030023625 -0.09802468 0.05301039
000190 2c 47 44 3d 63 19 c0 ba d1 c6 8f 3e e5 0c b4 3e
       0.047919437 -0.0014656003 0.28081372 0.35166088
0001a0 61 25 e5 3e 31 d1 f1 3d 06 e5 db 3b c2 b3 71 3e
       0.4475508 0.11807478 0.0067106513 0.23603728
0001b0 75 5b a6 3e dd 6a 15 3d 5e 0e 44 3e b0 e3 34 3d
       0.3249165 0.036478866 0.19146106 0.044162452
0001c0 35 c7 12 3d 8e b8 15 3e a8 e8 33 bd 26 b3 dd 3d
       0.03583451 0.14621183 -0.04392305 0.108251855
0001d0 23 3d e9 3d a7 1e 18 3e c9 84 39 3d ee 72 53 3e
       0.11388614 0.14855443 0.04529265 0.20649311
0001e0 13 2d ef bd 86 e4 c3 bd 96 cf 87 3d e4 f4 9c 3b
       -0.11678519 -0.09565072 0.06631391 0.0047899354
0001f0 99 6d 65 bd cd 1c df bc a2 e8 c8 bd 4d 2e b1 bd
       -0.056012724 -0.027235413 -0.09809996 -0.08651409
000200 93 f0 38 bd 5d 65 6b bd 23 4d 19 3d 51 18 1a 3c
       -0.045151304 -0.057469714 0.03742708 0.009405212
000210 f0 a6 0f be b2 14 6d be c2 e2 5f bd 03 cd a9 bd
       -0.14028525 -0.23152426 -0.054659612 -0.08291056
000220 02 a9 2f be 98 e6 bb ba bb ce 11 bd 10 7d 34 3d
       -0.17154315 -0.001433569 -0.035597544 0.04406458
000230 ef 6f 9a bc 88 9d 2a be 0d a2 b9 bd c4 ab d2 bd
       -0.018852202 -0.16661656 -0.09064112 -0.10286668
000240 96 5f 11 be e9 cc 24 be 17 a1 15 be 55 ed 27 bd
       -0.1419662 -0.16093792 -0.14612232 -0.04099782
000250 05 65 f4 bb 3b b9 14 3c c4 d5 c1 3b 1d ea d3 3d
       -0.0074583315 0.0090773655 0.0059153754 0.10347388
000260 76 0d b9 3d 25 9d 48 3b 1f 91 8f 3d 67 3c 1d 3d
       0.090357706 0.0030611244 0.070101015 0.038387682
000270 3a 1b 7b bc 18 a1 6d 3d 95 5f 54 3c 4a a6 fe bc
       -0.015326316 0.05801496 0.012962242 -0.031085152
000280 fa 2b 01 3d 04 d6 56 bd ba 68 c9 bc 49 c3 5c 3d
       0.03153608 -0.052450195 -0.02458607 0.053897176
000290 21 37 46 3e 1b 0a 49 3d 10 63 db 3d 14 62 9b 3c
       0.19356968 0.049081903 0.10712254 0.018967666
0002a0 12 1b 3a bc b0 79 5c 3d 3b af fc 3d 2c f0 c8 3e
       -0.011358993 0.053826988 0.1233811 0.39245737
0002b0 e1 2a 91 3e 1c 0f 9a 3f 36 3c 3e bd bf 5f f8 3d
       0.28353027 1.2035861 -0.04644414 0.12127637
0002c0 ed bb 92 bc 0d 31 1f b8 2d e0 9f 3d dd 46 00 3e
       -0.017911876 -3.7954236e-05 0.0780643 0.12527032
0002d0 cc f4 2e bd fd 19 e8 3d 98 8b 7d 3d d4 f1 8e bd
       -0.042713925 0.11333082 0.061900705 -0.06979719
0002e0 d7 6b 27 bc 53 32 9a bb 1e 50 f0 39 5f b2 47 3e
       -0.010218582 -0.004705706 0.0004583606 0.19501637
0002f0 b2 1e 36 3e 6a 14 53 3c b0 76 04 3d dd 69 71 3d
       0.17785147 0.012883285 0.03233975 0.05893885
000300 55 d1 2b bd f4 f2 5d bd f3 c8 de 3d 5e 01 f4 3d
       -0.04194768 -0.054186776 0.10878172 0.11914323
000310 71 89 dc 3b a4 64 cf bb 4b 33 30 3e 8f f7 52 3e
       0.0067302515 -0.006329136 0.17207067 0.20602249
000320 3a ff c7 3e 41 44 9a 3d d4 ef 9d bd ea fd f3 bd
       0.3906191 0.0753255 -0.07711759 -0.11913665
000330 6b 69 9b bd fe ce d5 bd d9 82 c8 bd 6d 86 04 bd
       -0.07588466 -0.10439871 -0.09790582 -0.03235476
000340 4a 2a 2d bd 86 74 9d bd 45 72 fd be 13 52 e0 be
       -0.042276658 -0.07688241 -0.49501243 -0.43812618
000350 28 69 00 bf c8 73 bd 3d 02 65 de bd 38 ae 3a bd
       -0.50160456 0.09250599 -0.108591095 -0.045576304
000360 82 e9 52 bc 2b d9 f0 bd 0c a6 0c bd 59 1b 93 3d
       -0.012873055 -0.117601715 -0.034338042 0.071829505
000370 73 5a 4f bd 3d 30 1c 3e 77 9a 81 be 84 c2 f0 bd
       -0.05062337 0.15252776 -0.2531316 -0.11755851
000380 4f 30 4f be 0f a0 96 3d 8f f6 ce bd 0c 79 e3 3d
       -0.20233272 0.073547475 -0.10105621 0.11107072
000390 21 36 94 bd cf a9 10 be 9c b8 4b be 2b 9b 63 3d
       -0.07236887 -0.14127277 -0.19894642 0.0555679
0003a0 82 21 9f bd c5 c2 19 be de f6 91 bd b2 0b 4a be
       -0.07770063 -0.15015705 -0.07127164 -0.19731024
0003b0 fd c8 57 be 31 7f 49 be 39 30 57 be c4 88 8b bd
       -0.21072765 -0.19677426 -0.21014489 -0.06813195
0003c0 51 f7 f7 bd b9 ce d2 3b 72 0d c0 3d ea 0b 4e bd
       -0.12107719 0.0064333347 0.093775645 -0.05030433
0003d0 54 68 88 3d 8c 98 36 3c 3e 10 11 3e a7 7c fd 3d
       0.06660524 0.011144768 0.14166352 0.12377291
0003e0 4f 63 2b 3e bf af 18 bf d2 4d 2b bf d3 0e 12 bf
       0.16737102 -0.5964317 -0.6691562 -0.5705387
0003f0 5b 8d dd ba 7d 1c 7c 3d 26 53 9d bb 3e b6 8d 3e
       -0.0016903089 0.061550606 -0.004801172 0.27678102

conv.5.bias f4 [64]
000000 e7 79 a7 3a d5 80 22 3e fb 59 52 bd 4e 91 b9 3d
       0.0012777419 0.15869458 -0.051355343 0.09060918
000010 35 96 2e be 78 3d a9 3d 9d 2f eb 3c 59 5d 9c bc
       -0.17049487 0.08263677 0.028709227 -0.01908748
000020 94 82 ec 3c e1 e5 26 bd a7 42 9b bd 17 76 fb bc
       0.028870858 -0.040746573 -0.07581072 -0.030695958
000030 31 7d b0 bc c6 6f 2e bd a2 50 17 bd ab e9 cd 3d
       -0.02154407 -0.042587064 -0.03694213 0.10054334
000040 94 ff 00 3e 9d 6f 01 3c e2 ba 70 bb dc e3 f1 3c
       0.12597495 0.007900146 -0.0036732485 0.029527597
000050 23 32 49 3a d6 a2 b9 3a 6a 53 50 3d d7 20 95 bd
       0.00076750125 0.0014162909 0.0508608 -0.07281654
000060 c6 f7 35 3d 26 7e 4d bd 01 8a 16 bd 99 3b b2 3d
       0.04442575 -0.050169133 -0.036752705 0.087027736
000070 89 82 91 bd 0e 6b 5b 3c ae fb 81 3d 17 bc da 3d
       -0.07104976 0.013392223 0.06346832 0.106804065
000080 e2 5f da 3d 2d 5b 83 3d c4 ef 07 bd 0f 88 04 3c
       0.106628194 0.06413875 -0.033187643 0.0080890795
000090 5c 83 ae bc bc 8c 02 bd 55 79 af 3d 94 2b 94 3d
       -0.021302871 -0.031872496 0.08568064 0.07234874
0000a0 31 fc dc bc 85 55 29 bd 01 a8 ca b9 99 cb a1 3c
       -0.026975723 -0.041341323 -0.00038653615 0.019750403
0000b0 70 f9 b7 bd 6e 6b d0 3d a1 f8 89 bd 51 1f 0c bc
       -0.08983123 0.101767406 -0.06736875 -0.008552388
0000c0 55 87 a7 bc 51 73 ee 3c 79 9f 55 bd bc 6c 80 3d
       -0.020450274 0.029107722 -0.052154038 0.062707394
0000d0 df fe b1 bd 9f cb 13 3c f3 77 a6 3d 70 32 15 3d
       -0.08691191 0.009020715 0.08128347 0.036425054
0000e0 fa ee 35 bc e3 15 6d bc d3 ea 39 3d 33 bc 8d 3d
       -0.01110434 -0.01447055 0.04538996 0.06920662
0000f0 3b 79 29 bd 38 56 da 3b 43 d0 7c bb 9c ca ee 3c
       -0.04137538 0.00666311 -0.0038576282 0.029149346

conv.6.weight f4 [64]
000000 f3 8e 81 3f 43 e2 86 3f 14 e6 86 3f f1 29 5e 3f
       1.012175 1.05378 1.0538964 0.8678275
000010 35 d5 78 3f a7 d7 4d 3f a9 50 62 3f 23 2f 81 3f
       0.9720033 0.80407184 0.8840433 1.009251
000020 65 9d 82 3f ab a2 78 3f d6 6c 76 3f 4b 96 56 3f
       1.0204283 0.9712321 0.9625982 0.8382308
000030 e3 6b 4d 3f 43 8a 55 3f b8 c0 7b 3f 5b 07 53 3f
       0.8024275 0.83414096 0.9834094 0.824331
000040 4a aa 8c 3f 82 18 83 3f ad 21 83 3f 88 da 6d 3f
       1.0989468 1.0241854 1.0244652 0.9291158
000050 47 d2 7b 3f c1 92 65 3f e8 63 83 3f 71 3d 89 3f
       0.9836773 0.89677054 1.0264864 1.0721875
000060 92 cc 78 3f 77 bf 6c 3f c2 b6 88 3f 3b db 93 3f
       0.9718715 0.9247965 1.0680773 1.1551279
000070 90 5d 50 3f e5 33 61 3f 18 12 8c 3f c6 24 92 3f
       0.81392765 0.8796981 1.0943022 1.1417472
000080 da 32 86 3f 3b eb 71 3f 52 df 5a 3f 01 ef 77 3f
       1.0484269 0.9449956 0.8549701 0.96849066
000090 d9 24 68 3f db eb 3c 3f 6e 15 84 3f c6 1c 70 3f
       0.90681225 0.73797387 1.031904 0.93793905
0000a0 e6 9a 75 3f 2d 0f 77 3f f9 ab 69 3f 7e d1 4e 3f
       0.9593948 0.9650753 0.91278034 0.8078841
0000b0 cb 84 6e 3f 95 3d 48 3f b9 ad 52 3f f7 7e 9c 3f
       0.93171376 0.78218967 0.8229633 1.2226247
0000c0 5a bd 64 3f a2 6a 78 3f 92 96 70 3f 97 63 70 3f
       0.8935143 0.9703771 0.9397975 0.9390196
0000d0 86 f8 60 3f 30 f2 73 3f 00 ed 71 3f 38 2a 5b 3f
       0.87879217 0.95291424 0.9450226 0.85611296
0000e0 27 9a 65 3f 91 b8 3f 3f ac 8e 88 3f 08 2c 78 3f
       0.8968834 0.74891 1.066854 0.96942186
0000f0 2f c6 54 3f e5 13 81 3f 50 e9 68 3f fd a5 77 3f
       0.83114904 1.0084196 0.90981007 0.96737653

conv.6.bias f4 [64]
000000 d0 df 71 be b1 19 09 be 64 b5 d2 be 19 f3 c2 be
       -0.23620534 -0.13388707 -0.41154015 -0.38076094
000010 5e e2 46 be 06 2c af be 47 8c a6 be 65 0d 57 be
       -0.1942229 -0.34213275 -0.32528898 -0.21001203
000020 63 7e 96 be cd 34 8c be 46 96 ec be d8 09 8c be
       -0.293933 -0.27384034 -0.462084 -0.2735126
000030 90 a1 10 bf 31 7b 25 bd cb 81 95 be 86 e2 ba be
       -0.56496525 -0.040400688 -0.29200587 -0.3650095
000040 e6 43 94 be fe ec 3c be 9f ca aa be 94 e7 d1 bd
       -0.28958052 -0.1844978 -0.33357713 -0.10249248
000050 95 d4 86 be a0 06 e1 be b4 81 b7 bd 46 1c ad be
       -0.26334062 -0.43950367 -0.08960286 -0.33810633
000060 61 8e d4 bd 07 d9 ab be 52 82 b6 be 48 1a 7c be
       -0.10378719 -0.33564016 -0.35646302 -0.246194
000070 c3 6f f1 be ef cc 61 be bd b8 d2 bd c5 97 3f be
       -0.4715558 -0.22050832 -0.10289142 -0.18710239
000080 a0 84 0c bf c4 fc ca be ce 04 74 bd 84 f3 5c be
       -0.5488987 -0.3964597 -0.059574895 -0.21577269
000090 6f 4b 5b be fd d3 92 be fc 40 c0 be 76 c1 d4 be
       -0.21415494 -0.2867736 -0.3754958 -0.4155385
0000a0 85 da 97 be dd 5e 2b be 72 66 85 be 78 32 4c bf
       -0.29658905 -0.16735406 -0.26054722 -0.7976451
0000b0 3e ef 5f be 42 df 8f be 33 9e d7 be 1a f7 4d be
       -0.21868607 -0.2810002 -0.42112884 -0.20113793
0000c0 c4 ed af be b8 2e 0e bf 0a 76 62 be e1 a2 8f be
       -0.34361088 -0.5554004 -0.22115341 -0.28053954
0000d0 63 13 3c be 98 82 a2 be 7a 22 0b bf 77 d8 a5 be
       -0.1836677 -0.3174026 -0.5434948 -0.32391712
0000e0 15 b9 a8 be c5 48 ec be 2e 14 69 be d6 5d 18 bf
       -0.32953706 -0.4614927 -0.22761604 -0.5951818
0000f0 d1 d6 89 be a2 81 f5 be d5 7c c7 be 1e 0a 9b be
       -0.26921704 -0.47950464 -0.38962427 -0.30281156

conv.6.running_mean f4 [64]
000000 38 bc c4 be b8 a4 85 3f 34 5e 43 bf 77 51 5e 3f
       -0.3842485 1.0440893 -0.7631562 0.86843055
000010 e2 18 91 bf 87 da db be 62 20 94 bf c3 10 82 be
       -1.1335719 -0.4294016 -1.1572382 -0.25403413
000020 0b fd 4c bf a0 d2 34 bf 8a d7 6a bf a3 9f bb bf
       -0.8007361 -0.7063389 -0.91735137 -1.4658092
000030 01 50 34 3f b7 62 ae 3e ee 29 db be 54 e2 fa be
       0.70434576 0.34059688 -0.42805427 -0.490008
000040 4b 07 4a be 3c 2f 24 be 3d d2 9e bf 15 f5 b9 3e
       -0.19729345 -0.16033643 -1.240791 0.36319795
000050 73 bc 72 bf 6c 2a 3c bf a9 e6 ab bf 64 99 dc be
       -0.948188 -0.7350223 -1.3429767 -0.43085778
000060 81 83 9c be ec f8 ee be 8a f2 a4 bf 35 c4 07 be
       -0.3056908 -0.46674287 -1.2886517 -0.13258441
000070 3b c0 46 bf 1a e5 73 bf fe a5 ad be 18 b7 30 3e
       -0.7763707 -0.95271456 -0.33915704 0.17257345
000080 dc d2 d3 bf cc 32 a2 be d7 3b 1a bf d6 11 8b bf
       -1.6548724 -0.3167938 -0.6024756 -1.0864818
000090 20 2c ae bf 5b 66 bc 3e 2a d2 db bf bf 3e 87 bf
       -1.3607216 0.3679684 -1.7173512 -1.0566024
0000a0 9c ac 39 3e 7c b8 18 3f 12 13 43 bf 8a 6e 93 bd
       0.18132252 0.596565 -0.76200974 -0.07198818
0000b0 d9 a2 c3 bf 65 3b 8c bf 15 34 78 bf ee 54 44 bf
       -1.5284072 -1.0955626 -0.9695447 -0.7669209
0000c0 85 7c 95 bf 64 63 dd bf 22 64 5b bf 37 d0 29 bf
       -1.1678625 -1.7295957 -0.85699666 -0.66333336
0000d0 00 c4 32 bf dc 5b 51 bf 9d 64 0c bf 9d e3 83 3d
       -0.6983032 -0.8178079 -0.54841024 0.06439898
0000e0 55 bd ad be 7f 15 12 bf 53 b7 87 3c 6c 78 3d 3f
       -0.3393351 -0.5706405 0.016566908 0.74011874
0000f0 a7 4c 35 bf 7c 0f 27 3f e8 23 76 3e da 81 79 3f
       -0.7082009 0.65258 0.24037135 0.9746376

conv.6.running_var f4 [64]
000000 f0 34 4b 3f 20 5a dc 3f 7f 4e 7e 3f 78 e6 1a 3f
       0.7937765 1.7215004 0.99338526 0.6050792
000010 eb 79 8d 3f 38 c1 81 3f a0 9f ad 3f ef 08 99 3f
       1.1052831 1.0137091 1.3564339 1.1955851
000020 4f 10 24 3f 6d 57 2d 3f 52 45 02 40 14 09 41 40
       0.64087385 0.67711526 2.035481 3.016179
000030 d5 2e 55 3f 92 fd d4 3f 34 1c 0b 3f bb 35 9c 3f
       0.83274585 1.6639884 0.5433991 1.2203897
000040 7d ce aa 3f 24 13 80 3f e8 0e ec 3f af 40 dd 3f
       1.3344265 1.0005841 1.8442049 1.7285365
000050 2d e8 b5 3f 21 62 74 3f b0 d0 cc 40 e7 82 b0 3f
       1.421148 0.9546223 6.4004745 1.3789948
000060 09 b6 ae 3e 2d 66 22 3f b9 cd 11 40 ab 2a e2 3e
       0.34123257 0.6343716 2.2781813 0.44173178
000070 36 45 03 3f 23 03 4d 40 23 c8 38 40 c0 92 b9 3f
       0.5127748 3.2033165 2.8872154 1.449791
000080 05 d1 1c 40 60 20 00 3f cc 42 20 40 87 97 86 40
       2.4502575 0.500494 2.504077 4.205997
000090 20 63 fe 3f 5c 95 55 3f c1 82 0b 40 90 9a 16 40
       1.9874 0.8343103 2.1798556 2.3531837
0000a0 98 23 0d 3f 64 c4 35 3f 78 6d 12 40 e0 15 b0 3e
       0.55132437 0.71002793 2.2879314 0.3439169
0000b0 d2 55 9c 40 de 0c 92 3f b9 08 7a 3f 49 47 2e 40
       4.885476 1.1410177 0.9766956 2.723101
0000c0 47 83 42 40 72 16 18 40 81 8f 05 40 fa 03 79 3f
       3.0392625 2.37637 2.0868838 0.9727169
0000d0 38 ea ca 3f 62 34 cb 3f 05 c7 db 3f bd 57 2a 3f
       1.5852728 1.5875361 1.7170111 0.6654013
0000e0 26 b5 96 3f 39 0c 1b 3f 38 c0 f0 3f 8d d0 73 3f
       1.1774032 0.60565525 1.880866 0.952401
0000f0 af 14 58 3f b7 5d d0 3e a2 24 87 3f 4f 1c b4 3f
       0.8440656 0.406965 1.0558054 1.4071139

conv.10.weight f4 [128, 64, 3]
000000 4d aa 1a 3e 47 8c 2e 3d f6 ab 29 3e a1 31 49 3e
       0.15104027 0.042614248 0.16569504 0.19647838
000010 19 7c 29 3e a2 2f a9 3e 7e ac 2b 3d 00 86 9b 3e
       0.16551246 0.33044153 0.04191255 0.3037567
000020 49 d1 54 bd 27 b3 fc 3d 95 66 81 3d fa 1c d0 3d
       -0.051957402 0.12338858 0.06318394 0.10161777
000030 da 79 c1 be 5f c6 3b be 2b 48 8d be ab df 13 be
       -0.37788278 -0.18337391 -0.27594122 -0.14440791
000040 42 f8 27 3d 9f 62 da 3c 3e 6c 0b 3e af 57 7e 3e
       0.04100824 0.026658354 0.1361551 0.24838136
000050 02 62 ab 3e 31 05 ec 3b 29 a8 b7 3d 1c 4a 30 3c
       0.33473212 0.0072027673 0.08967621 0.010759857
000060 70 98 09 bd 34 7c 06 3d 17 ce f1 bb 36 ac c8 be
       -0.03359264 0.032833293 -0.007379304 -0.39193887
000070 64 7a 02 bd 71 6a 2f be 1a a2 15 3d fe 71 b9 3d
       -0.031855002 -0.17130448 0.036531545 0.090549454
000080 f2 2a 8a 3d 08 48 d1 3d 56 36 54 3e cc ff c5 3d
       0.067464724 0.10218817 0.20723853 0.0966793
000090 cc 8f d7 3e 71 20 48 3e b6 9c 0f 3d 49 33 84 3b
       0.42101896 0.19543625 0.03506156 0.004034434
0000a0 a2 2e 97 3d 86 47 22 3d d6 30 4f 3e eb 36 da 3d
       0.073819414 0.03961899 0.20233473 0.10655006
0000b0 c9 17 61 3d ed ea 86 bd 8d f2 1f bd 8a f7 aa bc
       0.054954324 -0.06587777 -0.039049674 -0.020869989
0000c0 af b7 33 3c 2b 64 0a 3e d8 5e 12 be a4 65 e3 3d
       0.010969087 0.13514774 -0.14293993 0.11103371
0000d0 78 30 64 3d c1 30 b3 3d c3 b3 9b 3c 40 9b ed 3d
       0.055710286 0.087495334 0.019006616 0.11601877
0000e0 e5 1d 9e bc 08 82 04 3e 20 e5 93 3d 86 c2 17 3e
       -0.019301364 0.12940228 0.072214365 0.14820299
0000f0 59 2a 01 3e fe a6 af 3c 37 a6 79 3c 0f 57 a8 3d
       0.1261381 0.021441933 0.015237383 0.0821973
000100 40 02 9a 3e d4 c7 0c bc 80 4e 9c bd 2d a8 3a bd
       0.30079842 -0.008592565 -0.0763216 -0.04557054
000110 bd 99 7f bd fd e5 5f 3d 42 11 6a 3e 38 d4 06 3d
       -0.062402476 0.054662693 0.22858146 0.03291723
000120 04 3f 6c be 7f 0e 68 be 28 d1 01 be 4d fe be 3d
       -0.23070914 -0.2266178 -0.12677443 0.09325848
000130 63 e7 19 3d 5a 31 17 be 6e f3 fe be f2 57 fc be
       0.037574183 -0.1476492 -0.49795097 -0.49285847
000140 0c 41 d5 be ba 31 0f 3d 07 cc 50 3d e4 8e 99 3d
       -0.4165119 0.034959532 0.050975826 0.07497957
000150 53 23 ea bd 25 ed ee 3a a9 b3 26 be ac 49 7b bd
       -0.11432519 0.0018228634 -0.16279472 -0.061349556
000160 d9 83 bf bd f6 12 96 be 9c 08 ec 3d 2c 9d 41 3d
       -0.0935132 -0.2931134 0.115250796 0.04726903
000170 b2 3b 21 3e 3e 72 bb 3b 63 86 01 3d 0f d6 43 3d
       0.15745428 0.005720406 0.0316223 0.047811564
000180 d0 b1 53 3e 6d ee 8b 3e c1 3b 2a 3e 5c fa 7e 3e
       0.20673299 0.27330342 0.16624357 0.24900192
000190 a6 3a d9 3d fb e4 06 be 94 8c 1b 3e 89 ef 45 bb
       0.106068894 -0.13173287 0.15190345 -0.0030202589
0001a0 66 53 a6 bd 34 89 82 3c f0 b3 9a bd 8c 73 8a be
       -0.08121376 0.015934564 -0.075538516 -0.2704128
0001b0 9b f7 33 bd 7f 1f 13 3e ee 87 00 3d 60 84 82 3e
       -0.043937307 0.14367484 0.031379633 0.2549162
0001c0 91 6d 83 3e c9 e5 2d 3e be 25 80 3e db bf 56 3d
       0.2566953 0.16982187 0.25028795 0.05242906
0001d0 1e 25 a7 3c 82 16 23 3d f6 56 b4 3d 7d 91 9c 3d
       0.020403441 0.039816387 0.08805649 0.07644937
0001e0 a9 35 0b bb 22 ee 72 bd ba e5 ca bb fe 87 e8 3d
       -0.00212417 -0.059309132 -0.0061919363 0.113540635
0001f0 a6 f4 db 3d aa 0a c0 3d a4 ad b4 bd 76 2f 1d 3d
       0.10740022 0.09377034 -0.08822182 0.03837534
000200 bb 4c 17 be 17 b8 ad bc 75 b5 83 3d f0 05 0a 3d
       -0.14775364 -0.021205945 0.064310946 0.03369707
000210 ea 6d 2d bc 34 be 1a 3c 6e cd 9f be e3 dd aa bd
       -0.010585288 0.009444762 -0.31211418 -0.08343103
000220 1f 13 5c 3e 32 38 27 3e 68 f7 01 be 30 eb 3f bd
       0.21491669 0.1633003 -0.12692034 -0.04685515
000230 b5 c7 5f be f4 97 07 3e 72 01 bc 3d cc b2 f3 3d
       -0.21853526 0.1324156 0.09179963 0.11899337
000240 f2 08 f4 bd 81 0e 97 bc ea 5a 5c be 88 1d 40 3e
       -0.11915769 -0.018439533 -0.21519056 0.18761265
000250 99 b4 5c 3e ec cd 3e 3e 82 93 58 bd 45 c7 bd bd
       0.21553268 0.1863324 -0.05287505 -0.09266523
000260 3c 3e 10 3d 03 6d 93 3a 1f ef 27 3d cd 13 6a be
       0.0352156 0.0011247698 0.040999528 -0.22859116
000270 a7 27 ec 3c 1d 2f d3 bb 2d a3 ed 3d 1e fb 13 be
       0.028827501 -0.0064448253 0.11603389 -0.14451262
000280 bb 83 a4 bd 7b 1a a0 be 48 07 9a bd ec cf 92 3b
       -0.08032938 -0.31270203 -0.0752092 0.0044803526
000290 c9 98 f7 bd e3 26 c2 3c 2d 60 0e 3e 10 ae 21 3e
       -0.12089688 0.023700183 0.13903876 0.15789056
0002a0 1e 99 82 bd 0c fc 10 3e b9 ee 7f 3c a5 41 54 be
       -0.06376861 0.14158648 0.015620881 -0.20728166
0002b0 c0 2c 11 bd 5a be b1 3d 1a b8 53 3c 8b ee 83 3e
       -0.035443068 0.08678885 0.012922311 0.2576793
0002c0 1a 65 4f 3e 86 37 96 3e e7 e6 93 3e 94 ea f8 3e
       0.20253411 0.29339236 0.28887102 0.4861647
0002d0 9c 4f 0d be b4 31 84 bd c8 4f 6b be 86 0c b4 3e
       -0.137999 -0.064547926 -0.22979653 0.35165805
0002e0 03 13 66 3e 0f 4e 8b 3e c6 55 56 3e 90 bc 25 3e
       0.2246819 0.2720799 0.20931157 0.16185212
0002f0 b2 43 cc 3c 73 e4 77 3e 24 fd 26 3e 95 1c 54 3e
       0.024934623 0.2420824 0.16307503 0.20714028
000300 f7 24 4b bd 45 ff b2 be f9 77 a9 be c3 a1 92 be
       -0.0495958 -0.3496038 -0.33099344 -0.2863904
000310 16 11 ab be 32 21 b5 be c9 3d 30 be 46 f9 63 bd
       -0.33411473 -0.3537689 -0.17211069 -0.055657648
000320 41 5f 1a be 49 c1 45 bd b2 e3 10 be 83 7f 9a bd
       -0.15075399 -0.048280034 -0.14149359 -0.07543852
000330 d2 85 93 bc 30 25 64 bd 23 aa e2 3d 36 38 3f be
       -0.018008146 -0.055699527 0.11067607 -0.18673787
000340 3d bc a9 bd 20 77 e0 3c 84 5f 29 bc 61 22 d9 3c
       -0.08287857 0.027400553 -0.010337714 0.026505651
000350 82 13 0f 3d 31 93 4c be 11 05 cb bd f8 e9 47 bc
       0.034930713 -0.19978024 -0.09913076 -0.012201779
000360 4b fc 92 bc b8 40 eb 3d aa e9 60 3e f1 75 1e 3d
       -0.017942568 0.114869535 0.21964136 0.038686696
000370 e2 ec 0c 3e ff 2e 45 bd 2c ed 95 3c 99 5f 04 be
       0.13762239 -0.048140522 0.018301569 -0.12927093
000380 69 ab e7 ba 35 52 95 bd b9 fb e8 3d a4 74 ad bd
       -0.0017674986 -0.0729107 0.11376137 -0.08469513
000390 d9 38 58 3c d4 6c 28 be 9c 4c 2e be ac 01 7e bd
       0.013197147 -0.16447765 -0.17021412 -0.062013313
0003a0 15 7c 0a be 77 54 96 3c 30 c7 0a 3e 61 be e1 bd
       -0.13523896 0.018350823 0.13552547 -0.1102264
0003b0 d4 d2 2a be 67 48 72 bc 15 db 3b bc 14 28 93 3b
       -0.16681987 -0.01478777 -0.011465807 0.0044908617
0003c0 66 66 08 be 9b b8 c4 bb d7 da 8b 3d 2b 6b a8 3d
       -0.13320312 -0.006003452 0.0682885 0.08223566
0003d0 8e ee 03 bd 8a ed 7b 3d 1c 26 be bc fe 05 6a be
       -0.032209925 0.06150583 -0.023211531 -0.22853848
0003e0 71 b1 2a 3e 0c 68 06 be 11 a7 4d be 9e 78 39 bd
       0.16669251 -0.13125628 -0.20083262 -0.045281045
0003f0 23 6e da 3d 39 85 e7 bd 61 de 05 bd 1b 0b ae be
       0.10665538 -0.11304707 -0.03268278 -0.33992848

conv.10.bias f4 [128]
000000 ac 74 97 3d ee 8e 04 3d b8 32 80 3b 1d 81 8e 3c
       0.073953 0.03236287 0.003912296 0.01739555
000010 7a f5 0f 3d ef 33 2e 3d 18 31 67 bd 14 27 cc 3c
       0.035146214 0.042529996 -0.056443304 0.024920978
000020 e3 0c 39 3c 21 6a 36 bd 03 85 34 bd 3f 07 bb 3c
       0.011294576 -0.044534806 -0.044072162 0.022830604
000030 ba df 5a 3d e7 39 6b bd 72 68 c3 bc 21 5e 8f 3c
       0.05343602 -0.057428267 -0.023853514 0.017500939
000040 6a 8d 71 3c ce 97 0a bd cc 7f cc bc 34 ea 27 bd
       0.014743188 -0.03383618 -0.024963282 -0.040994838
000050 04 ad d6 3c a0 75 c2 bc ec ac 52 3d 99 f8 82 3d
       0.026205547 -0.023737729 0.051434442 0.063950725
000060 ca af 3c 3d 67 c5 34 3d 24 69 ed bc 3c fd 22 3d
       0.046066083 0.04413357 -0.028980799 0.039792284
000070 45 6b 86 3d 93 1a 1a bd 1b 8b 78 bd e0 8e 94 bc
       0.06563429 -0.037623 -0.060679536 -0.018134534
000080 e9 90 5e bc ab 7c 2a bd a7 29 68 bd bc fb 30 bd
       -0.013584354 -0.0416228 -0.056680348 -0.043208823
000090 9f 94 87 bd 4e 78 40 3d 0b 7f 11 b9 5c 2b 1f 3d
       -0.06620144 0.04698973 -0.00013875605 0.03885971
0000a0 ce 35 f8 bc 24 82 95 3d 83 23 93 38 89 26 a6 3b
       -0.030299094 0.07300213 7.016121e-05 0.0050705117
0000b0 e3 6e 13 bd 47 0e 91 3d 79 bf 94 bd 06 de 39 bd
       -0.03599442 0.07082801 -0.07263083 -0.045377754
0000c0 78 1b 81 3d 4a 0f 8b 3d c4 55 66 bc 71 66 28 bd
       0.063040674 0.067900255 -0.014058534 -0.04111332
0000d0 9c c7 55 bd 7a cb 7b 3c 52 c5 fd bc 5e e7 b4 3c
       -0.052192315 0.015368337 -0.030977879 0.02208298
0000e0 26 07 ac ba 33 5b 2c 3c 0e e5 03 3d 3c af 48 3c
       -0.0013124689 0.01051979 0.032200865 0.01224881
0000f0 39 11 15 bd d9 9f 02 bd da b8 b1 bd e0 c5 25 bd
       -0.036393378 -0.031890724 -0.08677836 -0.04047191
000100 41 f1 55 bd 39 8a ce bc 41 f5 08 3d c4 ec 9e 3d
       -0.05223203 -0.025212394 0.033437017 0.07760003
000110 f8 ac 17 bd fa 17 2a 3d 51 b7 40 bd 0e f9 88 bc
       -0.03703019 0.041526772 -0.047049824 -0.016720321
000120 09 7c 69 3d a9 09 fc 3b a2 83 e3 bc db 78 93 3d
       0.057003055 0.0076915813 -0.027772728 0.07200786
000130 5a f8 8f 3d db 99 bb 3a 97 a9 9e 3d 15 d3 5f 3d
       0.07029791 0.001431282 0.077471904 0.054644663
000140 1b c3 07 bd c1 54 1c 3d a2 c4 36 bd da 0c 3c bd
       -0.03314505 0.038166765 -0.044621117 -0.045910694
000150 b0 65 9b 3d d3 36 f9 bc 16 cf 7c b9 2b 6d 6d bd
       0.07587755 -0.03042165 -0.00024109738 -0.05796544
000160 9d a4 83 3c 29 23 ac 3c 19 15 50 bd 99 80 a4 3c
       0.016069705 0.02101286 -0.05080137 0.020080851
000170 9d b4 82 3d 7b 45 3f 3d 42 c5 8e bb 01 a6 7f 3d
       0.063821055 0.04669712 -0.004357011 0.062414173
000180 68 2d f9 3c 82 e1 0b 3c 5e b1 d3 3c 92 9a b2 3d
       0.03041716 0.008537652 0.025841411 0.08720888
000190 21 44 55 bc 03 ad b3 3c 6d 78 d1 3b f0 ab 13 3c
       -0.0130167315 0.021933084 0.0063925297 0.009013161
0001a0 52 a7 14 3d 99 b1 69 3d d1 1c 49 bd 12 bb d8 bc
       0.03629238 0.057054136 -0.049099747 -0.02645639
0001b0 d7 e1 c1 bc 61 87 76 bd 89 c1 17 3b 46 20 b3 3c
       -0.02366726 -0.0601877 0.0023156127 0.021865975
0001c0 71 38 f2 3c ad 53 bd bc 84 44 3b 3a 6d 47 82 3d
       0.029567929 -0.023111189 0.00071436935 0.0636128
0001d0 c2 9d 19 bd 4e cc 13 bd 5c 4a a3 bc 18 5d 08 3d
       -0.037503965 -0.036083512 -0.019932918 0.033291906
0001e0 87 c6 84 3d 34 19 1d bd ec 1d e1 3c 61 15 91 ba
       0.064831786 -0.038354114 0.027480088 -0.0011068993
0001f0 02 62 b8 bc 47 da 2a bd 51 2a 12 bd 3f 90 5b ba
       -0.022507671 -0.04171207 -0.035684887 -0.00083756814

conv.11.weight f4 [128]
000000 ae c0 a0 3f 3f 72 88 3f 2b 42 6d 3f 87 93 aa 3f
       1.2558801 1.0659865 0.9267909 1.3326272
000010 69 fa 93 3f 88 00 b1 3f 31 42 67 3f f4 72 7a 3f
       1.1560794 1.3828287 0.90335375 0.97831655
000020 e7 26 ba 3f 83 6f 90 3f 1d 99 90 3f 87 fb a7 3f
       1.4543122 1.1284031 1.1296726 1.3123635
000030 cb 3c 83 3f 54 68 7a 3f a1 0b ab 3f 68 a3 8a 3f
       1.0252928 0.9781544 1.3362924 1.0831118
000040 2d d0 bf 3f e7 b2 a9 3f 71 01 88 3f f1 02 6e 3f
       1.4985405 1.3257722 1.062544 0.9297324
000050 2d ec 66 3f 3f 36 8b 3f 78 f5 92 3f a4 ed 71 3f
       0.90204126 1.087593 1.1481161 0.94503236
000060 2f 02 b5 3f c4 c4 84 3f bc da 9e 3f a4 b6 db 3f
       1.4141291 1.0372548 1.2410502 1.7165112
000070 b4 9f 96 3f 4a 33 70 3f 4e fc 9a 3f bd da 97 3f
       1.1767488 0.9382826 1.2108247 1.1863629
000080 07 92 df 3f a4 4e b4 3f 5c a7 6d 3f f1 fc b2 3f
       1.7466439 1.4086499 0.92833495 1.3983442
000090 0c 58 99 3f 86 03 c3 3f 85 f2 72 3f d1 73 ee 3f
       1.1979995 1.523545 0.94901305 1.8629094
0000a0 2d 8a f5 3f ef 39 a7 3f f0 54 8f 3f e2 0c e4 3f
       1.9182793 1.3064555 1.1197796 1.7816432
0000b0 1e 5c 69 3f 0d c0 67 3f bd ad ab 3f 03 5b a0 3f
       0.91156185 0.9052742 1.3412396 1.2527775
0000c0 9c d9 a3 3f 3b 5a 78 3f 68 50 f5 3f 54 f5 b6 3f
       1.2800784 0.9701268 1.9165163 1.4293618
0000d0 7e 40 c0 3f 19 23 ae 3f 9c 49 87 3f 11 28 ad 3f
       1.5019681 1.3604461 1.0569339 1.3527852
0000e0 d7 77 f2 3f 6a cb 6d 3f 8d 94 7b 3f ac 25 66 3f
       1.8942822 0.9288851 0.98273546 0.8990123
0000f0 b6 8c c2 3f 34 b3 a8 3f 8f c1 ad 3f b8 56 f6 3f
       1.5199192 1.3179688 1.3574694 1.9245214
000100 e0 42 88 3f 03 00 6a 3f d6 58 85 3f ef 84 94 3f
       1.0645409 0.9140627 1.0417736 1.1603068
000110 79 62 74 3f b2 dd 82 3f f2 65 e2 3f e6 9d 94 3f
       0.9546276 1.0223906 1.7687361 1.1610687
000120 c6 2a 88 3f c7 d2 b7 3f b6 0f bf 3f 3d 8b f2 3f
       1.0638053 1.4361199 1.492667 1.8948742
000130 be cd ab 3f 64 d8 9b 3f 9a 9d 8c 3f 0a d3 8e 3f
       1.3422163 1.2175412 1.0985596 1.1158154
000140 2c 9b 93 3f 12 a6 6b 3f 81 19 c9 3f d1 ea 01 40
       1.153173 0.9205028 1.5710908 2.029957
000150 df 49 bd 3f a5 2e 9d 3f c4 d3 94 3f ad e3 a0 3f
       1.4788169 1.227986 1.1627126 1.2569481
000160 87 03 9b 3f e6 97 69 3f c8 41 7a 3f 7d dc 86 3f
       1.2110451 0.91247404 0.97756624 1.0536038
000170 3b 26 8f 3f a0 d6 83 3f a9 7b 80 3f 37 47 81 3f
       1.1183542 1.0299873 1.0037738 1.0099858
000180 c6 aa 9e 3f 77 74 61 3f f0 21 03 40 a9 06 83 3f
       1.2395866 0.88068336 2.0489464 1.0236408
000190 06 52 91 3f 2f 7c 86 3f fd be 84 3f 8d 63 ad 3f
       1.1353157 1.0506648 1.0370785 1.3546005
0001a0 7e e8 ab 3f c4 2f af 3f fd 3b b8 3f 28 16 b1 3f
       1.3430326 1.3686452 1.4393307 1.3834887
0001b0 52 a8 a7 3f 9d bd af 3f aa d9 9b 3f cb cf a1 3f
       1.3098242 1.372974 1.2175801 1.2641538
0001c0 63 8b 7d 3f 45 0a f1 3f 04 8d 6e 3f 16 3b 6f 3f
       0.9904081 1.8831259 0.9318392 0.93449533
0001d0 1a b8 90 3f 64 53 70 3f 60 67 a7 3f da 21 62 3f
       1.1306183 0.93877244 1.3078423 0.88332903
0001e0 fa 92 6d 3f 2b 93 c3 3f 11 32 94 3f 94 ce 8f 3f
       0.92802393 1.5279287 1.1577779 1.1234918
0001f0 0b 5d ae 3f 2f 8d 74 3f 12 20 97 3f 4b a3 75 3f
       1.3622144 0.9552793 1.1806662 0.9595229

conv.11.bias f4 [128]
000000 9a c6 9e be 79 89 81 bd 1a af 7d be a0 c5 c8 bd
       -0.31010896 -0.06325049 -0.24773827 -0.09803319
000010 d3 bc ff 3c 7c ea 7d 3d 6b 0d 26 be bb d1 c5 bd
       0.031217968 0.0619912 -0.16216056 -0.096591435
000020 eb ea ab bd 78 4e 3f 3b 32 0c b6 3c 86 ed c4 3c
       -0.083944164 0.0029191058 0.022222612 0.024039041
000030 fb f2 f1 bd d5 05 16 be b5 5d 57 bf cb d9 c8 3d
       -0.11813923 -0.14650662 -0.8412736 0.09807166
000040 2c 7e 88 bd 1c d9 f1 3d e8 03 33 3d 2f 4a 94 be
       -0.066646904 0.118089885 0.043704897 -0.28962848
000050 ed 53 b4 be a2 2f 71 3b ef 4d 05 bf df cd 22 be
       -0.3522028 0.0036802073 -0.5207204 -0.15898846
000060 e8 6a 86 3e 5a 27 3f be ff a4 06 bf 24 29 01 3d
       0.26253438 -0.18667355 -0.52595514 0.031533375
000070 68 59 83 bd ca 20 33 be 59 68 53 3d 60 06 e4 bc
       -0.06413537 -0.17492977 0.051613186 -0.027835071
000080 66 f7 8a 3c be 76 78 3c 1c b8 66 bd c7 5a ee bd
       0.016963672 0.015165029 -0.056327924 -0.11638408
000090 d9 27 8a bd 39 fb 8b 3d 41 bf 51 be 6d da 74 3e
       -0.067458816 0.06835026 -0.20483114 0.23911448
0000a0 f7 cc c7 3d 52 c0 39 3d 9f eb 2e be 7b a5 d7 bb
       0.09755891 0.045349427 -0.1708207 -0.006581006
0000b0 a3 e0 96 be 0f fb c9 be 2b 1e 83 3d d0 b4 c4 3d
       -0.2946826 -0.39449355 0.064022385 0.096048
0000c0 88 c9 fa 3d 67 a4 d2 be 2b 9c 50 bd 19 9f ae be
       0.1224547 -0.41141054 -0.050930183 -0.34105757
0000d0 20 2e 22 bd ce 5c 87 3b a3 6a e0 bd da 4d 23 3d
       -0.03959477 0.004130936 -0.10957839 0.039869167
0000e0 cd e8 98 3d 1c 81 35 be 2a 1d 4d be b2 cd 5c be
       0.07466278 -0.17725033 -0.20030656 -0.21562842
0000f0 e5 94 20 3e 2b 62 58 bc cd cb bb bd cf 44 d7 be
       0.15681799 -0.013206999 -0.09169731 -0.42044684
000100 20 05 c4 be 7c 6f 02 bf c5 65 55 be 61 2c e7 be
       -0.3828516 -0.5095136 -0.20839603 -0.45151046
000110 b8 85 be be ad bc f3 bd ed 6d 56 3d 7c b0 9e bc
       -0.37211394 -0.119012214 0.052350927 -0.019371264
000120 32 5c 4a be 33 14 73 3b ea f1 a6 bd 39 f0 08 be
       -0.19761732 0.0037090897 -0.0815161 -0.13372888
000130 5b 86 a9 3c a3 a0 69 be 2a ad 01 be de de fd bc
       0.020693948 -0.22815184 -0.12663713 -0.03099006
000140 47 c3 0e 3e cc 88 55 be 37 c1 4c 3d 7e 09 f1 bd
       0.1394168 -0.20852965 0.04998895 -0.117693886
000150 75 28 ba 3c 63 7e 3f 3e c9 22 90 bd e1 30 b2 be
       0.02272437 0.18700556 -0.07037885 -0.34802917
000160 52 68 7e 3d 22 38 a7 be e3 53 c9 bd 9a 0c 02 3d
       0.062111206 -0.32660013 -0.09830453 0.0317503
000170 06 12 f9 bb 33 34 82 3b bd 3a 69 be aa 21 38 be
       -0.0076010255 0.003973508 -0.22776313 -0.17981592
000180 8c f7 4b 3d 41 22 8b be d8 99 b3 3d 3b f7 74 be
       0.049796626 -0.2717457 0.08769578 -0.23922436
000190 a3 3d 88 3c 79 91 01 bf ec 09 a8 be 3a da f4 3d
       0.016630953 -0.506126 -0.3282007 0.11955686
0001a0 bf b2 12 bd 86 b7 a9 3d fc c8 81 3d 9b 17 ae bd
       -0.035814997 0.082869574 0.06337163 -0.08500596
0001b0 e6 b7 2c bc 13 4e 8c 3b 61 0c 88 3d db 4d 6b bd
       -0.010541892 0.004281768 0.06642986 -0.057447296
0001c0 a5 86 7e be fc 97 d5 3c 66 e4 9a be 32 97 7b be
       -0.2485605 0.026073448 -0.3025238 -0.24569395
0001d0 f7 78 0a bd 6f eb be be f5 54 a6 be 67 34 a3 be
       -0.033806767 -0.37288997 -0.32486692 -0.31875917
0001e0 b3 19 b1 be 66 03 52 be 1f 82 a6 3c cd 45 f1 3c
       -0.3458992 -0.20509109 0.020325718 0.029452229
0001f0 1f 73 44 be 4b ed dc bd 89 55 04 be 18 3a f0 be
       -0.1918454 -0.107874475 -0.12923254 -0.46919322

conv.11.running_mean f4 [128]
000000 10 0b 02 40 04 00 32 c0 25 d9 f0 bf f3 cc d6 be
       2.0319252 -2.781251 -1.8816267 -0.4195324
000010 9a f9 88 3f f2 f0 7d 3e 8a 11 5b c0 25 aa de be
       1.0701172 0.24798945 -3.4229455 -0.43489185
000020 05 f2 4f 40 f8 5a b7 3e 86 79 4a 3f dc 4d 4d 3f
       3.2491467 0.3581159 0.7909168 0.8019693
000030 0c d4 26 c0 8f 2c b2 bf 31 71 b6 bf 25 9e 82 3e
       -2.6066923 -1.3919848 -1.4253293 0.2551128
000040 b4 ce 18 40 a5 19 7b 3d de 29 b6 3d fa e7 d9 bf
       2.3876162 0.061303753 0.08894704 -1.7023919
000050 18 cb 85 bf c9 94 57 3f d8 db 25 c0 dc 1e f0 3f
       -1.0452604 0.84211403 -2.5915432 1.8759418
000060 05 8e 03 be c5 06 98 bf e2 a5 19 c0 70 7f 1b 40
       -0.12847145 -1.1877066 -2.4007497 2.4296532
000070 b9 90 2f 3f 7d 38 01 c0 6a ea b3 3f 6b 01 bc 3f
       0.68580204 -2.0190728 1.4055912 1.4687933
000080 51 36 d6 be 37 3e 59 3f b5 96 46 3d c6 dc 83 3f
       -0.41838315 0.8486056 0.04848357 1.030175
000090 7c 0d 13 40 a3 80 05 bf b8 4c de bf 6b f7 2f 40
       2.297698 -0.5214941 -1.7367163 2.7494762
0000a0 c7 4f 2e 40 38 5d b2 be 58 30 14 bf e9 2e a1 bb
       2.7236192 -0.34836745 -0.57886267 -0.004918922
0000b0 0d dd 21 c0 31 70 78 bf dd 1c 80 bf 64 b3 d3 bd
       -2.5291169 -0.9704619 -1.0008808 -0.103369504
0000c0 82 93 1f 40 55 0f 13 bf c2 63 45 40 61 21 20 40
       2.4933782 -0.5744527 3.0842137 2.5020373
0000d0 2a eb 62 3f 78 2d 9f 3f 4a a7 d8 bf 27 22 fb 3e
       0.8864008 1.2435751 -1.6926053 0.49049494
0000e0 94 c8 8b bd 27 1d 07 c0 e9 9b de bf dc ee 2a c0
       -0.068253666 -2.1111543 -1.739133 -2.6708288
0000f0 a9 f2 c3 be 36 58 f5 3f 48 d3 4f 3e a3 c7 5c 3e
       -0.38271073 1.9167545 0.20295441 0.2156053
000100 85 36 90 bf 77 82 1a c0 8d b6 4b c0 fd 62 11 bf
       -1.1266638 -2.414213 -3.183017 -0.5679167
000110 dd f3 ec bf d7 0b c4 3f 0e 2f c2 be cd 9b f0 3d
       -1.8511921 1.5316113 -0.37926525 0.11748467
000120 d8 5a dd bf 2f 77 1b 40 03 e5 bb 3f b6 bb a8 3f
       -1.7293348 2.4291494 1.4679264 1.3182285
000130 bf ef 25 40 33 f2 2a 40 49 b6 ae 3e 2b d2 0b 3f
       2.592758 2.6710327 0.34123448 0.54617566
000140 d0 99 98 3f 42 60 58 c0 bd 6f ed 3d 0b 01 17 be
       1.192194 -3.380875 0.11593578 -0.14746492
000150 21 7f d8 bd d9 32 5c bd 2d 78 64 3f d4 93 88 bf
       -0.10571123 -0.05375943 0.89245874 -1.0670114
000160 c7 ac a4 3f 52 0c ff bf 78 15 7f c0 ff b4 d7 be
       1.2865227 -1.9925635 -3.9856853 -0.42130277
000170 8c f0 31 bf 66 9c b8 3e 0d 2c 18 bf 52 81 2c c0
       -0.6950767 0.36056823 -0.59442216 -2.695393
000180 3a 57 0a 40 dd 3f 17 c0 bf 4a 16 bf 78 4c 81 bf
       2.161574 -2.363273 -0.58707803 -1.0101461
000190 14 77 25 3f 22 75 82 3e 88 12 92 3c d4 18 13 bf
       0.64634824 0.2547999 0.017831102 -0.5745976
0001a0 24 2c ea 3f fa ef 15 3f 94 ac 48 bf 7a 18 2f 40
       1.8294721 0.585693 -0.78388333 2.735869
0001b0 bd 5e d1 3f bf 74 61 40 37 8e 96 3f c4 c8 7c be
       1.6357037 3.5227506 1.176215 -0.24685961
0001c0 15 2a b2 bf 6c 14 e2 be 76 61 d3 bf fa 53 4d bf
       -1.3919092 -0.44156206 -1.6514118 -0.80206263
0001d0 bb 7c 72 be 4e 84 15 bf d6 c2 29 bf 1c 4d 3e bf
       -0.23680393 -0.58405006 -0.6631292 -0.7433641
0001e0 01 1a 1b c0 24 80 41 3f e0 2a 06 3f 20 78 c5 bd
       -2.4234622 0.7558615 0.5240917 -0.09642053
0001f0 c5 d7 5d bd 07 50 6b c0 90 ab 41 bf b5 b1 a8 be
       -0.054160852 -3.6767595 -0.7565241 -0.3294808
