output/electricity_cnn_20260221_204822/checkpoints/epoch_85.pt (torch, 174824 bytes, 21 tensors)

conv.0.weight f4 [32, 14, 3]
000000 d0 e1 ee bd 3e f8 a2 bc a9 07 b5 3c a5 4d da bb
       -0.11664164 -0.019893762 0.02209838 -0.006662088
000010 fc 55 cb 3d bc ba ac bd c3 4f c1 bd c2 74 d7 3d
       0.099285096 -0.08434054 -0.094390415 0.10520317
000020 da 97 be bd f3 e2 0e 3c 34 25 b7 bd 06 24 27 bc
       -0.09306307 0.008721101 -0.08942643 -0.01020146
000030 23 2b ef 3b 44 50 5f bb a5 c4 a1 bb e1 e2 b1 3c
       0.0072988435 -0.0034074942 -0.004936772 0.02171463
000040 07 4d 3f 3d 67 f2 80 bd b8 21 bf 3c 60 7e 12 3e
       0.04670432 -0.062962346 0.023331508 0.1430602
000050 2a 94 d0 3b 57 90 a4 3c 8a d8 c3 bd 6c 7b 9f 3c
       0.006365319 0.020088358 -0.09562786 0.019468032
000060 a4 4d fa 3e e8 8c d9 3e fe 5e 12 3f a9 2e 59 bf
       0.4888736 0.42490315 0.57176197 -0.8483682
000070 09 52 62 bf 4a ee 77 bf a7 59 6b be 79 5b 7b be
       -0.88406426 -0.96847975 -0.22983418 -0.24546613
000080 23 7a 33 be 08 b9 dd bb 31 a3 2e 3d 2a 0c 0b bd
       -0.1752706 -0.006766442 0.0426361 -0.033947147
000090 b1 ab f0 bd b3 ae db 3d 70 75 8e 3b 00 51 8c bd
       -0.117514975 0.107266806 0.0043474957 -0.06851387
0000a0 28 e8 99 3b d7 b3 9a 3d 01 83 53 be 19 3b c5 3d
       0.0046968646 0.07553833 -0.20655443 0.096304126
0000b0 d7 3c aa 3d 4f 80 2f 3e 02 77 bb 3d af 4f a6 3c
       0.083123855 0.1713879 0.09153558 0.020301668
0000c0 41 6e f0 bd ba c3 63 bc 41 0d c3 bc d0 df 40 3e
       -0.11739779 -0.013901645 -0.02381003 0.18835378
0000d0 41 f7 27 3e 2e da 50 be 0b 9a 39 3d 55 18 10 bd
       0.16402914 -0.20395729 0.045312922 -0.035179455
0000e0 1d fd 9d 3d e5 ab 4e 3d 1a 0e 8f 3c 27 c3 8c bd
       0.07714293 0.0504569 0.017462779 -0.0687316
0000f0 8d 66 17 3c c5 14 41 3d 56 fa 37 3e 67 35 ce bc
       0.009240759 0.047138948 0.1796659 -0.025171949
000100 45 4b ca bc c3 f6 4b 3d 39 0c 44 be 7d ee cc bc
       -0.024694094 0.049795877 -0.19145288 -0.025016064
000110 ab 6a 90 bc b0 bd 5f 3e 7b 25 7a 3e 10 11 c9 3e
       -0.017628988 0.21849704 0.2442836 0.3927083
000120 32 29 07 bf a3 4f 1b bf a6 56 07 bf 72 fe f1 3c
       -0.52797234 -0.6066839 -0.5286659 0.029540274
000130 62 1a c8 3d d5 7e 5b be c5 98 6f 3d 59 6f ad bd
       0.09770657 -0.21435101 0.0584953 -0.084685035
000140 71 a9 10 bd c3 54 12 3d c5 70 8c bd c7 2c e2 3d
       -0.035317842 0.035725366 -0.068574466 0.11043697
000150 32 df af 3d e3 95 18 3e 8c 3c 79 be ff 7a 12 3d
       0.08587493 0.14900927 -0.24339503 0.03576183
000160 c6 5e 41 3d c8 2c 87 3d f9 c6 8b bc 72 52 45 3d
       0.047209524 0.06600338 -0.017062651 0.04817433
000170 6c 4d 34 be f8 56 d6 bd 95 fc 08 3e ad 9d db 3a
       -0.17607659 -0.10465807 0.13377602 0.0016755365
000180 5a d5 8d 3d d9 50 6f bd 66 7f 30 b8 b1 e8 40 3a
       0.06925459 -0.05842671 -4.208032e-05 0.00073588925
000190 f9 16 ca 3c ac 45 af bc a4 1e 90 3d 97 56 ea 3d
       0.024669157 -0.021395527 0.07037094 0.11442297
0001a0 ee 9f 53 bd cb c0 5d bc 00 59 34 3d 5b 30 cd bd
       -0.051666193 -0.013534735 0.04403019 -0.10018989
0001b0 5f b0 77 bf a2 b4 35 bf ba 34 68 bf f8 01 25 3d
       -0.96753496 -0.7097875 -0.90705454 0.04028508
0001c0 5c 4f 86 3e f5 44 a5 3e dd 8f 32 3e a1 bd 32 3d
       0.2623242 0.32279173 0.17437692 0.043637875
0001d0 0d 3f 8f 3e 0c 62 5d bb 1b 49 35 bc f0 2e 3a 3d
       0.2797779 -0.0033780364 -0.011064793 0.04545492
0001e0 a8 36 3c bd f7 7d 10 3e 1b 73 cd bd 53 5c 97 bd
       -0.04595056 0.14110552 -0.1003172 -0.07390656
0001f0 39 03 cc bc 21 30 ec 3d 8a 37 71 3e 92 87 bb 3c
       -0.02490388 0.11532617 0.23556343 0.022891793
000200 c5 52 d4 bd 43 ec bb bd 1f 20 05 3d 20 5d 12 3b
       -0.103673495 -0.09175923 0.032501336 0.002233334
000210 51 06 e1 3c 62 d3 58 3d 63 05 d8 bd 0a 0e 3d 3e
       0.027468832 0.052935965 -0.105479024 0.18462387
000220 e4 c5 c9 3d f1 65 80 3d e3 23 91 3c ae a1 4b 3b
       0.09852198 0.06269444 0.017717307 0.003107171
000230 f8 45 8f bd 97 6c 8b 3d c6 23 8e 3d fb d5 1e bc
       -0.06995767 0.06807821 0.06940417 -0.009694572
000240 17 fe c3 3c 4b 8a 04 3e 1e b8 58 be e2 90 5a 3d
       0.02392487 0.1294338 -0.21163985 0.053360827
000250 c1 5f 39 be 6f 4e 5d 3d 7b 9e dc 3a dc 1d 7b 3d
       -0.18102933 0.05402988 0.0016831899 0.061307773
000260 26 ea 0b 3e e7 7b bb 3d 20 f9 38 3e 63 a3 9d 3e
       0.1366354 0.09154492 0.18063784 0.30788717
000270 ed a4 cf 3e 65 c6 d6 3e d4 e3 d6 3e b5 bf b0 3e
       0.40555516 0.41948238 0.41970694 0.3452126
000280 7a 36 13 3e 3c ce 00 3e 4f bb a6 3d 8f c7 99 bd
       0.1437625 0.12578672 0.08141195 -0.07508766
000290 27 38 67 bd 69 ce 2a bc 4f a9 5d 3d d5 33 93 3d
       -0.056450035 -0.010425189 0.054116543 0.071876206
0002a0 f9 c1 f1 3d 9f d3 73 bd 7c ab ae bd fd 0a 93 3c
       0.118045755 -0.05952799 -0.08528802 0.017949576
0002b0 ab 5f 99 bd 99 a8 03 bd 84 1c 8a 3d 72 c2 b2 3c
       -0.0748895 -0.03214321 0.0674372 0.021821234
0002c0 41 13 39 bc 74 4c 96 3d 40 78 49 3d 41 64 8e bd
       -0.011296094 0.07338801 0.049186945 -0.06952716
0002d0 2a fa 80 3c e5 22 2a ba 50 1b 11 bd 61 aa 53 bb
       0.015744288 -0.0006490185 -0.035426438 -0.0032297599
0002e0 73 ef 14 bc fa 52 99 bb 9d 13 76 bc d5 e7 50 bc
       -0.009090292 -0.004679081 -0.015019325 -0.012750586
0002f0 6c 44 98 bd 5b b6 3d 3d d8 09 b6 3c 7d bb 76 3c
       -0.074349254 0.046316486 0.02222149 0.015059349
000300 58 62 01 3f 36 b2 09 3f 79 26 1d 3f 32 28 53 3d
       0.50540686 0.53787553 0.6138683 0.051552005
000310 22 ba 85 3e b5 93 9d 3e 18 58 85 3e 3d 48 b8 3e
       0.2611857 0.30776754 0.26043773 0.35992613
000320 18 93 c1 3e 3c 61 0a 3d 37 cb 8b 3d 3a 00 6e bb
       0.37807536 0.033784136 0.068258695 -0.0036316053
000330 fb 94 ed 3c 83 ee 25 3c 33 87 b6 bc f9 e6 82 bd
       0.029001703 0.010127666 -0.022281265 -0.06391711
000340 eb 50 d6 3c 29 38 07 3d a0 d8 db 3b d3 8a c7 3d
       0.026161632 0.033012543 0.0067091733 0.097432755
000350 23 f3 ab bd 05 ff 23 3e 24 b1 dd bd 44 bc b3 3d
       -0.08395984 0.16015251 -0.108248025 0.08776143
000360 49 64 5a bc f5 32 95 bd 90 bc de bd 8c 29 09 be
       -0.013329574 -0.0728511 -0.10875809 -0.13394755
000370 8f a9 84 3d de 32 94 bd bf 45 1d 3c 0b 24 87 3b
       0.06477653 -0.07236265 0.009599148 0.0041241697
000380 df 65 b5 3c 7a 04 39 bc 7e 95 c5 bb 05 f0 15 3a
       0.022143302 -0.011292571 -0.0060297837 0.00057196646
000390 ef da 32 3c 85 4f 6c 3e c7 59 22 be 90 bc d5 3d
       0.010916456 0.2307721 -0.1585456 0.10436356
0003a0 fc ec cc bd bd 66 21 bf 8f b0 df 3d c9 f5 76 3e
       -0.10006139 -0.6304739 0.10922348 0.24117197
0003b0 fa 1a 05 3e 0f 74 ed be 84 90 12 bf 04 39 0d bf
       0.12998572 -0.46377608 -0.57251763 -0.55165124
0003c0 52 b4 d6 3e 83 45 37 3e 50 df c5 3e c9 15 d2 3d
       0.41934448 0.1789761 0.38646936 0.102580614
0003d0 3d 68 b2 3d e9 03 eb 3c e6 1f 6f bc 4f 14 22 3d
       0.08711288 0.028688388 -0.0145950075 0.03957015
0003e0 36 1e 6d 3d ff a7 ad 3d ad 8e f2 3b 97 3a 27 be
       0.05789014 0.08479308 0.007402262 -0.16330944
0003f0 74 14 11 be 19 53 2a be 4f 57 76 3e e1 06 ec bb
       -0.14167958 -0.16633262 0.24056743 -0.0072029685

conv.0.bias f4 [32]
000000 b9 91 0a 3e 55 60 ef 3c 96 67 8b 3d 64 d2 3c 3e
       0.13532151 0.02922074 0.06806867 0.18439633
000010 86 44 89 3e 11 e6 60 3e 54 57 f7 bd a4 c0 b3 3c
       0.26810092 0.21962763 -0.120772034 0.021942444
000020 ce d1 29 3d 6a 00 00 3e 1c cd c9 3c 3e 65 c2 3d
       0.04145985 0.12500158 0.024633937 0.09491967
000030 f9 43 00 be d3 07 72 ba 1e b7 cd bc ac e6 da bd
       -0.1252593 -0.0009232733 -0.025111731 -0.106885284
000040 a8 13 14 bd f0 e8 76 3d ce 54 42 3e db 8b 69 3d
       -0.03615156 0.06028074 0.18977663 0.057018142
000050 69 6e d8 3c 66 58 98 3e aa 82 8b 3e e0 21 02 be
       0.026419835 0.29754943 0.27248126 -0.12708235
000060 f5 01 db 3d 56 6a cd 3d dd c0 2a 3d 4f a2 31 3e
       0.10693733 0.100300476 0.041687835 0.17347072
000070 ac a9 7f bd fc db ca bb a7 c2 17 3e 7e dc 09 3e
       -0.06241767 -0.006190775 0.14820348 0.13463017

conv.1.weight f4 [32]
000000 73 34 90 3f c0 c0 2c 3f f5 96 88 3f ac 7a 2d 3f
       1.1266006 0.67481613 1.0671068 0.6776531
000010 f4 97 5c 3f 86 a6 0f 3f 68 23 7c 3f e7 6b 3e 3f
       0.8616936 0.5611347 0.98491526 0.74383396
000020 be a7 e1 3e b4 24 34 3f 8f b6 79 3f e5 fd e5 3e
       0.4407329 0.70368505 0.9754419 0.4492027
000030 56 e3 3c 3f 04 b1 1c 3f 4b 89 27 3f 72 02 83 3f
       0.7378439 0.61207604 0.6544387 1.0235121
000040 ba e2 3a 3f f9 57 90 3f 55 17 43 3f 6a 61 86 3f
       0.7300221 1.1276847 0.76207477 1.0498478
000050 b0 83 5b 3f ce 6d 57 3f a4 32 49 3f 25 b4 83 3f
       0.85747814 0.84151924 0.78592896 1.0289351
000060 e6 33 63 3f 71 65 a7 3f eb ea 46 3f 8e e9 15 3f
       0.88751066 1.3077832 0.77702206 0.585595
000070 d9 cc 5a 3f 4b 8a 39 3f 29 8d 3f 3f b4 ed 64 3f
       0.8546882 0.72476643 0.7482477 0.89425206

conv.1.bias f4 [32]
000000 89 a6 bf be c6 db e5 be 0c 46 ad be e5 52 cc be
       -0.37431744 -0.44894236 -0.33842504 -0.39906994
000010 6c b9 be be 73 bc 1f bf b7 ce b1 be ad fb a5 be
       -0.3725084 -0.62396926 -0.34728023 -0.32418576
000020 23 df 76 be a0 9f f6 be 12 fe 7e be 06 29 89 be
       -0.24108557 -0.4816866 -0.24901608 -0.2678911
000030 56 f7 0c bf d6 4a 9f be 29 90 39 be ce a5 ad be
       -0.55064905 -0.31111783 -0.18121399 -0.3391556
000040 83 39 ed be 2b 23 14 bf e1 00 dc be 25 c6 95 be
       -0.4633294 -0.5786616 -0.4296942 -0.29252735
000050 2a 28 ee be 80 6d 35 bf 55 57 31 bf 6b 38 09 3e
       -0.46515018 -0.7087021 -0.69273883 0.13400428
000060 a5 c1 bd bd 05 56 9b be 8c 68 ca be 52 89 19 bf
       -0.092654504 -0.30339065 -0.39532888 -0.5997516
000070 2d 4e a5 be 24 8b 7c be 67 5a db be 3b 4e ea be
       -0.32286206 -0.24662453 -0.4284241 -0.4576281

conv.1.running_mean f4 [32]
000000 fe 8b ed 3d e1 9a 92 3d f0 ca e6 bc ac 77 4a 3e
       0.11598967 0.07158447 -0.02817294 0.19772214
000010 9b 09 b1 3e 97 6e 2c 3e ff 0e 62 be e6 92 89 bd
       0.3457764 0.16839062 -0.22076033 -0.06717472
000020 29 e4 6a 3d e9 b9 1f 3c 06 33 9a bd fb 09 24 3e
       0.057346497 0.009748914 -0.07529263 0.16019432
000030 29 9b 63 be dd 7e f1 bd 47 b9 e6 bd 44 cf 81 be
       -0.22227158 -0.117917754 -0.112658076 -0.25353444
000040 3b d2 dd bd ae 57 d9 3c a9 f7 0e 3d ca 91 a1 bd
       -0.10831114 0.026531067 0.034904156 -0.07889135
000050 82 ab 22 bd ae 2f af 3e b2 67 77 3e d6 7e 22 3d
       -0.039714344 0.34216064 0.2416065 0.03967174
000060 ea 9d 86 3c c1 4c c8 3b 37 ca cb bd ba 62 f6 3d
       0.016432721 0.0061126654 -0.09950679 0.12030549
000070 7a 14 12 be 5f a6 2c bd 9f ab 26 3e e0 5a 8c 3d
       -0.14265624 -0.04215085 0.16276406 0.068532705

conv.1.running_var f4 [32]
000000 31 5f 98 40 1e d9 52 40 4f 7f cb 40 92 6d 2d 40
       4.76162 3.2945018 6.3592906 2.7098126
000010 8d ba ae 40 ec 89 4c 40 f7 88 dd 40 d1 b3 a6 40
       5.4602723 3.195918 6.9229693 5.2094502
000020 9e e1 f3 3f 82 4e 00 41 d7 d0 fd 40 0d 61 d5 40
       1.9053228 8.019167 7.931743 6.668097
000030 8f cd 20 41 b1 83 0d 41 ac c1 d0 40 1f c7 68 41
       10.050185 8.844651 6.5236416 14.548614
000040 ed 25 b3 40 33 67 b0 40 6e ab 57 41 31 1a 44 41
       5.5983796 5.5125976 13.479353 12.256394
000050 dd f4 cb 40 62 b4 fd 40 16 90 bb 3f d6 ab 89 41
       6.3736405 7.9282694 1.4653347 17.208904
000060 0e 13 0d 41 6e c8 e5 40 af ba 5a 41 75 83 4a 40
       8.817152 7.1807165 13.670577 3.1642735
000070 4a 3a db 40 7d a0 3d 40 3c 73 6d 3f eb 0d a0 40
       6.8508654 2.9629204 0.9275396 5.001699

conv.5.weight f4 [64, 32, 3]
000000 1c 26 99 3c ee c1 e6 3d 56 af b2 bd 51 38 d1 bd
       0.01869493 0.11267458 -0.08724849 -0.102158196
000010 f2 4b fc bd 04 6c 09 be 27 1a a3 be 76 07 91 be
       -0.12319173 -0.13420111 -0.3185589 -0.28326005
000020 2c de 81 be 63 9c ef 3c 0d 4f 66 bd 04 a3 02 bd
       -0.25364816 0.029249376 -0.056227732 -0.031893745
000030 36 9a 84 bb 83 de 30 3e 5e 08 0b be 26 35 bd 3b
       -0.0040467037 0.17272381 -0.1357741 0.005774158
000040 ca fb 81 3e f7 1e b6 bd 1b ed 19 bd 0e 62 37 3e
       0.25387412 -0.08892625 -0.037579637 0.17908499
000050 50 35 fb bc 84 c1 03 3e 64 dd 0c bd 83 44 c7 3d
       -0.03066507 0.12866789 -0.034390822 0.097298644
000060 6c fb c9 3c a0 6e 05 3d 31 ed 94 bd 6f b5 c9 3d
       0.02465602 0.032576203 -0.07271803 0.09849059
000070 a4 48 eb 3d 04 00 4c 3e 37 97 32 bd b4 1c 1c bd
       0.114884645 0.19921881 -0.04360124 -0.03811331
000080 78 e5 96 ba 5c e9 b7 bb 72 e4 0c 3d 09 be b0 3b
       -0.0011512479 -0.0056125354 0.03439755 0.0053937477
000090 48 f2 b1 3c 80 cc fd 3d a6 8a 6e 3e 98 30 b3 3d
       0.021721974 0.12392521 0.23295078 0.08749503
0000a0 90 b9 32 3d e7 b2 a4 3d cb ed ad 3b 1d 17 ba 3d
       0.043633997 0.080419354 0.005307888 0.0908644
0000b0 bc 71 61 bd 23 d5 24 3e 9b 83 e7 3d 74 7f 60 3e
       -0.055040106 0.1609693 0.113043986 0.2192362
0000c0 a5 e2 9e 3c 33 88 6f bd e9 03 25 3d 68 e6 a9 3d
       0.019395182 -0.0584795 0.040286932 0.082959
0000d0 42 6a 80 3d c7 97 dc bd cc cc 41 3e cc b3 9c 3d
       0.06270267 -0.10771137 0.1892578 0.07651481
0000e0 57 56 88 3d 59 d5 61 bc 3a 39 24 3d 0d 4d 0a be
       0.06657093 -0.013783776 0.040093638 -0.13505955
0000f0 59 f5 d8 3e 2c c9 96 3e be 55 e0 3e d1 7d d3 bd
       0.42374685 0.29450357 0.43815416 -0.10326732
000100 9b 33 17 be 59 97 14 bf 26 d9 34 be fd 74 e8 3e
       -0.1476578 -0.5804344 -0.1766096 0.45401755
000110 73 07 a6 be 5b d7 c7 bd b0 fb bb bd a0 63 95 bd
       -0.32427558 -0.09757873 -0.09178865 -0.072943926
000120 9f a7 2c be 95 ed 55 be a6 d8 a4 be 58 62 e6 be
       -0.16860817 -0.20891412 -0.3219654 -0.44996905
000130 1d 5f bd be f2 f2 04 bf cc 81 b7 3d 14 66 93 3e
       -0.36986628 -0.51933205 0.08960304 0.28788817
000140 e9 61 75 be b6 6a 68 3d 96 70 6e 3e 80 02 af 3d
       -0.23963131 0.056742392 0.23285136 0.08545399
000150 75 f9 4f 3e bd 32 13 3e 35 46 82 3d 68 c3 1b be
       0.20310004 0.14374824 0.06361047 -0.1521126
000160 be a6 4b be 67 02 b1 3d 7a 20 86 3c 36 54 bc 3e
       -0.19887826 0.08643036 0.016372908 0.36782998
000170 f1 c3 c5 bd a2 c7 b0 bd ce 89 d9 bd 79 f8 19 be
       -0.096565135 -0.08631827 -0.10621987 -0.15036191
000180 08 99 43 bd ec db 06 3c eb a6 5f bd 5f d3 d1 3c
       -0.047753364 0.008231144 -0.054602545 0.025613485
000190 f3 ef 01 3d e5 04 87 bc 0e 2a c5 3e c3 18 f9 3e
       0.031722974 -0.016481826 0.38508648 0.48651704
0001a0 e1 3a 16 3f f4 2f 13 3e 3e b7 fb bc 3c 83 91 3e
       0.5868359 0.14373761 -0.030727025 0.28420436
0001b0 f5 7e c5 3e 7b 1a b4 3c 19 1e 2f 3e 3d cd 87 bb
       0.38573423 0.021985283 0.17101325 -0.0041443394
0001c0 58 de 46 bd 69 f2 a1 3d e9 ff 52 bd d9 63 6c 3d
       -0.048551887 0.07907564 -0.051513586 0.05771241
0001d0 e7 42 0c 3d d3 bf fc 3d 56 fa d1 3d 5b 0a 62 3e
       0.03424349 0.12341275 0.10252826 0.22074263
0001e0 18 05 c7 bd 21 80 d1 bd 5c 14 5c 3d 58 8c 2e 3c
       -0.097177684 -0.10229517 0.053730354 0.010653578
0001f0 95 12 ab bd 52 b5 54 bd 18 5b 0e be 62 d6 af bd
       -0.083531536 -0.051930733 -0.13901937 -0.08585812
000200 51 30 9a bd 3d 58 85 bd d8 a1 a9 bc 3b 38 89 bd
       -0.07528747 -0.06510971 -0.020707056 -0.06700178
000210 1b d1 f8 bd 0c 32 94 be 97 1e 77 bd 33 f1 e8 bd
       -0.12149259 -0.28944433 -0.060331907 -0.1137413
000220 f9 34 6a be 78 b8 1e be 47 e8 04 be dc a3 f1 bc
       -0.2287177 -0.15500057 -0.12979232 -0.02949708
000230 8c 85 c7 bd 80 cb 36 be 7a 65 bf bd 82 2b d0 bd
       -0.09742269 -0.17851067 -0.09345527 -0.101645485
000240 31 03 ed bd 3e d8 1f be 8d 15 58 be 02 2a 61 bb
       -0.11572874 -0.15609834 -0.21101971 -0.0034357314
000250 39 ea fc 3c d3 ee 28 3d 3e 2c 11 3d 5e 5d d1 3d
       0.030873405 0.041243386 0.035442583 0.102228865
000260 8d 35 24 3e d1 36 a6 bc 1f ec 60 3d b1 80 a7 bc
       0.16036053 -0.02028981 0.054912683 -0.020447107
000270 c5 22 9d bd 06 82 1a 3d 41 e1 83 bd 45 d5 3a 3d
       -0.076726474 0.037721656 -0.06439448 0.045613546
000280 ad 46 da 3d 9c fc cf 3c f2 cc 68 bd 98 c2 dc 3c
       0.106580116 0.025389008 -0.056836076 0.026948258
000290 9d 58 14 3e 0d 20 12 3d 7f f8 ad 3d cd fc 44 3c
       0.14486928 0.035675097 0.084946625 0.012023163
0002a0 69 03 74 bd 14 45 5a 38 cc 66 7c 3d 38 9b 5b 3e
       -0.059573565 5.2039584e-05 0.061621472 0.2144593
0002b0 8e 45 f9 3d 88 75 a2 3f 23 1f bc 3d c2 28 4f 3e
       0.1217147 1.2692118 0.09185626 0.20230392
0002c0 87 c9 0b 3d 73 21 d0 bd 62 58 51 bd 9a 68 0d 3d
       0.03412774 -0.1016263 -0.05110968 0.034523584
0002d0 e5 85 55 bd 13 ad d1 3d 8e 69 d9 3b 48 ff 01 be
       -0.052129645 0.102380894 0.0066348976 -0.12695038
0002e0 62 92 8b bd 39 f6 60 bd b5 a6 04 3d f2 01 4e 3e
       -0.0681503 -0.054922316 0.032385547 0.2011793
0002f0 34 8a 15 3e 19 26 43 3d 9b 98 99 3d df ca e0 3d
       0.14603502 0.047643755 0.0749981 0.109761946
000300 06 7a 99 bd fa b3 a0 bd 2b 6d f5 3c 3c bd c7 3d
       -0.07493977 -0.07846828 0.029959282 0.097528905
000310 70 b2 b5 bc 40 6d 36 bd 9e 57 93 3e f4 33 95 3e
       -0.022179812 -0.044537783 0.28777784 0.291412
000320 82 43 eb 3e 26 f8 11 3e 32 20 c2 bc a5 1d 26 be
       0.45949942 0.14254817 -0.023696993 -0.16222246
000330 6d e0 39 bc 44 2c 59 bd a8 53 f2 bc c3 8d 85 bd
       -0.011345011 -0.05302073 -0.029580906 -0.065211795
000340 4f ab c4 bd a1 da 07 be 9b 9d 0e bf f1 46 0e bf
       -0.09602987 -0.13266994 -0.55709237 -0.55577
000350 77 f3 fc be 25 c6 ee 3d f7 0c 90 bd cc f1 4d bd
       -0.494045 0.11658887 -0.07033723 -0.050279424
000360 19 cb 49 bd 7f b1 d1 bd e7 14 05 bd 4b ee 4c 3d
       -0.049265955 -0.10238933 -0.032490637 0.05003194
000370 c7 19 e1 bd 63 49 ad 3d fb d5 8f be 19 46 6f be
       -0.10991245 0.08461263 -0.28092942 -0.23366584
000380 1b cf 8b be 96 d3 0e 3d 8c 1e 0d be 71 1f 8a 3d
       -0.27306446 0.034869753 -0.13781184 0.06744278
000390 8f c9 1d be 1d 30 34 be 7b c6 75 be b3 05 92 bc
       -0.1540892 -0.17596479 -0.24001496 -0.017824983
0003a0 f4 80 60 be 40 df 56 be b2 db ab bb b8 e5 e8 bd
       -0.21924192 -0.209836 -0.0052446956 -0.113719404
0003b0 61 17 25 be 0a 71 dd bd e0 d4 17 be 38 ef 0e bd
       -0.161222 -0.10812576 -0.14827299 -0.034896106
0003c0 0d 7f 6c bd 2d 77 a9 bd 6a ba 57 bd e1 27 84 bd
       -0.057738353 -0.08274684 -0.052668013 -0.06452919
0003d0 aa 01 5c 3c 5c 62 c2 bc ba 0a ff bb 73 a5 61 3d
       0.013428131 -0.023728542 -0.007783261 0.055089425
0003e0 5d 8e ae 3d f6 ac 27 bf 1e 78 39 bf e7 b6 21 bf
       0.085232474 -0.6549829 -0.7244891 -0.6316971
0003f0 49 bd cb bd a8 f6 99 bc 9d c0 f8 bd 82 52 96 3e
       -0.09948213 -0.018794373 -0.12146113 0.29359823

conv.5.bias f4 [64]
000000 53 d1 52 bc 78 c5 11 3e c9 84 19 bd fd 33 b0 3d
       -0.01286729 0.14235485 -0.03748015 0.08603666
000010 03 8e 1f be e6 af bc 3d dd 30 f4 3c 4d e0 f5 bc
       -0.15581517 0.092132375 0.029808456 -0.030014182
000020 2e 4b 43 3d d1 e4 47 bd 2a b5 51 bd de ef 02 bd
       0.04767912 -0.0488022 -0.051198162 -0.031967036
000030 9e ca d5 bc 4e fc 4c bd 38 17 b6 bc a0 23 d4 3d
       -0.026097592 -0.050045304 -0.022227868 0.103583574
000040 40 97 0f 3e a7 fe 03 3d 2c 5f d4 3c 1f f8 7e 3c
       0.14022541 0.032225277 0.025924288 0.015562086
000050 96 6f 6a 3b 96 11 72 3c 88 1c 3e 3d 5f 64 97 bd
       0.0035772077 0.014774701 0.04641393 -0.07392191
000060 45 0d 86 3d 26 a4 47 bd 81 3c 99 bd 84 66 a9 3d
       0.065455 -0.04874053 -0.07482243 0.082715064
000070 2a 70 81 bd c3 39 09 3b fc f1 86 3d f7 be b3 3d
       -0.06320222 0.002093897 0.065891236 0.08776658
000080 19 55 14 3e 37 4a 50 3d e5 1f 47 bc a7 f2 ec 3b
       0.14485587 0.050852027 -0.0121536 0.007231075
000090 dc 28 6e bc 6a 08 2a bd 5c 3f 65 3d 1b b3 9c 3d
       -0.014536109 -0.04151193 0.055968627 0.07651349
0000a0 df bb 37 bd 4f 2b 36 bd 6d 63 e4 3c 83 77 3c bd
       -0.044856902 -0.044474896 0.027879441 -0.046012413
0000b0 c6 3a a2 bd 91 f3 d3 3d da c7 5f bd 57 0c 11 bb
       -0.079213664 0.10349191 -0.054633953 -0.00221326
0000c0 11 ea c4 bc aa 91 e7 3c 98 06 ca bc 49 f8 9b 3d
       -0.024037393 0.0282677 -0.024661347 0.07615716
0000d0 69 da ac bd a1 b2 09 bc bb 57 c1 3d 6d 1c 06 3d
       -0.08440096 -0.008404405 0.094405614 0.032741953
0000e0 9a 51 38 bc 58 2c 7a bc e6 2e a0 3d 2f c9 99 3d
       -0.011249924 -0.015269361 0.07821445 0.07509076
0000f0 ee 18 60 bd 69 c0 e7 3c d9 77 f6 ba a0 a5 f9 3c
       -0.054711275 0.02828999 -0.0018804028 0.030474484

conv.6.weight f4 [64]
000000 40 6f 77 3f c6 13 7e 3f 73 88 86 3f 58 3c 56 3f
       0.9665413 0.9924892 1.0510391 0.8368583
000010 06 4b 74 3f 21 33 50 3f 37 64 62 3f b2 3e 6f 3f
       0.95426977 0.81328017 0.88434166 0.9345504
000020 9e 79 80 3f b4 ed 6f 3f 41 80 70 3f c0 83 58 3f
       1.0037115 0.9372208 0.939457 0.84576035
000030 19 73 48 3f 14 57 34 3f e4 b0 6a 3f a3 a4 5a 3f
       0.78300625 0.7044537 0.91676164 0.85407466
000040 34 f0 8c 3f 6c c1 6f 3f c6 bf 7f 3f f0 91 58 3f
       1.1010804 0.93654513 0.99902 0.8459768
000050 44 7c 72 3f 1c 5c 67 3f 2d c1 77 3f a7 fd 82 3f
       0.94720864 0.9037492 0.9677914 1.0233659
000060 7f a6 6e 3f 25 83 67 3f c4 59 84 3f ea 0c 8a 3f
       0.932228 0.90434486 1.0339894 1.0785191
000070 0d 4b 4e 3f 90 83 5e 3f 1b 19 85 3f e0 13 87 3f
       0.8058327 0.869195 1.0398287 1.055294
000080 f3 ec 81 3f 2a 0c 67 3f 98 db 48 3f 64 81 75 3f
       1.0150436 0.90252936 0.78460073 0.9590056
000090 12 6a 5d 3f ec ef 28 3f 8c 61 80 3f d2 d0 69 3f
       0.86489975 0.6599109 1.0029769 0.9133426
0000a0 d1 a8 64 3f e4 33 5e 3f 4a 57 62 3f a5 51 48 3f
       0.89320093 0.8679793 0.8841444 0.7824958
0000b0 45 10 72 3f f8 b1 41 3f 6a f5 4b 3f bb 17 97 3f
       0.94556075 0.75662184 0.7967135 1.1804117
0000c0 94 8b 6f 3f 56 9a 75 3f 80 4a 63 3f eb 27 6c 3f
       0.93572354 0.9593862 0.8878555 0.9224841
0000d0 6c 88 67 3f 9f 61 73 3f 9f e1 73 3f 0d 4e 52 3f
       0.9044254 0.9507083 0.95266145 0.82150346
0000e0 e1 ea 62 3f 0c 87 3d 3f 95 80 81 3f a1 9c 68 3f
       0.88639647 0.7403419 1.0117365 0.90863997
0000f0 dc ad 58 3f d0 f8 74 3f cb 85 65 3f 31 01 6d 3f
       0.8464029 0.9569216 0.89657277 0.9257994

conv.6.bias f4 [64]
000000 19 44 b5 be 9f 7d 2b be 39 a4 fb be ed 9b f9 be
       -0.35403517 -0.1674714 -0.4914873 -0.48751774
000010 90 34 a9 be fe 3c b9 be 83 9d cc be 1f ab 83 be
       -0.33047915 -0.36179346 -0.39963922 -0.25716493
000020 fa 71 c1 be 61 9b ba be 50 f3 03 bf 45 70 8f be
       -0.3778227 -0.3644667 -0.5154314 -0.28015342
000030 3f 52 3c bf 43 8d cb bd 2c cc b2 be b1 6b be be
       -0.73563 -0.09939053 -0.34921396 -0.37191537
000040 18 ce 92 be ad 79 a7 be 3b f7 e5 be 5b 8d da bd
       -0.28672862 -0.3271002 -0.44915184 -0.10671493
000050 36 b7 b2 be e9 a0 ff be 22 af 0f be c4 e2 dd be
       -0.34905404 -0.49927452 -0.14031652 -0.4333707
000060 9b c5 08 be db 79 bf be b8 7f d3 be 30 aa b0 be
       -0.1335663 -0.37397656 -0.4130838 -0.34504843
000070 8a 37 0a bf a9 ef 7d be da 54 02 be 76 2f 7e be
       -0.53990996 -0.24798454 -0.12727681 -0.24822792
000080 c0 b3 1d bf 27 f4 ee be 43 f1 0e be a0 de 9a be
       -0.616024 -0.46670648 -0.13959222 -0.30247974
000090 79 d6 89 be 88 1f c8 be b6 63 e7 be d5 46 01 bf
       -0.26921442 -0.39086556 -0.4519326 -0.50498706
0000a0 23 16 9c be 9c 3e 74 be 5c 09 a8 be 26 9c 67 bf
       -0.3048564 -0.23852009 -0.3281964 -0.9047264
0000b0 87 33 83 be 4c 08 b3 be a9 5d 01 bf f9 73 8a be
       -0.2562525 -0.34967268 -0.5053354 -0.27041605
0000c0 ba 39 ba be 15 c4 18 bf 7c cd 91 be e4 04 ab be
       -0.36372167 -0.596742 -0.28477085 -0.3340217
0000d0 0e 66 84 be e6 dc af be 1a 4d 0b bf 04 3e c3 be
       -0.25859112 -0.3434822 -0.5441452 -0.38133252
0000e0 ed 30 be be 35 11 03 bf 4d bd 91 be ec f1 39 bf
       -0.37146702 -0.5119813 -0.28464738 -0.7263477
0000f0 f4 3b 84 be 60 b3 1d bf 43 29 f7 be cc e0 ca be
       -0.2582699 -0.6160183 -0.48273668 -0.3962463

conv.6.running_mean f4 [64]
000000 90 4e ca be 25 52 41 3f 20 33 4d bf 97 f6 71 3f
       -0.39513063 0.7551597 -0.80156136 0.9451689
000010 ab 0f 8b bf c3 9a 0e bf 9d 58 89 bf 37 de d4 be
       -1.0864156 -0.557049 -1.0730168 -0.41575786
000020 ea 17 27 bf fe 31 44 bf ff ba 5c bf 0c 33 c2 bf
       -0.65270865 -0.7663878 -0.86222833 -1.5171828
000030 19 e3 46 3f 0f c9 e0 3d 58 55 f0 be 8e b9 1f bf
       0.77690274 0.10975849 -0.46940112 -0.6239251
000040 5d 0a 91 be 1d 04 1b be d0 e5 79 bf 31 76 8f 3d
       -0.2832822 -0.15138288 -0.9761629 0.07004965
000050 e6 23 24 bf 23 92 5e bf 81 8e ac bf 9a 90 1c bf
       -0.64117277 -0.86941737 -1.3480989 -0.61158144
000060 3e df 94 be 9e 18 1d bf 81 6d ad bf 60 a8 e0 bd
       -0.2907657 -0.6136569 -1.3549043 -0.10969615
000070 0d a8 4a bf 8d df 8d bf 4e 8e b2 be fc a4 13 bd
       -0.79162675 -1.1083847 -0.34874195 -0.036046013
000080 e6 6f d4 bf f7 fe cb be ec 2e 07 bf 3f 69 80 bf
       -1.6596649 -0.3984296 -0.5280597 -1.0032119
000090 51 4d a0 bf c8 20 db 3d 09 74 c6 bf 48 fd 62 bf
       -1.2523595 0.10699612 -1.5504161 -0.88667727
0000a0 85 26 c6 3a 18 0a 20 3f 6c 9a 56 bf 92 ef 7c bd
       0.0015117681 0.625154 -0.8382938 -0.06175191
0000b0 54 4f c6 bf 8b 0f 6f bf 1f 35 7d bf 21 1a 48 bf
       -1.5492959 -0.9338309 -0.9890918 -0.7816487
0000c0 53 50 88 bf 71 1f e8 bf bd db 56 bf 01 98 32 bf
       -1.0649513 -1.8134595 -0.83929044 -0.6976319
0000d0 b9 80 3c bf fa 22 4d bf af 51 23 bf 46 21 a0 be
       -0.73633915 -0.80131495 -0.63796514 -0.31275386
0000e0 af 9e 9f be f9 d4 0a bf 09 38 2f be 5f a3 18 3f
       -0.31175753 -0.5423122 -0.1711122 0.59624285
0000f0 b9 ca 55 bf 72 c0 0e 3f fc 13 50 3e 49 13 4e 3f
       -0.83512455 0.557624 0.20320123 0.80498177

conv.6.running_var f4 [64]
000000 19 fe 4e 3f 0e 28 93 3f fb d6 79 3f 1d 2c 2c 3f
       0.8085647 1.1496599 0.9759366 0.6725481
000010 e9 b0 8c 3f 4c 09 71 3f 92 aa d4 3f 75 76 9a 3f
       1.0991489 0.9415481 1.6614554 1.20674
000020 85 55 24 3f 24 96 0d 3f ca f9 fe 3f d6 6b 20 40
       0.6419299 0.5530722 1.991998 2.5065818
000030 6a e9 3e 3f 4a a2 be 3f fd 05 fa 3e 18 b0 be 3f
       0.7457491 1.4893277 0.48832694 1.489749
000040 12 d7 a8 3f 84 18 95 3f c6 0f d3 3f 2d ac c7 3f
       1.3190634 1.1648107 1.6489189 1.5599419
000050 b3 e1 70 3f 89 bc 83 3f 52 67 c3 40 24 c5 ab 3f
       0.9409439 1.0291911 6.1063623 1.3419538
000060 eb 06 b9 3e 08 e6 36 3f b2 fc 21 40 72 60 e0 3e
       0.3613809 0.7144475 2.5310483 0.43823582
000070 27 24 ee 3e 51 a2 72 40 c8 26 37 40 6c 25 a8 3f
       0.46511957 3.791157 2.861742 1.313642
000080 5b c8 2c 40 ea c0 14 3f 7b fe 17 40 77 ae 69 40
       2.6997287 0.58106863 2.3749073 3.6512735
000090 0c a6 c4 3f e1 38 2e 3f a7 d9 10 40 ea 73 0d 40
       1.5363173 0.6805554 2.2632844 2.2101998
0000a0 96 40 04 3f f8 87 2e 3f f6 0b 23 40 72 c8 92 3e
       0.5166105 0.6817622 2.547605 0.28668553
0000b0 84 84 91 40 e8 d1 84 3f 1a 66 8d 3f 81 da 30 40
       4.547426 1.0376558 1.1046784 2.7633364
0000c0 60 9f 26 40 08 53 27 40 76 c4 28 40 f9 d5 9a 3f
       2.6034775 2.6144428 2.636991 1.2096549
0000d0 a0 f3 c5 3f df 18 bf 3f a0 6a dc 3f 46 a5 59 3f
       1.5464973 1.4929465 1.7220039 0.8501781
0000e0 56 ba 89 3f 06 95 ed 3e e2 3c e8 3f ac b8 50 3f
       1.075999 0.46402758 1.814358 0.81531787
0000f0 49 56 7b 3f b7 d0 84 3e 45 14 6d 3f c5 58 bc 3f
       0.98178536 0.25940487 0.92609054 1.471459

conv.10.weight f4 [128, 64, 3]
000000 9c 1a 03 3d 6b 4d f1 3c 9d 8f f1 3d ca ee b1 3d
       0.0320078 0.029455861 0.1179497 0.086881235
000010 2b 39 8e 3d 68 ac 5f 3e d8 95 05 3e 50 5a ac 3e
       0.06944498 0.21843112 0.13045442 0.33662653
000020 65 02 e0 3d 87 b5 80 3e 50 18 aa 3d 87 c9 a7 3d
       0.10937957 0.25138494 0.083054185 0.08192735
000030 a0 2d 57 be e2 f0 d2 bc 69 ed aa bd 55 db 9f 3c
       -0.21013498 -0.025749628 -0.08346064 0.019513765
000040 61 a4 98 3d 90 83 47 3e f4 0f 9b bd 82 96 54 3d
       0.07453228 0.19483781 -0.07571402 0.051901348
000050 7f c7 98 3d f4 4b a1 3d 21 0e e5 3d 53 b9 db 3c
       0.07459926 0.07875815 0.111843355 0.026821768
000060 e5 73 ea bd 09 d8 33 be c5 fe 8f 3d b5 c1 9a be
       -0.114478864 -0.1756288 0.07031015 -0.30225912
000070 63 d2 b7 3d 8d 2c 73 be 53 41 89 3d c1 53 f9 3d
       0.08975675 -0.23747464 0.06701913 0.12174178
000080 df a9 d5 3d 43 b6 86 bc 59 ed 58 3e 91 e1 51 3c
       0.10432791 -0.016444331 0.21184291 0.012810127
000090 4a b3 c6 3e a0 99 2c 3e 4e 21 5f 3c d9 4a 7b bc
       0.38808662 0.16855478 0.01361878 -0.015337669
0000a0 0f e7 2e 3d 59 f3 b7 3c a9 06 ca 3d c5 e9 e2 ba
       0.042700823 0.022454904 0.098645516 -0.00173121
0000b0 c5 eb 92 ba c5 c4 1d bc df 8e fd bc 4c bc 0f 3d
       -0.0011209181 -0.009629433 -0.030951915 0.035091683
0000c0 35 82 f7 3d 27 56 8a 3e 7b db 56 3d bd 4f b7 3d
       0.12085382 0.27018854 0.052455407 0.08950756
0000d0 76 18 ae 3c 63 3b e6 3d 40 fa 1d 3d 6a fd 93 3d
       0.021251898 0.11241796 0.038568735 0.07226069
0000e0 98 54 36 3d 8e 31 a1 3d 2c 2b f8 3c 07 1d e7 3d
       0.04451427 0.0787078 0.030294023 0.112848334
0000f0 dd c4 13 3e bb e2 2a 3e 48 fd 30 3e 5b f8 e6 3d
       0.14430566 0.16688053 0.17284119 0.11277839
000100 8d a7 81 3e 90 0b a3 bd af 94 99 bd 27 5f bc bd
       0.25323144 -0.0796119 -0.07499062 -0.09197836
000110 23 56 80 bd f8 b4 d5 3c 97 3e 23 3e 33 4b a4 3d
       -0.06266429 0.02608727 0.15941845 0.080221556
000120 60 a1 a5 be 73 65 8d be 43 9d 22 be 84 91 a8 3d
       -0.32349682 -0.27616462 -0.15880303 0.0823088
000130 a8 da dd bc 72 f1 5c be 17 75 ee be 4e 5d c8 be
       -0.027081802 -0.21576479 -0.46573707 -0.39133686
000140 c3 f1 ad be 02 79 31 3e 2f 27 c7 3d fd c3 37 3e
       -0.33973512 0.17331317 0.097242706 0.17945857
000150 ee d6 00 bd 6c cf 62 bc b9 01 dc bd 3e d4 97 bd
       -0.031454973 -0.013843399 -0.10742516 -0.07413529
000160 07 e8 b1 bd 9e 68 da be ca 60 b1 3d b1 22 03 3e
       -0.08686834 -0.42657942 0.08661039 0.12806202
000170 a0 76 1a 3e 85 cc 02 bd 82 29 5b bd ea 9d 9e 3d
       0.15084314 -0.031933326 -0.05350638 0.077449635
000180 4a a5 55 3e f9 4e 7d 3e ae bb 4e 3e 5f 31 51 3e
       0.20863834 0.24737157 0.20188782 0.2042899
000190 8c 00 28 3e ed af 20 bd f1 fd 2f 3d a3 88 1c bd
       0.16406459 -0.039230276 0.042966787 -0.038216244
0001a0 e4 e1 25 be 18 a4 2d 3b 00 75 2e bd bb a8 ab be
       -0.16199452 0.0026495513 -0.04259205 -0.3352717
0001b0 19 4c 79 3d 68 22 8d 3e 45 68 2e 3e 1e 2e 90 3e
       0.060863588 0.27565312 0.17031963 0.28160185
0001c0 ee 51 67 3e 3c 50 3d 3e 6e ab 18 3e cf 17 44 bd
       0.22589847 0.18487638 0.14909145 -0.04787427
0001d0 86 02 65 3d 94 92 25 3d b6 ce ce 3d fe a5 1c 3e
       0.05591061 0.04042299 0.10098021 0.15297696
0001e0 72 56 5b bc bf 22 d7 bc 63 5f 2e 3d 61 83 78 3d
       -0.013387309 -0.026261685 0.042571437 0.060672168
0001f0 24 de af 3d 24 24 ea 3d 4f 60 12 be 2a 6f cd bb
       0.08587292 0.114326745 -0.14294551 -0.0062693553
000200 49 20 24 be 02 af bf 3d e1 c4 0e 3e 61 f5 0b 3e
       -0.16027941 0.09359552 0.13942291 0.13667823
000210 a1 95 f9 3c 80 f6 a3 3d f9 22 c3 be 12 ff 76 3d
       0.030466856 0.080060005 -0.3811262 0.060301848
000220 37 41 a6 3e cc 75 f3 3e 96 01 89 be fa f5 3f be
       0.3247163 0.4755081 -0.26759022 -0.18746176
000230 65 23 84 be 54 39 d7 bc 26 8e 12 bb 0e c5 a7 3d
       -0.25808254 -0.026272453 -0.002236256 0.08191882
000240 2b 93 c3 be e1 8a d1 bd 16 32 e7 be 73 f9 2d 3e
       -0.38198218 -0.10231567 -0.451554 0.16989689
000250 1a 05 34 3e f4 af 2e 3e 6c 0f e8 bd 56 bf 0a be
       0.17580071 0.17059308 -0.113310665 -0.13549551
000260 03 da de bc 6a 2a b1 bd bd 2c b2 bd e5 d4 58 be
       -0.027203565 -0.08650668 -0.086999394 -0.21174963
000270 47 3c a7 3d 19 37 1d 3e c0 03 36 3e 36 db 89 be
       0.08165794 0.1535305 0.17774868 -0.26925057
000280 30 d7 38 be ab d9 ae be 01 df c2 bd 9c f7 05 3d
       -0.18050838 -0.34150442 -0.09515191 0.03270684
000290 4b 36 b3 bd e8 e5 a3 bd 78 29 ba 3d 8f b0 45 3e
       -0.0875059 -0.080028355 0.09089941 0.19305633
0002a0 26 ad a2 bd 7e 1a 4b 3e c1 16 e1 3d 8e 87 83 bd
       -0.07943182 0.19834325 0.10990668 -0.064223394
0002b0 f7 5e e8 3c 6c db c9 3d d2 38 13 3d 27 f7 58 3e
       0.028365595 0.098563045 0.03594286 0.21188031
0002c0 33 49 12 3e 19 ff 9d 3e b9 91 da 3e db bb 28 3f
       0.14285736 0.30858687 0.42689303 0.65911645
0002d0 23 48 71 be 84 0e 52 be 3e 83 a9 be 6d b2 c4 3e
       -0.23562674 -0.2051335 -0.33107942 0.38417378
0002e0 88 d5 89 3e ff 69 db 3e d3 0f 85 3e d4 02 13 3e
       0.26920724 0.42854306 0.25988635 0.14356548
0002f0 45 81 9d 3d 12 84 41 3e 41 7a 25 3e 78 3b 93 3e
       0.07690672 0.18898037 0.16159917 0.2875631
000300 02 37 5b bd 52 4c d7 be ad b8 cf be ca 31 4d be
       -0.053519256 -0.42050415 -0.40570584 -0.20038524
000310 d3 9c 8f be a0 08 95 be 0e 62 4d be b9 9b 05 bd
       -0.28049335 -0.29108143 -0.20056936 -0.03261921
000320 2b 3b 0c be 05 df b7 bc 37 07 0a be d1 4e 97 bd
       -0.13694446 -0.022445211 -0.13479315 -0.0738808
000330 4c d1 a2 3d 0d 59 4c 3c 80 f2 bb 3d d1 01 81 be
       0.079500765 0.012472403 0.091771126 -0.25196698
000340 b4 7e e4 bd 47 5c a1 3d 87 76 06 3d 6c ae 33 3d
       -0.11156979 0.07878929 0.03282788 0.043867514
000350 6c 6d c9 3d 27 a9 0b be 67 b4 1f bd b8 71 44 3c
       0.09835324 -0.13638745 -0.038990404 0.011990003
000360 1f 25 11 bc d2 a9 5f 3e dc 70 84 3e 85 04 58 3d
       -0.008858948 0.21842125 0.25867355 0.052738685
000370 c2 76 04 3e 6c 79 d6 bd e2 64 52 3c 33 f5 2b be
       0.12935928 -0.10472378 0.012841435 -0.16792755
000380 e5 ab 7d bd 6d 01 29 be 58 60 e3 bb 73 3b 3e be
       -0.06193151 -0.1650445 -0.0069389753 -0.18577366
000390 c1 bf c3 bc 33 af 3f be 2e 87 19 be 79 bf 33 3d
       -0.023895146 -0.18719177 -0.14992973 0.043883774
0003a0 cb e4 32 bd 56 a0 01 3d f7 8d 2f 3e 55 32 de bd
       -0.043675225 0.03164705 0.17143999 -0.10849444
0003b0 28 32 35 be 62 08 89 bb 79 59 05 bd bb 83 40 3c
       -0.17694914 -0.0041819075 -0.03255603 0.011750157
0003c0 d1 2f 36 be 82 a5 07 bd b1 6c 47 3d 2c a6 9c 3d
       -0.17791678 -0.033116825 0.04868764 0.07648882
0003d0 fc 0d af bc e8 3e 7b 3d 42 2f 12 bd 53 2b 77 be
       -0.021368973 0.06133929 -0.0356896 -0.2413762
0003e0 14 92 04 3e 7e c7 ab bd 51 bc 20 be 78 1d 37 3c
       0.1294635 -0.083876595 -0.15696837 0.0111764595
0003f0 25 5d 23 3e 1f 2b 04 bd 71 4b af bb 75 2f 08 bf
       0.159535 -0.032267686 -0.0053495695 -0.53197414

conv.10.bias f4 [128]
000000 8b 1e 9a 3d b2 f3 eb 3c db 93 61 3b 9b e8 c1 3c
       0.07525357 0.028802726 0.0034420404 0.023670485
000010 c5 81 13 3d 7f c1 2c 3d 8f 88 7d bd 46 28 d2 3c
       0.03601243 0.04217672 -0.06189781 0.02565397
000020 37 00 68 3c 1e 20 34 bd 05 88 30 bd 5c 05 b6 3c
       0.0141602075 -0.04397594 -0.04309847 0.022219352
000030 4f 85 6d 3d e7 21 8a bd 15 84 b3 bc 56 ca a0 3c
       0.05798846 -0.067447476 -0.021913568 0.019627731
000040 a9 5e 4a 3c b0 29 0b bd 2d 8f c0 bc 65 69 18 bd
       0.01235167 -0.033975303 -0.023505772 -0.037209887
000050 ab 1d 00 3d 6d 61 c3 bc 77 2f 50 3d c5 1c 85 3d
       0.031278294 -0.023850167 0.050826516 0.06499628
000060 62 d0 42 3d ed 11 2d 3d b1 7e ca bc 2d 3a 35 3d
       0.04756201 0.042253423 -0.024718614 0.044244934
000070 2b 78 8a 3d 28 35 24 bd 26 4d 7b bd 42 d1 9f bc
       0.067612015 -0.040089756 -0.06135287 -0.019508962
000080 f5 99 63 bc 42 98 24 bd 8c fa 65 bd aa 31 1b bd
       -0.013891687 -0.040184267 -0.056147143 -0.03788916
000090 32 dc 8d bd 10 16 48 3d e0 50 0e b9 33 2c 34 3d
       -0.069267645 0.048849165 -0.00013572304 0.043987464
0000a0 8b c8 f9 bc 52 63 87 3d f2 0a 80 3b 9a 92 8f 3c
       -0.030491134 0.06610741 0.003907555 0.01752596
0000b0 de ce fb bc 61 29 83 3d 48 5a 8c bd 92 46 32 bd
       -0.03073829 0.06404377 -0.06853157 -0.043524332
0000c0 65 03 83 3d f7 a0 90 3d 8c 95 39 bc c7 5a 1d bd
       0.06397132 0.070619516 -0.011327159 -0.03841665
0000d0 07 46 4e bd 20 86 ca 3c 07 9f 13 bd 70 01 ba 3c
       -0.050359752 0.024722159 -0.036040332 0.022705764
0000e0 fb 5e d6 3b 22 8f e0 3b 83 11 01 3d 02 90 5c bb
       0.0065420843 0.0068530003 0.03151084 -0.0033655171
0000f0 1f 99 26 bd 32 a3 02 bd 28 57 b1 bd 4d a5 28 bd
       -0.04067337 -0.031893916 -0.08659202 -0.041173268
000100 fb 9c 53 bd 22 c1 b6 bc 64 fe 1b 3d 8f 84 9f 3d
       -0.05166338 -0.02230889 0.038084403 0.077889554
000110 b6 37 16 bd a7 33 36 3d fe 12 30 bd 6d 32 77 bc
       -0.036674224 0.044482853 -0.042986862 -0.015087706
000120 0c 63 76 3d 96 a4 d8 3b 5e e9 e8 bc 54 29 94 3d
       0.060153052 0.006611417 -0.02843159 0.07234445
000130 64 18 92 3d f2 da 25 3b a7 f3 9f 3d dd be 56 3d
       0.071335584 0.0025307504 0.07810145 0.052428115
000140 77 a5 0e bd ae 94 26 3d c8 c9 36 bd c3 ae 43 bd
       -0.03482577 0.040669136 -0.044626027 -0.047774088
000150 cb 8f 9f 3d f2 43 d9 bc dc a5 b3 ba 72 47 62 bd
       0.07791098 -0.026521657 -0.0013706046 -0.055243917
000160 26 0d 8e 3c c3 c6 ad 3c c0 09 3a bd ab 3f 86 3c
       0.017340254 0.021212941 -0.045419455 0.016387781
000170 3e 41 80 3d 76 ab 3f 3d df ba 1b bc 74 d4 7c 3d
       0.06262444 0.046794377 -0.009505003 0.06172605
000180 c8 24 06 3d 9e 25 05 3c 4e 5c f5 3c 75 fd ae 3d
       0.03274992 0.008126644 0.02995124 0.08544437
000190 7d 15 2b bc c1 9f 15 3c e0 e2 02 3c fa 47 0c 3c
       -0.010442135 0.009132327 0.0079886615 0.008562082
0001a0 b4 05 20 3d ec 7e 63 3d 27 f8 37 bd e5 c4 c2 bc
       0.03906794 0.055540964 -0.04491439 -0.023775527
0001b0 33 8a ba bc 9b ab 80 bd ce 34 75 ba bf 8a cd 3c
       -0.022770977 -0.06282731 -0.0009353877 0.025090573
0001c0 b4 e6 06 3d fd 21 ba bc 0d 6a 1b 3c ea dc 8a 3d
       0.03293486 -0.022721285 0.009485734 0.06780417
0001d0 c8 f5 20 bd d5 a9 06 bd a2 fe 80 bc 75 5e fb 3c
       -0.039296895 -0.03287681 -0.015746418 0.030684689
0001e0 27 1c 72 3d 46 90 01 bd 64 68 d0 3c 61 ee 4c bb
       0.05910888 -0.03163173 0.025440402 -0.0031270015
0001f0 02 e4 b4 bc a0 95 2d bd 15 c5 13 bd f0 50 d5 3b
       -0.022081379 -0.04237902 -0.036076624 0.0065098926

conv.11.weight f4 [128]
000000 7d cb 9c 3f 23 1a 8b 3f a7 df 62 3f 3f be a3 3f
       1.22496 1.0867351 0.88622516 1.2792434
000010 df 31 8f 3f 55 1b b4 3f db 3b 6e 3f 4b 17 6b 3f
       1.1187094 1.4070841 0.9306008 0.9183242
000020 e0 7a b6 3f e1 74 8c 3f 78 e8 8c 3f af af af 3f
       1.4256248 1.0973169 1.1008444 1.3725489
000030 88 d4 80 3f 32 81 7e 3f c1 e4 ad 3f 72 60 88 3f
       1.0064859 0.99415886 1.3585435 1.0654433
000040 e2 e1 be 3f 29 8f be 3f 58 86 90 3f 9f 75 6d 3f
       1.4912684 1.4887439 1.1290998 0.927576
000050 0d b7 71 3f 3b 9d 86 3f 56 7c 91 3f a6 92 6d 3f
       0.9441994 1.0516733 1.1366069 0.9280189
000060 af 2b b0 3f 64 4f 82 3f f0 4c 9c 3f 67 82 da 3f
       1.3763331 1.0180478 1.221098 1.7071046
000070 85 88 94 3f 25 86 6a 3f 1a 87 92 3f 15 dd 91 3f
       1.1604162 0.9161094 1.144748 1.1395594
000080 6e 81 ed 3f 01 e3 b9 3f c0 6e 5f 3f b1 2a b0 3f
       1.8555124 1.4522401 0.87278366 1.3763028
000090 bd 78 99 3f ae b2 c5 3f 42 8d 70 3f 0a 73 ef 3f
       1.1989971 1.5445154 0.9396554 1.8706982
0000a0 cb 02 fa 3f 2a 84 a8 3f 9a f9 87 3f 39 94 ef 3f
       1.9532102 1.3165333 1.0623047 1.8717109
0000b0 34 9b 64 3f e7 5b 68 3f d3 a0 ae 3f 5b 9c 98 3f
       0.8929932 0.9076523 1.364283 1.1922716
0000c0 0d 9b a2 3f 8f 60 79 3f b1 ca f7 3f f3 eb ad 3f
       1.2703568 0.9741296 1.9358732 1.3587631
0000d0 da 61 bd 3f 28 ca aa 3f 7d c4 86 3f 89 16 af 3f
       1.4795487 1.3342943 1.0528713 1.3678752
0000e0 f8 06 04 40 df 15 6d 3f 0a 0c 7c 3f 96 9a 6c 3f
       2.0629253 0.926115 0.9845587 0.9242338
0000f0 6c 27 c7 3f a7 63 a5 3f 91 72 a9 3f 83 8c f5 3f
       1.5558906 1.2921036 1.3238088 1.9183506
000100 83 c3 8a 3f 77 9b 5f 3f 0d 45 7e 3f 4e f4 99 3f
       1.0840915 0.87346596 0.99324113 1.2027681
000110 13 b5 76 3f e0 99 7c 3f f6 4d 00 40 16 21 92 3f
       0.9637005 0.98672295 2.0047584 1.1416347
000120 36 27 94 3f 80 54 b7 3f 15 8e c6 3f bc b2 f9 3f
       1.1574466 1.4322662 1.551211 1.950767
000130 5f 0a a4 3f 42 47 9d 3f 04 b5 89 3f 30 c6 8a 3f
       1.2815665 1.2287371 1.0758367 1.0841732
000140 05 10 8d 3f 29 ef 68 3f c4 c3 d1 3f 46 a6 07 40
       1.1020514 0.9098993 1.6387868 2.1195235
000150 67 cf ba 3f 6a 2f a3 3f dd 10 98 3f 74 94 a1 3f
       1.4594544 1.2748845 1.1880146 1.2623429
000160 3c cd 96 3f 6e 20 69 3f 0a dd 7d 3f 2a 3a 86 3f
       1.1781383 0.9106511 0.99165404 1.04865
000170 8a ae 8b 3f f8 29 78 3f d9 3e 80 3f 71 b6 7b 3f
       1.091264 0.9693904 1.001918 0.9832526
000180 5c 10 ad 3f 3d e8 59 3f 6c de 11 40 ed 35 88 3f
       1.3520617 0.8511999 2.2792006 1.0641457
000190 b3 39 8a 3f 2a 38 89 3f 57 fb 81 3f 98 60 ae 3f
       1.0798858 1.0720265 1.0154828 1.3623228
0001a0 45 c0 ad 3f 74 8c b5 3f 48 23 bf 3f ae 00 b3 3f
       1.3574301 1.4183488 1.4932642 1.3984582
0001b0 09 44 a8 3f dc 31 a9 3f bf b2 97 3f 46 60 9e 3f
       1.3145763 1.3218341 1.1851424 1.237313
0001c0 31 6c 7c 3f d5 27 fc 3f 60 37 68 3f ee f6 6f 3f
       0.98602587 1.9699656 0.90709496 0.9373616
0001d0 6d dd 8e 3f 27 cc 6a 3f b8 0e a5 3f b8 0f 5e 3f
       1.1161324 0.9171776 1.2895117 0.86742735
0001e0 09 21 62 3f 9e 29 be 3f bb 93 94 3f ee 8c 89 3f
       0.8833166 1.485645 1.1607584 1.0746133
0001f0 c8 74 aa 3f 7f 73 7e 3f 2c 6d 9b 3f a1 58 6c 3f
       1.3316889 0.99394983 1.2142692 0.92322737

conv.11.bias f4 [128]
000000 69 f1 bf be df e1 4a bd 8f fc 9d be 0f 9b fe bd
       -0.3748887 -0.049531814 -0.3085675 -0.12431919
000010 06 b8 53 3d 1c 73 8d bc 34 cc eb bd 30 03 07 be
       0.05168917 -0.017266802 -0.11513558 -0.1318481
000020 7e 4f 83 bd 82 07 d2 bd 24 78 f4 bb 1f 90 0e bd
       -0.06411646 -0.10255338 -0.007460611 -0.034805413
000030 30 e9 14 be 5f e5 d8 bd a1 e6 72 bf 29 ef a3 3d
       -0.14542079 -0.10590624 -0.9488316 0.080046006
000040 07 68 c8 bd d7 f2 8e 3d a6 b2 f5 bb 0b 08 a5 be
       -0.09785467 0.06979912 -0.007498103 -0.322327
000050 d2 ce 08 bf 63 11 38 bd de cf 21 bf c0 dd d5 be
       -0.5344058 -0.044938456 -0.63207805 -0.41770744
000060 a2 23 6f 3e 89 da 78 be 39 6b 21 bf 2f 85 6f 3b
       0.23353437 -0.24302115 -0.63054234 0.003654789
000070 a3 a4 12 be 94 c4 47 be 01 fb 2d 3b b2 eb e7 bd
       -0.14320616 -0.19508582 0.0026547315 -0.11324252
000080 aa 57 43 ba 73 ca b6 bc 6c ae 68 be 91 69 83 be
       -0.00074517226 -0.022313332 -0.22722787 -0.25666478
000090 2d 97 48 be 26 eb d7 3c 7c b7 83 be 98 83 76 3e
       -0.19588919 0.026357245 -0.25725925 0.24073637
0000a0 04 6f 95 3d 57 2c 7f 3d 42 b3 63 bf 23 46 c2 bc
       0.07296565 0.062298145 -0.889454 -0.023715084
0000b0 2b 14 a3 be 67 21 e0 be a9 12 20 3d 7a c0 de bc
       -0.31851324 -0.43775484 0.039080296 -0.02719139
0000c0 a5 1e 66 3d 40 2b 2d bf 47 26 75 bd fa c8 d3 be
       0.05618157 -0.6764412 -0.059850957 -0.4136427
0000d0 f8 76 96 bd 7a 04 98 bd 40 ac fc bd b4 cd c2 3c
       -0.0734691 -0.07422729 -0.123375416 0.023779728
0000e0 8b 3a 24 3d 2c 81 43 be 3e 5d 3e be af 4b 57 be
       0.040094893 -0.19092244 -0.18590257 -0.21024965
0000f0 91 12 24 3e 44 c4 0b be 51 4f 33 be a4 51 15 bf
       0.16022708 -0.13649088 -0.17510726 -0.583277
000100 da 51 d0 be 20 82 1f bf dc bf 88 be c6 6a f5 be
       -0.40687448 -0.6230793 -0.26708877 -0.47933024
000110 7f b2 c4 be d4 5d 13 be d3 bc dc 3c bc cb 86 bd
       -0.38417432 -0.14391261 0.026945507 -0.06581828
000120 d3 55 7e be d9 04 37 bd 9a 81 30 be 09 5b a1 be
       -0.24837427 -0.044682357 -0.17236939 -0.31514767
000130 a4 71 5b ba a3 30 d8 be 2e 74 d3 be c6 b2 94 bd
       -0.0008371121 -0.42224607 -0.41299576 -0.07260661
000140 f8 4a c4 3d 44 85 63 be 34 58 61 3c 8d 7a 2a be
       0.09584612 -0.22218806 0.013753939 -0.16648312
000150 9c c9 0a be bc c3 36 3e 46 01 16 be e1 59 d6 be
       -0.1355347 0.17848104 -0.14648923 -0.41865447
000160 f5 f2 b0 ba 84 ce be be 25 84 9f bd 9c ee 24 3c
       -0.0013500141 -0.37266934 -0.077888764 0.0100666545
000170 59 61 ca bd 71 97 88 be 9a d2 7b be 27 5c 4d be
       -0.09881849 -0.2667804 -0.24592057 -0.20054685
000180 04 fe d9 bc 91 b5 a2 be 07 42 84 3d af 55 8f be
       -0.026610382 -0.3177915 0.06457906 -0.2799506
000190 fd 73 9a b6 58 65 02 bf 6f a7 d8 be 33 e7 96 3d
       -4.6030605e-06 -0.5093589 -0.42315242 0.073683165
0001a0 82 9f 3b be 60 a7 94 3d 99 9f 8a bd 48 f1 bd bd
       -0.18322566 0.07258487 -0.06768722 -0.09274536
0001b0 14 03 75 bc 43 90 e2 bc 79 04 39 3d 95 e7 18 be
       -0.014954347 -0.02765668 0.04517028 -0.14932092
0001c0 9d e1 86 be 5c 17 64 bd 44 7d b9 be f3 c3 97 be
       -0.26344004 -0.05568634 -0.36228383 -0.29641685
0001d0 2e e7 c6 bd b8 09 e9 be 55 27 f8 be 5d 45 c5 be
       -0.09712063 -0.45515227 -0.48467508 -0.38529482
0001e0 b5 5c ca be 61 1c b4 be 30 b0 01 bc e5 51 d7 ba
       -0.39523855 -0.351779 -0.0079155415 -0.0016427605
0001f0 fd 16 81 be b3 99 ad bd 01 c3 0f be f8 83 06 bf
       -0.2521285 -0.084765814 -0.14039232 -0.5254512

conv.11.running_mean f4 [128]
000000 86 0d bc 3f 45 fe fd bf f3 37 c9 bf 29 8d e1 be
       1.4691627 -1.9843222 -1.5720199 -0.4405301
000010 1e d9 28 3e cf a8 43 3f 27 fa 38 c0 27 74 e4 bd
       0.16489074 0.76429456 -2.890268 -0.11154967
000020 f8 4a 40 40 ea 85 0d 3e c9 fd 9b 3e e9 07 b5 3e
       3.0045757 0.13820615 0.3046706 0.35357597
000030 c3 cb e5 bf 3f cf bb bf 2e cf d7 bf 1f 81 10 bc
       -1.7952808 -1.4672621 -1.6860101 -0.008819847
000040 7c 0e c2 3f ed f8 8f be 97 f3 dd be 5a e4 a3 bf
       1.516067 -0.28119603 -0.43349907 -1.2804062
000050 c0 93 9e bf 00 c3 9e 3d b0 c2 14 c0 4e 8d 76 3f
       -1.238884 0.07752037 -2.3243828 0.96309364
000060 28 b2 7a be 10 20 09 bf 75 a1 fe bf 0b 77 c2 3f
       -0.24482024 -0.5356455 -1.9893023 1.5192579
000070 87 13 b9 3e 0e bd c0 bf f7 91 a5 3f 5e fb fa 3f
       0.3614771 -1.5057695 1.293517 1.9607961
000080 8d a7 02 bf 28 7b 50 3f ef 44 d4 be 49 95 eb 3e
       -0.5103691 0.8143792 -0.41458842 0.46012333
000090 09 2f fd 3f 2e 1b 19 bf 0f ca fe bf a0 98 ff 3f
       1.9779979 -0.598071 -1.9905413 1.9968452
0000a0 bb 2e ec 3f 1d 09 2b bf 37 26 8f bf 16 bb 98 be
       1.8451761 -0.6681078 -1.1183537 -0.29830235
0000b0 2a a5 c7 bf cd 18 39 bf 09 00 28 bf e5 9f b1 3e
       -1.5597279 -0.7230347 -0.65625054 0.34692302
0000c0 f7 5b b6 3f e7 9f 93 bf 88 6b 1b 40 9e f6 d2 3f
       1.4246815 -1.1533173 2.4284382 1.6481512
0000d0 5e 63 ad 3e c7 92 9c 3f 8a 7b da bf 13 b4 c7 3e
       0.33864874 1.2232293 -1.7068951 0.39004573
0000e0 94 43 4a bd 5a 59 14 c0 92 44 d0 bf df 83 15 c0
       -0.049380854 -2.3179536 -1.6270926 -2.3361738
0000f0 fb ae 34 bf 99 0f de 3f c5 e5 e9 3d cc d0 29 bc
       -0.705795 1.734851 0.11420778 -0.010364722
000100 9a 0b 9f bf fa cf f8 bf 0a 4d 37 c0 c3 32 0f bf
       -1.2425416 -1.943847 -2.864077 -0.5593683
000110 08 54 c6 bf 5d ad 90 3f f6 14 0e bf 1b 76 19 be
       -1.5494394 1.1302906 -0.55500734 -0.1498646
000120 27 19 b7 bf d2 22 ec 3f 7e 6e 12 3f 4a 43 b2 3e
       -1.4304551 1.8448126 0.5719985 0.34816962
000130 e8 55 24 40 42 d1 20 40 ee 24 f2 bd 14 e0 b7 3e
       2.5677433 2.512772 -0.1182345 0.35913146
000140 f6 b6 ff 3e c1 36 4e c0 93 20 d0 3d 8c 98 0b be
       0.49944276 -3.222092 0.10162463 -0.13632411
000150 cc 11 c0 be de ea 11 bf a0 b5 32 3f e2 45 c6 bf
       -0.37513578 -0.56999004 0.6980839 -1.5490077
000160 3c 89 7a 3f aa d7 f0 bf d8 e2 53 c0 9f f2 52 bf
       0.97865653 -1.8815815 -3.3107204 -0.8240146
000170 c5 96 59 bf 2e 4c 43 3f ee 08 7f bf 5f 17 08 c0
       -0.8499568 0.76288116 -0.99623 -2.1264265
000180 fc ba 94 3f d8 a3 00 c0 15 dc 37 bf bc 33 37 bf
       1.1619563 -2.0100002 -0.71820194 -0.71563315
000190 06 e1 de be 32 66 e3 bc 18 07 91 be 3b 78 7b be
       -0.43531054 -0.027758691 -0.28325725 -0.24557583
0001a0 e3 26 b1 3f 54 61 5f 3e ff e5 08 bf a7 0c f1 3f
       1.3839992 0.21814471 -0.53475946 1.8831986
0001b0 9c 55 91 3f 62 68 2c 40 a0 4a 21 3f 93 b0 33 bf
       1.1354251 2.693871 0.63004494 -0.70191306
0001c0 38 dd aa bf d8 ed fc be 2c b1 c2 bf 97 f6 fe be
       -1.3348761 -0.4940021 -1.5210319 -0.49797508
0001d0 f6 2f 9b be 45 bc f3 be 1b 48 53 bf 10 15 2b be
       -0.3031003 -0.47604576 -0.825319 -0.16707253
0001e0 2e 76 10 c0 a3 94 36 be 22 02 c5 3e a8 fb f5 be
       -2.257213 -0.17830138 0.3847819 -0.4804356
0001f0 c1 47 1c bc 46 3d 35 c0 37 3c 8a bf 10 31 de be
       -0.009538592 -2.8318648 -1.0799626 -0.43396807
