output/electricity_cnn_20260221_204822/checkpoints/epoch_35.pt (torch, 174824 bytes, 21 tensors)

conv.0.weight f4 [32, 14, 3]
0	0xbdec2aca	-0.11531599
1	0xbcb6d699	-0.022319125
2	0x3c9ff42b	0.019525608
3	0xbc86f1db	-0.016472748
4	0x3dc28a88	0.09499079
5	0xbdba8598	-0.09107512
6	0xbdbb1085	-0.0913401
7	0x3de1bc9e	0.11022304
8	0xbdab5660	-0.08366084
9	0x3cd8cd79	0.026465164
10	0xbdb8723d	-0.09006164
11	0x3cbb46ad	0.02286085
12	0xbb5933e0	-0.0033142492
13	0xba0cb883	-0.00053680706
14	0xbcf91a6d	-0.030408109
15	0x3c090ebf	0.008365332
16	0x3d0ac3b8	0.03387806
17	0xbdacdd01	-0.08440591
18	0x3d015fa8	0.031585366
19	0x3e161c73	0.1465929
20	0x3c6962d3	0.014244753
21	0x3caae973	0.02086327
22	0xbd6d36a4	-0.057913437
23	0xbc14e42b	-0.009087603
24	0x3ede6b71	0.43441346
25	0x3eb6be34	0.35691988
26	0x3f051a82	0.5199357
27	0xbf48492a	-0.7823664
28	0xbf55db7c	-0.8353803
29	0xbf64be24	-0.8935263
30	0xbe5ca0ea	-0.21545759
31	0xbe74753a	-0.23872843
32	0xbe2911ed	-0.16510744
33	0xbd106063	-0.03524817
34	0x3d8163ab	0.06317838
35	0xbd7cdf74	-0.06173654
36	0xbde2fa0e	-0.110828504
37	0x3de360e3	0.11102464
38	0x3b00045b	0.0019533846
39	0xbd475d58	-0.048673004
40	0x3bf7b808	0.00755978
41	0x3d89f652	0.06736435
42	0xbe5bb85d	-0.21457048
43	0x3d8fe925	0.07026891
44	0x3d18e41f	0.03732693
45	0x3e05b4ae	0.13057205
46	0x3d9da03d	0.07696579
47	0x3d4a060c	0.049322173
48	0xbe05f872	-0.13083056
49	0xbcc57464	-0.024103351
50	0xbd09752d	-0.033559013
51	0x3e3e2e50	0.18572354
52	0x3e185da6	0.14879474
53	0xbe6da8bd	-0.232089
54	0x3d74cc4d	0.05976515
55	0x3d196ac0	0.03745532
56	0x3e0d8235	0.13819201
57	0x3d631226	0.05543723
58	0x3d5a55cc	0.05330448
59	0xbd9af97a	-0.07567115
60	0xbb5c1112	-0.003357951
61	0x3c90f9f1	0.017697306
62	0x3e0c9d5d	0.13731904
63	0xbd14091e	-0.036141507
64	0xbdda54d1	-0.10660709
65	0x3df34aff	0.11879539
66	0xbe2f198a	-0.17099586
67	0xbb8b04ae	-0.004242501
68	0x3b79556c	0.00380453
69	0x3e52d51e	0.2058911
70	0x3e6ef1a8	0.23334372
71	0x3ec1baed	0.37837926
72	0xbecc07bc	-0.3984965
73	0xbef7d315	-0.4840323
74	0xbecc2d05	-0.39878097
75	0x3cba8b7d	0.022771591
76	0x3e010dc7	0.12602912
77	0xbe5c4efd	-0.21514507
78	0x3d95d318	0.073156536
79	0xbd62c85a	-0.05536685
80	0x3c2e484c	0.010637354
81	0x3c894db5	0.016760686
82	0xbdacab6e	-0.08431135
83	0x3dd9494c	0.106096834
84	0x3da9accd	0.08284912
85	0x3e1210d3	0.1426423
86	0xbe84a4c5	-0.2590696
87	0x3d579643	0.052633535
88	0x3d857dc9	0.06518132
89	0x3daaf6a3	0.083478235
90	0xbcc43629	-0.023951607
91	0x3d0ea62a	0.034826435
92	0xbe510467	-0.20411836
93	0xbddfd72d	-0.109297134
94	0x3e1fc67e	0.15603063
95	0xbcb61aed	-0.022229636
96	0x3dd9f8c4	0.106431514
97	0xbd63ca02	-0.05561257
98	0xbc8b583e	-0.01700985
99	0x3cab5a5e	0.020917114
100	0x3d19e30b	0.03757004
101	0xbc8d8eaa	-0.017279942
102	0x3d848ec3	0.06472542
103	0x3dde35c3	0.10850098
104	0xbd93edd6	-0.07223098
105	0xbd2aa405	-0.041660327
106	0x3d917725	0.07102803
107	0xbe10d5ed	-0.14144106
108	0xbf5956dd	-0.8489817
109	0xbf1b1e9c	-0.6059358
110	0xbf49cffa	-0.7883297
111	0x3ce94ae3	0.028478092
112	0x3e796703	0.24355702
113	0x3ea51b87	0.32247564
114	0x3e2fe87b	0.17178528
115	0x3d2c61e3	0.04208554
116	0x3e8d5db4	0.27610552
117	0x3b71026a	0.003677512
118	0xbb3cf475	-0.0028832231
119	0xbb59e550	-0.0033248253
120	0xbd457309	-0.04820541
121	0x3e1130fd	0.14178844
122	0xbdf338ef	-0.118760936
123	0xbdb52c86	-0.08846383
124	0xbccf62e8	-0.025315717
125	0x3df10155	0.11767832
126	0x3e65e5dc	0.22450966
127	0x3b661068	0.0035104994
128	0xbdf1c6a7	-0.11805468
129	0xbdfe36d3	-0.12412801
130	0x3cb37492	0.021906171
131	0xbb344a8c	-0.0027510254
132	0xbce84eb4	-0.028357841
133	0x3ca24a3b	0.019810786
134	0xbe028371	-0.12745453
135	0x3e1c5086	0.15265092
136	0x3d866170	0.065615535
137	0x3d02143d	0.031757582
138	0x3d10fd8f	0.035398062
139	0x3c9bc861	0.019016447
140	0xbd8da21d	-0.06915686
141	0x3d8bd32c	0.06827387
142	0x3da9ec36	0.08297007
143	0x3c10a2ce	0.008827878
144	0xbc592ffa	-0.013256067
145	0x3dbbe7cb	0.091750704
146	0xbe75285e	-0.2394118
147	0x3d1f2376	0.038852178
148	0xbe850434	-0.2597977
149	0x3d2fbb5e	0.042903297
150	0x3e2caa7a	0.16861907
151	0x3e7a0d1b	0.24419062
152	0x3e975511	0.29557088
153	0x3d7958c6	0.060875677
154	0x3e1658cf	0.14682315
155	0x3e8a9f03	0.2707444
156	0x3ea2cf95	0.31798998
157	0x3eb1bb4e	0.34713215
158	0x3eadb5c7	0.33927748
159	0x3eaa3cbf	0.3324947
160	0x3dbd4e8d	0.09243498
161	0x3d8faf70	0.07015884
162	0x3da33c8b	0.07970532
163	0xbda5d1b8	-0.08096641
164	0xbd799b2d	-0.060939003
165	0x3caa9966	0.0208251
166	0x3dc826eb	0.09773048
167	0x3df16164	0.11786154
168	0x3e0753b8	0.1321553
169	0xbd44267b	-0.04788826
170	0xbd88872b	-0.06666406
171	0x3b4056e7	0.0029348673
172	0xbda1f7b5	-0.079085745
173	0xbd0fdc03	-0.03512193
174	0x3d739b78	0.05947444
175	0x3cd09a6f	0.025464265
176	0xbb664479	-0.0035136028
177	0x3dab4473	0.08362665
178	0x3d8ed15a	0.069735244
179	0xbd1a0290	-0.0376001
180	0xbc3f80c5	-0.011688416
181	0xbc8b9ff7	-0.01704405
182	0xbd792587	-0.060826804
183	0xbc5ebd2b	-0.013594906
184	0xbd1815ef	-0.037130293
185	0xbce1ffdc	-0.027587824
186	0xbb2a954f	-0.0026028936
187	0x3878f42c	5.935521e-05
188	0xbd4e6292	-0.050386973
189	0x3d917c85	0.07103828
190	0x3d9731ca	0.073825434
191	0x3d7805a4	0.060552254
192	0x3f037368	0.5134797
193	0x3f1018bc	0.5628774
194	0x3f1f0a7e	0.62125385
195	0xbd0362d6	-0.03207668
196	0x3e372327	0.17884503
197	0x3e636bb2	0.22209051
198	0x3e51bdd4	0.2048257
199	0x3e9d55c0	0.30729485
200	0x3ea62c79	0.32455805
201	0x3db842df	0.0899713
202	0x3dc6cc84	0.09706977
203	0x3b84b979	0.0040504304
204	0x3c9578d5	0.018246094
205	0xbb8f44a4	-0.0043721963
206	0xbcf3c9be	-0.029759284
207	0xbdaff0aa	-0.08590825
208	0x3b6c3bb8	0.0036046337
209	0x3c72b600	0.0148139
210	0xbb18b711	-0.0023302475
211	0x3db580ca	0.08862455
212	0xbdb091f9	-0.08621592
213	0x3e15a7ab	0.14614742
214	0xbde0e2ea	-0.109807804
215	0x3dcd1a81	0.10014821
216	0xbd0a26a5	-0.03372826
217	0xbda6349b	-0.081155024
218	0xbdcc7253	-0.09982743
219	0xbe1a2df1	-0.15056588
220	0x3d19d837	0.037559714
221	0xbddadaa9	-0.10686237
222	0xbc8bb55e	-0.017054256
223	0xbc01e143	-0.007927242
224	0x3c10c4bd	0.008835969
225	0xbba0faec	-0.0049127247
226	0x3bb9d9c0	0.00567171
227	0x3d1af430	0.03783053
228	0xbb91f953	-0.0044547706
229	0x3e60c5d7	0.2195047
230	0xbe2211b4	-0.15827066
231	0x3e30cc74	0.17265493
232	0xbdbc7724	-0.09202412
233	0xbefb61ae	-0.4909796
234	0x3df4436b	0.119269215
235	0x3e897804	0.26849377
236	0x3e0ed755	0.1394933
237	0xbecba987	-0.39777777
238	0xbf01c644	-0.50693154
239	0xbef95543	-0.48697862
240	0x3ecc31f5	0.39881864
241	0x3e292927	0.16519605
242	0x3ebd0094	0.36914504
243	0x3e359d70	0.17735839
244	0x3e09f3f3	0.13471965
245	0x3c20daae	0.009817762
246	0xbcae0815	-0.021244088
247	0x3d00a37a	0.031405903
248	0x3d5a16be	0.053244345
249	0x3d9ffbc1	0.0781169
250	0x3b908580	0.0044104457
251	0xbe33a8ef	-0.17544912
252	0xbe2c37d5	-0.16818173
253	0xbe2b866a	-0.16750494
254	0x3e6f05cd	0.23342057
255	0x3cc52c2b	0.024068912

conv.0.bias f4 [32]
0	0x3da6f065	0.0815132
1	0x3c64e65f	0.01397094
2	0x3ce31060	0.02771777
3	0x3e1afe16	0.15135989
4	0x3e4c879e	0.19973609
5	0x3e233219	0.1593708
6	0xbd3a5d5a	-0.045499183
7	0x3d4ce2b4	0.05002089
8	0x3d3d0565	0.046147723
9	0x3dda0801	0.10646058
10	0x3c269862	0.010168167
11	0x3dbbf68d	0.09177885
12	0xbde66285	-0.1124926
13	0xbb4f84c2	-0.0031664823
14	0xbcc21d96	-0.023695748
15	0xbdea239c	-0.11432573
16	0xbd655263	-0.055986773
17	0x3d88b3ee	0.06674944
18	0x3e35590f	0.17709754
19	0x3de05660	0.10953975
20	0x3d973285	0.07382683
21	0x3e5b0b3c	0.21391004
22	0x3e688a5b	0.22709028
23	0xbe08e47a	-0.13368407
24	0x3e186997	0.1488403
25	0x3deb5d8c	0.11492452
26	0x3d83b391	0.06430734
27	0x3e496e9c	0.196711
28	0xbdab6761	-0.08369327
29	0xbc403396	-0.011731049
30	0x3e137bec	0.14402741
31	0x3de19f0f	0.11016666

conv.1.weight f4 [32]
0	0x3f93047e	1.1485746
1	0x3f33a664	0.70175767
2	0x3f8aca50	1.0842991
3	0x3f3c9ad2	0.7367374
4	0x3f5eec4a	0.870793
5	0x3f135060	0.5754452
6	0x3f7edb6c	0.9955356
7	0x3f595db6	0.84908617
8	0x3ee025d5	0.43778864
9	0x3f34faab	0.7069499
10	0x3f76c2d4	0.96391034
11	0x3ee9f00b	0.4569095
12	0x3f4a1008	0.7893071
13	0x3f265dc8	0.6498685
14	0x3f3a33a4	0.7273505
15	0x3f82233b	1.0167001
16	0x3f445fb5	0.7670854
17	0x3f919fbe	1.1376874
18	0x3f4a3e81	0.79001623
19	0x3f8bfc00	1.0936279
20	0x3f6271de	0.88455
21	0x3f58df73	0.84715956
22	0x3f49db31	0.78850085
23	0x3f8df0fa	1.1089165
24	0x3f5ef47f	0.8709182
25	0x3faa0b5d	1.3284718
26	0x3f5cd952	0.86269104
27	0x3f142b60	0.57878685
28	0x3f66c514	0.9014447
29	0x3f49d772	0.7884437
30	0x3f3ceae5	0.7379592
31	0x3f65a82b	0.8970973

conv.1.bias f4 [32]
0	0xbebddd42	-0.3708287
1	0xbec17d72	-0.3779102
2	0xbe8cb2ed	-0.2748026
3	0xbe912029	-0.2834485
4	0xbed05b5d	-0.40694705
5	0xbf13eac6	-0.5778011
6	0xbeaa919b	-0.33314213
7	0xbe96372b	-0.29338965
8	0xbeb64f01	-0.3560715
9	0xbed9b096	-0.42517537
10	0xbe8605fb	-0.26176438
11	0xbea6cc0f	-0.3257756
12	0xbee1edba	-0.44126683
13	0xbe8bfb96	-0.27340382
14	0xbe676b90	-0.22599626
15	0xbe993bb3	-0.2992836
16	0xbedb1b85	-0.42794433
17	0xbf0eac53	-0.55731696
18	0xbed03721	-0.4066706
19	0xbe843640	-0.2582264
20	0xbed26b46	-0.41097468
21	0xbf29a7aa	-0.6627146
22	0xbf2bf585	-0.6717151
23	0x3dfd4d8e	0.12368308
24	0xbd2e9b68	-0.042628676
25	0xbe68c5e0	-0.22731733
26	0xbe9dc843	-0.3081685
27	0xbf1088a3	-0.5645849
28	0xbea70158	-0.32618213
29	0xbe808efb	-0.25109085
30	0xbeccd19f	-0.40003678
31	0xbedd82b6	-0.43263787

conv.1.running_mean f4 [32]
0	0x3e09f835	0.1347359
1	0xbc697119	-0.014248156
2	0x3d6c2f5c	0.057662353
3	0x3e040047	0.12890731
4	0x3e1e1276	0.1543673
5	0x3e4a91fe	0.19782254
6	0xbc090967	-0.008364058
7	0x3de3bab9	0.11119599
8	0x3d2fa595	0.04288252
9	0x3e2c6c2a	0.16838136
10	0x3d319873	0.043358278
11	0x3d4fc961	0.05072916
12	0xbd0496bc	-0.032370314
13	0x3d8776a6	0.06614427
14	0x3c7d65c2	0.0154661555
15	0xbc6fafd9	-0.014629328
16	0xbc303cf3	-0.010756719
17	0x3dfd2b12	0.12361731
18	0x3e8608cb	0.26178584
19	0x3e216c10	0.15763879
20	0x3e1f17e1	0.15536453
21	0x3e3f7aa2	0.18699124
22	0x3e846e6c	0.25865495
23	0xbe81cf6c	-0.25353563
24	0x3e2f6086	0.17126665
25	0x3e0d2542	0.13783744
26	0x3e2545af	0.16139863
27	0x3e768b88	0.24076664
28	0xbaac0d97	-0.0013126609
29	0xbbc09cd3	-0.00587807
30	0x3df549c0	0.11976957
31	0x3e03e33e	0.12879655

conv.1.running_var f4 [32]
0	0x4077225d	3.8614724
1	0x40077245	2.1163495
2	0x4075b27f	3.8390195
3	0x401c0c04	2.4382334
4	0x4074f104	3.8272104
5	0x400e656d	2.2249405
6	0x4090b262	4.5217752
7	0x406ce0d4	3.7012224
8	0x3fdbaf24	1.7162824
9	0x40bde41b	5.934095
10	0x40a02730	5.0047836
11	0x409c8b24	4.891985
12	0x41067e0c	8.405773
13	0x409b8edf	4.8611903
14	0x4082e971	4.0909963
15	0x4122f948	10.18586
16	0x407c8a64	3.9459467
17	0x4084e885	4.1533837
18	0x410a0dfb	8.628413
19	0x4100f18d	8.058972
20	0x40a7da3c	5.24539
21	0x4093aa57	4.6145434
22	0x3f8d7e75	1.1054217
23	0x413b2e18	11.698753
24	0x40c0620d	6.011969
25	0x409364d8	4.60606
26	0x410826a8	8.509438
27	0x400ad827	2.169443
28	0x40a6da12	5.21412
29	0x401063bd	2.2560875
30	0x3f43cde5	0.76486045
31	0x406176cf	3.5228765

conv.5.weight f4 [64, 32, 3]
0	0x3d8297e3	0.06376626
1	0x3e18e4f3	0.14931087
2	0xbd2a1730	-0.04152602
3	0xbe12033f	-0.14259051
4	0xbe1bb786	-0.15206727
5	0xbd2f8df3	-0.042859983
6	0xbe756823	-0.23965506
7	0xbe59878f	-0.21243118
8	0xbe4aa9ad	-0.19791289
9	0xbd505783	-0.050864708
10	0xbcc66f8c	-0.024223112
11	0x3c4c8f86	0.0124853905
12	0xbcf93c80	-0.030424356
13	0x3e11da92	0.14243534
14	0xbe4f9bc9	-0.20274271
15	0xba976243	-0.001154967
16	0x3e574d8e	0.21025679
17	0xbcbfa992	-0.023396287
18	0xbc187815	-0.009305974
19	0x3e247e4a	0.160638
20	0x3c39a749	0.011331388
21	0x3e0598a3	0.13046508
22	0xbdce9357	-0.100866966
23	0xbba439fa	-0.005011794
24	0xbd9bd228	-0.076084435
25	0xbc1b9f86	-0.009498483
26	0xbd0f37cf	-0.034965333
27	0xbb3b2277	-0.0028554478
28	0x3ce52bc1	0.027974965
29	0x3db7705a	0.08956976
30	0xbdc7e62f	-0.09760701
31	0xbd619427	-0.05507293
32	0xbcff2fbd	-0.031150693
33	0xbd5062cd	-0.050875474
34	0xbba9858e	-0.0051733917
35	0x3bd4e346	0.0064968197
36	0x3cf70ba4	0.030156918
37	0x3d7ec4cc	0.0621994
38	0x3e30efb7	0.17278944
39	0x3cf7af01	0.030234816
40	0x3d7a3afa	0.0610914
41	0x3d033320	0.03203118
42	0x3cb6bc8b	0.022306701
43	0x3d8c7fa2	0.068602815
44	0xbd4abf51	-0.04949886
45	0x3e2a069a	0.16604081
46	0x3e1cea7f	0.15323828
47	0x3e6a7921	0.2289777
48	0xbd54d350	-0.051959336
49	0xbddef481	-0.10886479
50	0x3bc02f7e	0.0058650365
51	0x3dfaca0e	0.1224557
52	0x3dbce446	0.09223227
53	0xbdaeedf0	-0.08541477
54	0x3e0da9f8	0.13834369
55	0x3c899f77	0.016799672
56	0x3b6ffb21	0.003661819
57	0x3c572de8	0.0131335035
58	0x3c419f90	0.011817828
59	0xbe0f6f62	-0.14007333
60	0x3ebc9cb6	0.3683831
61	0x3e821004	0.25402844
62	0x3eac59a1	0.3366213
63	0xbe36d2f7	-0.17853914
64	0xbe61ca49	-0.22049822
65	0xbf0ab88d	-0.5418785
66	0xbd88cf63	-0.06680181
67	0x3ee0761d	0.43840113
68	0xbe6af1fd	-0.22943874
69	0xbd780e44	-0.06056048
70	0xbcd68e3d	-0.026190871
71	0xbd299603	-0.041402828
72	0xbcf48783	-0.029849773
73	0xbd658406	-0.05603411
74	0xbe4198f7	-0.18906008
75	0xbe9f3113	-0.31092128
76	0xbe725b51	-0.23667647
77	0xbeb79efb	-0.3586348
78	0x3d703250	0.05864173
79	0x3ea23c36	0.31686562
80	0xbe94bed9	-0.29051855
81	0x3dc1d579	0.09464545
82	0x3e4bfc41	0.19920446
83	0x3d5b2f92	0.053512163
84	0x3e57d9f2	0.21079233
85	0x3dc6f0df	0.09713911
86	0x3df5ad70	0.11995971
87	0xbe4cd6ed	-0.20003863
88	0xbe3b71ed	-0.18305178
89	0x3db90725	0.09034566
90	0x3703a1d8	7.845891e-06
91	0x3e79cedd	0.24395318
92	0xbe27639d	-0.16346593
93	0xbd83f1ae	-0.06442581
94	0xbe06167f	-0.13094519
95	0xbdebff11	-0.115232594
96	0xbdb1efb6	-0.08688299
97	0xbcc40150	-0.023926407
98	0xbdc164af	-0.09443032
99	0x3d860aef	0.06545054
100	0x3d72a2f7	0.059237447
101	0x3c0023e5	0.007821058
102	0x3e82f192	0.2557493
103	0x3ea2368b	0.31682238
104	0x3ee221b8	0.4416635
105	0x3de1bb9e	0.11022113
106	0x3cbbe871	0.022937985
107	0x3e662b46	0.22477445
108	0x3e913c58	0.2836635
109	0x3d07a8ce	0.03311997
110	0x3e416844	0.1888743
111	0x3c989b72	0.01862881
112	0x3aed2b0e	0.0018094496
113	0x3dea8b78	0.11452383
114	0xbd3be812	-0.045875616
115	0x3df6b6d2	0.12046589
116	0x3df18eb5	0.11794797
117	0x3e1db71f	0.15401886
118	0x3ce5b22b	0.028039059
119	0x3e4101e5	0.18848379
120	0xbdf7ffec	-0.1210936
121	0xbdb222d7	-0.086980514
122	0x3d945b9c	0.072440356
123	0xbc7a5923	-0.015280041
124	0xbcb1abbc	-0.021688335
125	0xbca285dc	-0.01983922
126	0xbdcce79a	-0.10005112
127	0xbd92bb52	-0.07164635
128	0xbd250c9b	-0.040295225
129	0xbd51c81a	-0.051216222
130	0x3d3a5c54	0.045498207
131	0x3ce81ed7	0.028335018
132	0xbdff40d2	-0.12463535
133	0xbe62015a	-0.22070828
134	0xbda3b974	-0.07994357
135	0xbddf5c7a	-0.109063104
136	0xbe1ade61	-0.15123893
137	0x3ca02dca	0.019553084
138	0xbcad43f2	-0.021150563
139	0x3d65e8eb	0.05613033
140	0x3b143405	0.0022614014
141	0xbe238218	-0.15967596
142	0xbda3c061	-0.07995678
143	0xbdc2fd04	-0.09520915
144	0xbdf8dded	-0.12151704
145	0xbe1430b9	-0.14471711
146	0xbe179fae	-0.14807007
147	0xbd1c364e	-0.038137726
148	0xbb353a69	-0.0027653223
149	0x3c8067d2	0.015674505
150	0xbce3a74c	-0.027789734
151	0x3e10c1be	0.14136407
152	0x3dcb5483	0.09928229
153	0x3cb111a8	0.021614864
154	0x3dba6859	0.09101934
155	0x3d700f7e	0.058608525
156	0xbb0a6adb	-0.002112082
157	0x3d8fb246	0.07016425
158	0x3cc0aef5	0.023520926
159	0xbd1f67e1	-0.038917426
160	0x3cf015a4	0.029307194
161	0xbd665967	-0.056237604
162	0xbce22beb	-0.027608832
163	0x3d50a80f	0.050941523
164	0x3e39fa4c	0.18161887
165	0x3d7deaa1	0.061991338
166	0x3dee4a91	0.11635316
167	0x3cc317a1	0.023814978
168	0xbc0b1d3e	-0.008490859
169	0x3d793efa	0.060851075
170	0x3df3604e	0.11883603
171	0x3edaf62b	0.42765936
172	0x3e96fa00	0.2948761
173	0x3f945d80	1.1591034
174	0xbdd0c4f7	-0.10193818
175	0x3e0ddc3d	0.13853545
176	0xbd1e8701	-0.03870297
177	0xbc7b04fe	-0.015321014
178	0x3d8ac3e5	0.06775645
179	0x3db90a36	0.09035151
180	0xbd3340ec	-0.043763086
181	0x3e0da0a9	0.13830818
182	0x3d73c8d7	0.059517708
183	0xbd84d251	-0.06485427
184	0x3bb7eb22	0.005612747
185	0x3c1751f8	0.0092358515
186	0xbb755437	-0.003743423
187	0x3e4a2d1a	0.19743767
188	0x3e3f9fc2	0.18713287
189	0x3d2c6b1e	0.042094342
190	0x3d4fd61a	0.050741293
191	0x3dae8877	0.08522122
192	0xbd1cf64d	-0.03832083
193	0xbd82ccab	-0.063866936
194	0x3de29ca1	0.11065031
195	0x3deedd24	0.11663273
196	0x3c3b8e36	0.01144748
197	0xbcfe2132	-0.031021688
198	0x3e175899	0.14779891
199	0x3e3d6279	0.18494596
200	0x3ec4041e	0.3828439
201	0x3d9891c2	0.07449676
202	0xbd91676e	-0.07099806
203	0xbd9fab88	-0.07796389
204	0xbdb51fe9	-0.08843977
205	0xbdbaa877	-0.09114163
206	0xbd98dfaa	-0.074645355
207	0xbd35f30e	-0.04442125
208	0xbd0e20ce	-0.034699254
209	0xbd7e075b	-0.062018733
210	0xbf05caf0	-0.52262783
211	0xbee4b774	-0.44671214
212	0xbee41891	-0.44549993
213	0x3d886c75	0.066613115
214	0xbdcce79d	-0.10005114
215	0xbd7474b7	-0.05968162
216	0xbcc2e612	-0.023791347
217	0xbe0d9bac	-0.13828915
218	0xbd84f9f6	-0.06492989
219	0x3d5835c5	0.052785654
220	0xbd7efe81	-0.062254433
221	0x3e1b7f1c	0.15185207
222	0xbe7c3e93	-0.24633245
223	0xbdaac90b	-0.08339127
224	0xbe4cb384	-0.19990355
225	0x3d8fe694	0.07026401
226	0xbde0dec5	-0.1097999
227	0x3dcd197a	0.10014625
228	0xbd8021a8	-0.062564194
229	0xbe1631ac	-0.14667386
230	0xbe36ac0a	-0.17839065
231	0x3da39a61	0.0798843
232	0xbdd76b0f	-0.10518467
233	0xbe12bf65	-0.14330824
234	0xbd95a678	-0.07307142
235	0xbe2b84ba	-0.1674985
236	0xbe5be194	-0.2147277
237	0xbe543f85	-0.20727356
238	0xbe68c676	-0.22731957
239	0xbdba1a95	-0.09087101
240	0xbe068ba4	-0.13139206
241	0x3c26c687	0.010179169
242	0x3ddf191e	0.108934626
243	0xbd939a80	-0.07207203
244	0x3d826999	0.063677974
245	0xbc3d4117	-0.011551163
246	0x3e26101d	0.16217084
247	0x3e0b492d	0.13602133
248	0x3e3331c6	0.17499456
249	0xbf12d299	-0.57352597
250	0xbf282c6a	-0.6569277
251	0xbf14694d	-0.57973176
252	0xbba9af81	-0.0051783924
253	0x3d40aefd	0.04704188
254	0x3af29afb	0.0018509323
255	0x3e863167	0.26209566

conv.5.bias f4 [64]
0	0xbc5bddfb	-0.0134196235
1	0x3e0a95d9	0.13533725
2	0xbd730c73	-0.059338044
3	0x3da5b6a4	0.080914766
4	0xbe1def31	-0.15423276
5	0x3da4e574	0.08051577
6	0x3cbc1672	0.022959922
7	0xbd0201b1	-0.031739894
8	0x3d5b1873	0.053490113
9	0xbd321e87	-0.043486144
10	0xbda25dd9	-0.07928056
11	0xbcc80c99	-0.02442007
12	0xbcf57ea5	-0.029967615
13	0xbd445863	-0.047935855
14	0xbd49b152	-0.04924137
15	0x3dc117a9	0.09428341
16	0x3e0c9ec7	0.13732444
17	0xba31d9b5	-0.0006784455
18	0xbbc96d53	-0.0061470657
19	0x3d2ff8aa	0.042961754
20	0xbc2ab6e2	-0.010419579
21	0xbbffd0b3	-0.0078068613
22	0x3d5d6bdf	0.054057952
23	0xbd98dc08	-0.07463843
24	0x3d3f9b67	0.046779063
25	0xbd6ffe20	-0.05859196
26	0xbc90bb77	-0.017667515
27	0x3d9e9159	0.077425666
28	0xbd78d295	-0.0607477
29	0x3bb6c581	0.0055777435
30	0x3d68fb8d	0.056880523
31	0x3de4fb71	0.11180771
32	0x3daebf89	0.08532626
33	0x3d70d749	0.058799062
34	0xbcc9c405	-0.024629602
35	0x3a65398e	0.0008744233
36	0xbd1238b4	-0.035698608
37	0xbd793274	-0.06083913
38	0x3dcecf22	0.10098101
39	0x3d782cbf	0.06058955
40	0xbc8b5a1a	-0.017010737
41	0xbd60080f	-0.054695185
42	0x3c3944b3	0.011307883
43	0x3d00b34e	0.031421
44	0xbdaf89b4	-0.08571187
45	0x3dc985bc	0.09839961
46	0xbd5c53db	-0.05379091
47	0xbccb4379	-0.024812447
48	0xbcb81f54	-0.022475876
49	0x3cfdb35d	0.030969316
50	0xbd43e17d	-0.047822464
51	0x3d849c22	0.064750925
52	0xbdabc661	-0.08387447
53	0x3c8768bb	0.016529432
54	0x3db09c77	0.08623593
55	0x3d5afe83	0.053465378
56	0xbc2f6af3	-0.010706651
57	0xbc81ad7f	-0.0158298
58	0x3d226db1	0.03965539
59	0x3d91cb71	0.071188815
60	0xbd2ae162	-0.041718848
61	0x3c2ad8b8	0.010427646
62	0xbafa07b3	-0.0019075781
63	0x3d08bd5e	0.03338372

conv.6.weight f4 [64]
0	0x3f8247be	1.0178144
1	0x3f881664	1.0631833
2	0x3f870c1c	1.055057
3	0x3f5d2306	0.86381567
4	0x3f6f6d87	0.935265
5	0x3f51f1e5	0.82009727
6	0x3f5afd84	0.85543084
7	0x3f87a660	1.0597649
8	0x3f851076	1.0395648
9	0x3f78bde1	0.9716473
10	0x3f7e1ce8	0.9926286
11	0x3f573069	0.84058243
12	0x3f4dc358	0.80376196
13	0x3f62fe8c	0.8866966
14	0x3f7fce91	0.9992457
15	0x3f52c528	0.82332087
16	0x3f8cb6c2	1.0993273
17	0x3f85df7a	1.0458825
18	0x3f80070d	1.0002152
19	0x3f74e31a	0.9565903
20	0x3f7ec1b2	0.99514306
21	0x3f67b0f9	0.90504414
22	0x3f803df7	1.001891
23	0x3f8a0967	1.0784119
24	0x3f78472a	0.9698359
25	0x3f7230a2	0.9460546
26	0x3f8a4dd3	1.0805
27	0x3f95bc45	1.169808
28	0x3f57acdd	0.84248143
29	0x3f6cd1a4	0.92507386
30	0x3f8d66a8	1.1046953
31	0x3f8ffbca	1.1248715
32	0x3f87fa3e	1.0623243
33	0x3f78a086	0.9711994
34	0x3f5411d3	0.828397
35	0x3f7f6299	0.99759823
36	0x3f6d453f	0.92683786
37	0x3f3ba191	0.73293406
38	0x3f826d01	1.0189515
39	0x3f6d6265	0.92728263
40	0x3f77c0d5	0.96778613
41	0x3f80408d	1.0019699
42	0x3f720493	0.9453823
43	0x3f52167f	0.82065576
44	0x3f6a55f5	0.9153741
45	0x3f483d3c	0.78218436
46	0x3f53082f	0.8243436
47	0x3f9be435	1.2179018
48	0x3f649833	0.8929474
49	0x3f7c7322	0.9861318
50	0x3f6e0f7b	0.9299237
51	0x3f6f5acf	0.9349794
52	0x3f65c68d	0.8975609
53	0x3f75ed10	0.96064854
54	0x3f708048	0.9394574
55	0x3f55e320	0.8354969
56	0x3f6c13ba	0.922176
57	0x3f49f056	0.7888235
58	0x3f89ca67	1.0764893
59	0x3f73956e	0.95149887
60	0x3f5c975d	0.8616846
61	0x3f821a22	1.0164225
62	0x3f63d442	0.88995755
63	0x3f76f73b	0.96470994

conv.6.bias f4 [64]
0	0xbe641370	-0.2227304
1	0xbe01f166	-0.12689742
2	0xbec490b7	-0.3839166
3	0xbeace30d	-0.33766976
4	0xbe477292	-0.19477299
5	0xbe9f82c9	-0.3115447
6	0xbeb18855	-0.34674326
7	0xbe3c89d2	-0.1841195
8	0xbe931400	-0.28726196
9	0xbe82014e	-0.2539162
10	0xbed7ad82	-0.42124563
11	0xbe8f94a2	-0.28043085
12	0xbf05ebf7	-0.5231318
13	0xbc8ffaf6	-0.017575722
14	0xbe7c30d6	-0.24628004
15	0xbeb278d7	-0.34857818
16	0xbe8d7069	-0.27624825
17	0xbe09cbf7	-0.13456713
18	0xbea9746d	-0.33096638
19	0xbdd13533	-0.10215225
20	0xbe7e96e3	-0.24862246
21	0xbecb1fd1	-0.39672711
22	0xbdf53af5	-0.11974136
23	0xbea2dfaf	-0.31811282
24	0xbdcf1d4b	-0.10113009
25	0xbe941e1b	-0.2892922
26	0xbea6cea8	-0.3257954
27	0xbe69118f	-0.22760604
28	0xbed812fa	-0.42201978
29	0xbe33fc4d	-0.17576714
30	0xbda81f05	-0.082090415
31	0xbe371768	-0.17880023
32	0xbf07ff0e	-0.5312356
33	0xbeb50fc0	-0.3536358
34	0xbd90076d	-0.07032666
35	0xbe2af01c	-0.16693157
36	0xbe4ea474	-0.20179921
37	0xbe8a3076	-0.26990098
38	0xbebe32ea	-0.3714822
39	0xbeccc4a8	-0.39993787
40	0xbe9803af	-0.2969031
41	0xbe2e7d34	-0.17039949
42	0xbe74b640	-0.23897648
43	0xbf436bf8	-0.7633662
44	0xbe585f14	-0.2113002
45	0xbe84bf4b	-0.25927195
46	0xbec9cbb9	-0.3941324
47	0xbe4548d0	-0.19266057
48	0xbea9dba3	-0.33175382
49	0xbf060a26	-0.52359235
50	0xbe4e5f2e	-0.20153496
51	0xbe84c69b	-0.25932774
52	0xbe217a9b	-0.15769427
53	0xbe96e285	-0.29469696
54	0xbf0860f6	-0.5327295
55	0xbeac25ca	-0.3362258
56	0xbe9646e4	-0.2935096
57	0xbedfd34a	-0.43715888
58	0xbe47ecd8	-0.19523942
59	0xbf1927cd	-0.59826356
60	0xbe842609	-0.2581027
61	0xbeddac0c	-0.43295324
62	0xbec5b244	-0.38612568
63	0xbe91225e	-0.28346533

conv.6.running_mean f4 [64]
0	0xbea17d68	-0.3154099
1	0x3f900ec4	1.1254506
2	0xbf5b9e40	-0.85788345
3	0x3f3623b9	0.7114826
4	0xbf96eecc	-1.1791625
5	0xbf17583a	-0.59119
6	0xbf9f8df5	-1.2465197
7	0xbe499008	-0.1968385
8	0xbf416d42	-0.7555734
9	0xbf5d5e2d	-0.86471826
10	0xbf426967	-0.7594208
11	0xbfc2ef25	-1.5229231
12	0x3f3bb034	0.7331574
13	0x3ec514e1	0.38492492
14	0xbecee7a8	-0.40411115
15	0xbf0c9d0b	-0.5492713
16	0xbe1b9497	-0.15193401
17	0xbe8ad049	-0.27112034
18	0xbf99990a	-1.1999829
19	0x3ede478d	0.43413964
20	0xbf8000a5	-1.0000197
21	0xbf496c5c	-0.7868097
22	0xbfb1968c	-1.3874068
23	0xbec72493	-0.3889509
24	0xbe413139	-0.18866433
25	0xbf16be1c	-0.58883834
26	0xbfb32905	-1.3996893
27	0xbdf0a495	-0.117501415
28	0xbf2bd262	-0.67117894
29	0xbf76096f	-0.96108145
30	0xbea33ccc	-0.31882322
31	0x3e3a3243	0.18183236
32	0xbfd549a2	-1.6663096
33	0xbe9599e5	-0.29218975
34	0xbf193d05	-0.59858733
35	0xbf9a7af1	-1.2068769
36	0xbfb70655	-1.4298807
37	0x3ede4ec0	0.43419456
38	0xbfe1ecdb	-1.7650408
39	0xbf6c0add	-0.92204076
40	0x3ebe07c2	0.37115294
41	0x3f26dce7	0.6518082
42	0xbf4fcf6e	-0.8117589
43	0xbd99d768	-0.075117886
44	0xbfc260a4	-1.5185742
45	0xbf95330e	-1.1656206
46	0xbf8a786d	-1.0818001
47	0xbf33e2ed	-0.70268136
48	0xbfa304af	-1.2735804
49	0xbfdabb7f	-1.7088469
50	0xbf5a459d	-0.8526247
51	0xbf2ad273	-0.6672737
52	0xbf270788	-0.65245867
53	0xbf5862e5	-0.845259
54	0xbeed5106	-0.46350878
55	0xbd479e6f	-0.04873508
56	0xbe9bc84e	-0.30426258
57	0xbe9e3cc6	-0.3090574
58	0x3cf91a94	0.030408181
59	0x3f47300e	0.778077
60	0xbf35b982	-0.7098619
61	0x3f2d1e70	0.6762457
62	0x3e72e7b5	0.23721202
63	0x3f7f74ea	0.9978777

conv.6.running_var f4 [64]
0	0x3f561c1e	0.83636653
1	0x3fe7d72e	1.8112543
2	0x3f8c6047	1.0966882
3	0x3f288dd0	0.6584139
4	0x3f80853d	1.0040661
5	0x3f8c819b	1.0977052
6	0x3fba6ae6	1.4563873
7	0x3f8c6e57	1.0971173
8	0x3f2e5f93	0.68114585
9	0x3f543714	0.8289654
10	0x3fd701a9	1.6797382
11	0x401d7104	2.460023
12	0x3f584ef1	0.84495455
13	0x3fd568fc	1.6672664
14	0x3f1dfd88	0.61714983
15	0x3f8af9a4	1.0857434
16	0x3fae0e52	1.359812
17	0x3f848026	1.0351608
18	0x3fdbf485	1.7183996
19	0x3fd8cb2f	1.6937007
20	0x3fa85e1c	1.315372
21	0x3f780a09	0.9689031
22	0x40b16c52	5.5444727
23	0x3fa4fca7	1.2889603
24	0x3ebd7ce1	0.37009338
25	0x3f301903	0.68788165
26	0x4018fd28	2.3904514
27	0x3eece7c2	0.46270567
28	0x3ee69c39	0.45041063
29	0x4037f224	2.874154
30	0x402c0663	2.6878898
31	0x3fc2c59f	1.5216559
32	0x401ff5e9	2.4993842
33	0x3ee8055b	0.45316586
34	0x4022885b	2.5395725
35	0x4081c6a8	4.0555
36	0x3fd5d6bb	1.6706156
37	0x3f79cc37	0.9757723
38	0x400d4235	2.207166
39	0x40083bb9	2.1286452
40	0x3f26df36	0.6518434
41	0x3f1f5bc7	0.62249416
42	0x3ff3bea6	1.9042556
43	0x3eceb986	0.40375918
44	0x40954022	4.6640787
45	0x3f876eb2	1.0580657
46	0x3f9610c6	1.1723869
47	0x4021a736	2.5258307
48	0x403f4a33	2.9889038
49	0x401b2c16	2.4245658
50	0x400298db	2.0405796
51	0x3f76f561	0.9646817
52	0x3fb35b0b	1.4012159
53	0x3fd856d5	1.6901499
54	0x3fdceef3	1.7260422
55	0x3f261b51	0.6488543
56	0x3f9b81ee	1.2149026
57	0x3f215aa3	0.63028926
58	0x40000237	2.0001352
59	0x3f76f7e9	0.9647203
60	0x3f478e57	0.7795157
61	0x3ee3b726	0.4447567
62	0x3f88aafd	1.0677181
63	0x3fbc4848	1.4709558

conv.10.weight f4 [128, 64, 3]
0	0x3e4a3bda	0.19749394
1	0x3bb15e44	0.0054128487
2	0x3e68558d	0.22688885
3	0x3e5de6ae	0.21670029
4	0x3e1649a2	0.14676526
5	0x3e96c216	0.2944495
6	0x3bed3079	0.0072384444
7	0x3e8cb766	0.27483672
8	0xbc8fd46e	-0.017557349
9	0x3dc39c88	0.0955134
10	0x3cd9dd52	0.026594792
11	0x3d8ccba0	0.06874776
12	0xbebacf16	-0.3648612
13	0xbe33c41b	-0.17555277
14	0xbe5a39ad	-0.21311064
15	0xbddb76bb	-0.107160054
16	0x3d979408	0.074012816
17	0x3d3f4f3c	0.046706423
18	0x3e32fde7	0.17479669
19	0x3e8afcd2	0.27146012
20	0x3ec0d2ef	0.3766093
21	0x3c49e3fa	0.01232242
22	0x3e02baa2	0.12766507
23	0x3d33cc47	0.043895986
24	0xbc5a802b	-0.013336222
25	0x3d018d4e	0.0316289
26	0xbd89eb19	-0.067342944
27	0xbec0a1bc	-0.37623394
28	0x3b809cf2	0.0039249593
29	0xbe30847c	-0.17238039
30	0x3d0ceb09	0.034403834
31	0x3da9deae	0.08294426
32	0x3daff7dd	0.08592198
33	0x3dfa5232	0.12222709
34	0x3e1b317e	0.15155599
35	0x3d453886	0.048149608
36	0x3ecdd9b4	0.40205157
37	0x3e274b35	0.16337283
38	0x3ca346d0	0.019931227
39	0x3cb68d28	0.022284105
40	0x3d81458d	0.06312094
41	0x3d50b794	0.050956324
42	0x3e4f470d	0.20241947
43	0x3d731c21	0.059352998
44	0x3dc869c3	0.097857974
45	0xbc8d0ea7	-0.0172189
46	0x3cc03403	0.023462301
47	0x3c8d6120	0.017258227
48	0x3b650607	0.003494622
49	0x3deccc28	0.11562377
50	0xbe302532	-0.17201689
51	0x3dd3648c	0.10321912
52	0x3d606507	0.054783847
53	0x3dc8f5ce	0.098125085
54	0x3d82f6ce	0.063947305
55	0x3e29b258	0.16571939
56	0x391d84f8	0.00015022221
57	0x3e26043f	0.16212557
58	0x3d9235e8	0.07139188
59	0x3e167dbf	0.14696406
60	0x3ddd8a58	0.108174026
61	0x3bcc48b4	0.006234253
62	0xbcce37e6	-0.025173139
63	0x3dbf760e	0.09348689
64	0x3eaacf24	0.3336116
65	0x3d46f4ea	0.048573412
66	0xbda91b0c	-0.08257112
67	0xbca5da55	-0.02024571
68	0xbd1d19d2	-0.038354702
69	0x3d7537bd	0.05986761
70	0x3e804d2c	0.25058877
71	0x3d470b8d	0.048595
72	0xbe6428e9	-0.22281231
73	0xbe897baf	-0.26852176
74	0xbe2c5c60	-0.16832113
75	0x3d5038bc	0.050835356
76	0x3d179c20	0.037014127
77	0xbde0fae7	-0.10985356
78	0xbef3e160	-0.47632885
79	0xbef516b0	-0.47868872
80	0xbed16ec5	-0.40904823
81	0x3b87cf21	0.0041445647
82	0x3c8e79ff	0.017392157
83	0x3d759e70	0.05996555
84	0xbe0d3127	-0.13788281
85	0xbbac37ca	-0.005255674
86	0xbe1e6713	-0.15469007
87	0xbdc76e47	-0.097378306
88	0xbe0b64bd	-0.13612647
89	0xbe94b163	-0.29041585
90	0x3ddac6ac	0.10682425
91	0x3d57d0cb	0.052689355
92	0x3e345d8c	0.1761381
93	0x3d36b933	0.044610213
94	0x3d30afe6	0.0431365
95	0x3cead771	0.028667184
96	0x3e23ec06	0.16008005
97	0x3e65cfd6	0.22442564
98	0x3e0e4484	0.13893324
99	0x3e4f2536	0.20229039
100	0x3cb0dbd4	0.021589197
101	0xbe2c335c	-0.16816467
102	0x3e1c1e08	0.15245831
103	0x3c531afc	0.012884852
104	0xbd49da9a	-0.04928074
105	0x3c9de159	0.019272493
106	0xbdb06d3e	-0.08614586
107	0xbe5e8cf1	-0.21733452
108	0xbd3765e9	-0.044774923
109	0x3e1cdf60	0.15319586
110	0x3d51d654	0.05122979
111	0x3e90c39a	0.28274232
112	0x3e5f5d5c	0.21812958
113	0x3e3d3a6a	0.18479314
114	0x3e91d17e	0.28480142
115	0x3e349e94	0.17638618
116	0x3df5b087	0.119965605
117	0x3d51cd72	0.05122132
118	0x3dc8dafe	0.098073944
119	0x3da50863	0.0805824
120	0xbbc1e578	-0.0059172474
121	0xbd2ff408	-0.042957336
122	0xbc273506	-0.010205513
123	0x3de1239f	0.10993122
124	0x3dd2719c	0.102755755
125	0x3da724ee	0.08161341
126	0xbd6a57f9	-0.057212804
127	0x3dab4399	0.083625026
128	0xbe02d379	-0.12775983
129	0xbd795be8	-0.060878664
130	0x3cec89f5	0.028874377
131	0x3d2760e4	0.040863886
132	0x3bcf95c9	0.0063349945
133	0xbc878743	-0.01654399
134	0xbea5b781	-0.32366565
135	0xbdc57c5b	-0.096428595
136	0x3e376f69	0.17913593
137	0x3e08cdc7	0.13359748
138	0xbdd31d7e	-0.103083596
139	0xbd3084c6	-0.043095373
140	0xbe44f2a7	-0.1923319
141	0x3e524373	0.20533542
142	0x3e11c6d9	0.1423601
143	0x3e13144c	0.14363211
144	0xbd9e57fa	-0.07731624
145	0xbce8e638	-0.02843009
146	0xbe438ff1	-0.19097878
147	0x3e3077e1	0.1723323
148	0x3e483421	0.19551136
149	0x3e3bccff	0.18339919
150	0xbd3389a8	-0.04383245
151	0xbd9fa729	-0.07795555
152	0x3cf98728	0.030459955
153	0xbba9177b	-0.00516027
154	0x3d5beaf3	0.053690862
155	0xbe769160	-0.24078894
156	0x3cb7d76e	0.022441592
157	0xbce09597	-0.02741508
158	0x3daea2ad	0.08527122
159	0xbe0c5fcc	-0.13708419
160	0xbd2b62d6	-0.041842304
161	0xbe88e94c	-0.2674049
162	0xbd9da935	-0.07698289
163	0x3c482da6	0.012217915
164	0xbde5b55c	-0.11216232
165	0x3c982373	0.018571591
166	0x3e1e5782	0.15463069
167	0x3e09ce18	0.13457525
168	0xbda8c704	-0.08241084
169	0x3df1254a	0.117746904
170	0xbc621b9f	-0.013800531
171	0xbe6c95d1	-0.23104025
172	0x3bf12a61	0.0073597883
173	0x3dfd799a	0.12376709
174	0x3d086196	0.03329619
175	0x3e77007d	0.2412128
176	0x3e45119d	0.19245
177	0x3e91e0c1	0.28491786
178	0x3e84d932	0.25946957
179	0x3ed08cc1	0.40732387
180	0xbddb91da	-0.10721178
181	0x3bc5c27e	0.006035148
182	0xbe450cad	-0.19243117
183	0x3ea81ef2	0.3283611
184	0x3e478c13	0.19487028
185	0x3e84027e	0.2578315
186	0x3e30c46c	0.17262429
187	0x3e57700e	0.21038839
188	0x3c88591e	0.016644057
189	0x3e500daf	0.2031772
190	0x3e2590f1	0.16168572
191	0x3e2a40a5	0.16626222
192	0xbd850d38	-0.06496662
193	0xbea63c70	-0.32467985
194	0xbea75da0	-0.32688618
195	0xbe9a08f6	-0.30084962
196	0xbeac9ea4	-0.33714783
197	0xbeb3bfe9	-0.35107353
198	0xbe3ed53b	-0.18636028
199	0xbd66a8e4	-0.05631341
200	0xbe1badcb	-0.15203016
201	0xbcb248d8	-0.02176325
202	0xbdf16cb4	-0.117883116
203	0xbd745ff2	-0.059661813
204	0x3c05a9c9	0.008158156
205	0xbd78d7c5	-0.06075265
206	0x3dbb3d9c	0.091426104
207	0xbe19039f	-0.14942788
208	0xbd70a16f	-0.058747705
209	0x3cf38140	0.029724717
210	0xbc3acdfc	-0.01140165
211	0x3c04709c	0.008083489
212	0x3cac50f1	0.02103469
213	0xbe552e9b	-0.2081856
214	0xbe0d031c	-0.13770717
215	0xbd36eb60	-0.044658065
216	0xbc448c86	-0.011996394
217	0x3e0564f6	0.13026795
218	0x3e58f988	0.21188939
219	0x3cf8bc45	0.030363211
220	0x3dec1a3e	0.11528443
221	0xbd249fa8	-0.040191323
222	0x3c67739f	0.014126687
223	0xbe06aec5	-0.13152607
224	0xbc945fd9	-0.01811211
225	0xbdb8861b	-0.090099536
226	0x3e16ce83	0.14727215
227	0xbcc8bf4d	-0.024505282
228	0x3b05a4e6	0.0020392477
229	0xbe03a88f	-0.12857269
230	0xbe20f97a	-0.15720168
231	0xbd985c1a	-0.07439442
232	0xbdec3d51	-0.11535133
233	0x3cb34395	0.021882812
234	0x3dd608de	0.1045091
235	0xbd98030c	-0.07422456
236	0xbe02b232	-0.12763289
237	0xbc9ed18a	-0.019387025
238	0xbc759aa0	-0.014990479
239	0xbbdc80a8	-0.006729204
240	0xbe0624c8	-0.13099968
241	0x3c04ed40	0.008113205
242	0x3d843ede	0.064573035
243	0x3d1de10d	0.038544703
244	0xbcd8dc0a	-0.02647211
245	0x3d9082da	0.07056208
246	0xbc1944ec	-0.009354811
247	0xbe2ed594	-0.17073661
248	0x3e2a0b80	0.1660595
249	0xbe17e3f6	-0.14833054
250	0xbe66b61d	-0.22530408
251	0xbd46720f	-0.04844862
252	0x3da78889	0.08180339
253	0xbdedc16e	-0.116091594
254	0xbd3d3488	-0.046192676
255	0xbe967c08	-0.29391503

conv.10.bias f4 [128]
0	0x3d974d1b	0.073877536
1	0x3d0f4179	0.03497455
2	0xba0c7a6a	-0.0005358817
3	0x3cadfed5	0.021239677
4	0x3d0b9f35	0.03408738
5	0x3d20a0b4	0.03921576
6	0xbd79b8c3	-0.060967218
7	0x3ce640cb	0.028107068
8	0x3c28047c	0.010254975
9	0xbd3c3894	-0.045952395
10	0xbd38796a	-0.045037664
11	0x3cb92c21	0.02260405
12	0x3d3d3830	0.046196163
13	0xbd634edf	-0.05549514
14	0xbcc93149	-0.024559634
15	0x3c9dc5f6	0.019259434
16	0x3c7a159a	0.015263939
17	0xbd01f4a6	-0.031727456
18	0xbcdc3e40	-0.026885152
19	0xbd22d28c	-0.039751574
20	0x3cbd9858	0.023143932
21	0xbcc7e2de	-0.02440017
22	0x3d4ae79a	0.04953728
23	0x3d84297a	0.064532235
24	0x3d3d27d5	0.046180565
25	0x3d356e73	0.044294786
26	0xbd04a76d	-0.032386232
27	0x3d264f7b	0.040603142
28	0x3d849d25	0.064752854
29	0xbd18e3db	-0.037326675
30	0xbd805f9c	-0.06268236
31	0xbca04eb9	-0.019568788
32	0xbc83feb5	-0.016112665
33	0xbd356382	-0.04428435
34	0xbd687346	-0.05675056
35	0xbd33bf32	-0.04388351
36	0xbd8a3bfc	-0.06749722
37	0x3d39bc5b	0.045345645
38	0x3b087bbf	0.0020825712
39	0x3d1af411	0.037830416
40	0xbd02859a	-0.031865694
41	0x3d942ae4	0.07234743
42	0xb9aed834	-0.0003334895
43	0xba0b4c3a	-0.0005313788
44	0xbd199f13	-0.03750522
45	0x3d897178	0.067110956
46	0xbd90bbe6	-0.07067089
47	0xbd31105b	-0.04322849
48	0x3d808596	0.062754795
49	0x3d8a2dfb	0.06747051
50	0xbcae7f32	-0.021300886
51	0xbd25c9b1	-0.04047555
52	0xbd545a8a	-0.051844157
53	0x3c9041a8	0.017609432
54	0xbd13cf7f	-0.036086556
55	0x3cb937c9	0.022609608
56	0x3ad68b6f	0.0016368459
57	0x3bd9a6ce	0.006642199
58	0x3cfa2d9f	0.030539332
59	0x3c9e02cc	0.019288443
60	0xbced8067	-0.028991891
61	0xbd07bad0	-0.033137143
62	0xbdb3118d	-0.08743582
63	0xbd3671b1	-0.04454202
64	0xbd55da67	-0.052210238
65	0xbcd7747a	-0.026300658
66	0x3d0a95e6	0.03383436
67	0x3da22426	0.07917051
68	0xbd1dbc0f	-0.038509425
69	0x3d2f7f3b	0.042845946
70	0xbd405daa	-0.046964325
71	0xbc7609fb	-0.015017028
72	0x3d67e19f	0.056611653
73	0x3bfe1b36	0.0077547086
74	0xbcddb90d	-0.027065778
75	0x3d8ac199	0.06775207
76	0x3d91e412	0.07123579
77	0x3b00264c	0.0019554077
78	0x3d9d2411	0.07672895
79	0x3d68c122	0.05682481
80	0xbd03c55e	-0.032170646
81	0x3d179316	0.037005506
82	0xbd22dd00	-0.039761543
83	0xbd2cc513	-0.042180132
84	0x3d9db66d	0.077008106
85	0xbcf281fe	-0.029603
86	0xba8d0050	-0.001075754
87	0xbd658cea	-0.05604259
88	0x3c889750	0.016673714
89	0x3cae68dd	0.021290237
90	0xbd4dc661	-0.050238017
91	0x3c978170	0.018494338
92	0x3d840da4	0.06447914
93	0x3d3dc462	0.046329863
94	0xbc02e352	-0.007988768
95	0x3d879231	0.06619681
96	0x3d02aa08	0.031900436
97	0x3bf33e89	0.0074232263
98	0x3ca7fbb9	0.020505773
99	0x3db2228d	0.08697996
100	0xbc6640dc	-0.01405355
101	0x3c9e556b	0.01932784
102	0x3ba2be20	0.0049665123
103	0x3bb29986	0.0054504303
104	0x3d146ebd	0.03623842
105	0x3d6f37b7	0.058402743
106	0xbd53fec2	-0.051756628
107	0xbcd24a38	-0.025670156
108	0xbcbe4978	-0.023228392
109	0xbd7689af	-0.0601899
110	0x3b719273	0.0036860972
111	0x3c8602b2	0.016358707
112	0x3d004052	0.03131134
113	0xbcaa50b1	-0.02079043
114	0x3b11a212	0.0022221846
115	0x3d806c15	0.06270615
116	0xbd1372d0	-0.035998166
117	0xbd1505cd	-0.036382485
118	0xbca46cf6	-0.020071488
119	0x3cfae551	0.030626925
120	0x3d875252	0.06607498
121	0xbd1f98a0	-0.038963914
122	0x3cef727e	0.029229399
123	0xba90c555	-0.0011045138
124	0xbc9e3f14	-0.019317187
125	0xbd163608	-0.036672622
126	0xbd190c14	-0.037365034
127	0xbbaab76f	-0.0052098553

conv.11.weight f4 [128]
0	0x3f9f953b	1.2467417
1	0x3f87e0f5	1.0615526
2	0x3f6fdd51	0.9369708
3	0x3fa94e5b	1.3227037
4	0x3f9eafdd	1.2397419
5	0x3fae4b30	1.3616695
6	0x3f69514f	0.9113969
7	0x3f7b0995	0.98061496
8	0x3fbcdb0d	1.4754349
9	0x3f93dd61	1.1551934
10	0x3f8f58df	1.1198996
11	0x3fa6140f	1.2974871
12	0x3f81bc80	1.0135651
13	0x3f798c24	0.9747946
14	0x3fa614f2	1.2975142
15	0x3f8f91f2	1.1216414
16	0x3fbeed6c	1.4916205
17	0x3fa5df6c	1.2958808
18	0x3f882a76	1.0637958
19	0x3f6e1afe	0.93009937
20	0x3f68adfd	0.90890485
21	0x3f8bebe0	1.0931358
22	0x3f95555d	1.1666676
23	0x3f719a1c	0.9437578
24	0x3fb2ea29	1.397771
25	0x3f83b969	1.0290958
26	0x3f9f8acf	1.2464236
27	0x3fe01841	1.7507402
28	0x3f95d02f	1.1704158
29	0x3f6ab39e	0.91680324
30	0x3f9e0f27	1.2348374
31	0x3f97ba61	1.1853753
32	0x3fd75120	1.6821632
33	0x3faef416	1.3668239
34	0x3f79e482	0.976143
35	0x3fb14c8e	1.3851488
36	0x3f9ad511	1.2096273
37	0x3fc44e84	1.5336461
38	0x3f719a80	0.94376373
39	0x3ff1a117	1.8877286
40	0x3ff43bff	1.9080809
41	0x3fa963d0	1.3233585
42	0x3f8a3a1d	1.0798985
43	0x3fe4fdf7	1.7890004
44	0x3f6b02ea	0.9180132
45	0x3f6a4b18	0.91520834
46	0x3fab8303	1.3399357
47	0x3f9eefe3	1.2416958
48	0x3fa1d3bd	1.2642742
49	0x3f7ff325	0.99980384
50	0x3ff9636a	1.9483464
51	0x3fb910c7	1.4458245
52	0x3fbe5677	1.4870137
53	0x3fb0b5b9	1.3805457
54	0x3f87b759	1.0602828
55	0x3fad8931	1.3557492
56	0x3ff20c41	1.890999
57	0x3f762b4c	0.96159816
58	0x3f7d66ab	0.98984784
59	0x3f67b70f	0.905137
60	0x3fc09032	1.5044005
61	0x3fa91b5e	1.3211477
62	0x3fae24d2	1.3604987
63	0x3ff727ed	1.9309059
64	0x3f88e105	1.069367
65	0x3f68e20b	0.90969914
66	0x3f840077	1.0312642
67	0x3f91987a	1.1374657
68	0x3f73ddfa	0.95260584
69	0x3f840f50	1.0317173
70	0x3fda2378	1.7042074
71	0x3f96c361	1.1778375
72	0x3f861848	1.047616
73	0x3fb9742b	1.4488577
74	0x3fbcabfd	1.4739987
75	0x3fed31cb	1.8530821
76	0x3fafbff5	1.3730456
77	0x3f9ca156	1.2236736
78	0x3f91437d	1.1348721
79	0x3f8d9dc9	1.1063777
80	0x3f9642d8	1.1739149
81	0x3f703aaf	0.93839544
82	0x3fc2c588	1.5216532
83	0x4000921d	2.008918
84	0x3fbb561f	1.4635657
85	0x3f9dce32	1.2328551
86	0x3f944ecb	1.1586546
87	0x3fa09d3a	1.2547982
88	0x3f9ce998	1.2258787
89	0x3f6ce78d	0.9254082
90	0x3f760de4	0.96114945
91	0x3f89dee3	1.0771145
92	0x3f9059d2	1.1277411
93	0x3f84a004	1.0361333
94	0x3f822b92	1.0169547
95	0x3f81ae39	1.0131294
96	0x3fa0e5b7	1.2570103
97	0x3f66e8a3	0.90198725
98	0x40010239	2.0157607
99	0x3f7de7f3	0.9918205
100	0x3f8ea6a7	1.1144608
101	0x3f89c734	1.0763917
102	0x3f861f5c	1.047832
103	0x3faa2309	1.3291942
104	0x3fa5cac6	1.2952507
105	0x3faecc33	1.3656067
106	0x3fb6da8a	1.4285443
107	0x3fb1c4ec	1.3888221
108	0x3fa5ae7c	1.2943873
109	0x3faf3ea4	1.3690991
110	0x3f9e0ad9	1.234706
111	0x3fa11836	1.2585514
112	0x3f7d476c	0.98937106
113	0x3fee6415	1.8624293
114	0x3f6eebf2	0.93328774
115	0x3f72c712	0.9483501
116	0x3f8f0737	1.1174077
117	0x3f6f600f	0.9350595
118	0x3fa4b9c0	1.2869186
119	0x3f6641c6	0.8994411
120	0x3f6c3f2d	0.922839
121	0x3fc35ba3	1.526234
122	0x3f94555d	1.1588551
123	0x3f90262e	1.1261652
124	0x3fae2b16	1.3606899
125	0x3f74add5	0.95577747
126	0x3f96b7d3	1.1774849
127	0x3f79c0cb	0.97559804

conv.11.bias f4 [128]
0	0xbe997378	-0.29970908
1	0xbd860b2f	-0.06545102
2	0xbe7014f8	-0.23445499
3	0xbd870d93	-0.06594386
4	0x3dcacb1e	0.09902023
5	0x3d8b1f31	0.06793059
6	0xbe1ffcaf	-0.15623735
7	0xbdd2e9ca	-0.10298498
8	0xbd876377	-0.06610768
9	0x3d3f7933	0.046746444
10	0x3d113aaa	0.035456337
11	0x3d2abaf5	0.041682202
12	0xbe02d318	-0.12775838
13	0xbe13b410	-0.14424157
14	0xbf59b76e	-0.85045516
15	0x3e16103f	0.14654635
16	0xbd995e6d	-0.074887134
17	0x3dfad294	0.12247196
18	0x3d966531	0.073435195
19	0xbe912c47	-0.28354093
20	0xbea0c457	-0.31399795
21	0x3cbc7661	0.023005666
22	0xbef28bae	-0.47372192
23	0xbdbd2932	-0.09236373
24	0x3e7922a2	0.24329618
25	0xbe412b41	-0.18864156
26	0xbefe3877	-0.49652454
27	0x3d4e43f8	0.05035779
28	0xbd5186e8	-0.051154047
29	0xbe3c25ec	-0.18373841
30	0x3d86c934	0.06581345
31	0xbc9dbc8a	-0.019254941
32	0x3d2666d3	0.040625405
33	0x3cbd05ad	0.023073995
34	0xbcd3416d	-0.025788033
35	0xbdc24dd9	-0.094875045
36	0xbcde2626	-0.0271178
37	0x3da52a00	0.080646515
38	0xbe487ab6	-0.1957806
39	0x3e72b490	0.23701692
40	0x3de201dc	0.11035511
41	0x3cb8450a	0.022493858
42	0xbd1fddca	-0.039029874
43	0x3d1219fc	0.035669312
44	0xbe940d95	-0.28916612
45	0xbec23d90	-0.37937593
46	0x3d594c5f	0.05305135
47	0x3d732d67	0.05936947
48	0x3e111d0a	0.14171234
49	0xbeb15623	-0.3463603
50	0xbd1b7407	-0.03795245
51	0xbea4f1c3	-0.322157
52	0xbc21256e	-0.009835584
53	0xbbea455a	-0.0071493806
54	0xbdc41b1e	-0.09575485
55	0x3ca8663e	0.020556565
56	0x3dc0c1a1	0.09411932
57	0xbe13bd33	-0.14427643
58	0xbe43889f	-0.19095086
59	0xbe57368c	-0.21016902
60	0x3e205f6c	0.156614
61	0x3c4c6b1c	0.012476709
62	0xbd638385	-0.05554535
63	0xbebfcd64	-0.37461388
64	0xbeb9c342	-0.36281782
65	0xbef11bdf	-0.47091576
66	0xbe52c44c	-0.20582694
67	0xbee5cceb	-0.44882903
68	0xbebc4702	-0.36772925
69	0xbdca56fa	-0.09879871
70	0x3d3ec219	0.046571825
71	0xbac9ae6c	-0.0015387065
72	0xbe3c0c2d	-0.1836402
73	0x3d0324fc	0.032017693
74	0xbd3b21a4	-0.04568638
75	0xbdc9956f	-0.09842955
76	0x3cdbf30a	0.026849288
77	0xbe347426	-0.17622432
78	0xbd946796	-0.0724632
79	0xbc9584db	-0.018251827
80	0x3e2749bf	0.16336726
81	0xbe449917	-0.19199024
82	0x3d6704ab	0.056400936
83	0xbdb35abd	-0.08757541
84	0x3d72d072	0.05928082
85	0x3e49cad0	0.19706273
86	0xbd53d1a4	-0.0517136
87	0xbea78ef0	-0.3272624
88	0x3d9b28af	0.07576119
89	0xbe9a285f	-0.30108926
90	0xbdf9f9b9	-0.12205834
91	0x3d5b9e5e	0.053617828
92	0x3d0c0dd2	0.034192868
93	0x3cddf0bd	0.027092332
94	0xbe514417	-0.2043613
95	0xbe394c52	-0.1809552
96	0x3d967a0f	0.073474996
97	0xbe7e02c1	-0.24805738
98	0x3dcad9d5	0.099048294
99	0xbe7ee0e1	-0.24890472
100	0x3d2b819b	0.04187165
101	0xbef39ba6	-0.47579688
102	0xbe9cef5c	-0.30651367
103	0x3de28319	0.11060161
104	0xbcac7362	-0.021051113
105	0x3dc4bfe7	0.09606915
106	0x3dab92d4	0.083776146
107	0xbd906365	-0.07050208
108	0x3c9158c7	0.017742528
109	0xbb8ded61	-0.0043312763
110	0x3dbff162	0.09372212
111	0xbca6daed	-0.020368064
112	0xbe802cdc	-0.25034225
113	0x3d75f22d	0.06004541
114	0xbe91dae8	-0.28487325
115	0xbe6d799d	-0.23190923
116	0xbd098bd1	-0.033580605
117	0xbeb7bef7	-0.35887882
118	0xbe9bb753	-0.30413303
119	0xbe996bda	-0.29965097
120	0xbeb15794	-0.3463713
121	0xbe253d3b	-0.16136639
122	0x3d14cdcd	0.03632908
123	0x3d3dc476	0.046329938
124	0xbe417ffd	-0.1889648
125	0xbdd9aa15	-0.10628144
126	0xbded982a	-0.116012886
127	0xbee0e304	-0.439232

conv.11.running_mean f4 [128]
0	0x4008b94d	2.1363099
1	0xc038cde1	-2.8875659
2	0xbfe0a668	-1.7550783
3	0xbf0921a7	-0.53566974
4	0xbd502e1a	-0.050825216
5	0x3c2d61f0	0.010582432
6	0xc06f9e85	-3.7440503
7	0x3b2805a0	0.0025638118
8	0x404eb47b	3.2297657
9	0x3ec6678b	0.38750872
10	0x3ee25c87	0.44211218
11	0x3eaf7d57	0.34275314
12	0xc035c00d	-2.8398468
13	0xbfaeb380	-1.3648529
14	0xbfca2609	-1.5792857
15	0x3e1ca491	0.15297152
16	0x40142558	2.3147793
17	0x3dfa10ec	0.12210259
18	0xbf0747fc	-0.52844214
19	0xbff40027	-1.9062546
20	0xbf3ebe02	-0.7450868
21	0x3f1bd643	0.6087381
22	0xc026fd84	-2.6092234
23	0x40048df2	2.0711637
24	0x3e8d0d07	0.27549002
25	0xbfb3cb7d	-1.4046475
26	0xc020b7a8	-2.5112095
27	0x4013c80b	2.3090847
28	0x3f9d2dd5	1.2279612
29	0xc013f92e	-2.3120837
30	0x3f98f550	1.1949863
31	0x3fbf4f9e	1.4946172
32	0xbf0343a3	-0.5127508
33	0x3eb2bb97	0.34908745
34	0x3dea1446	0.11429648
35	0x3f43c558	0.76473
36	0x4008be84	2.1366282
37	0xbf385df9	-0.7201839
38	0xbfdfaf6c	-1.747541
39	0x404584d3	3.086232
40	0x4034d2d0	2.825367
41	0xbe3e181c	-0.18563884
42	0xbf0f1f26	-0.55906904
43	0xbc9a96df	-0.018870769
44	0xc0283b3d	-2.6286156
45	0xbf9efef4	-1.2421556
46	0xbf7f1bb4	-0.99651647
47	0x3eb8f1de	0.3612203
48	0x401dfc05	2.468507
49	0xbeea44fe	-0.45755762
50	0x4044b681	3.0736392
51	0x40206f62	2.5067983
52	0x3ec6cd7e	0.38828653
53	0x3fc4aca3	1.5365185
54	0xbff2b832	-1.8962462
55	0x3f354bd4	0.7081883
56	0xbf0260a6	-0.50928724
57	0xc01df49c	-2.4680548
58	0xbfe211e5	-1.7661711
59	0xc040a891	-3.0102885
60	0xbf2488b3	-0.64271086
61	0x3fef689d	1.87038
62	0x3da20040	0.07910204
63	0x3eecaaad	0.46223965
64	0xbfae4f29	-1.3617908
65	0xc01ca53b	-2.4475849
66	0xc050567e	-3.255279
67	0xbf36314e	-0.71168983
68	0xc002bf81	-2.0429385
69	0x3fd89d45	1.6922995
70	0xbf031892	-0.51209366
71	0x3e75aa53	0.23990755
72	0xbff21ed4	-1.8915658
73	0x40150a98	2.3287716
74	0x3fea3c77	1.8299702
75	0x3f95e0f4	1.1709275
76	0x4034d965	2.8257687
77	0x40206cf9	2.5066512
78	0xbef75928	-0.48310208
79	0x3ebdd020	0.3707285
80	0x3f8bd563	1.0924495
81	0xc0649baa	-3.572001
82	0xbd4c2186	-0.049836658
83	0xbe3c3034	-0.18377763
84	0xbed90855	-0.4238917
85	0xbf174491	-0.59089
86	0x3f5a35ed	0.85238534
87	0xbfa56653	-1.2921852
88	0x3f923fa5	1.1425673
89	0xc015f3dd	-2.3430092
90	0xc08295f1	-4.0808034
91	0xbf1bb4b9	-0.60822636
92	0xbf9628b3	-1.173117
93	0x3e5a7b2d	0.2133605
94	0xbedd0f65	-0.43175808
95	0xc02a30a9	-2.65922
96	0x4003cd65	2.0594113
97	0xc01fb124	-2.4951868
98	0xbf3fbef0	-0.7490072
99	0xbf74462d	-0.9541958
100	0x3f3c810b	0.73634404
101	0x3e8896ea	0.26677638
102	0xbdca7058	-0.09884709
103	0xbe617dc9	-0.2202064
104	0x3fd79417	1.6842068
105	0x3f239d06	0.63911474
106	0xbfa483e9	-1.2852756
107	0x402a57b7	2.6616037
108	0x3fb331c2	1.399956
109	0x4062c2ce	3.54314
110	0x3f895a87	1.0730752
111	0xbee82e85	-0.45347992
112	0xbfb199f7	-1.3875111
113	0xbf052fa5	-0.52025825
114	0xc0028916	-2.039617
115	0xbf24466e	-0.6416997
116	0x3e7d3cea	0.24730268
117	0xbeff403f	-0.49853703
118	0xbf25e014	-0.6479504
119	0xbf75ebbc	-0.9606283
120	0xc01a9c2b	-2.4157817
121	0x3f712783	0.94200915
122	0x3f15a9bf	0.58462137
123	0xbef7d167	-0.4840195
124	0x3e8ba9c9	0.27277973
125	0xc085fed0	-4.187355
126	0xbf24fc12	-0.6444713
127	0xbed0efb7	-0.40807888

conv.11.running_var f4 [128]
0	0x409191a5	4.549029
1	0x410ef05e	8.933683
2	0x4049e7a4	3.1547632
3	0x406a4715	3.6605885
4	0x404eae3c	3.2293844
5	0x408c926e	4.3928747
6	0x412302cf	10.188186
7	0x409e4ce1	4.9468846
8	0x4181310c	16.148949
9	0x403cd116	2.9502616
10	0x40962a8a	4.6926928
11	0x4089caff	4.30603
12	0x409f9bb6	4.9877577
13	0x4062a5c5	3.5413678
14	0x405ded01	3.4675906
15	0x4075fc2c	3.8435163
16	0x41013f62	8.077974
17	0x40c9e3a2	6.309037
18	0x40316285	2.7716382
19	0x410a631f	8.6491995
20	0x4058cae6	3.387384
21	0x40988707	4.766483
22	0x40fae7e7	7.8408084
23	0x4048b26f	3.1358907
24	0x4093e55f	4.6217494
25	0x40875c90	4.230049
26	0x410d7ec9	8.843453
27	0x416e563f	14.896056
28	0x40545f97	3.3183343
29	0x40ed0a2c	7.4074917
30	0x403b753d	2.9290307
31	0x404faec9	3.245043
32	0x4089b966	4.3038816
33	0x408f2f71	4.474541
34	0x40737988	3.8042927
35	0x404f27e6	3.2368102
36	0x4079c5a3	3.9026878
37	0x40c5fa73	6.1868224
38	0x408e972b	4.455953
39	0x416878c3	14.529483
40	0x41ae31da	21.774342
41	0x4048235f	3.1271589
42	0x3fd5ec44	1.6712728
43	0x407c3a90	3.9410744
44	0x40c66a8e	6.200507
45	0x405839e4	3.3785334
46	0x409b4d64	4.853197
47	0x401b7f9b	2.4296634
48	0x412a3bc5	10.639592
49	0x409b6c2e	4.8569555
50	0x414a6eda	12.652063
51	0x40d21522	6.5650797
52	0x40903701	4.5067143
53	0x401effa4	2.484353
54	0x40a57460	5.170456
55	0x40b2bb9d	5.585402
56	0x412d49fd	10.830564
57	0x410989bd	8.5961275
58	0x40cd995b	6.42497
59	0x403aa8d9	2.9165556
60	0x40b527c4	5.661104
61	0x404ecc13	3.2312057
62	0x40184e11	2.3797648
63	0x40a7e59f	5.24678
64	0x40e392cd	7.11167
65	0x4097c603	4.7429214
66	0x412331f1	10.199693
67	0x40e4db04	7.1517353
68	0x40afefa9	5.4980054
69	0x407aa2ad	3.916179
70	0x4128fe74	10.562122
71	0x4103265d	8.196866
72	0x4079ff87	3.9062212
73	0x4052e7e2	3.295403
74	0x4122cc45	10.1748705
75	0x408adb95	4.3393044
76	0x41704836	15.01763
77	0x4057ec73	3.3738067
78	0x3fcbee9b	1.5932192
79	0x409a42bb	4.820646
80	0x4086d587	4.2135653
81	0x40fa7688	7.826969
82	0x40782368	3.877161
83	0x40b8031d	5.75038
84	0x4081f080	4.060608
85	0x4098ca3a	4.774686
86	0x40fa9e00	7.831787
87	0x410e3450	8.887772
88	0x409fbb95	4.991648
89	0x40c24c49	6.071812
90	0x413c1326	11.754675
91	0x40811c61	4.034714
92	0x401253c2	2.2863622
93	0x409526c0	4.66098
94	0x40fdb248	7.928013
95	0x407a0094	3.9062853
96	0x41021889	8.13099
97	0x40568de0	3.3524094
98	0x41573540	13.4505005
99	0x40e509d8	7.1574516
100	0x4010606e	2.2558856
101	0x40b85d4c	5.761389
102	0x40428f08	3.03998
103	0x407694ba	3.8528275
104	0x4020b974	2.5113192
105	0x404e4c71	3.2234156
106	0x403fc1fa	2.9962144
107	0x412f3c77	10.952262
108	0x40c9b06c	6.302786
109	0x411734ed	9.450421
110	0x40667830	3.6010857
111	0x408c1e6e	4.3787146
112	0x40827016	4.0761824
113	0x40d3daec	6.620474
114	0x4077f34c	3.8742247
115	0x40485508	3.13019
116	0x404247e7	3.0356386
117	0x4051690a	3.272036
118	0x40a4769e	5.1394796
119	0x403cb361	2.9484484
120	0x410643c8	8.391548
121	0x40a93e16	5.288829
122	0x403903d7	2.8908594
123	0x409d1936	4.9093275
124	0x40e4d682	7.151185
125	0x410a7dfb	8.655757
126	0x40e4f116	7.1544294
127	0x402b1557	2.6731775
