output/electricity_cnn_20260221_204822/checkpoints/epoch_30.pt (torch, 174824 bytes, 21 tensors)

conv.0.weight f4 [32, 14, 3]
0	0xbdf78a2e	-0.120869026
1	0xbd08fdfb	-0.03344534
2	0xba8a9efe	-0.0010575948
3	0xbc4ec72c	-0.012620728
4	0x3dd0895e	0.10182451
5	0xbd8e0312	-0.06934179
6	0xbdbb1ec8	-0.091367304
7	0x3ddbd7db	0.107345305
8	0xbdabba47	-0.08385139
9	0x3cd762e3	0.02629227
10	0xbdc2ec11	-0.09517682
11	0x3bd191c4	0.0063955504
12	0x3cfffc07	0.031248106
13	0x3c940d61	0.018072786
14	0xbc8d8cb3	-0.017279005
15	0x3cdeabe5	0.027181575
16	0x3d29face	0.04149895
17	0xbda9fd0a	-0.083002165
18	0x3cc9f40a	0.0246525
19	0x3e0be748	0.13662446
20	0xbae3794b	-0.0017354874
21	0x3cf3ef10	0.02977708
22	0xbd04d683	-0.032431137
23	0x3cb8757d	0.02251696
24	0x3ed79be9	0.42111138
25	0x3eae6b20	0.34066105
26	0x3f01c309	0.50688225
27	0xbf3e6d3c	-0.7438543
28	0xbf4d1734	-0.8011353
29	0xbf5a88a4	-0.8536475
30	0xbe6240ed	-0.2209508
31	0xbe7bbada	-0.24582997
32	0xbe2f0c15	-0.17094453
33	0xbd828354	-0.06372705
34	0x3d2360e0	0.03988731
35	0xbd89c5a6	-0.067271516
36	0xbdd60aa6	-0.1045125
37	0x3deed2a4	0.1166127
38	0x389841d2	7.260185e-05
39	0xbd43dfdc	-0.04782091
40	0x3bc6aac9	0.0060628396
41	0x3d75e8d5	0.0600365
42	0xbe5eba42	-0.21750739
43	0x3d93e136	0.0722069
44	0x3d209bdf	0.03921115
45	0x3de55014	0.11196914
46	0x3d55bd3d	0.052182425
47	0x3d05e202	0.03268624
48	0xbe14ffdf	-0.14550732
49	0xbd21285b	-0.039345127
50	0xbd3b37e0	-0.045707583
51	0x3e50b556	0.20381674
52	0x3e21c3ae	0.15797302
53	0xbe6dea1c	-0.23233837
54	0x3cea19b6	0.028576713
55	0x3ce1c410	0.02755931
56	0x3e13b264	0.1442352
57	0x3d8fa1d9	0.07013292
58	0x3d945ad5	0.07243887
59	0xbd5403e9	-0.05176154
60	0xbbcd036a	-0.0062565105
61	0x3c8a1576	0.016855936
62	0x3e0b0466	0.13575897
63	0xbd880929	-0.06642372
64	0xbe51222a	-0.20423189
65	0x3e0d15cf	0.1377785
66	0xbe311c75	-0.17296012
67	0xbbddb377	-0.0067657786
68	0x3ac166a9	0.0014755327
69	0x3e4cc968	0.19998705
70	0x3e690802	0.22756961
71	0x3ebdfe29	0.3710797
72	0xbeaddb14	-0.33956206
73	0xbedaec69	-0.42758492
74	0xbeb39523	-0.3507472
75	0x3d2b6f0b	0.041853946
76	0x3e12893c	0.14310163
77	0xbe543271	-0.20722367
78	0x3d9ce411	0.07660688
79	0xbd48b0d9	-0.04899678
80	0x3cac0ffc	0.021003716
81	0x3cd85e6b	0.02641221
82	0xbd989e1d	-0.07452033
83	0x3de207c9	0.11036641
84	0x3dd23648	0.102642596
85	0x3e213917	0.15744434
86	0xbe78c80e	-0.24295065
87	0x3d5edda3	0.054410588
88	0x3d914106	0.0709248
89	0x3dae1310	0.0849973
90	0xbc76f222	-0.015072377
91	0x3d2de462	0.04245413
92	0xbe4d77f1	-0.20065285
93	0xbdd4aa6f	-0.1038407
94	0x3e1e8c8f	0.15483306
95	0xbcf30628	-0.029666021
96	0x3dfddd40	0.12395716
97	0xbd167d3c	-0.036740527
98	0xbc0197d9	-0.007909738
99	0x3d286d66	0.041119955
100	0x3d4696df	0.048483726
101	0xbca5b825	-0.020229409
102	0x3da9d8b9	0.0829329
103	0x3dfaa5c2	0.12238647
104	0xbd72b9f1	-0.05925936
105	0xbd0dd61e	-0.034628026
106	0x3d94d65a	0.07267447
107	0xbe289909	-0.16464628
108	0xbf52697e	-0.8219222
109	0xbf14e068	-0.58154917
110	0xbf42a41e	-0.7603167
111	0x3b89f57c	0.004210172
112	0x3e5f9893	0.21835546
113	0x3e9aef74	0.30260813
114	0x3e1d2062	0.15344384
115	0x3cc7d6f1	0.024394484
116	0x3e844539	0.25834063
117	0x3c192ddc	0.009349313
118	0x3c524b4e	0.012835337
119	0x3c6afe74	0.014342893
120	0xbd1f396a	-0.038873114
121	0x3e175772	0.14779451
122	0xbddaf3ce	-0.10691033
123	0xbdac13a7	-0.08402186
124	0xbcc304ba	-0.023805965
125	0x3e036a33	0.1283348
126	0x3e66947b	0.22517578
127	0x3c2e62b9	0.0106436545
128	0xbdd7d1be	-0.10538052
129	0xbdfe0078	-0.12402433
130	0x3ca80427	0.020509792
131	0xbc08f3c2	-0.008358898
132	0xbcfd8a57	-0.030949755
133	0x3cb158b8	0.02164875
134	0xbdfedf06	-0.12444882
135	0x3e1ce157	0.15320335
136	0x3d8a58e6	0.06755237
137	0x3d0bb826	0.034111165
138	0x3d6beb57	0.057597484
139	0x3ce2d156	0.02768771
140	0xbd7f4ef0	-0.06233114
141	0x3d26ab89	0.040690932
142	0x3d855c61	0.065117605
143	0xbb9eda43	-0.004847796
144	0xbc8fe932	-0.01756725
145	0x3dc6fbf1	0.09716023
146	0xbe69beb5	-0.22826655
147	0xbb4c6cc4	-0.003119276
148	0xbe98009a	-0.2968796
149	0x3ba0c701	0.0049065356
150	0x3e3e9309	0.18610777
151	0x3e8671e6	0.26258773
152	0x3e9c25ed	0.30497685
153	0x3d498266	0.049196623
154	0x3e093f17	0.13402973
155	0x3e81afc7	0.2532942
156	0x3e9229c2	0.28547484
157	0x3ea1d6c9	0.3160918
158	0x3e9dea34	0.30842745
159	0x3eb248e2	0.3482123
160	0x3dd05033	0.10171547
161	0x3d94b187	0.07260423
162	0x3dce7248	0.10080391
163	0xbd82633a	-0.06366582
164	0xbd333de6	-0.043760203
165	0x3d267c46	0.04064586
166	0x3de9c56c	0.11414608
167	0x3e0a3770	0.1349771
168	0x3e0ccb76	0.13749489
169	0xbd40fbb9	-0.04711506
170	0xbd8de0bf	-0.069276325
171	0x3c23ffe1	0.010009737
172	0xbd8d10af	-0.06887948
173	0xbca8f0a5	-0.02062256
174	0x3d8c986e	0.06865011
175	0x3d190a54	0.037363365
176	0x3c2aa144	0.010414425
177	0x3d617ad8	0.055048794
178	0x3d27881a	0.04090128
179	0xbd8bf4c3	-0.06833794
180	0xbc89aa57	-0.016804857
181	0xbc901fde	-0.01759332
182	0xbd88af41	-0.06674052
183	0xbcf54137	-0.029938323
184	0xbd2b36e7	-0.041800406
185	0xbd0bb07d	-0.03410386
186	0x3baa15cd	0.005190587
187	0x3b894256	0.004188816
188	0xbd451dcc	-0.04812412
189	0x3d96657f	0.073435776
190	0x3d8a9891	0.06767381
191	0x3d6a245d	0.057163585
192	0x3f009026	0.50219953
193	0x3f0e10da	0.55494463
194	0x3f1c0b48	0.60954714
195	0xbd83eea2	-0.06442
196	0x3e165338	0.14680183
197	0x3e41d485	0.18928726
198	0x3e4b4df7	0.1985396
199	0x3e9a49bd	0.30134383
200	0x3ea2ed52	0.31821686
201	0x3da6e4ad	0.08149085
202	0x3dcb4d02	0.099267974
203	0xbcf47ec2	-0.0298456
204	0x3ccc08c8	0.024906531
205	0xb98fee0a	-0.00027452438
206	0xbcce2003	-0.025161749
207	0xbd9842f9	-0.07434649
208	0x3c630a5d	0.013857451
209	0x3cc46ec3	0.023978597
210	0xbc32cf82	-0.0109137315
211	0x3db2f1c0	0.087375164
212	0xbdb62577	-0.088938646
213	0x3e1738ec	0.14767808
214	0xbde2a9ca	-0.11067541
215	0x3dcef1f4	0.10104743
216	0xbd0f4727	-0.034979966
217	0xbda60caf	-0.08107888
218	0xbdd04ab6	-0.101705
219	0xbe1356ad	-0.14388533
220	0x3d6cfdf8	0.05785939
221	0xbdc18e22	-0.09450938
222	0xbca5b044	-0.020225652
223	0xbbeeb178	-0.0072843395
224	0x3c923abe	0.017850276
225	0xb89c230a	-7.445186e-05
226	0x3ce7154a	0.028208394
227	0x3d753727	0.05986705
228	0xbc367222	-0.01113561
229	0x3e617466	0.22017059
230	0xbe256f1d	-0.16155668
231	0x3e2ada00	0.16684723
232	0xbde0eb85	-0.10982422
233	0xbef2e30e	-0.47438854
234	0x3e1243cb	0.14283673
235	0x3e980ca8	0.29697156
236	0x3e270da1	0.16313793
237	0xbec07eed	-0.37596837
238	0xbef8498d	-0.48493615
239	0xbeee3bb8	-0.46529937
240	0x3ec419ee	0.38301033
241	0x3e197ac3	0.14988236
242	0x3eb4ae33	0.35289153
243	0x3e1ea221	0.15491535
244	0x3e11d332	0.14240721
245	0x3d066b73	0.032817315
246	0xbc458c08	-0.012057312
247	0x3d198c35	0.037487227
248	0x3d646e43	0.055769216
249	0x3da4371f	0.08018326
250	0x3b8cb2c6	0.0042937724
251	0xbe39edd2	-0.18157127
252	0xbe2f4dfd	-0.17119594
253	0xbe2accc2	-0.16679671
254	0x3e6acf07	0.22930537
255	0x3d02b8ad	0.0319144

conv.0.bias f4 [32]
0	0x3dd095b5	0.10184804
1	0x3c6ba780	0.014383197
2	0x3d0df12b	0.034653824
3	0x3e0ba0e8	0.136356
4	0x3e3c4800	0.18386841
5	0x3e1b77d8	0.15182436
6	0xbdb3cbca	-0.08779104
7	0x3d15befd	0.036559094
8	0x3d37f630	0.044912517
9	0x3dbf69c0	0.09346342
10	0x39c41754	0.00037401414
11	0x3dbdc12e	0.09265362
12	0xbdf81002	-0.12112428
13	0xbc119897	-0.008886478
14	0xbc88ec36	-0.016714197
15	0xbde1faca	-0.11034162
16	0xbd769ae4	-0.06020631
17	0x3d2cbb96	0.042171083
18	0x3e33fbe3	0.17576556
19	0x3dd8fc06	0.10594945
20	0x3dacd325	0.0843871
21	0x3e578233	0.21045761
22	0x3e611771	0.21981598
23	0xbe049803	-0.12948613
24	0x3e12b6d9	0.14327563
25	0x3d990bce	0.07472955
26	0x3d86cbbf	0.0658183
27	0x3e4a5e27	0.19762479
28	0xbd65db82	-0.056117542
29	0xbc4f6507	-0.012658364
30	0x3e10bf0e	0.14135382
31	0x3df6facc	0.120595545

conv.1.weight f4 [32]
0	0x3f927747	1.144265
1	0x3f3820ac	0.71924853
2	0x3f881b06	1.0633247
3	0x3f3f0091	0.7461024
4	0x3f608aa4	0.8771155
5	0x3f17e0e6	0.5932754
6	0x3f7f21bd	0.99660856
7	0x3f64f90f	0.89442533
8	0x3ede5df8	0.43431067
9	0x3f349479	0.7053905
10	0x3f77194d	0.9652298
11	0x3ef4a683	0.47783288
12	0x3f4a1066	0.7893127
13	0x3f22e963	0.6363737
14	0x3f3b4ee1	0.73167235
15	0x3f808c52	1.0042822
16	0x3f3ca337	0.73686546
17	0x3f918082	1.1367342
18	0x3f4d66eb	0.80235165
19	0x3f8da708	1.1066599
20	0x3f6dbd62	0.928671
21	0x3f5a6d18	0.85322714
22	0x3f49c0d3	0.7880985
23	0x3f90007b	1.1250147
24	0x3f648c0f	0.8927621
25	0x3fa6e7c1	1.3039476
26	0x3f610697	0.8790068
27	0x3f17dca4	0.59321046
28	0x3f6dc7fc	0.92883277
29	0x3f50bcfe	0.8153838
30	0x3f3dccbc	0.74140525
31	0x3f659322	0.8967763

conv.1.bias f4 [32]
0	0xbec341a4	-0.38136017
1	0xbeb6a712	-0.3567434
2	0xbe906fb8	-0.28210235
3	0xbe854529	-0.26029328
4	0xbecb6024	-0.39721787
5	0xbf09e033	-0.53857726
6	0xbeadfea1	-0.3398333
7	0xbe96378c	-0.29339254
8	0xbeb9ee1c	-0.36314476
9	0xbed5cd53	-0.41758212
10	0xbe77d3e5	-0.24201925
11	0xbeaa4590	-0.33256197
12	0xbedd001d	-0.4316415
13	0xbe982660	-0.29716778
14	0xbe83be78	-0.25731254
15	0xbe9f698e	-0.3113522
16	0xbeed4ef7	-0.46349308
17	0xbf0ce6c1	-0.550396
18	0xbec927e1	-0.39288238
19	0xbe80d2ef	-0.2516093
20	0xbebbe882	-0.36700827
21	0xbf2208ab	-0.63294476
22	0xbf2a10de	-0.6643199
23	0x3dfac2b2	0.122441664
24	0xbc897e04	-0.016783722
25	0xbe6cff91	-0.23144366
26	0xbe92896b	-0.28620467
27	0xbf078ee9	-0.5295244
28	0xbe9ea070	-0.3098178
29	0xbe68e60e	-0.22744009
30	0xbebca0b3	-0.36841354
31	0xbed95a51	-0.42451718

conv.1.running_mean f4 [32]
0	0x3d6ad6d5	0.057333786
1	0xbb0623a9	-0.0020468032
2	0x3c539ccb	0.0129158
3	0x3e315b50	0.17319989
4	0x3e7b1377	0.24519144
5	0x3e1d29eb	0.15348022
6	0xbdf3efe3	-0.11910989
7	0x3c30ed3a	0.010798747
8	0x3d3d0745	0.04614951
9	0x3d41423f	0.047182318
10	0xbd1a6611	-0.037694994
11	0x3e05e2cc	0.13074797
12	0xbe3e9d0c	-0.18614596
13	0xbd4fe3ce	-0.05075436
14	0xbd563293	-0.052294325
15	0xbe501603	-0.20320897
16	0xbdc5b31c	-0.09653303
17	0xbc07f40e	-0.008297933
18	0x3e004d6d	0.12529536
19	0x3d6e81da	0.058229305
20	0x3d3fa125	0.04678454
21	0x3e333b9f	0.17503212
22	0x3e5bf459	0.2147993
23	0xbd4fd758	-0.050742477
24	0x3ddaa48a	0.106759146
25	0x3d76605b	0.060150485
26	0x3ba692e5	0.005083429
27	0x3e48da6b	0.1961457
28	0xbdc03f0b	-0.093870245
29	0xbcdf2115	-0.027237454
30	0x3e1aa4ab	0.15101878
31	0x3d9cb712	0.076521054

conv.1.running_var f4 [32]
0	0x4077d065	3.8720944
1	0x3ff256e9	1.8932773
2	0x408cbb9f	4.397903
3	0x402bd2a9	2.6847327
4	0x408486d4	4.1414585
5	0x400c0bcd	2.1882203
6	0x409cce24	4.9001637
7	0x407f308b	3.9873378
8	0x3fbfd36f	1.49864
9	0x40e05093	7.0098357
10	0x40b6b560	5.7096405
11	0x408ccb7f	4.399841
12	0x411bea0d	9.744641
13	0x40a378d1	5.108498
14	0x408dd758	4.432537
15	0x413464f6	11.274649
16	0x40764562	3.8479848
17	0x407bddd6	3.9354148
18	0x4115eb22	9.369905
19	0x4118d6c0	9.552429
20	0x40b06acb	5.5130363
21	0x40830536	4.094386
22	0x3f8cf14b	1.1011137
23	0x41416834	12.08794
24	0x40f3d0ad	7.619223
25	0x40a5f575	5.186213
26	0x410c973c	8.786922
27	0x400a1b0b	2.1579006
28	0x40ad1a24	5.409441
29	0x400018a3	2.0015037
30	0x3f59eb11	0.8512431
31	0x4086ac1b	4.208509

conv.5.weight f4 [64, 32, 3]
0	0x3d4fc07b	0.050720673
1	0x3e0b58e5	0.1360813
2	0xbd713909	-0.058892284
3	0xbe0399cc	-0.12851638
4	0xbe245265	-0.16047056
5	0xbcfb720f	-0.030694036
6	0xbe4f8681	-0.20266153
7	0xbe41c9a1	-0.18924572
8	0xbdf59ed0	-0.11993182
9	0xbd2528e1	-0.04032219
10	0xbcc9f31c	-0.024652056
11	0x3c5d3c5c	0.01350316
12	0xbd05e08e	-0.032684855
13	0x3e0caa0f	0.13736747
14	0xbe32bba1	-0.17454387
15	0x3bfb5d1a	0.0076710107
16	0x3e49fb86	0.19724855
17	0xbc535adc	-0.0129000805
18	0xbc825370	-0.015908927
19	0x3e03f37d	0.12885852
20	0x3c9753c2	0.018472556
21	0x3df33408	0.118751585
22	0xbdf4539d	-0.119300105
23	0xbd551ae6	-0.052027605
24	0xbd8b24d4	-0.06794134
25	0xbccd41ec	-0.025055848
26	0x3cfd0939	0.030888187
27	0xbc83a418	-0.016069457
28	0x3d022ca8	0.03178087
29	0x3da8a152	0.082338944
30	0xbe105ef8	-0.14098728
31	0xbdb003bd	-0.08594463
32	0xbd5da204	-0.05410959
33	0xbd71ed6c	-0.059064314
34	0xbc5071d7	-0.012722454
35	0xbcae7944	-0.021298058
36	0x3c0d2c66	0.008616542
37	0x3d59e39d	0.053195585
38	0x3e1e7404	0.15473944
39	0x3b12ba8e	0.0022389027
40	0x3d1ef59f	0.03880846
41	0x3c927033	0.017875766
42	0x3d3a707a	0.045517422
43	0x3d4c6d3c	0.04990886
44	0xbd767180	-0.060166836
45	0x3e1e1d5e	0.1544089
46	0x3e0ccfe8	0.13751185
47	0x3e5f262e	0.21791908
48	0xbd955d02	-0.072931305
49	0xbe0049ac	-0.12528104
50	0xbb1e947d	-0.0024197393
51	0x3dfeb57a	0.12436958
52	0x3da93722	0.08262469
53	0xbdb831e8	-0.08993894
54	0x3ddd6e12	0.1081201
55	0xbba8d88e	-0.0051527685
56	0xbd3de948	-0.046365052
57	0x3ce617ba	0.028087486
58	0xbc2ea670	-0.010659799
59	0xbe186ff6	-0.1488646
60	0x3eabd2c2	0.33559233
61	0x3e71ad61	0.23601295
62	0x3ea1cd5d	0.31601992
63	0xbe2b9a62	-0.16758111
64	0xbe7dc3b1	-0.24781682
65	0xbef7057f	-0.4824638
66	0xbcf3579a	-0.029704858
67	0x3edb45ed	0.42826787
68	0xbe2ba929	-0.16763748
69	0xbd656b17	-0.056010332
70	0xbc91dcb0	-0.017805427
71	0xbd18a574	-0.037267163
72	0xbcb3ea5d	-0.021962339
73	0xbd2398af	-0.039940532
74	0xbe487e47	-0.19579421
75	0xbe9d3705	-0.3070604
76	0xbe62d6f5	-0.22152312
77	0xbeb35504	-0.350258
78	0x3d8f31c6	0.069919154
79	0x3e9a519a	0.30140382
80	0xbe8f5e7d	-0.28001776
81	0x3dcd694b	0.10029849
82	0x3e4947be	0.19656274
83	0x3d8cc035	0.06872598
84	0x3e4ef395	0.20210107
85	0x3dc62400	0.09674835
86	0x3df5d568	0.12003595
87	0xbe6c4f30	-0.23077083
88	0xbe6649c0	-0.22489071
89	0x3d26490b	0.040597003
90	0xbbac3835	-0.005255724
91	0x3e4a606a	0.19763342
92	0xbe426dcc	-0.18987197
93	0xbd954105	-0.07287792
94	0xbe20067b	-0.15627472
95	0xbe2af708	-0.16695797
96	0xbd97ddf8	-0.07415384
97	0xbc809e18	-0.015700385
98	0xbdaa374b	-0.083113275
99	0x3d963682	0.07334615
100	0x3d789306	0.060687087
101	0x3c1d52f7	0.0096023
102	0x3e54b6d0	0.20772862
103	0x3e82df9c	0.25561225
104	0x3ebd2223	0.36940107
105	0x3d926a1f	0.07149147
106	0xbb43e2f5	-0.0029889916
107	0x3e607697	0.21920238
108	0x3e8d7a02	0.27632147
109	0x3d35b337	0.044360366
110	0x3e47cc4d	0.19511528
111	0x3c1b3a99	0.00947442
112	0xba91e6e8	-0.0011131437
113	0x3defa207	0.11700826
114	0xbcc17473	-0.023615098
115	0x3e11133f	0.14167498
116	0x3e09736f	0.1342294
117	0x3e29fa00	0.16599274
118	0xbbe5efdf	-0.0070171203
119	0x3e342022	0.17590383
120	0xbe035880	-0.12826729
121	0xbd8f9718	-0.07011241
122	0x3d56eeee	0.052473955
123	0xbd6195dc	-0.055074558
124	0xbd07555a	-0.033040382
125	0xbc96bf30	-0.018401712
126	0xbddb05d0	-0.10694468
127	0xbda31ae6	-0.07964115
128	0xbd036b0c	-0.03208451
129	0xbd6f12bd	-0.05836748
130	0x3d82c4ab	0.06385168
131	0x3d098d4b	0.033582013
132	0xbe2187ab	-0.1577441
133	0xbe5c53a0	-0.21516275
134	0xbdaa64d8	-0.08320016
135	0xbd8fa481	-0.070137985
136	0xbdaa21fd	-0.08307264
137	0x3d2361ab	0.039888065
138	0x3b980d2f	0.0046402435
139	0x3dbf3138	0.093355596
140	0x3cfb144f	0.030649332
141	0xbe15ab16	-0.14616045
142	0xbd8ed405	-0.06974033
143	0xbdb08f83	-0.08621123
144	0xbe144296	-0.14478526
145	0xbe16b6c4	-0.14718157
146	0xbe1571de	-0.14594218
147	0xbcf00433	-0.029298877
148	0x3c2e40b5	0.010635545
149	0x3ceb1529	0.028696613
150	0xbd289c62	-0.041164763
151	0x3e13a1f5	0.1441725
152	0x3db1c579	0.08680243
153	0x3d318873	0.04334302
154	0x3dee39d3	0.11632123
155	0x3d974e9c	0.073880404
156	0x3b6bb8e1	0.003596835
157	0x3d65f56b	0.056142252
158	0x3d71f49d	0.059071172
159	0xbd4f89b2	-0.050668426
160	0x3c89b859	0.016811537
161	0xbda68aee	-0.081319675
162	0xbc8833be	-0.016626235
163	0x3dbdc0e8	0.092653096
164	0x3e60808d	0.21924038
165	0x3d4d3b56	0.050105415
166	0x3ddc0c74	0.10744563
167	0x3b9f03b7	0.0048527378
168	0xbb7f83a7	-0.0038988383
169	0x3d434806	0.04767611
170	0x3e01aa0e	0.12662527
171	0x3ed6b677	0.41936085
172	0x3e9dc79c	0.30816352
173	0x3f8c961d	1.0983311
174	0xbdf1e1ca	-0.11810644
175	0x3e05fede	0.13085505
176	0xbd5821a7	-0.05276647
177	0xbc85da69	-0.016339498
178	0x3d6c762a	0.057729878
179	0x3d88801e	0.066650614
180	0xbce6bec4	-0.028167136
181	0x3e1aee3a	0.15129939
182	0x3dc5131f	0.09622788
183	0xbd8884e5	-0.066659726
184	0xb8e52d02	-0.00010927954
185	0x3c0221e1	0.007942648
186	0xbcd4ca81	-0.025975468
187	0x3e3ee2cb	0.18641202
188	0x3e2caa89	0.16861929
189	0x3d7b5b0b	0.061366122
190	0x3d78702b	0.060653847
191	0x3dc99545	0.09842924
192	0xbd3423d9	-0.0439795
193	0xbd91367e	-0.07090472
194	0x3e0bbff1	0.13647439
195	0x3d93542b	0.07193788
196	0xbc0217e2	-0.007940264
197	0xbd25df6c	-0.040496275
198	0x3dfeba94	0.12437931
199	0x3e3238a7	0.17404424
200	0x3ec22379	0.37917688
201	0x3d898f6a	0.06716807
202	0xbd830f23	-0.063993715
203	0xbdcf8bf0	-0.10134113
204	0xbdbfd075	-0.09365932
205	0xbdd1de0e	-0.10247432
206	0xbdc6597b	-0.09685036
207	0xbd69f4a2	-0.057118066
208	0xbd1f5dd8	-0.038907856
209	0xbd8dbee6	-0.069211766
210	0xbf00bf4f	-0.50291914
211	0xbed3df90	-0.41381502
212	0xbec5ab3e	-0.3860721
213	0x3d416c15	0.047222216
214	0xbdc80989	-0.09767444
215	0xbd7126c8	-0.058874875
216	0xbccb108d	-0.024788165
217	0xbe12dc02	-0.14341739
218	0xbd85d789	-0.06535251
219	0x3d5ae196	0.05343779
220	0xbdb45fa7	-0.08807307
221	0x3e160ae1	0.14652587
222	0xbe5b9c82	-0.21446422
223	0xbd7c529b	-0.061602216
224	0xbe259d7a	-0.16173354
225	0x3d8ce4cf	0.06879579
226	0xbe0a5fa4	-0.13513047
227	0x3d9b517a	0.075839
228	0xbd570a13	-0.052499842
229	0xbe05f6bc	-0.13082403
230	0xbe279a07	-0.1636735
231	0x3dc4c762	0.09608342
232	0xbdb4fffd	-0.088378884
233	0xbe1ac469	-0.15113987
234	0xbd7792d8	-0.060442775
235	0xbe25236f	-0.16126798
236	0xbe4746aa	-0.1946055
237	0xbe6ee643	-0.23330025
238	0xbe7c1389	-0.24616827
239	0xbdbe759d	-0.09299777
240	0xbe1aef76	-0.1513041
241	0xbb0bfce6	-0.0021360456
242	0x3dc444d8	0.095834434
243	0xbdd6eff9	-0.1049499
244	0x3d3eaa74	0.046549276
245	0xbd4ca9a9	-0.049966488
246	0x3dfdcb2a	0.12392266
247	0x3e0c71dc	0.13715309
248	0x3e313771	0.17306305
249	0xbf0da307	-0.55326885
250	0xbf20ac7e	-0.627632
251	0xbf093b09	-0.53605705
252	0x3d171914	0.03688915
253	0x3d8456e3	0.06461885
254	0x3cf09f39	0.029372798
255	0x3e7bd490	0.24592805

conv.5.bias f4 [64]
0	0xbc432fa7	-0.011913217
1	0x3e1225c9	0.14272226
2	0xbd9569e4	-0.07295588
3	0x3d9aeb39	0.075643964
4	0xbe1534dd	-0.14570947
5	0x3db9032e	0.090338096
6	0x3cdcf60e	0.026972797
7	0xbd16f965	-0.036858935
8	0x3d729142	0.05922056
9	0xbd4127e0	-0.04715717
10	0xbd8cfcf8	-0.068841875
11	0xbc9aae72	-0.01888201
12	0xbd046d43	-0.032330763
13	0xbd493590	-0.049123347
14	0xbd52965f	-0.051412936
15	0x3dbf1fc3	0.0933223
16	0x3e098c4c	0.13432425
17	0x3ab18834	0.001354462
18	0xbce42226	-0.027848314
19	0x3d1185dd	0.035528053
20	0x3c707fa8	0.014678873
21	0xbcd4bcc6	-0.02596892
22	0x3d4f101e	0.05055248
23	0xbd82e768	-0.063917935
24	0x3d6278ed	0.055291105
25	0xbd894263	-0.067021154
26	0xbcbb3db6	-0.022856575
27	0x3db21cc7	0.08696895
28	0xbd57a240	-0.052644968
29	0xbaab6fd2	-0.001307959
30	0x3d5b18a1	0.053490285
31	0x3db8b5ae	0.09019028
32	0x3d78beda	0.060728885
33	0x3d723c00	0.05913925
34	0xbc640178	-0.013916366
35	0x3b634346	0.003467755
36	0xbd1be40f	-0.03805929
37	0xbd5ef465	-0.05443229
38	0x3dca1fe1	0.09869362
39	0x3d8d33ca	0.068946436
40	0xbc8a0f27	-0.016852928
41	0xbd468ddb	-0.048475128
42	0x3cd897aa	0.026439507
43	0x3d9512cc	0.07278976
44	0xbdbdc144	-0.09265378
45	0x3dcec953	0.10096993
46	0xbd858802	-0.06520082
47	0xbcce97ad	-0.025218809
48	0xbcbdb5b6	-0.023157936
49	0x3d116f64	0.03550662
50	0xbd70dd17	-0.058804598
51	0x3da16b3c	0.078817815
52	0xbd9e2f7d	-0.077239014
53	0x3c18bc1d	0.009322193
54	0x3d91eb50	0.071249604
55	0x3d57a20e	0.05264478
56	0xbaa18aad	-0.0012324654
57	0xbca8d33c	-0.020608537
58	0x3d03485f	0.03205144
59	0x3d8166e4	0.06318453
60	0xbd2bb309	-0.041918788
61	0x3bfbd5c5	0.0076853954
62	0xbbf9e0c2	-0.00762567
63	0x3cdcd50a	0.026957054

conv.6.weight f4 [64]
0	0x3f84d62a	1.0377858
1	0x3f89db7a	1.0770104
2	0x3f873f6a	1.0566227
3	0x3f633d44	0.8876536
4	0x3f6e9b1a	0.93205416
5	0x3f5142bf	0.8174247
6	0x3f5405a2	0.82821095
7	0x3f8b1a36	1.0867374
8	0x3f87a315	1.0596644
9	0x3f7c9c70	0.98676205
10	0x3f7a5b94	0.9779599
11	0x3f5d8a84	0.86539483
12	0x3f42668b	0.7593772
13	0x3f69d4e1	0.9134045
14	0x3f7c243d	0.98492795
15	0x3f56dea0	0.8393345
16	0x3f8c9f52	1.0986121
17	0x3f877c3f	1.0584792
18	0x3f7c65a7	0.9859261
19	0x3f773b86	0.965752
20	0x3f81fe25	1.0155684
21	0x3f71a042	0.9438516
22	0x3f82c9dd	1.0217854
23	0x3f8b39c0	1.0876999
24	0x3f784a70	0.9698858
25	0x3f75c394	0.96001554
26	0x3f8941ac	1.0723166
27	0x3f94deb8	1.1630468
28	0x3f5aacac	0.85419726
29	0x3f6d8670	0.9278326
30	0x3f91b6eb	1.1383947
31	0x3f94912e	1.1606805
32	0x3f890db1	1.0707303
33	0x3f747d02	0.95503247
34	0x3f5abd27	0.85444874
35	0x3f7b7313	0.98222464
36	0x3f6c7f2e	0.9238156
37	0x3f423c45	0.75873214
38	0x3f80653f	1.0030898
39	0x3f6b824a	0.9199568
40	0x3f7fa9b2	0.9986831
41	0x3f83750f	1.0270098
42	0x3f78768a	0.97055876
43	0x3f544d55	0.829305
44	0x3f6ace61	0.9172116
45	0x3f482a74	0.7818978
46	0x3f58f711	0.84751993
47	0x3f9d633e	1.2295911
48	0x3f659a4f	0.8968858
49	0x3f7dc404	0.9912722
50	0x3f74917f	0.9553451
51	0x3f699a24	0.91250825
52	0x3f6419da	0.89101946
53	0x3f78341a	0.969545
54	0x3f70374b	0.9383437
55	0x3f56c878	0.8389964
56	0x3f6917a5	0.91051704
57	0x3f546759	0.82970196
58	0x3f8a8157	1.0820721
59	0x3f7a6f91	0.97826487
60	0x3f5f32d5	0.8718694
61	0x3f81b5df	1.0133628
62	0x3f6313f9	0.8870235
63	0x3f7edae2	0.9955274

conv.6.bias f4 [64]
0	0xbe35b33d	-0.17744155
1	0xbde79596	-0.11307828
2	0xbeb148a9	-0.34625748
3	0xbe9ae518	-0.3025291
4	0xbe05de25	-0.13073023
5	0xbe9e0982	-0.3086663
6	0xbeb6bdae	-0.3569159
7	0xbe28b6e9	-0.16476025
8	0xbe84f9cf	-0.2597184
9	0xbe5c551c	-0.21516842
10	0xbec80255	-0.3906428
11	0xbe86ba2d	-0.26313916
12	0xbf03721d	-0.51346
13	0xbcd88365	-0.026429841
14	0xbe83f075	-0.25769392
15	0xbea46a1d	-0.32112208
16	0xbe843b7a	-0.25826627
17	0xbe176e95	-0.14788277
18	0xbea4e254	-0.32203925
19	0xbde81446	-0.11331992
20	0xbe626f3b	-0.22112744
21	0xbea03b46	-0.31295222
22	0xbdcca5a8	-0.09992534
23	0xbe9489e4	-0.29011452
24	0xbdaeb208	-0.085300505
25	0xbe8522de	-0.26003164
26	0xbea6408b	-0.32471117
27	0xbe546869	-0.20742954
28	0xbec12227	-0.3772137
29	0xbe22e27a	-0.15906706
30	0xbd135a44	-0.035974756
31	0xbe01b912	-0.12668255
32	0xbefb6cfc	-0.49106586
33	0xbeab21f5	-0.33424345
34	0xbd86819c	-0.0656769
35	0xbe2f890b	-0.17142121
36	0xbe5613e6	-0.20906028
37	0xbe66ff94	-0.22558433
38	0xbeb04381	-0.344265
39	0xbec0e320	-0.37673283
40	0xbe924925	-0.2857143
41	0xbe054d8f	-0.13017868
42	0xbe610c8c	-0.21977443
43	0xbf394a5d	-0.72379094
44	0xbe41363c	-0.18868345
45	0xbe747075	-0.23871024
46	0xbeb8b10e	-0.36072582
47	0xbe27390b	-0.16330354
48	0xbea7f47c	-0.32803714
49	0xbef99e5b	-0.48753628
50	0xbe2f61ef	-0.17127202
51	0xbe82e6c3	-0.25566682
52	0xbe1c277b	-0.15249436
53	0xbe8ef946	-0.27924556
54	0xbf041a26	-0.516024
55	0xbea22864	-0.3167144
56	0xbe92ebc7	-0.2869551
57	0xbec98950	-0.39362574
58	0xbe295a2e	-0.16538307
59	0xbf09080f	-0.5352792
60	0xbe7c9789	-0.24667181
61	0xbec9b1c1	-0.39393428
62	0xbeb47e9d	-0.35252848
63	0xbe680eb6	-0.22661862

conv.6.running_mean f4 [64]
0	0xbeafdf6f	-0.34350154
1	0x3f898393	1.0743278
2	0xbf5528ed	-0.8326557
3	0x3f0e89b2	0.55678856
4	0xbf9b8d42	-1.2152483
5	0xbf063d7a	-0.52437556
6	0xbf8dd91c	-1.1081882
7	0xbe51d71f	-0.20492218
8	0xbf38550f	-0.7200479
9	0xbf425346	-0.75908315
10	0xbf24c6b0	-0.64365673
11	0xbfae2a09	-1.3606578
12	0x3f122f71	0.5710364
13	0x3ef9109b	0.4864548
14	0xbebc4101	-0.36768344
15	0xbf07f5d9	-0.5310951
16	0xbe3e9f56	-0.1861547
17	0xbc4508d1	-0.012026028
18	0xbf8b9d9f	-1.0907477
19	0x3ea9680a	0.33087188
20	0xbf74c259	-0.9560905
21	0xbf2a2212	-0.6645824
22	0xbfa4bb74	-1.2869706
23	0xbee5b9e0	-0.44868374
24	0xbebeb90a	-0.3725055
25	0xbf0bef22	-0.5466176
26	0xbfa7b1d7	-1.3101147
27	0xbe01b7a2	-0.12667707
28	0xbf404137	-0.7509951
29	0xbf77ef28	-0.968493
30	0xbeacad66	-0.33726043
31	0x3e5fd15e	0.21857211
32	0xbfba31ff	-1.4546508
33	0xbe6729a8	-0.22574484
34	0xbf16e8a6	-0.58948743
35	0xbf85d0e5	-1.0454375
36	0xbfb0de75	-1.3817888
37	0x3eddb81b	0.43304524
38	0xbfcaf665	-1.5856444
39	0xbf4a6d05	-0.790726
40	0x3ee6ea57	0.45100662
41	0x3f2617f0	0.64880276
42	0xbf275414	-0.6536267
43	0xbd0725e8	-0.032995135
44	0xbfc04c1e	-1.5023229
45	0xbf79334b	-0.9734389
46	0xbf79bbf4	-0.9755242
47	0xbf419263	-0.75613993
48	0xbf99f6de	-1.2028463
49	0xbfbdf167	-1.4839295
50	0xbf6f40cc	-0.9345825
51	0xbf3caefe	-0.73704517
52	0xbf0ced49	-0.5504957
53	0xbf5af7b2	-0.85534203
54	0xbe5ee7cf	-0.21768115
55	0xbd05ad88	-0.032636195
56	0xbe270a58	-0.1631254
57	0xbe782b55	-0.2423528
58	0x3e16d6d9	0.14730395
59	0x3f44cadb	0.7687203
60	0xbf1e5545	-0.6184886
61	0x3f22e510	0.6363077
62	0x3e17e8a1	0.14834835
63	0x3f86323a	1.0484078

conv.6.running_var f4 [64]
0	0x3f3cd848	0.7376752
1	0x3faceff3	1.3510727
2	0x3f61a804	0.88146996
3	0x3ee1860b	0.4404758
4	0x3f8738a7	1.0564164
5	0x3f88ca55	1.0686747
6	0x3fa5a5b8	1.2941198
7	0x3f8a47d7	1.0803174
8	0x3f09a27c	0.53763556
9	0x3f7230c3	0.94605654
10	0x3fc4eadf	1.5384177
11	0x40127010	2.2880898
12	0x3f6e112d	0.9299496
13	0x3fd6036d	1.6719795
14	0x3f15e471	0.585517
15	0x3f8a25ce	1.0792787
16	0x3fd5d37b	1.6705164
17	0x3f5449db	0.82925195
18	0x3fb7ce49	1.4359828
19	0x3fc3a00e	1.528322
20	0x3fbaba51	1.4588109
21	0x3f52be37	0.82321495
22	0x40c349b9	6.1027493
23	0x3fa2ba33	1.2713073
24	0x3ebbb959	0.36664847
25	0x3f51c1db	0.81936425
26	0x4029098c	2.6412077
27	0x3f05313e	0.5202826
28	0x3eee9352	0.4659677
29	0x40329001	2.7900393
30	0x401e6829	2.4751074
31	0x3fb836f3	1.4391769
32	0x3ffcc765	1.974835
33	0x3f03067b	0.51181763
34	0x4029dc32	2.6540647
35	0x40860bf0	4.188957
36	0x400298a3	2.0405662
37	0x3f79785d	0.97449285
38	0x3ff99fe3	1.9501919
39	0x3ff47827	1.9099168
40	0x3f2fe7d9	0.68713146
41	0x3f254b2a	0.64567816
42	0x40008508	2.0081196
43	0x3ed54885	0.4165689
44	0x4095a4a2	4.676347
45	0x3f87a8e2	1.0598414
46	0x3f89b333	1.0757812
47	0x401ec97a	2.4810472
48	0x40358a78	2.8365765
49	0x3fe5135a	1.7896531
50	0x40136fd1	2.3036997
51	0x3f4c8d16	0.7990278
52	0x3fb22501	1.3917543
53	0x3fe5a3a0	1.7940559
54	0x3fb033f9	1.3765861
55	0x3f2463e7	0.6421494
56	0x3fbab6f8	1.4587088
57	0x3f0f0fa7	0.5588326
58	0x3fed4467	1.85365
59	0x3f5650f9	0.83717304
60	0x3f229dbb	0.6352193
61	0x3f032ef5	0.51243526
62	0x3f9f5b2d	1.24497
63	0x3f9f2513	1.2433189

conv.10.weight f4 [128, 64, 3]
0	0x3e39f738	0.18160713
1	0x3c96f2a4	0.018426247
2	0x3e4b1521	0.19832279
3	0x3e49c37f	0.19703482
4	0x3e046a42	0.12931159
5	0x3ea1180f	0.31463668
6	0xbcb50e79	-0.022101628
7	0x3e5af01b	0.21380655
8	0xbcfde2ba	-0.0309919
9	0x3dafd24c	0.08585033
10	0xba9ef11d	-0.0012126301
11	0x3d8874f5	0.06662933
12	0xbed4cb76	-0.41561478
13	0xbe533b53	-0.20628099
14	0xbe811d92	-0.25217873
15	0xbdbcc094	-0.09216419
16	0x3dc198e1	0.094529875
17	0x3d062573	0.032750558
18	0x3e403ada	0.1877245
19	0x3e8d6974	0.27619517
20	0x3ec7d34f	0.39028403
21	0x3b8e3c3a	0.0043406757
22	0x3df815f4	0.12113562
23	0x3d3bba7b	0.04583214
24	0x3d1239a6	0.03569951
25	0x3daee78a	0.08540256
26	0xbdafb06f	-0.08578574
27	0xbea12efc	-0.3148116
28	0x3b18f73f	0.002334073
29	0xbe401894	-0.18759376
30	0x3cc5a01d	0.0241242
31	0x3da3e9d2	0.08003582
32	0x3d8fee50	0.070278764
33	0x3e2993c3	0.16560273
34	0x3e1a3ec7	0.1506301
35	0x3dd63efa	0.104612306
36	0x3eb715b0	0.35758734
37	0x3e1f04dc	0.15529197
38	0x3cc18fdf	0.023628173
39	0x3d230715	0.039801676
40	0x3b910086	0.004425111
41	0x3c973844	0.018459447
42	0x3e39263c	0.18080992
43	0x3d78f515	0.060780603
44	0x3dcbe808	0.09956366
45	0x3cbdd53e	0.02317297
46	0x3d8e9562	0.06962086
47	0x3d181eae	0.037138633
48	0x3b43bfdb	0.0029868993
49	0x3dd1487c	0.102189034
50	0xbe3f559c	-0.18685001
51	0x3de84ddc	0.113429755
52	0x3d9656c3	0.07340767
53	0x3df29ee0	0.11846709
54	0x3d91ead7	0.0712487
55	0x3e23010d	0.1591837
56	0x3b8a373c	0.00421801
57	0x3e192901	0.14957048
58	0x3d1e4a98	0.038645357
59	0x3e241e0b	0.16027085
60	0x3dbdf31e	0.092748865
61	0xbc462f99	-0.012096309
62	0xbcdb2056	-0.026748817
63	0x3da88f8e	0.08230506
64	0x3ea95d2e	0.33078903
65	0x3d83387f	0.0640726
66	0xbdd345ef	-0.10316073
67	0xbcb28974	-0.021794058
68	0xbc81ad2e	-0.015829649
69	0x3d8121a6	0.06305246
70	0x3e8192d0	0.25307322
71	0x3d2b7d77	0.0418677
72	0xbe6ad45a	-0.22932568
73	0xbe90cf08	-0.28282952
74	0xbe23c37e	-0.15992543
75	0x3d3f30d6	0.046677433
76	0x3d8ee09b	0.06976434
77	0xbdd95daf	-0.10613572
78	0xbee3ea4f	-0.445147
79	0xbee3de73	-0.44505653
80	0xbec129d2	-0.3772722
81	0xbd2cb9a9	-0.042169247
82	0xbbc33dc8	-0.0059582926
83	0x3d168ea0	0.03675711
84	0xbe50f46f	-0.20405744
85	0xbd80a697	-0.062817745
86	0xbe141419	-0.14460792
87	0xbdbc7f01	-0.092039116
88	0xbe14eae4	-0.14542729
89	0xbe27c91f	-0.16385315
90	0x3da94ae7	0.082662396
91	0x3d5feb66	0.054667853
92	0x3e444571	0.19167115
93	0x3d415b8a	0.04720644
94	0x3d49f295	0.04930361
95	0x3c8afd76	0.016966563
96	0x3dd4196c	0.10356411
97	0x3e3313fc	0.17488092
98	0x3db442a6	0.08801775
99	0x3e6bfa9f	0.23044823
100	0x3d13b013	0.03605659
101	0xbdbec058	-0.093140304
102	0x3df7e3bc	0.12103984
103	0xbc37bdb1	-0.01121466
104	0xbc9edba5	-0.019391844
105	0x3d6c365d	0.057669032
106	0xbd953f79	-0.07287497
107	0xbde556d4	-0.11198202
108	0xbb000b88	-0.0019538123
109	0x3e2df45e	0.1698775
110	0x3dc96b0c	0.09834871
111	0x3e82faa9	0.25581864
112	0x3e4318f6	0.1905249
113	0x3e20dcf6	0.1570929
114	0x3e8d27ea	0.27569515
115	0x3e428717	0.18996845
116	0x3ddd6e34	0.10812035
117	0x3d43da06	0.047815345
118	0x3da7c248	0.08191353
119	0x3da35209	0.07974631
120	0xbccb03cd	-0.024782086
121	0xbd8019fe	-0.062549576
122	0xbd4129b3	-0.047158908
123	0x3e113f5f	0.1418433
124	0x3e060f5a	0.13091794
125	0x3d79f13a	0.061021067
126	0xbd4ff9f0	-0.05077547
127	0x3db59fdc	0.088683814
128	0xbe09e7b9	-0.13467301
129	0xbdb1ca48	-0.0868116
130	0x3b8b9b56	0.004260461
131	0x3c9c7fcb	0.019103905
132	0x3bdf6ed8	0.0068186335
133	0xbd4332e3	-0.04765595
134	0xbe90a097	-0.2824752
135	0xbdc3d1fe	-0.09561537
136	0x3e2bba9c	0.16770405
137	0x3de0c0ed	0.10974298
138	0xbd77ecbe	-0.06052851
139	0xbc13a075	-0.009010424
140	0xbe00b0d8	-0.1256746
141	0x3e525bdc	0.20542854
142	0x3dec87f5	0.11549369
143	0x3e339995	0.17539056
144	0xbd602752	-0.054725
145	0xbcb12182	-0.021622423
146	0xbdfee4f7	-0.12446015
147	0x3dfcd29a	0.123448566
148	0x3e209192	0.1568053
149	0x3e0053e4	0.12532002
150	0xbd55d038	-0.052200526
151	0xbd9bf336	-0.07614748
152	0x3d52ca2b	0.051462334
153	0xbd02eac4	-0.03196217
154	0x3c02ed05	0.00799108
155	0xbe8d5eb1	-0.27611306
156	0xbc278f05	-0.01022697
157	0xbd79eac3	-0.0610149
158	0x3d4ccaf2	0.04999823
159	0xbe0a3d8e	-0.13500044
160	0x3c1a0845	0.009401386
161	0xbe527ab7	-0.20554624
162	0xbd8847f7	-0.06654351
163	0x3cc7a28b	0.024369499
164	0xbde3e714	-0.11128059
165	0x3c3ee9ff	0.011652469
166	0x3df2d62a	0.11857255
167	0x3d257df7	0.040403333
168	0xbdbc19e1	-0.091846235
169	0x3de978cf	0.113999955
170	0xbcf56e17	-0.029959721
171	0xbe5a7d5d	-0.21336885
172	0xbd06d620	-0.03291905
173	0x3dbdfeb5	0.09277097
174	0x3d85c9e5	0.06532649
175	0x3e845b19	0.25850752
176	0x3e2051c3	0.1565619
177	0x3e85f24d	0.26161423
178	0x3e6dc243	0.23218636
179	0x3ec4400c	0.38330114
180	0xbd6ba6db	-0.057532173
181	0xbcae674e	-0.021289494
182	0xbe61c187	-0.22046481
183	0x3ea3e83e	0.32013124
184	0x3e24cf54	0.16094714
185	0x3e46bff5	0.19409163
186	0x3e3c15d9	0.18367709
187	0x3e4943ea	0.19654813
188	0xbc20e52c	-0.009820264
189	0x3e65456e	0.22389767
190	0x3e284726	0.16433391
191	0x3e14237c	0.14466661
192	0xbd5d8855	-0.054085094
193	0xbe9ddeca	-0.30834037
194	0xbeb377cb	-0.35052332
195	0xbe8c95d0	-0.27458048
196	0xbea15de7	-0.31516954
197	0xbea1d3ff	-0.31607053
198	0xbe2ea1c2	-0.17053893
199	0xbd444571	-0.047917787
200	0xbe2934de	-0.16524073
201	0x3cd3f6a6	0.025874447
202	0xbdb856c6	-0.09000926
203	0xbd5ddff9	-0.054168675
204	0xbc3b3b01	-0.011427642
205	0xbdb5950b	-0.08866318
206	0x3d9c77b7	0.07640021
207	0xbdc7d668	-0.097576916
208	0xbd371854	-0.044700935
209	0x3c351951	0.011053399
210	0xbc9fd872	-0.019512389
211	0x3bac7437	0.0052628773
212	0x3d1b26a6	0.037878655
213	0xbe2839fa	-0.16428366
214	0xbe2cc5c7	-0.16872321
215	0xbdb3dd0e	-0.08782397
216	0x3d09809a	0.03356991
217	0x3e06d8d6	0.13168654
218	0x3e49ab2b	0.19694202
219	0x3dd3e480	0.10346317
220	0x3de6c379	0.11267752
221	0xbcfb7742	-0.030696515
222	0x3cf721c8	0.030167475
223	0xbddde4ba	-0.10834642
224	0xbadfbe00	-0.0017070174
225	0xbda6319f	-0.08114933
226	0x3e460904	0.19339377
227	0xbbeaa2de	-0.0071605286
228	0xbcfd6805	-0.03093339
229	0xbddc7e71	-0.10766304
230	0xbe34869e	-0.17629477
231	0xbd9dd78f	-0.0770713
232	0xbe0da7ad	-0.13833494
233	0x3d421d15	0.047391016
234	0x3da61523	0.081095
235	0xbde27ee1	-0.110593565
236	0xbe0561df	-0.13025616
237	0xbb65a9ac	-0.003504376
238	0xbc5138e0	-0.012769908
239	0xbd03b071	-0.03215069
240	0xbdf8523f	-0.12125062
241	0xb9dc09a8	-0.00041968864
242	0x3da315ac	0.07963118
243	0x3ca75a79	0.020428883
244	0xbda192aa	-0.07889302
245	0x3d6bc4b4	0.057560638
246	0xbc95af94	-0.018272199
247	0xbe2ce00c	-0.16882342
248	0x3e42abae	0.19010803
249	0xbe07f43f	-0.13276766
250	0xbe507827	-0.20358334
251	0xbccc1a5c	-0.024914913
252	0x3db37d95	0.08764187
253	0xbdf35e5b	-0.11883231
254	0xbd029749	-0.031882558
255	0xbe85dd65	-0.26145473

conv.10.bias f4 [128]
0	0x3d966643	0.073437236
1	0x3cde6bb7	0.027150972
2	0xbb4107c0	-0.0029454082
3	0x3c8addaa	0.0169514
4	0x3d06e595	0.03293379
5	0x3d20efcc	0.039291188
6	0xbd71baed	-0.059016157
7	0x3d023526	0.031788968
8	0x3c14cffb	0.0090827895
9	0xbd3ececb	-0.046583932
10	0xbd37b74b	-0.044852536
11	0x3caee34c	0.021348618
12	0x3d513602	0.051076896
13	0xbd5b6b69	-0.05356923
14	0xbcce35e9	-0.02517219
15	0x3cad0871	0.02112219
16	0x3c78412b	0.015152256
17	0xbd0429ec	-0.032266542
18	0xbcc9a687	-0.02461554
19	0xbd26d939	-0.040734503
20	0x3cb94e6e	0.022620406
21	0xbcc8eed2	-0.02452794
22	0x3d500efc	0.05079554
23	0x3d860779	0.06544394
24	0x3d43c016	0.04779061
25	0x3d2e1a50	0.042505562
26	0xbce613f0	-0.028085679
27	0x3d345e33	0.044035148
28	0x3d844ce5	0.06459979
29	0xbd16d788	-0.03682664
30	0xbd829c97	-0.063775234
31	0xbcab349c	-0.02089911
32	0xbc9f6f8b	-0.019462368
33	0xbd2e059b	-0.042485815
34	0xbd6d5765	-0.057944674
35	0xbd39b364	-0.045337096
36	0xbd8a55b3	-0.06754627
37	0x3d2b210d	0.041779567
38	0xbacb2191	-0.0015497674
39	0x3d081622	0.033224232
40	0xbd07e5ea	-0.033178248
41	0x3d8bfbeb	0.06835159
42	0x39098b85	0.00013117313
43	0xbb68f82c	-0.0035548313
44	0xbd1d70de	-0.038437717
45	0x3d80a907	0.062822394
46	0xbd8c3221	-0.06845499
47	0xbd393490	-0.045216143
48	0x3d7d0139	0.061768744
49	0x3d8c53df	0.06851935
50	0xbd076b24	-0.03306116
51	0xbd3b5798	-0.045737833
52	0xbd5c90af	-0.05384892
53	0x3c9f69f8	0.01945971
54	0xbd23b7ce	-0.03997021
55	0x3cb8df26	0.022567343
56	0xbb1d4cb9	-0.002400203
57	0x3bcd1f49	0.006259833
58	0x3cfaddb4	0.030623294
59	0x3c8ff0a2	0.017570797
60	0xbcf11a35	-0.029431442
61	0xbd087db1	-0.033322994
62	0xbdb1c989	-0.08681018
63	0xbd2f7b4e	-0.042842202
64	0xbd43bb69	-0.04778615
65	0xbcd224a1	-0.025652232
66	0x3d1aa46a	0.037754454
67	0x3d9fbb3c	0.07799384
68	0xbd1fd8f2	-0.039025255
69	0x3d2a3e42	0.04156328
70	0xbd5d3529	-0.054005776
71	0xbc88dc5c	-0.016706638
72	0x3d6920dd	0.056916106
73	0x3c277378	0.010220401
74	0xbcde5cc6	-0.027143847
75	0x3d8a3c52	0.067497864
76	0x3d8e2a9c	0.06941721
77	0xba480fef	-0.0007631769
78	0x3d9e69ec	0.07735047
79	0x3d65ec8e	0.0561338
80	0xbd17e2d2	-0.037081547
81	0x3d088f40	0.03333974
82	0xbd2e436d	-0.04254477
83	0xbd3ba7b7	-0.045814242
84	0x3d973e18	0.0738489
85	0xbcf4bfe5	-0.029876659
86	0xba5c826f	-0.000841177
87	0xbd68a777	-0.056800332
88	0x3c8230d4	0.015892424
89	0x3ca3a0dc	0.019974165
90	0xbd4449b6	-0.04792186
91	0x3c8fa76d	0.01753589
92	0x3d85f142	0.06540157
93	0x3d3c0208	0.045900375
94	0xbbec44f2	-0.0072103674
95	0x3d85dedc	0.06536648
96	0x3d06a588	0.032872707
97	0x3bccdea0	0.006252125
98	0x3c9cd621	0.019145073
99	0x3daec6b0	0.085339904
100	0xbc739db9	-0.014869147
101	0x3ca3afb0	0.019981235
102	0x3b5f3b6f	0.0034062525
103	0x3b253f4b	0.0025214728
104	0x3d16dd48	0.036832124
105	0x3d69ccd2	0.057080097
106	0xbd5d1fde	-0.05398547
107	0xbcaf055b	-0.021364858
108	0xbcc1f46d	-0.023676122
109	0xbd76463f	-0.060125586
110	0x3b834aab	0.004006704
111	0x3ca8693f	0.020557998
112	0x3ce04f9d	0.027381713
113	0xbc603cdc	-0.013686385
114	0x3b2a3c23	0.0025975786
115	0x3d82384d	0.06358395
116	0xbd14819b	-0.036256414
117	0xbd124af2	-0.035716005
118	0xbca610a8	-0.020271614
119	0x3d0273ff	0.031848904
120	0x3d8c80a1	0.068604715
121	0xbd2e1181	-0.04249716
122	0x3cebb3dd	0.028772289
123	0xbba6afa6	-0.005086857
124	0xbc5bc479	-0.013413542
125	0xbd28b00a	-0.04118351
126	0xbd1a697c	-0.037698254
127	0xba2bf812	-0.00065600977

conv.11.weight f4 [128]
0	0x3f9ee2ed	1.2413002
1	0x3f861d37	1.0477666
2	0x3f7388d9	0.9513069
3	0x3fa6b5bb	1.302421
4	0x3f9cfe5f	1.2265128
5	0x3fad8221	1.3555337
6	0x3f68bf0d	0.9091652
7	0x3f80c1c8	1.0059137
8	0x3fbd8995	1.4807612
9	0x3f8faf54	1.1225381
10	0x3f901233	1.1255554
11	0x3fa1caef	1.2640055
12	0x3f7da1ee	0.9907521
13	0x3f766848	0.9625287
14	0x3fa49735	1.2858645
15	0x3f9290b0	1.1450405
16	0x3fbe15a6	1.4850357
17	0x3fa1ea3d	1.2649609
18	0x3f8cb21e	1.0991857
19	0x3f6e5938	0.93104887
20	0x3f699ebe	0.91257846
21	0x3f8f7351	1.1207067
22	0x3f948d6f	1.1605662
23	0x3f74b1b3	0.9558365
24	0x3fb74885	1.4319006
25	0x3f84d2f2	1.0376875
26	0x3fa080b4	1.2539277
27	0x3fe2100f	1.7661151
28	0x3f9744cb	1.1817869
29	0x3f69738d	0.9119194
30	0x3f9ce0cc	1.2256103
31	0x3f947e24	1.1600995
32	0x3fcbc8c3	1.5920643
33	0x3fad69fd	1.354797
34	0x3f7b67c3	0.982052
35	0x3fb2f0bd	1.3979717
36	0x3f9d5adf	1.2293357
37	0x3fc58597	1.5431393
38	0x3f7570c2	0.9587518
39	0x3fecbb47	1.8494653
40	0x3ff2ac0b	1.8958753
41	0x3fab6920	1.3391457
42	0x3f83ef7e	1.0307462
43	0x3fe4d70a	1.7878125
44	0x3f697b8e	0.91204154
45	0x3f6af922	0.91786397
46	0x3fa8226f	1.3135508
47	0x3f9e0437	1.2345036
48	0x3fa079d7	1.2537183
49	0x3f841284	1.031815
50	0x3ff7b20b	1.9351209
51	0x3fbdd27e	1.4829862
52	0x3fbc49af	1.4709986
53	0x3faf8713	1.3713096
54	0x3f86ec6a	1.0540898
55	0x3fad5fce	1.3544862
56	0x3fe8db7b	1.819198
57	0x3f77d727	0.9681267
58	0x3f7fdafb	0.9994351
59	0x3f67161a	0.902681
60	0x3fc04d5c	1.5023608
61	0x3fa701ca	1.3047421
62	0x3fa8086b	1.3127569
63	0x3ff72d78	1.9310751
64	0x3f88b927	1.0681504
65	0x3f669fe0	0.900877
66	0x3f838674	1.0275407
67	0x3f8ec71e	1.1154516
68	0x3f736f93	0.95092124
69	0x3f857c39	1.0428535
70	0x3fd5e464	1.6710324
71	0x3f95e9d0	1.1711979
72	0x3f869adc	1.0516009
73	0x3fb7f1db	1.4370683
74	0x3fb52cd4	1.4154305
75	0x3fe810e4	1.8130155
76	0x3fb04441	1.377083
77	0x3fa17326	1.2613266
78	0x3f912013	1.1337913
79	0x3f9075f5	1.1285998
80	0x3f94a038	1.1611395
81	0x3f6e1d06	0.93013036
82	0x3fbf1608	1.4928598
83	0x3ffc2ef1	1.9701825
84	0x3fb76435	1.4327456
85	0x3f9dc86f	1.2326792
86	0x3f925c75	1.1434466
87	0x3f9ff406	1.2496345
88	0x3f9f0c9d	1.2425724
89	0x3f6eb44a	0.9324385
90	0x3f76a7fd	0.9635008
91	0x3f8b4cc8	1.0882807
92	0x3f8c9f67	1.0986146
93	0x3f87f764	1.0622373
94	0x3f83dbd2	1.0301459
95	0x3f82fe92	1.0233939
96	0x3f9ebd89	1.2401592
97	0x3f6952af	0.9114179
98	0x3ff93157	1.9468182
99	0x3f79123c	0.9729345
100	0x3f91e67b	1.1398462
101	0x3f8efa41	1.1170121
102	0x3f851ea8	1.039998
103	0x3fab9698	1.3405333
104	0x3fa4efbc	1.2885661
105	0x3fb06f7f	1.3784026
106	0x3fb0be50	1.3808079
107	0x3fb27bd9	1.3944045
108	0x3fa296a7	1.2702225
109	0x3fb2020b	1.3906873
110	0x3fa0206c	1.2509894
111	0x3f9fa008	1.2470713
112	0x3f7cd0be	0.98756015
113	0x3fe31d21	1.7743264
114	0x3f6e9a60	0.9320431
115	0x3f73304b	0.94995564
116	0x3f92d993	1.1472648
117	0x3f7091ab	0.9397227
118	0x3fa4f5ef	1.2887553
119	0x3f6a951b	0.91633767
120	0x3f703fc6	0.9384731
121	0x3fc37e8f	1.5272998
122	0x3f9ad6ff	1.2096862
123	0x3f95e387	1.1710061
124	0x3faeb7e9	1.3649875
125	0x3f71aeae	0.94407165
126	0x3f971d21	1.1805764
127	0x3f7cf89f	0.98816866

conv.11.bias f4 [128]
0	0xbe896b27	-0.26839563
1	0xbdb2f13f	-0.0873742
2	0xbe5afa27	-0.21384488
3	0xbd8a2d47	-0.06746917
4	0x3dcfbe3d	0.10143707
5	0x3d9f6192	0.07782282
6	0xbe2d80b9	-0.16943635
7	0xbdac292f	-0.08406293
8	0xbcf2e52d	-0.029650295
9	0x3d677405	0.05650713
10	0x3d1927cd	0.037391473
11	0x3d5b242b	0.05350129
12	0xbe194755	-0.14968617
13	0xbe28d64b	-0.16487996
14	0xbf51bc81	-0.8192826
15	0x3e2de536	0.16981968
16	0xbd82a643	-0.06379368
17	0x3dc26535	0.0949196
18	0x3dae558b	0.0851241
19	0xbe88832d	-0.2666258
20	0xbe9468ce	-0.2898621
21	0x3d021f2f	0.03176802
22	0xbee2f6aa	-0.44328815
23	0xbca8297b	-0.020527592
24	0x3e7939d0	0.2433846
25	0xbe2b11f1	-0.16706063
26	0xbeece1f5	-0.46266142
27	0x3d309240	0.043108225
28	0xbc835d30	-0.016035646
29	0xbe572fc5	-0.21014316
30	0x3d80e2a3	0.062932275
31	0xbb77c778	-0.0037808102
32	0x3c52c02d	0.012863201
33	0x3d7b1241	0.061296705
34	0x3c21b67c	0.009870168
35	0xbd905227	-0.07046919
36	0x3c0977b8	0.00839036
37	0x3dbf49b9	0.09340233
38	0xbe502972	-0.2032831
39	0x3e7d4eab	0.2473704
40	0x3e08d034	0.13360673
41	0x3d1a309b	0.03764401
42	0x3d38a673	0.045080613
43	0x3d71ec87	0.05906346
44	0xbe9480ce	-0.2900452
45	0xbebc0b7c	-0.36727512
46	0x3d70a186	0.05874779
47	0x3d8035ca	0.062602594
48	0x3e314b06	0.17313775
49	0xbe81368b	-0.25236925
50	0xbcaa7358	-0.020806953
51	0xbe91d585	-0.28483215
52	0xbccbe6c5	-0.024890313
53	0x3ca81b3c	0.020520799
54	0xbdc27647	-0.09495216
55	0x3d18b13c	0.0372784
56	0x3da74d25	0.08169011
57	0xbe0ddf66	-0.13854751
58	0xbe3df190	-0.1854918
59	0xbe5534cf	-0.20820926
60	0x3e0eea64	0.139566
61	0x3d31e97f	0.04343557
62	0xbc770393	-0.015076536
63	0xbea5f2eb	-0.32411894
64	0xbeacfaad	-0.33785
65	0xbee01cf3	-0.43772087
66	0xbe53adf4	-0.20671827
67	0xbeded827	-0.43524286
68	0xbeb328ff	-0.34992215
69	0xbdaa53ad	-0.08316741
70	0x3d5ffeb5	0.054686267
71	0x3c3e0b78	0.011599414
72	0xbe22d607	-0.15901957
73	0x3d69a5e2	0.057042964
74	0x3bfa3bb0	0.00763651
75	0xbd611c4d	-0.05495863
76	0x3d2735ff	0.04082298
77	0xbe1047d7	-0.14089905
78	0xbd10c1fa	-0.03534124
79	0x3be7c46d	0.0070729763
80	0x3e25e312	0.16199902
81	0xbe4d1ff9	-0.20031728
82	0x3d902dae	0.07039963
83	0xbd97910c	-0.07400712
84	0x3db8e74b	0.09028491
85	0x3e3c9247	0.18415175
86	0xbad602e7	-0.0016327769
87	0xbea2df7a	-0.31811124
88	0x3da138df	0.078721754
89	0xbe962c16	-0.2933051
90	0xbe013929	-0.12619461
91	0x3d8a4a72	0.067524806
92	0x3d6824c7	0.0566757
93	0x3d6fb4f3	0.058522176
94	0xbe3a1011	-0.18170191
95	0xbe2c7aff	-0.16843794
96	0x3db37f83	0.08764555
97	0xbe733d8c	-0.23753947
98	0x3db8e020	0.090271235
99	0xbe705912	-0.23471478
100	0x3d9c0586	0.07618241
101	0xbee59d72	-0.44846684
102	0xbe973f8b	-0.29540667
103	0x3e144977	0.1448115
104	0xbc25dd9f	-0.010123639
105	0x3dfda251	0.12384475
106	0x3daca56e	0.08429991
107	0xbd99774c	-0.07493457
108	0x3d24c215	0.040224154
109	0x3d000a9c	0.031260118
110	0x3df9aa88	0.121907294
111	0xbae8e573	-0.0017768577
112	0xbe78c1a6	-0.24292621
113	0x3d908b47	0.07057815
114	0xbe8ecf18	-0.27892375
115	0xbe60cfcd	-0.2195427
116	0xbbf7939d	-0.0075554387
117	0xbeafdecd	-0.3434967
118	0xbe74f36c	-0.23920983
119	0xbe8f6e4b	-0.28013834
120	0xbea801ba	-0.32813817
121	0xbdcf4463	-0.101204656
122	0x3d865d25	0.06560735
123	0x3d514bba	0.05109761
124	0xbe362d65	-0.17790754
125	0xbe04d9c4	-0.12973696
126	0xbdccdb4e	-0.100027665
127	0xbecc7353	-0.39931735

conv.11.running_mean f4 [128]
0	0x4004d54c	2.0755186
1	0xc02a0a2b	-2.6568706
2	0xbff42ea0	-1.9076729
3	0xbef551c8	-0.47913957
4	0x3e109ec9	0.14123072
5	0x3e9b21b4	0.3029915
6	0xc06eda90	-3.73209
7	0xbe47e3aa	-0.1952044
8	0x4041c48e	3.0276217
9	0x3f23f6aa	0.64048254
10	0x3f2ea3ce	0.68218696
11	0x3ed1fba0	0.41012287
12	0xc0262c2e	-2.5964465
13	0xbfaf4945	-1.3694235
14	0xbfac60be	-1.3467023
15	0x3ebcf800	0.3690796
16	0x4017c02c	2.3711042
17	0x3f5a1a3a	0.8519627
18	0xbe9fd705	-0.31218734
19	0xc021dd38	-2.5291271
20	0xbf2b9a1d	-0.67032033
21	0x3f436c4f	0.7633714
22	0xc027208f	-2.6113622
23	0x3fcb66c8	1.5890741
24	0x3ed5b49c	0.41739357
25	0xbfb6cc34	-1.4281068
26	0xc002b01f	-2.0419996
27	0x400a3984	2.1597605
28	0x3f2418b7	0.6410021
29	0xc01688e8	-2.352106
30	0x3f96f2a4	1.1792798
31	0x3f9620af	1.1728724
32	0xbd4bda7d	-0.049768914
33	0x3f047f4f	0.5175676
34	0xbe94da9d	-0.2907304
35	0x3f404b45	0.7511485
36	0x3fe43e95	1.7831599
37	0xbeed0321	-0.4629145
38	0xbfca59f3	-1.58087
39	0x4041771d	3.022895
40	0x4022cdef	2.5438192
41	0x3ead9b97	0.33907768
42	0xbeda4633	-0.42631683
43	0x3ed7c51c	0.4214257
44	0xc02231bc	-2.5342855
45	0xbfa0128a	-1.2505658
46	0xbf6decf1	-0.9293967
47	0x3ddaa74b	0.1067644
48	0x40372c53	2.8620803
49	0xbe8bde85	-0.27318206
50	0x4037ab43	2.869828
51	0x4029852c	2.6487532
52	0x3f7ac346	0.97954214
53	0x3fa2be6c	1.2714362
54	0xbffb5809	-1.9636241
55	0x3f7715ad	0.9651745
56	0xbcc7e195	-0.024399558
57	0xc0131269	-2.2979987
58	0xbfe3783e	-1.777107
59	0xc037e7df	-2.8735273
60	0x3d827913	0.06370749
61	0x40071559	2.110678
62	0x3d8a8fcd	0.06765709
63	0x3f82d358	1.0220747
64	0xbfb4eb86	-1.4134376
65	0xc0000b48	-2.0006886
66	0xc0487cd2	-3.1326184
67	0xbf671075	-0.90259486
68	0xc0037ac8	-2.054369
69	0x3fede781	1.8586274
70	0xbe530ad0	-0.20609593
71	0x3ed908b4	0.42389452
72	0xc007d270	-2.122219
73	0x400c4953	2.1919754
74	0x4016abdd	2.3542397
75	0x3faa8700	1.3322449
76	0x402d73fa	2.7102036
77	0x401d92f1	2.4620936
78	0xbe3141d8	-0.17310274
79	0x3f1a3736	0.60240495
80	0x3f8d5b6a	1.1043522
81	0xc0536c47	-3.3034837
82	0x3e450b71	0.19242646
83	0xbe733fc2	-0.2375479
84	0x3e7f2775	0.24917395
85	0xbecf7c5b	-0.40524563
86	0x3f7dbd81	0.99117285
87	0xbf73881b	-0.95129555
88	0x3fae95c9	1.3639461
89	0xc010bfe3	-2.2617118
90	0xc085965d	-4.174605
91	0xbe9ab79a	-0.30218202
92	0xbf05fc02	-0.5233766
93	0x3e9b615c	0.30347717
94	0xbf0b1298	-0.54325247
95	0xc02cefb5	-2.7021306
96	0x400dda00	2.2164307
97	0xc0174931	-2.3638422
98	0xbe7a91b2	-0.24469641
99	0xbfa53948	-1.2908106
100	0x3ec6aa59	0.3880184
101	0x3dd1c1f3	0.10242071
102	0x3df28974	0.11842623
103	0xbe7042da	-0.23463002
104	0x3fb8e626	1.4445236
105	0x3eeccca5	0.4624988
106	0xbf5987a4	-0.84972596
107	0x40395f82	2.8964543
108	0x3f1b453c	0.6065252
109	0x4060671e	3.5062938
110	0x3f55127e	0.8323134
111	0xbdb22430	-0.086983085
112	0xbff5bd3d	-1.9198376
113	0xbd38ab7d	-0.04508542
114	0xbfe901ae	-1.8203638
115	0xbf5b2933	-0.8560974
116	0x3d2c5a2e	0.04207819
117	0xbea85f83	-0.3288537
118	0xbedefaec	-0.43550813
119	0xbf9150ce	-1.1352785
120	0xc00b748c	-2.1789885
121	0x3fa01e0b	1.2509168
122	0x3ece08e1	0.4024115
123	0xbdbed7c0	-0.09318495
124	0x3eb54ef4	0.354118
125	0xc079792e	-3.8980212
126	0xbfaf0ace	-1.3675172
127	0xbf06a403	-0.5259401

conv.11.running_var f4 [128]
0	0x4089729e	4.2952414
1	0x4106b8cd	8.420117
2	0x40343b1e	2.8161082
3	0x4064eb02	3.5768437
4	0x40307cb6	2.7576118
5	0x40717883	3.7729805
6	0x411e19ec	9.881329
7	0x409b840c	4.859869
8	0x4193a87d	18.45727
9	0x402fc797	2.746557
10	0x4089762c	4.2956753
11	0x407c594f	3.942951
12	0x40a43ff5	5.1328073
13	0x40488278	3.1329632
14	0x401c4ca6	2.4421782
15	0x40682f10	3.6278725
16	0x41076a88	8.463509
17	0x4097b029	4.740254
18	0x400e51e8	2.2237492
19	0x4113a24b	9.227122
20	0x404b9379	3.180876
21	0x4079cd2e	3.9031482
22	0x40eb9e3f	7.363067
23	0x40497684	3.1478586
24	0x407aa962	3.9165883
25	0x40825c28	4.0737495
26	0x40e80841	7.2510076
27	0x4166c8d3	14.424029
28	0x403a8d26	2.914865
29	0x40e9cbd3	7.306131
30	0x402b42e5	2.675958
31	0x4033fa71	2.8121607
32	0x40779c30	3.868908
33	0x4074f207	3.8272722
34	0x4064f427	3.5774019
35	0x4044376c	3.0658827
36	0x403c33f9	2.9406722
37	0x4096abbb	4.708463
38	0x408b5d61	4.355149
39	0x4160bdb3	14.046313
40	0x41a9a1e5	21.20405
41	0x401dc4a3	2.4651268
42	0x3fee9579	1.8639365
43	0x407cf721	3.9525836
44	0x40b305d8	5.5944633
45	0x406709e3	3.6099784
46	0x408e7632	4.451928
47	0x400de64b	2.217181
48	0x4124f114	10.308857
49	0x408955eb	4.291738
50	0x41670034	14.43755
51	0x40d7720b	6.7326713
52	0x40767d8c	3.8514128
53	0x4021a6b3	2.5257995
54	0x40a8e7cd	5.278296
55	0x4094e798	4.6532707
56	0x411104a4	9.063633
57	0x40ed223d	7.4104295
58	0x40bb2ebe	5.849456
59	0x40610f19	3.5165465
60	0x407f366e	3.9876971
61	0x4038bc25	2.8864834
62	0x4004c87c	2.0747366
63	0x40b3b1f0	5.615471
64	0x40d06cbd	6.5132737
65	0x406e95d3	3.7278945
66	0x4114579a	9.271387
67	0x40e11d99	7.034863
68	0x40b76306	5.730838
69	0x408ac5a7	4.3366275
70	0x4116476e	9.392439
71	0x41003637	8.013236
72	0x406c96ec	3.6967115
73	0x405b2130	3.4239006
74	0x413f6247	11.9614935
75	0x4079d2f8	3.9035015
76	0x417a4d5d	15.6438875
77	0x405a908f	3.4150732
78	0x3fc1e817	1.5148953
79	0x40703ce6	3.753717
80	0x408dd519	4.432263
81	0x40c9cc9e	6.3062277
82	0x406e23a5	3.7209256
83	0x40a21b5c	5.06584
84	0x40692952	3.643147
85	0x406be99a	3.686133
86	0x40e7d2bc	7.2444744
87	0x40eadbfe	7.3393545
88	0x40a06453	5.0122466
89	0x40975379	4.7289395
90	0x413c154a	11.755198
91	0x408330fd	4.09973
92	0x40121d93	2.283055
93	0x40649879	3.5718062
94	0x40dc8fa3	6.892534
95	0x407ee7e9	3.9829047
96	0x40f63f2f	7.695213
97	0x402d8943	2.7115028
98	0x41388049	11.53132
99	0x40eeea9d	7.4661393
100	0x4014d8af	2.3257253
101	0x40915fcb	4.5429435
102	0x401b80bc	2.4297323
103	0x403b0cdf	2.9226606
104	0x401b1465	2.4231198
105	0x40297790	2.6479225
106	0x4040a550	3.0100899
107	0x412eee94	10.933247
108	0x40c11846	6.034213
109	0x4107a3f7	8.4775305
110	0x40887fb8	4.2655907
111	0x4082cc65	4.0874505
112	0x404f7cc7	3.2419908
113	0x40ab894b	5.3605094
114	0x407da122	3.9629598
115	0x403b910c	2.930728
116	0x40343499	2.8157103
117	0x4036aeeb	2.8544261
118	0x40c4346b	6.1313987
119	0x40314ce7	2.7703187
120	0x40d62288	6.6917152
121	0x40c05762	6.010667
122	0x40131734	2.2982912
123	0x40866c35	4.200709
124	0x40dfa076	6.9883375
125	0x4105158b	8.3177595
126	0x410c55d6	8.770956
127	0x3ff8f44e	1.9449556
