output/electricity_cnn_20260221_204822/checkpoints/epoch_60.pt (torch, 174824 bytes, 21 tensors)

conv.0.weight f4 [32, 14, 3]
0	0xbded135c	-0.11575958
1	0xbc905bca	-0.017621893
2	0x3cc5ed8b	0.02416112
3	0xbb260989	-0.0025335273
4	0x3dccaef0	0.09994304
5	0xbdae6e99	-0.085171886
6	0xbdc3e727	-0.09565573
7	0x3dd7079a	0.10499497
8	0xbdb9e813	-0.09077468
9	0x3c915c6f	0.017744271
10	0xbdc30cc9	-0.09523923
11	0xbca02790	-0.019550115
12	0x3c116ec2	0.008876504
13	0xbc21546b	-0.009846787
14	0xbcd20f72	-0.02564213
15	0x3d162d67	0.036664393
16	0x3d91d254	0.07120195
17	0xbd491774	-0.049094632
18	0x3cce1be6	0.025159787
19	0x3e14ef3a	0.14544383
20	0x3c1c6431	0.009545372
21	0x3cb879d4	0.02251903
22	0xbdb33d59	-0.087519355
23	0x3c379ff9	0.011207574
24	0x3ef54c21	0.47909644
25	0x3ed27edc	0.4111241
26	0x3f101ce1	0.56294066
27	0xbf593345	-0.84843856
28	0xbf63844b	-0.8887374
29	0xbf77320d	-0.96560746
30	0xbe656278	-0.22400844
31	0xbe78416d	-0.24243708
32	0xbe2f6ba1	-0.17130901
33	0xbca507a8	-0.020145252
34	0x3cf7ea42	0.03026307
35	0xbd4bfd0c	-0.04980187
36	0xbdea14f1	-0.114297755
37	0x3de1e19b	0.11029359
38	0x3c14e757	0.009088359
39	0xbd407b9f	-0.046992894
40	0x3c811b29	0.015760021
41	0x3daa340e	0.0831071
42	0xbe4f7f9a	-0.2026352
43	0x3dbeca9e	0.0931599
44	0x3d8e52ad	0.06949363
45	0x3e156a55	0.14591344
46	0x3d9b7f1c	0.075926036
47	0x3cc59c7c	0.02412247
48	0xbdfe2e48	-0.12411171
49	0xbc9e5302	-0.01932669
50	0xbcebd950	-0.028790146
51	0x3e483380	0.19550896
52	0x3e2d567d	0.16927524
53	0xbe54b262	-0.20771173
54	0x3d322a88	0.043497592
55	0xbcda9be1	-0.026685657
56	0x3dc24c7b	0.09487244
57	0x3d679601	0.05653954
58	0x3cff22d1	0.031144531
59	0xbda39c4a	-0.07988794
60	0x3c315d9e	0.010825543
61	0x3d342cf7	0.043988194
62	0x3e2b8cb3	0.16752891
63	0xbc9e44a6	-0.019319844
64	0xbd3206dd	-0.043463577
65	0x3da1cc68	0.079003155
66	0xbe3f2676	-0.18667015
67	0xbca235e8	-0.019801095
68	0xbc58fa5d	-0.013243285
69	0x3e59eeef	0.21282552
70	0x3e74b6d2	0.23897865
71	0x3ec5809c	0.38574684
72	0xbf05aacb	-0.52213734
73	0xbf1a753e	-0.6033515
74	0xbf04c643	-0.51865023
75	0x3cc07cd1	0.023497017
76	0x3db6a9f5	0.089191355
77	0xbe62f136	-0.22162327
78	0x3d535526	0.051594876
79	0xbdbb5d3d	-0.09148643
80	0xbd266936	-0.04062768
81	0x3d046fc6	0.032333158
82	0xbd980588	-0.0742293
83	0x3dd40f01	0.10354424
84	0x3db070f6	0.086152956
85	0x3e12192a	0.14267412
86	0xbe831da7	-0.2560856
87	0x3d0a24cf	0.03372651
88	0x3d5195e3	0.051168334
89	0x3d968c73	0.07351007
90	0xbccd3dbc	-0.025053851
91	0x3d23f8da	0.040032245
92	0xbe3e5ba1	-0.18589641
93	0xbdc867a2	-0.097853914
94	0x3e0c122e	0.1367881
95	0xbc848f07	-0.016181482
96	0x3dab0237	0.08350032
97	0xbd6f6dff	-0.05845451
98	0xbc11cf2d	-0.008899492
99	0xbc423289	-0.011852869
100	0x3c36455d	0.011124936
101	0xbcfb1dd3	-0.03065387
102	0x3d893f52	0.067015305
103	0x3ddc1bf4	0.10747519
104	0xbd86230e	-0.06549655
105	0xbcf92a04	-0.030415542
106	0x3d86f5f8	0.065898836
107	0xbdc3483a	-0.095352605
108	0xbf73a654	-0.9517567
109	0xbf328d9d	-0.69747335
110	0xbf63ebee	-0.89031875
111	0x3d520dbf	0.05128264
112	0x3e8b0053	0.27148685
113	0x3eac7c3b	0.3368853
114	0x3e2f352f	0.17110132
115	0x3d276890	0.040871203
116	0x3e8dff77	0.27733967
117	0x3c2da232	0.010597752
118	0xba340e0e	-0.00068685494
119	0x3ca5fbf9	0.020261751
120	0xbd04d78c	-0.032432124
121	0x3e1f1c37	0.15538107
122	0xbdb7e77c	-0.08979699
123	0xbd9fbd56	-0.07799785
124	0xbcbb6b90	-0.022878438
125	0x3df5556c	0.119791836
126	0x3e70a481	0.23500253
127	0x3cb032f8	0.021508679
128	0xbdd10d14	-0.102075726
129	0xbdd40c01	-0.10353852
130	0x3cc6af6a	0.024253566
131	0xbbe55b30	-0.006999396
132	0x3c29fb93	0.010374921
133	0x3d249bc9	0.04018763
134	0xbdefb1ee	-0.11703859
135	0x3e36120f	0.17780326
136	0x3db83532	0.08994521
137	0x3d668824	0.056282178
138	0x3cad89d5	0.021183887
139	0x388c1832	6.680227e-05
140	0xbd8bc079	-0.068238206
141	0x3d8adde1	0.06780601
142	0x3d8bc386	0.068244025
143	0xbc4d22e8	-0.012520529
144	0x3c84652b	0.016161522
145	0x3dfc3f09	0.123167105
146	0xbe5c3d14	-0.21507674
147	0x3d370937	0.044686522
148	0xbe51fa42	-0.20505622
149	0x3d441449	0.047870908
150	0x3d42e98b	0.047586005
151	0x3de8e9ea	0.113727406
152	0x3e3943cc	0.18092269
153	0x3db191d0	0.0867039
154	0x3e338231	0.17530133
155	0x3e9aa6bc	0.30205333
156	0x3ec9ce29	0.394151
157	0x3ed2f3ba	0.41201574
158	0x3ed1cdb0	0.4097724
159	0x3eb0aca6	0.3450672
160	0x3e09caed	0.13456316
161	0x3de8f4dd	0.11374829
162	0x3d8d598f	0.069018476
163	0xbdb64d45	-0.08901457
164	0xbd8b4fae	-0.06802307
165	0xbc068630	-0.008210704
166	0x3d737e5b	0.059446674
167	0x3d9ef813	0.0776216
168	0x3dfc1b3c	0.12309882
169	0xbd61902a	-0.055069126
170	0xbda3ec75	-0.08004085
171	0x3be1867e	0.006882488
172	0xbdab4506	-0.083627746
173	0xbd206b20	-0.039164662
174	0x3d6f5027	0.05842605
175	0x3c80c841	0.015720489
176	0xbc55dfad	-0.013053817
177	0x3da3ce18	0.07998294
178	0x3d49b0ef	0.049241003
179	0xbd8cb8ef	-0.06871211
180	0x3bfa078c	0.007630294
181	0xbbf0c1f8	-0.0073473416
182	0xbd188b6a	-0.03724233
183	0xbba3af4e	-0.004995263
184	0xbc9fe9c5	-0.01952065
185	0xbc8d4d14	-0.017248668
186	0xbc51b594	-0.012799639
187	0xbc2a3fe1	-0.0103912065
188	0xbd90184a	-0.07035883
189	0x3d3cfe4c	0.046140954
190	0x3cc6bdfc	0.024260513
191	0x3c7a5ab7	0.015280417
192	0x3f038e10	0.51388645
193	0x3f0d1889	0.5511556
194	0x3f1f3cee	0.62202346
195	0x3cf01e4b	0.02931132
196	0x3e756878	0.23965633
197	0x3e920a40	0.28523445
198	0x3e80edf0	0.25181532
199	0x3eb44677	0.3521001
200	0x3ebd7741	0.37005046
201	0x3d58d5a9	0.052938137
202	0x3dac0932	0.08400191
203	0x3ad74100	0.001642257
204	0x3c58687d	0.013208506
205	0xbc026030	-0.007957503
206	0xbd16fe3c	-0.03686355
207	0xbd6cb37c	-0.057788357
208	0x3cf11ef0	0.029433697
209	0x3d179d69	0.037015352
210	0x3c00b5fa	0.007855887
211	0x3dc50045	0.09619192
212	0xbdb78d9f	-0.08962559
213	0x3e1f6820	0.15567064
214	0xbddc265a	-0.107495025
215	0x3dc1e814	0.094680935
216	0xbc7ffddc	-0.01562449
217	0xbd9288e4	-0.07155016
218	0xbdd5e727	-0.104444794
219	0xbe2068b8	-0.15664947
220	0x3d2df882	0.042473324
221	0xbdcd37f3	-0.10020437
222	0x3bd1300f	0.006383903
223	0x3c23807d	0.009979364
224	0x3d01e10d	0.031708766
225	0xbc0d8d47	-0.00863964
226	0xbbe45486	-0.006968084
227	0x3c11675b	0.0088747395
228	0x3c2a2e5a	0.010387028
229	0x3e69e172	0.22839907
230	0xbe28718c	-0.16449565
231	0x3e003ce3	0.12523226
232	0xbd963db5	-0.073359884
233	0xbf135369	-0.5754915
234	0x3dd90212	0.10596098
235	0x3e77d6f3	0.2420309
236	0x3e01b238	0.12665641
237	0xbee3ebeb	-0.4451593
238	0xbf0de2fe	-0.5542449
239	0xbf088628	-0.53329706
240	0x3edd8fd6	0.432738
241	0x3e476fdc	0.19476265
242	0x3eccdf1a	0.40013963
243	0x3db7c7e3	0.08973672
244	0x3db0b748	0.08628708
245	0x3c34cb18	0.011034749
246	0xbc3883e9	-0.011261919
247	0x3d2d6399	0.04233131
248	0x3d7bf9a3	0.06151737
249	0x3dc0b578	0.094096124
250	0x3c85131e	0.016244467
251	0xbe20075b	-0.15627806
252	0xbe21cd3c	-0.15800947
253	0xbe339e8a	-0.17540947
254	0x3e73aadb	0.23795645
255	0x39d0aa8d	0.00039799922

conv.0.bias f4 [32]
0	0x3e0ba7cf	0.13638233
1	0x3cd46c9c	0.025930695
2	0x3d77f32b	0.060534637
3	0x3e3a8124	0.18213326
4	0x3e84a9d1	0.2591081
5	0x3e68c1a3	0.22730117
6	0xbe011f8f	-0.12609695
7	0x3cb7601a	0.022384692
8	0x3d39580c	0.045249984
9	0x3dfaf9a2	0.12254645
10	0x3cdf8fae	0.027290192
11	0x3dc3ffd2	0.09570278
12	0xbe048630	-0.12941813
13	0xba19bd41	-0.0005864688
14	0xbcc2d925	-0.023785183
15	0xbde912d0	-0.11380541
16	0xbd13451d	-0.035954583
17	0x3d84056d	0.064463474
18	0x3e44bfac	0.19213742
19	0x3da65540	0.08121729
20	0x3d098d38	0.033581942
21	0x3e921ffc	0.28540027
22	0x3e8f7659	0.2801998
23	0xbe035072	-0.12823656
24	0x3dcdbd07	0.1004582
25	0x3dafe9b7	0.085894994
26	0x3d301fe0	0.04299915
27	0x3e3c938f	0.18415664
28	0xbda7e111	-0.08197225
29	0xbc3b99f8	-0.011450283
30	0x3e1871ed	0.14887209
31	0x3e0aad64	0.13542706

conv.1.weight f4 [32]
0	0x3f90dae1	1.1316797
1	0x3f2e2901	0.68031317
2	0x3f88d493	1.0689873
3	0x3f2fbd2b	0.6864802
4	0x3f5d6994	0.86489224
5	0x3f0f09a6	0.558741
6	0x3f7d3a14	0.98916745
7	0x3f3febcf	0.7496919
8	0x3ee0883c	0.4385394
9	0x3f3258a2	0.6966649
10	0x3f7c996e	0.98671615
11	0x3ee0af83	0.43883905
12	0x3f3f2fef	0.74682516
13	0x3f1d791d	0.6151293
14	0x3f295a1d	0.66153127
15	0x3f82dfc6	1.022454
16	0x3f3b9409	0.7327276
17	0x3f90dd18	1.1317472
18	0x3f3fbfd6	0.74902093
19	0x3f8af8cb	1.0857176
20	0x3f5ccf8d	0.862542
21	0x3f590b13	0.8478252
22	0x3f48ecf5	0.7848657
23	0x3f86607b	1.0498194
24	0x3f619255	0.8811391
25	0x3fa6db3c	1.3035655
26	0x3f4f8c5b	0.8107354
27	0x3f14c488	0.5811238
28	0x3f5efbcc	0.8710296
29	0x3f3cf984	0.7381823
30	0x3f3d0da9	0.7384897
31	0x3f62ff97	0.8867125

conv.1.bias f4 [32]
0	0xbec01676	-0.37517136
1	0xbed91f64	-0.42406762
2	0xbea9a8e7	-0.33136675
3	0xbec19df4	-0.3781582
4	0xbec4b4b8	-0.38419127
5	0xbf1fff1c	-0.6249864
6	0xbeb06cbe	-0.34457964
7	0xbea8b34c	-0.32949293
8	0xbe794afc	-0.2434501
9	0xbef4bc6a	-0.478
10	0xbe76b6bf	-0.2409315
11	0xbe9b6b43	-0.30355272
12	0xbf071d59	-0.52779156
13	0xbe9d872e	-0.30767196
14	0xbe3cd341	-0.18439962
15	0xbea8bff7	-0.32958958
16	0xbeed60bc	-0.46362865
17	0xbf12bee7	-0.57322544
18	0xbee26978	-0.4422109
19	0xbe8b1196	-0.27161855
20	0xbee905f6	-0.4551236
21	0xbf335529	-0.7005182
22	0xbf30e702	-0.6910249
23	0x3e081db5	0.13292582
24	0xbd9a7dff	-0.07543563
25	0xbe9471fc	-0.28993213
26	0xbebb8dfc	-0.36631763
27	0xbf1908cf	-0.59779066
28	0xbea34819	-0.31890944
29	0xbe7615c1	-0.24031736
30	0xbee6d560	-0.45084667
31	0xbeed7790	-0.4638028

conv.1.running_mean f4 [32]
0	0x3daeb216	0.08530061
1	0x3d8f5c80	0.07000065
2	0x3dd7af3e	0.10531472
3	0x3e270666	0.16311035
4	0x3e61be89	0.2204534
5	0x3e3d1c89	0.18467917
6	0xbda7cfed	-0.081939556
7	0xbc68c68c	-0.0142074935
8	0x3d9c101d	0.07620261
9	0x3e0347fb	0.12820427
10	0x3da458f0	0.08024776
11	0x3d7bbf56	0.06146177
12	0xbdeb52d7	-0.1149041
13	0xbc14057c	-0.009034511
14	0x3cb364a2	0.021898571
15	0xbdb4ef9e	-0.08834766
16	0xbd8fa730	-0.0701431
17	0x3cc6f8f0	0.024288625
18	0x3e3f0921	0.18655826
19	0x3e165875	0.14682181
20	0xbd20c1e6	-0.039247416
21	0x3eb3cfbc	0.35119426
22	0x3e7d2fc3	0.24725251
23	0xbdf1574c	-0.11784229
24	0x3e352ebe	0.17693612
25	0x3e12ed61	0.14348365
26	0x3d654d0c	0.05598168
27	0x3e095dc8	0.13414681
28	0xbe09acca	-0.1344482
29	0xbca961ee	-0.02067658
30	0x3e37e3d6	0.17958006
31	0x3e4df7f4	0.20114118

conv.1.running_var f4 [32]
0	0x409b0466	4.844287
1	0x404b52b5	3.176923
2	0x409e1e66	4.9412107
3	0x402d32fe	2.7062373
4	0x40911ff6	4.5351515
5	0x403cb6dc	2.9486609
6	0x40b9df9b	5.8085456
7	0x4098ec0d	4.778815
8	0x3ffaca98	1.9593077
9	0x40ef7a5f	7.483688
10	0x40cc20b4	6.378992
11	0x40c60650	6.1882706
12	0x41134155	9.20345
13	0x40f18ba1	7.5482945
14	0x409f3e01	4.976319
15	0x414b1702	12.693117
16	0x40a4deee	5.152213
17	0x40af9af8	5.487667
18	0x4138d9cc	11.553173
19	0x411d9a66	9.850195
20	0x40c58f78	6.1737633
21	0x40e972fc	7.295286
22	0x3fb09fef	1.3798808
23	0x4171fb1e	15.123808
24	0x40e734c6	7.225192
25	0x40b5dd65	5.6832757
26	0x413aefb8	11.683525
27	0x4040733f	3.007034
28	0x40d00834	6.5010014
29	0x4036cbf1	2.8561976
30	0x3f6cd476	0.9251169
31	0x407b5532	3.927075

conv.5.weight f4 [64, 32, 3]
0	0x3cbe35f3	0.023219084
1	0x3de91748	0.11381394
2	0xbdaf1b88	-0.08550173
3	0xbddf107d	-0.10891817
4	0xbe0ecb7e	-0.13944814
5	0xbdde0d81	-0.108424194
6	0xbe9b8ec4	-0.3038236
7	0xbe8779e8	-0.26460195
8	0xbe751949	-0.23935427
9	0x3ba52c79	0.005040702
10	0xbd7dbb04	-0.06194593
11	0xbd228a2b	-0.03968255
12	0x3c109272	0.008823978
13	0x3e30997e	0.17246053
14	0xbe1fe9a7	-0.15616475
15	0x3c9207b2	0.017825935
16	0x3e8a696f	0.27033564
17	0xbd94c667	-0.07264405
18	0xbd38d71e	-0.045127027
19	0x3e38d12e	0.18048546
20	0xbcc0be21	-0.02352816
21	0x3e0e84f0	0.13917899
22	0xbd4c0b8b	-0.049815696
23	0x3dbd28a2	0.09236266
24	0x3cc13dc7	0.023589028
25	0x3b950d78	0.0045487247
26	0xbda568b5	-0.08076612
27	0x3db0bd1f	0.08629822
28	0x3dd5ace8	0.1043337
29	0x3e484f27	0.19561444
30	0xbd79ce57	-0.060987797
31	0xbd0dbc96	-0.034603678
32	0xbbd53101	-0.006506086
33	0x3c280a11	0.010256306
34	0x3d3aa45b	0.045566898
35	0x3a016ad9	0.0004936881
36	0x3c4a6032	0.012352036
37	0x3def5db6	0.11687796
38	0x3e5b5daf	0.21422456
39	0x3d96301e	0.073333964
40	0x3d80a6ae	0.062817916
41	0x3d87b42a	0.066261604
42	0x3be49255	0.006975452
43	0x3dbbe945	0.09175352
44	0xbd6f0c45	-0.05836131
45	0x3e28142f	0.1641395
46	0x3df01ba9	0.11724026
47	0x3e705047	0.23468123
48	0x3c5cc719	0.013475203
49	0xbd66b13b	-0.056321364
50	0x3cf8e610	0.03038314
51	0x3dc05f94	0.0939323
52	0x3d8cf1cf	0.06882059
53	0xbdbfd4c4	-0.09366754
54	0x3e490eac	0.19634503
55	0x3d9217d8	0.07133454
56	0x3d66f19d	0.056382764
57	0xbd1bc0db	-0.03802572
58	0x3cf45174	0.029823996
59	0xbe05ecde	-0.13078639
60	0x3ed24028	0.41064572
61	0x3e93b2eb	0.2884744
62	0x3ee4c4df	0.4468145
63	0xbe08ff27	-0.13378583
64	0xbe3d5223	-0.18488364
65	0xbf163f8c	-0.58690715
66	0xbe2dc6ea	-0.16970411
67	0x3eea268b	0.4573253
68	0xbe9c2946	-0.3050024
69	0xbda943de	-0.08264898
70	0xbd955bfb	-0.072929345
71	0xbd87a3b6	-0.06623022
72	0xbdfb47f9	-0.12269587
73	0xbe28a18d	-0.16467877
74	0xbe917b81	-0.28414539
75	0xbed2e325	-0.41188923
76	0xbea6d608	-0.32585168
77	0xbef1b244	-0.47206318
78	0x3daa4cc1	0.08315421
79	0x3e9adba6	0.30245703
80	0xbe67c4c5	-0.22633655
81	0x3da15d08	0.078790724
82	0x3e806cc6	0.25082988
83	0x3da45419	0.08023853
84	0x3e586753	0.21133165
85	0x3e270345	0.16309841
86	0x3d9fe2bf	0.0780692
87	0xbe23b229	-0.15985931
88	0xbe4d90f0	-0.2007482
89	0x3db7d434	0.089760214
90	0x3ceac618	0.028658912
91	0x3ebdc0b1	0.37061074
92	0xbdd58f32	-0.10427703
93	0xbdafe51c	-0.08588621
94	0xbe012b2e	-0.12614128
95	0xbe16d8e0	-0.14731169
96	0xbd885dba	-0.06658502
97	0xbba281a2	-0.004959301
98	0xbd937280	-0.071995735
99	0x3cfa238f	0.030534534
100	0x3d15ef5a	0.036605217
101	0xbc18eefc	-0.009334322
102	0x3ec84a0c	0.39118993
103	0x3ef147af	0.47125003
104	0x3f0cabd9	0.5494972
105	0x3e243228	0.16034758
106	0xbccb465c	-0.024813823
107	0x3e8fb49d	0.28067484
108	0x3eba6f23	0.36412916
109	0x3d4fb1ad	0.050706554
110	0x3e484361	0.19556953
111	0x3ccbe418	0.024889037
112	0xbcab46b3	-0.020907735
113	0x3dd4352f	0.103617065
114	0xbd7849d0	-0.060617268
115	0x3d70b582	0.05876685
116	0x3d1cb789	0.03826097
117	0x3dec109a	0.11526604
118	0x3dc5d8da	0.09660502
119	0x3e53f177	0.2069758
120	0xbde8dd0c	-0.11370286
121	0xbde7455c	-0.11292526
122	0x3d45738d	0.0482059
123	0xbc886a60	-0.016652286
124	0xbdc2611a	-0.09491177
125	0xbd3434c9	-0.043995652
126	0xbe073972	-0.13205507
127	0xbdbbb869	-0.09166033
128	0xbd8d5605	-0.069011725
129	0xbd6d86e7	-0.05798998
130	0x3b7d4c1f	0.0038650108
131	0xbd6e8487	-0.058231857
132	0xbe0c961a	-0.13729134
133	0xbe8bd39f	-0.27309892
134	0xbd442d99	-0.047895048
135	0xbde4c39b	-0.11170121
136	0xbe545f22	-0.20739415
137	0xbe110972	-0.1416376
138	0xbdd1aa89	-0.10237605
139	0xbbe1a735	-0.0068863877
140	0xbda94987	-0.08265977
141	0xbe381446	-0.17976484
142	0xbdbf4795	-0.09339825
143	0xbdd1bdbd	-0.10241268
144	0xbe01a4ef	-0.12660573
145	0xbe16c6f4	-0.14724332
146	0xbe44496c	-0.19168633
147	0xbc68d5b6	-0.014211109
148	0x3c8e387c	0.017360918
149	0x3d039cb1	0.032131854
150	0x3d4ff3ab	0.05076949
151	0x3dc66c99	0.09688682
152	0x3e046fa1	0.12933208
153	0xbcadca9a	-0.021214772
154	0x3d7fd7a4	0.06246151
155	0xbc893039	-0.016746627
156	0xbd8ce6cd	-0.06879959
157	0x3d1f2448	0.03885296
158	0xbd9fd970	-0.07805145
159	0x3cd963e7	0.026536895
160	0x3db84238	0.08997005
161	0x3bb6ee3f	0.0055826004
162	0xbd3e407e	-0.046448223
163	0x3d240505	0.04004385
164	0x3e26b876	0.16281304
165	0x3d25737d	0.04039334
166	0x3dbeb9f5	0.09312812
167	0x3c1ab7ce	0.0094432365
168	0xbd0fbabd	-0.035090197
169	0x3cb307a5	0.021854231
170	0x3da94a8c	0.08266172
171	0x3e883027	0.26599237
172	0x3e24d84c	0.16098136
173	0x3f9fb4e6	1.2477081
174	0x3d89b576	0.06724064
175	0x3e4c76d8	0.1996721
176	0x3d203d1a	0.03912077
177	0xbda1cee5	-0.0790079
178	0xbc6b52fb	-0.014363046
179	0x3d74195e	0.059594505
180	0xbd4f65cf	-0.0506342
181	0x3de916ab	0.11381277
182	0x3c73f2af	0.014889403
183	0xbdf957d3	-0.12174954
184	0xbd5a0f30	-0.05323714
185	0xbd43b11b	-0.047776323
186	0x3d25b84e	0.04045897
187	0x3e62731b	0.22114222
188	0x3e398554	0.18117267
189	0x3d04ee1b	0.032453638
190	0x3d6cf4f9	0.05785081
191	0x3db74585	0.08948807
192	0xbd68a8be	-0.05680155
193	0xbd87204b	-0.06597956
194	0x3d67fae2	0.056635745
195	0x3dcec6db	0.100965224
196	0xbcd80c99	-0.026373195
197	0xbd3ac16b	-0.045594614
198	0x3e7c1e72	0.24620989
199	0x3e8754ae	0.26431793
200	0x3edd0ffb	0.43176255
201	0x3df75209	0.12076194
202	0xbd1d7835	-0.038444716
203	0xbe29ef6e	-0.16595241
204	0x3a864a21	0.0010245481
205	0xbd6ae654	-0.057348564
206	0xbd53b62f	-0.051687416
207	0xbd614e5e	-0.055006377
208	0xbd98eeaf	-0.074674
209	0xbde7b4b9	-0.11313767
210	0xbf0cdc4f	-0.55023664
211	0xbf057e4c	-0.5214584
212	0xbf01a3f0	-0.50640774
213	0x3e012c5d	0.1261458
214	0xbd8cefed	-0.068817
215	0xbd2c06d7	-0.04199871
216	0xbd32ea2a	-0.043680348
217	0xbdccec2b	-0.10005983
218	0xbd0b2e8f	-0.03397995
219	0x3d4a9406	0.049457572
220	0xbde095d0	-0.109660745
221	0x3dcd4b87	0.10024171
222	0xbe92c9f6	-0.2866971
223	0xbe70b327	-0.23505841
224	0xbe93362d	-0.2875227
225	0x3d39f28f	0.045397338
226	0xbdefa398	-0.11701125
227	0x3db3dd15	0.087824024
228	0xbe09692a	-0.13419023
229	0xbe46006f	-0.19336103
230	0xbe6fa644	-0.23403269
231	0xbd5425ab	-0.051793735
232	0xbe599a12	-0.2125018
233	0xbe6a0304	-0.22852713
234	0x3b35d0d2	0.0027742875
235	0xbde5520c	-0.1119729
236	0xbe22cad2	-0.15897682
237	0xbe179493	-0.1480277
238	0xbe40e3b7	-0.18836866
239	0xbd8539f6	-0.06505196
240	0xbd8dc3b6	-0.069220945
241	0xbda4a14a	-0.08038576
242	0xbd1029c9	-0.0351961
243	0xbd7f13c3	-0.062274706
244	0x3cea945b	0.028635195
245	0xbc86d2be	-0.016457912
246	0xbc611613	-0.013738173
247	0x3d9189cc	0.07106361
248	0x3dfb51d5	0.122714676
249	0xbf259f28	-0.6469598
250	0xbf3916d7	-0.72300476
251	0xbf25965e	-0.6468257
252	0xbd626d24	-0.055279866
253	0x3aa44d8c	0.0012535318
254	0xbd9885bf	-0.07447385
255	0x3e929125	0.2862636

conv.5.bias f4 [64]
0	0xbb12a1f3	-0.0022374361
1	0x3e1822e4	0.1485706
2	0xbd3e382c	-0.04644029
3	0x3da1070b	0.078626715
4	0xbe1dee50	-0.1542294
5	0x3dbb79bd	0.09154079
6	0x3ccbecfa	0.024893273
7	0xbd178f23	-0.03700174
8	0x3d4937c1	0.049125437
9	0xbd4c9ecf	-0.04995614
10	0xbd823b92	-0.063590184
11	0xbd150fa9	-0.036391888
12	0xbcbda826	-0.023151468
13	0xbd2e748a	-0.04259161
14	0xbd19c9ef	-0.037546095
15	0x3dcba4d5	0.099435486
16	0x3e0b5fd7	0.13610779
17	0x3cdd8f3c	0.027045839
18	0x3ca35a29	0.019940453
19	0x3c9495ff	0.01813793
20	0x3bf837f7	0.007575031
21	0x3c56f91b	0.013120915
22	0x3d41104d	0.047134686
23	0xbd9558c8	-0.07292324
24	0x3d6b37b3	0.057426166
25	0xbd3cb5a9	-0.046071682
26	0xbd8dda99	-0.0692646
27	0x3d9be3ed	0.07611833
28	0xbd8f7c25	-0.070061006
29	0x3ada42fd	0.0016652044
30	0x3d81744a	0.063210085
31	0x3dbf6dfb	0.09347149
32	0x3e078468	0.13234103
33	0x3d63aa87	0.05558255
34	0xbbec8c24	-0.0072188545
35	0x3c033d77	0.00801026
36	0xbc7fab48	-0.0156048015
37	0xbd1455d9	-0.036214683
38	0x3d8b6be4	0.06807688
39	0x3d95ea7d	0.07320116
40	0xbcc93e10	-0.024565727
41	0xbd47ff83	-0.04882766
42	0x3ccaa6ea	0.024737794
43	0xbce1fa0c	-0.027585052
44	0xbdaa8a17	-0.0832712
45	0x3dcea7e3	0.100906156
46	0xbd485744	-0.048911348
47	0xbc8daf0b	-0.017295381
48	0xbc899caa	-0.016798336
49	0x3d36aa3e	0.04459595
50	0xbccb3a7a	-0.024808157
51	0x3d90817b	0.070559464
52	0xbdb1f089	-0.086884566
53	0xbae3737f	-0.0017353146
54	0x3dbda258	0.0925948
55	0x3d090d12	0.03345973
56	0xbbd0e84e	-0.006375349
57	0xbc3e244d	-0.0116053345
58	0x3d9537fd	0.072860695
59	0x3d993286	0.0748034
60	0xbd53eb35	-0.051737983
61	0x3c902642	0.017596368
62	0xbbf47c37	-0.0074610966
63	0x3ceb3337	0.028710945

conv.6.weight f4 [64]
0	0x3f7dace5	0.9909194
1	0x3f82904c	1.0200286
2	0x3f86b80d	1.0524918
3	0x3f5b445b	0.8565118
4	0x3f76caca	0.9640318
5	0x3f51c03c	0.8193395
6	0x3f5c97a2	0.86168873
7	0x3f749777	0.95543617
8	0x3f8184d5	1.0118662
9	0x3f6f1063	0.9338438
10	0x3f747916	0.9549726
11	0x3f5b1b18	0.85588217
12	0x3f4c0924	0.7970145
13	0x3f415bdb	0.75530785
14	0x3f75a276	0.9595102
15	0x3f5700b9	0.8398548
16	0x3f8c4dae	1.0961206
17	0x3f725698	0.9466338
18	0x3f80e274	1.0069108
19	0x3f600eac	0.8752239
20	0x3f74888f	0.9552087
21	0x3f6a861b	0.9161088
22	0x3f769b4d	0.9633072
23	0x3f845a57	1.034007
24	0x3f70939f	0.9397525
25	0x3f6cc060	0.9248104
26	0x3f862ab2	1.048178
27	0x3f8cac6f	1.0990123
28	0x3f545315	0.82939273
29	0x3f61a91d	0.8814867
30	0x3f8724f9	1.0558158
31	0x3f890756	1.0705364
32	0x3f851ee2	1.040005
33	0x3f6d2892	0.9264003
34	0x3f4cde0b	0.8002631
35	0x3f75fbac	0.96087146
36	0x3f5d6642	0.8648416
37	0x3f2ce59e	0.6753787
38	0x3f7f4b22	0.9972402
39	0x3f6ff53a	0.9373356
40	0x3f6a3b61	0.91496855
41	0x3f63ad8d	0.8893669
42	0x3f644a39	0.89175755
43	0x3f4b79aa	0.7948252
44	0x3f7450c8	0.9543576
45	0x3f40cb10	0.7530985
46	0x3f4e78db	0.8065316
47	0x3f991deb	1.1962255
48	0x3f6c6156	0.9233602
49	0x3f79bc3b	0.9755284
50	0x3f6847c3	0.907345
51	0x3f71f1b6	0.94509447
52	0x3f69a12d	0.9126156
53	0x3f746ed2	0.954816
54	0x3f7293be	0.94756687
55	0x3f575446	0.84112966
56	0x3f65224d	0.89505464
57	0x3f3f3d40	0.74702835
58	0x3f84a415	1.0362574
59	0x3f6fd4cc	0.9368408
60	0x3f544607	0.82919353
61	0x3f7a4256	0.9775747
62	0x3f66c557	0.90144867
63	0x3f6ec9f5	0.9327691

conv.6.bias f4 [64]
0	0xbea511e5	-0.32240215
1	0xbe1fd546	-0.15608701
2	0xbef076e8	-0.46965718
3	0xbee55dbd	-0.4479808
4	0xbe9ac2a9	-0.3022664
5	0xbeb03eb0	-0.34422827
6	0xbec40626	-0.3828594
7	0xbe7b6b82	-0.2455273
8	0xbeb38cca	-0.3506835
9	0xbeb6a868	-0.3567536
10	0xbefbcaa4	-0.4917804
11	0xbe829489	-0.25503948
12	0xbf2ff914	-0.6873944
13	0xbd8153b4	-0.06314793
14	0xbea4d0ac	-0.32190454
15	0xbebd90a6	-0.3702442
16	0xbe94891b	-0.29010853
17	0xbe95bfb1	-0.2924781
18	0xbed01bd2	-0.40646225
19	0xbdd58d92	-0.10427393
20	0xbea8a43d	-0.32937804
21	0xbef0b2a8	-0.47011304
22	0xbe144bd7	-0.14482056
23	0xbecdf761	-0.40227798
24	0xbdefb0c7	-0.117036395
25	0xbeb11771	-0.34588197
26	0xbec9dad4	-0.39424765
27	0xbea2e1c6	-0.31812876
28	0xbf01ad04	-0.50654626
29	0xbe70716e	-0.2348077
30	0xbe052065	-0.13000639
31	0xbe774f8d	-0.2415144
32	0xbf17691e	-0.5914477
33	0xbee5a0ff	-0.44849393
34	0xbe03e169	-0.12878956
35	0xbe8fc4dc	-0.2807988
36	0xbe8179b4	-0.25288165
37	0xbeb84222	-0.35987955
38	0xbee377a9	-0.4442723
39	0xbeeb2831	-0.459291
40	0xbe9ce2d9	-0.3064182
41	0xbe6425f8	-0.22280109
42	0xbe9ee32e	-0.310327
43	0xbf5f3397	-0.87188095
44	0xbe79ea06	-0.24405679
45	0xbea94f79	-0.33068445
46	0xbef8a82f	-0.48565814
47	0xbe7fc8c5	-0.24978931
48	0xbeb82ef4	-0.35973322
49	0xbf146621	-0.57968336
50	0xbe8497b6	-0.25896996
51	0xbe94232a	-0.28933078
52	0xbe68c00f	-0.22729515
53	0xbea77faf	-0.32714602
54	0xbf0bf125	-0.5466483
55	0xbeb32e66	-0.34996337
56	0xbeb6ec81	-0.35727313
57	0xbefb2b15	-0.49056306
58	0xbe852d42	-0.2601109
59	0xbf2d8655	-0.677831
60	0xbe8c4cbd	-0.27402297
61	0xbf107a80	-0.5643692
62	0xbee93436	-0.45547646
63	0xbebdfcd2	-0.3710695

conv.6.running_mean f4 [64]
0	0xbeb5ebbf	-0.35531422
1	0x3f5d9ef8	0.8657069
2	0xbf6e3964	-0.9305632
3	0x3f7bb4c1	0.98322684
4	0xbf88d6bd	-1.0690533
5	0xbf2c3250	-0.6726427
6	0xbf9386d2	-1.1525519
7	0xbf0063ff	-0.5015258
8	0xbf3e3c6e	-0.7431096
9	0xbf2fcc42	-0.6867105
10	0xbf5ffd3a	-0.8749577
11	0xbfcbd092	-1.5923026
12	0x3f473816	0.77819955
13	0x3e86b43a	0.26309377
14	0xbef96c07	-0.4871523
15	0xbf208dce	-0.62716377
16	0xbe91eed5	-0.28502527
17	0xbdf8e311	-0.121526845
18	0xbf847be6	-1.0350311
19	0x3e424f8a	0.18975654
20	0xbf3c3659	-0.7352043
21	0xbf61e97b	-0.8824689
22	0xbfa67fe0	-1.3007774
23	0xbf03eb4a	-0.515309
24	0xbeb2feee	-0.3496012
25	0xbf12a383	-0.5728075
26	0xbfb282b8	-1.3946142
27	0xbd8e882d	-0.06959567
28	0xbf5d380c	-0.86413646
29	0xbf87ee08	-1.0619516
30	0xbe747018	-0.23870885
31	0x3c4e2e7c	0.012584325
32	0xbfeac1c2	-1.834038
33	0xbeaf963f	-0.34294316
34	0xbf027b85	-0.50969726
35	0xbf861f79	-1.0478355
36	0xbfa61e07	-1.2977914
37	0x3e1d95e3	0.15389208
38	0xbfdc63c7	-1.721795
39	0xbf6f4bca	-0.9347502
40	0x3dd891a1	0.105746515
41	0x3f21ba20	0.6317463
42	0xbf4aee21	-0.79269606
43	0xbd84fd68	-0.06493646
44	0xbfc69f94	-1.5517449
45	0xbf821cc3	-1.0165027
46	0xbf8a4965	-1.0803648
47	0xbf3f53b4	-0.74737096
48	0xbf97d0b2	-1.1860564
49	0xbff6e60e	-1.9288957
50	0xbf60a36d	-0.8774937
51	0xbf67d9d4	-0.90566754
52	0xbf39042b	-0.72271985
53	0xbf55e34c	-0.8354995
54	0xbf27e6a3	-0.655863
55	0xbeb4ee88	-0.35338235
56	0xbea4e9a8	-0.32209516
57	0xbf174cdf	-0.5910167
58	0xbe2ae66f	-0.16689466
59	0x3f47197e	0.77773273
60	0xbf58fbee	-0.84759414
61	0x3f17721a	0.5915848
62	0x3e7388e5	0.2378269
63	0x3f6ca7a2	0.9244329

conv.6.running_var f4 [64]
0	0x3f766440	0.9624672
1	0x3fde9f00	1.7392273
2	0x3fb167db	1.3859819
3	0x3f55b1f1	0.8347464
4	0x3f94abe1	1.1614953
5	0x3f830008	1.0234385
6	0x3fe55080	1.7915192
7	0x3faed172	1.3657668
8	0x3f4018de	0.75037944
9	0x3f0f57cf	0.5599336
10	0x40193d6b	2.3943737
11	0x4033d576	2.8099036
12	0x3f43b1bd	0.7644308
13	0x3fdd1b7b	1.7274011
14	0x3f0fa63b	0.5611302
15	0x3fb63f1d	1.4238011
16	0x3fb8bd02	1.4432681
17	0x3f975790	1.1823597
18	0x4011a5fe	2.2757564
19	0x3fd43ad8	1.6580458
20	0x3f8d6888	1.1047525
21	0x3f93ba8d	1.1541306
22	0x40cd103c	6.4082317
23	0x3fc610d2	1.5473883
24	0x3ebeceb6	0.37267083
25	0x3f4fc077	0.81153053
26	0x401d86a9	2.461344
27	0x3ee7d56a	0.4528001
28	0x3f0c69ae	0.54848754
29	0x406aa260	3.6661606
30	0x40452ea3	3.0809715
31	0x3fb73fd2	1.4316351
32	0x405039bf	3.2535245
33	0x3f153ca4	0.58295655
34	0x401e3ec2	2.4725804
35	0x407d1f28	3.9550266
36	0x3fd2b123	1.6460308
37	0x3f4d099c	0.8009279
38	0x40347456	2.8196006
39	0x4026fd7c	2.6092215
40	0x3f1d5719	0.61461025
41	0x3f334800	0.7003174
42	0x401767ad	2.3657029
43	0x3ebdd499	0.37076262
44	0x408c6c9b	4.3882575
45	0x3f93874d	1.1525666
46	0x3fb2e605	1.3976446
47	0x40342b7b	2.8151538
48	0x40388b65	2.883508
49	0x4049b7cd	3.1518433
50	0x40216ec4	2.5223856
51	0x3fbf08b6	1.4924533
52	0x3fc3d18f	1.5298327
53	0x3fd36aa2	1.6516917
54	0x400e80f1	2.22662
55	0x3f5f028e	0.87113273
56	0x3f8cc076	1.0996234
57	0x3f0e354e	0.55550086
58	0x4001b834	2.0268679
59	0x3f852c6c	1.0404181
60	0x3f8368f5	1.0266405
61	0x3ea6f8aa	0.3261159
62	0x3f5dae70	0.86594296
63	0x3fe1ca64	1.763989

conv.10.weight f4 [128, 64, 3]
0	0x3dab91b8	0.08377403
1	0x3ccfd14d	0.025368357
2	0x3e0ad6a9	0.13558449
3	0x3e0bfe33	0.13671188
4	0x3da69241	0.081333645
5	0x3e6f9de1	0.2340007
6	0x3de2e1c9	0.11078221
7	0x3eae411e	0.34034055
8	0x3db0a108	0.08624464
9	0x3e5627fc	0.2091369
10	0x3d46eea3	0.048567425
11	0x3db41f50	0.08795035
12	0xbe9a2576	-0.30106705
13	0xbd953421	-0.072853334
14	0xbe1fbfe0	-0.15600538
15	0xbd1ffecf	-0.039061364
16	0x3d4d1878	0.050072163
17	0x3e1711b4	0.14752847
18	0x3c2369ed	0.009973985
19	0x3e01a4d3	0.12660532
20	0x3e33274c	0.1749546
21	0x3d56b5b6	0.052419387
22	0x3d9ccfbd	0.076568104
23	0xbb930d04	-0.0044876356
24	0xbde80abb	-0.11330172
25	0xbe146618	-0.1449207
26	0x3d9a4b54	0.07533899
27	0xbeaa83d1	-0.33303693
28	0x3d442abd	0.04789232
29	0xbe699795	-0.2281173
30	0x3d9f6ab0	0.07784021
31	0x3dfd6712	0.12373175
32	0x3dd54d89	0.10415179
33	0x3d1161f8	0.03549382
34	0x3e8aa023	0.270753
35	0x3db3beab	0.087766014
36	0x3eda2320	0.42604923
37	0x3e333adb	0.1750292
38	0x3cfc28ef	0.030781237
39	0x398a5e43	0.00026391642
40	0x3d6f69dd	0.05845057
41	0x3d3f8eca	0.046767034
42	0x3e0c99dc	0.13730568
43	0xbb455083	-0.0030107803
44	0x3c3838cd	0.011244011
45	0xbbb9eb28	-0.0056737848
46	0xbcc5d25d	-0.02414816
47	0x3cf5de34	0.030013181
48	0x3db62528	0.08893806
49	0x3e677c21	0.22605945
50	0xbcd2f07e	-0.025749441
51	0x3dc92aab	0.098225914
52	0x3cb5b19c	0.022179417
53	0x3dd65f37	0.104673795
54	0x3d2d765f	0.042349216
55	0x3dca1b75	0.09868518
56	0x3d866fe9	0.06564314
57	0x3dc597ed	0.09648118
58	0x3d213e65	0.039366145
59	0x3e02840b	0.12745683
60	0x3e090785	0.13381775
61	0x3de1b68e	0.11021148
62	0x3dea26d6	0.114331886
63	0x3d17b9da	0.037042476
64	0x3e5e87cf	0.21731494
65	0xbe079c7b	-0.13243286
66	0xbd69b367	-0.057055857
67	0xbd8ef38a	-0.06980045
68	0xbd6c4f8e	-0.057693057
69	0x3d406893	0.04697473
70	0x3e4a286c	0.19741982
71	0x3dad1776	0.084517404
72	0xbe9d09f4	-0.30671656
73	0xbe988726	-0.2979061
74	0xbe449d2d	-0.19200583
75	0x3dc9c717	0.098524265
76	0x3912faa2	0.00014017013
77	0xbe4f33ea	-0.20234647
78	0xbf009ae9	-0.50236374
79	0xbedd83ac	-0.4326452
80	0xbebe257a	-0.37137967
81	0x3e14bea0	0.14525843
82	0x3db679a2	0.08909918
83	0x3e25f493	0.16206579
84	0xbda8963d	-0.08231781
85	0xbd9a373e	-0.07530068
86	0xbde05510	-0.109537244
87	0xbd740387	-0.059573676
88	0xbdc0af59	-0.09408445
89	0xbec76f95	-0.38952318
90	0x3dcd0a09	0.1001168
91	0x3deedf99	0.116637416
92	0x3e1ef8d5	0.1552461
93	0xbc44a902	-0.012003185
94	0xbd820008	-0.06347662
95	0x3d8cdd10	0.06878102
96	0x3e4f8b22	0.20267919
97	0x3e7e8882	0.24856761
98	0x3e44eb96	0.19230494
99	0x3e737580	0.23775291
100	0x3e2e966f	0.17049573
101	0xbd0ccaf3	-0.034373235
102	0x3d8d1ca1	0.06890226
103	0xbcdefecd	-0.027221108
104	0xbe1c4a98	-0.1526283
105	0x3c91da3f	0.017804263
106	0xbd292cb7	-0.04130241
107	0xbeafa9d2	-0.3430925
108	0x3cee405d	0.029083425
109	0x3e75b700	0.2399559
110	0x3e03b486	0.12861833
111	0x3e8f95fd	0.2804412
112	0x3e5c1b88	0.21494877
113	0x3e3a6334	0.18201905
114	0x3e2496c7	0.16073142
115	0xbd4fd402	-0.050739296
116	0x3cdcdcd3	0.026960766
117	0x3d65b27e	0.056078427
118	0x3dbdeef3	0.092740916
119	0x3e0c36c2	0.13692763
120	0xbc92db8f	-0.01792696
121	0xbd083fed	-0.03326409
122	0x3cdb65a8	0.026781872
123	0x3d403ab0	0.04693097
124	0x3da44fe9	0.08023054
125	0x3de17084	0.11007789
126	0xbdf5a6fd	-0.11994741
127	0x3c68792e	0.014189048
128	0xbe29cf83	-0.16583066
129	0x3d7b2cd6	0.061322056
130	0x3dd7c5d0	0.105357766
131	0x3dcc5605	0.099773444
132	0x3d40dca4	0.04708542
133	0x3d8608ab	0.06544622
134	0xbebd1583	-0.36930475
135	0x3cc8a91a	0.024494696
136	0x3e995772	0.29949528
137	0x3ec41fad	0.38305417
138	0xbe52ff1d	-0.2060513
139	0xbe069399	-0.13142242
140	0xbe47acc2	-0.19499496
141	0x3aef194a	0.001824179
142	0x3c0c9af7	0.008581868
143	0x3dbfd0c9	0.093659945
144	0xbe9d2c08	-0.30697656
145	0xbdc62d1b	-0.09676572
146	0xbec64165	-0.38721767
147	0x3e332d7f	0.17497824
148	0x3e3e3577	0.18575083
149	0x3e232d76	0.1593531
150	0xbdf9b1e2	-0.121921316
151	0xbe08283e	-0.13296601
152	0xbc8288c3	-0.015934354
153	0xbda875d3	-0.08225598
154	0xbd5d7a10	-0.054071486
155	0xbe833462	-0.25625902
156	0x3d246aef	0.040141042
157	0x3de5bd04	0.112176925
158	0x3e2bc61d	0.16774793
159	0xbe713e3a	-0.23558894
160	0xbe3374ea	-0.17525068
161	0xbeb5f5dd	-0.3553914
162	0xbda3977a	-0.07987876
163	0x3d06df03	0.032927524
164	0xbda8154e	-0.082071885
165	0xbd98c957	-0.074602775
166	0x3e07f413	0.132767
167	0x3e430f5b	0.19048826
168	0xbd224f30	-0.0396263
169	0x3e5c30bc	0.21502966
170	0x3dfe1698	0.12406653
171	0xbddee203	-0.10882952
172	0xbc03ac9d	-0.00803676
173	0x3db46ab6	0.08809416
174	0x3ceeebdf	0.029165206
175	0x3e64293e	0.22281358
176	0x3e190548	0.14943421
177	0x3ea24773	0.31695136
178	0x3ec75595	0.3893248
179	0x3f202e5b	0.6257073
180	0xbe5f7e75	-0.21825583
181	0xbe482fd9	-0.19549502
182	0xbeab354f	-0.3343911
183	0x3ecd8d66	0.4014694
184	0x3e9640e3	0.2934638
185	0x3edc457a	0.43021756
186	0x3e8430ce	0.25818485
187	0x3df5a633	0.119945906
188	0x3da5e925	0.081011094
189	0x3e500ee3	0.20318179
190	0x3e15c3be	0.14625451
191	0x3e8f77d4	0.2802111
192	0xbd08da06	-0.03341105
193	0xbed28368	-0.4111588
194	0xbec4fc5e	-0.3847379
195	0xbe6d9728	-0.23202193
196	0xbe9f243f	-0.3108234
197	0xbea547c0	-0.32281303
198	0xbe4a705e	-0.19769427
199	0xbd406bf5	-0.046977956
200	0xbe164483	-0.14674573
201	0xbd061371	-0.032733385
202	0xbe130d54	-0.14360553
203	0xbdac40e1	-0.08410812
204	0x3da7d9ad	0.08195815
205	0x3d474f1f	0.04865944
206	0x3de22492	0.110421315
207	0xbe7c823d	-0.24659057
208	0xbddd2f8c	-0.108000845
209	0x3d8b7b06	0.06810574
210	0x3c199854	0.009374697
211	0x3d12d7e4	0.03585042
212	0x3d94510d	0.07242022
213	0xbe26e13f	-0.16296862
214	0xbd4c0aa5	-0.04981484
215	0xbc937ff5	-0.01800535
216	0xbc9b964a	-0.018992562
217	0x3e481f76	0.19543251
218	0x3e61d71d	0.22054715
219	0x3d167d5f	0.036740657
220	0x3e318fe0	0.1734004
221	0xbdc77475	-0.09739009
222	0x3c183a3f	0.009291231
223	0xbe20c9f6	-0.15702042
224	0xbd45b90f	-0.04827219
225	0xbe00dc47	-0.12584029
226	0x3d408bc9	0.04700831
227	0xbe3861dc	-0.1800608
228	0xbcb039b4	-0.02151189
229	0xbe481cfc	-0.19542307
230	0xbe228e32	-0.15874556
231	0x3cc3cfd7	0.023902817
232	0xbdb777b7	-0.08958381
233	0x3cd3dbf3	0.025861716
234	0x3e2eb6f4	0.17061979
235	0xbde708f3	-0.11281004
236	0xbe3abdd6	-0.18236479
237	0xbbc8928e	-0.0061209863
238	0xbcdb1cb0	-0.026747078
239	0x3c544128	0.012954988
240	0xbe333077	-0.17498957
241	0xbd21c0c3	-0.039490473
242	0x3d585f98	0.05282554
243	0x3d480ce1	0.048840407
244	0xbd20abf0	-0.039226472
245	0x3d1b7708	0.037955314
246	0xbcb01933	-0.02149639
247	0xbe5cbd02	-0.21556476
248	0x3e2302d0	0.15919042
249	0xbdd94440	-0.10608721
250	0xbe3339ff	-0.17502593
251	0xbc2dd988	-0.0106109455
252	0x3e15af3f	0.14617632
253	0xbd3a40eb	-0.045472067
254	0xbc9ca85e	-0.019123252
255	0xbef02899	-0.46905974

conv.10.bias f4 [128]
0	0x3d9a2900	0.075273514
1	0x3ce95386	0.02848221
2	0x3b405490	0.0029347278
3	0x3cbb67c6	0.022876631
4	0x3d0de21e	0.03463947
5	0x3d2d5ef3	0.04232688
6	0xbd75d803	-0.060020458
7	0x3cd8fc54	0.026487507
8	0x3c80b513	0.015711343
9	0xbd331045	-0.043716688
10	0xbd309208	-0.043108016
11	0x3ca77cb1	0.0204452
12	0x3d6a0e57	0.05714258
13	0xbd879acf	-0.06621324
14	0xbcba8d37	-0.022772415
15	0x3c9b445f	0.0189535
16	0x3c490ebc	0.012271579
17	0xbd04b461	-0.032398585
18	0xbcc60a89	-0.024174945
19	0xbd1d584a	-0.038414277
20	0x3cf4f319	0.029901074
21	0xbcbeb67b	-0.023280373
22	0x3d4ce65a	0.050024368
23	0x3d8466f2	0.06464948
24	0x3d4456c7	0.04793432
25	0x3d3044f5	0.043034513
26	0xbcca41d3	-0.02468959
27	0x3d28f04b	0.041244786
28	0x3d8b0137	0.06787341
29	0xbd2b00de	-0.041748874
30	0xbd7a2e75	-0.06107946
31	0xbca52358	-0.020158455
32	0xbc218b3a	-0.009859854
33	0xbd29d421	-0.041462068
34	0xbd658b31	-0.056040946
35	0xbd2143bc	-0.039371237
36	0xbd8bbd00	-0.06823158
37	0x3d31da9c	0.043421373
38	0xba618483	-0.00086028146
39	0x3d348848	0.04407528
40	0xbcf25976	-0.029583674
41	0x3d883743	0.06651165
42	0x3b607a31	0.003425252
43	0x3c915c48	0.017744198
44	0xbcf5c938	-0.030003175
45	0x3d8acc19	0.0677721
46	0xbd8905ed	-0.066905834
47	0xbd34df42	-0.044158228
48	0x3d81be48	0.063351214
49	0x3d8f2603	0.06989672
50	0xbc113b85	-0.008864288
51	0xbd1e9e05	-0.038724918
52	0xbd4a86e1	-0.049445037
53	0x3cc0ffb3	0.023559427
54	0xbd0d899b	-0.03455506
55	0x3cba8443	0.022768145
56	0x3ab636bb	0.0013901809
57	0x3c03d082	0.008045318
58	0x3d056f4c	0.032576844
59	0x3a152964	0.00056900666
60	0xbd2c0205	-0.041994113
61	0xbd041dcf	-0.03225499
62	0xbdb2735a	-0.08713408
63	0xbd201b62	-0.039088614
64	0xbd553536	-0.0520527
65	0xbcbc50e1	-0.022987785
66	0x3d150b62	0.03638781
67	0x3d9ff828	0.07811004
68	0xbd161c49	-0.03664807
69	0x3d39415f	0.04522836
70	0xbd2dcb78	-0.04243037
71	0xbc78a717	-0.015176556
72	0x3d760030	0.060058773
73	0x3be4a4d4	0.006977657
74	0xbce6e6ef	-0.02818629
75	0x3d943cd9	0.07238168
76	0x3d954a7f	0.072895996
77	0x3af9ec75	0.0019067662
78	0x3d9fbe34	0.0779995
79	0x3d5ab4d1	0.053395096
80	0xbd1064eb	-0.035252493
81	0x3d293464	0.04130973
82	0xbd34d4d9	-0.0441483
83	0xbd4d1643	-0.05007006
84	0x3d9d8d9d	0.07693026
85	0xbcced022	-0.02524573
86	0xba25faf9	-0.00063316483
87	0xbd62fa6b	-0.0554146
88	0x3c8af61f	0.016963063
89	0x3ca138ee	0.019680467
90	0xbd430ee0	-0.047621608
91	0x3c899579	0.016794907
92	0x3d815de4	0.06316736
93	0x3d3dff72	0.04638619
94	0xbbb72230	-0.0055887923
95	0x3d7c47c3	0.061591875
96	0x3d02392a	0.031792797
97	0x3c03fe41	0.008056224
98	0x3cf22100	0.029556751
99	0x3dafb47b	0.08579346
100	0xbc46d0f9	-0.012134784
101	0x3c330a55	0.010927756
102	0x3c05117c	0.008121844
103	0x3c07befc	0.00828528
104	0x3d1b8a8e	0.037973933
105	0x3d67a083	0.05654956
106	0xbd3671b1	-0.04454202
107	0xbcd32ce7	-0.025778247
108	0xbcd509e8	-0.0260057
109	0xbd8031df	-0.06259512
110	0xb8cf6c2b	-9.890677e-05
111	0x3cbc8115	0.02301077
112	0x3d0713e4	0.032977954
113	0xbcad6ae1	-0.021169128
114	0x3c0a0a5a	0.00842532
115	0x3d8a61df	0.06756949
116	0xbd21c9f0	-0.039499223
117	0xbd044fc9	-0.03230265
118	0xbc8655b7	-0.016398294
119	0x3d022929	0.031777535
120	0x3d7ae1e2	0.061250575
121	0xbd0a378b	-0.033744376
122	0x3cca6431	0.024705978
123	0xbb610444	-0.0034334818
124	0xbcaa2de7	-0.020773841
125	0xbd32f04b	-0.043686192
126	0xbd11c00e	-0.03558355
127	0x3ba3c87a	0.004998264

conv.11.weight f4 [128]
0	0x3f9deb15	1.2337366
1	0x3f8aeed5	1.0854136
2	0x3f64c4b2	0.89362633
3	0x3fa3f63e	1.2809522
4	0x3f90bb19	1.1307098
5	0x3fb32fc0	1.3998947
6	0x3f6d331c	0.9265611
7	0x3f6e2c51	0.9303637
8	0x3fb94267	1.4473389
9	0x3f8d9f4b	1.1064237
10	0x3f8a695b	1.0813402
11	0x3fae0790	1.3596058
12	0x3f81731c	1.0113254
13	0x3f7e506d	0.9934147
14	0x3faf7af4	1.3709397
15	0x3f897151	1.0737706
16	0x3fbe1b01	1.4851991
17	0x3fb7e83b	1.4367746
18	0x3f8ed15d	1.1157643
19	0x3f6e7f4d	0.93162996
20	0x3f6dc058	0.9287162
21	0x3f87a055	1.0595804
22	0x3f927342	1.1441424
23	0x3f6cea92	0.92545426
24	0x3fb1d6a1	1.3893625
25	0x3f819fe9	1.0126926
26	0x3f9c64e8	1.2218294
27	0x3fdb6fec	1.7143531
28	0x3f980304	1.187592
29	0x3f6ace11	0.9172068
30	0x3f93ac31	1.1536924
31	0x3f95dab6	1.170737
32	0x3fe810eb	1.8130163
33	0x3fbad952	1.4597571
34	0x3f638572	0.88875496
35	0x3faffa05	1.3748175
36	0x3f9b6882	1.2141268
37	0x3fc5c909	1.5451976
38	0x3f7250c9	0.9465452
39	0x3fef4b39	1.8694831
40	0x3ff5b97a	1.9197228
41	0x3fa66e6c	1.3002448
42	0x3f8bee52	1.0932105
43	0x3fec12c2	1.8443224
44	0x3f64d1e2	0.89382756
45	0x3f67c2be	0.9053153
46	0x3faed78b	1.3659528
47	0x3f97d1ac	1.1860862
48	0x3fa270a6	1.2690628
49	0x3f73845d	0.95123845
50	0x3ff6a523	1.9269146
51	0x3fb0df61	1.381817
52	0x3fbfdaba	1.4988625
53	0x3faa363b	1.32978
54	0x3f85f0c6	1.0464103
55	0x3fb02900	1.3762512
56	0x40010f64	2.0165644
57	0x3f6e6011	0.93115336
58	0x3f77f939	0.9686466
59	0x3f6a8e94	0.91623807
60	0x3fc5a72e	1.5441644
61	0x3fa5e150	1.2959385
62	0x3fa9b0e9	1.3257114
63	0x3ff1cce3	1.8890651
64	0x3f88f0ee	1.0698526
65	0x3f62293e	0.8834418
66	0x3f8151cd	1.0103089
67	0x3f985146	1.1899803
68	0x3f752b74	0.9576943
69	0x3f7df18c	0.99196696
70	0x3ff7dce6	1.9364288
71	0x3f9447ef	1.1584452
72	0x3f90f1c3	1.132378
73	0x3fb91ab9	1.446128
74	0x3fc6a3ad	1.55187
75	0x3ffc27ed	1.9699684
76	0x3fa585cd	1.2931458
77	0x3f9c6da8	1.2220964
78	0x3f89ee42	1.0775836
79	0x3f892738	1.0715094
80	0x3f8db727	1.1071519
81	0x3f688641	0.90829855
82	0x3fd026f1	1.6261884
83	0x4006ed06	2.1082168
84	0x3fbdf29d	1.4839665
85	0x3fa139a1	1.2595712
86	0x3f96b939	1.1775275
87	0x3fa145de	1.2599447
88	0x3f961c55	1.1727396
89	0x3f695ab8	0.9115405
90	0x3f7cb38a	0.98711455
91	0x3f8444a2	1.0333445
92	0x3f8e567b	1.1120142
93	0x3f7e9e57	0.9946036
94	0x3f818b63	1.0120662
95	0x3f7d979e	0.99059474
96	0x3faabbe2	1.3338587
97	0x3f5ab33e	0.8542975
98	0x400daac5	2.213548
99	0x3f876bca	1.057977
100	0x3f8ae8f5	1.0852343
101	0x3f886515	1.0655848
102	0x3f8321e7	1.0244721
103	0x3fafd359	1.3736373
104	0x3fab7ce2	1.3397486
105	0x3fb3c065	1.4043089
106	0x3fbdfcd8	1.4842787
107	0x3fb1d5d1	1.3893377
108	0x3fa6f3e5	1.3043181
109	0x3fa9b79c	1.3259158
110	0x3f970893	1.1799492
111	0x3fa0293a	1.2512581
112	0x3f789ce3	0.9711439
113	0x3ff663bf	1.924919
114	0x3f691203	0.9104311
115	0x3f6f2f99	0.93432003
116	0x3f8e3afb	1.111175
117	0x3f690b1b	0.9103257
118	0x3fa7280c	1.3059096
119	0x3f5e5578	0.86849165
120	0x3f64cc75	0.89374477
121	0x3fc18bf2	1.5120833
122	0x3f937c52	1.1522315
123	0x3f897e89	1.074174
124	0x3faa07f9	1.3283683
125	0x3f7ca089	0.9868246
126	0x3f99fc9d	1.2030216
127	0x3f6f0b8f	0.9337701

conv.11.bias f4 [128]
0	0xbeb59c78	-0.3547094
1	0xbd461a4c	-0.048364922
2	0xbe95d347	-0.29262754
3	0xbdf8bdb0	-0.12145555
4	0x3d7fa73a	0.06241534
5	0x3c251c47	0.010077543
6	0xbdfc41eb	-0.1231726
7	0xbdfc5b33	-0.12322082
8	0xbd87c57b	-0.06629463
9	0xbdb2e516	-0.08735101
10	0xbc1ec379	-0.009690159
11	0xbbeb12d6	-0.0071738763
12	0xbe162a56	-0.14664587
13	0xbdd4b756	-0.10386531
14	0xbf66d481	-0.90168005
15	0x3dbcda09	0.092212744
16	0xbdcba12c	-0.099428505
17	0x3dc38fd4	0.095489174
18	0x3d10fef0	0.035399377
19	0xbe9a3ba6	-0.30123633
20	0xbefb1db1	-0.4904609
21	0xbcb0454e	-0.021517422
22	0xbf17d26b	-0.5930545
23	0xbeb482cb	-0.35256037
24	0x3e78f37a	0.24311629
25	0xbe7021a5	-0.23450334
26	0xbf190c49	-0.5978437
27	0x3b1e24f3	0.002413091
28	0xbe07290c	-0.13199252
29	0xbe45976c	-0.19296044
30	0x3c1eda63	0.009695622
31	0xbdbc59f6	-0.09196846
32	0x3c6a989e	0.014318613
33	0xbb69abf5	-0.0035655473
34	0xbe2126d7	-0.15737472
35	0xbe57e9e3	-0.21085314
36	0xbe187d62	-0.1489158
37	0x3d1b40a1	0.03790343
38	0xbe659b6b	-0.22422569
39	0x3e7ecc26	0.24882564
40	0x3da06aff	0.07832908
41	0x3d6f67b4	0.05844851
42	0xbf1f145e	-0.6214045
43	0xbca0d0d4	-0.019630827
44	0xbea18d92	-0.31553322
45	0xbed77755	-0.4208323
46	0x3d6415ec	0.05568497
47	0x3ccc1797	0.024913592
48	0x3da5e540	0.081003666
49	0xbf1da527	-0.6158013
50	0xbd8fae09	-0.070156164
51	0xbecbaa97	-0.39778587
52	0xbd5b407e	-0.0535283
53	0xbd355e8f	-0.04427963
54	0xbde79a35	-0.113087095
55	0x3cc7ef88	0.02440621
56	0x3d3b5931	0.045739356
57	0xbe3a6373	-0.18202
58	0xbe4cbe8a	-0.1999456
59	0xbe4c176f	-0.19930814
60	0x3e216921	0.1576276
61	0xbdd1b549	-0.102396555
62	0xbe10eef4	-0.14153653
63	0xbf0c5f22	-0.5483266
64	0xbecfe2cc	-0.4060272
65	0xbf179213	-0.59207267
66	0xbe7da787	-0.24770938
67	0xbeeb4720	-0.45952702
68	0xbec24f40	-0.37951088
69	0xbe10879b	-0.1411423
70	0x3d2d1921	0.042260293
71	0xbd7ce054	-0.061737373
72	0xbe6588f6	-0.22415528
73	0xbcb1e0c4	-0.021713622
74	0xbe189e68	-0.14904177
75	0xbe611988	-0.21982396
76	0x3c009130	0.007847115
77	0xbeb4f30f	-0.3534169
78	0xbe980d65	-0.2969772
79	0xbd75e7cd	-0.060035516
80	0x3dd8d542	0.10587551
81	0xbe5c4258	-0.21509683
82	0x3c91a705	0.017779836
83	0xbe0efedd	-0.1396441
84	0xbd7bd1d8	-0.06147942
85	0x3e3f432d	0.1867797
86	0xbe090bfa	-0.13383475
87	0xbeca33c0	-0.39492607
88	0x3bb1223e	0.0054056933
89	0xbeb8b153	-0.36072788
90	0xbd95827f	-0.07300281
91	0x3c28458f	0.01027049
92	0xbd98ef8d	-0.07467566
93	0xbe27318a	-0.16327491
94	0xbe7088cf	-0.23489688
95	0xbe3961cb	-0.18103711
96	0x3a654c28	0.0008747005
97	0xbe9beb52	-0.30452973
98	0x3da0bf4b	0.07848986
99	0xbe82a894	-0.2551924
100	0xbabcfa4c	-0.0014417856
101	0xbf016803	-0.50549334
102	0xbec3a377	-0.3821065
103	0x3dcb12cc	0.099156946
104	0xbdfeb6c5	-0.12437204
105	0x3d92f971	0.071764834
106	0xbc085cce	-0.008322908
107	0xbdbaf7df	-0.09129309
108	0xbbba8f76	-0.0056933714
109	0xbbdf3b24	-0.00681247
110	0x3d36d8a3	0.044640195
111	0xbdeac3d4	-0.114631325
112	0xbe8c26e8	-0.27373433
113	0xbcf970d9	-0.030449318
114	0xbeb1addb	-0.34702954
115	0xbe8c2b62	-0.27376848
116	0xbdb93220	-0.09042764
117	0xbee04f67	-0.4381058
118	0xbedfd1fd	-0.43714896
119	0xbeb9bcba	-0.362768
120	0xbec4862c	-0.38383615
121	0xbe989765	-0.29803005
122	0x3c7f7326	0.015591418
123	0x38cff814	9.916737e-05
124	0xbe79ba64	-0.24387509
125	0xbdaf6e8e	-0.085660085
126	0xbe0d0b5b	-0.13773863
127	0xbf0445db	-0.5166909

conv.11.running_mean f4 [128]
0	0x3fcab60c	1.5836806
1	0xc012984c	-2.2905455
2	0xbfb8eb95	-1.4446894
3	0xbed1e5ae	-0.40995544
4	0x3d80a290	0.06281006
5	0x3edae2b9	0.427511
6	0xc043fdf4	-3.062375
7	0xbd7030c9	-0.058640275
8	0x404b2a0d	3.1744416
9	0x3e80223e	0.25026125
10	0x3f190097	0.59766525
11	0x3ebe5e6a	0.37181407
12	0xbffb3572	-1.9625685
13	0xbfcab1a0	-1.5835457
14	0xbfca4f97	-1.5805539
15	0x3d47cbaa	0.048778214
16	0x3ffcac69	1.9740115
17	0xbec80e88	-0.39073586
18	0xbf0a7c89	-0.54096276
19	0xbfc8ac04	-1.5677495
20	0xbfaab58b	-1.3336653
21	0x3e140550	0.14455152
22	0xc01ef4a9	-2.4836829
23	0x3fa4754b	1.2848295
24	0xbe81a7eb	-0.25323424
25	0xbf114609	-0.5674749
26	0xc01236c2	-2.2845922
27	0x3fe283f1	1.7696515
28	0x3f111803	0.56677264
29	0xbfcfad65	-1.6224791
30	0x3fca9a3f	1.5828322
31	0x3ff01710	1.8757038
32	0xbf251b9c	-0.64495254
33	0x3f6082dc	0.87699676
34	0xbf24a19c	-0.64309096
35	0x3f080261	0.5312863
36	0x4000c468	2.0119877
37	0xbf09a922	-0.537737
38	0xc00c9015	-2.196294
39	0x400ee74b	2.232867
40	0x4004eda9	2.0770056
41	0xbf253ee8	-0.6454911
42	0xbf8c541a	-1.0963166
43	0xbe638409	-0.22218336
44	0xbffa955c	-1.9576831
45	0xbf728b7c	-0.94744086
46	0xbf596ddf	-0.84933275
47	0x3cd1c3cf	0.025606064
48	0x3fd2aad8	1.6458387
49	0xbf9d74b7	-1.2301244
50	0x4034c64f	2.8246038
51	0x400226ee	2.033626
52	0x3f0579a4	0.52138734
53	0x3fc7aebc	1.56002
54	0xbff51020	-1.9145546
55	0x3f0b9c29	0.54535156
56	0xbd37a9ac	-0.044839546
57	0xc01a4cc2	-2.410935
58	0xbfd851ac	-1.6899924
59	0xc0306b9c	-2.756568
60	0xbf03e3f9	-0.51519734
61	0x3fee7128	1.8628283
62	0xbe1908d1	-0.1494477
63	0x3db9ad42	0.090662494
64	0xbfb21b37	-1.3914555
65	0xc007b8fb	-2.1206653
66	0xc04951f9	-3.1456282
67	0xbf2ac598	-0.66707754
68	0xc001d75e	-2.02877
69	0x3fb65f39	1.424781
70	0xbf194935	-0.5987733
71	0xbd235779	-0.039878342
72	0xbfd2c43c	-1.6466136
73	0x3fecafd7	1.8491162
74	0x3f1ec033	0.6201202
75	0x3ea5ae91	0.32359746
76	0x4031b8d2	2.7769055
77	0x402e9fbf	2.7285001
78	0x3dfa0767	0.12208443
79	0x3eac2996	0.33625478
80	0x3f3d1d69	0.73873
81	0xc05dfb75	-3.4684727
82	0x3d1cc2e7	0.03827181
83	0xbeeca254	-0.46217597
84	0xbefba69f	-0.4915056
85	0xbf0ef8ba	-0.55848277
86	0x3f36d667	0.714209
87	0xbfb0871d	-1.3791233
88	0x3fa92b2f	1.3216304
89	0xbffe392b	-1.9861196
90	0xc06f8e88	-3.7430744
91	0xbf4f5257	-0.80985016
92	0xbf629951	-0.8851519
93	0x3f2f4a47	0.68472713
94	0xbf5f23f4	-0.87164235
95	0xc0121f6b	-2.2831676
96	0x3fdfffb7	1.7499913
97	0xc00ca34a	-2.1974664
98	0xbf51e214	-0.8198559
99	0xbf56166e	-0.83627975
100	0xbda1e020	-0.079040766
101	0xbe07863b	-0.13234799
102	0xbd78303b	-0.06059287
103	0xbedee710	-0.43535662
104	0x3fb0c342	1.3809588
105	0x3f031cc4	0.5121577
106	0xbf34352a	-0.7039362
107	0x400bdd78	2.1853924
108	0x3fa483d0	1.2852726
109	0x4039ffdc	2.9062414
110	0x3f4c8174	0.7988503
111	0xbf170d4d	-0.5900467
112	0xbfb1ea68	-1.389966
113	0xbef76244	-0.48317158
114	0xbfdb013c	-1.7109752
115	0xbf126ac8	-0.57194185
116	0xbe617007	-0.22015391
117	0xbf073352	-0.52812684
118	0xbf73a595	-0.95174533
119	0xbef84172	-0.4848743
120	0xc0212d46	-2.5183883
121	0x3deeb367	0.11655312
122	0x3e3e97a6	0.18612537
123	0xbf060511	-0.5235148
124	0x3e11ff7e	0.14257619
125	0xc0545a5d	-3.3180153
126	0xbf62499d	-0.88393575
127	0xbec9e3a0	-0.39431477

conv.11.running_var f4 [128]
0	0x408ff602	4.4987803
1	0x40e57452	7.1704493
2	0x40203bc7	2.5036485
3	0x403bc394	2.9338121
4	0x402aed79	2.6707442
5	0x405c2b5e	3.440147
6	0x40ea61ec	7.3244534
7	0x409bc2a0	4.867508
8	0x4131e3b4	11.118092
9	0x401dd04b	2.4658382
10	0x4097637f	4.7308955
11	0x4071a791	3.7758524
12	0x40661872	3.595242
13	0x4060afbb	3.5107257
14	0x4090162c	4.5027065
15	0x405012a8	3.2511387
16	0x40aeb4c1	5.4595647
17	0x40a91cb0	5.284752
18	0x4004afb2	2.0732236
19	0x40f342ea	7.601918
20	0x4060f4e1	3.5149462
21	0x40906741	4.512604
22	0x41007bb5	8.030202
23	0x40056acd	2.0846436
24	0x40787202	3.8819585
25	0x406ede31	3.7323115
26	0x40f61f93	7.6913543
27	0x412e43a7	10.891517
28	0x40162ff6	2.3466773
29	0x40a00ba9	5.0014234
30	0x401aa38c	2.416232
31	0x403642fe	2.8478389
32	0x406053cc	3.5051146
33	0x406e73d0	3.7258186
34	0x402a2d6d	2.6590226
35	0x403e65bd	2.9749596
36	0x40716c5b	3.7722385
37	0x40b9726c	5.7952175
38	0x40918e55	4.5486245
39	0x4136eaf4	11.432362
40	0x417dbe18	15.85891
41	0x402cbbef	2.6989706
42	0x3f961769	1.1725894
43	0x405343a2	3.301003
44	0x40b4d1b5	5.650599
45	0x401db8b8	2.4643993
46	0x40881a41	4.253205
47	0x400ba17a	2.1817307
48	0x410c9c89	8.788217
49	0x408fc06e	4.49224
50	0x40f41d09	7.6285443
51	0x40e8c3f3	7.2739196
52	0x406413ed	3.5637162
53	0x400bb8ab	2.1831462
54	0x4098be26	4.7732115
55	0x40b66227	5.6994815
56	0x40f14e30	7.5407944
57	0x410bcc9e	8.737455
58	0x41122cc1	9.135926
59	0x3fde94dc	1.7389178
60	0x408ce3f3	4.402826
61	0x4047dbbb	3.1227863
62	0x400d59a4	2.2085962
63	0x4093906d	4.61138
64	0x40ef5199	7.4787107
65	0x4035c2a9	2.840006
66	0x41314b1b	11.080836
67	0x410418cf	8.256057
68	0x40b2801b	5.578138
69	0x40376df3	2.8660858
70	0x410c50a3	8.769687
71	0x40ba659d	5.824904
72	0x405d4466	3.4572997
73	0x404c5d83	3.1932075
74	0x40c7a8af	6.2393413
75	0x40c84103	6.257936
76	0x4118601a	9.523462
77	0x408d9070	4.4238815
78	0x3fbf1c4b	1.4930509
79	0x40ac3c3f	5.3823543
80	0x4075072c	3.8285627
81	0x411786e2	9.47043
82	0x402db473	2.7141387
83	0x407929ef	3.8931844
84	0x4087df84	4.2460346
85	0x408bb74b	4.3661246
86	0x40b25653	5.5730376
87	0x412bf84b	10.748118
88	0x40778af4	3.867856
89	0x40a26af2	5.075555
90	0x412470aa	10.277506
91	0x40554d39	3.3328383
92	0x3fee187d	1.8601223
93	0x4028ee5e	2.6395488
94	0x40fcef3a	7.9042025
95	0x406e2a4a	3.7213311
96	0x40d1bb1a	6.5540895
97	0x406a9390	3.6652565
98	0x412e2731	10.884568
99	0x40e85140	7.259918
100	0x3ff4ab75	1.9114825
101	0x40b7644e	5.730994
102	0x4029b2c8	2.651537
103	0x4030a768	2.7602177
104	0x40191d48	2.3924122
105	0x403d3f10	2.956974
106	0x4035a54e	2.8382144
107	0x40ffdea8	7.9959297
108	0x40a62ad8	5.19273
109	0x40e4287d	7.1299424
110	0x40542c33	3.3151977
111	0x4082cf4a	4.087804
112	0x40969556	4.7057295
113	0x40d3d5cc	6.6198483
114	0x4040a2b1	3.00993
115	0x40261617	2.5950983
116	0x4022936b	2.5402477
117	0x403805e0	2.8753586
118	0x402f1947	2.7359178
119	0x403e0cc9	2.9695303
120	0x4110297f	9.010131
121	0x406c3fe2	3.691399
122	0x40257fe2	2.5859303
123	0x4064fb26	3.577829
124	0x40b3c6ff	5.6180415
125	0x40b239c7	5.569553
126	0x4101e518	8.118431
127	0x40464fd2	3.0986218
