output/electricity_cnn_20260221_204822/checkpoints/epoch_50.pt (torch, 174824 bytes, 21 tensors)

conv.0.weight f4 [32, 14, 3]
-0.11874292 -0.016661385 0.02591073 -0.00046875913 0.0926636 -0.092799515 -0.093692295 0.10408819
-0.092203386 0.029474191 -0.075221695 -0.0057886285 -0.0029767642 0.0048712543 -0.0136895245 0.027883846
0.06264685 -0.06333405 0.025271716 0.1466001 0.011138111 0.009446373 -0.06328366 -0.016791746
0.47856325 0.40764275 0.5636614 -0.82751185 -0.8703169 -0.94048357 -0.22978704 -0.25026402
-0.17806472 -0.031951316 0.048485003 -0.013930063 -0.115699984 0.10651782 0.0027572794 -0.055641107
0.003313202 0.0667529 -0.20246488 0.08826556 0.05989858 0.14435062 0.08227929 0.041543014
-0.12510242 -0.021359626 -0.030800521 0.20109206 0.178028 -0.22010097 0.0375676 -0.031140452
0.09279281 0.06433536 0.050907966 -0.07004769 0.011010843 0.04038244 0.16073601 -0.004817967
-0.09185052 0.092489086 -0.17928326 -0.012307654 -0.0038048476 0.21577562 0.24257177 0.38976365
-0.48072404 -0.56449455 -0.472945 0.04502219 0.13279444 -0.22207882 0.06705165 -0.0672453
-0.010217058 0.03652447 -0.06721953 0.11622353 0.096158534 0.15509869 -0.24322613 0.037171155
0.05380276 0.071002424 -0.02243871 0.044129428 -0.1877235 -0.10327407 0.14321165 -0.014026165
0.08973981 -0.06933223 -0.0194552 -0.00904814 0.020476392 -0.022094747 0.07830781 0.12226911
-0.05343198 -0.01786962 0.08285342 -0.11396359 -0.93948674 -0.6882697 -0.87944406 0.027967118
0.2461011 0.3136481 0.15985888 0.030561503 0.2658302 0.0063692643 -0.017058335 0.018043447
-0.043604154 0.14480692 -0.10280346 -0.084625155 -0.025578426 0.11644721 0.23846635 0.026024815
-0.093783244 -0.101032756 0.026478497 -0.0060155243 0.015494428 0.044606328 -0.112541884 0.17781404
0.09301218 0.058607105 0.024177186 -0.0006361773 -0.062368482 0.07794738 0.077390544 0.0050937943
0.02015153 0.12855677 -0.20672664 0.051381156 -0.21068291 0.058841567 0.096681416 0.16737424
0.22810718 0.08295865 0.17122099 0.29697156 0.3723693 0.39384267 0.38936406 0.34531888
0.13406485 0.108906135 0.07360077 -0.08443978 -0.06722319 -0.003050554 0.06923622 0.085771546
0.124668516 -0.053421378 -0.07741772 0.018020703 -0.070187815 -0.02750402 0.071385816 0.030068476
-0.00096501474 0.06626505 0.03947741 -0.07547404 0.00161097 -0.014546356 -0.036808603 -0.003311041
-0.025137506 -0.027928768 -0.0074960017 -0.004432773 -0.06543981 0.065520115 0.040572956 0.014031283
0.5168397 0.5581325 0.62478757 0.011478935 0.22220914 0.2670059 0.24017134 0.34128863
0.35903913 0.04930435 0.104539014 0.006180446 0.03141376 0.008237698 -0.023133246 -0.07000496
0.017868137 0.024370918 0.017560773 0.106113106 -0.07811471 0.15426746 -0.105798595 0.09693356
-0.014925596 -0.06799059 -0.09987155 -0.13390087 0.053312406 -0.101710916 5.6954857e-05 0.0037256153
0.018877711 -0.008734338 -0.0085333185 0.012907494 0.01947424 0.23840219 -0.15235075 0.14840806
-0.08161839 -0.52578133 0.10673272 0.24652815 0.1274168 -0.43433255 -0.5434913 -0.5226597
0.42643574 0.1898153 0.3945598 0.13124797 0.13995196 0.023638578 -0.009613437 0.04198726
0.05756872 0.085332 0.006756469 -0.17041908 -0.15854251 -0.17196454 0.23811893 0.0010615576
00000000: 7d2f f3bd 757d 88bc bd42 d43c c9c3 f5b9
00000010: 6ac6 bd3d ac0d bebd bfe1 bfbd 302c d53d
00000020: 21d5 bcbd dc73 f13c d50d 9abd 89ae bdbb
00000030: d115 43bb 0b9f 9f3b 074a 60bc aa6c e43c
00000040: fe4c 803d 48b5 81bd a106 cf3c 561e 163e
00000050: a07c 363c f6c4 1a3c dd9a 81bd d88e 89bc
00000060: 3e06 f53e 8db6 d03e 1d4c 103f d1d7 53bf
00000070: 17cd 5ebf 88c3 70bf 4b4d 6bbe 9b22 80be
00000080: 9956 36be 62df 02bd 3698 463d eb3a 64bc
00000090: 1df4 ecbd 0426 da3d 79b3 343b eee7 63bd
000000a0: 4e22 593b bfb5 883d f452 4fbe 93c4 b43d
000000b0: 3758 753d a6d0 133e 0b82 a83d 0229 2a3d
000000c0: d91a 00be 62fa aebc 6051 fcbc 14eb 4d3e
000000d0: f94c 363e 2662 61be 7ce0 193d 431a ffbc
000000e0: 280a be3d 42c2 833d df84 503d 2a75 8fbd
000000f0: d366 343c 0f68 253d fb97 243e 09e0 9dbb
00000100: 201c bcbd eb6a bd3d 0896 37be 0ba6 49bc
00000110: c05a 79bb 49f4 5c3e bc64 783e 1a8f c73e
00000120: 7621 f6be b782 10bf d925 f2be 3069 383d
00000130: 44fb 073e a168 63be 6052 893d e7b7 89bd
00000140: 7265 27bc af9a 153d 65aa 89bd 9a06 ee3d
00000150: c4ee c43d 31d2 1e3e 4510 79be c840 183d
00000160: 4860 5c3d b869 913d 63d1 b7bc 0fc1 343d
00000170: 973a 40be 5b81 d3bd 13a6 123e 00ce 65bc
00000180: 81c9 b73d 0efe 8dbd 8360 9fbc a63e 14bc
00000190: 1bbe a73c 0b00 b5bc d85f a03d 3a68 fa3d
000001a0: 7edb 5abd 4f63 92bc 0eaf a93d be65 e9bd
000001b0: 3482 70bf 7132 30bf 3f23 61bf 4c1b e53c
000001c0: ed01 7c3e 7c96 a03e 0cb2 233e 1e5c fa3c
000001d0: e51a 883e 43b5 d03b ecbd 8bbc dacf 933c
000001e0: 459a 32bd 4448 143e 9f8a d2bd f44f adbd
000001f0: d989 d1bc e07b ee3d 8630 743e fe31 d53c
00000200: 6e11 c0bd 43ea cebd 6fe9 d83c e01d c5bb
00000210: 57dc 7d3c 20b5 363d 5c7c e6bd e214 363e
00000220: 2b7d be3d 010e 703d 3c0f c63c 23c5 26ba
00000230: 1876 7fbd e0a2 9f3d ef7e 9e3d d8e9 a63b
00000240: d214 a53c 63a4 033e 26b0 53be 0c75 523d
00000250: 43bd 57be db03 713d e800 c63d 2764 2b3e
00000260: ee94 693e 3ae6 a93d 8e54 2f3e a80c 983e
00000270: 30a7 be3e bfa5 c93e ba5a c73e a3cd b03e
00000280: 4c48 093e 2e0a df3d 00bc 963d c3ee acbd
00000290: 50ac 89bd ceeb 47bb b8cb 8d3d fea8 af3d
000002a0: 3552 ff3d 60d0 5abd 2e8d 9ebd 27a0 933c
000002b0: a1be 8fbd 1c50 e1bc ba32 923d 2a52 f63c
000002c0: 0bf9 7cba f8b5 873d 11b3 213d 2292 9abd
000002d0: 2f27 d33a d753 6ebc 9ec4 16bd 0dfe 58bb
000002e0: 2ced cdbc dfca e4bc 05a1 f5bb cc40 91bb
000002f0: 4f05 86bd 692f 863d d42f 263d 77e3 653c
00000300: 9b4f 043f c6e1 0e3f 14f2 1f3f 2512 3c3c
00000310: cb8a 633e ffb4 883e 7aef 753e 62bd ae3e
00000320: fad3 b73e 5cf3 493d 8d18 d63d 5785 ca3b
00000330: b7ab 003d 69f7 063c ef81 bdbc c35e 8fbd
00000340: 3360 923c 85a5 c73c 9cdb 8f3c d451 d93d
00000350: 9bfa 9fbd 4af8 1d3e efac d8bd 1a85 c63d
00000360: 7d8a 74bc a73e 8bbd 7589 ccbd 4f1d 09be
00000370: 1c5e 5a3d d04d d0bd d0e2 6e38 7429 743b
00000380: 6ea5 9a3c 781a 0fbc 55cf 0bbc f479 533c
00000390: 7188 9f3c b41f 743e d601 1cbe 48f8 173e
000003a0: 8b27 a7bd 9b99 06bf af96 da3d e071 7c3e
000003b0: 8d79 023e d660 debe 3f22 0bbf 07cd 05bf
000003c0: c955 da3e f15e 423e be03 ca3e de65 063e
000003d0: 914f 0f3e b1a5 c13c ad81 1dbc d5fa 2b3d
000003e0: 2ecd 6b3d 8bc2 ae3d 5f65 dd3b 5782 2ebe
000003f0: f858 22be 7917 30be 73d5 733e f623 8b3a

conv.0.bias f4 [32]
0.13557594 0.032515794 0.045704085 0.18480283 0.2547935 0.18982892 -0.122446 0.015243919
0.050339386 0.12451735 0.033598345 0.09350272 -0.1353428 0.005832038 -0.020649055 -0.1157232
-0.04020658 0.08323073 0.19398488 0.09849318 0.03218819 0.2621944 0.27251995 -0.124702916
0.12263105 0.06570671 0.053372588 0.12172691 -0.104288414 -0.0068801795 0.15883547 0.12960427
00000000: 6bd4 0a3e 482f 053d 3534 3b3d f43c 3d3e
00000010: 4b74 823e 8362 423e f8c4 fabd a1c1 793c
00000020: ac30 4e3d f402 ff3d 6b9e 093d 5b7e bf3d
00000030: 4e97 0abe ae1a bf3b 3528 a9bc 4900 edbd
00000040: a8af 24bd df74 aa3d f9a3 463e cbb6 c93d
00000050: c3d7 033d 583e 863e bc87 8b3e 3e64 ffbd
00000060: fd25 fb3d 3d91 863d 379d 5a3d f54b f93d
00000070: 2a95 d5bd 2173 e1bb c4a5 223e fbb6 043e

conv.1.weight f4 [32]
1.131315 0.676213 1.0627011 0.6923866 0.8676839 0.56216276 0.97373533 0.7685057
0.44671655 0.70427185 0.98231524 0.44391426 0.76626635 0.62460303 0.6803345 1.0224048
0.7417493 1.1356599 0.7679092 1.0909523 0.85834146 0.84241956 0.78422725 1.0725229
0.8756634 1.3204445 0.8082686 0.5786549 0.87652344 0.74846673 0.7316375 0.8824811
00000000: eece 903f 4c1c 2d3f 9706 883f 4040 313f
00000010: 8820 5e3f e6e9 0f3f b846 793f cabc 443f
00000020: 08b8 e43e 294b 343f 0379 7b3f bb48 e33e
00000030: 082a 443f fce5 1f3f 672a 2e3f 29de 823f
00000040: 48e3 3d3f 4e5d 913f b395 443f 53a4 8b3f
00000050: 44bc 5b3f cfa8 573f 1ec3 483f 6e48 893f
00000060: 7a2b 603f 5304 a93f b1ea 4e3f ba22 143f
00000070: d763 603f 849b 3f3f 984c 3b3f 48ea 613f

conv.1.bias f4 [32]
-0.38516688 -0.4237042 -0.33164215 -0.35293928 -0.3969975 -0.61756366 -0.35464764 -0.3211412
-0.26513797 -0.45794585 -0.25266966 -0.30719206 -0.49214333 -0.285748 -0.1980701 -0.3077704
-0.46937025 -0.5668579 -0.4195541 -0.26535153 -0.45076612 -0.6991686 -0.6883288 0.14035863
-0.081140816 -0.26620984 -0.36213428 -0.593593 -0.3265749 -0.24544823 -0.45374027 -0.4663721
00000000: 9834 c5be c2ef d8be 00cd a9be 75b4 b4be
00000010: 4243 cbbe a718 1ebf 6094 b5be 9f6c a4be
00000020: 2ac0 87be e177 eabe eb5d 81be 4748 9dbe
00000030: 36fa fbbe 904d 92be e3d2 4abe 1594 9dbe
00000040: 4c51 f0be 991d 11bf cccf d6be 28dc 87be
00000050: d1ca e6be b7fc 32bf 5136 30bf 2cba 0f3e
00000060: 282d a6bd a84c 88be aa69 b9be b6f5 17bf
00000070: d334 a7be c856 7bbe a550 e8be 53c8 eebe

conv.1.running_mean f4 [32]
0.14319427 0.033730466 -0.027821155 0.21214855 0.3181521 0.18266998 -0.19366147 -0.028041968
0.0967464 0.04317762 -0.047981456 0.12541868 -0.21074006 -0.03224256 -0.094687425 -0.21186091
-0.09818961 0.0775461 0.10214713 -0.007263119 0.033242367 0.24724336 0.27228615 -0.039163657
0.039097402 -0.014503512 -0.0040585236 0.11588598 -0.118988976 -0.04872846 0.1576682 0.05911925
00000000: 85a1 123e f528 0a3d 31e9 e3bc 783d 593e
00000010: d5e4 a23e d70d 3b3e 314f 46be 45b8 e5bc
00000020: fa22 c63d 04db 303d 3488 44bd c16d 003e
00000030: 3ecc 57be c610 04bd 7beb c1bd 11f2 58be
00000040: a217 c9bd 7dd0 9e3d 8432 d13d 75ff edbb
00000050: 2629 083d 5d2d 7d3e 1769 8b3e 126a 20bd
00000060: 9924 203d 23a0 6dbc 5dfd 84bb a155 ed3d
00000070: 7eb0 f3bd 7e97 47bd c673 213e 0727 723d

conv.1.running_var f4 [32]
4.4655805 2.8046489 5.018512 2.7367516 4.3686624 2.7378643 5.5151687 4.5546627
1.9970165 6.738183 6.1515956 5.9158382 8.774429 6.620255 4.679298 11.7982235
4.498317 4.885121 10.535102 9.566908 5.625506 6.6766987 1.267477 13.785242
7.1636777 5.7903757 10.512439 2.7666354 5.9332495 2.6645553 0.8818968 4.042943
00000000: 09e6 8e40 5e7f 3340 a697 a040 f026 2f40
00000010: 15cc 8b40 2b39 2f40 437c b040 ccbf 9140
00000020: 3d9e ff3f 329f d740 dfd9 c440 8c4e bd40
00000030: 1064 0c41 21d9 d340 cfbc 9540 86c5 3c41
00000040: 36f2 8f40 e952 9c40 c78f 2841 0e12 1941
00000050: 2504 b440 84a7 d540 b03c a23f 5a90 5c41
00000060: d93c e540 c24a b940 f332 2841 8e10 3140
00000070: 2edd bd40 1388 2a40 fdc3 613f ca5f 8140

conv.5.weight f4 [64, 32, 3]
0.029397104 0.113508254 -0.08567867 -0.13991298 -0.16378339 -0.15343182 -0.3064144 -0.24982494
-0.25265446 0.006159139 -0.052178107 -0.039299842 0.014952976 0.17511906 -0.16814965 0.014517693
0.26811546 -0.055512115 -0.037443217 0.16149616 -0.035254113 0.12606546 -0.06672695 0.0723619
0.054568786 0.0067538084 -0.06153013 0.06921608 0.066456 0.14642853 -0.0778951 -0.06257872
-0.027953617 0.006345272 0.056079432 -0.005786638 -0.002799504 0.084831454 0.17996627 0.07354961
0.04208751 0.039192036 0.010750281 0.07849255 -0.076208726 0.1504467 0.10130301 0.2142061
-0.008940363 -0.103476614 -0.011397517 0.09426122 0.072102346 -0.09011332 0.16921814 0.030427387
0.021579498 -0.043284085 -0.0045776134 -0.16023421 0.37823355 0.24852931 0.4021661 -0.1545269
-0.21412094 -0.6195731 -0.168721 0.41757655 -0.30810073 -0.08454774 -0.07145861 -0.0685105
-0.10257096 -0.15196958 -0.27668855 -0.39733258 -0.32035038 -0.46369347 0.05317627 0.29413724
-0.25791144 0.081049435 0.2347633 0.06929718 0.18674432 0.112427935 0.07369874 -0.20337851
-0.22523636 0.062454827 0.0062331697 0.33390105 -0.15139778 -0.093248 -0.15020907 -0.18662804
-0.076632164 -0.012065518 -0.080764204 0.040545855 0.03952709 -0.006077411 0.37726817 0.4443757
0.516626 0.14045765 -0.011775956 0.25648722 0.3503679 0.05542905 0.20794736 0.056754254
0.0091903005 0.15860894 -0.053192962 0.09187584 0.07282429 0.14287034 0.06593983 0.20684491
-0.113974795 -0.10072709 0.066085264 0.01605926 -0.04991444 -0.008734295 -0.095712885 -0.07156353
-0.039322335 -0.06918862 0.014312027 -0.04526763 -0.13286087 -0.23442043 -0.035733286 -0.12601826
-0.1948718 -0.085353576 -0.063272476 0.029010901 -0.052346732 -0.16665035 -0.08256844 -0.09732909
-0.10794942 -0.1486051 -0.1489021 -0.017006591 0.012635214 0.033218138 0.0604983 0.08333186
0.10071448 0.0109342765 0.07214948 0.009939605 -0.038204215 0.061606184 -0.030389993 -0.0018843812
0.067682706 -0.020376619 -0.03527503 0.044623353 0.18385091 0.053748973 0.11944413 0.025026128
-0.01597388 0.061989106 0.12385434 0.30620092 0.21996622 1.2348046 0.027708782 0.12833513
-0.0059262416 -0.032053396 0.044172287 0.12358971 -0.03540792 0.10417448 0.04308782 -0.08391654
-0.026306259 -0.022323932 0.025809454 0.2281771 0.19034116 0.020845406 0.042580813 0.07373557
-0.047048554 -0.05418545 0.0786774 0.11304594 -0.021748787 -0.035850286 0.21512718 0.23299186
0.40809008 0.10443547 -0.024904659 -0.15479182 0.00055556674 -0.070053734 -0.07095574 -0.02621626
-0.06287048 -0.104808256 -0.5299544 -0.47042564 -0.48608255 0.104806334 -0.07743873 -0.06841604
-0.015966302 -0.09451328 -0.02831212 0.06201348 -0.056716647 0.12741555 -0.26449668 -0.20281467
-0.2606062 0.06939828 -0.10028339 0.10196665 -0.120596595 -0.16387177 -0.21576041 -0.008829191
-0.21447423 -0.17642477 -0.024986157 -0.1364417 -0.19209498 -0.18746868 -0.23322836 -0.084100224
-0.07141919 -0.041620806 0.019486658 -0.064691834 0.03838024 -0.021139316 0.054889232 0.08563113
0.15034167 -0.6324184 -0.6928904 -0.65290225 -0.02589972 0.0122645125 -0.061830837 0.28021857
00000000: 32d2 f03c 0477 e83d 4c78 afbd 5945 0fbe
00000010: d5b6 27be 3b1d 1dbe 59e2 9cbe 1cd2 7fbe
00000020: ed5b 81be 9ad2 c93b b6b8 55bd dff8 20bd
00000030: 54fd 743c 6952 333e 6c2f 2cbe 9edb 6d3c
00000040: 6e46 893e ac60 63bd 0f5e 19bd 405f 253e
00000050: 9e66 10bd 4e17 013e 24a8 88bd 7a32 943d
00000060: 8583 5f3d 0d4f dd3b 0507 7cbd 29c1 8d3d
00000070: 151a 883d 5cf1 153e 7787 9fbd 4629 80bd
00000080: fcfe e4bc 00ec cf3b 8cb3 653d d69d bdbb
00000090: e277 37bb 1dbc ad3d 1449 383e 2ea1 963d
000000a0: f463 2c3d d487 203d f221 303c b4c0 a03d
000000b0: 5213 9cbd b30e 1a3e f477 cf3d d858 5b3e
000000c0: 9a7a 12bc 8ceb d3bd a7bc 3abc 070c c13d
000000d0: 65aa 933d 558d b8bd 8547 2d3e db42 f93c
000000e0: 7dc7 b03c a74a 31bd ceff 95bb 7014 24be
000000f0: d4a7 c13e 787e 7e3e b7e8 cd3e 4d3c 1ebe
00000100: 8542 5bbe 589c 1ebf 33c5 2cbe 98cc d53e
00000110: 61bf 9dbe 5e27 adbd e458 92bd 3c4f 8cbd
00000120: b910 d2bd ea9d 1bbe 1faa 8dbe 2d6f cbbe
00000130: f704 a4be 3b69 edbe 5ccf 593d 2899 963e
00000140: f80c 84be 3ffd a53d ca65 703e aeeb 8d3d
00000150: e739 3f3e 9e40 e63d 5def 963d 7542 50be
00000160: 5ca4 66be a2d0 7f3d 9e3f cc3b 14f5 aa3e
00000170: 0508 1bbe cff8 bebd 68d0 19be 6c1b 3fbe
00000180: 53f1 9cbd 73ae 45bc b467 a5bd 6913 263d
00000190: 28e7 213d 0525 c7bb 4b29 c13e 3685 e33e
000001a0: 9a41 043f 21d4 0f3e f0ef 40bc 4b52 833e
000001b0: 6c63 b33e 9209 633d 27f0 543e 2677 683d
000001c0: ea92 163c 626a 223e dde0 59bd 6729 bc3d
000001d0: e724 953d 9a4c 123e 760b 873d 27cf 533e
000001e0: 9e6b e9bd 014a cebd b657 873d b68e 833c
000001f0: 1573 4cbd 4a1a 0fbc 1e05 c4bd e68f 92bd
00000200: 7510 21bd c3b2 8dbd fe7c 6a3c 8d6a 39bd
00000210: ae0c 08be e90b 70be 115d 12bd ee0a 01be
00000220: 798c 47be dbcd aebd 0095 81bd 45a8 ed3c
00000230: 8769 56bd 64a6 2abe a419 a9bd 7954 c7bd
00000240: 9614 ddbd ef2b 18be cb79 18be 6851 8bbc
00000250: ee03 4f3c be0f 083d 11cd 773d e5a9 aa3d
00000260: 6543 ce3d ae25 333c 1bc3 933d bad9 223c
00000270: 067c 1cbd c456 7c3d 6ff4 f8bc 57fd f6ba
00000280: 3b9d 8a3d deec a6bc 8d7c 10bd fac6 363d
00000290: 6a43 3c3e e227 5c3d 209f f43d 9803 cd3c
000002a0: a8db 82bc 4ae8 7d3d 58a7 fd3d 5ec6 9c3e
000002b0: d33e 613e 140e 9e3f 87fd e23c 496a 033e
000002c0: eb30 c2bb 6c4a 03bd 00ee 343d 9a1c fd3d
000002d0: e507 11bd 6e59 d53d db7c 303d 6fdc abbd
000002e0: 3980 d7bc aee0 b6bc 596e d33c 42a7 693e
000002f0: cbe8 423e fcc3 aa3c 3869 2e3d ad02 973d
00000300: fcb5 40bd 90f1 5dbd 9e21 a13d a184 e73d
00000310: 832a b2bc c0d7 12bd 4d4a 5c3e 6b95 6e3e
00000320: 2ff1 d03e 44e2 d53d db04 ccbc bf81 1ebe
00000330: 74a3 113a 5578 8fbd 3e51 91bd 7bc3 d6bc
00000340: 3dc2 80bd b6a5 d6bd 17ab 07bf a1db f0be
00000350: d0df f8be b4a4 d63d 3298 9ebd b51d 8cbd
00000360: c3cb 82bc 2e90 c1bd d2ee e7bc d901 7e3d
00000370: b74f 68bd 3979 023e 1c6c 87be a6ae 4fbe
00000380: 2d6e 85be af20 8e3d 6161 cdbd e4d3 d03d
00000390: 59fb f6bd 00ce 27be 4cf0 5cbe 50a8 10bc
000003a0: 229f 5bbe b2a8 34be c5af ccbc 5fb7 0bbe
000003b0: 8cb4 44be caf7 3fbe 6ad3 6ebe bd3c acbd
000003c0: 3944 92bd 947a 2abd 7ca2 9f3c 277d 84bd
000003d0: 9934 1d3d 5c2c adbc 88d3 603d 605f af3d
000003e0: 2bf3 193e 2ce6 21bf 4461 31bf 9a24 27bf
000003f0: a62b d4bc 18f1 483c 5542 7dbd cf78 8f3e

conv.5.bias f4 [64]
0.0021645506 0.14906816 -0.04451762 0.08270286 -0.15513992 0.08297844 0.02683299 -0.026724942
0.048635475 -0.055184413 -0.058297947 -0.03310311 -0.024848187 -0.04023649 -0.025550714 0.0986818
0.13971494 0.022527078 0.025950404 0.0267758 0.006617871 0.021307914 0.0447161 -0.073635615
0.047914177 -0.0494113 -0.066480495 0.08499083 -0.060995694 0.004343114 0.06862098 0.11300701
0.11979578 0.055494588 -0.016304288 0.0067802733 -0.011365274 -0.038792573 0.06064299 0.08000903
-0.03994384 -0.030087376 0.01824308 -0.0028340642 -0.08389066 0.09816634 -0.06604803 -0.017530361
-0.018242557 0.039258342 -0.040957518 0.073890224 -0.08710635 -0.008697253 0.10049367 0.04540265
-0.005382714 -0.0077036964 0.06220025 0.06729084 -0.04554509 0.012230054 -0.0032104107 0.030141572
00000000: 22db 0d3b 53a5 183e 1c58 36bd 1e60 a93d
00000010: 00dd 1ebe 9af0 a93d dcd0 db3c 44ee dabc
00000020: fe35 473d 0d09 62bd d4c9 6ebd 2097 07bd
00000030: 6d8e cbbc 05cf 24bd bb4f d1bc af19 ca3d
00000040: 6f11 0f3e b58a b83c f195 d43c ec58 db3c
00000050: bada d83b ef8d ae3c 3b28 373d 45ce 96bd
00000060: a841 443d 8163 4abd ed26 88bd ac0f ae3d
00000070: 9fd6 79bd ae50 8e3b 2889 8c3d 3870 e73d
00000080: 7d57 f53d 4b4e 633d 9290 85bc 0e2d de3b
00000090: 6a35 3abc f6e4 1ebd c964 783d c6db a33d
000000a0: 279c 23bd cd79 f6bc 8372 953c b5bb 39bb
000000b0: dece abbd 6f0b c93d 3144 87bd d59b 8fbc
000000c0: 6a71 95bc 5bcd 203d 12c3 27bd c253 973d
000000d0: d064 b2bd ec7e 0ebc a0cf cd3d 21f8 393d
000000e0: 7a61 b0bb 4a6f fcbb b0c5 7e3d c8cf 893d
000000f0: 7d8d 3abd 9060 483c c165 52bb 75eb f63c

conv.6.weight f4 [64]
1.0257004 1.0336293 1.0460297 0.845935 0.9520089 0.79511476 0.8602149 0.9644859
1.0246568 0.96270704 0.9690366 0.85556865 0.8048097 0.79262817 0.9757287 0.80976
1.0978119 1.0060687 1.0286881 0.89314526 0.968349 0.91236246 0.96697724 1.0364063
0.95614135 0.9338435 1.0498011 1.1243608 0.8408041 0.89776355 1.059969 1.1189829
1.0497419 0.9248498 0.8098398 0.9823132 0.86082864 0.67889273 1.0232834 0.9389687
0.9316092 0.9276659 0.9007109 0.79928106 0.95876026 0.7836009 0.8135548 1.2026353
0.9205746 0.99472314 0.9130394 0.94473505 0.8933519 0.9540489 0.96024203 0.8454834
0.88947725 0.74158233 1.0591298 0.9398708 0.83785987 1.0002469 0.9164403 0.94734406
00000000: 274a 833f f74d 843f 4de4 853f 328f 583f
00000010: dbb6 733f a48c 4b3f 0b37 5c3f 8ce8 763f
00000020: f427 833f f873 763f c812 783f 8c06 5b3f
00000030: 0208 4e3f aee9 4a3f 5bc9 793f 6e4c 4f3f
00000040: 1a85 8c3f dcc6 803f 0dac 833f 2ba5 643f
00000050: b8e5 773f 9690 693f d28b 773f f6a8 843f
00000060: aec5 743f 5e10 6f3f e25f 863f 0eeb 8f3f
00000070: f03e 573f d5d3 653f 10ad 873f d53a 8f3f
00000080: f15d 863f f5c2 6c3f a951 4f3f e178 7b3f
00000090: 445f 5c3f eacb 2d3f f3fa 823f 4160 703f
000000a0: f17d 6e3f 837b 6d3f fd94 663f af9d 4c3f
000000b0: 5071 753f 129a 483f 2145 503f f4ef 993f
000000c0: c7aa 6b3f 2da6 7e3f f3bc 693f 28da 713f
000000d0: b6b2 643f 8c3c 743f 6cd2 753f 9a71 583f
000000e0: c8b4 633f 57d8 3d3f 9191 873f 5f9b 703f
000000f0: fc7d 563f 1708 803f d59b 6a3f 2485 723f

conv.6.bias f4 [64]
-0.2623867 -0.15353198 -0.45261815 -0.44277063 -0.2720578 -0.36516207 -0.37255892 -0.23945807
-0.30714607 -0.28878868 -0.47391018 -0.24834482 -0.6376324 -0.05148391 -0.3026763 -0.3873049
-0.29090843 -0.2173073 -0.36345795 -0.09423193 -0.29638988 -0.45201084 -0.13880228 -0.38386908
-0.099468894 -0.3412883 -0.38922828 -0.26590997 -0.4773473 -0.2036141 -0.11640535 -0.1960713
-0.5686874 -0.4384021 -0.10873662 -0.23173058 -0.2499964 -0.33992064 -0.40661603 -0.43603614
-0.3046759 -0.19084261 -0.2831448 -0.84561366 -0.2189147 -0.27552277 -0.46722326 -0.23737071
-0.33992812 -0.5539493 -0.24414556 -0.27712488 -0.21166606 -0.33681032 -0.5357339 -0.34389675
-0.35720155 -0.47996044 -0.24561776 -0.6593056 -0.2634607 -0.5134837 -0.4338032 -0.35301468
00000000: 8d57 86be 7d37 1dbe 91bd e7be d5b2 e2be
00000010: 294b 8bbe 86f6 babe 0bc0 bebe 7f34 75be
00000020: 4042 9dbe 1cdc 93be 5ba4 f2be 1b4e 7ebe
00000030: e13b 23bf cbe0 52bd 63f8 9abe d44c c6be
00000040: f3f1 94be ce85 5ebe 2917 babe acfc c0bd
00000050: 6ac0 97be f76d e7be 2f22 0ebe 7d8a c4be
00000060: 59b6 cbbd 57bd aebe ee48 c7be 5a25 88be
00000070: de66 f4be 3780 50be ee65 eebd eac6 48be
00000080: 7f95 11bf 3d76 e0be 4eb1 debd c84a 6dbe
00000090: 0eff 7fbe 140a aebe fa2f d0be 2140 dfbe
000000a0: 7bfe 9bbe 3f6c 43be 5bf8 90be 237a 58bf
000000b0: 2d2b 60be 5211 8dbe e337 efbe 4f11 73be
000000c0: 0f0b aebe 9fcf 0dbf 4b01 7abe 50e3 8dbe
000000d0: fdbe 58be 6772 acbe db25 09bf 3c13 b0be
000000e0: 1fe3 b6be 60bd f5be 3983 7bbe 40c8 28bf
000000f0: 52e4 86be ab73 03bf 741b debe 57be b4be

conv.6.running_mean f4 [64]
-0.50172395 1.026596 -0.8767296 0.94470495 -1.0964305 -0.5471056 -1.0966072 -0.3618992
-0.87727094 -0.7588163 -0.8853123 -1.5706238 0.78460085 0.32007495 -0.42677018 -0.5362885
-0.25604773 -0.22285597 -1.0906676 0.18840837 -0.7866634 -0.85300726 -1.2927978 -0.49502137
-0.40275773 -0.6055026 -1.3359729 -0.045543306 -0.8661152 -1.1499773 -0.17196298 0.080080755
-1.805163 -0.3120575 -0.5812529 -1.1744468 -1.2770648 0.2650215 -1.8023188 -1.0771106
0.16878632 0.6266737 -0.83104783 -0.05101203 -1.5782921 -1.1752937 -1.005078 -0.7303919
-1.2717888 -1.8955642 -0.97226375 -0.77137315 -0.74042416 -0.86393905 -0.6754505 -0.04093
-0.30804536 -0.50864476 -0.08343465 0.8839756 -0.7517473 0.62827677 0.26849636 0.9855886
00000000: fb70 00bf 7f67 833f 5a71 60bf 2fd8 713f
00000010: d657 8cbf 1d0f 0cbf a05d 8cbf da4a b9be
00000020: d494 60bf c941 42bf d4a3 62bf 330a c9bf
00000030: 9adb 483f dde0 a33e 9f81 dabe 344a 09bf
00000040: b018 83be 5b34 64be ff9a 8bbf 20ee 403e
00000050: c662 49bf af5e 5abf 667a a5bf 7173 fdbe
00000060: 4336 cebe 3802 1bbf 2901 abbf 9e8b 3abd
00000070: bab9 5dbf 7532 93bf 1017 30be 6101 a43d
00000080: 950f e7bf 00c6 9fbe fdcc 14bf 4654 96bf
00000090: dc76 a3bf e6b0 873e 62b2 e6bf c3de 89bf
000000a0: 52d6 2c3e b06d 203f 8dbf 54bf fef1 50bd
000000b0: 7a05 cabf 0670 96bf 65a6 80bf f7fa 3abf
000000c0: fac9 a2bf d9a1 f2bf 47e6 78bf b678 45bf
000000d0: 708c 3dbf 1c2b 5dbf 53ea 2cbf 37a6 27bd
000000e0: 1fb8 9dbe 8b36 02bf c9df aabd 3a4c 623f
000000f0: 8372 40bf bfd6 203f 5b78 893e 894f 7c3f

conv.6.running_var f4 [64]
0.82608 1.5806711 1.1999166 0.7279976 1.0826954 1.0052611 1.5496631 1.3632791
0.70726234 0.61712694 1.9195045 2.7058818 0.7903021 1.6612839 0.5833556 1.3851682
1.3655823 1.1005284 1.7634349 1.7419069 1.144962 1.0855038 6.4792814 1.3813143
0.3920685 0.7117231 2.3116868 0.50721806 0.5596536 3.4410033 3.0014408 1.4231635
2.9051852 0.6284656 2.6077437 4.1672134 1.8084549 0.8702647 2.5837061 2.4749603
0.5962388 0.67444044 2.37301 0.37138614 4.3493342 1.2716334 1.0355815 2.9186234
2.9172177 2.7171981 2.4068737 1.2300724 1.6516703 1.7093786 1.8595582 0.74834627
1.1401709 0.57831025 1.901502 1.1099249 0.77564317 0.39114273 0.94955367 1.5652392
00000000: fb79 533f 6e53 ca3f de96 993f 0d5e 3a3f
00000010: c395 8a3f 65ac 803f 5c5b c63f ee7f ae3f
00000020: 250f 353f 08fc 1d3f 53b2 f53f 2b2d 2d40
00000030: 3d51 4a3f f3a4 d43f cb56 153f 314d b13f
00000040: 67cb ae3f 1dde 8c3f 3cb8 e13f cef6 de3f
00000050: 1d8e 923f caf1 8a3f 4656 cf40 e8ce b03f
00000060: 34bd c83e 7c33 363f adf2 1340 0bd9 013f
00000070: 7545 0f3f 6639 5c40 9b17 4040 392a b63f
00000080: 8eee 3940 1fe3 203f 46e5 2640 d059 8540
00000090: 737b e73f abc9 5e3f 715b 2540 c065 1e40
000000a0: 1ba3 183f 21a8 2c3f 65df 1740 5326 be3e
000000b0: bf2d 8b40 e2c4 a23f ef8d 843f baca 3a40
000000c0: b2b3 3a40 93e6 2d40 380a 1a40 0373 9d3f
000000d0: ef69 d33f ebcc da3f 0106 ee3f 9f93 3f3f
000000e0: 1ff1 913f 240c 143f 6b64 f33f 0512 8e3f
000000f0: 8d90 463f dc43 c83e f315 733f c259 c83f

conv.10.weight f4 [128, 64, 3]
0.11295031 0.02028024 0.15012081 0.21351413 0.16457245 0.30197802 0.102359354 0.34451014
0.048707277 0.16340181 0.039972816 0.09171055 -0.32351246 -0.107770994 -0.19587955 -0.07793831
0.05250952 0.101108156 0.056591444 0.15884586 0.24001361 0.056720182 0.10455195 0.028898912
-0.08318207 -0.057815634 0.05015879 -0.39004338 0.017909298 -0.18833618 0.050446596 0.10906039
0.0790934 0.06691827 0.31901228 0.16740079 0.4157966 0.17525491 0.011618938 0.026014155
0.087038636 0.060168806 0.18700375 0.04942386 0.074706316 -0.04816399 -0.046280947 -0.009378632
0.051167827 0.17993802 -0.044342775 0.12108348 0.06320278 0.11146824 0.05227343 0.13330095
0.02804172 0.13500062 0.0743759 0.13979226 0.10986955 0.04355261 0.06420654 0.0689831
0.26459718 -0.06263948 -0.054629456 -0.038190894 -0.087854266 0.059699778 0.22056347 0.06636136
-0.25029317 -0.24800098 -0.12764195 0.09255006 0.02369735 -0.19932279 -0.52180463 -0.47220418
-0.41071132 0.12793744 0.091932125 0.105793014 -0.0768039 -0.044351067 -0.112591036 -0.09541665
-0.13314699 -0.40750068 0.1187087 0.096011855 0.16321842 0.005250334 -0.0014862862 0.0748044
0.22423914 0.2658073 0.18896928 0.22619791 0.12846784 -0.08665425 0.07957602 -0.0250635
-0.14282556 0.009682709 -0.066810995 -0.36213934 -0.04070967 0.15467168 0.03155763 0.26509124
0.21860436 0.14723518 0.21099618 0.020947717 0.039653078 0.042888235 0.09440768 0.10470836
-0.010895349 -0.045753755 -0.0072948025 0.06911086 0.083688535 0.06599759 -0.11082569 0.021251714
-0.15339091 0.010007527 0.089835085 0.06787803 0.001368582 0.041702595 -0.3526657 -0.021886623
0.27354681 0.28586835 -0.22526917 -0.12151065 -0.22710867 0.05387701 0.013521149 0.094559215
-0.22265431 -0.067101166 -0.29408616 0.18675297 0.21091509 0.17549872 -0.107029766 -0.1247473
-0.0033070717 -0.030793136 0.028440468 -0.23631458 0.03099561 0.05154049 0.14549065 -0.2295875
-0.18747154 -0.35421833 -0.10440566 0.010262687 -0.10302546 -0.03753154 0.13725315 0.17126974
-0.062356293 0.18472283 0.09557936 -0.11587967 -0.0119324 0.097327165 0.044874657 0.24792944
0.18925199 0.30341703 0.33706403 0.56526434 -0.1715828 -0.1572834 -0.31875739 0.3932255
0.26689792 0.39625752 0.220587 0.15757212 0.08814052 0.20711237 0.15921931 0.24831554
-0.040532734 -0.3916073 -0.361549 -0.26451173 -0.33230028 -0.3377103 -0.205544 -0.056482267
-0.16144158 -0.047564585 -0.14895086 -0.096160196 0.05565947 0.018331999 0.117480904 -0.23830685
-0.09945836 0.045175318 0.024302736 0.053384103 0.058805343 -0.20045856 -0.055549297 0.00074335776
-0.023841845 0.15433414 0.20934999 0.022166517 0.16426635 -0.07678209 0.021515386 -0.1467613
-0.025890741 -0.077255435 0.07181744 -0.14665912 -0.035023883 -0.20238498 -0.19019604 0.024408167
-0.105463736 0.031098578 0.15170549 -0.113294184 -0.20008479 -0.014248599 -0.02130699 0.020382972
-0.17406642 -0.028746253 0.069473654 0.051717002 -0.04723267 0.023233294 -0.0194618 -0.19552885
0.1800968 -0.12549652 -0.18233454 -0.039275445 0.11991801 -0.072077624 -0.027527936 -0.45178565
00000000: 7e52 e73d bf22 a63c 45b9 193e 73a3 5a3e
00000010: ae85 283e dd9c 9a3e c8a1 d13d a263 b03e
00000020: 4881 473d ce52 273e 89ba 233d bed2 bb3d
00000030: 6da3 a5be 0ab7 dcbd a694 48be 1f9e 9fbd
00000040: 3914 573d cb11 cf3d 6ecc 673d 7da8 223e
00000050: 21c6 753e 6c53 683d 551f d63d 69bd ec3c
00000060: 5c5b aabd 16d0 6cbd 4e73 4d3d c4b3 c7be
00000070: 85b6 923c 33db 40be 17a1 4e3d 0e5b df3d
00000080: b8fb a13d 720c 893d 9455 a33e 1d6b 2b3e
00000090: 4be3 d43e 0676 333e 5c5d 3e3c a31b d53c
000000a0: 5041 b23d 9173 763d e97d 3f3e ac70 4a3d
000000b0: a0ff 983d 9b47 45bd 1791 3dbd d5a8 19bc
000000c0: 5b95 513d ac41 383e c5a0 35bd 9efa f73d
000000d0: 7670 813d 7649 e43d aa1c 563d 0b80 083e
000000e0: c0b7 e53c 9a3d 0a3e 6452 983d b425 0f3e
000000f0: 4903 e13d 3964 323d b87e 833d 0347 8d3d
00000100: 4879 873e 2149 80bd 23c3 5fbd 0e6e 1cbd
00000110: f0ec b3bd c187 743d 64db 613e 77e8 873d
00000120: 6d26 80be f8f3 7dbe 92b4 02be e38a bd3d
00000130: f220 c23c 461b 4cbe fd94 05bf bfc4 f1be
00000140: c148 d2be 0802 033e e946 bc3d 02aa d83d
00000150: 5d4b 9dbd 77a9 35bd 2196 e6bd ce69 c3bd
00000160: af57 08be eea3 d0be 8c1d f33d dda1 c43d
00000170: bb22 273e fe0a ac3b 7dcf c2ba 0d33 993d
00000180: f29e 653e e517 883e 2a81 413e 6da0 673e
00000190: 138d 033e c977 b1bd c1f8 a23d f851 cdbc
000001a0: dd40 12be 3aa4 1e3c 34d4 88bd 546a b9be
000001b0: 2fbf 26bd 4162 1e3e 9342 013d 0aba 873e
000001c0: d2d9 5f3e d2c4 163e 620f 583e 8c9a ab3c
000001d0: 446b 223d 93ab 2f3d d058 c13d 5671 d63d
000001e0: 6882 32bc 4a68 3bbd 3d09 efbb ff89 8d3d
000001f0: e564 ab3d bf29 873d 94f8 e2bd 1318 ae3c
00000200: 8212 1dbe 9cf6 233c 75fb b73d a303 8b3d
00000210: fe61 b33a 57d0 2a3d 9990 b4be 934b b3bc
00000220: 540e 8c3e 565d 923e f6ac 66be 93da f8bd
00000230: 2d8f 68be 24ae 5c3d cf87 5d3c 43a8 c13d
00000240: 7eff 63be 566c 89bd 7692 96be 2c3c 3f3e
00000250: 20fa 573e f0b5 333e 6c32 dbbd 837b ffbd
00000260: 75bb 58bb e341 fcbc fcfb e83c 73fc 71be
00000270: 81ea fd3c 1f1c 533d 80fb 143e fc18 6bbe
00000280: 8af8 3fbe 1b5c b5be a2d2 d5bd d424 283c
00000290: 03ff d2bd acba 19bd 178c 0c3e 5661 2f3e
000002a0: 5069 7fbd fb27 3d3e 1dbf c33d 5252 edbd
000002b0: 1d80 43bc 7753 c73d 7dce 373d 37e1 7d3e
000002c0: 46cb 413e 7a59 9b3e a893 ac3e 2ab5 103f
000002d0: 67b3 2fbe e60e 21be 2b34 a3be da54 c93e
000002e0: d8a6 883e 44e2 ca3e 8fe1 613e 965a 213e
000002f0: 0483 b43d 4415 543e 630a 233e 6e46 7e3e
00000300: a705 26bd c180 c8be f31c b9be 156e 87be
00000310: 4323 aabe 5de8 acbe 207a 52be f359 67bd
00000320: f150 25be 15d3 42bd 9386 18be a3ef c4bd
00000330: 2ffb 633d fd2c 963c d499 f03d b606 74be
00000340: d3b0 cbbd c109 393d 8816 c73c 4aa9 5a3d
00000350: dfdd 703d 0245 4dbe a987 63bd e5dd 423a
00000360: f94f c3bc c509 1e3e d85f 563e 8e96 b53c
00000370: 7035 283e ee3f 9dbd 0941 b03c 9848 16be
00000380: d218 d4bc 1938 9ebd 0615 933d cf2d 16be
00000390: 3475 0fbd 023e 4fbe c0c2 42be a3f3 c73c
000003a0: 5ffd d7bd 72c2 fe3c af58 1b3e c806 e8bd
000003b0: 07e3 4cbe f572 69bc ff8b aebc 31fa a63c
000003c0: 783e 32be 437d ebbc 3448 8e3d 35d5 533d
000003d0: 0b77 41bd c053 be3c 5a6e 9fbc b738 48be
000003e0: 4c6b 383e 2982 00be e8b5 3abe 4adf 20bd
000003f0: 9397 f53d 6f9d 93bd 4482 e1bc 7350 e7be

conv.10.bias f4 [128]
0.07462283 0.028887004 0.0018094851 0.018729288 0.035363458 0.042587124 -0.059671786 0.026204126
0.01417295 -0.044939395 -0.04390615 0.021243805 0.055029266 -0.06537658 -0.023898788 0.020225538
0.01161697 -0.032787494 -0.024532309 -0.03943838 0.02736528 -0.023174036 0.052457433 0.06468424
0.04910111 0.04625941 -0.026909716 0.038746774 0.07077181 -0.04217981 -0.060641672 -0.018843474
-0.0078081326 -0.041533243 -0.056248758 -0.041275855 -0.06743865 0.045891877 -0.0010870154 0.04277934
-0.029133806 0.06886875 0.0018646147 0.009143721 -0.033887662 0.070386425 -0.06998457 -0.04413352
0.06295465 0.068561636 -0.010077919 -0.038345907 -0.05184106 0.02296886 -0.03601065 0.023178287
-0.000703079 0.009542031 0.03226809 0.0053858063 -0.04114916 -0.031407267 -0.08744938 -0.039242562
-0.052878104 -0.023696369 0.035447575 0.078265496 -0.03710276 0.04512483 -0.046358988 -0.016735042
0.061144114 0.0053283437 -0.027981777 0.07127992 0.07139202 0.0008445862 0.0776064 0.05282903
-0.03490268 0.039984357 -0.042191934 -0.048551433 0.07381004 -0.026345087 -0.00016772475 -0.05627433
0.018360725 0.019781666 -0.047507208 0.017175145 0.0645777 0.046479143 -0.003812393 0.06293178
0.031119186 0.0071031074 0.029440848 0.08613064 -0.013663339 0.014655055 0.009128608 0.010285207
0.036087163 0.058459528 -0.046041537 -0.027888913 -0.026001638 -0.06476437 0.0009405542 0.022586094
0.032982305 -0.023121411 0.004981468 0.068323225 -0.03752475 -0.03521879 -0.01938011 0.033892065
0.0632692 -0.036300164 0.02404552 -0.0027862182 -0.02367749 -0.042775612 -0.038451407 -0.00049446494
00000000: dbd3 983d 70a4 ec3c 3f2c ed3a 2a6e 993c
00000010: 46d9 103d d66f 2e3d 676a 74bd 09aa d63c
00000020: a935 683c 5f12 38bd efd6 33bd 7d07 ae3c
00000030: 5e66 613d 28e4 85bd 64c7 c3bc 07b0 a53c
00000040: 1b55 3e3c 2e4c 06bd fbf7 c8bc 248a 21bd
00000050: 272d e03c 7ad7 bdbc 9bdd 563d 2c79 843d
00000060: 3f1e 493d 827a 3d3d c471 dcbc f0b4 1e3d
00000070: d0f0 903d bdc4 2cbd 6763 78bd a15d 9abc
00000080: 5ddb ffbb c31e 2abd 1965 66bd df10 29bd
00000090: 461d 8abd 1ff9 3b3d 2f7a 8eba 6439 2f3d
000000a0: 05aa eebc 0f0b 8d3d 1666 f43a 8ccf 153c
000000b0: cacd 0abd c226 903d 1254 8fbd 5ac5 34bd
000000c0: 5eee 803d 0b6a 8c3d db1d 25bc 9910 1dbd
000000d0: 4b57 54bd 3129 bc3c e77f 13bd 64e0 bd3c
000000e0: d54e 38ba 2e56 1c3c 8b2b 043d 6b7b b03b
000000f0: 068c 28bd e8a4 00bd a918 b3bd cfbc 20bd
00000100: b696 58bd e31e c2bc 7a31 113d a949 a03d
00000110: 10f9 17bd d0d4 383d ece2 3dbd ed17 89bc
00000120: 4072 7a3d 6399 ae3b 0a3a e5bc 35fb 913d
00000130: fb35 923d 3867 5d3a 1bf0 9e3d 4163 583d
00000140: 1df6 0ebd a3c6 233d 73d1 2cbd dedd 46bd
00000150: b829 973d a7d1 d7bc 45df 2fb9 e97f 66bd
00000160: 3b69 963c 290d a23c eb96 42bd e4b2 8c3c
00000170: 5041 843d ea60 3e3d 57d9 79bb 61e2 803d
00000180: aaed fe3c 2fc1 e83b ef2d f13c 4365 b03d
00000190: 33dc 5fbc c11b 703c 2890 153c 4983 283c
000001a0: 22d0 133d 4273 6f3d 0d96 3cbd 4a77 e4bc
000001b0: 6301 d5bc 2fa3 84bd 868f 763a 7906 b93c
000001c0: 7418 073d 1d69 bdbc 953b a33b 0ced 8b3d
000001d0: 8db3 19bd 9441 10bd 09c3 9ebc 68d2 0a3d
000001e0: 4893 813d 7baf 14bd 1cfb c43c fc98 36bb
000001f0: 4cf7 c1bc 7b35 2fbd 397f 1dbd fb9e 01ba

conv.11.weight f4 [128]
1.2488248 1.0829467 0.8990424 1.3067212 1.1130272 1.3867446 0.90862924 0.9656853
1.4346904 1.1081896 1.1104047 1.3056338 1.0218247 0.99107283 1.3573724 1.0775318
1.4848351 1.3945484 1.0890566 0.9303471 0.9120445 1.0379372 1.1443859 0.94597745
1.3898174 1.0186096 1.2333024 1.7072942 1.1842475 0.93737197 1.1761556 1.1354628
1.7950734 1.4616768 0.8789595 1.3755955 1.2122526 1.5386226 0.9586396 1.8961564
1.9274273 1.3093044 1.0993252 1.8141052 0.8870716 0.90382797 1.3610883 1.2168107
1.2693717 0.9622513 1.9213533 1.4082929 1.518554 1.3399656 1.0402207 1.3658309
1.9767473 0.9204725 0.9778171 0.9171895 1.5395925 1.3015867 1.3644996 1.8796303
1.0663875 0.8863636 1.0190796 1.1718886 0.9485587 1.0029993 1.8785974 1.1470047
1.1054146 1.4575626 1.5423493 1.9232832 1.3050464 1.223221 1.0664085 1.0941781
1.1111326 0.92183137 1.6140174 2.0670116 1.4811579 1.2363759 1.1696256 1.2440906
1.2040896 0.90840125 0.96847326 1.0453329 1.1072413 1.0005409 1.0137305 0.999362
1.3082807 0.8750299 2.1511078 1.0145733 1.1269538 1.070735 1.0433558 1.3740435
1.3260843 1.3924978 1.446798 1.3908914 1.2987251 1.3596644 1.1783296 1.259967
1.0018389 1.9024516 0.92312104 0.92497224 1.1383426 0.9319528 1.3119161 0.87305605
0.91317886 1.5343878 1.1300558 1.1028517 1.3422254 0.9746073 1.1828711 0.94825524
00000000: 7ed9 9f3f ff9d 8a3f a527 663f a442 a73f
00000010: ad77 8e3f d980 b13f ed9b 683f 2737 773f
00000020: efa3 b73f 28d9 8d3f be21 8e3f 021f a73f
00000030: 27cb 823f f3b6 7d3f 61be ad3f 90ec 893f
00000040: 140f be3f 9080 b23f 3566 8b3f 3a2b 6e3f
00000050: c07b 693f 20db 843f 3d7b 923f 942b 723f
00000060: 89e5 b13f cd61 823f dadc 9d3f 9e88 da3f
00000070: 6c95 973f 9cf7 6f3f 448c 963f d856 913f
00000080: f7c4 e53f 3a18 bb3f 7d03 613f 8313 b03f
00000090: 182b 9b3f 96f1 c43f 6869 753f 41b5 f23f
000000a0: f0b5 f63f 4997 a73f b0b6 8c3f 9934 e83f
000000b0: 2017 633f 4561 673f 2438 ae3f 74c0 9b3f
000000c0: c67a a23f 1a56 763f e8ee f53f f142 b43f
000000d0: fa5f c23f fe83 ab3f f425 853f 8cd3 ae3f
000000e0: 0e06 fd3f 16a4 6b3f 3952 7a3f eecc 6a3f
000000f0: 5e11 c53f 659a a63f eca7 ae3f ba97 f03f
00000100: 637f 883f bae8 623f 3371 823f 7200 963f
00000110: bed4 723f 4862 803f e175 f03f 0dd1 923f
00000120: 3a7e 8d3f 6991 ba3f b46b c53f 252e f63f
00000130: c30b a73f 8192 9c3f 1380 883f 070e 8c3f
00000140: 9839 8e3f 24fd 6b3f 1f98 ce3f eb49 0440
00000150: 9596 bd3f 9141 9e3f 4bb6 953f 5c3e 9f3f
00000160: 9c1f 9a3f fc8c 683f dded 773f 78cd 853f
00000170: 15ba 8d3f b911 803f ecc1 813f 30d6 7f3f
00000180: be75 a73f f601 603f c0ab 0940 8add 813f
00000190: 0640 903f d80d 893f af8c 853f a8e0 af3f
000001a0: 21bd a93f 5e3d b23f ad30 b93f bb08 b23f
000001b0: a03c a63f 7c09 ae3f 81d3 963f 9946 a13f
000001c0: 423c 803f 8983 f33f a951 6c3f fbca 6c3f
000001d0: 36b5 913f 7594 6e3f deec a73f 9a80 5f3f
000001e0: 17c6 693f d266 c43f aba5 903f 3f2a 8d3f
000001f0: 0bce ab3f dd7f 793f 5268 973f dbc0 723f

conv.11.bias f4 [128]
-0.3532534 -0.04663946 -0.27549633 -0.10225657 0.040397696 0.026386919 -0.14133953 -0.09884938
-0.09770713 -0.044177823 0.013751473 0.018739508 -0.13095608 -0.1133636 -0.8685772 0.08541854
-0.07618619 0.1074376 0.027189685 -0.2960711 -0.44529665 -0.010650989 -0.5655708 -0.27876887
0.24715897 -0.21742012 -0.5621398 0.01567854 -0.107441016 -0.16711679 0.032869868 -0.0940011
0.031049678 0.001268824 -0.113547355 -0.18516637 -0.09301748 0.054516528 -0.20871612 0.22686578
0.08009949 0.059435926 -0.4558973 -0.0027622483 -0.31839073 -0.4135753 0.059037082 0.03455993
0.10885943 -0.52098423 -0.036617946 -0.37691644 -0.03116768 -0.011452485 -0.111381195 0.023572164
0.07148331 -0.18810602 -0.18672952 -0.19626077 0.16170952 -0.07567905 -0.122850224 -0.52045524
-0.4128517 -0.5728282 -0.23622833 -0.45907977 -0.38202766 -0.14137581 0.04505222 -0.05411161
-0.21399605 -0.019109778 -0.1312271 -0.19427055 0.011861091 -0.29428923 -0.2184889 -0.05277296
0.116346255 -0.1985107 0.019838655 -0.13776645 -0.017729577 0.19767113 -0.11405693 -0.39054552
0.043942817 -0.35746714 -0.097607225 0.01683689 -0.051001117 -0.0923377 -0.23033412 -0.16645838
0.040827006 -0.28191534 0.09097578 -0.28073272 0.022822859 -0.5014759 -0.34950408 0.12665656
-0.07943357 0.07280147 0.030771278 -0.07220165 -0.0058140005 0.02339471 0.05064075 -0.07910191
-0.24087523 0.002515892 -0.32698643 -0.26669452 -0.06421911 -0.40801463 -0.39107662 -0.3474449
-0.3639227 -0.26658517 0.0023201546 0.01684584 -0.21998566 -0.08953899 -0.13681048 -0.49431294
00000000: a1dd b4be 0509 3fbd db0d 8dbe e46b d1bd
00000010: 0e78 253d 6129 d83c 4fbb 10be 8b71 cabd
00000020: ad1a c8bd cef3 34bd dc4d 613c 9983 993c
00000030: 5a19 06be 2d2b e8bd 135b 5ebf eaef ae3d
00000040: 8107 9cbd 3f08 dc3d e7bc de3c a296 97be
00000050: ecfd e3be 7c81 2ebc 3fc9 10bf cbba 8ebe
00000060: 3e17 7d3e 61a3 5ebe 65e8 0fbf 4870 803c
00000070: 090a dcbd aa20 2bbe 8ea2 063d a683 c0bd
00000080: e55b fe3c ab4e a63a 848b e8bd 419c 3dbe
00000090: f37f bebd b94c 5f3d aeb9 55be 814f 683e
000000a0: 340b a43d 1673 733d 5f6b e9be d606 35bb
000000b0: 1c04 a3be 24c0 d3be ded0 713d b78e 0d3d
000000c0: b1f1 de3d 395f 05bf b3fc 15bd 31fb c0be
000000d0: 5d53 ffbc 34a3 3bbc d31b e4bd 691a c13c
000000e0: d765 923d dd9e 40be 0636 3fbe 95f8 48be
000000f0: 2e97 253e 9efd 9abd e698 fbbd 8e3c 05bf
00000100: 4c61 d3be dea4 12bf d7e5 71be 810c ebbe
00000110: 2199 c3be d2c4 10be ad88 383d 23a4 5dbd
00000120: c821 5bbe 1c8c 9cbc 6660 06be dcee 46be
00000130: 0555 423c 14ad 96be 8ebb 5fbe 7628 58bd
00000140: f246 ee3d 6446 4bbe ad84 a23c a612 0dbe
00000150: 9e3d 91bc 4d6a 4a3e ae96 e9bd 95f5 c7be
00000160: 62fd 333d ef05 b7be 4ce6 c7bd 84ed 893c
00000170: 8ce6 50bd 8c1b bdbd b5dc 6bbe 1174 2abe
00000180: 383a 273d 3557 90be 8251 ba3d 33bc 8fbe
00000190: 01f7 ba3c b960 00bf 33f2 b2be 42b2 013e
000001a0: 11ae a2bd f018 953d 0c14 fc3c 75de 93bd
000001b0: 5f83 bebb 43a6 bf3c ad6c 4f3d 2f00 a2bd
000001c0: ffa7 76be aae1 243b c46a a7be 2f8c 88be
000001d0: 4f85 83bd 4be7 d0be 323b c8be 4ce4 b1be
000001e0: 1354 babe da7d 88be bc0d 183b 4900 8a3c
000001f0: ec43 61be 3860 b7bd 0c18 0cbe 9616 fdbe

conv.11.running_mean f4 [128]
1.8867027 -2.547489 -1.5260568 -0.33004713 0.28392065 0.33799866 -3.212955 -0.3679474
3.6749165 0.25514686 0.5568879 0.3770534 -2.1954343 -1.5005448 -1.757791 0.17863335
2.0867388 -0.3032727 -0.3699092 -1.7013953 -1.2456467 0.28515828 -2.6285005 1.4341296
-0.13578801 -0.7367174 -2.4461706 2.1278977 0.56787443 -1.790441 1.4870284 1.8401651
-0.7903527 0.9863849 -0.41344395 0.8124092 2.0721216 -0.65341204 -1.9986733 2.8273847
2.6668153 -0.66273504 -0.9447789 -0.1605705 -1.8385327 -0.79625964 -0.9468011 0.25483721
2.1084976 -1.058022 2.8346968 2.499683 0.47257635 1.2279265 -1.8386016 0.532331
-0.28737396 -2.1447127 -1.6727167 -2.78626 -0.42691544 1.9729168 -0.1467476 0.21063133
-0.9629829 -2.1728423 -3.0854602 -0.61953723 -1.9588141 1.5309856 -0.6022298 -0.06678573
-1.761143 2.166158 0.86737365 0.72741467 2.760669 2.73169 0.12044781 0.6212149
1.0426843 -3.4188068 0.37781432 -0.38168198 -0.32586205 -0.63968587 0.7191766 -0.9503893
1.1510148 -2.0022144 -3.744778 -0.5209567 -0.9529576 0.28342822 -0.5192424 -2.5171468
1.9656123 -2.1893086 -0.8554245 -0.8934947 -0.13518201 0.019450476 0.0016602814 -0.7124118
1.467156 0.57035273 -0.7633756 2.316425 1.5588927 3.1131158 0.93408513 -0.64691585
-1.4601158 -0.7464925 -1.7730366 -0.44450662 -0.26897007 -0.5277349 -0.7939047 -0.56119555
-2.298929 0.4031507 0.39755255 -0.5128817 0.07031767 -3.5627742 -0.9857376 -0.4197465
00000000: 797f f13f 0f0a 23c0 d455 c3bf f0fb a8be
00000010: 0c5e 913e 290e ad3e 0ea1 4dc0 9a63 bcbe
00000020: d531 6b40 9ca2 823e 3590 0e3f 250d c13e
00000030: ff81 0cc0 da11 c0bf 4cff e0bf a9eb 363e
00000040: 218d 0540 8f46 9bbe bd64 bdbe 52c7 d9bf
00000050: 5a71 9fbf 4400 923e 5a39 28c0 8f91 b73f
00000060: 030c 0bbe 8399 3cbf 0f8e 1cc0 7a2f 0840
00000070: 3860 113f 2c2d e5bf f256 be3f 888a eb3f
00000080: 8e54 4abf b983 7c3f edae d3be 0dfa 4f3f
00000090: a49d 0440 0346 27bf 87d4 ffbf dff3 3440
000000a0: 1aad 2a40 01a9 29bf 08dd 71bf 986c 24be
000000b0: 0a55 ebbf acd7 4bbf 8f61 72bf 067a 823e
000000c0: a0f1 0640 446d 87bf ac6b 3540 cefa 1f40
000000d0: 87f5 f13e b22c 9d3f 4c57 ebbf d846 083f
000000e0: ae22 93be f942 09c0 951b d6bf 1552 32c0
000000f0: a994 dabe 8a88 fc3f 0145 16be bdaf 573e
00000100: 0c86 76bf d90f 0bc0 2e78 45c0 fe99 1ebf
00000110: 6cba fabf 56f7 c33f bb2b 1abf f5c6 88bd
00000120: 226d e1bf 55a2 0a40 330c 5e3f d937 3a3f
00000130: cdae 3040 02d4 2e40 57ad f63d f107 1f3f
00000140: ae76 853f bbcd 5ac0 e170 c13e d26b c3be
00000150: 64d7 a6be 74c2 23bf f51b 383f b74c 73bf
00000160: 7454 933f 4824 00c0 71aa 6fc0 6b5d 05bf
00000170: 07f5 73bf 811d 913e 12ed 04bf ef18 21c0
00000180: 2f99 fb3f a21d 0cc0 1afd 5abf 12bc 64bf
00000190: 276d 0abe 9b56 9f3c cd9d d93a 9f60 36bf
000001a0: c5cb bb3f a302 123f 956c 43bf 4f40 1440
000001b0: cc89 c73f 4a3d 4740 3420 6f3f 479c 25bf
000001c0: 13e5 babf 221a 3fbf ddf2 e2bf 5f96 e3be
000001d0: 72b6 89be a219 07bf 573d 4bbf 83aa 0fbf
000001e0: a721 13c0 c569 ce3e 028c cb3e 374c 03bf
000001f0: b602 903d 7e04 64c0 4d59 7cbf 03e9 d6be

conv.11.running_var f4 [128]
5.404686 7.761438 2.7879002 3.0976593 2.9353929 3.741014 8.879194 5.4309745
12.950378 2.8487546 4.9304113 4.1474814 4.184239 3.5998118 4.5088315 3.95255
7.2536216 6.231655 2.6101182 8.323568 3.0138378 5.036152 8.418696 2.54229
4.1757975 3.8051095 8.558898 12.844751 2.6754339 5.2426605 2.5724485 3.2004397
3.786232 3.0272162 3.4242175 3.5217142 4.2688456 5.9326944 4.624157 13.279856
18.016405 3.1265407 1.4467114 3.9572709 5.636409 2.6847925 4.213088 2.5609732
10.669718 5.286309 10.214539 7.613284 3.595118 2.3660622 5.3157315 5.8449073
8.600984 8.968289 8.514349 1.7715814 4.7232738 3.223801 2.1986887 5.2551413
6.701 3.3893776 11.220243 8.007613 5.667341 3.2160974 9.748874 6.6429977
3.933343 3.2537851 7.7761526 5.740065 10.9748125 4.3052073 1.5859909 4.8258104
4.2321277 8.125742 2.7945888 4.2694345 4.2170095 5.0492063 7.1597114 9.687556
4.398704 5.1096396 11.881778 3.40481 1.9891169 3.3759866 7.806286 4.120485
8.237061 3.39161 12.06927 7.3762484 2.1857727 5.3852425 2.8040617 3.3017335
2.274729 3.178026 2.8312829 9.646084 5.354693 8.861604 3.2990315 4.15427
4.0690694 6.935366 3.2450843 3.02803 2.7573564 2.8623807 3.6341982 2.8931713
7.696513 4.6747246 2.6929083 4.297808 6.957919 6.3590384 8.604067 2.948908
00000000: 30f3 ac40 b35d f840 f56c 3240 0d40 4640
00000010: 7add 3b40 c66c 6f40 2e11 0e41 8bca ad40
00000020: c034 4f41 ff51 3640 eec5 9d40 2bb8 8440
00000030: 49e5 8540 5163 6640 5948 9040 94f6 7c40
00000040: ab1d e840 b869 c740 2d0c 2740 562d 0541
00000050: b8e2 4040 2828 a140 fbb2 0641 e1b4 2240
00000060: 22a0 8540 ea86 7340 3ff1 0841 1a84 4d41
00000070: 4f3a 2b40 e0c3 a740 ffa2 2440 01d4 4c40
00000080: a051 7240 e9bd 4140 6126 5b40 c463 6140
00000090: 629a 8840 a2d8 bd40 18f9 9340 4a7a 5441
000000a0: 9921 9041 3e19 4840 d72d b93f ed43 7d40
000000b0: 765d b440 a4d3 2b40 9ed1 8640 fce6 2340
000000c0: 2ab7 2a41 7129 a940 c06e 2341 06a0 f340
000000d0: 6a16 6640 906d 1740 791a aa40 7b09 bb40
000000e0: a19d 0941 1d7e 0f41 c63a 0841 2ec3 e23f
000000f0: 0f25 9740 c152 4e40 51b7 0c40 1e2a a840
00000100: 986e d640 90eb 5840 1e86 3341 2f1f 0041
00000110: dc5a b540 8ad4 4d40 63fb 1b41 7093 d440
00000120: e4bb 7b40 043e 5040 3ed6 f840 9dae b740
00000130: d598 2f41 42c4 8940 c001 cb3f 0a6d 9a40
00000140: 976d 8740 0a03 0241 8bda 3240 359f 8840
00000150: bef1 8640 1993 a140 5b1c e540 3b00 1b41
00000160: 2fc2 8c40 2b82 a340 c31b 3e41 68e8 5940
00000170: 629b fe3f 2a10 5840 18cd f940 03db 8340
00000180: 00cb 0341 2310 5940 bb1b 4141 3a0a ec40
00000190: b3e3 0b40 e853 ac40 bf75 3340 9a4f 5340
000001a0: 2995 1140 c764 4b40 bd33 3540 5c56 1a41
000001b0: a559 ab40 21c9 0d41 5523 5340 c8ef 8440
000001c0: d135 8240 85ee dd40 76af 4f40 3ecb 4140
000001d0: 8778 3040 3f31 3740 b496 6840 b829 3940
000001e0: d649 f640 5897 9540 9c58 2c40 a587 8940
000001f0: 46a7 de40 3e7d cb40 42aa 0941 e9ba 3c40
