output/electricity_cnn_20260221_204822/checkpoints/epoch_5.pt (torch, 174347 bytes, 21 tensors)

conv.0.weight f4 [32, 14, 3]
-0.102043636 -0.027298687 0.01038932 -0.036717355 0.13858253 -0.021439046 -0.0855937 0.131194
-0.056621082 0.07176858 -0.06211074 0.084580354 0.045893997 -0.010141007 -0.06696931 0.032664236
0.05758429 -0.108686954 0.04497293 0.15259857 0.022634657 -0.024264216 -0.098446794 -0.03427131
0.21262759 0.1291412 0.2966993 -0.39491314 -0.4841637 -0.50902915 -0.11929044 -0.15135643
-0.075086355 -0.031451713 0.04314477 0.016699595 -0.13715799 0.081775084 -0.041903652 -0.045322306
0.012330267 0.05579335 -0.1756848 0.05790747 0.0032427968 0.081127055 0.091102175 0.10967438
-0.10913507 -0.012911042 -0.019955968 0.042289115 0.0154737765 -0.23320766 -0.11221115 -0.06649667
0.1934413 0.12423829 0.078694105 -0.029291544 0.036869973 0.017196938 0.10172689 -0.18833052
-0.2597577 0.12931678 -0.104774185 0.0692364 0.09467329 0.075231545 0.10790653 0.25790724
0.006224047 -0.0856702 -0.04516721 -0.056843612 0.02118075 -0.18757728 0.03218154 -0.08220339
-0.03003777 0.027269376 -0.06892382 0.10258692 0.096793965 0.13840792 -0.24681143 0.094726995
0.10456274 0.12850569 0.001570241 0.042689335 -0.1866826 -0.034019426 0.1641626 -0.10655091
0.1347754 -0.050848015 -0.08399452 0.0109160105 -0.011772713 -0.067084074 0.101435244 0.12082705
-0.047111485 -0.057275176 0.09614813 -0.17324641 -0.38637614 -0.18214591 -0.3633843 -0.18409272
0.009244291 0.0951466 0.07756748 -0.057951275 0.16991611 -0.04514605 0.06329746 -0.027447877
-0.0422049 0.15285218 -0.07638752 -0.10491753 -0.043333575 0.116254605 0.22452715 0.06312493
0.009157327 -0.16562323 -0.04891287 -0.09916418 -0.0470018 0.015405661 -0.11147882 0.12629648
0.03777028 0.09199851 0.039603323 0.045277424 -0.054347947 -0.07274701 -0.035049345 -0.018676002
-0.037574843 0.11861256 -0.12989046 0.0191262 -0.09010878 -0.10956 0.07618649 0.15233687
0.15878764 -0.052787963 0.03540299 0.1336844 0.06294932 0.087819576 0.078207314 0.3642195
0.15677914 0.16173096 0.06313873 -0.09508463 -0.056464538 -0.028679753 0.05734449 0.0991678
0.10501402 -0.06190613 -0.0015991796 0.005571922 -0.09214714 -0.07872006 0.091341615 0.04491415
0.035977714 -0.08532379 -0.031085668 -0.0024653105 0.06489302 0.07865735 -0.1247944 0.020489829
-0.0984445 -0.052670076 -0.040674407 -0.024282213 0.031110585 -0.038393397 0.0890415 -0.042427037
0.24729466 0.34835693 0.3541022 -0.07620794 0.13941118 0.16848345 0.05481477 0.16424175
0.17975971 0.09099845 0.06991135 -0.080134824 0.05641147 0.0059227804 -0.050291102 -0.027759219
0.05289967 0.029702066 -0.101721324 0.020968018 -0.10067105 0.12808725 -0.12703629 0.0852828
-0.08679578 -0.109656155 -0.09609901 -0.22248013 -0.039872263 -0.03548293 -0.101170644 -0.1010542
-0.06540622 0.038000636 0.051197916 0.12409835 -0.095634796 0.16195397 -0.16395937 0.22457595
-0.031603944 -0.20685498 0.05452809 0.22443357 0.07824275 -0.05271199 -0.16545154 -0.124018036
0.17274944 -0.055324074 0.17437841 0.21949242 0.19391845 0.06312603 0.086502746 0.08737118
0.0782122 0.09730784 -0.0053409394 -0.20955499 -0.12555762 -0.0974303 0.19261843 0.038178056
00000000: 41fc d0bd 7fa1 dfbc f737 2a3c f064 16bd
00000010: 94e8 0d3e f0a0 afbc c04b afbd b857 063e
00000020: 82eb 67bd 68fb 923d d567 7ebd 7738 ad3d
00000030: 58fb 3b3d 7726 26bc 3527 89bd efca 053d
00000040: 81dd 6b3d 4497 debd 8935 383d cd42 1c3e
00000050: 516c b93c c0c5 c6bc 799e c9bd 1360 0cbd
00000060: 0cbb 593e 973d 043e f8e8 973e 0e32 cabe
00000070: 4ee4 f7be bc4f 02bf 8c4e f4bd 2efd 1abe
00000080: e0c6 99bd 83d3 00bd 92b8 303d 97cd 883c
00000090: 2573 0cbe b279 a73d 2aa3 2bbd e2a3 39bd
000000a0: e304 4a3c 9187 643d b7e6 33be 6230 6d3d
000000b0: 1a85 543b f125 a63d c793 ba3d f69c e03d
000000c0: 3582 dfbd d688 53bc b37a a3bc 5a37 2d3d
000000d0: b985 7d3c fdcd 6ebe f6ce e5bd 682f 88bd
000000e0: 7a15 463e a570 fe3d 602a a13d d2f4 efbc
000000f0: f804 173d 98e0 8c3c 3056 d03d b7d9 40be
00000100: f6fe 84be 9e6b 043e d993 d6bd d0cb 8d3d
00000110: 12e4 c13d ff12 9a3d 19fe dc3d 6b0c 843e
00000120: 17f3 cb3b dc73 afbd 4101 39bd d9d4 68bd
00000130: 4183 ad3c 4214 40be cad0 033d 405a a8bd
00000140: c511 f6bc 0764 df3c ef27 8dbd 1719 d23d
00000150: ea3b c63d ceba 0d3e 23bc 7cbe 3a00 c23d
00000160: fd24 d63d ff96 033e 8bd0 cd3a 03db 2e3d
00000170: b929 3fbe f457 0bbd 3e1a 283e 5d37 dabd
00000180: 9002 0a3e 0246 50bd 5205 acbd 11d9 323c
00000190: 56e2 40bc 6063 89bd 48bd cf3d 2c74 f73d
000001a0: f9f7 40bd 6099 6abd 50e9 c43d 8267 31be
000001b0: 18d3 c5be 7584 3abe 820d babe cd82 3cbe
000001c0: 5e75 173c 38dc c23d b3db 9e3d 515e 6dbd
000001d0: 7dfe 2d3e 11eb 38bd 19a2 813d 5fda e0bc
000001e0: 0cdf 2cbd 4885 1c3e 0f71 9cbd 01df d6bd
000001f0: 8c7e 31bd e516 ee3d 72ea 653e a547 813d
00000200: 9d08 163c 2399 29be dd58 48bd 9716 cbbd
00000210: f684 40bd 0768 7c3c 024f e4bd dd53 013e
00000220: 02b5 1a3d b769 bc3d 1837 223d d274 393d
00000230: f49b 5ebd 62fc 94bd e78f 0fbd 6afe 98bc
00000240: 14e8 19bd 24eb f23d 0102 05be 8cae 9c3c
00000250: f48a b8bd fe60 e0bd aa07 9c3d 32fe 1b3e
00000260: 3a99 223e 3138 58bd ba02 113d 90e4 083e
00000270: 93eb 803d c0da b33d 282b a03d fa7a ba3e
00000280: b68a 203e cd9c 253e e14e 813d bbbb c2bd
00000290: 5c47 67bd cdf1 eabc 0ee2 6a3d 7d18 cb3d
000002a0: 9711 d73d 4891 7dbd 909b d1ba ab94 b63b
000002b0: a4b7 bcbd fc37 a1bd 5011 bb3d e6f7 373d
000002c0: 5e5d 133d 3dbe aebd 5fa7 febc 0c91 21bb
000002d0: a2e6 843d 1b17 a13d 3594 ffbd 49da a73c
000002e0: 459d c9bd 94bc 57bd 359a 26bd 7eeb c6bc
000002f0: a0db fe3c 6542 1dbd 645b b63d f9c7 2dbd
00000300: d03a 7d3e d75b b23e e24c b53e e912 9cbd
00000310: cec1 0e3e ed86 2c3e 7485 603d fd2e 283e
00000320: ee12 383e 655d ba3d af2d 8f3d ba1d a4bd
00000330: b70f 673d e213 c23b 0bfe 4dbd 4d67 e3bc
00000340: 53ad 583d bf51 f33c 4553 d0bd 1fc5 ab3c
00000350: a02c cebd 4e29 033e cd15 02be c0a8 ae3d
00000360: fcc1 b1bd 6893 e0bd 8fcf c4bd d5d1 63be
00000370: 1951 23bd 8c56 11bd 8e32 cfbd 81f5 cebd
00000380: b2f3 85bd 8ea6 1b3d e8b4 513d 4727 fe3d
00000390: 2ddc c3bd 43d7 253e f7e4 27be 3df7 653e
000003a0: 2373 01bd cbd1 53be d958 5f3d ead1 653e
000003b0: bc3d a03d 87e8 57bd 216c 29be 2bfd fdbd
000003c0: 3be5 303e 7f9b 62bd 4190 323e 9fc2 603e
000003d0: 8f92 463e 3848 813d 5a28 b13d a9ef b23d
000003e0: b82d a03d 5549 c73d 0c03 afbb 9595 56be
000003f0: 2d92 00be 8a89 c7bd c43d 453e 9860 1c3d

conv.0.bias f4 [32]
-0.009449064 -0.027678424 0.09885166 0.102780715 0.087345675 0.1508248 -0.058253165 0.043270584
0.04399951 0.10742897 0.002754438 0.06317926 -0.14015879 -0.026184913 0.033145726 -0.14510727
-0.08543148 0.038845416 0.14722882 0.10468318 0.14408779 0.10481154 0.08818192 -0.13129601
0.1318079 0.11033705 0.04125277 0.13545766 -0.1483542 -0.03552816 0.12989156 0.07945347
00000000: 3fd0 1abc ddbd e2bc bd72 ca3d b27e d23d
00000010: 4ae2 b23d d171 1a3e df9a 6ebd 7f3c 313d
00000020: d538 343d b803 dc3d cd83 343b 2164 813d
00000030: c985 0fbe be81 d6bc d0c3 073d 0097 14be
00000040: b3f6 aebd 5f1c 1f3d 27c3 163e 2364 d63d
00000050: c08b 133e 6fa7 d63d b998 b43d 7672 06be
00000060: a6f8 063e 64f8 e13d aaf8 283d 6ab5 0a3e
00000070: 2aea 17be fa85 11bd 4b02 053e 80b8 a23d

conv.1.weight f4 [32]
1.0750526 0.9059092 1.0864491 0.9829343 0.81501037 0.9157984 0.99083143 1.2051439
0.8527268 0.9817545 0.9519268 1.0024494 0.87400115 0.98159635 0.9039569 1.081203
0.9806847 1.1802571 0.969495 1.0106776 1.0084828 0.9396862 0.97510177 1.1911604
0.8770823 1.176971 1.0483274 0.793159 1.0727184 1.0175954 0.94367975 0.98650783
00000000: 539b 893f aae9 673f c410 8b3f 95a1 7b3f
00000010: 85a4 503f c471 6a3f 21a7 7d3f 2842 9a3f
00000020: 4e4c 5a3f 4354 7b3f 7ab1 733f 4350 803f
00000030: 8abe 5f3f e649 7b3f b869 673f dc64 8a3f
00000040: 270e 7b3f aa12 973f d330 783f e25d 813f
00000050: f715 813f 468f 703f 45a0 793f f277 983f
00000060: 7788 603f fca6 963f 982f 863f 780c 4b3f
00000070: d64e 893f 9140 823f ff94 713f c78b 7c3f

conv.1.bias f4 [32]
-0.0923898 -0.07730871 -0.09734165 -0.018617343 -0.20731865 -0.090431385 -0.12244786 0.009340928
-0.13439111 -0.108945124 -0.07518977 0.028381025 -0.09046179 -0.060123093 -0.027892342 -0.14782049
-0.1593165 -0.21288554 -0.12039624 0.01243702 -0.045342624 -0.08018495 0.01219801 0.03820906
-0.061588813 -0.06854291 -0.0240967 -0.19175193 -0.085350275 -0.13537663 -0.02805022 -0.12283191
00000000: dd36 bdbd 0754 9ebd 0f5b c7bd 6683 98bc
00000010: 574b 54be 1734 b9bd f2c5 fabd b10a 193c
00000020: d39d 09be 9f1e dfbd 18fd 99bd 537f e83c
00000030: 0844 b9bd a243 76bd 7b7e e4bc 415e 17be
00000040: dd23 23be abfe 59be 4e92 f6bd a5c4 4b3c
00000050: 30b9 39bd 0238 a4bd 2ada 473c 1a81 1c3d
00000060: 8d44 7cbd 3a60 8cbd 7166 c5bc 9e5a 44be
00000070: 20cc aebd 2ca0 0abe 93c9 e5bc 4c8f fbbd

conv.1.running_mean f4 [32]
-0.0127230175 -0.024664536 0.106652014 0.09640969 0.07510365 0.15361378 -0.051836018 0.041789137
0.032999147 0.10582243 0.008119679 0.06268737 -0.14691515 -0.032068428 0.046105884 -0.1417283
-0.0897119 0.034205787 0.14219506 0.1153168 0.13529693 0.11537193 0.09281785 -0.13119143
0.1382574 0.12290701 0.043723587 0.12577748 -0.15373403 -0.040986497 0.13674505 0.090200335
00000000: 3474 50bc 480d cabc 5f6c da3d 7272 c53d
00000010: f1cf 993d ee4c 1d3e 0152 54bd 162b 2b3d
00000020: 1d2a 073d 6eb9 d83d 6708 053c 3c62 803d
00000030: ed70 16be 2f5a 03bd 86d9 3c3d 3921 11be
00000040: dfba b7bd 5e1b 0c3d 959b 113e 372b ec3d
00000050: 478b 0a3e 1e48 ec3d 4917 be3d 0c57 06be
00000060: 5993 0d3e acb6 fb3d 8117 333d d0cb 003e
00000070: 746c 1dbe 75e1 27bd e506 0c3e f4ba b83d

conv.1.running_var f4 [32]
1.3938758 0.5154201 0.98329014 1.7645669 1.130476 0.5197203 0.743117 1.0278986
1.649376 1.3365225 0.9403043 2.4235988 2.3093617 1.8487699 0.8757638 2.2352006
0.9885786 1.2048451 1.7407492 1.9844375 1.5859833 0.6585344 0.5244882 2.4080577
0.3887827 1.2791381 1.3388602 0.6734152 1.1899499 0.7907186 1.1851931 0.554585
00000000: 866a b23f 92f2 033f e7b8 7b3f 54dd e13f
00000010: 70b3 903f 640c 053f ea3c 3e3f 2e92 833f
00000020: c11e d33f 2b13 ab3f c8b7 703f 3e1c 1b40
00000030: 95cc 1340 7ea4 ec3f 0e32 603f 870d 0f40
00000040: 7d13 7d3f 5d38 9a3f dfd0 de3f 0c02 fe3f
00000050: 8001 cb3f b695 283f dc44 063f 9e1d 1a40
00000060: 870e c73e ccba a33f c55f ab3f f064 2c3f
00000070: 4750 983f 896c 4a3f 68b4 973f 48f9 0d3f

conv.5.weight f4 [64, 32, 3]
0.086308524 0.13667727 0.107298896 -0.09771257 -0.14681254 -0.0666342 -0.06632572 -0.046568003
0.025064442 0.054604046 -0.04369785 0.101137765 0.005267295 0.07280632 -0.049846675 -0.050273906
0.13846378 -0.023954479 0.033183895 0.1478721 0.057234198 0.14351422 0.050357386 -0.08329887
-0.030471787 -0.02072854 0.16508096 -0.015745897 0.016809337 0.06591053 -0.009145704 -0.07804361
-0.023526186 -0.048778996 0.016912661 0.10117069 -0.04206339 -0.01615044 -0.013278022 -0.011435196
0.026001059 0.044428885 -0.06704844 -0.09167686 0.015383989 0.08917182 0.098979704 0.17342329
0.06318585 -0.06384311 0.072718956 0.15601023 0.08192118 0.10529649 0.022257406 -0.04288235
-0.040589858 0.045227427 0.08863368 0.020404486 0.14616613 0.11795018 0.087875955 -0.04771736
-0.053747926 -0.09421191 0.030929843 0.07921428 0.07866556 -0.007806973 0.046502996 0.034920353
-0.15338817 -0.00037892335 -0.11122453 0.0024653957 0.018023893 -0.12832054 0.055318512 0.19680384
-0.11336244 -0.05808021 -0.008602644 0.011065578 0.1755248 0.07426261 0.11718192 -0.088805646
-0.082522556 0.119905 -0.039780535 0.08222954 -0.033216786 -0.0067006806 -0.06803831 -0.11313426
-0.0833628 -0.03032191 -0.12604001 0.037434634 0.047381263 0.031736456 0.11108049 0.13580753
0.07490557 0.029674077 0.0069247168 0.08006695 0.045250013 -0.10395213 -0.15963781 -0.007630606
-0.07249006 0.07570237 -0.02405887 0.1280367 0.18477042 0.10042671 -0.04102287 0.13369954
-0.008293324 -0.05361048 0.008694899 -0.08685892 -0.012436974 -0.05104794 -0.01959128 0.04119289
0.02728881 0.022319637 -0.031459957 -0.08141835 -0.046079226 -0.048733715 0.03979513 -0.017746467
-0.07892415 0.07598728 0.047140047 0.07749826 0.07837747 -0.04402938 -0.051853772 -0.061306376
-0.11757647 -0.024667613 0.012346065 -0.08174332 -0.096273266 -0.030339133 0.02060491 0.11763528
0.10256501 0.06877973 0.10931452 0.111158684 -0.011843659 -0.04797636 0.037785936 0.0070515624
0.07549726 -0.1093531 -0.14492899 -0.10618091 0.19481783 0.0938461 0.12750693 0.045911163
0.03212001 0.05528252 0.12643778 0.12795295 0.21593757 0.24214965 -0.09765524 0.14323981
-0.054138992 -0.09734969 -0.05741215 0.018974729 -0.05543283 0.039840788 0.07692332 -0.024046376
-0.06869206 -0.01769237 -0.01059625 0.11858951 0.081364825 -0.018489985 -0.007213677 -0.0036074661
-0.07499139 -0.046013657 0.1375504 -0.057440396 0.0072354814 -0.02729516 -0.06715864 -0.00049529516
0.15300523 0.033056147 -0.041154206 -0.060411416 -0.05280197 -0.05162366 0.01664139 -0.07732728
-0.0051537077 0.005841696 -0.07383088 -0.06739919 -0.042078413 -0.17666262 -0.31454858 -0.2688313
-0.0022812218 0.002483733 0.042547986 0.00012879907 -0.13292295 0.10914454 -0.11742565 0.111694865
-0.09480537 0.102447584 -0.064582445 0.08215492 0.018921327 0.0053965175 -0.017458655 0.048447542
-0.037301965 -0.054978307 -0.10941791 -0.07583778 -0.034983996 -0.10437495 -0.11618574 0.028305573
-0.14049624 0.065457046 0.064576834 -0.06846511 -0.009070601 -0.023277437 0.04599633 -0.013542714
0.09301439 -0.09090357 -0.27778038 -0.08762827 -0.053937204 -0.016780932 -0.13890532 0.13975099
00000000: 86c2 b03d 20f5 0b3e 86bf db3d 871d c8bd
00000010: 0756 16be 8377 88bd c7d5 87bd 17be 3ebd
00000020: f253 cd3c 7ea8 5f3d 84fc 32bd 5121 cf3d
00000030: 4699 ac3b 7b1b 953d 072c 4cbd 03ec 4dbd
00000040: 73c9 0d3e 2f3c c4bc d6eb 073d c96b 173e
00000050: 686e 6a3d 64f5 123e 8c43 4e3d 9998 aabd
00000060: f89f f9bc e6ce a9bc fc0a 293e 8afd 80bc
00000070: bcb3 893c 1afc 863d ddd7 15bc 54d5 9fbd
00000080: fdb9 c0bc 7ccc 47bd 6c8c 8a3c 9432 cf3d
00000090: a94a 2cbd ed4d 84bc 108c 59bc b05a 3bbc
000000a0: 2c00 d53c 10fb 353d b150 89bd 14c1 bbbd
000000b0: 200d 7c3c b79f b63d dfb5 ca3d e095 313e
000000c0: 9567 813d 2dc0 82bd aded 943d 25c1 1f3e
000000d0: 4bc6 a73d b0a5 d73d 2a55 b63c 67a5 2fbd
000000e0: 8d41 26bd 6540 393d 9385 b53d 4f27 a73c
000000f0: 93ac 153e dd8f f13d 4ff8 b33d 4773 43bd
00000100: c926 5cbd 2df2 c0bd 9560 fd3c 193b a23d
00000110: 691b a13d a3d1 ffbb ed79 3e3d a508 0f3d
00000120: ca11 1dbe 3baa c6b9 b0c9 e3bd 7a92 213b
00000130: d8a6 933c 7666 03be aa95 623d f286 493e
00000140: 912a e8bd 84e5 6dbd 1bf2 0cbc 664c 353c
00000150: c6bc 333e ff16 983d 13fd ef3d bcdf b5bd
00000160: 9601 a9bd c190 f53d eaf0 22bd f667 a83d
00000170: 530e 08bd 6291 dbbb ab57 8bbd efb2 e7bd
00000180: 1eba aabd a765 f8bc a210 01be 0f55 193d
00000190: db12 423d 16fe 013d 2b7e e33d 2111 0b3e
000001a0: 1768 993d 0d17 f33c bce8 e23b 24fa a33d
000001b0: 1458 393d dbe4 d4bd 1878 23be 2a0a fabb
000001c0: ab75 94bd d809 9b3d 1b17 c5bc 0d1c 033e
000001d0: 7534 3d3e 85ac cd3d 9907 28bd 88e8 083e
000001e0: b9e0 07bc aa96 5bbd 0d75 0e3c 17e3 b1bd
000001f0: 73c4 4bbc a517 51bd e47d a0bc e0b9 283d
00000200: c88c df3c acd7 b63c 28dc 00bd aabe a6bd
00000210: 92bd 3cbd 019d 47bd 3800 233d 0a61 91bc
00000220: fca2 a1bd 389f 9b3d ec15 413d 68b7 9e3d
00000230: 5e84 a03d 2758 34bd 9f64 54bd 651c 7bbd
00000240: efcb f0bd bc13 cabc 2647 4a3c 0b69 a7bd
00000250: eb2a c5bd c689 f8bc a1cb a83c c4ea f03d
00000260: 9b0d d23d 63dc 8c3d 4be0 df3d 2aa7 e33d
00000270: e80b 42bc dc82 44bd 6dc5 1a3d cb10 e73b
00000280: 4f9e 9a3d 85f4 dfbd 4468 14be 6075 d9bd
00000290: 537e 473e 6232 c03d 2d91 023e 580d 3c3d
000002a0: 4690 033d ec6f 623d e878 013e 1906 033e
000002b0: bd1e 5d3e 14f6 773e 78ff c7bd 75ad 123e
000002c0: d9c0 5dbd 465f c7bd 0129 6bbd e470 9b3c
000002d0: 890d 63bd 1830 233d f989 9d3d e8fc c4bc
000002e0: 6cae 8cbd 97ef 90bc e59b 2dbc 0fdf f23d
000002f0: 9aa2 a63d 4f78 97bc b560 ecbb 3d6b 6cbb
00000300: 1695 99bd d178 3cbd 03da 0c3e 9f46 6bbd
00000310: 9e17 ed3b 199a dfbc 788a 89bd b2d6 01ba
00000320: 67ad 1c3e e265 073d 5091 28bd f671 77bd
00000330: e146 58bd 5573 53bd 8653 883c c45d 9ebd
00000340: 6fe0 a8bb b36b bf3b a534 97bd 9608 8abd
00000350: 6a5a 2cbd 0ce7 34be 830c a1be 42a4 89be
00000360: 8d80 15bb 20c6 223b cc46 2e3d 3d0e 0739
00000370: f41c 08be 2c87 df3d dc7c f0bd 47c0 e43d
00000380: 5129 c2bd 0ad0 d13d cd43 84bd d740 a83d
00000390: e600 9b3c 45d5 b03b 7405 8fbc ee70 463d
000003a0: f2c9 18bd ef30 61bd 7f16 e0bd d750 9bbd
000003b0: 614b 0fbd 89c2 d5bd caf2 edbd 17e1 e73c
000003c0: 3fde 0fbe 580e 863d dc40 843d 7037 8cbd
000003d0: dc9c 14bc 53b0 bebc a666 3c3d 42e2 5dbc
000003e0: 547e be3d a72b babd 3b39 8ebe 7376 b3bd
000003f0: 42ed 5cbd 2a78 89bc 323d 0ebe e21a 0f3e

conv.5.bias f4 [64]
-0.017411768 0.10118813 -0.07857568 0.096073546 -0.10551911 0.057022654 0.028241571 -0.07301147
0.07547229 -0.034521442 -0.02044025 -0.044021167 -0.019941356 -0.04811303 -0.040999312 0.082295634
0.071064726 -0.047248166 -0.022883173 0.026815275 0.065044515 -0.03780322 0.024902953 -0.07174002
0.036526162 -0.089827135 -0.022529861 0.08986853 -0.036222093 0.004252203 0.07666186 0.085224986
0.031401146 0.037783302 -0.028222203 -0.01281374 -0.07456096 -0.059726242 0.09586157 0.07781068
-0.07022393 -0.064025424 -0.041196615 0.043562576 -0.10293973 0.07332491 -0.051087987 -0.085862964
-0.017824676 0.003093541 -0.05107919 0.06005102 -0.08198411 -0.024230896 0.08566529 0.01809525
0.020313242 -0.0733483 0.064254865 0.03907186 -0.08320035 -0.012982316 -0.02889724 0.022723185
00000000: 20a3 8ebc b93b cf3d 49ec a0bd 35c2 c43d
00000010: 671a d8bd 9690 693d de5a e73c 0a87 95bd
00000020: 3791 9a3d 5b66 0dbd 5072 a7bc 8a4f 34bd
00000030: 0e5c a3bc 2b12 45bd e5ee 27bd 9d8a a83d
00000040: 628a 913d 4b87 41bd 7e75 bbbc b5ab db3c
00000050: 0f36 853d 8dd7 1abd 4701 cc3c 6eec 92bd
00000060: 759c 153d 4af7 b7bd 8b90 b8bc fe0c b83d
00000070: 9e5d 14bd 1056 8b3b e500 9d3d 708a ae3d
00000080: 7d9e 003d aac2 1a3d 4032 e7bc b9f0 51bc
00000090: 6bb3 98bd 81a3 74bd 1253 c43d 355b 9f3d
000000a0: 90d1 8fbd c31f 83bd c8bd 28bd ac6e 323d
000000b0: 11d2 d2bd 5f2b 963d a341 51bd ecd8 afbd
000000c0: 0e05 92bc 01bd 4a3b 6a38 51bd 0ff8 753d
000000d0: 49e7 a7bd df7f c6bc 4971 af3d 7d3c 943c
000000e0: f567 a63c a237 96bd 0e98 833d d109 203d
000000f0: f264 aabd c8b3 54bc e8b9 ecbc f925 ba3c

conv.6.weight f4 [64]
1.0751483 1.0697879 0.98576206 0.9886302 0.96583205 0.93657935 0.9388416 1.077321
1.0370535 1.001981 1.0489634 1.0338575 0.9252995 0.97120553 1.0286325 0.9686244
0.9668965 1.0786501 1.0052066 1.0040929 0.97402894 0.9462306 0.9582034 1.0653466
1.0439502 0.9421068 0.94887894 0.98810756 1.0231217 1.014628 1.0900856 1.1014801
0.9931822 1.0227718 1.0316538 1.1263928 0.9820397 0.94092435 0.8996671 0.9845996
1.039877 1.0551285 0.9859016 0.96522045 1.00658 0.95708126 0.9692952 1.1555603
1.0026528 1.0007771 1.0318766 1.0063416 0.9512108 0.98530996 0.99307525 1.0004698
0.9547292 1.010399 1.1293277 0.967632 1.001418 0.96163726 0.9968091 1.0478358
00000000: 769e 893f cfee 883f e75a 7c3f de16 7d3f
00000010: c540 773f aac3 6f3f ec57 703f a8e5 893f
00000020: 2bbe 843f ea40 803f 6f44 863f 7155 843f
00000030: 6ee0 6c3f eda0 783f 3baa 833f c5f7 773f
00000040: 8786 773f 3511 8a3f 9caa 803f 1e86 803f
00000050: f659 793f 2b3c 723f d14c 753f 475d 883f
00000060: 29a0 853f e92d 713f bbe9 723f 9ef4 7c3f
00000070: a7f5 823f 55df 813f ed87 8b3f 4dfd 8c3f
00000080: 3041 7e3f 30ea 823f 3b0d 843f a42d 903f
00000090: f466 7b3f 6be0 703f 9550 663f b80e 7c3f
000000a0: b11a 853f 730e 873f 0c64 7c3f b018 773f
000000b0: 9dd7 803f 4703 753f bb23 783f 66e9 933f
000000c0: ed56 803f 7719 803f 8814 843f cdcf 803f
000000d0: 8d82 733f 463d 7c3f 2e3a 7e3f 650f 803f
000000e0: 2269 743f c154 813f cf8d 903f bbb6 773f
000000f0: 772e 803f dc2d 763f e22e 7f3f 7c1f 863f

conv.6.bias f4 [64]
-0.0035775013 0.028720247 -0.021622263 -0.030994412 -0.038347363 -0.12423346 -0.1439326 -0.038125195
-0.090456635 -0.11974007 -0.040434286 -0.071969345 -0.10380019 -0.016500367 -0.04272765 -0.12995073
-0.027147915 0.025188413 -0.0688615 -0.060290717 -0.062055014 -0.045909278 -0.032447193 -0.028467398
0.025052698 -0.0451145 -0.12864698 -0.10336165 -0.060978312 -0.08802132 0.010557312 -0.028987197
-0.052461367 -0.009726265 0.01606405 0.03534617 -0.08860647 -0.0071900897 -0.022961073 -0.19592653
-0.09977467 -0.016714033 -0.14370579 -0.21890317 -0.026809147 0.022866875 -0.10870421 0.01899658
-0.11102997 -0.07474303 -0.045282364 -0.070119284 -0.03959233 -0.11744746 -0.25803584 -0.05712693
-0.05418281 -0.122831926 -0.009604224 -0.16802603 -0.054631192 -0.033284742 -0.108942576 -0.069230415
00000000: 8374 6abb b946 eb3c 2c21 b1bc fee7 fdbc
00000010: 2012 1dbd 1d6e febd 1163 13be 2a29 1cbd
00000020: 5441 b9bd 483a f5bd 6c9e 25bd aa64 93bd
00000030: 3295 d4bd c72b 87bc 3003 2fbd ce11 05be
00000040: 4e65 debc ee57 ce3c 4207 8dbd 66f3 76bd
00000050: 662d 7ebd 5e0b 3cbd 59e7 04bd 7634 e9bc
00000060: 513b cd3c fbc9 38bd 09bc 03be 46af d3bd
00000070: 65c4 79bd 8644 b4bd 93f8 2c3c 8f76 edbc
00000080: bbe1 56bd ea5a 1fbc c198 833c 25c7 103d
00000090: 4f77 b5bd d89a ebbb dc18 bcbc f7a0 48be
000000a0: aa56 ccbd deeb 88bc 9c27 13be 2728 60be
000000b0: db9e dbbc 5053 bb3c 50a0 debd b79e 9b3c
000000c0: ae63 e3bd e012 99bd 007a 39bd b39a 8fbd
000000d0: 912b 22bd 4b88 f0bd 461d 84be eefd 69bd
000000e0: cbee 5dbd 4e8f fbbd 095b 1dbc 040f 2cbe
000000f0: f5c4 5fbd 9555 08bd 491d dfbd adc8 8dbd

conv.6.running_mean f4 [64]
0.58679134 0.7564652 -1.1550055 0.28545153 -1.1811459 -0.2881707 -0.5022852 -0.41093835
-0.674468 -0.32215962 -0.6337317 -1.6058092 -0.2056506 0.6531083 -0.2961878 -0.43005162
0.12912913 -0.2629816 -0.8101046 0.70077854 -0.50433576 -0.092014015 -1.0250934 -0.50381434
-0.6397859 -0.379039 -1.406195 -0.5296013 -0.98007286 -0.8552257 -0.6014239 0.6570982
-0.8671149 0.24805582 0.7071177 -0.8611738 -2.3604424 0.5166805 -1.5588353 -0.69100267
0.5044169 0.38520962 -0.3114997 -0.25549176 -1.2403026 -1.2456306 -1.2605296 -0.92762804
-1.0721579 -0.71895903 0.5623963 -0.68651026 -0.027705485 -0.71131784 -0.27037883 0.21218675
-0.30312628 -0.8691813 0.9358597 0.7752054 -0.5397949 -0.12215543 0.34712815 1.0836049
00000000: f537 163f b4a7 413f 38d7 93bf b426 923e
00000010: ca2f 97bf 1c8b 93be c395 00bf 8366 d2be
00000020: efa9 2cbf 1bf2 a4be 3e3c 22bf 288b cdbf
00000030: 1296 52be 1b32 273f eda5 97be ba2f dcbe
00000040: 6d3a 043e 86a5 86be 0463 4fbf 3966 333f
00000050: 261c 01bf d871 bcbd 4336 83bf faf9 00bf
00000060: 02c9 23bf 6611 c2be 33fe b3bf f393 07bf
00000070: 0ee6 7abf 12f0 5abf ebf6 19bf 9637 283f
00000080: 3efb 5dbf 5802 7e3e aa05 353f e375 5cbf
00000090: 7d11 17c0 2c45 043f ea87 c7bf 8de5 30bf
000000a0: 7721 013f 323a c53e e47c 9fbe d1cf 82be
000000b0: 3cc2 9ebf d370 9fbf 0959 a1bf 0879 6dbf
000000c0: 783c 89bf b30d 38bf 34f9 0f3f 23bf 2fbf
000000d0: 9df6 e2bc ed18 36bf 186f 8abe 7c47 593e
000000e0: 5e33 9bbe aa82 5ebf 8094 6f3f dc73 463f
000000f0: 0030 0abf a02c fabd c8ba b13e 91b3 8a3f

conv.6.running_var f4 [64]
1.1432413 0.65648866 1.0623112 0.521619 0.653217 0.6554551 0.9985664 0.59248036
0.37894428 0.47503757 2.0192041 0.9707725 1.3550404 0.6467897 1.1261488 0.61552393
0.65353805 0.68986046 1.259436 0.70877427 0.6647022 0.8076208 2.843579 1.5182849
0.58744365 1.2261428 1.2714815 1.2506797 0.7204591 1.4246976 1.5525674 1.4634722
0.56698203 0.57808405 0.65224534 1.9700853 1.6276052 1.5610745 0.9108361 1.4939692
0.45145068 0.5505153 0.33758998 0.52850366 1.3365543 1.384234 1.2957907 1.0256283
1.825034 0.65054995 0.91549355 1.5296477 0.6945656 1.2430855 1.1297703 0.8924397
0.69714504 0.7534518 1.7224296 0.8933376 0.9875582 0.6198622 0.2971763 0.898101
00000000: bb55 923f a40f 283f d0f9 873f d388 053f
00000010: 3b39 273f e8cb 273f 0ca2 7f3f cbac 173f
00000020: fc04 c23e 2038 f33e a43a 0140 8c84 783f
00000030: f771 ad3f 0394 253f a525 903f fa92 1d3f
00000040: 454e 273f b29a 303f 3335 a13f 3b72 353f
00000050: ec29 2a3f 3dc0 4e3f 33fd 3540 2957 c23f
00000060: b562 163f 3ff2 9c3f e8bf a23f 4616 a03f
00000070: 0270 383f 7e5c b63f 87ba c63f 0f53 bb3f
00000080: bc25 113f 51fd 133f 8df9 263f c12b fc3f
00000090: 5e55 d03f 4ad1 c73f 8e2c 693f 623a bf3f
000000a0: 8b24 e73e 92ee 0c3f 98d8 ac3e 044c 073f
000000b0: 3614 ab3f 942e b13f 78dc a53f ca47 833f
000000c0: b79a e93f 718a 263f c95d 6a3f 7fcb c33f
000000d0: 0dcf 313f 6d1d 9f3f 509c 903f ee76 643f
000000e0: 1978 323f 38e2 403f 9378 dc3f c6b1 643f
000000f0: 9dd0 7c3f 4aaf 1e3f 7e27 983e f2e9 653f

conv.10.weight f4 [128, 64, 3]
0.093953766 -0.07299535 0.09357526 -0.0778369 -0.0044008377 0.035989713 0.070925586 0.098517664
0.061071336 -0.027838659 0.0231426 0.08679288 -0.021065643 0.053306136 0.02950382 -0.117460005
0.16048457 0.023412297 0.049689673 -0.10316777 -0.04573247 0.022895006 0.075789616 -0.076911226
-0.006869799 0.03998095 0.061239 -0.01918529 0.052871957 -0.034236513 -0.05191215 -0.069440074
0.046394948 0.018234216 -0.15673631 -0.07318563 0.010759649 -0.058406267 -0.10033911 -0.037622146
-0.028450308 -0.10111829 -0.038288668 0.031526264 -0.055906907 0.013257912 -0.010914461 -0.01344128
-0.0045148674 0.046300095 -0.11483617 0.0057141595 -0.027380764 0.03724442 -0.03474688 0.04956303
-0.016391436 -0.0334183 -0.042472802 -0.08445329 -0.012925917 0.019673225 -0.053797636 0.020372635
0.092715904 0.08441649 -0.01736668 -0.07984553 -0.1402919 -0.0521548 0.13041902 -0.06892851
0.0117193535 -0.0325215 -0.03388873 0.047923647 -0.057317536 0.023947567 -0.014452699 -0.16964704
-0.055016935 0.045678787 -0.064573325 0.039065942 -0.034745697 0.06526382 -0.027562192 -0.103289045
-0.12724921 -0.1105742 0.040022887 0.026233282 0.018241836 0.05587524 0.040758535 -0.023568138
-0.028442675 0.06109534 0.011252367 0.04815681 -0.041969083 -0.1478712 -0.04098854 -0.033647373
-0.11812512 0.03848622 -0.14849056 -0.123005666 -0.010184115 -0.12995335 0.029151632 0.058509428
-0.06400369 0.020334689 -0.030495008 -0.02591327 -0.07278986 -0.03946954 -0.103029974 -0.0982149
-0.0029862833 -0.06303016 -0.013181533 0.028521532 -0.12653384 -0.103499204 0.06876646 0.13633347
0.05967589 -0.04349921 0.13788693 0.028380819 -0.035502367 -0.14555754 -0.086450316 -0.025671028
-0.07125029 -0.0623846 -0.08144103 -0.10494566 -0.15909728 0.10827166 -0.01464389 0.15084839
0.038516026 -0.12900172 -0.048058853 -0.07039126 -0.066159196 0.07329586 -0.05958261 -0.050443716
-0.026409471 -0.057205305 0.048298426 0.10480307 -0.07884279 -0.14598033 -0.09114133 -0.099620655
-0.11114584 -0.100351304 0.02301695 -0.03286334 -0.088731 -0.020202449 0.08248735 0.023137828
-0.0757511 0.09469462 0.0398953 -0.09940641 0.034797084 0.116746634 0.00693718 0.1024632
0.017945271 -0.0019826936 0.09014679 0.14372957 -0.029484168 0.09934519 0.044561323 -0.0012493103
-0.08192152 0.06016138 -0.023991236 0.17123586 0.009952862 0.03332488 0.06280897 -0.0018080826
0.052965738 -0.09168037 -0.18649758 -0.012305776 -0.016245378 -0.08400712 -0.048870534 -0.014643015
-0.10630935 -0.1014926 0.003993816 0.02270053 -0.0012048372 -0.04790129 -0.09959873 -0.052365597
-0.012334585 -0.12158413 0.07125302 0.07561215 -0.032432247 -0.060002618 -0.19866467 -0.1601733
0.049315423 0.05209604 -0.024546672 -0.036582377 -0.089572266 -0.10437537 0.09057179 0.038651656
0.020325145 0.091918975 0.052586216 -0.052614108 0.03589439 -0.04983287 -0.055563696 -0.08314286
0.027442822 0.017904498 -0.030261198 0.024740987 -0.030314593 0.015998075 0.008800793 -0.039966386
-0.016704066 -0.010530035 0.031827003 0.011565523 -0.07783516 -0.06258947 0.027048092 0.019641366
0.11839585 -0.10539721 -0.095200494 0.021510875 0.0017851455 -0.05631648 -0.04066242 -0.06121202
00000000: d56a c03d 967e 95bd 63a4 bf3d f468 9fbd
00000010: e734 90bb f369 133d 6f41 913d a1c3 c93d
00000020: f025 7a3d e60d e4bc 8d95 bd3c 77c0 b13d
00000030: db91 acbc 8957 5a3d ffb1 f13c df8e f0bd
00000040: 1156 243e 25cb bf3c 6687 4b3d a049 d3bd
00000050: f851 3bbd 4f8e bb3c 9637 9b3d a283 9dbd
00000060: 0d1c e1bb 11c3 233d bfd5 7a3d 782a 9dbc
00000070: 4490 583d 963b 0cbd d6a1 54bd 9936 8ebd
00000080: a108 3e3d ec5f 953c 7c7f 20be 59e2 95bd
00000090: 3d49 303c 693b 6fbd 977e cdbd ae19 1abd
000000a0: 9f10 e9bc 1b17 cfbd 94d4 1cbd af21 013d
000000b0: a4fe 64bd b737 593c 91d2 32bc d138 5cbc
000000c0: 74f1 93bb 2ba5 3d3d 3a2f ebbd d83d bb3b
000000d0: a04d e0bc 9b8d 183d bf52 0ebd 9b02 4b3d
000000e0: 5547 86bc a1e1 08bd f6f7 2dbd d9f5 acbd
000000f0: 3ac7 53bc be29 a13c e95a 5cbd 83e4 a63c
00000100: d6e1 bd3d 8de2 ac3d 9144 8ebc 0e86 a3bd
00000110: aea8 0fbe 46a0 55bd 908c 053e 642a 8dbd
00000120: 8802 403c 4435 05bd e9ce 0abd 964b 443d
00000130: cbc5 6abd b02d c43c 03cb 6cbc f4b7 2dbe
00000140: 7059 61bd ae19 3b3d 053f 84bd 9c03 203d
00000150: 8151 0ebd 0aa9 853d 1bca e1bc 3589 d3bd
00000160: 9e4d 02be ba74 e2bd 0aef 233d 2ee7 d63c
00000170: e76f 953c 70dd 643d 6cf2 263d f811 c1bc
00000180: 9d00 e9bc 1b3f 7a3d d95b 383c 1340 453d
00000190: c6e7 2bbd 8c6b 17be 99e3 27bd d4d1 09bd
000001a0: 95eb f1bd baa3 1d3d e90d 18be 65ea fbbd
000001b0: 46db 26bc 7e12 05be 67cf ee3c 95a7 6f3d
000001c0: 5e14 83bd ef94 a63c abd0 f9bc 1148 d4bc
000001d0: da12 95bd d0aa 21bd 6101 d3bd e524 c9bd
000001e0: 85b5 43bb f515 81bd 5bf7 57bc fda5 e93c
000001f0: 1692 01be 64f7 d3bd 6ed5 8c3d 009b 0b3e
00000200: b56e 743d 3a2c 32bd 3b32 0d3e e47e e83c
00000210: ee6a 11bd 090d 15be dd0c b1bd 0c4c d2bc
00000220: aceb 91bd ff86 7fbd 8eca a6bd c0ed d6bd
00000230: 66ea 22be 88bd dd3d edec 6fbc 0078 1a3e
00000240: fbc2 1d3d 0719 04be 5cd9 44bd 4b29 90bd
00000250: 797e 87bd 241c 963d e50c 74bd 129e 4ebd
00000260: ad58 d8bc 1c50 6abd 92d4 453d fea2 d63d
00000270: 5478 a1bd de7b 15be 4ea8 babd ea05 ccbd
00000280: 6ea0 e3bd fc84 cdbd 0b8e bc3c b69b 06bd
00000290: 99b8 b5bd 9b7f a5bc 21ef a83d 8b8b bd3c
000002a0: 6523 9bbd 41ef c13d 4169 233d 9695 cbbd
000002b0: 6387 0e3d dc18 ef3d 4951 e33b 3ad8 d13d
000002c0: f601 933c 14f0 01bb e19e b83d d82d 133e
000002d0: c888 f1bc 7e75 cb3d ef85 363d e6bf a3ba
000002e0: 78c6 a7bd c76b 763d 4589 c4bc 7458 2f3e
000002f0: 5411 233c ab7f 083d fda1 803d 2ffd ecba
00000300: 9af2 583d ebc2 bbbd 39f9 3ebe 2a9e 49bc
00000310: 0715 85bc ed0b acbd 782c 48bd 42e9 6fbc
00000320: b7b8 d9bd 5adb cfbd 8fde 823b 76f6 b93c
00000330: a1eb 9dba 2534 44bd 6bfa cbbd 4f7d 56bd
00000340: 0017 4abc 1a01 f9bd 1aed 913d 8bda 9a3d
00000350: add7 04bd 4ec5 75bd c06e 4bbe 7804 24be
00000360: f8fe 493d a862 553d 1a16 c9bc 67d7 15bd
00000370: aa71 b7bd c1c2 d5bd b47d b93d 3351 1e3d
00000380: eb80 a63c 0440 bc3d a564 573d e481 57bd
00000390: ff05 133d 8d1d 4cbd c296 63bd ce46 aabd
000003a0: c5cf e03c 74ac 923c 55e6 f7bc 9cad ca3c
000003b0: 4f56 f8bc 650e 833c 3431 103c cbb3 23bd
000003c0: f7d6 88bc 2b86 2cbc 085d 023d 527d 3d3c
000003d0: 0a68 9fbd e82e 80bd f693 dd3c eee6 a03c
000003e0: 8679 f23d 7eda d7bd 7af8 c2bd 9337 b03c
000003f0: 8bfb e93a 1cac 66bd a38d 26bd 75b9 7abd

conv.10.bias f4 [128]
0.06984993 0.021222692 -0.010783851 0.016288392 0.03054743 0.033180583 -0.06533494 0.037766587
0.016714178 -0.050840165 -0.048530728 0.016988313 0.062205013 -0.04402496 -0.035582166 0.027493926
0.009113728 -0.028627625 -0.022643412 -0.04735864 0.015555239 -0.024122335 0.04436599 0.060833223
0.048851494 0.037922345 -0.025562162 0.047630556 0.054571524 -0.038135964 -0.06279015 -0.02953119
-0.014138737 -0.039455306 -0.06118744 -0.059299726 -0.07054801 0.03540319 -0.010062234 0.040307917
-0.03992683 0.05101286 0.00021363643 -0.0025561624 -0.03166529 0.058188647 -0.06039587 -0.047281392
0.06478603 0.06859015 -0.042565778 -0.048282098 -0.06733605 0.0050504617 -0.047330882 0.01661448
-0.00835905 -0.002315701 0.024741456 0.018633159 -0.03105143 -0.03739607 -0.07121128 -0.04934345
-0.059192255 -0.022537064 0.029743772 0.06908212 -0.044430517 0.042297747 -0.06729685 -0.013034301
0.057949793 0.005056898 -0.030559842 0.043943126 0.06876889 -0.001476042 0.07430634 0.05482414
-0.035530414 0.021712702 -0.043200932 -0.039752107 0.06733198 -0.02899795 -0.0067624273 -0.06636508
0.0036459353 0.022795372 -0.04505332 0.021589838 0.053636078 0.044860058 -0.008069242 0.06326194
0.029241124 0.002193194 0.012401929 0.06789561 -0.008282557 0.01348695 -0.010370227 0.0069319527
0.03375361 0.065506615 -0.053181317 -0.028796175 -0.020995392 -0.06070582 -0.007072538 0.025658583
0.027197568 -0.0074813194 -0.00032155516 0.039067924 -0.039757013 -0.039092332 -0.02149706 0.02001925
0.0647646 -0.043311864 0.032243956 -0.004017044 -0.0099498825 -0.03589643 -0.03673148 -0.028357295
00000000: 7b0d 8f3d 36db ad3c c0ae 30bc 3c6f 853c
00000010: 9b3e fa3c 5de8 073d 53ce 85bd 23b1 1a3d
00000020: 2cec 883c c73d 50bd 28c8 46bd 132b 8b3c
00000030: afca 7e3d 8453 34bd 9bbe 11bd f13a e13c
00000040: bf51 153c 7b84 eabc ad7e b9bc 22fb 41bd
00000050: 67db 7e3c 349c c5bc 1db9 353d 422c 793d
00000060: 8118 483d 7654 1b3d bd67 d1bc 4218 433d
00000070: 6486 5f3d 7534 1cbd 1f98 80bd 65eb f1bc
00000080: 29a6 67bc e39b 21bd ae9f 7abd 45e4 72bd
00000090: 7a7b 90bd ef02 113d 11dc 24bc ea19 253d
000000a0: 518a 23bd dcf2 503d 9803 6039 4a85 27bb
000000b0: 77b3 01bd 3857 6e3d a961 77bd 22aa 41bd
000000c0: 8aae 843d fe78 8c3d 7459 2ebd 73c3 45bd
000000d0: 7ce7 89bd 587e a53b 07de 41bd 171b 883c
000000e0: 66f4 08bc 04c3 17bb 98ae ca3c 91a4 983c
000000f0: 925f febc 9f2c 19bd 38d7 91bd 5c1c 4abd
00000100: 9473 72bd a69f b8bc 36a9 f33c ed7a 8d3d
00000110: c6fc 35bd 6740 2d3d eed2 89bd d28d 55bc
00000120: c35c 6d3d 56b4 a53b a258 fabc b5fd 333d
00000130: b4d6 8c3d c077 c1ba ec2d 983d 478f 603d
00000140: 5788 11bd d6de b13c 76f3 30bd 1bd3 22bd
00000150: 59e5 893d 1c8d edbc 5a97 ddbb 6aea 87bd
00000160: a5f0 6e3b 5cbd ba3c d489 38bd 2cdd b03c
00000170: 81b1 5b3d 2ebf 373d db34 04bc 7a8f 813d
00000180: 158b ef3c b1bb 0f3b 7631 4b3c db0c 8b3d
00000190: 90b3 07bc 5ef8 5c3c e2e7 29bc 6f25 e33b
000001a0: 3a41 0a3d 5528 863d a7d4 59bd f5e5 ebbc
000001b0: 87fe abbc aaa6 78bd c0c0 e7bb f331 d23c
000001c0: 6fcd de3c db25 f5bb 6796 a8b9 b005 203d
000001d0: 40d8 22bd 481f 20bd 9a1a b0bc 69ff a33c
000001e0: 4da3 843d c867 31bd 3d12 043d 68a1 83bb
000001f0: d504 23bc 2308 13bd c073 16bd 8f4d e8bc

conv.11.weight f4 [128]
1.1306096 0.9838097 1.0048507 1.0943053 1.1608102 1.1900579 0.946626 0.9781436
1.2474703 1.1457363 1.0538663 1.07021 1.0067196 1.0243973 0.92187726 1.1191005
1.1749753 1.1083814 1.2193 1.0247271 0.98137087 1.1543877 0.9318719 1.0913382
1.2215353 0.9683038 0.97862184 1.2002753 1.1531435 0.97779036 1.1869184 1.1694068
1.0282769 1.1168827 1.0679235 1.1840395 1.092563 1.1917104 1.0300726 1.242817
1.1672891 1.1402527 1.0811775 1.0644028 0.98843753 0.9428766 1.0733734 1.146628
1.1448396 0.95341474 1.349992 1.1115522 1.0855488 1.1207426 1.0043235 1.1280731
1.1485076 1.0023743 0.96901095 0.97753507 1.1936188 1.1834503 1.1011845 1.023535
0.94823587 0.9440314 0.98919 0.93886137 1.0105511 1.0040872 1.1119423 1.105678
0.9389758 1.165664 1.2149947 1.0484068 1.1457162 1.0885324 1.1627847 1.0927542
1.121612 1.0183213 1.1674732 1.1713225 1.0803636 1.169509 1.0928229 0.93816316
1.1209506 1.0309317 1.0031655 1.1048214 1.1630431 1.1527326 0.9938828 0.9820585
1.0845023 0.9846605 1.0115354 0.96676475 1.0815191 0.9319816 1.0200872 1.1376522
1.1139054 1.216392 1.1106932 1.1242129 1.1315017 1.2177991 1.174915 1.1253183
0.9397041 1.0910423 0.9829307 1.0314605 1.0772803 1.0002633 1.088554 1.0094389
0.9994718 1.2060112 1.083589 1.1051944 1.2101077 0.94172555 0.9999462 0.98515284
00000000: d1b7 903f f4da 7b3f f39e 803f 3212 8c3f
00000010: 6e95 943f d153 983f 1556 723f 9e67 7a3f
00000020: 1bad 9f3f 7da7 923f 17e5 863f a4fc 883f
00000030: 30dc 803f 731f 833f 2600 6c3f af3e 8f3f
00000040: 9765 963f 71df 8d3f 0612 9c3f 422a 833f
00000050: 1f3b 7b3f fac2 933f 288f 6e3f f8b0 8b3f
00000060: 455b 9c3f c2e2 773f f686 7a3f 9fa2 993f
00000070: 359a 933f 7850 7a3f f1ec 973f 1faf 953f
00000080: 949e 833f 03f6 8e3f b8b1 883f 9b8e 973f
00000090: 1bd9 8b3f f789 983f 6bd9 833f a114 9f3f
000000a0: bb69 953f cdf3 913f 0664 8a3f 5a3e 883f
000000b0: 3e0a 7d3f 5c60 713f 4d64 893f b5c4 923f
000000c0: 1b8a 923f fd12 743f 8acc ac3f 5847 8e3f
000000d0: 43f3 8a3f 7e74 8f3f ac8d 803f b364 903f
000000e0: 4c02 933f cd4d 803f 1a11 783f bd3f 7a3f
000000f0: 80c8 983f 4d7b 973f 9df3 8c3f 3203 833f
00000100: 96bf 723f 0bac 713f 8e3b 7d3f 3859 703f
00000110: bd59 813f ee85 803f 2054 8e3f db86 8d3f
00000120: b860 703f 7a34 953f f284 9b3f 3232 863f
00000130: d4a6 923f 0855 8b3f 21d6 943f 5fdf 8b3f
00000140: fb90 8f3f 5a58 823f c36f 953f e5ed 953f
00000150: 5b49 8a3f 79b2 953f 9fe1 8b3f 762b 703f
00000160: 4f7b 8f3f 92f5 833f ba67 803f ca6a 8d3f
00000170: 99de 943f be8c 933f 1a6f 7e3f 3068 7b3f
00000180: f9d0 8a3f b612 7c3f fe79 813f e57d 773f
00000190: 386f 8a3f 5996 6e3f 3892 823f 969e 913f
000001a0: 7494 8e3f bcb2 9b3f 322b 8e3f 35e6 8f3f
000001b0: 0cd5 903f d7e0 9b3f 9d63 963f 6e0a 903f
000001c0: 7390 703f 46a7 8b3f 59a1 7b3f e606 843f
000001d0: 52e4 893f a108 803f bd55 8b3f 4b35 813f
000001e0: 62dd 7f3f 935e 9a3f 0bb3 8a3f 0377 8d3f
000001f0: cfe4 9a3f ed14 713f 79fc 7f3f fa32 7c3f

conv.11.bias f4 [128]
0.08946803 -0.13119249 -0.093731254 0.01691566 0.13518536 0.13201046 -0.15254764 -0.10046162
0.07156996 0.1323689 0.04098702 0.072440326 -0.11126739 -0.09455393 -0.1364174 0.114288755
0.08372582 0.094240494 0.15109122 -0.09889758 -0.09955455 0.13971916 -0.13456792 0.11209777
0.14562662 -0.11348038 -0.096024156 0.10994695 0.073902026 -0.09981384 0.11958498 0.11952139
0.028533187 0.10711208 0.057957143 0.0939434 0.0781887 0.024213148 -0.08619673 0.11964163
0.07744717 0.097426146 0.06429678 0.057309564 -0.11782422 -0.1165771 0.03155021 0.079581365
0.124648996 -0.11368991 0.10691887 0.040211603 0.06406312 0.045484733 -0.104085594 0.10482425
0.059288815 -0.07902751 -0.0960445 -0.09390983 0.09234664 0.14701663 0.08035444 -0.078293405
-0.11129976 -0.14485906 -0.0964049 -0.11627696 -0.11554777 0.009197902 0.042667065 0.08762241
-0.119036525 0.15504277 0.052466836 0.05972671 0.107628085 0.062502705 0.072236344 0.10694791
0.10500032 -0.114464015 0.12641998 0.03643319 0.09525575 0.12915455 0.028828995 -0.10082947
0.11374414 -0.08215837 -0.09512024 0.12597157 0.13280268 0.122088246 -0.059373148 -0.10474875
0.046464354 -0.112370774 0.045654055 -0.09850739 0.10840223 -0.151583 -0.0790468 0.11574869
0.10864413 0.12753195 0.101424284 0.065925404 0.086890906 0.090722196 0.1491214 0.08495079
-0.12598205 0.07863498 -0.12081643 -0.07137624 0.024374176 -0.119622685 0.03838393 -0.10830282
-0.1288329 0.08695129 0.08080063 0.054867387 0.07845619 -0.12867528 -0.091961995 -0.0684994
00000000: 043b b73d 5357 06be 2cf6 bfbd b692 8a3c
00000010: 086e 0a3e c02d 073e 7335 1cbe d2be cdbd
00000020: 4593 923d b78b 073e 01e2 273d 985b 943d
00000030: 28e0 e3bd 7ea5 c1bd 01b1 0bbe 3910 ea3d
00000040: 7178 ab3d 2901 c13d a8b7 1a3e d08a cabd
00000050: 42e3 cbbd 8a12 0f3e 2ccc 09be 8493 e53d
00000060: 251f 153e 6768 e8bd 50a8 c4bd de2b e13d
00000070: f259 973d 336b ccbd f8e8 f43d a1c7 f43d
00000080: 6ebe e93c 945d db3d 7864 6d3d 6665 c03d
00000090: 6621 a03d a75a c63c e987 b0bd ac06 f53d
000000a0: 9f9c 9e3d 5c87 c73d 08ae 833d 6fbd 6a3d
000000b0: d34d f1bd f9bf eebd cb3a 013d 8efb a23d
000000c0: f947 ff3d 41d6 e8bd 48f8 da3d ecb4 243d
000000d0: 8633 833d 334e 3a3d d42a d5bd 19ae d63d
000000e0: d4d8 723d 2dd9 a1bd fbb2 c4bd cc53 c0bd
000000f0: 3c20 bd3d 878b 163e de90 a43d 4b58 a0bd
00000100: 21f1 e3bd ef55 14be ef6f c5bd 9d22 eebd
00000110: 4fa4 ecbd ccb2 163c a9c3 2e3d 6173 b33d
00000120: 6cc9 f3bd 88c3 1e3e 77e7 563d ffa3 743d
00000130: 1d6c dc3d 6b01 803d a6f0 933d 8107 db3d
00000140: 680a d73d 1c6c eabd 3d74 013e f83a 153d
00000150: 7215 c33d 1741 043e c92a ec3c ae7f cebd
00000160: b0f2 e83d a642 a8bd 66ce c2bd b1fe 003e
00000170: 6dfd 073e 6709 fa3d 4231 73bd 8386 d6bd
00000180: 6851 3e3d a622 e6bd bfff 3a3d 3ebe c9bd
00000190: fd01 de3d 9338 1bbe 4ae3 a1bd a60d ed3d
000001a0: d080 de3d bc97 023e 89b7 cf3d e603 873d
000001b0: dcf3 b13d 8fcc b93d 48b3 183e aefa ad3d
000001c0: 7001 01be 600b a13d 9b6e f7bd b52d 92bd
000001d0: 5aac c73c bdfc f4bd 7838 1d3d decd ddbd
000001e0: c6ec 03be 8513 b23d cd7a a53d a0bc 603d
000001f0: a4ad a03d 74c3 03be 9256 bcbd 6a49 8cbd

conv.11.running_mean f4 [128]
-0.91812646 -2.284822 -1.972227 -1.0544978 -1.4395895 -0.69308674 -0.98697484 -1.2260457
1.7180228 0.006584651 0.37185943 0.01418503 -1.7239922 -1.2083881 -0.8679294 -0.84163135
0.7211912 1.0978122 -1.0144768 -1.069871 -1.8762435 -1.6572492 -1.4216841 -0.23738132
-1.3108875 -0.91837347 0.22010641 1.2899455 0.8126564 -1.6283981 -0.7520641 1.4779341
0.14749809 -0.36353025 -0.6466366 -0.68459475 -0.5016388 -0.2527144 -1.5040331 2.2730296
1.531085 0.8789781 -0.3755715 1.5713117 -1.8532679 -2.7528112 -0.36468512 -0.20197946
-0.37419048 -1.6486148 2.1102016 0.87340397 -0.07878737 -0.90876186 -2.3872707 0.74644256
1.4110618 -1.3542674 -2.7058258 -2.060054 -0.5109769 -1.0312986 -0.7142091 1.0903585
-2.6257057 -2.7812905 -2.3854868 -2.2349882 -2.3695796 1.9725292 -0.16505404 0.19143602
-2.728597 -1.8143091 2.2253087 0.8412436 1.0479411 -0.10474009 -1.4966896 -1.2286043
0.3647388 -1.3685353 -0.14632168 0.32483104 0.766995 -1.0247386 0.9168147 -3.1599066
0.34798908 -2.0249164 -2.749275 -1.3507334 -0.68044543 -0.3820298 -0.8427764 -2.6287665
0.31976417 -2.1881728 -0.55882573 -2.017814 -0.8435194 -2.2987761 -1.8880891 -0.8033602
-0.63081324 1.6176721 -1.0470637 0.6842796 0.39871198 0.69117385 -1.4767854 -0.65586674
-1.2375286 0.14833333 -2.903617 -1.601365 0.551178 -1.369722 -0.08391758 -1.6359034
-1.2796161 2.188348 0.25169507 -0.56973004 -0.44975996 -2.5254536 -1.4518698 -2.6799145
00000000: 560a 6bbf 863a 12c0 ef71 fcbf c9f9 86bf
00000010: 7844 b8bf 226e 31bf 62aa 7cbf 11ef 9cbf
00000020: 2ce8 db3f 0ec4 d73b 5c64 be3e 5468 683c
00000030: c7ab dcbf 76ac 9abf 9f30 5ebf 2775 57bf
00000040: fd9f 383f 1c85 8c3f 60da 81bf 88f1 88bf
00000050: bf28 f0bf be20 d4bf bff9 b5bf 1714 73be
00000060: 29cb a7bf 861a 6bbf 9363 613e ef1c a53f
00000070: 400a 503f 596f d0bf 4687 40bf f22c bd3f
00000080: bd09 173e a320 babe fa89 25bf 9a41 2fbf
00000090: 676b 00bf c863 81be 2884 c0bf 5179 1140
000000a0: 98fa c33f b504 613f e84a c0be be20 c93f
000000b0: e237 edbf 0f2e 30c0 02b8 babe b4d3 4ebe
000000c0: e595 bfbe cf05 d3bf 8b0d 0740 6797 5f3f
000000d0: 465b a1bd 9ea4 68bf 0bc9 18c0 dc16 3f3f
000000e0: ac9d b43f a258 adbf 402c 2dc0 edd7 03c0
000000f0: 62cf 02bf 9801 84bf 68d6 36bf de90 8b3f
00000100: 900b 28c0 aa00 32c0 d1ab 18c0 0c0a 0fc0
00000110: 31a7 17c0 d67b fc3f ed03 29be ce07 443e
00000120: 55a1 2ec0 483b e8bf 756b 0e40 be5b 573f
00000130: ef22 863f f981 d6bd 8693 bfbf e842 9dbf
00000140: 0bbf ba3e 2a2c afbf 5ad5 15be 4150 a63e
00000150: c959 443f a22a 83bf 5eb4 6a3f e93b 4ac0
00000160: a02b b23e 3b98 01c0 1ff4 2fc0 d5e4 acbf
00000170: ac31 2ebf 6999 c3be 32c0 57bf b63d 28c0
00000180: 21b8 a33e 060b 0cc0 340f 0fbf dd23 01c0
00000190: e3f0 57bf 261f 13c0 e7ac f1bf 04a9 4dbf
000001a0: fa7c 21bf e10f cf3f 2f06 86bf f32c 2f3f
000001b0: fa23 cc3e c5f0 303f 4e07 bdbf e2e6 27bf
000001c0: 5667 9ebf b1e4 173e dcd4 39c0 87f9 ccbf
000001d0: 001a 0d3f 0d53 afbf fbdc abbd 4865 d1bf
000001e0: 76ca a3bf e50d 0c40 2dde 803e d4d9 11bf
000001f0: f046 e6be 08a1 21c0 dfd6 b9bf b883 2bc0

conv.11.running_var f4 [128]
3.705678 1.7111962 1.5420327 2.0921788 2.8520114 3.6195726 1.198281 1.866516
5.044644 2.7342277 2.4153168 2.8251286 1.716804 1.4641634 0.7665806 3.0171309
3.2257912 2.2676437 2.614324 1.0478334 1.6798553 3.69266 1.9801944 3.2264628
3.5514443 3.2636845 1.7388974 3.5060968 2.717456 1.4363045 2.3278108 2.804846
1.9333656 3.1246092 2.7252376 2.0888803 3.1083972 2.1304905 1.5919222 5.6960897
5.197087 3.0924327 2.120739 2.5999017 1.4042287 2.2079794 2.3052158 2.3209662
3.7143965 1.5458758 6.1609826 2.8262665 2.1205914 2.765603 1.555125 2.3302252
2.573676 1.5416348 2.5510066 1.520816 3.1847935 3.4467304 2.1701028 1.2876668
2.1253312 2.209222 3.1145205 2.3967896 2.0436656 2.580349 3.506407 2.870492
1.941974 5.77093 5.5714064 2.36084 3.0413399 2.88564 2.2499795 3.8679304
3.3336356 1.5793165 3.4031281 2.183358 2.399865 2.3976867 2.4834728 2.0140183
4.1322255 1.5332142 2.5042322 3.9353461 2.0619798 3.3990119 1.9539828 1.892907
2.9773977 1.855495 3.3049536 1.992078 3.302518 3.271195 1.448144 2.4535816
3.0645993 2.7069933 3.0921605 2.686019 3.4697194 4.1271152 3.8714914 2.748939
2.5908425 1.7667083 2.4647048 1.6312829 2.4013412 1.0619086 2.7064626 1.575618
2.0758476 3.2392948 2.1449192 2.3650975 2.6291633 2.040353 1.207502 1.8132354
00000000: d429 6d40 7a08 db3f 5461 c53f 42e6 0540
00000010: 5b87 3640 14a7 6740 4661 993f ffe9 ee3f
00000020: b96d a140 96fd 2e40 8d94 1a40 e8ce 3440
00000030: 3cc0 db3f b569 bb3f a03e 443f ac18 4140
00000040: 5d73 4e40 1321 1140 1651 2740 681f 863f
00000050: 8005 d73f 8b54 6c40 0377 fd3f 5e7e 4e40
00000060: dd4a 6340 35e0 5040 3194 de3f e463 6040
00000070: cdea 2d40 d3d8 b73f dafa 1440 9982 3340
00000080: 8678 f73f 99f9 4740 4b6a 2e40 37b0 0540
00000090: fbef 4640 f559 0840 1bc4 cb3f 5e46 b640
000000a0: 894e a640 6bea 4540 30ba 0740 ca64 2640
000000b0: c4bd b33f 894f 0d40 a888 1340 b68a 1440
000000c0: acb8 6d40 42df c53f c526 c540 8de1 3440
000000d0: c5b7 0740 a4ff 3040 560e c73f 6922 1540
000000e0: 1cb7 2440 4a54 c53f b143 2340 19aa c23f
000000f0: a8d3 4b40 3b97 5c40 f7e2 0a40 44d2 a43f
00000100: 6d05 0840 e563 0d40 4e54 4740 0065 1940
00000110: 6bcb 0240 7024 2540 f968 6040 24b6 3740
00000120: 9b92 f83f 75ab b840 f648 b240 0118 1740
00000130: 50a5 4240 53ae 3840 aaff 0f40 2c8c 7740
00000140: 495a 5540 0b27 ca3f dacc 5940 23bc 0b40
00000150: 6397 1940 b373 1940 38f1 1e40 ade5 0040
00000160: 313b 8440 5d40 c43f 5745 2040 b6dc 7b40
00000170: 7af7 0340 6989 5940 1c1c fa3f c74a f23f
00000180: af8d 3e40 dc80 ed3f 5c84 5340 69fc fe3f
00000190: 745c 5340 425b 5140 c85c b93f 7b07 1d40
000001a0: 6522 4440 613f 2d40 f5e5 4540 bce7 2b40
000001b0: e20f 5e40 5411 8440 84c6 7740 9eee 2f40
000001c0: 5dd0 2540 7f23 e23f b9bd 1d40 e1cd d03f
000001d0: 93af 1940 9fec 873f af36 2d40 daad c93f
000001e0: b0da 0440 9b50 4f40 5b46 0940 c25d 1740
000001f0: 3644 2840 2595 0240 6d8f 9a3f 1918 e83f
