output/electricity_cnn_20260221_204822/checkpoints/epoch_90.pt (torch, 174824 bytes, 21 tensors)

conv.0.weight f4 [32, 14, 3]
-0.11536607 -0.018894607 0.022863973 -0.008456935 0.09793209 -0.08482027 -0.09439996 0.10507317
-0.093005344 0.009884907 -0.08892693 -0.010890757 0.008568209 -0.0011066009 -0.0014208321 0.022176899
0.047827557 -0.061669573 0.024226854 0.1436902 0.0067862584 0.020205796 -0.09495445 0.0206375
0.48998353 0.4261978 0.572917 -0.8471069 -0.88256365 -0.9670668 -0.23079635 -0.24637967
-0.17630793 -0.0037725647 0.044575475 -0.03411978 -0.11741593 0.10739033 0.0047064167 -0.06864964
0.004946537 0.07670251 -0.2079152 0.09497292 0.08192746 0.17404349 0.09402299 0.023239685
-0.117625095 -0.0142683685 -0.023503223 0.1861041 0.16132556 -0.20487693 0.043667953 -0.037088174
0.07503152 0.05002124 0.016597128 -0.069144435 0.008267172 0.04606036 0.17885645 -0.023644822
-0.023895668 0.048389096 -0.19213818 -0.025758632 -0.018248059 0.21746126 0.24320748 0.39176363
-0.5301764 -0.6090657 -0.53060734 0.029885633 0.09943303 -0.2109293 0.057886694 -0.08528952
-0.036393635 0.035087448 -0.068821505 0.10988163 0.08522695 0.14784099 -0.24522898 0.036082443
0.047766745 0.06694806 -0.016848542 0.048264235 -0.17597973 -0.1062179 0.13137348 -0.0011081184
0.069912046 -0.057805546 0.00070623483 0.001015501 0.025740553 -0.020641843 0.069629766 0.113158904
-0.053551123 -0.013989437 0.0412196 -0.099259235 -0.96874344 -0.7108531 -0.90825075 0.040096954
0.2621531 0.32255927 0.17326327 0.042539693 0.2786808 -0.004038888 -0.013831287 0.041004702
-0.044117685 0.14315051 -0.09838073 -0.07398005 -0.025099697 0.115007825 0.23513348 0.022884212
-0.10367179 -0.092235126 0.031819813 0.0015788367 0.026799196 0.052250456 -0.10610766 0.18450876
0.098914295 0.06336042 0.018216077 0.004650894 -0.06820944 0.06572576 0.06679076 -0.0121332705
0.02303193 0.12892817 -0.21208167 0.052377574 -0.18291806 0.05232274 0.0016789902 0.06105105
0.1366847 0.09239813 0.18151705 0.3087893 0.40604052 0.4197329 0.4200509 0.3441786
0.14254433 0.12615193 0.080414675 -0.07620471 -0.05752905 -0.010301872 0.053829778 0.07174891
0.11780936 -0.060235076 -0.0861984 0.018358873 -0.07426278 -0.031474035 0.06765503 0.022041019
-0.01104689 0.07023782 0.045860205 -0.07239568 0.015937954 0.00044283344 -0.033882134 -0.0051716594
-0.011544122 -0.0069997865 -0.01544611 -0.01371216 -0.0755264 0.044885598 0.02099805 0.013096316
0.5031193 0.53535235 0.6115688 0.050424535 0.2600372 0.3066493 0.26271486 0.36219767
0.38035086 0.030388443 0.063872814 -0.0075661056 0.02822356 0.009190503 -0.023415532 -0.063160144
0.026756339 0.033588957 0.00622002 0.096815236 -0.08464062 0.16064672 -0.10768274 0.08856033
-0.012910396 -0.07254451 -0.10830744 -0.13503239 0.06391678 -0.072644554 0.0094895 0.0048980024
0.023480719 -0.0128923 -0.008003257 -0.0011353871 0.0106922155 0.23025627 -0.15916012 0.102128595
-0.10237161 -0.6322223 0.11048243 0.24226774 0.13124192 -0.46394676 -0.5726626 -0.55180985
0.41930744 0.17882927 0.38642868 0.09686276 0.080819435 0.024834344 -0.015589251 0.038585335
0.056971017 0.08509564 0.007652135 -0.16294436 -0.14159955 -0.16633293 0.24008796 -0.008919985
00000000: 0c45 ecbd ddc8 9abc 3a4d bb3c f58e 0abc
00000010: 9f90 c83d 40b6 adbd c454 c1bd 9a30 d73d
00000020: 9679 bebd 4ef4 213c 531f b6bd 256f 32bc
00000030: ac61 0c3c 5d0b 91ba 373b baba 54ac b53c
00000040: d4e6 433d 3c99 7cbd 6577 c63c 8623 133e
00000050: 435f de3b a086 a53c 7b77 c2bd f90f a93c
00000060: 1fdf fa3e 9936 da3e b0aa 123f ffdb 58bf
00000070: b1ef 61bf b191 77bf e155 6cbe f44a 7cbe
00000080: 118a 34be 223d 77bb c694 363d 2fc1 0bbd
00000090: c377 f0bd 76ef db3d 4938 9a3b 2f98 8cbd
000000a0: 8f16 a23b 3516 9d3d b9e7 54be 2a81 c23d
000000b0: 96c9 a73d 7538 323e 208f c03d 2761 be3c
000000c0: 6de5 f0bd e0c5 69bc d589 c0bc 1392 3e3e
000000d0: 8732 253e 42cb 51be 2bdd 323d c5e9 17bd
000000e0: 20aa 993d 12e3 4c3d b3f6 873c 999b 8dbd
000000f0: 0873 073c caa9 3c3d 2526 373e c9b2 c1bc
00000100: d9c0 c3bc a533 463d dfbf 44be c403 d3bc
00000110: f47c 95bc 2aae 5e3e 620b 793e 3e95 c83e
00000120: a4b9 07bf bbeb 1bbf e2d5 07bf b7d2 f43c
00000130: 8ba3 cb3d dafd 57be 991a 6d3d 46ac aebd
00000140: 7e11 15bd dbb7 0f3d 4af2 8cbd 9f09 e13d
00000150: 788b ae3d a163 173e 4e1d 7bbe 2fcb 133d
00000160: 10a7 433d 111c 893d f405 8abc b8b0 453d
00000170: 0834 34be c588 d9bd c586 063e 493e 91ba
00000180: 0c2e 8f3d 82c5 6cbd 9e22 393a 8f1a 853a
00000190: dadd d23c 1519 a9bc 0d9a 8e3d dbbf e73d
000001a0: 6c58 5bbd f433 65bc e2d5 283d 6d48 cbbd
000001b0: 92ff 77bf 78fa 35bf 1f83 68bf b43c 243d
000001c0: ee38 863e 7d26 a53e ed6b 313e 1a3e 2e3d
000001d0: 40af 8e3e a658 84bb 9f9c 62bc 8cf4 273d
000001e0: bfb4 34bd 0c96 123e d67b c9bd da82 97bd
000001f0: e19d cdbc 3989 eb3d d5c6 703e ac77 bb3c
00000200: e051 d4bd c5e5 bcbd 7e55 023d f8f0 ce3a
00000210: fd89 db3c 9304 563d f94e d9bd ddef 3c3e
00000220: 9493 ca3d 1cc3 813d e239 953c 8766 983b
00000230: 64b1 8bbd 3a9b 863d 98c9 883d a0ca 46bc
00000240: 75ad bc3c bf05 043e f02b 59be de89 563d
00000250: df4e 3bbe 5f50 563d 9011 dc3a aa10 7a3d
00000260: 13f7 0b3e 3b3b bd3d 9bdf 393e a219 9e3e
00000270: 8be4 cf3e 3be7 d63e e910 d73e 2d38 b03e
00000280: 24f7 113e f92d 013e 73b0 a43d 3711 9cbd
00000290: 95a3 6bbd 2fc9 28bc 9d7c 5c3d 18f1 923d
000002a0: 0946 f13d 0eb9 76bd c988 b0bd 5965 963c
000002b0: 1617 98bd ebea 00bd b88e 8a3d 5e8f b43c
000002c0: 04fe 34bc d9d8 8f3d e9d7 3b3d 3044 94bd
000002d0: 5090 823c 192c e839 fec7 0abd 0677 a9bb
000002e0: 8f23 3dbc 775e e5bb ae11 7dbc f8a8 60bc
000002f0: 96ad 9abd f6d9 373d 1a04 ac3c ee91 563c
00000300: 6dcc 003f da0c 093f c68f 1c3f f589 4e3d
00000310: 9923 853e 2301 9d3e 9082 863e f971 b93e
00000320: 59bd c23e 2ff1 f83c c0cf 823d 18ed f7bb
00000330: 1835 e73c c393 163c eed1 bfbc 1b5a 81bd
00000340: 1c30 db3c 9394 093d 4fd1 cb3b 1147 c63d
00000350: 1058 adbd 9380 243e c588 dcbd 1e5f b53d
00000360: 2086 53bc 3792 94bd 4bd0 ddbd ee45 0abe
00000370: cde6 823d abc6 94bd d979 1b3c 6c7f a03b
00000380: a35a c03c 3a3a 53bc 1820 03bc 45d1 94ba
00000390: 672e 2f3c 4dc8 6b3e dffa 22be cc28 d13d
000003a0: 35a8 d1bd 52d9 21bf 9d44 e23d 0915 783e
000003b0: 4864 063e 6e8a edbe 049a 12bf 6943 0dbf
000003c0: 77af d63e 051f 373e fbd9 c53e fc5f c63d
000003d0: a984 a53d 6571 cb3c 0f6a 7fbc a80b 1e3d
000003e0: 715a 693d 9f46 ae3d c3be fa3b e3da 26be
000003f0: 79ff 10be 2e53 2abe 9ed9 753e 2125 12bc

conv.0.bias f4 [32]
0.13382469 0.028649762 0.06769263 0.18457383 0.26738816 0.22008243 -0.12055976 0.021263078
0.0409595 0.12489868 0.025891466 0.09494516 -0.12554096 -0.00043597448 -0.025181938 -0.10681781
-0.03612516 0.060249522 0.18972035 0.05943384 0.026439505 0.29742664 0.27301365 -0.1270285
0.105634525 0.09957115 0.04133237 0.17320456 -0.062757745 -0.0058707027 0.14825544 0.13460927
00000000: 5709 093e e8b2 ea3c 6fa2 8a3d ec00 3d3e
00000010: 1ae7 883e 4a5d 613e 09e8 f6bd e82f ae3c
00000020: 26c5 273d e1ca ff3d 571a d43c 9c72 c23d
00000030: cf8d 00be 8193 e4b9 5a4a cebc 4cc3 dabd
00000040: faf7 13bd 34c8 763d 0d46 423e e670 733d
00000050: a997 d83c 4e48 983e 72c8 8b3e c213 02be
00000060: ea56 d83d f6eb cb3d 224c 293d 895c 313e
00000070: 2287 80bd 065f c0bb 46d0 173e 03d7 093e

conv.1.weight f4 [32]
1.125599 0.6751663 1.0651141 0.6777012 0.8629044 0.5620083 0.984533 0.7423758
0.44076407 0.703628 0.9735777 0.44875118 0.73863393 0.6107816 0.65521425 1.0230858
0.7332337 1.1267827 0.7607935 1.0475448 0.8581817 0.8430341 0.78581107 1.0282186
0.88826144 1.3087925 0.7764766 0.5869268 0.8512157 0.72442704 0.7469887 0.89508325
00000000: a113 903f b3d7 2c3f a955 883f d37d 2d3f
00000010: 4ee7 5c3f c7df 0f3f 5b0a 7c3f 570c 3e3f
00000020: d4ab e13e f720 343f 633c 793f b7c2 e53e
00000030: 1d17 3d3f 2f5c 1c3f 1fbc 273f 7af4 823f
00000040: 34b5 3b3f 6a3a 903f 5dc3 423f f315 863f
00000050: ccb1 5b3f 15d1 573f ea2a 493f ab9c 833f
00000060: 1a65 633f 8386 a73f 2cc7 463f d640 163f
00000070: 46e9 593f 0d74 393f a73a 3f3f 2d24 653f

conv.1.bias f4 [32]
-0.37510023 -0.44937122 -0.34042892 -0.39923626 -0.37074086 -0.6229005 -0.34786335 -0.32450363
-0.24116759 -0.48300257 -0.25088263 -0.26821408 -0.5506317 -0.312965 -0.1802517 -0.3400633
-0.46132404 -0.5795908 -0.43116087 -0.29406434 -0.4648365 -0.7071641 -0.6929372 0.13359153
-0.09188369 -0.30388376 -0.39618096 -0.5986078 -0.32406884 -0.24583142 -0.42981124 -0.4561276
00000000: 230d c0be fc13 e6be b34c aebe b268 ccbe
00000010: bfd1 bdbe 6876 1fbf 251b b2be 5725 a6be
00000020: a3f4 76be 1d4c f7be b073 80be 5b53 89be
00000030: 33f6 0cbf f33c a0be e793 38be c71c aebe
00000040: aa32 ecbe 1060 14bf 1ec1 dcbe 9a8f 96be
00000050: 0dff edbe b508 35bf 5564 31bf 38cc 083e
00000060: 842d bcbd a796 9bbe 3bd8 cabe 5c3e 19bf
00000070: 5aec a5be 3bbb 7bbe 3810 dcbe 8f89 e9be

conv.1.running_mean f4 [32]
0.17496629 0.00534561 0.094151214 0.17970386 0.2312853 0.25862747 -0.0927601 0.066579476
0.06651972 0.16494596 0.051560175 0.054914217 -0.099212594 0.07515132 0.012370587 -0.03412363
-0.00051858154 0.1043331 0.25795797 0.10500285 0.085579075 0.27515906 0.30013126 -0.21744205
0.119691335 0.11736065 0.11863575 0.21248534 0.0042160903 -0.005884727 0.12976263 0.1486172
00000000: 5d2a 333e 3a2a af3b 5ad2 c03d 4a04 383e
00000010: 0ed6 6c3e d26a 843e 02f9 bdbd d25a 883d
00000020: 7e3b 883d 98e7 283e c330 533d bbed 603d
00000030: f92f cbbd efe8 993d 01ae 4a3c 38c5 0bbd
00000040: 6bf1 07ba 98ac d53d 1113 843e bc0b d73d
00000050: 1544 af3d a6e1 8c3e ceaa 993e 21a9 5ebe
00000060: bb20 f53d c85a f03d 4df7 f23d c295 593e
00000070: 2127 8a3b abd4 c0bb 7fe0 043e 1b2f 183e

conv.1.running_var f4 [32]
4.337406 3.1509466 4.920798 2.616806 4.3771377 2.8731482 5.6363373 4.529393
1.9610666 6.382816 6.169094 5.812521 8.101647 7.705549 4.968704 11.60439
4.9615774 5.03731 11.017189 9.4367 5.684121 7.740433 1.3241822 14.039898
6.832957 5.560433 11.350142 2.8356245 6.0287347 2.8525522 0.8453338 3.8971205
00000000: 08cc 8a40 1ca9 4940 2d77 9d40 c079 2740
00000010: 8311 8c40 a9e1 3740 e05c b440 caf0 9040
00000020: 3b04 fb3f 0740 cc40 3869 c540 2c00 ba40
00000030: 59a0 0141 db93 f640 a0ff 9e40 95ab 3941
00000040: 3ec5 9e40 a531 a140 6846 3041 b9fc 1641
00000050: 52e4 b540 a1b1 f740 cd7e a93f 6ca3 6041
00000060: 95a7 da40 11ef b140 2e9a 3541 df7a 3540
00000070: 65eb c040 3790 3640 cc67 583f 6c6a 7940

conv.5.weight f4 [64, 32, 3]
0.017934447 0.111724414 -0.08691989 -0.10434833 -0.12388046 -0.13405755 -0.31732243 -0.28114292
-0.2524591 0.02887347 -0.05411631 -0.031014323 -0.0042585037 0.1741763 -0.13576804 0.00452905
0.25304344 -0.091253206 -0.036802776 0.17763843 -0.029483385 0.13022621 -0.032327034 0.09676847
0.023176432 0.032599937 -0.07309846 0.0998073 0.11702262 0.20190226 -0.043995515 -0.036456693
0.0010095512 -0.0045361067 0.037237067 0.00861329 0.021730583 0.12360732 0.23391671 0.08681232
0.045009647 0.0820169 0.0032142575 0.089562654 -0.05469405 0.15945244 0.111886755 0.21924773
0.019967875 -0.05754381 0.042352665 0.08226693 0.06230999 -0.10749924 0.19150142 0.07817779
0.07014482 -0.0146511765 0.03842215 -0.13463779 0.42680445 0.2973268 0.44106314 -0.10764788
-0.15154931 -0.5793401 -0.17675555 0.45427877 -0.32313347 -0.09674379 -0.09088899 -0.07181195
-0.16976623 -0.21007006 -0.32151246 -0.45159128 -0.3710642 -0.51958776 0.089281894 0.2871496
-0.23846179 0.055279393 0.23469801 0.08371991 0.20372489 0.14434098 0.065018386 -0.15079865
-0.1972625 0.087530695 0.01668017 0.3645706 -0.09531473 -0.088341795 -0.108028054 -0.1511093
-0.04873262 0.006967449 -0.055603635 0.023538044 0.029848987 -0.01833973 0.38655436 0.48763874
0.58927035 0.14484777 -0.029565863 0.28527305 0.38602793 0.019809483 0.16927257 -0.0038230615
-0.04949972 0.076222144 -0.0516669 0.057482343 0.03374944 0.12561655 0.10721687 0.22367866
-0.098014854 -0.10248225 0.05304137 0.010960441 -0.08469641 -0.0542977 -0.13841209 -0.08754172
-0.07656965 -0.06781888 -0.024329051 -0.06877411 -0.12212901 -0.29347408 -0.060348645 -0.11372965
-0.22871098 -0.15779102 -0.13235392 -0.03130055 -0.098999605 -0.17979257 -0.094074875 -0.1019877
-0.113772675 -0.15733726 -0.21140444 -0.004460078 0.029930262 0.039854296 0.036924634 0.10289088
0.16145064 -0.020350793 0.0554459 -0.019791601 -0.075977445 0.039058432 -0.06305137 0.045143746
0.10633961 0.02477628 -0.05528859 0.029461198 0.14599644 0.032396693 0.08175097 0.00870166
-0.06448516 -0.0035307268 0.057591643 0.21071249 0.11798707 1.2676079 0.092686355 0.20177387
0.03342313 -0.10210339 -0.051801547 0.03492057 -0.05313794 0.102781445 0.006076856 -0.12949966
-0.07026056 -0.057514247 0.030113362 0.19771434 0.14137831 0.046539977 0.07376643 0.10879438
-0.07679762 -0.08009545 0.027755361 0.096135154 -0.023629121 -0.04632443 0.2894316 0.29287183
0.46064374 0.14353158 -0.02331813 -0.16047128 -0.0134018045 -0.054543834 -0.03024946 -0.066158175
-0.09633678 -0.1318499 -0.5578084 -0.559265 -0.49648413 0.11795443 -0.07021945 -0.048489332
-0.051858824 -0.10331653 -0.03521842 0.04929045 -0.10979841 0.08507411 -0.27960938 -0.23219693
-0.27272525 0.03431756 -0.1387047 0.06611728 -0.15352325 -0.1765803 -0.23940618 -0.0210277
-0.21625648 -0.21133433 -0.0071396455 -0.11618831 -0.16237445 -0.10858552 -0.14893042 -0.035743557
-0.058921468 -0.08123506 -0.05346927 -0.06652064 0.0114336535 -0.026096115 -0.0069577903 0.055904355
0.08733839 -0.6557107 -0.7254667 -0.63256246 -0.09821117 -0.018306263 -0.12104851 0.2918365
00000000: 43eb 923c c5cf e43d 0e03 b2bd 94b4 d5bd
00000010: 0ab5 fdbd 6246 09be 1678 a2be f7f1 8fbe
00000020: 5242 81be 0e88 ec3c 10a9 5dbd c011 febc
00000030: eb8a 8bbb 465b 323e c706 0bbe 6d68 943b
00000040: e98e 813e f6e2 babd 82be 16bd d9e6 353e
00000050: 2487 f1bc 055a 053e 5a69 04bd 8c2e c63d
00000060: 80dc bd3c 8387 053d a5b4 95bd c567 cc3d
00000070: 8ea9 ef3d 77bf 4e3e a434 34bd 9d53 15bd
00000080: eb52 843a 9fa3 94bb e585 183d c21e 0d3c
00000090: 5604 b23c d625 fd3d dd87 6f3e a8ca b13d
000000a0: 095c 383d 7af8 a73d 4ba6 523b a06c b73d
000000b0: de06 60bd 8047 233e e224 e53d 7a82 603e
000000c0: ab93 a33c 0fb3 6bbd fd79 2d3d 907b a83d
000000d0: c338 7f3d 9028 dcbd f318 443e ad1b a03d
000000e0: 16a8 8f3d 7d0b 70bc 8b60 1d3d 7dde 09be
000000f0: 1d86 da3e 383b 983e 07d3 e13e 7e76 dcbd
00000100: be2f 1bbe a24f 14bf 68ff 34be 3a97 e83e
00000110: c071 a5be 9c21 c6bd 0224 babd 2512 93bd
00000120: 33d7 2dbe 9b1c 57be 489d a4be f936 e7be
00000130: 20fc bdbe b403 05bf 6dd9 b63d 4605 933e
00000140: 542f 74be a56c 623d ad54 703e 5875 ab3d
00000150: 429d 503e 1fce 133e 5c28 853d f66a 1abe
00000160: 2eff 49be 4b43 b33d daa4 883c ffa8 ba3e
00000170: 5f34 c3bd 8bec b4bd d03d ddbd 65bc 1abe
00000180: db9b 47bd 334f e43b a3c0 63bd dbd2 c03c
00000190: dd85 f43c 343d 96bc 74ea c53e c9ab f93e
000001a0: 6cda 163f f952 143e 1c34 f2bc 4f0f 923e
000001b0: 74a5 c53e 7f47 a23c ca55 2d3e 548c 7abb
000001c0: 38c0 4abd 5b1a 9c3d aca0 53bd 9b72 6b3d
000001d0: da3c 0a3d a0a1 003e 8594 db3d 050c 653e
000001e0: 03bc c8bd 37e2 d1bd e841 593d 6c93 333c
000001f0: 5075 adbd 4467 5ebd e6bb 0dbe 1349 b3bd
00000200: 8cd0 9cbd a0e4 8abd b84d c7bc 71d9 8cbd
00000210: c61e fabd 3c42 96be 2430 77bd 17eb e8bd
00000220: 3633 6abe f893 21be c987 07be 0135 00bd
00000230: 4ec0 cabd 8b1b 38be 54aa c0bd edde d0bd
00000240: a601 e9bd 051d 21be 687a 58be d925 92bb
00000250: 4f30 f53c 423e 233d 493e 173d 74b8 d23d
00000260: 5153 253e b5b6 a6bc 3d1b 633d ff21 a2bc
00000270: 109a 9bbd bcfb 1f3d 1421 81bd a6e8 383d
00000280: 95c8 d93d a0f7 ca3c 4a76 62bd 9c58 f13c
00000290: 1780 153e 65b2 043d 0d6d a73d 6891 0e3c
000002a0: cc10 84bd c463 67bb 37e5 6b3d 04c5 573e
000002b0: 34a3 f13d fa40 a23f 58d2 bd3d cf9d 4e3e
000002c0: b1e6 083d 951b d1bd dc2d 54bd df08 0f3d
000002d0: 2ba7 59bd 147f d23d 5d20 c73b 8f9b 04be
000002e0: c5e4 8fbd 0f94 6bbd 4cb0 f63c a175 4a3e
000002f0: 7ac5 103e b4a0 3e3d db12 973d 97cf de3d
00000300: 1248 9dbd 1509 a4bd 365f e33c 82e2 c43d
00000310: dc91 c1bc afbe 3dbd 6130 943e 4cf3 953e
00000320: 7fd9 eb3e f1f9 123e aa05 bfbc 9552 24be
00000330: 3e93 5bbc 5b69 5fbd b7cd f7bc f07d 87bd
00000340: 384c c5bd a903 07be 88cc 0ebf fe2b 0fbf
00000350: 2b33 febe 1892 f13d 37cf 8fbd c09c 46bd
00000360: eb69 54bd 9e97 d3bd 3141 10bd c8e4 493d
00000370: fddd e0bd 563b ae3d f628 8fbe 08c5 6dbe
00000380: a5a2 8bbe 9290 0c3d 9b08 0ebe 7f68 873d
00000390: 3335 1dbe 77d1 34be e526 75be 4842 acbc
000003a0: 5772 5dbe 0768 58be b0f3 e9bb 23f4 edbd
000003b0: 7d45 26be 1662 debd 3781 18be d667 12bd
000003c0: a357 71bd 915e a6bd 9802 5bbd f93b 88bd
000003d0: 3854 3b3c 85c7 d5bc 2dfe e3bb f7fb 643d
000003e0: 78de b23d a8dc 27bf 30b8 39bf 9def 21bf
000003f0: f022 c9bd 04f7 95bc 48e8 f7bd 986b 953e

conv.5.bias f4 [64]
-0.013604525 0.14213017 -0.036796704 0.08610174 -0.15607859 0.0920509 0.02944608 -0.030110534
0.046837892 -0.049447797 -0.050891545 -0.031791687 -0.025699798 -0.0493792 -0.021432474 0.1040773
0.14109255 0.03216615 0.02671368 0.01581858 0.0032989124 0.014046998 0.04647872 -0.07320335
0.06637256 -0.04882657 -0.074165344 0.08280945 -0.06234406 0.0016948668 0.06585128 0.08869035
0.14444852 0.051941156 -0.012561482 0.0069237435 -0.014526974 -0.04230192 0.05617644 0.07510757
-0.04484435 -0.04430758 0.028774776 -0.04726615 -0.07930747 0.103536665 -0.054860793 -0.0020234352
-0.023772959 0.028021827 -0.023800198 0.07709595 -0.08452509 -0.008190983 0.09444371 0.032625522
-0.011203472 -0.015968587 0.07839942 0.0754924 -0.054186482 0.028241275 -0.0016523 0.03103255
00000000: 83e5 5ebc 928a 113e 24b8 16bd 1c56 b03d
00000010: 11d3 1fbe 2f85 bc3d e838 f13c 5eaa f6bc
00000020: 17d9 3f3d c689 4abd a773 50bd 0038 02bd
00000030: 6288 d2bc d841 4abd 2893 afbc 7b26 d53d
00000040: 917a 103e a7c0 033d a6d6 da3c f795 813c
00000050: 9132 583b 6125 663c 7860 3e3d a3eb 95bd
00000060: 56ee 873d 5ffe 47bd 00e4 97bd 0098 a93d
00000070: 7c5c 7fbd 4b26 de3a 09dd 863d 49a3 b53d
00000080: 50ea 133e 40c0 543d adce 4dbc 92e0 e23b
00000090: 8c02 6ebc c744 2dbd 4419 663d ffd1 993d
000000a0: b6ae 37bd dd7b 35bd 14b9 eb3c 279a 41bd
000000b0: f46b a2bd 080b d43d b6b5 60bd 9c9b 04bb
000000c0: 82bf c2bc 088e e53c a2f8 c2bc 7be4 9d3d
000000d0: 7e1b adbd 7933 06bc b46b c13d 57a2 053d
000000e0: c48e 37bc 8ed0 82bc e08f a03d c29b 9a3d
000000f0: a5f2 5dbd 3f5a e73c fd91 d8ba f937 fe3c

conv.6.weight f4 [64]
0.96377885 0.98989284 1.0512712 0.8348245 0.95708495 0.8125229 0.88420033 0.93363434
1.005229 0.93792754 0.93918985 0.84624034 0.7823186 0.70380557 0.9140942 0.85463095
1.0989991 0.9368283 0.99762017 0.84370035 0.945919 0.90508986 0.9651412 1.0250186
0.93095946 0.8989297 1.0334544 1.0793095 0.8049408 0.8691243 1.0402956 1.0529474
1.0136784 0.9016615 0.7804277 0.9595519 0.86480325 0.659272 1.0030448 0.914285
0.8932788 0.86449397 0.88284945 0.78376687 0.94499665 0.75835055 0.7951446 1.1803553
0.93401825 0.95805496 0.88485867 0.922514 0.9026668 0.9471241 0.95120496 0.8209253
0.88521713 0.740507 1.0077713 0.9070779 0.8420253 0.9546741 0.8956219 0.92491776
00000000: 36ba 763f 9e69 7d3f 0e90 863f 0fb7 553f
00000010: 8503 753f 8001 503f f45a 623f a902 6f3f
00000020: 58ab 803f 051c 703f bf6e 703f 35a3 583f
00000030: 0846 483f 9a2c 343f 1402 6a3f 18c9 5a3f
00000040: 01ac 8c3f fbd3 6f3f 0964 7f3f bffc 573f
00000050: bf27 723f f8b3 673f 7e13 773f cf33 833f
00000060: 5c53 6e3f 4220 663f 3c48 843f d026 8a3f
00000070: 9a10 4e3f ee7e 5e3f 6828 853f fbc6 863f
00000080: 37c0 813f 4ad3 663f 1cca 473f 31a5 753f
00000090: bf63 5d3f 0dc6 283f c663 803f 950e 6a3f
000000a0: ebad 643f 7a4f 5d3f 6c02 623f f2a4 483f
000000b0: 4deb 713f 4323 423f 998e 4b3f e215 973f
000000c0: d21b 6f3f 1743 753f 1986 623f e129 6c3f
000000d0: 2c15 673f ba76 723f 2b82 733f 2928 523f
000000e0: 979d 623f de91 3d3f a6fe 803f 4236 683f
000000f0: f88e 573f 8665 743f 7a47 653f 69c7 6c3f

conv.6.bias f4 [64]
-0.35763413 -0.1673709 -0.4917941 -0.49077958 -0.32945034 -0.36218017 -0.4014629 -0.25913772
-0.37646717 -0.365434 -0.5158535 -0.2794239 -0.73783845 -0.10007034 -0.35156915 -0.37116414
-0.28904977 -0.33019164 -0.45223334 -0.10786622 -0.3517299 -0.49903822 -0.14393182 -0.43332848
-0.1344933 -0.3804526 -0.41366643 -0.34560153 -0.5411696 -0.24822697 -0.12939785 -0.2502173
-0.61738414 -0.46743304 -0.14263752 -0.3031461 -0.27025938 -0.3917898 -0.4530967 -0.50450295
-0.3051338 -0.24091898 -0.3300863 -0.9043456 -0.25651482 -0.34948018 -0.507363 -0.27204153
-0.36549652 -0.5980334 -0.28816754 -0.3341712 -0.2608615 -0.34689367 -0.5454594 -0.38151512
-0.37298363 -0.51246953 -0.2869574 -0.72870004 -0.26232544 -0.6186334 -0.4849958 -0.39823195
00000000: d21b b7be 4763 2bbe 70cc fbbe 7647 fbbe
00000010: b7ad a8be ae6f b9be 8c8c cdbe b3ad 84be
00000020: 4ec0 c0be 2a1a bbbe fa0e 04bf a610 8fbe
00000030: fbe2 3cbf aef1 ccbd df00 b4be 3a09 bebe
00000040: 55fe 93be e10e a9be 218b e7be f7e8 dcbd
00000050: f115 b4be f081 ffbe dd62 13be 3bdd ddbe
00000060: 9db8 09be afca c2be 16cc d3be aff2 b0be
00000070: 178a 0abf 362f 7ebe df80 04be 7b1c 80be
00000080: e30c 1ebf 6253 efbe 920f 12be f735 9bbe
00000090: 705f 8abe ac98 c8be 4afc e7be 1b27 01bf
000000a0: 7f3a 9cbe 77b3 76be 1201 a9be 3183 67bf
000000b0: e955 83be 11ef b2be 8be2 01bf 0749 8bbe
000000c0: 5c22 bbbe b818 19bf b28a 93be 7d18 abbe
000000d0: a38f 85be 0c9c b1be 3aa3 0bbf f355 c3be
000000e0: b6f7 bebe 3431 03bf 15ec 92be 168c 3abf
000000f0: 854f 86be c25e 1ebf 5f51 f8be 0fe5 cbbe

conv.6.running_mean f4 [64]
-0.42057168 0.78502965 -0.8532823 1.006797 -1.1354566 -0.58978397 -1.1198463 -0.45354867
-0.6929401 -0.7939629 -0.9117259 -1.6001881 0.8397564 0.13580436 -0.49606466 -0.64909345
-0.29072857 -0.16211975 -1.0284679 0.114053994 -0.6590793 -0.9361091 -1.3635135 -0.6310432
-0.30775675 -0.6144224 -1.3994205 -0.13450953 -0.8346395 -1.1137494 -0.35096878 -0.05962748
-1.7797916 -0.4219859 -0.48428947 -1.0084542 -1.284137 0.112859845 -1.6272122 -0.9403186
0.019826885 0.64721006 -0.8300272 -0.067435205 -1.5821562 -0.9843051 -1.0371503 -0.79156905
-1.0937432 -1.9368228 -0.81357604 -0.7621526 -0.77185243 -0.7981729 -0.68815005 -0.3272506
-0.31874236 -0.5668092 -0.19190876 0.64350444 -0.86982304 0.5969227 0.23910885 0.86588037
00000000: 2c55 d7be b4f7 483f b570 5abf b9de 803f
00000010: a456 91bf 15fc 16bf 2057 8fbf 8837 e8be
00000020: 8664 31bf 2741 4bbf de66 69bf f7d2 ccbf
00000030: 47fa 563f 4c10 0b3e 30fc fdbe fd2a 26bf
00000040: 60da 94be b802 26be d6a4 83bf 2495 e93d
00000050: 6cb9 28bf d9a4 6fbf 9c87 aebf 0c8c 21bf
00000060: 4b92 9dbe c94a 1dbf 3620 b3bf debc 09be
00000070: efaa 55bf 578f 8ebf 2eb2 b3be f23b 74bd
00000080: 36d0 e3bf 890e d8be caf4 f7be 0715 81bf
00000090: 9a5e a4bf 1023 e73d 7d48 d0bf b8b8 70bf
000000a0: fe6b a23c 8faf 253f aa7c 54bf 781b 8abd
000000b0: 1884 cabf 6bfb 7bbf 57c1 84bf 45a4 4abf
000000c0: c7ff 8bbf cfe9 f7bf 8546 50bf 6f1c 43bf
000000d0: 1f98 45bf 0f55 4cbf 9a2a 30bf 648d a7be
000000e0: 3332 a3be 681a 11bf bb83 44be b5bc 243f
000000f0: b9ac 5ebf edcf 183f f3d8 743e 56aa 5d3f

conv.6.running_var f4 [64]
0.8893771 1.2574127 1.0755533 0.7479507 1.172465 0.96117914 1.8310266 1.3390212
0.71904826 0.5428802 2.1086054 2.415703 0.79642445 1.6290085 0.51140046 1.5556036
1.3224175 1.2310065 1.7562917 1.7106134 1.0264969 1.1412363 5.7797866 1.4649657
0.38810015 0.7317136 2.3916445 0.46124977 0.5025744 3.5841155 3.0917573 1.391282
3.030301 0.6335299 2.4713314 3.438993 1.4817146 0.72829205 2.4691463 2.2932734
0.5496371 0.68651 2.5298579 0.29578963 4.202036 1.0777323 1.1938727 2.9755478
2.4943762 2.9414363 2.6667738 1.3047613 1.6200572 1.4715229 1.8598974 0.8673526
1.0667344 0.5002436 1.9013648 0.89657617 0.9891344 0.28206024 1.0060633 1.57039
00000000: 38ae 633f e6f2 a03f bbab 893f b279 3f3f
00000010: 5513 963f d60f 763f 145f ea3f 0c65 ab3f
00000020: 8c13 383f 32fa 0a3f 64f3 0640 e19a 1a40
00000030: 79e2 4b3f 5a83 d03f 24eb 023f 051e c73f
00000040: fa44 a93f 9f91 9d3f 2bce e03f 61f5 da3f
00000050: 4064 833f 0814 923f 03f4 b840 ff83 bb3f
00000060: 10b5 c63e 9551 3b3f b410 1940 ee28 ec3e
00000070: b7a8 003f 2662 6540 5adf 4540 8715 b23f
00000080: 74f0 4140 042f 223f 4b2a 1e40 7618 5c40
00000090: d3a8 bd3f 5971 3a3f 7e06 1e40 fec4 1240
000000a0: 04b5 0c3f 1fbf 2f3f 31e9 2140 bd71 973e
000000b0: 1477 8640 22f3 893f d2d0 983f 606f 3e40
000000c0: dca3 1f40 7e40 3c40 6cac 2a40 6b02 a73f
000000d0: 095e cf3f dd5a bc3f 1e11 ee3f d20a 5e3f
000000e0: c18a 883f f70f 003f ec5f f33f 0486 653f
000000f0: e937 7d3f 336a 903e afc6 803f 8a02 c93f

conv.10.weight f4 [128, 64, 3]
0.029262682 0.031257316 0.11787166 0.0839689 0.06673848 0.21953751 0.13049607 0.33376867
0.10950512 0.2527094 0.08421845 0.0822102 -0.20372519 -0.023009617 -0.080454916 0.019543923
0.07292707 0.19543073 -0.08134083 0.04693384 0.06730085 0.078015625 0.10907829 0.026730552
-0.11789123 -0.18177943 0.069005616 -0.30099726 0.09146958 -0.24146979 0.07007193 0.12553912
0.10779353 -0.01646068 0.20877159 0.0058858716 0.38859242 0.16908014 0.015675668 -0.016960148
0.041100297 0.021337679 0.09509507 -0.0014039178 -0.002595248 -0.0088052135 -0.030439379 0.037092596
0.12297687 0.27188 0.055331368 0.08816828 0.02030827 0.11140547 0.041613292 0.07405595
0.047819965 0.07928303 0.030823123 0.11432924 0.1442356 0.16506526 0.1744855 0.11426345
0.25384206 -0.08036966 -0.075741455 -0.08952956 -0.06339047 0.024583524 0.15636067 0.07982723
-0.3259208 -0.27371767 -0.15869807 0.085256495 -0.025349336 -0.20960195 -0.4624194 -0.3889269
-0.33973467 0.17458029 0.09715404 0.17666225 -0.02769068 -0.010000209 -0.1052434 -0.07351824
-0.08585368 -0.42613223 0.08628706 0.1275297 0.15093668 -0.032366898 -0.052631762 0.07694646
0.20557445 0.24471165 0.1986701 0.20366824 0.16285607 -0.03829053 0.043629378 -0.03910795
-0.16012394 0.0054683923 -0.036819242 -0.33038244 0.060696952 0.27660114 0.17228414 0.28151554
0.22507718 0.18775609 0.1480338 -0.04989907 0.05325713 0.04441581 0.10393327 0.15668246
-0.0124960905 -0.025317278 0.04422336 0.062427655 0.085486345 0.116714045 -0.14368792 -0.0093071265
-0.16308455 0.09434504 0.14128934 0.13937445 0.03372449 0.08357517 -0.38044125 0.06010696
0.32173774 0.47403774 -0.2695446 -0.19027144 -0.25829482 -0.028750837 -0.0058803465 0.080847144
-0.3786129 -0.096063234 -0.44848114 0.1672051 0.17433916 0.17032112 -0.1122238 -0.13438475
-0.026905788 -0.08676983 -0.091482304 -0.21048741 0.07952878 0.14840952 0.17367221 -0.26466405
-0.17650078 -0.33460045 -0.09364023 0.034741014 -0.08399235 -0.082482144 0.08587555 0.19160686
-0.07788647 0.1994143 0.1111156 -0.060065564 0.0277581 0.09667106 0.035610892 0.21177194
0.1421476 0.31097123 0.42659646 0.6609242 -0.23538429 -0.20742457 -0.33108205 0.3885215
0.27094248 0.43361947 0.25815964 0.14413889 0.075281285 0.18610956 0.16015561 0.28646204
-0.05489489 -0.4232245 -0.40492386 -0.19899806 -0.27887222 -0.28951597 -0.20393263 -0.032913018
-0.13667677 -0.022545246 -0.13450676 -0.07468999 0.07745352 0.012090081 0.0938472 -0.25027475
-0.1107996 0.078843825 0.034702606 0.045160476 0.10159307 -0.1358557 -0.036588978 0.015713518
-0.007624453 0.21925853 0.2580341 0.052752487 0.12797886 -0.10269034 0.0130428 -0.16642131
-0.062013518 -0.16527861 -0.008451457 -0.18448749 -0.024287732 -0.18749198 -0.15072975 0.040477924
-0.04454653 0.031705238 0.17117567 -0.10808343 -0.17382187 -0.0030184663 -0.030834291 0.01295169
-0.17776194 -0.033858914 0.04749144 0.077230036 -0.020578647 0.06200794 -0.035970457 -0.24069677
0.12875107 -0.083402015 -0.15561424 0.012223253 0.15863143 -0.033016827 -0.0031376544 -0.53413993
00000000: 4bb8 ef3c ac07 003d b266 f13d e3f7 ab3d
00000010: 2fae 883d 71ce 603e c3a0 053e bae3 aa3e
00000020: 3844 e03d 2063 813e b97a ac3d d25d a83d
00000030: 569d 50be aa7e bcbc 8cc5 a4bd 941a a03c
00000040: ca5a 953d fe1e 483e 0596 a6bd b33d 403d
00000050: 07d5 893d a8c6 9f3d 7064 df3d 08fa da3c
00000060: f570 f1bd 6324 3abe d152 8d3d 501c 9abe
00000070: 6754 bb3d db43 77be df81 8f3d 548d 003e
00000080: dbc2 dc3d 8cd8 86bc 38c8 553e 45de c03b
00000090: 96f5 c63e 5823 2d3e 426a 803c 02f0 8abc
000000a0: c958 283d 5bcc ae3c 34c1 c23d aa03 b8ba
000000b0: 0915 2abb be43 10bc 015c f9bc 68ee 173d
000000c0: 4cdb fb3d db33 8b3e 25a3 623d 9291 b43d
000000d0: 875d a63c 8d28 e43d b372 2a3d a5aa 973d
000000e0: dede 433d 245f a23d c680 fc3c 7325 ea3d
000000f0: 7fb2 133e de06 293e 54ac 323e f502 ea3d
00000100: 96f7 813e d998 a4bd 561e 9bbd 465b b7bd
00000110: ddd2 81bd 6363 c93c 031d 203e 757c a33d
00000120: 17df a6be b924 8cbe bf81 22be f59a ae3d
00000130: 69a9 cfbc e5a1 56be 3cc2 ecbe 6d21 c7be
00000140: b4f1 adbe 2dc5 323e b3f8 c63d f3e6 343e
00000150: 91d7 e2bc ebd7 23bc da89 d7bd bb90 96bd
00000160: 0ed4 afbd 012e dabe 45b7 b03d 2597 023e
00000170: 258f 1a3e 2793 04bd 6794 57bd 1b96 9d3d
00000180: 1c82 523e b195 7a3e 2d70 4b3e 688e 503e
00000190: bec3 263e 88d6 1cbd b8b4 323d a82f 20bd
000001a0: 88f7 23be 3330 b33b c6cf 16bd e327 a9be
000001b0: 5e9d 783d aa9e 8d3e 416b 303e ce22 903e
000001c0: a27a 663e 2243 403e 2c96 173e f862 4cbd
000001d0: 2624 5a3d 5aed 353d f7da d43d 5e71 203e
000001e0: 67bc 4cbc 2e66 cfbc 8e23 353d 24b4 7f3d
000001f0: 7713 af3d c607 ef3d ed22 13be eb7c 18bc
00000200: a3ff 26be f937 c13d 27ae 103e 2db8 0e3e
00000210: b122 0a3d 7529 ab3d 32c9 c2be b732 763d
00000220: cfba a43e 13b5 f23e c001 8abe 84d6 42be
00000230: 383f 84be e086 ebbc ecaf c0bb 3093 a53d
00000240: 8dd9 c1be cdbc c4bd 529f e5be d037 2b3e
00000250: f785 323e a968 2e3e 97d5 e5bd 289c 09be
00000260: 8769 dcbc 61b4 b1bd 135b bbbd 038a 57be
00000270: fcdf a23d aaf8 173e 21d7 313e 0c82 87be
00000280: 9fbc 34be c050 abbe 73c6 bfbd 984c 0e3d
00000290: 2e04 acbd 66ec a8bd 85df af3d 9734 443e
000002a0: f182 9fbd 4333 4c3e 9390 e33d 4f07 76bd
000002b0: f464 e33c 7afb c53d badc 113d beda 583e
000002c0: 248f 113e 9f37 9f3e da6a da3e 5432 293f
000002d0: 9408 71be 1b67 54be 9683 a9be 4aec c63e
000002e0: f9b8 8a3e 5f03 de3e 802d 843e 2599 133e
000002f0: 132d 9a3d 8193 3e3e d5ff 233e 27ab 923e
00000300: 77d9 60bd e2b0 d8be 2e52 cfbe 26c6 4bbe
00000310: 57c8 8ebe 703b 94be b7d3 50be cdcf 06bd
00000320: fff4 0bbe cfb0 b8bc 24bc 09be 11f7 98bd
00000330: f39f 9e3d 7a15 463c f632 c03d 0324 80be
00000340: e7ea e2bd df78 a13d 5224 0e3d 31fa 383d
00000350: 0710 d03d c21d 0bbe 53de 15bd a3b9 803c
00000360: 8cd6 f9bb 4f85 603e 0c1d 843e fe12 583d
00000370: e40c 033e 504f d2bd 78b1 553c 596a 2abe
00000380: e301 7ebd cc3e 29be fb77 0abc 4aea 3cbe
00000390: 11f7 c6bc e6fd 3fbe e658 1abe 2ecc 253d
000003a0: 6c76 36bd 5add 013d ad48 2f3e d85a ddbd
000003b0: 5cfe 31be 76d1 45bb 3298 fcbc 5333 543c
000003c0: 3a07 36be a5af 0abd 6286 423d c82a 9e3d
000003d0: 8d94 a8bc 0afc 7d3d c255 13bd 3779 76be
000003e0: 52d7 033e adce aabd 5759 1fbe 0a44 483c
000003f0: 4770 223e a73c 07bd 1ba1 4dbb 65bd 08bf

conv.10.bias f4 [128]
0.075213164 0.028964845 0.0036447633 0.023440387 0.035967484 0.042194158 -0.061662767 0.025549255
0.014335825 -0.044017863 -0.043067466 0.02220212 0.058300637 -0.06734377 -0.021889552 0.019766284
0.012123267 -0.03417737 -0.023548609 -0.03730113 0.031192202 -0.02384769 0.051017474 0.06497758
0.047316413 0.04229954 -0.024546733 0.043935463 0.06751595 -0.040155284 -0.061348222 -0.019590734
-0.013932661 -0.040151637 -0.056130633 -0.037935473 -0.069336854 0.048734885 7.459781e-07 0.0439141
-0.03055827 0.06596443 0.003961402 0.017734684 -0.03069219 0.063632526 -0.06847999 -0.043495607
0.06396307 0.07070118 -0.011722232 -0.038385212 -0.04998521 0.024762144 -0.035905857 0.02272205
0.0064919046 0.0065981387 0.03141395 -0.004091063 -0.040850367 -0.031993728 -0.086601734 -0.041293647
-0.0515432 -0.022381747 0.038315613 0.07783809 -0.036751635 0.04452646 -0.042898044 -0.015081036
0.06026798 0.006641182 -0.028578233 0.07239953 0.07148052 0.0026155002 0.0781665 0.052450337
-0.034756437 0.040512513 -0.044890296 -0.047627002 0.07795507 -0.0265818 -0.0014232632 -0.05529053
0.017387211 0.021210412 -0.04530299 0.016380623 0.062631644 0.046822045 -0.009605637 0.061939094
0.032820266 0.008152433 0.029642927 0.08535686 -0.010477321 0.008916541 0.00801175 0.008649571
0.039083198 0.055725906 -0.04484572 -0.023634132 -0.02274053 -0.0628232 -0.00066659617 0.025222
0.032789044 -0.022341443 0.009570447 0.06795386 -0.039347634 -0.03280311 -0.015751738 0.030688817
0.05910995 -0.03156569 0.025490396 -0.0031356725 -0.022064777 -0.042476915 -0.03617324 0.0068079014
00000000: 5c09 9a3d af47 ed3c fbdc 6e3b 0e06 c03c
00000010: a452 133d c8d3 2c3d 1992 7cbd ac4c d13c
00000020: cfe0 6a3c 134c 34bd 8367 30bd 38e1 b53c
00000030: a6cc 6e3d 88eb 89bd b851 b3bc e7ec a13c
00000040: aba0 463c 92fd 0bbd 03e9 c0bc 12c9 18bd
00000050: ca86 ff3c 3b5c c3bc b3f7 503d f712 853d
00000060: dbce 413d 4842 2d3d 3b16 c9bc acf5 333d
00000070: cd45 8a3d de79 24bd 4648 7bbd bf7c a0bc
00000080: d145 64bc 0b76 24bd 3ce9 65bd 3a62 1bbd
00000090: 7b00 8ebd 3b9e 473d 3a3f 4835 45df 333d
000000a0: 5655 fabc 5c18 873d a6ce 813b 5448 913c
000000b0: 306e fbbc c551 823d 3d3f 8cbd 7328 32bd
000000c0: 12ff 823d c8cb 903d 9b0e 40bc d039 1dbd
000000d0: 4bbd 4cbd fbd9 ca3c 0512 13bd 9823 ba3c
000000e0: 0bba d43b 3335 d83b eaab 003d 530e 86bb
000000f0: b752 27bd db0b 03bd 405c b1bd 8723 29bd
00000100: f61e 53bd ed59 b7bc d5f0 1c3d 9469 9f3d
00000110: e288 16bd 6161 363d dcb5 2fbd 7316 77bc
00000120: 8fdb 763d 469e d93b e61c eabc 3446 943d
00000130: 6164 923d d068 2b3b c215 a03d 2ad6 563d
00000140: c45c 0ebd 73f0 253d e3de 37bd 8814 43bd
00000150: e8a6 9f3d 13c2 d9bc ca8c baba 5378 62bd
00000160: a06f 8e3c 75c1 ad3c a18f 39bd a830 863c
00000170: 0545 803d 79c8 3f3d f660 1dbc d9b3 7d3d
00000180: 8b6e 063d c891 053c b9d5 f23c 94cf ae3d
00000190: 12a9 2bbc af16 123c b743 033c eeb6 0d3c
000001a0: b415 203d d940 643d 25b0 37bd 5e9c c1bc
000001b0: 594a babc 73a9 80bd 83be 2eba 5e9e ce3c
000001c0: ce4d 063d 6705 b7bc 5dcd 1c3c 652b 8b3d
000001d0: fc2a 21bd 8e5c 06bd ca09 81bc 1d67 fb3c
000001e0: 461d 723d 064b 01bd 3cd1 d03c db7f 4dbb
000001f0: 31c1 b4bc 46fc 2dbd 642a 14bd d114 df3b

conv.11.weight f4 [128]
1.2250376 1.0857062 0.88463587 1.275506 1.1169341 1.4054052 0.9288471 0.91911674
1.4239473 1.0965074 1.1025859 1.3749485 1.004773 0.9939943 1.3599153 1.0647638
1.4928926 1.4900516 1.1304861 0.9286451 0.9435017 1.0518283 1.1355278 0.92851603
1.3746846 1.0162599 1.21991 1.7083023 1.1585566 0.9148678 1.1425409 1.1388546
1.8582666 1.4529834 0.8721734 1.3762162 1.1995437 1.5438873 0.9394353 1.872218
1.9516692 1.3152632 1.0582622 1.8715148 0.8937534 0.90987283 1.3638933 1.1938525
1.2701211 0.97581744 1.9357486 1.3579692 1.4798504 1.3371943 1.0533205 1.3706366
2.0643036 0.92475146 0.98574805 0.9243963 1.5543034 1.2950468 1.3234525 1.9213089
1.0839355 0.8713058 0.9915549 1.2063487 0.96279734 0.98746675 2.006452 1.1402247
1.1587675 1.4306244 1.5536761 1.9511627 1.2813288 1.231012 1.076676 1.0841609
1.101091 0.9100799 1.63834 2.1182833 1.4581101 1.2748421 1.187991 1.2642404
1.1802307 0.9093449 0.9901259 1.049472 1.090994 0.9667629 1.0005251 0.98196346
1.3548567 0.85088503 2.2807076 1.0665902 1.0790664 1.0738101 1.0153234 1.3620152
1.3596466 1.4175935 1.4961338 1.3996304 1.3163248 1.3207864 1.1838773 1.235763
0.98502606 1.9717232 0.906968 0.9354299 1.1155452 0.91852134 1.2881007 0.8666874
0.88340425 1.4863583 1.1597799 1.0767268 1.3309078 0.9921888 1.2154622 0.92436486
00000000: 08ce 9c3f 6cf8 8a3f 7f77 623f c843 a33f
00000010: b2f7 8e3f 51e4 b33f ecc8 6d3f 3c4b 6b3f
00000020: e843 b63f 5b5a 8c3f 8921 8d3f 50fe af3f
00000030: 679c 803f 6976 7e3f b411 ae3f 2e4a 883f
00000040: 1b17 bf3f 03ba be3f c5b3 903f afbb 6d3f
00000050: 5489 713f 4fa2 863f fa58 913f 3ab3 6d3f
00000060: aaf5 af3f ce14 823f 0326 9c3f a6a9 da3f
00000070: 954b 943f c734 6a3f c83e 923f fdc5 913f
00000080: aedb ed3f 5cfb b93f c246 5f3f da27 b03f
00000090: a68a 993f 199e c53f d57e 703f d7a4 ef3f
000000a0: 4cd0 f93f 8b5a a83f 2375 873f cc8d ef3f
000000b0: 06cd 643f 6ded 683f 0e94 ae3f 29d0 983f
000000c0: 5493 a23f 2ccf 793f 9cc6 f73f efd1 ad3f
000000d0: bd6b bd3f 2f29 ab3f 35d3 863f 0571 af3f
000000e0: 8d1d 0440 83bc 6c3f fc59 7c3f 3ca5 6c3f
000000f0: 6af3 c63f 18c4 a53f e466 a93f 73ed f53f
00000100: 66be 8a3f e60d 5f3f 8bd6 7d3f a269 9a3f
00000110: e379 763f 9fca 7c3f b669 0040 e2f2 913f
00000120: 7e52 943f b31e b73f dcde c63f b3bf f93f
00000130: 9502 a43f cd91 9d3f 85d0 893f c9c5 8a3f
00000140: 8df0 8c3f fffa 683f 20b5 d13f f491 0740
00000150: 5aa3 ba3f 072e a33f 1710 983f a1d2 a13f
00000160: cd11 973f d4ca 683f e478 7d3f 1955 863f
00000170: b1a5 8b3f c67d 773f 3511 803f f561 7b3f
00000180: f26b ad3f 9ad3 593f 1df7 1140 0786 883f
00000190: d91e 8a3f 9c72 893f 1ef6 813f 8456 ae3f
000001a0: e608 ae3f b473 b53f 5081 bf3f 1727 b33f
000001b0: 557d a83f 870f a93f 4b89 973f 7b2d 9e3f
000001c0: ab2a 7c3f 6d61 fc3f 0e2f 683f 5578 6f3f
000001d0: 2fca 8e3f 3724 6b3f 7ce0 a43f 3adf 5d3f
000001e0: c826 623f fd40 be3f ab73 943f 2fd2 893f
000001f0: 305b aa3f 1600 7e3f 4494 9b3f 2da3 6c3f

conv.11.bias f4 [128]
-0.37472165 -0.049828973 -0.31077543 -0.12635553 0.05075076 -0.019774895 -0.11647607 -0.13026118
-0.06576489 -0.10291119 -0.009983875 -0.034395546 -0.14762165 -0.106444515 -0.9482334 0.076329336
-0.09818203 0.06937162 -0.008318399 -0.32171327 -0.53717864 -0.047340184 -0.63417137 -0.42196494
0.2334851 -0.24547504 -0.63305765 0.0043181633 -0.14466469 -0.19691727 -0.0007730654 -0.113847055
0.00020808169 -0.023668474 -0.2308468 -0.2590107 -0.19610792 0.024441948 -0.25773838 0.23851712
0.069629505 0.061100185 -0.9024648 -0.024896022 -0.31717435 -0.43657815 0.036478307 -0.02845905
0.053774115 -0.6780234 -0.060583737 -0.41603908 -0.07238434 -0.07448878 -0.12258091 0.023631588
0.040231183 -0.19319193 -0.1836803 -0.21008478 0.15874375 -0.13643998 -0.17681867 -0.5830355
-0.4079563 -0.626185 -0.26918146 -0.47700426 -0.3848927 -0.14248574 0.024244295 -0.0648735
-0.24913093 -0.04928832 -0.16994555 -0.315602 -0.000828752 -0.42159066 -0.41778564 -0.073830076
0.09381687 -0.22285025 0.013172031 -0.16865195 -0.13887623 0.1766332 -0.14583382 -0.41698068
-0.00071613945 -0.3747777 -0.079435326 0.008470036 -0.10138812 -0.27179825 -0.24782772 -0.20077007
-0.027463382 -0.31848046 0.06185389 -0.27769014 -0.00063837325 -0.50803554 -0.42402276 0.07082695
-0.18460536 0.06987683 -0.06997794 -0.093218364 -0.014730669 -0.031256244 0.04223693 -0.15234943
-0.26524255 -0.05541985 -0.3626184 -0.2987528 -0.09813304 -0.45480302 -0.48684114 -0.38685226
-0.39566067 -0.35305032 -0.011070561 -0.00039303914 -0.25412259 -0.08652769 -0.13963887 -0.52350545
00000000: 84db bfbe 7719 4cbd f51d 9fbe 5863 01be
00000010: 07e0 4f3d f6fe a1bc 018b eebd 3063 05be
00000020: beaf 86bd 1ac3 d2bd 6893 23bc 58e2 0cbd
00000030: 212a 17be 95ff d9bd 6dbf 72bf 8e52 9c3d
00000040: a913 c9bd b512 8e3d e549 08bc 9ab7 a4be
00000050: 8a84 09bf c8e7 41bd 0e59 22bf ca0b d8be
00000060: b816 6f3e cf5d 7bbe 1110 22bf 617f 8d3b
00000070: fb22 14be aea4 49be 8aa7 4aba a528 e9bd
00000080: 8130 5a39 63e4 c1bc 1b63 6cbe 0d9d 84be
00000090: 84d0 48be 7b3a c83c 49f6 83be d53d 743e
000000a0: ea99 8e3d 3044 7a3d ef07 67bf bef2 cbbc
000000b0: ad64 a2be 2c87 dfbe 476a 153d f422 e9bc
000000c0: 3f42 5c3d f192 2dbf a726 78bd 1303 d5be
000000d0: 3e3e 94bd 938d 98bd b30b fbbd 0897 c13c
000000e0: 74c9 243d 1bd4 45be b016 3cbe 7720 57be
000000f0: b98d 223e ecb6 0bbe f40f 35be d141 15bf
00000100: a6df d0be a94d 20bf 27d2 89be e739 f4be
00000110: a810 c5be c8e7 11be f99b c63c 66dc 84bd
00000120: 2e1c 7fbe 8de2 49bd 3506 2ebe 9696 a1be
00000130: 9b40 59ba bbda d7be 00e8 d5be 3934 97bd
00000140: 0f23 c03d db32 64be 81cf 573c 19b3 2cbe
00000150: 9235 0ebe 55df 343e 7655 15be 7e7e d5be
00000160: 4ebb 3bba dde2 bfbe fdae a2bd e8c5 0a3c
00000170: 93a4 cfbd 2429 8bbe 8dc6 7dbe ab96 4dbe
00000180: e3fa e0bc df0f a3be 815a 7d3d 672d 8ebe
00000190: 8158 27ba 9e0e 02bf 8319 d9be b80d 913d
000001a0: 3009 3dbe 951b 8f3d 9850 8fbd 45e9 bebd
000001b0: e758 71bc 8c06 00bd a200 2d3d 7d01 1cbe
000001c0: dfcd 87be edff 62bd 1ea9 b9be 21f6 98be
000001d0: faf9 c8bd f1db e8be 3e43 f9be 8011 c6be
000001e0: 0994 cabe 03c3 b4be 4c61 35bc d210 ceb9
000001f0: 5b1c 82be 6e35 b1bd 7efd 0ebe 7404 06bf

conv.11.running_mean f4 [128]
1.463859 -1.9686364 -1.5229745 -0.4189563 0.14914994 0.71514785 -2.8606136 -0.061325528
3.0823908 0.07647298 0.32199794 0.37681958 -1.7333769 -1.4205691 -1.6963296 -0.022776388
1.5102911 -0.29780924 -0.47346815 -1.2741704 -1.2203552 0.055444952 -2.372008 0.9312521
-0.26968563 -0.48937455 -2.0574636 1.5131677 0.36105224 -1.4549557 1.3352879 1.9721586
-0.53625226 0.7833111 -0.42589593 0.40241608 1.9910547 -0.5719105 -1.9789243 2.0943074
1.9254959 -0.69072545 -1.1616559 -0.32389945 -1.5421548 -0.76044583 -0.6244947 0.30987987
1.4649487 -1.1375272 2.4504964 1.654013 0.28792086 1.1983948 -1.706042 0.3970637
-0.07266853 -2.2736893 -1.6541319 -2.3947482 -0.70992446 1.6934695 0.077145025 -0.03824289
-1.234249 -1.9808965 -2.872675 -0.55307674 -1.5524594 1.0896901 -0.54548633 -0.18543318
-1.4330882 1.8864796 0.56991255 0.3111793 2.6252809 2.5473855 -0.1552614 0.37033665
0.5315566 -3.2409034 0.0733748 -0.14288935 -0.3995008 -0.5600115 0.7007399 -1.5832547
0.94399315 -1.8858097 -3.3245175 -0.8537137 -0.8797311 0.6976242 -0.89970696 -2.121699
1.209742 -2.015807 -0.75053895 -0.7334638 -0.49672922 -0.06003756 -0.2931402 -0.2557395
1.3975282 0.23826467 -0.5803576 1.9007705 1.1758078 2.7695937 0.6403523 -0.70376295
-1.3621753 -0.48589563 -1.5377963 -0.46918344 -0.30665094 -0.47127232 -0.8396642 -0.081033915
-2.2262833 -0.19387236 0.43246484 -0.55662924 0.006934709 -2.805076 -1.0985234 -0.41932172
00000000: bb5f bb3f 47fc fbbf d4f0 c2bf 7181 d6be
00000010: c3ba 183e ee13 373f 4b14 37c0 7a30 7bbd
00000020: e445 4540 de9d 9c3d eadc a43e 7fee c03e
00000030: 4bdf ddbf 35d5 b5bf 5421 d9bf 8c95 babc
00000040: 3851 c13f 747a 98be 6b6a f2be 0418 a3bf
00000050: 9934 9cbf 3f1a 633d fbce 17c0 8a66 6e3f
00000060: 3c14 8abe 4d8f fabe 7cad 03c0 7baf c13f
00000070: d7db b83e fd3b babf b7ea aa3f b16f fc3f
00000080: d447 09bf 1487 483f 080f dabe 7b09 ce3e
00000090: e1da fe3f ba68 12bf 644d fdbf 2209 0640
000000a0: a676 f63f 62d3 30bf 24b1 94bf 26d6 a5be
000000b0: 5465 c5bf 94ac 42bf e2de 1fbf 93a8 9e3e
000000c0: 7083 bb3f 7e9a 91bf efd4 1c40 b3b6 d33f
000000d0: 5d6a 933e 0065 993f 965f dabf ef4b cb3e
000000e0: 3dd3 94bd 2084 11c0 98ba d3bf 8e43 19c0
000000f0: 9cbd 35bf 9cc3 d83f 36fe 9d3d 94a4 1cbd
00000100: dffb 9dbf 048e fdbf e8d9 37c0 7096 0dbf
00000110: fdb6 c6bf f77a 8b3f fea4 0bbf 32e2 3dbe
00000120: 6f6f b7bf 2a78 f13f cae5 113f e552 9f3e
00000130: 9a04 2840 5d08 2340 d8fc 1ebe c49c bd3e
00000140: 1814 083f f66a 4fc0 8745 963d 9651 12be
00000150: 5e8b ccbe ea5c 0fbf b163 333f 17a8 cabf
00000160: 89a9 713f 3662 f1bf e5c4 54c0 fb8c 5abf
00000170: 0f36 61bf 8097 323f 3253 66bf ebc9 07c0
00000180: d3d8 9a3f fb02 01c0 5223 40bf 49c4 3bbf
00000190: 4b53 febe f2e9 75bd 7916 96be 4af0 82be
000001a0: 34e2 b23f a7fb 733e 5192 14bf 734c f33f
000001b0: df80 963f 0641 3140 21ee 233f cf29 34bf
000001c0: c35b aebf 50c7 f8be 82d6 c4bf d038 f0be
000001d0: 5a01 9dbe 9b4a f1be 3cf4 56bf 1cf5 a5bd
000001e0: 6d7b 0ec0 7a86 46be 086c dd3e 417f 0ebf
000001f0: 8e3c e33b 5d86 33c0 6a9c 8cbf 56b1 d6be

conv.11.running_var f4 [128]
3.6994076 6.6997123 2.2156758 2.5599203 2.7177296 2.7929273 6.614897 4.1599627
10.236775 2.2712715 4.0149465 3.3538702 3.061219 2.9545834 4.2252264 3.167173
4.785594 5.023243 1.786457 6.50817 3.6441574 4.208881 6.5286684 1.6721938
3.8471909 2.872271 6.4637346 9.66649 2.045192 4.5961947 2.0039573 2.438966
3.0068464 3.4973 2.1173153 2.7446709 3.108977 5.589064 4.2707353 10.442151
13.861066 2.5213509 0.9912456 2.9451842 4.3831005 1.8555421 3.5738938 1.9866246
8.182967 3.7853441 6.6909924 6.7389364 3.598282 1.9072709 4.337176 5.26069
6.2666645 7.4255004 7.8191032 1.4370348 4.3568654 2.9948444 1.8445988 4.5552893
5.6969757 2.1319735 9.614908 7.1117544 4.5060744 2.4606433 7.3889165 5.673139
3.071482 2.6245718 6.100239 6.8809276 8.224259 3.1826448 1.454337 4.4723945
3.552633 7.6561265 2.2491472 2.830967 3.7866251 4.2808924 4.424065 9.760493
3.352849 4.4548907 9.631636 2.8455143 1.6224581 1.7928215 7.285464 3.61639
5.1463275 3.11861 8.889063 6.416901 1.9227186 4.4556355 2.8473396 2.6515899
1.9263954 2.5778031 2.7459958 6.7572193 4.5596714 6.494056 2.9054918 3.705606
3.6098657 5.946495 2.7039578 2.1538332 2.2304442 2.4938247 2.644289 2.2795024
6.870749 3.3389504 2.245672 3.1482613 4.437238 4.466352 7.6092806 2.5933082
00000000: 18c3 6c40 0b64 d640 a2cd 0d40 bcd5 2340
00000010: 48ef 2d40 52bf 3240 3cad d340 6a1e 8540
00000020: d5c9 2341 835c 1140 717a 8040 cfa5 5640
00000030: 03eb 4340 e517 3d40 0e35 8740 f6b2 4a40
00000040: 9623 9940 68be a040 9faa e43f ee42 d040
00000050: e039 6940 27af 8640 daea d040 720a d63f
00000060: 6038 7640 4ad3 3740 ead6 ce40 f1a9 1a41
00000070: 6de4 0240 0714 9340 d640 0040 0518 1c40
00000080: 2c70 4040 c3d3 5f40 1882 0740 b0a8 2f40
00000090: 7bf9 4640 9dd9 b240 dda9 8840 0d13 2741
000000a0: edc6 5d41 d05d 2140 46c2 7d3f e67d 3c40
000000b0: 5c42 8c40 6782 ed3f adba 6440 b749 fe3f
000000c0: 6fed 0241 1443 7240 9c1c d640 5ea5 d740
000000d0: 414a 6640 7421 f43f 25ca 8a40 9357 a840
000000e0: 8488 c840 b39d ed40 1836 fa40 c2f0 b73f
000000f0: 716b 8b40 88ab 3f40 d01b ec3f eec4 9140
00000100: a04d b640 4172 0840 aad6 1941 7e93 e340
00000110: c331 9040 2e7b 1d40 0172 ec40 5b8a b540
00000120: 2993 4440 fcf8 2740 2835 c340 8f30 dc40
00000130: 9196 0341 74b0 4b40 b727 ba3f db1d 8f40
00000140: 575e 6340 fdfe f440 07f2 0f40 902e 3540
00000150: 1158 7240 12fd 8840 f191 8d40 fb2a 1c41
00000160: 1495 5640 778e 8e40 2e1b 1a41 e81c 3640
00000170: b5ac cf3f 2d7b e53f 8522 e940 ef72 6740
00000180: b7ae a440 4e97 4740 9a39 0e41 4157 cd40
00000190: a51b f63f 9194 8e40 d03a 3640 a6b3 2940
000001a0: 2094 f63f bafa 2440 65be 2f40 243b d840
000001b0: d4e8 9140 4fcf cf40 94f3 3940 a628 6d40
000001c0: 0a08 6740 b049 be40 a50d 2d40 67d8 0940
000001d0: 99bf 0e40 d39a 1f40 083c 2940 5ee3 1140
000001e0: 2ddd db40 5db1 5540 17b9 0f40 1d7d 4940
000001f0: dbfd 8d40 5bec 8e40 3a7f f340 c3f8 2540
