output/electricity_cnn_20260221_204822/checkpoints/epoch_75.pt (torch, 174824 bytes, 21 tensors)

conv.0.weight f4 [32, 14, 3]
00000000: a2a3 edbd 0c2f a2bc 890a a93c 15f6 44bc
00000010: 5d82 c23d cf69 b0bd 69f4 c6bd 9d96 d23d
00000020: 7b76 c1bd 7901 393c b79f b5bd 511a 3ebc
00000030: 50b9 243b bc28 edbb 4a6d 50bc 8f73 bf3c
00000040: 2b00 523d 4a5a 75bd 35ed c33c 1074 123e
00000050: 74b3 ac3b f8ec 553c 62e6 c4bd 2f95 173c
00000060: 0069 f93e 0a22 d83e 78f2 113f e37c 59bf
00000070: e5fc 62bf 7b29 78bf 844f 6abe 10f5 7abe
00000080: d3b5 32be edb8 8abc 57e6 193d 7e6f 0dbd
00000090: a22b f0bd c6ed db3d 0046 833b 79f5 86bd
000000a0: a04c 9b3b 0236 9b3d 62c7 52be 5b93 c33d
000000b0: 32b2 a43d b9b2 2d3e 1d06 bd3d 6bb3 c43c
000000c0: 1647 f2bd e8ab 73bc ca54 c7bc 6935 473e
000000d0: 4310 2d3e 01e9 4cbe 7570 193d a54b 25bd
000000e0: 2a99 993d 58d6 393d f726 613c 41c0 a2bd
000000f0: c5e3 313c c555 433d 91df 363e af0d dfbc
00000100: e8c7 c6bc f930 893d 8344 44be 749d cdbc
00000110: 70a5 95bc d5dc 5f3e c76b 7a3e dce3 c83e
00000120: 4768 06bf 9d8e 1abf ff9b 06bf b89d d43c
00000130: c2b7 c33d 2fe7 59be 7f2f 583d 6a4c bcbd
00000140: 3891 23bd 5fc3 0a3d 5173 93bd daaf dd3d
00000150: e7ea b43d 1745 193e d6d1 7abe 8202 143d
00000160: 781d 483d 2215 8a3d de6a 79bc cfa7 4b3d
00000170: c2b8 34be 335d c8bd 74c0 103e 4421 d73b
00000180: 88f7 813d fd27 8abd 65e2 11bc 3f9f f9bb
00000190: 88cb 7b3c 146e eabc 7047 973d d223 ef3d
000001a0: f6e7 54bd 8cef ccbb e2a2 633d 3343 d1bd
000001b0: 587d 77bf d7ab 35bf 40f6 67bf 3ca1 0a3d
000001c0: 0de4 823e 3266 a23e 468b 313e ffc9 2e3d
000001d0: 72b1 8e3e 9a75 703b c15c 89bc 09db 2d3d
000001e0: 1d23 1dbd 81b9 183e 1af3 bcbd 2a6c 94bd
000001f0: 3ae2 b9bc 7ef3 f23d 4d05 743e 6adf c73c
00000200: d967 cfbd 8b77 c2bd 2374 f83c 35f4 0ab9
00000210: 332b cb3c d64b 513d 5471 dabd dac5 393e
00000220: c0f9 c13d 254c 713d d9f8 893c 6ddc 4a3b
00000230: 7fc7 8bbd ae13 923d 526c 953d 27ba e3bb
00000240: 00c9 d13c 252f 053e a641 57be 4944 4d3d
00000250: 2bc8 40be 2908 583d 1399 c43b 536f 893d
00000260: 9fa4 0f3e 8104 b03d 2b1c 333e 8fa1 9a3e
00000270: f98f cf3e b437 d73e dbed d63e 89ed b03e
00000280: eadd 113e 2f9a ff3d 0d8d a53d 090c 9bbd
00000290: e738 66bd 17d7 fcbb e994 6e3d c44c 9c3d
000002a0: 05a5 f33d cf24 74bd 97e5 b0bd 773c 573c
000002b0: 442b a0bd 1d52 0dbd dd92 7e3d 4306 923c
000002c0: eae5 6abc 46ff 963d 5048 413d 7b1d 98bd
000002d0: 74db 743c f0df 3abb 75b0 18bd 77a2 08bc
000002e0: f56a 5fbc 8f0e 3dbc 3fe0 85bc 2d5e 6abc
000002f0: 9913 9dbd c38c 443d de32 d83c 3b14 843c
00000300: eeed 013f 7682 0a3f 8aad 1d3f 6854 373d
00000310: 415d 823e fc13 9a3e a8e8 843e fae6 b73e
00000320: ac30 c13e 96e2 223d 7a26 983d c433 66bb
00000330: 5f9c 083d bd08 613c 6b92 89bc 9626 7abd
00000340: f4d9 eb3c dc9e 183d 3d54 423c 25a4 d03d
00000350: c083 a5bd dfef 1d3e ab6e e7bd 215e ad3d
00000360: 171c 85bc 1b9b 9abd 1f9d e2bd 2e75 09be
00000370: 2c07 833d 59d4 9cbd 38b8 f83b eec1 913b
00000380: 1875 c43c 2e87 4abc f59b dabb 2c7f 05b8
00000390: 02a2 6e3c d54b 6f3e 0b93 20be 73b4 db3d
000003a0: b938 bebd a437 1ebf 75a1 de3d 135d 773e
000003b0: cf8c 043e a2ed ebbe 49cf 11bf 0278 0cbf
000003c0: 5cdb d73e 221b 3a3e af0d c73e c0eb df3d
000003d0: acbd cf3d c632 0a3d a74c 36bc 1295 2d3d
000003e0: 0ea8 743d 805d b83d 0c61 4e3c 8ca5 23be
000003f0: 357e 15be e23d 2cbe 2f0f 783e 2a57 f7ba
-0.11603476 -0.019797824 0.020634906 -0.012021561 0.09497521 -0.086139314 -0.09714586 0.102826335
-0.094464265 0.011291855 -0.08868354 -0.011602954 0.002513487 -0.007237522 -0.012721369 0.023370532
0.05126969 -0.05990056 0.02391682 0.14302087 0.005270416 0.013056986 -0.096142545 0.009251877
0.4871292 0.4221347 0.570106 -0.84956187 -0.88667136 -0.96938294 -0.22881895 -0.24507546
-0.17452173 -0.016933883 0.037573185 -0.034530155 -0.11727072 0.10738711 0.0040061474 -0.06589789
0.004739359 0.075786605 -0.20583871 0.0954959 0.080418006 0.16962709 0.09229682 0.024011334
-0.11829965 -0.014872529 -0.024332423 0.19453968 0.16900735 -0.20010759 0.037460763 -0.040355343
0.07499917 0.04537043 0.0137422 -0.07946826 0.010857527 0.047689218 0.17858721 -0.027228205
-0.024265245 0.06698794 -0.1916676 -0.025099494 -0.018267363 0.21861584 0.24455176 0.39236343
-0.52502865 -0.6037386 -0.5258178 0.025954112 0.095565334 -0.21279596 0.05277967 -0.09194262
-0.039933413 0.033877727 -0.07199729 0.10824557 0.088338666 0.14967762 -0.24494109 0.036135204
0.04885623 0.06742312 -0.015223233 0.04972058 -0.17648605 -0.09783401 0.14135915 0.006565245
0.06346041 -0.067459084 -0.008904074 -0.0076178606 0.01536835 -0.028616942 0.073866725 0.11676754
-0.051979028 -0.006254142 0.05557526 -0.10217895 -0.96675634 -0.7096533 -0.9061012 0.03384517
0.25564614 0.31718594 0.17338285 0.042673107 0.27869755 0.003669119 -0.016767861 0.042445216
-0.038363565 0.14914514 -0.092260554 -0.07247193 -0.022690881 0.11862849 0.23830147 0.024398524
-0.10127229 -0.09495457 0.030328816 -0.0001325168 0.024800872 0.051097713 -0.10666147 0.1814188
0.09471464 0.058910508 0.016842293 0.0030954138 -0.0682516 0.0713266 0.07296051 -0.0069496813
0.02560854 0.13006265 -0.21021137 0.05011395 -0.18826358 0.052742157 0.005999693 0.067106865
0.14027642 0.08594609 0.17491214 0.30201384 0.4053953 0.42034686 0.41978344 0.34556225
0.1424481 0.1248058 0.08083544 -0.07570655 -0.05620661 -0.0077160704 0.05824748 0.076318294
0.11896709 -0.059605416 -0.08637541 0.013136975 -0.07820752 -0.034502137 0.06215178 0.017825251
-0.014337042 0.07372908 0.047188103 -0.07427498 0.0149449 -0.0028514825 -0.037277658 -0.008339516
-0.01363634 -0.011539116 -0.01634228 -0.01430468 -0.076697536 0.047985803 0.026391443 0.016122928
0.50753677 0.5410532 0.61592925 0.04475823 0.25461772 0.30093372 0.25958753 0.3591841
0.37732446 0.03976687 0.07429214 -0.003512607 0.033352252 0.0137349935 -0.01679345 -0.061071955
0.028790452 0.037260875 0.011860904 0.10187558 -0.0808177 0.15423535 -0.11300405 0.08465219
-0.016248746 -0.07549115 -0.11065125 -0.13423607 0.06397852 -0.076576896 0.00759032 0.004448167
0.023981616 -0.012361331 -0.0066714236 -3.182811e-05 0.014564993 0.23368771 -0.15681092 0.10727777
-0.09288163 -0.6180365 0.10870639 0.24156599 0.12944339 -0.46079737 -0.5695692 -0.5487062
0.42159545 0.18174413 0.38877627 0.109336376 0.10143599 0.033739828 -0.011126674 0.042378493
0.059730582 0.09002209 0.01259638 -0.1598112 -0.14598925 -0.16820481 0.24224542 -0.0018870581

conv.0.bias f4 [32]
00000000: 4ca4 0b3e 022b f53c 0d00 893d 3aee 3c3e
00000010: 1744 883e 1660 603e 2cae f3bd c489 b13c
00000020: ceea 2c3d 63cf fc3d 87f9 d03c 363f c23d
00000030: 9c34 01be 98cd f1ba e7b4 debc 6d12 debd
00000040: 6bae 14bd 4321 783d f48a 433e 2b7d 5e3d
00000050: 31ee de3c 9f7c 963e deb5 8b3e d66f ffbd
00000060: 4c27 ce3d be47 c13d c6a2 263d d38a 303e
00000070: 071d 8cbd b30e fabb 3f9a 143e f9e6 0b3e
0.13636893 0.029927734 0.06689463 0.18450251 0.26614448 0.21911654 -0.11898455 0.021672137
0.042216115 0.123442434 0.025509609 0.09484713 -0.12617725 -0.0018448113 -0.02718587 -0.10843358
-0.03629915 0.060578596 0.19095975 0.05431859 0.027213188 0.29391953 0.2728719 -0.12472503
0.10066089 0.09437512 0.040682577 0.17240457 -0.06841474 -0.007631147 0.14511965 0.13662328

conv.1.weight f4 [32]
00000000: 94fa 8f3f d099 2c3f 0405 893f cd81 2e3f
00000010: 760c 5d3f f437 0f3f 7bc6 7c3f 5cb1 3f3f
00000020: 4fe9 e03e bd30 333f 7042 7a3f 9d48 e73e
00000030: 30dc 3c3f 80dc 1c3f 3f38 283f 82fb 823f
00000040: 89ed 383f 4c19 903f 469e 423f 61be 873f
00000050: e2be 5a3f a9ac 573f ce8d 4a3f c0f4 833f
00000060: e0c4 623f 5f89 a73f 7871 483f 73fa 153f
00000070: efd0 5c3f f9fa 3a3f 2911 3e3f 30da 633f
1.1248345 0.674222 1.0704656 0.6816681 0.8634714 0.5594475 0.9874036 0.74880004
0.43928 0.69996244 0.97757626 0.45172587 0.7377348 0.61273956 0.65710825 1.0233004
0.7223745 1.125772 0.76022756 1.0604974 0.85447514 0.84247833 0.79122627 1.0309067
0.8858166 1.3088797 0.7829814 0.5858528 0.8625631 0.73039204 0.74244934 0.890048

conv.1.bias f4 [32]
00000000: 55d1 c0be da1f e3be 5ca3 acbe 854f c9be
00000010: 1805 bfbe fd31 20bf cc62 b1be a56a a6be
00000020: 6e43 77be 3552 f7be e517 7bbe 5138 89be
00000030: 7f9d 0bbf 050f 9ebe 07b8 37be e25e acbe
00000040: 9903 f0be cb93 14bf 574d dcbe 350a 94be
00000050: 3e54 eebe 7a4b 35bf b13a 30bf b1ac 043e
00000060: 9243 bbbd ae67 99be 33cc c6be b31d 19bf
00000070: 1683 a3be 2973 73be be32 dfbe 4c96 ecbe
-0.37659708 -0.44360238 -0.33718383 -0.3931848 -0.37308574 -0.62576276 -0.3464569 -0.32503238
-0.24146816 -0.48304906 -0.24520834 -0.26800779 -0.54537195 -0.30870834 -0.17941295 -0.3366614
-0.46877745 -0.58038014 -0.43027756 -0.28914037 -0.46548647 -0.70818293 -0.68839556 0.12956502
-0.091437474 -0.29961914 -0.38827667 -0.5981094 -0.31935948 -0.23774399 -0.435934 -0.46208417

conv.1.running_mean f4 [32]
00000000: da31 dc3d aa3a 0a3d 8312 bb3d c457 3e3e
00000010: 1bae 853e 87c2 5b3e f190 c7bd 9c8a f93a
00000020: a178 c03d 54f7 053e 027b 433d 7476 133d
00000030: 29d3 13be a754 353c cf3e 21bc 1498 d2bd
00000040: 50a8 9abd 0d43 033d 6dcc 343e 6bd3 b93d
00000050: b18c 56bb c275 993e dc7a 863e 0b66 f2bd
00000060: f3c8 093e da7e fd3d 1465 893d fd9a 223e
00000070: 02e1 a8bd b691 44bd 1489 233e c01b 223e
0.10751696 0.033747353 0.0913439 0.18588167 0.26109394 0.21460925 -0.09744442 0.0019038501
0.09398008 0.1308263 0.04772473 0.036001638 -0.1443602 0.011067546 -0.009841635 -0.10282913
-0.07551634 0.032046366 0.17656107 0.09073528 -0.0032737667 0.29972655 0.2626561 -0.118358694
0.13455562 0.12377711 0.06708732 0.15879436 -0.08246042 -0.047990523 0.1597026 0.15830898

conv.1.running_var f4 [32]
00000000: 6de6 9240 716e 5340 dbb4 a340 658f 2540
00000010: ac81 8940 25ea 4440 dcdb b640 f80a 9640
00000020: db86 0340 bf5b d340 4116 c940 3dc5 c340
00000030: 0216 0b41 df74 f740 802c a040 1d53 3a41
00000040: 02cf 9c40 17bb a540 9c94 3141 36fb 1841
00000050: 0d54 c440 bf61 fb40 3574 b53f d709 6541
00000060: 62d6 e640 99af ba40 fd37 3741 0bac 4440
00000070: 036e cc40 783b 3440 6a76 693f 4a83 7f40
4.590628 3.3036158 5.115827 2.586877 4.297079 3.076791 5.7143383 4.688839
2.055106 6.6049495 6.2839665 6.117827 8.692873 7.7330165 5.005432 11.645291
4.9002695 5.179088 11.098782 9.561331 6.13526 7.855682 1.4176089 14.314902
7.21367 5.8339353 11.451169 3.0730007 6.388429 2.8161297 0.9119631 3.9923882

conv.5.weight f4 [64, 32, 3]
00000000: 7c1d b93c c642 ed3d f76d aebd 3bb8 d1bd
00000010: 89c3 f9bd a32d ffbd 761a a8be 060b 94be
00000020: c701 8abe ed9c cd3c 49b3 72bd f877 0fbd
00000030: 3823 2a3a 8728 323e a0ba 0bbe 1c52 e53b
00000040: c0c9 843e 789e b5bd fd23 2fbd fee5 353e
00000050: 54fa 0ebd 9da6 fd3d b2e9 46bd fbe0 c23d
00000060: c69c 083d a7dc 0c3d 30ef 94bd 77e8 c73d
00000070: b9e0 eb3d 0e58 463e 6e4d 34bd e420 0fbd
00000080: 4b4e 53bb 78ad 49bc 66e0 283d e615 70bb
00000090: e950 ad3c ae2f 033e 5ee7 683e f0f6 c13d
000000a0: 7d94 433d 2982 9f3d 5e19 793b c5da b83d
000000b0: c53f 62bd 112d 273e f2b5 e63d 713a 643e
000000c0: 1862 ba3c 8b3a 66bd f9e1 1f3d 6253 b33d
000000d0: bb77 8a3d f6eb d5bd 744e 3b3e 09fa 933d
000000e0: 520e 683d 6348 99bc 0bd9 193d 7deb 0fbe
000000f0: 941c d23e 9ca1 903e faf7 dc3e e7c3 dbbd
00000100: 39a5 1abe 4de2 14bf 9f3a 3bbe 9eee e63e
00000110: 63de a6be bf82 c4bd d15f b5bd 509f 94bd
00000120: 0625 25be 2cf0 4bbe 6beb a2be 004f e5be
00000130: d3d6 babe 1633 04bf 8b9a ac3d 5ca6 913e
00000140: ceb1 79be ec95 703d 0d44 6b3e 5772 aa3d
00000150: 1a66 533e 599d 133e e5a2 863d a902 1ebe
00000160: 2511 4cbe 5dc3 b03d 6990 5e3c 24d1 bb3e
00000170: cde4 debd 289a acbd 0874 d3bd e869 17be
00000180: 2d4d 58bd 4bb3 8b3b a032 7abd 250d a53c
00000190: 5c00 dd3c 06eb b0bc 4c0a c53e de1c f73e
000001a0: 2449 153f 236b 1b3e f184 f9bc 41ce 923e
000001b0: abd5 c33e aacb e53c 1ef6 393e fd95 e83b
000001c0: 44bd 0fbd 3fc6 c03d 0558 71bd 8104 643d
000001d0: 6794 033d 0347 fd3d 178f c93d d3bc 5d3e
000001e0: 0279 c9bd 9508 dbbd 8642 583d a089 453c
000001f0: 3c8a a3bd d93d 3cbd 5d96 0ebe 1004 b5bd
00000200: 52fb a0bd 7e16 91bd 170f a8bc 8317 90bd
00000210: 462e f7bd d139 8fbe 4b9c 70bd f1c3 f7bd
00000220: fe73 6ebe 4088 15be e9c0 01be e5fd d6bc
00000230: bcf6 c7bd dd4a 3abe 021e c7bd 4cb7 d7bd
00000240: 378e ecbd 973f 1fbe fb8c 4bbe f4b4 babb
00000250: 26c0 dc3c 4756 1d3d 466d 1f3d c338 ce3d
00000260: af7d 193e 4724 c3bc 7d8a 653d 5009 babc
00000270: 3644 a8bd 2206 1c3d 310b 8dbd a7ac 283d
00000280: da87 d43d 1877 ad3c cb4f 6fbd d65e e43c
00000290: 7c76 153e ef20 083d ba32 ab3d 97e7 0b3c
000002a0: 0aeb 66bd ba03 b93b 4ce0 7e3d 01f2 623e
000002b0: 9cb5 ff3d 2592 a13f 750f c33d 6c19 553e
000002c0: 1aec 2d3d 6205 bfbd c62e 27bd 8dab 393d
000002d0: 0341 5abd fbc2 d13d 84e0 4b3c 84a6 09be
000002e0: 801d 93bd 506f 82bd 8e82 f93c b44f 513e
000002f0: 6ca1 1a3e b0b0 343d cc06 933d 3183 d83d
00000300: 40cc 8ebd 7000 97bd bd20 173d fa57 cd3d
00000310: 4833 b4bc 107c 32bd a0b0 8e3e 2bc9 903e
00000320: 3c4b e53e 54ae 113e 3087 a1bc c247 2bbe
00000330: 0f7f 30bc b341 75bd 3074 18bd 9c73 70bd
00000340: c52b bdbd 8b39 04be 1898 0fbf 21d0 0dbf
00000350: fc4a fbbe d501 ed3d d2bc 93bd 17b0 51bd
00000360: 0a78 5fbd c444 dabd 0a9c 20bd 3d93 583d
00000370: d3a7 ddbd f33c bd3d 19bb 8ebe 7829 6ebe
00000380: fbbd 8cbe ac61 1a3d 6298 0cbe c3a5 923d
00000390: e453 19be 4cda 2dbe f16d 74be d720 50bc
000003a0: c3ae 58be c999 51be ed45 92ba 38b2 e8bd
000003b0: 84f3 24be da70 ecbd 9bf1 23be 2330 33bd
000003c0: c197 4cbd 123b 96bd 0579 39bd f5ea 79bd
000003d0: 3dfa 903c 0454 a5bc a1d5 04bc 6b78 853d
000003e0: 378d b93d d0de 28bf d1c6 3abf e389 23bf
000003f0: 6325 c3bd 3954 8ebc 0ada e9bd 7201 993e
0.022597067 0.11585002 -0.08517068 -0.10240217 -0.121954985 -0.124598764 -0.32832688 -0.2891466
-0.2695448 0.025099242 -0.05925301 -0.03502652 0.00064902334 0.17398272 -0.1364541 0.0069983136
0.25935173 -0.08868116 -0.04275893 0.17763516 -0.0349067 0.123852946 -0.048562713 0.09515568
0.033352636 0.034390118 -0.07272184 0.09761136 0.11517472 0.19369528 -0.044019155 -0.034943476
-0.0032242711 -0.012309425 0.041229628 -0.0036634146 0.021156745 0.12811157 0.2274451 0.09470928
0.04774903 0.07788498 0.0038009505 0.09026102 -0.055236597 0.16325785 0.11265172 0.22287919
0.022751853 -0.056208175 0.039033864 0.087561384 0.06761118 -0.104453966 0.18291646 0.07225425
0.056654282 -0.018711274 0.037560504 -0.14054675 0.41037428 0.28248298 0.4315794 -0.10730725
-0.1510209 -0.5815781 -0.18284081 0.45103925 -0.32591543 -0.0959525 -0.08856166 -0.07256949
-0.16127405 -0.19915837 -0.31820235 -0.44786835 -0.36492023 -0.5164045 0.08427914 0.28447235
-0.24384233 0.058736727 0.22975178 0.0832259 0.20644417 0.14415492 0.065740384 -0.15430702
-0.19928415 0.086310126 0.013584235 0.36683 -0.10883484 -0.084278405 -0.103248656 -0.14786494
-0.052807976 0.0042633167 -0.061083436 0.02014787 0.02697771 -0.021596443 0.38484418 0.4826421
0.5831473 0.15177588 -0.0304589 0.28672984 0.38248953 0.028051216 0.18160293 0.007097958
-0.035092607 0.094128124 -0.058921833 0.055668358 0.03212395 0.1236706 0.09841745 0.21654062
-0.098375335 -0.10694996 0.052797817 0.012056738 -0.079853505 -0.04595742 -0.13924547 -0.088386655
-0.078604355 -0.07084368 -0.020515008 -0.070357345 -0.12069373 -0.27973798 -0.058742803 -0.1209792
-0.23286435 -0.14602757 -0.12671246 -0.026244113 -0.09763858 -0.1819262 -0.097225204 -0.10533008
-0.11550563 -0.15551601 -0.19877999 -0.005697841 0.026947092 0.03841236 0.03892257 0.1006942
0.1498935 -0.02382101 0.056040276 -0.022709519 -0.08216135 0.038091786 -0.068869 0.04118028
0.10377474 0.021174952 -0.058425706 0.027877253 0.1459598 0.033234533 0.08359285 0.008539102
-0.056376494 0.005646196 0.062225625 0.2216263 0.12485811 1.2622725 0.095244326 0.20810479
0.042461492 -0.093271986 -0.04081609 0.04532962 -0.053284656 0.10242268 0.012443665 -0.13442427
-0.07183361 -0.063688874 0.030457761 0.2044056 0.1510064 0.044113815 0.07179031 0.10571898
-0.06972551 -0.0737313 0.036896456 0.10026546 -0.021997109 -0.043575346 0.2786913 0.2827848
0.44783962 0.14226657 -0.019717783 -0.16726592 -0.010772481 -0.05987711 -0.03722018 -0.058704004
-0.09236864 -0.12912576 -0.5609145 -0.55395705 -0.49080646 0.11572615 -0.07213749 -0.051193323
-0.054557838 -0.10657647 -0.03921131 0.052874792 -0.108230256 0.09240141 -0.2787712 -0.23258007
-0.27488694 0.037690803 -0.13730004 0.07160523 -0.14973408 -0.16977805 -0.23870064 -0.012703142
-0.21160416 -0.2046882 -0.0011159756 -0.113621175 -0.16108519 -0.11544962 -0.16010134 -0.04374708
-0.04994941 -0.073354855 -0.04528143 -0.061015088 0.017697448 -0.020181663 -0.008107574 0.065171085
0.09060138 -0.65964985 -0.7295962 -0.63882273 -0.09528615 -0.017374145 -0.11418541 0.29883915

conv.5.bias f4 [64]
00000000: 711f 13bc 28bf 133e e4a8 22bd 647d ae3d
00000010: fb86 20be ad57 bd3d 8dac f13c 8a12 f4bc
00000020: c1be 373d 7b42 4bbd 654f 67bd c2fa f3bc
00000030: fbd3 cabc 1884 44bd 845c b2bc d621 d13d
00000040: ae21 0b3e dfaa fc3c 0783 de3c 6435 8d3c
00000050: 9a6e 9b3b 232a 793c 3bcf 423d 022b 95bd
00000060: ad6c 793d 15aa 4dbd 3f4a 99bd 49e5 aa3d
00000070: 3c0e 84bd 5f8b 883b d821 853d bc8d bd3d
00000080: 11ae 113e 9bd1 513d 4b0e 74bc 447d 0b3c
00000090: e010 5fbc c470 13bd d5de 6f3d b78c a03d
000000a0: 9dda 3fbd e565 41bd eb41 dc3c 2300 42bd
000000b0: 4073 a7bd 14b9 d33d d8e3 61bd 6557 b3bb
000000c0: b708 b1bc 1d6a d43c 8ec2 d4bc 63fd 993d
000000d0: e86f b2bd 3887 d2bb c5e8 bd3d 520f 093d
000000e0: 39ef 5dbc 98a0 6abc 4e14 9f3d a32a 9e3d
000000f0: b320 69bd e56d ec3c cbf7 0fbb 9859 f23c
-0.008979664 0.14428389 -0.039711848 0.0852001 -0.15676491 0.092452385 0.029501224 -0.029793996
0.04485965 -0.049623948 -0.0564722 -0.029782657 -0.024759283 -0.047977537 -0.02177263 0.10211532
0.13587067 0.030843196 0.027162088 0.017237373 0.0047434093 0.0152078 0.04756091 -0.07283594
0.060894657 -0.05021103 -0.074848644 0.08344514 -0.064480275 0.004167005 0.06500596 0.09255549
0.14226557 0.051225286 -0.014895986 0.008513752 -0.013614863 -0.035996214 0.05856212 0.07839339
-0.046839345 -0.047216315 0.0268869 -0.04736341 -0.08176279 0.10338035 -0.05514893 -0.0054730647
-0.0216106 0.025929505 -0.025971677 0.07519033 -0.08712751 -0.0064248107 0.09272913 0.033461876
-0.013545805 -0.014320515 0.07767545 0.07722976 -0.05691595 0.028860996 -0.0021967764 0.029583737

conv.6.weight f4 [64]
00000000: 83d1 783f b556 7f3f 2b58 873f 791f 573f
00000010: 419f 753f c0ef 4e3f 96dd 5f3f cb82 703f
00000020: e246 813f 162d 6e3f f33a 723f a62d 583f
00000030: 114e 483f 50cd 383f 0942 6e3f 655e 593f
00000040: f89b 8c3f ff7b 6f3f 0fa2 803f 548d 5a3f
00000050: 323f 753f b8dc 673f 9648 773f 2c7a 833f
00000060: 86a8 703f 9502 693f c2e7 843f a943 8b3f
00000070: a668 4f3f bb85 613f 872c 853f fb0d 883f
00000080: 5e52 833f c2f5 683f 635a 4a3f 2ba7 733f
00000090: 03c2 5b3f 232b 2a3f 0179 803f 8eca 6b3f
000000a0: ac13 663f de29 5f3f 24b4 623f 00b1 483f
000000b0: 599b 713f 0099 403f d0d5 4d3f ea4a 973f
000000c0: b456 6f3f 4ad1 763f b990 653f 0ba4 6c3f
000000d0: ee7b 683f fff1 733f 80b5 743f 06a1 523f
000000e0: 713c 633f 4891 3c3f f997 823f ff67 6a3f
000000f0: 5676 593f 745d 753f 4f77 643f decd 6d3f
0.9719469 0.9974168 1.0573782 0.840324 0.9594613 0.8083458 0.8744749 0.93949574
1.0099757 0.93037546 0.946212 0.84444654 0.7824412 0.7218828 0.9306951 0.8490966
1.0985098 0.9354858 1.0049456 0.853719 0.95799553 0.90571165 0.9659513 1.0271659
0.94007146 0.91019565 1.0383227 1.0880023 0.81019056 0.8809468 1.0404214 1.0629267
1.0259511 0.90999997 0.7904417 0.95176953 0.85842913 0.6647207 1.0036927 0.9210595
0.89873767 0.8717326 0.8855612 0.7839508 0.94377667 0.7523346 0.80404377 1.1819737
0.93491673 0.964131 0.89673954 0.9243781 0.908141 0.9529113 0.9558945 0.8227695
0.887641 0.7365918 1.0202628 0.91564935 0.8494619 0.95845723 0.8924455 0.92892253

conv.6.bias f4 [64]
00000000: e1d4 afbe 88f9 27be f593 f6be c3fb f5be
00000010: af8e a4be 136b babe caf3 ccbe 2330 81be
00000020: 6893 bbbe 2ea6 bcbe 81ee 01bf 89ab 8ebe
00000030: 10f9 3abf ea36 bcbd 9dae acbe b58b bebe
00000040: fcfe 93be bbf5 a5be 39ec debe bfa9 d6bd
00000050: 4b36 abbe ed1e fdbe 4ff1 10be 6360 d9be
00000060: 1d93 01be 37f0 bbbe 9f85 d1be 0772 a9be
00000070: d51f 09bf 8676 75be 19d7 09be eb22 78be
00000080: 0cce 1abf d51c e9be f010 0bbe f421 9abe
00000090: 1309 8ebe e427 c4be 545b e5be ccf6 fcbe
000000a0: fa95 9abe c3ea 6bbe d3c8 a5be eb10 66bf
000000b0: 925f 82be 764b b1be 429d febe 4253 89be
000000c0: bc7d b8be 7645 17bf 8128 8ebe cc41 a5be
000000d0: f36b 80be d5de abbe 373f 0abf 9d54 c1be
000000e0: 0f7c bdbe 70e9 01bf f3aa 8dbe 08f6 36bf
000000f0: d50c 84be 45d1 1bbf 7683 f8be 0afa c6be
-0.343421 -0.16403782 -0.48159757 -0.4804364 -0.3214011 -0.36409816 -0.40029746 -0.25232038
-0.366359 -0.36845535 -0.50754553 -0.27865246 -0.7303629 -0.091901615 -0.3372697 -0.37215963
-0.28905475 -0.3241404 -0.435396 -0.10481595 -0.3343986 -0.49437657 -0.14154552 -0.4245635
-0.12653776 -0.36706707 -0.40922257 -0.33094808 -0.53564197 -0.23970994 -0.1346096 -0.2423207
-0.6047065 -0.4552981 -0.1358068 -0.3010403 -0.27741298 -0.38311684 -0.4479624 -0.4940704
-0.30192548 -0.23038773 -0.3237978 -0.89869565 -0.2546354 -0.34627885 -0.49729353 -0.26821333
-0.36033428 -0.59090364 -0.27765277 -0.32276762 -0.2508236 -0.33568445 -0.5400271 -0.37759867
-0.37008712 -0.5074682 -0.27669486 -0.71469164 -0.2579104 -0.60866195 -0.48537797 -0.3886264

conv.6.running_mean f4 [64]
00000000: 4712 d0be 1149 473f 4079 5fbf aa49 803f
00000010: b22f 94bf 9dc8 17bf 7ddd 8ebf f5dd e2be
00000020: 9b48 3abf 42a8 48bf 23f5 61bf 204e c9bf
00000030: 6453 573f f4cf 393e b3b6 0fbf ab72 1dbf
00000040: 1dca a3be bd8a 29be 1b75 82bf 624b fd3d
00000050: bbb6 34bf fc2f 64bf 1d02 afbf 6be1 1fbf
00000060: 234b a5be 153f 2bbf a8cd aabf 9a31 0abe
00000070: fa6e 50bf e6af 8cbf 2063 94be a923 39bd
00000080: 9641 e6bf 7dde d5be 7cf2 fbbe ab81 80bf
00000090: 531d 9ebf 44f9 f53d 8d22 d7bf 5f3b 6dbf
000000a0: 4cae 0f3c d933 203f 0cdd 4ebf 8f62 61bd
000000b0: 1a07 c7bf 38bb 81bf eadf 81bf ca4b 3cbf
000000c0: 8d63 8ebf dbc9 f7bf b76b 4abf f181 42bf
000000d0: 811d 3bbf 4554 4dbf caac 34bf 7fc2 a3be
000000e0: b790 afbe a1f3 13bf e227 4bbe 15e6 2b3f
000000f0: a9f7 58bf 504b 1b3f 59f0 7e3e 6c6a 5b3f
-0.40638945 0.77845865 -0.8729439 1.002248 -1.1577055 -0.59290487 -1.1161343 -0.44309965
-0.7276704 -0.7838174 -0.88264674 -1.5726967 0.8411162 0.18145734 -0.5613815 -0.61503094
-0.31990138 -0.1655683 -1.0191988 0.12367894 -0.70591325 -0.8913572 -1.367252 -0.62453336
-0.32283887 -0.6689313 -1.3344011 -0.13495484 -0.81419337 -1.099118 -0.28981876 -0.045200024
-1.7988765 -0.41771308 -0.49208438 -1.0039572 -1.2352699 0.12010434 -1.6807419 -0.9266872
0.008769583 0.62579113 -0.8080604 -0.055025633 -1.5549042 -1.013526 -1.0146458 -0.73553145
-1.112413 -1.9358476 -0.7907061 -0.75979525 -0.73091894 -0.8020671 -0.70576155 -0.31984326
-0.34290096 -0.57793623 -0.19839433 0.6714795 -0.847529 0.6066179 0.24896373 0.8570926

conv.6.running_var f4 [64]
00000000: b5b1 633f 181a ae3f 6ead 8e3f 94a5 4e3f
00000010: 8629 963f 18ac 773f 34e3 0040 385f 9e3f
00000020: 071b 483f 8921 173f 5297 ff3f 35ad 2940
00000030: 16b8 5a3f 95bc e43f b885 083f ebfe c23f
00000040: dd68 a83f 736d 973f 374a e43f 4b4a d33f
00000050: f2c1 893f 49fe 953f c590 c040 3fd1 c63f
00000060: f679 c93e b052 423f 4785 1940 96f8 f53e
00000070: 20dc 023f 2314 6440 96c2 3d40 decf a93f
00000080: 78e7 5240 4beb 203f d36c 1b40 0b7e 6640
00000090: 2b8d be3f 6736 433f 19c7 3840 2098 0c40
000000a0: 0f12 143f df18 2f3f 1b60 2540 06c3 9b3e
000000b0: 9304 8a40 f068 973f 1768 9f3f 987f 3440
000000c0: 9e86 2240 258a 5540 a344 2940 4e58 b23f
000000d0: adfb c83f ab0d bb3f 951a ea3f 09c3 5a3f
000000e0: fecb 863f 8398 063f 52bf e93f 1b98 783f
000000f0: bf04 813f d28a 9a3e 0e8a 753f c8bd ca3f
0.88943034 1.3601713 1.1146677 0.807214 1.1731422 0.9674697 2.0138674 1.2372808
0.7816624 0.59035546 1.9968054 2.6511967 0.8543714 1.7870051 0.5332904 1.5234045
1.3157002 1.1830276 1.7835149 1.6507047 1.0762312 1.1718227 6.017672 1.5532607
0.3935086 0.7590742 2.3987596 0.4804122 0.51117134 3.563729 2.9650016 1.3266561
3.2953777 0.6285903 2.428517 3.601443 1.4886831 0.76254886 2.887152 2.196785
0.57840055 0.68397325 2.5839908 0.3042223 4.3130584 1.1828899 1.2453641 2.8202877
2.5394664 3.3365567 2.6448143 1.3933198 1.5701805 1.4613546 1.8289362 0.8545385
1.0531003 0.52576464 1.8261511 0.97107095 1.0079573 0.30184036 0.9591378 1.5839167

conv.10.weight f4 [128, 64, 3]
00000000: 33d0 2a3d 82da a83c f534 063e 12fb cf3d
00000010: ac78 953d 2707 723e a07f 093e e90a b23e
00000020: 01ef e83d 30cb 7d3e 0ba7 b93d 278c a13d
00000030: ba2d 6bbe 7040 20bd ca76 d6bd 69c4 843c
00000040: 1e19 953d a012 463e e1f7 86bd 1ad7 773d
00000050: fe44 c23d 05cf 8a3d 17e9 d73d c4ea 973c
00000060: 7cb5 fbbd 4685 30be d7db 9c3d cbc8 9fbe
00000070: d52b b53d 7437 74be b117 903d 9989 f63d
00000080: 9e9e dc3d 7f5f 183b bd0d 673e 0d25 1e3d
00000090: 07b2 c83e 8ac4 2f3e 6f84 973c 2a45 36bc
000000a0: 282e 4c3d c07c e63c 0ad9 d63d 0da5 28bc
000000b0: 0fc4 0dbb 9a35 32bc a177 11bd 53bb 093d
000000c0: 8443 e93d 94b5 833e 9f86 073d 2dd4 b83d
000000d0: d90a 693c 265b db3d c3ca 443d 1139 9e3d
000000e0: d78b 513d 61a5 b93d f44c f53c e163 ec3d
000000f0: 7d84 0a3e f5ce 133e 81cf 1d3e 888f c53d
00000100: fe6a 823e 4d0a c3bd 16ed a1bd 88b6 bdbd
00000110: 44da 75bd d84d 183d bb45 333e 19b4 a93d
00000120: ba2f a3be 22f6 8fbe c642 1ebe b7c0 b03d
00000130: 8dc7 e0bc a377 63be dc02 f8be 3e99 cebe
00000140: 4047 b3be 78b4 313e d7b0 cf3d c842 363e
00000150: 6cff 0fbd b359 c2bc ec0f d5bd 156a 9cbd
00000160: 6f58 ccbd e67d d9be 062b c23d 5ed2 073e
00000170: 9ad9 1c3e 377d eabc 1c92 57bd f365 993d
00000180: b9b9 573e 78e1 7e3e 759b 4a3e 56e8 503e
00000190: e682 203e 3b7c 29bd b0d4 373d 5174 0bbd
000001a0: a1dc 25be a4cf c4bb 97fd 50bd 4dde acbe
000001b0: 1c0c 633d d58c 8b3e 91e3 283e c339 8d3e
000001c0: 22e0 623e 9734 3a3e b7b5 263e 0b89 32bd
000001d0: 3601 703d 8ccb 3c3d 5c85 c73d 4e39 1a3e
000001e0: 82fa 85bc b025 e8bc 2596 173d e90e 453d
000001f0: b204 ad3d e97c ee3d ab66 10be 1212 0dbc
00000200: 5e2c 28be b7e1 ab3d fd94 033e 1421 003e
00000210: b233 ea3c e6f1 993d 6b42 c6be bfa6 7a3d
00000220: e6dc a73e 5d38 ed3e 9340 82be 3252 33be
00000230: 39ea 78be 8d5c 9abc 377a d83b b4e5 b03d
00000240: 2355 bfbe 38f6 d2bd 0173 e2be 43b5 303e
00000250: 0184 3b3e c4eb 303e c2e8 e3bd 3438 0dbe
00000260: eb41 c0bc c991 a8bd 3730 9cbd 39ab 5fbe
00000270: ae90 983d fce5 1a3e a84e 403e 05f7 8bbe
00000280: 3901 3dbe 605e aebe 60c7 bdbd 5ca9 eb3c
00000290: fd8b b9bd 1d45 92bd 4321 d03d e331 433e
000002a0: fda7 9bbd 4f9f 4b3e 0f7e e43d cf38 94bd
000002b0: 30de b63c 303a c63d 69ad 273d fd4c 4b3e
000002c0: 14ef 183e e7d6 983e c34b d93e 98ad 263f
000002d0: 68ca 69be ec19 4abe b6f8 afbe fe6e c83e
000002e0: bd48 8c3e b453 dd3e 2d59 843e ccd7 103e
000002f0: e4cb 903d 3312 473e 79b9 2a3e 6b3b 913e
00000300: e371 6dbd e6ac d2be b5ba d3be 16c9 4fbe
00000310: 1f65 91be db6a 96be 6bfe 53be 1f4e d5bc
00000320: 1434 0cbe c1e4 92bc 75a9 08be 6fb2 94bd
00000330: 6b34 8f3d 739f 3a3c 67b3 b03d 45b5 77be
00000340: 0344 d3bd ebae ad3d 568f 113d 4834 483d
00000350: 6af9 c73d 9c25 17be 6e95 29bd 12d8 c8bb
00000360: d1a7 8ebb ebcc 633e 9287 863e 1b66 4d3d
00000370: 16d3 003e ce5e c9bd e1b8 8c3c c3d8 2abe
00000380: 95fa 79bd 580c 21be 2ffb fcb9 c07b 3abe
00000390: 2054 afbc 44aa 3fbe ee99 1cbe 8051 2a3d
000003a0: ad90 5cbd f298 cb3c 7272 393e 2e7c dabd
000003b0: 7c51 29be 9450 433b 26f9 ccbc 69d0 9f3c
000003c0: 3198 32be 82e6 b4bc 7b80 633d 258b 9d3d
000003d0: 4093 aabc 33ae 743d 5d81 26bd 627a 74be
000003e0: 523e 093e acac b1bd 68a1 22be c9ba c33b
000003f0: bfda 283e 56dc 05bd 9166 aebb bfed 05bf
0.04170246 0.020612005 0.13106139 0.1015531 0.07298407 0.23635541 0.13427591 0.3477395
0.113737114 0.24784541 0.09065064 0.0788806 -0.22966662 -0.039123952 -0.10471876 0.016206937
0.07280181 0.19343042 -0.06590248 0.06050787 0.094858155 0.06777767 0.10542505 0.018544562
-0.12290475 -0.1723834 0.076591186 -0.3120788 0.08846251 -0.23849279 0.07035769 0.120379634
0.10772441 0.002325028 0.22563834 0.038609553 0.39198324 0.17164817 0.018495766 -0.011124888
0.049848706 0.028135657 0.10490616 -0.010293257 -0.0021631753 -0.010877037 -0.035514478 0.033625912
0.11389831 0.2572447 0.03308737 0.09024844 0.014223778 0.107107446 0.04804493 0.07725728
0.051158752 0.09064747 0.02994392 0.11542488 0.13527103 0.14434417 0.15411188 0.09646517
0.25472254 -0.09523449 -0.07906549 -0.09263331 -0.060022607 0.037183613 0.17507069 0.08286304
-0.3187235 -0.28117472 -0.1545516 0.086305074 -0.027438903 -0.22213607 -0.48439682 -0.4035129
-0.35015297 0.17354 0.101411514 0.17798913 -0.0351557 -0.023724413 -0.104034275 -0.07637421
-0.09977805 -0.42478865 0.09480862 0.13263842 0.15317383 -0.02862416 -0.052629575 0.074901484
0.21066941 0.24890697 0.19785865 0.20401129 0.15674934 -0.04137824 0.04488057 -0.034046475
-0.16197444 -0.006006198 -0.051023092 -0.33763352 0.05543147 0.27255884 0.1649306 0.2758313
0.22155812 0.18184124 0.16280256 -0.043587726 0.058594905 0.046092555 0.09742233 0.15060923
-0.016354803 -0.028338283 0.037008423 0.048109923 0.08448161 0.116449185 -0.14101665 -0.008610265
-0.16423175 0.08392661 0.12849803 0.12512618 0.028589103 0.075168416 -0.38722548 0.061194178
0.3278572 0.46332064 -0.2543989 -0.17511824 -0.24308099 -0.01884296 0.006606366 0.086375624
-0.37369642 -0.10300869 -0.44228366 0.17256646 0.18312074 0.17277437 -0.111283794 -0.13790971
-0.023468932 -0.08230931 -0.07626384 -0.2184266 0.074494705 0.15126795 0.18780005 -0.27336898
-0.18457498 -0.34056377 -0.092665434 0.02876728 -0.09059904 -0.071420886 0.10162594 0.19061999
-0.076004006 0.1988499 0.11156856 -0.07237398 0.022322744 0.09679067 0.04093686 0.19853587
0.14934951 0.29851457 0.42440614 0.65108633 -0.22831118 -0.19736451 -0.3436944 0.3914718
0.27399245 0.43227923 0.25849286 0.1414482 0.07070139 0.19440536 0.16672315 0.28365645
-0.05796994 -0.41147536 -0.41353384 -0.20291552 -0.28397462 -0.293784 -0.20702522 -0.026038228
-0.13691741 -0.017931344 -0.13345893 -0.07260596 0.0699242 0.011390555 0.08627968 -0.24190243
-0.103157066 0.084806286 0.035537086 0.048877984 0.09764369 -0.1476044 -0.041402273 -0.006129273
-0.0043535014 0.22246139 0.26275307 0.050146203 0.12580523 -0.09832536 0.017178 -0.1668425
-0.06102999 -0.15727365 -0.00048252332 -0.1821127 -0.021402419 -0.18717295 -0.15293095 0.04158163
-0.05384891 0.024853203 0.18110064 -0.10668217 -0.1653499 0.0029802667 -0.025021147 0.019508557
-0.17440869 -0.022082571 0.05554245 0.07692555 -0.020822167 0.05973644 -0.040650714 -0.2387481
0.1340268 -0.08675513 -0.15881884 0.0059731943 0.16489695 -0.03268083 -0.0053222855 -0.52315897

conv.10.bias f4 [128]
00000000: b663 9a3d 761a e83c d39a 4e3b 7cfa c33c
00000010: 5af8 123d cb80 2e3d 6246 7dbd 09d4 ce3c
00000020: e9d5 693c 8c40 33bd 448c 2fbd c73c b13c
00000030: 5823 6e3d 3e3d 88bd a450 b7bc 542f 9b3c
00000040: c59f 4f3c f6ad 0cbd 3f5b c3bc 30c8 1abd
00000050: 9569 ff3c 15cb c2bc 268c 503d adde 843d
00000060: 75db 433d b628 2b3d cffb ccbc dcd1 333d
00000070: 0700 8b3d b5c6 25bd c7f1 7bbd 1175 a1bc
00000080: 847d 5cbc 5033 28bd b15b 66bd b451 1fbd
00000090: 7b2f 8ebd 5dce 433d 758d 5dba 072c 353d
000000a0: e8c4 f5bc 91a5 863d fe68 753b 2d75 8c3c
000000b0: 7ded fbbc 1f2a 833d c191 8bbd dfd5 30bd
000000c0: 260e 833d 11a1 903d bbf1 48bc 4816 1fbd
000000d0: 3f9c 4ebd 71d4 c83c 21f7 16bd a972 b83c
000000e0: 72bf cc3b ee86 fb3b 7722 033d 323c 15bb
000000f0: a248 24bd 7135 00bd 30f2 b0bd 69c8 25bd
00000100: e187 55bd 3fac b9bc 2c9c 1b3d d57c 9e3d
00000110: 1abb 15bd 006c 363d ca7a 2dbd ef14 81bc
00000120: 0ec5 763d 4d27 e23b 2a07 e8bc 6289 953d
00000130: 0802 923d 2f34 123b 25e9 9f3d 4563 563d
00000140: b5f8 0fbd 5e7f 273d fd49 33bd caf7 4cbd
00000150: 3514 9f3d 0249 d9bc 1e5c 8eba 6e79 60bd
00000160: fad7 8b3c 3a78 ac3c e8af 3abd b786 823c
00000170: 4d85 803d feb0 3f3d 7ca1 07bc 3750 7d3d
00000180: 25c5 053d 0478 033c a673 f83c 4933 af3d
00000190: 4ce6 30bc 591d 013c 282c 033c 03ed 113c
000001a0: 7560 1b3d 1443 653d fd16 38bd 5467 c5bc
000001b0: c401 cfbc 0c62 81bd 5709 95ba 26f2 c73c
000001c0: e874 073d 2c0e b8bc 9d20 1f3c ec58 8b3d
000001d0: e11a 22bd 0583 07bd 22c8 80bc 2d70 fa3c
000001e0: 3147 713d c5e4 01bd df93 ca3c fd10 61bb
000001f0: 7f20 b6bc 0c0e 2fbd 1358 14bd e5ce ce3b
0.075385496 0.02833293 0.0031525388 0.023923151 0.035881378 0.042603295 -0.0618347 0.02524759
0.014272192 -0.04376273 -0.042858377 0.021635426 0.058139175 -0.06652306 -0.02237732 0.018943466
0.012672369 -0.03434559 -0.02384722 -0.03778857 0.031178275 -0.023778478 0.050914906 0.064877845
0.047816712 0.04178687 -0.025022415 0.04390131 0.067871146 -0.040472705 -0.061509874 -0.019709142
-0.01345766 -0.04106456 -0.056239787 -0.038896278 -0.0694265 0.047804225 -0.00084515597 0.04423144
-0.030001119 0.06574548 0.0037446613 0.017145718 -0.030752892 0.06404518 -0.0681491 -0.043172713
0.06399183 0.07061971 -0.012264664 -0.03883961 -0.050441977 0.024515362 -0.036856774 0.022515612
0.006248408 0.007675997 0.03201529 -0.0022771475 -0.04010833 -0.031300966 -0.086399436 -0.04047433
-0.052131537 -0.022665141 0.037990734 0.077386536 -0.036555387 0.04453659 -0.04235343 -0.015757052
0.06024652 0.0069016577 -0.028323729 0.07301594 0.07129294 0.0022308936 0.07808141 0.052340765
-0.035149295 0.04089295 -0.043771733 -0.050040998 0.07767526 -0.02652407 -0.0010861193 -0.054803304
0.01707076 0.021053422 -0.045577914 0.015933378 0.06275425 0.046799652 -0.008278247 0.061844077
0.032658715 0.008024219 0.030328583 0.08554704 -0.010797095 0.007880532 0.008006133 0.008906606
0.037933785 0.055972174 -0.0449438 -0.024097122 -0.025269397 -0.06317529 -0.0011370581 0.024407458
0.033070475 -0.022467695 0.009712365 0.0680407 -0.039576415 -0.033083934 -0.01572043 0.030571068
0.058905784 -0.031712312 0.024728714 -0.0034342401 -0.022232292 -0.042738006 -0.036216807 0.006311285

conv.11.weight f4 [128]
00000000: f08a 9c3f 4333 8a3f cdae 633f 6299 a33f
00000010: 9a57 8e3f f8ab b23f 7f43 6e3f f5ca 6b3f
00000020: 507a b53f de1b 8d3f 6300 8c3f 1c18 b03f
00000030: 2d2e 813f 3226 7d3f f17f ae3f 1abc 883f
00000040: a024 be3f de0c bc3f 10c4 8f3f e77f 6d3f
00000050: 1cf1 703f 21b7 863f 63e0 913f 36ca 6c3f
00000060: 2519 b03f 1732 823f f306 9c3f 523d da3f
00000070: b686 943f 3ca1 6a3f b500 933f 3a65 923f
00000080: 08fa ec3f 7780 b83f 451a 613f 57af af3f
00000090: 4840 9a3f 322b c43f 1f0d 713f 3324 f03f
000000a0: 37dc f83f e24b a73f 9b0c 883f f538 ee3f
000000b0: 67a5 643f 0084 673f 87be ad3f 5043 983f
000000c0: cdc0 a13f 0b99 773f 27eb f63f 29e2 ad3f
000000d0: 1f32 bd3f aac1 ab3f 30e2 863f 9bcd ad3f
000000e0: aa8a 0240 3a1c 6d3f c534 7d3f 76d0 6c3f
000000f0: 5c80 c53f a4e3 a43f f7a3 a83f b30c f43f
00000100: 9f9e 8b3f d628 613f d0eb 7d3f c676 993f
00000110: cfce 783f 24ff 7c3f 3ef7 fd3f b6df 913f
00000120: cf57 943f 2a44 b83f bf85 c63f 9800 fb3f
00000130: 2236 a33f cf82 9d3f c3c2 893f 1404 8b3f
00000140: 821c 8d3f b3cb 673f 46be d13f f405 0740
00000150: 805f bc3f 5aeb a13f dd8f 973f 35f5 a13f
00000160: 8718 973f de84 693f 98a1 7c3f b8d3 853f
00000170: 20ab 8c3f 6ec2 763f 9d11 803f de0a 7c3f
00000180: c8da ab3f 4ef1 593f 109d 1040 a35f 883f
00000190: dbfc 893f 11c5 883f bf8e 823f 3792 ae3f
000001a0: 391d ac3f b585 b53f ddb0 be3f e794 b23f
000001b0: 18ad a73f 422d a93f fb39 973f bf51 9e3f
000001c0: d515 7b3f a959 fb3f da3b 693f 0f47 703f
000001d0: 10d9 8d3f 8d24 6b3f 2b51 a53f 8b3d 5f3f
000001e0: 8d34 623f ea2d bf3f 08f6 933f 29ff 883f
000001f0: e83d aa3f fa01 7d3f 684e 9b3f e2de 6d3f
1.22299 1.0796894 0.889386 1.2781184 1.1120484 1.3958731 0.9307174 0.9210656
1.4177952 1.1024129 1.0937618 1.3757358 1.0092217 0.98886406 1.3632795 1.0682404
1.4854927 1.4691427 1.1231709 0.9277329 0.94117904 1.0524637 1.1396602 0.9249605
1.3757674 1.0171536 1.2189621 1.7049963 1.160361 0.91652274 1.1484591 1.1437142
1.8513803 1.4414204 0.8793071 1.3725384 1.2050867 1.5325682 0.94160646 1.8761047
1.9442204 1.3070033 1.0628847 1.8611132 0.89314884 0.9043579 1.3573769 1.1895542
1.2636963 0.967179 1.9290513 1.3584644 1.4780921 1.3418477 1.0537777 1.3578371
2.0397134 0.92621195 0.98908645 0.92505586 1.5429797 1.288197 1.3175038 1.9066375
1.0907782 0.87952936 0.99187946 1.1989372 0.97190565 0.98826814 1.9841077 1.1396396
1.1589297 1.4395802 1.5509566 1.9609556 1.2750895 1.2305545 1.0762562 1.086062
1.1024325 0.90545195 1.6386192 2.1097383 1.4716644 1.2649949 1.1840779 1.2652956
1.180436 0.91218364 0.9868407 1.0455236 1.0989723 0.96390426 1.0005375 0.9845408
1.3426142 0.85133827 2.2595863 1.0654186 1.078029 1.068514 1.0199813 1.3638371
1.3446418 1.4181429 1.4897724 1.3951691 1.3099699 1.3216937 1.1814569 1.2368697
0.9808019 1.9636737 0.9110695 0.93858427 1.1081867 0.9185265 1.2915395 0.8720328
0.88361436 1.4935887 1.1559458 1.0702869 1.3300142 0.9883114 1.2133303 0.9291822

conv.11.bias f4 [128]
00000000: 9249 c0be 8742 5dbd 747f 9abe 0c4b fbbd
00000010: df15 683d 7e80 b9bc b5da f0bd 63e3 03be
00000020: ac5e 91bd d1a3 cbbd a068 27bc 98d2 c4bc
00000030: f16f 11be 3ec7 d9bd 48dd 6fbf 1504 b73d
00000040: b8f5 c9bd dfad 963d e3df a4ba 36f8 a3be
00000050: 4009 07bf 9a82 12bd 4c61 1fbf ab4c d2be
00000060: 633b 6e3e 1a6a 78be f7e8 1fbf 6a8b ee3b
00000070: bbc4 11be 5ba6 44be 87ca 2e3c 051e e5bd
00000080: aee8 803b 6408 b4bc 3457 56be da98 83be
00000090: 9a1f 3abe 3386 c33c e80e 80be d577 733e
000000a0: 2c98 a43d 01e7 5b3d c7ee 56bf 9a0f a7bc
000000b0: d12d a3be 7752 dfbe 4240 1c3d 6484 b3bb
000000c0: 16e1 613d 2fdb 2abf 1a06 82bd 5ae1 d2be
000000d0: 109b 99bd b35b 72bd 8813 f5bd 8d58 6a3c
000000e0: 7b7e 053d 0630 40be 2a58 39be 87f2 53be
000000f0: b28e 183e 0e8f 08be 4e64 2fbe 4ed0 13bf
00000100: 2040 cabe 15fa 1cbf 9866 88be b5b6 f2be
00000110: 1258 bfbe 4c71 10be abf4 f03c 2b1b 83bd
00000120: 24e8 74be c3a7 16bd 859c 2fbe 71bf 96be
00000130: b3d3 0dbb 5447 cfbe 61bf c3be ea41 8cbd
00000140: a78f ce3d ad34 67be 8681 c43c 50fd 24be
00000150: 5a5a e4bd 138f 333e 58d2 14be 1f2c d1be
00000160: 4a9a a23b 21b3 bebe d135 9ebd c194 0d3c
00000170: f133 b8bd b7d6 83be 128c 7abe 0079 4abe
00000180: 656d a1bc 8731 a2be 9f8a 903d a578 8abe
00000190: 6f3b dbbb ceac 02bf d962 d3be b450 a63d
000001a0: 08fe 3dbe 07ed 983d 8f8a 56bd 3d7e bbbd
000001b0: 862d 62bc dcc9 9abc c9aa 2f3d 4607 11be
000001c0: 976e 8abe fba4 52bd 7b3c b5be 59a8 95be
000001d0: 1f83 cbbd 409f e6be 90f4 f3be 21fe c0be
000001e0: f3f8 cabe 4c3f adbe 155d c3bb 0ae2 dbbb
000001f0: d922 7fbe 0822 adbd f392 0fbe 0ace 04bf
-0.3755613 -0.054018524 -0.30175364 -0.122701734 0.056661483 -0.022644278 -0.11760465 -0.1287971
-0.07098135 -0.09943355 -0.010217816 -0.0240262 -0.14202859 -0.106337056 -0.93697023 0.089363255
-0.0986132 0.07357382 -0.001257893 -0.32025307 -0.5274849 -0.035769083 -0.6225784 -0.41074118
0.23264842 -0.24259225 -0.6246485 0.007279803 -0.14235203 -0.19204085 0.0106684035 -0.111873664
0.0039339876 -0.021976657 -0.20931703 -0.25702554 -0.18176118 0.023867702 -0.25011373 0.23776181
0.08036837 0.0536871 -0.83958095 -0.020393182 -0.31870893 -0.43617603 0.03814722 -0.0054784287
0.0551463 -0.667407 -0.0634882 -0.41187555 -0.07500279 -0.059169482 -0.11966616 0.014303339
0.032591324 -0.1876832 -0.18100038 -0.20697986 0.14898184 -0.13335821 -0.17128107 -0.5773972
-0.39502048 -0.61319095 -0.26640773 -0.4740502 -0.3737188 -0.1410572 0.029413542 -0.06401666
-0.2391668 -0.036781084 -0.17149551 -0.29442933 -0.0021641075 -0.40484107 -0.38231948 -0.068485096
0.10085993 -0.22578688 0.023987543 -0.16112256 -0.11150046 0.17535047 -0.14533365 -0.40853974
0.0049622403 -0.3724604 -0.077251084 0.008641423 -0.08994282 -0.25749752 -0.24467495 -0.1977272
-0.019705484 -0.3167841 0.0705769 -0.2704517 -0.0066904346 -0.5104493 -0.41286352 0.08120862
-0.18553936 0.074670844 -0.052378234 -0.091549374 -0.013804799 -0.018895082 0.042887483 -0.14162931
-0.27037498 -0.05142687 -0.35397705 -0.29230002 -0.09937119 -0.45043373 -0.47647524 -0.37693885
-0.39643058 -0.33837354 -0.005962024 -0.0067102956 -0.24915637 -0.084537566 -0.140209 -0.5187689

conv.11.running_mean f4 [128]
00000000: a83a bd3f b20a 01c0 c770 cabf 0ff8 d5be
00000010: 3760 673c 5d62 3c3f 636c 39c0 a9d6 5bbc
00000020: ebce 4840 2b33 213e 2c9c a43e 53d9 993e
00000030: b042 efbf 39e9 bbbf 1033 dabf 941d bdbd
00000040: 2649 c33f 5ecd 7fbe 132b 0abf c0e9 a6bf
00000050: 018b a8bf 1f1e a7bb 40b5 17c0 d094 823f
00000060: dca3 6abe aa01 15bf c196 02c0 4f3f c43f
00000070: 5dd1 cf3e 16a9 cbbf 7db7 9e3f 48c6 0240
00000080: d19e 03bf 7fff 353f 3433 f2be e7ec 063f
00000090: c3d3 f93f 7324 0dbf 68d5 02c0 b8f3 0b40
000000a0: 7eeb f33f 7e31 1fbf 1bea 92bf f4db 96be
000000b0: c351 d5bf d80a 58bf 84ac 23bf fce7 a43e
000000c0: 1620 c63f 23c5 92bf 348d 1f40 139d dd3f
000000d0: 5f05 bc3e 2229 8f3f 4ae3 e1bf 686c 063f
000000e0: 597a 9dbc d36e 15c0 68cc dbbf 99d9 1cc0
000000f0: db82 0dbf 875e de3f 9fb8 f5bc be53 863d
00000100: 51dc bdbf c43e fcbf 48e9 3bc0 e612 23bf
00000110: 5b3b e1bf f0e9 8c3f 6cf3 0abf 5ee8 0dbe
00000120: 7ad8 c2bf fb48 e53f 9918 233f ed29 883e
00000130: 0d84 2840 a451 2040 652c 43bd 2729 8e3e
00000140: f3da fe3e 1e79 50c0 0ca4 d1bd 49d2 5dbe
00000150: 8251 02bf ff92 f6be b6d2 313f 71b3 cfbf
00000160: 38e8 713f 1583 f3bf 6dab 5ac0 5fa4 4dbf
00000170: ec45 61bf 2284 453f 6146 6dbf cc0b 0cc0
00000180: 2c41 9f3f 3782 00c0 55af 34bf 48e4 68bf
00000190: 0bad b7be 1f64 f9bd 0f8b 98be 1fb8 c5be
000001a0: 04d5 b93f 7c3d 903e 7724 0bbf b482 f53f
000001b0: 7f31 8f3f 933f 2e40 aaab 243f ddb5 39bf
000001c0: a3b7 a1bf c1c2 e9be 53a4 d2bf 47a6 00bf
000001d0: 1624 88be a4ee 04bf c608 5abf 4326 5bbe
000001e0: de1c 0fc0 9db6 b3bd 469a bf3e 74b2 05bf
000001f0: 8ea8 bcbc f5fd 38c0 1158 86bf b251 e3be
1.4783525 -2.0162778 -1.5815667 -0.41790816 0.0141220605 0.7358759 -2.8972404 -0.013417878
3.1376293 0.15742175 0.321504 0.30048618 -1.8692226 -1.4680549 -1.7046833 -0.09234157
1.5256698 -0.24980685 -0.53971976 -1.3040085 -1.3167421 -0.0051000263 -2.3704376 1.0201664
-0.2291407 -0.58205664 -2.0404513 1.533182 0.4058942 -1.5910976 1.2399746 2.0433521
-0.5141421 0.7109298 -0.4730469 0.52705234 1.951775 -0.5513374 -2.0442753 2.1867504
1.9056242 -0.62184894 -1.1477693 -0.29464686 -1.6665577 -0.84391546 -0.6393511 0.3220824
1.5478542 -1.1466411 2.4929934 1.731356 0.36722848 1.1184428 -1.7647488 0.52509165
-0.019223379 -2.3348892 -1.7171755 -2.450781 -0.55277795 1.7372597 -0.02999526 0.06558941
-1.483286 -1.9706655 -2.9361134 -0.6370071 -1.7596239 1.1008892 -0.5427768 -0.13858172
-1.5222313 1.7912897 0.6370941 0.26594487 2.6330597 2.504983 -0.04764976 0.27765772
0.4977642 -3.2573924 -0.102363676 -0.21662249 -0.5090562 -0.48159024 0.69462144 -1.6226636
0.9449496 -1.9024378 -3.416713 -0.80328935 -0.8799732 0.77154744 -0.92685515 -2.18822
1.2441764 -2.0079477 -0.70580035 -0.9097333 -0.3587421 -0.121773 -0.29793593 -0.38617036
1.4518132 0.2817191 -0.54352516 1.9180512 1.118698 2.7226303 0.6432444 -0.72543126
-1.2634166 -0.45656398 -1.6456398 -0.5025372 -0.2659003 -0.51926637 -0.8516964 -0.21401314
-2.236137 -0.08775065 0.3742239 -0.5222542 -0.023029592 -2.8905003 -1.0495626 -0.44398266

conv.11.running_var f4 [128]
00000000: c79b 8840 b4ad e740 153c 1640 567b 2840
00000010: a61c 2b40 82eb 3540 f532 dd40 952b 8840
00000020: bdcc 2e41 dece 1340 6532 7740 07b8 6040
00000030: 3f24 5140 df72 4a40 49fc 9040 7ad3 3f40
00000040: 038a a240 c947 9740 6cf8 ea3f a6cc d840
00000050: a512 6340 4416 9240 9947 e440 5958 e43f
00000060: b4a3 7540 a6fa 4240 20a9 d640 9d16 2141
00000070: f0b2 0a40 112c a140 c65b 0940 4f66 3240
00000080: a3c2 4440 40fe 6840 a235 1540 b184 3a40
00000090: ea71 6240 2a4a b740 6909 8a40 6d1f 2c41
000000a0: a87d 6d41 16eb 2040 bcd4 8f3f cb34 3c40
000000b0: 884b 9240 e561 0440 eeb1 7340 1e92 0240
000000c0: 5708 0941 9b98 7d40 8082 dd40 cdb0 e340
000000d0: 22d2 5d40 74e4 0340 c642 8b40 3671 a040
000000e0: e8ee c340 f8ff 0141 ea01 0241 7a5d c03f
000000f0: fe84 8540 ea0f 4640 a9d2 0740 6957 9840
00000100: 5144 ce40 c9a2 1440 7710 2a41 e44f f640
00000110: 66a5 9a40 2490 1d40 b0a1 f240 133f ba40
00000120: e20b 5140 07be 3340 3749 c440 2416 db40
00000130: d75a 0b41 b7c1 5540 b032 b83f 6686 a240
00000140: 48f4 6240 70d3 ff40 51d5 1840 9943 3b40
00000150: 0881 7b40 1cfd 8040 0e2b a440 a922 2f41
00000160: 020f 6140 8634 9240 97d8 2241 d771 4940
00000170: bf4a ce3f 9eb7 fc3f f61b f240 2693 6440
00000180: 799f af40 3bec 3e40 4345 1441 0d67 dd40
00000190: 1a04 f73f efb5 9b40 3336 3640 4c9f 2840
000001a0: ecaf 0440 c2db 2340 3419 3640 8134 e440
000001b0: 0c55 9940 546b d640 2c47 4e40 bc1f 8240
000001c0: 9608 7e40 6ff8 ba40 a710 3f40 13b2 1040
000001d0: 3ea7 1540 d71a 1f40 f7e4 2e40 52bc 1240
000001e0: e4d8 e340 d066 6640 4af5 0e40 4686 5240
000001f0: fe34 9c40 b8c5 9640 0387 0041 0ddc 2840
4.269016 7.239954 2.347417 2.6325278 2.6736236 2.8424993 6.9124703 4.25532
10.924985 2.3095012 3.8624508 3.5112321 3.2678373 3.1632612 4.5307965 2.9972825
5.079347 4.727513 1.8357062 6.7749815 3.548013 4.565218 7.13374 1.7839462
3.8381166 3.0465484 6.708145 10.068021 2.1671715 5.036629 2.1462264 2.7874944
3.0743797 3.6405182 2.3313985 2.9143488 3.5382028 5.727803 4.3136487 10.757672
14.843178 2.5143485 1.1236796 2.9407222 4.57172 2.068475 3.807735 2.0401683
8.564536 3.9624393 6.92218 7.115332 3.4659505 2.0608187 4.351901 5.0138197
6.1229134 8.124992 8.125467 1.5028527 4.1724844 3.0947213 2.1222327 4.76067
6.4458394 2.3224356 10.62902 7.6972523 4.8326902 2.4619226 7.5822372 5.8201995
3.2663503 2.8084733 6.1339374 6.8464527 8.709678 3.3399484 1.4390469 5.078906
3.5461597 7.9945602 2.3880198 2.9260008 3.9297504 4.030897 5.1302557 10.945962
3.516541 4.5689116 10.177878 3.1475732 1.6116561 1.9743536 7.565913 3.5714812
5.488217 2.9831684 9.26691 6.9188294 1.9298127 4.8659587 2.847058 2.6347227
2.0732374 2.560288 2.8452883 7.131409 4.7916317 6.7006016 3.223094 4.066374
3.969274 5.8428264 2.9853914 2.2608688 2.3383327 2.4860132 2.732725 2.2927442
7.120226 3.6000252 2.2337213 3.2894454 4.881469 4.7116356 8.032962 2.6384308
