output/electricity_cnn_20260221_204822/checkpoints/model_best.pt (torch, 174882 bytes, 21 tensors)

conv.0.weight f4 [32, 14, 3]
0	0xbdecb967	-0.115588
1	0xbc9bcbd5	-0.019018093
2	0x3cbb1a07	0.02283956
3	0xbbfa7afe	-0.0076440563
4	0x3dca8b1d	0.09889815
5	0xbdab8b6a	-0.083762005
6	0xbdc0be84	-0.09411338
7	0x3dd7caf9	0.10536761
8	0xbdbdec98	-0.09273642
9	0x3c20b419	0.009808564
10	0xbdb54831	-0.0885166
11	0xbc29a602	-0.010354521
12	0x3c01a1ba	0.007912094
13	0xbac1f308	-0.001479716
14	0xbb1fa8bd	-0.002436205
15	0x3cb7d5bd	0.022440786
16	0x3d451c9c	0.048122987
17	0xbd7aa79d	-0.061195005
18	0x3cc65f1c	0.024215274
19	0x3e132a0b	0.14371507
20	0x3be177c7	0.0068807337
21	0x3caada96	0.020856183
22	0xbdc15dc9	-0.09441716
23	0x3cadd50d	0.021219755
24	0x3eface01	0.48985294
25	0x3eda2d54	0.42612708
26	0x3f12a230	0.5727873
27	0xbf592e12	-0.8483592
28	0xbf623f8f	-0.8837823
29	0xbf77e241	-0.9682961
30	0xbe6b7e35	-0.22997363
31	0xbe7b6d27	-0.24553357
32	0xbe33b437	-0.17549215
33	0xbb7eba4a	-0.003886836
34	0x3d36207f	0.044464584
35	0xbd079533	-0.03310127
36	0xbdf05ffc	-0.117370576
37	0x3ddbf830	0.107406974
38	0x3b982bf5	0.004643912
39	0xbd8bf0c5	-0.068330325
40	0x3bac51cb	0.005258774
41	0x3d9d963c	0.076946706
42	0xbe54c347	-0.20777617
43	0x3dc2d7aa	0.09513791
44	0x3da87eb3	0.08227291
45	0x3e326da7	0.17424642
46	0x3dc10018	0.09423846
47	0x3cbf1e10	0.023329765
48	0xbdf0c38a	-0.11756046
49	0xbc6798e4	-0.014135573
50	0xbcbefb0d	-0.02331307
51	0x3e3dfb3b	0.18552868
52	0x3e2455b1	0.16048314
53	0xbe5270d7	-0.20550857
54	0x3d3753e0	0.044757724
55	0xbd14b308	-0.03630355
56	0x3d9b7d7a	0.07592292
57	0x3d4cad38	0.04996988
58	0x3c871c6a	0.016493041
59	0xbd8d11f6	-0.068881914
60	0x3c0736ad	0.008252782
61	0x3d3ca744	0.046057954
62	0x3e375447	0.17903243
63	0xbcbef8b8	-0.023311958
64	0xbcbda2d3	-0.02314893
65	0x3d4621fb	0.04837225
66	0xbe4448ef	-0.19168447
67	0xbccf5303	-0.025308138
68	0xbc91b54d	-0.017786646
69	0x3e5f324a	0.21796528
70	0x3e798dea	0.24370542
71	0x3ec8d83e	0.3922748
72	0xbf079ae5	-0.52970725
73	0xbf1bcc9f	-0.608591
74	0xbf07b4fe	-0.5301055
75	0x3cfde211	0.030991586
76	0x3dcd9000	0.100372314
77	0xbe58c23d	-0.21167846
78	0x3d70b50e	0.058766417
79	0xbdace16f	-0.084414355
80	0xbd117bee	-0.03551858
81	0x3d12c8d8	0.03583607
82	0xbd8b63da	-0.068061545
83	0x3de27ee5	0.110593595
84	0x3daead84	0.08529189
85	0x3e17bf42	0.14819053
86	0xbe7a6cb8	-0.24455535
87	0x3d15d874	0.03658338
88	0x3d44eef0	0.04807943
89	0x3d899de4	0.06719568
90	0xbc855638	-0.016276464
91	0x3d48544e	0.048908524
92	0xbe33585a	-0.17514172
93	0xbdd8c07a	-0.10583587
94	0x3e0702b1	0.1318462
95	0xba1a5cf4	-0.0005888485
96	0x3d8db487	0.069191985
97	0xbd6df34a	-0.058093347
98	0x3a0f5c42	0.00054687646
99	0x39b41346	0.00034346635
100	0x3ccedc02	0.025251392
101	0xbcade7a2	-0.021228615
102	0x3d8f677b	0.07002159
103	0x3de8f2e3	0.11374452
104	0xbd575aca	-0.052576818
105	0xbc7ad8e1	-0.015310497
106	0x3d24185b	0.04006229
107	0xbdca73a5	-0.09885339
108	0xbf780f4d	-0.9689835
109	0xbf360613	-0.7110302
110	0xbf68926d	-0.9084843
111	0x3d22ef31	0.039778892
112	0x3e86137b	0.26186737
113	0x3ea4f6c2	0.3221951
114	0x3e3157e8	0.1731869
115	0x3d2dfb5c	0.042476043
116	0x3e8ea5d4	0.27860892
117	0xbb06a467	-0.0020544769
118	0xbc48c6b3	-0.012254405
119	0x3d2d975f	0.042380687
120	0xbd349c71	-0.044094507
121	0x3e129eca	0.14318386
122	0xbdc952e3	-0.098302625
123	0xbd979a0d	-0.0740243
124	0xbccea7e7	-0.025226546
125	0x3deb565f	0.11491083
126	0x3e710bbc	0.23539633
127	0x3cbcb51b	0.023035577
128	0xbdd42d24	-0.103601724
129	0xbdbe3884	-0.09288123
130	0x3cffa403	0.031206137
131	0x3a7436c2	0.0009316021
132	0x3cd6fdd8	0.026244089
133	0x3d535dd1	0.051603142
134	0xbddafc6b	-0.10692676
135	0x3e3d44e5	0.18483312
136	0x3dcb152e	0.09916149
137	0x3d825409	0.06363685
138	0x3c975950	0.018475205
139	0x3ba7c642	0.0051200697
140	0xbd8b280e	-0.06794749
141	0x3d8681db	0.06567737
142	0x3d88386d	0.06651387
143	0xbc497510	-0.012295976
144	0x3cbcdb96	0.023053925
145	0x3e03e934	0.12881929
146	0xbe596446	-0.21229658
147	0x3d540974	0.051766828
148	0xbe3c4577	-0.18385874
149	0x3d54c077	0.05194136
150	0x3a96c544	0.0011502882
151	0x3d776fde	0.06040942
152	0x3e0b7863	0.13620143
153	0x3dbd8074	0.09253016
154	0x3e3a047d	0.18165775
155	0x3e9e2d0e	0.3089375
156	0x3ecfdd5c	0.4059857
157	0x3ed6ce4a	0.4195426
158	0x3ed7062c	0.41996896
159	0x3eb02665	0.34404293
160	0x3e11bffe	0.14233395
161	0x3e012504	0.12611777
162	0x3da4adb1	0.080409415
163	0xbd9c6318	-0.07636088
164	0xbd6c4127	-0.05767932
165	0xbc296198	-0.01033821
166	0x3d5b60e7	0.05355921
167	0x3d924f98	0.071440876
168	0x3df321a8	0.11871654
169	0xbd73a5ad	-0.059484173
170	0xbdaf1d02	-0.08550455
171	0x3c9601fc	0.018311493
172	0xbd97e5db	-0.07416888
173	0xbd00c8bc	-0.031441435
174	0x3d8be605	0.06830982
175	0x3cba22a7	0.022721602
176	0xbc2c9642	-0.010533871
177	0x3d9048d9	0.070451446
178	0x3d3bc57e	0.04584264
179	0xbd94d2c7	-0.07266765
180	0x3c75c25e	0.014999954
181	0xba455b51	-0.0007528561
182	0xbd0e731c	-0.034777746
183	0xbb930da9	-0.0044877124
184	0xbc322d3a	-0.010875041
185	0xbbd7ab24	-0.006581681
186	0xbc689cb0	-0.014197513
187	0xbc4e3366	-0.0125854965
188	0xbd98cc21	-0.074608095
189	0x3d362e6b	0.04447786
190	0x3ca98b5b	0.020696333
191	0x3c5dd9c3	0.013540688
192	0x3f007989	0.5018545
193	0x3f08b78a	0.5340506
194	0x3f1c3e7f	0.6103286
195	0x3d4f37f1	0.05059046
196	0x3e8539ef	0.26020762
197	0x3e9d17ff	0.3068237
198	0x3e86ee75	0.26353803
199	0x3eb9dc29	0.3630078
200	0x3ec32743	0.38115892
201	0x3d0189f9	0.03162572
202	0x3d847cc8	0.06469113
203	0xbbe599b0	-0.0070068464
204	0x3ce1baca	0.027554888
205	0x3c0b5997	0.008505247
206	0xbcc3d293	-0.02390412
207	0xbd814f4e	-0.06313954
208	0x3cdabe64	0.026702113
209	0x3d09b076	0.033615552
210	0x3bed46da	0.007241112
211	0x3dc866f8	0.09785265
212	0xbdab775e	-0.08372377
213	0x3e23095b	0.15921538
214	0xbddf5622	-0.109051004
215	0x3db2a291	0.08722413
216	0xbc6019ff	-0.013678073
217	0xbd960c7b	-0.07326599
218	0xbddf776f	-0.10911452
219	0xbe090af2	-0.13383082
220	0x3d8521e1	0.065006025
221	0xbd931032	-0.071808234
222	0x3c22f4ce	0.009946061
223	0x3bb96d9b	0.005658818
224	0x3cc60b25	0.024175236
225	0xbc434978	-0.011919372
226	0xbbed438c	-0.007240718
227	0xba12523e	-0.0005581713
228	0x3c389ea0	0.011268288
229	0x3e6c5652	0.23079804
230	0xbe228ae4	-0.15873295
231	0x3dcf958b	0.10135945
232	0xbdd5498c	-0.104144186
233	0xbf223c7f	-0.6337356
234	0x3de2bd90	0.110713124
235	0x3e7840b5	0.24243434
236	0x3e06a226	0.13147792
237	0xbeed9e4a	-0.46409827
238	0xbf12a2f6	-0.5727991
239	0xbf0d4d47	-0.5519604
240	0x3ed6826a	0.41896373
241	0x3e36b661	0.1784301
242	0x3ec5ad97	0.38609
243	0x3dc70897	0.09718435
244	0x3da50231	0.080570586
245	0x3cc7c233	0.024384594
246	0xbc804cb0	-0.015661567
247	0x3d1dbf3e	0.03851246
248	0x3d68f02b	0.056869667
249	0x3dae2ad3	0.08504262
250	0x3bf8bac9	0.007590626
251	0xbe26e210	-0.16297174
252	0xbe116f20	-0.14202547
253	0xbe2abeff	-0.16674422
254	0x3e7583d7	0.23976074
255	0xbc051127	-0.008121765

conv.0.bias f4 [32]
0	0x3e086474	0.1331957
1	0x3ceb1987	0.028698696
2	0x3d8b8aaf	0.06813561
3	0x3e3d1a78	0.18467128
4	0x3e8921a2	0.26783472
5	0x3e614409	0.2199861
6	0xbdf711a8	-0.120639145
7	0x3caf5066	0.021400642
8	0x3d27d005	0.040969867
9	0x3e001c16	0.12510714
10	0x3cd74169	0.026276307
11	0x3dc2496c	0.0948666
12	0xbe00407d	-0.125246
13	0xb9eb439d	-0.0004487307
14	0xbcce3e9b	-0.025176337
15	0xbddb11f9	-0.106967874
16	0xbd12a98d	-0.035806227
17	0x3d7ae81f	0.061256524
18	0x3e420ef5	0.18951018
19	0x3d705b6d	0.05868094
20	0x3cdc9378	0.026925787
21	0x3e980f7e	0.2969932
22	0x3e8ba5fe	0.2727508
23	0xbe01fde9	-0.12694515
24	0x3dd8bb31	0.10582579
25	0x3dcafcd0	0.099115014
26	0x3d29813a	0.041383006
27	0x3e3161d3	0.17322473
28	0xbd8077c4	-0.062728435
29	0xbbc46a91	-0.005994149
30	0x3e173a13	0.14768247
31	0x3e0a4497	0.13502727

conv.1.weight f4 [32]
0	0x3f900975	1.1252886
1	0x3f2ca494	0.67438626
2	0x3f885091	1.0649587
3	0x3f2d8a62	0.6778928
4	0x3f5cd076	0.86255586
5	0x3f0ff2a6	0.5622963
6	0x3f7c2b6e	0.9850377
7	0x3f3e6628	0.7437463
8	0x3ee0c43f	0.43899724
9	0x3f340a19	0.7032791
10	0x3f796701	0.97422796
11	0x3ee61728	0.44939542
12	0x3f3d17b3	0.7386429
13	0x3f1c3f08	0.6103368
14	0x3f27c656	0.6553701
15	0x3f82e4a9	1.0226032
16	0x3f3b6658	0.7320304
17	0x3f9034b6	1.1266086
18	0x3f42aa07	0.7604069
19	0x3f8616b5	1.047568
20	0x3f5ba5c9	0.85799843
21	0x3f57b76d	0.8426426
22	0x3f4901e9	0.7851854
23	0x3f837258	1.026927
24	0x3f637185	0.8884509
25	0x3fa79dfa	1.3095086
26	0x3f46c90e	0.77650535
27	0x3f161288	0.58622026
28	0x3f59b061	0.8503476
29	0x3f39b213	0.72537345
30	0x3f3f5659	0.7474113
31	0x3f64e7a5	0.8941596

conv.1.bias f4 [32]
0	0xbec0789b	-0.37592015
1	0xbee67d9d	-0.4501771
2	0xbeae8049	-0.3408225
3	0xbecc7811	-0.39935353
4	0xbebdcda5	-0.37070957
5	0xbf1f5928	-0.62245417
6	0xbeb20e87	-0.34776708
7	0xbea578d6	-0.32318753
8	0xbe788edf	-0.24273251
9	0xbef78b84	-0.4834863
10	0xbe8040b2	-0.2504936
11	0xbe88ba68	-0.26704717
12	0xbf0d0924	-0.5509207
13	0xbea073bc	-0.31338298
14	0xbe38669a	-0.1800789
15	0xbeae9080	-0.3409462
16	0xbeec5624	-0.4615947
17	0xbf149c47	-0.5805096
18	0xbedcd9ae	-0.43134826
19	0xbe968b00	-0.29402924
20	0xbeee0eef	-0.46495768
21	0xbf3524d5	-0.70759326
22	0xbf318efa	-0.6935879
23	0x3e08d63f	0.13362978
24	0xbdbd8b4d	-0.09255085
25	0xbe9b39d4	-0.30317557
26	0xbecaa7d8	-0.3958118
27	0xbf196472	-0.5991889
28	0xbea60325	-0.32424274
29	0xbe7aad20	-0.24480104
30	0xbedb6fca	-0.42858726
31	0xbee9f6c3	-0.45696077

conv.1.running_mean f4 [32]
0	0x3e2c03c0	0.16798306
1	0x3cf31b9a	0.029676247
2	0x3d08ae59	0.033369396
3	0x3e2b2ac9	0.1671554
4	0x3e8e4abf	0.27791402
5	0x3e623939	0.22092141
6	0xbe137445	-0.14399822
7	0x3cda8421	0.026674332
8	0x3d1235ab	0.035695713
9	0x3de9c52f	0.11414563
10	0xbc5989d0	-0.013277486
11	0x3de2cbe1	0.11074043
12	0xbdf5ca29	-0.120014496
13	0x3a9203a9	0.0011140007
14	0xbd82a126	-0.06378393
15	0xbde8e00b	-0.11370858
16	0xbd1ed741	-0.0387795
17	0x3dc373a2	0.095435396
18	0x3e376d00	0.17912674
19	0x3c370599	0.011170768
20	0x3d6e44fc	0.058171257
21	0x3e993c63	0.29928884
22	0x3e90dacf	0.28291938
23	0xbe064252	-0.13111237
24	0x3d619256	0.055071197
25	0x3d6fc00e	0.058532767
26	0x3d1cedf6	0.038312875
27	0x3e42f843	0.19040017
28	0xbd247b98	-0.04015693
29	0x3c0692a7	0.008213676
30	0x3e05784a	0.13034168
31	0x3de375d3	0.111064576

conv.1.running_var f4 [32]
0	0x40953086	4.6621733
1	0x40586cef	3.3816488
2	0x40b5a3d4	5.6762486
3	0x402cc44a	2.6994805
4	0x4099f926	4.8116636
5	0x404c2e2e	3.1903186
6	0x40c9b3d6	6.3032026
7	0x409eeed6	4.966655
8	0x3ff7f7d7	1.937251
9	0x40e2f160	7.0919647
10	0x40e0d495	7.02595
11	0x40c70b64	6.2201405
12	0x4111883a	9.095758
13	0x41068b36	8.408987
14	0x40b421b7	5.6291156
15	0x414e6b8d	12.9012575
16	0x40a68e50	5.204872
17	0x40ab2a62	5.3489237
18	0x41450f14	12.316181
19	0x412bd9c5	10.740666
20	0x40c7a43d	6.2387986
21	0x41026d07	8.151618
22	0x3fba252e	1.4542596
23	0x417a2b43	15.635562
24	0x40fd43cc	7.914526
25	0x40cde026	6.433612
26	0x41489070	12.535263
27	0x40479d63	3.1189811
28	0x40d341dc	6.6017895
29	0x403ec321	2.9806597
30	0x3f6b7f0b	0.9199073
31	0x408e262c	4.4421597

conv.5.weight f4 [64, 32, 3]
0	0x3c95a712	0.018268142
1	0x3de521d6	0.11188094
2	0xbdb1692f	-0.0866264
3	0xbdd63689	-0.104596205
4	0xbdfc0fee	-0.12307726
5	0xbe096987	-0.13419162
6	0xbea36faa	-0.3192113
7	0xbe90bedd	-0.28270617
8	0xbe81aa7f	-0.2532539
9	0x3ce8ae9b	0.02840357
10	0xbd5d2c81	-0.05399752
11	0xbd005e2e	-0.031339817
12	0xbb5d0f81	-0.0033731165
13	0x3e3360af	0.1751735
14	0xbe097c6a	-0.13426366
15	0x3b82d95b	0.003993196
16	0x3e8124fb	0.25223526
17	0xbdbbcc49	-0.09169824
18	0xbd15f5c6	-0.03661134
19	0x3e3497bb	0.17636006
20	0xbcee241e	-0.029069956
21	0x3e04e4ab	0.12977855
22	0xbd03f247	-0.032213476
23	0x3dc6bd07	0.09704023
24	0x3cbbade9	0.022910075
25	0x3d058d85	0.032605667
26	0xbd95235d	-0.07282136
27	0x3dcd059d	0.10010836
28	0x3df10d44	0.11770108
29	0x3e4edc77	0.20201288
30	0xbd37c567	-0.044865992
31	0xbd187e73	-0.037229966
32	0x39ff9c0b	0.0004875365
33	0xbba194b8	-0.0049310587
34	0x3d177d92	0.036984988
35	0x3c080c75	0.008303751
36	0x3cb2eb9f	0.021840869
37	0x3dfcaec6	0.12338023
38	0x3e6f566f	0.23372816
39	0x3db1c6ba	0.08680482
40	0x3d389695	0.04506548
41	0x3da735f0	0.08164585
42	0x3b0a00b1	0.002105754
43	0x3db5ce9e	0.088773
44	0xbd601790	-0.05470997
45	0x3e22ebeb	0.15910308
46	0x3de4f633	0.11179771
47	0x3e604126	0.21899852
48	0x3ca2ee7b	0.019889107
49	0xbd6afb26	-0.05736842
50	0x3d2c2ebb	0.042036753
51	0x3da8f8aa	0.08250554
52	0x3d8026c1	0.06257392
53	0xbddb7f13	-0.10717597
54	0x3e43d890	0.19125581
55	0x3d9fd338	0.07803959
56	0x3d8f28cb	0.069902025
57	0xbc77edb5	-0.015132357
58	0x3d1a611e	0.037690274
59	0xbe098342	-0.13428977
60	0x3eda39e3	0.4262229
61	0x3e982175	0.29713026
62	0x3ee1d4cc	0.44107664
63	0xbddf2431	-0.10895575
64	0xbe1ac655	-0.1511472
65	0xbf140f8c	-0.5783622
66	0xbe3525a6	-0.17690143
67	0x3ee84ba1	0.453702
68	0xbea59cf5	-0.3234631
69	0xbdc5491a	-0.09633084
70	0xbdb9c37f	-0.09070491
71	0xbd91dcd6	-0.07122199
72	0xbe2f3ddb	-0.1711344
73	0xbe581011	-0.21099879
74	0xbea4b615	-0.32170168
75	0xbee7cabb	-0.4527186
76	0xbebe964d	-0.37224045
77	0xbf054b6a	-0.520682
78	0x3db6f29e	0.08932994
79	0x3e93194a	0.28730232
80	0xbe736ffa	-0.23773184
81	0x3d5af6c3	0.053457987
82	0x3e6e2899	0.23257674
83	0x3da8c962	0.08241536
84	0x3e512f05	0.20428093
85	0x3e149832	0.14511183
86	0x3d868230	0.065678
87	0xbe19fbc6	-0.1503745
88	0xbe49c1e9	-0.19702877
89	0x3db3306e	0.087494716
90	0x3c951746	0.018199574
91	0x3eba6277	0.36403248
92	0xbdbe4df2	-0.09292211
93	0xbdb44207	-0.08801656
94	0xbdde2644	-0.10847142
95	0xbe1b58dd	-0.15170617
96	0xbd44f1c5	-0.048082132
97	0x3bf3931f	0.0074333097
98	0xbd618c34	-0.05506535
99	0x3cbadf55	0.022811571
100	0x3cedb8b4	0.029018737
101	0xbc9da0cc	-0.019241713
102	0x3ec63073	0.3870884
103	0x3efa1df2	0.4885097
104	0x3f16eba2	0.589533
105	0x3e147cde	0.14500758
106	0xbcf12508	-0.029436603
107	0x3e927397	0.28603813
108	0x3ec5f72a	0.38665134
109	0x3c9f5809	0.019451158
110	0x3e2d6c25	0.16935785
111	0xbb9837db	-0.0046453304
112	0xbd4c1e6e	-0.049833708
113	0x3d9b7363	0.07590368
114	0xbd550de6	-0.052015208
115	0x3d66afe5	0.05632009
116	0x3d06f4e1	0.03294838
117	0x3e0070c5	0.12543018
118	0x3dda1cb4	0.10650006
119	0x3e643757	0.22286735
120	0xbdc97abe	-0.09837864
121	0xbdd204c2	-0.10254814
122	0x3d57771d	0.05260383
123	0x3c3e1991	0.011602775
124	0xbdae6645	-0.085156
125	0xbd5cdf62	-0.053923972
126	0xbe0d8b24	-0.13822609
127	0xbdb1d0b4	-0.08682385
128	0xbd9dda62	-0.07707669
129	0xbd8d1405	-0.06888584
130	0xbcd24436	-0.025667291
131	0xbd8de0fc	-0.06927678
132	0xbdf7e32b	-0.12103876
133	0xbe964506	-0.29349536
134	0xbd746105	-0.059662838
135	0xbde9292e	-0.113848075
136	0xbe6aff80	-0.22949028
137	0xbe21e05b	-0.15808241
138	0xbe08d25e	-0.13361499
139	0xbd045bfe	-0.032314293
140	0xbdcc5116	-0.099764034
141	0xbe38606f	-0.18005536
142	0xbdc178c0	-0.09446859
143	0xbdd13069	-0.10214312
144	0xbde98b1e	-0.114034876
145	0xbe212fc2	-0.15740874
146	0xbe591138	-0.21197975
147	0xbb88b237	-0.0041716355
148	0x3cf738a6	0.03017838
149	0x3d24e184	0.04025413
150	0x3d15849b	0.036503416
151	0x3dd35b16	0.10320108
152	0x3e255ac6	0.16147909
153	0xbcaafec4	-0.020873435
154	0x3d605dc4	0.054776922
155	0xbca8919e	-0.020577248
156	0xbd9da654	-0.0769774
157	0x3d201aae	0.039087944
158	0xbd8222e0	-0.06354308
159	0x3d37c0b4	0.04486151
160	0x3dd9494d	0.10609684
161	0x3cca1e38	0.024672613
162	0xbd641abf	-0.05568957
163	0x3cf0a4df	0.029375492
164	0x3e1489a8	0.14505637
165	0x3cffcfc1	0.031226994
166	0x3da52a03	0.08064654
167	0x3bfb3f3b	0.00766745
168	0xbd85acde	-0.065271124
169	0xbb8a1423	-0.0042138263
170	0x3d692a0e	0.056924872
171	0x3e561247	0.2090541
172	0x3def022d	0.11670337
173	0x3fa23f83	1.2675632
174	0x3dbd77ee	0.092513904
175	0x3e4e6e58	0.2015928
176	0x3d0912e9	0.0334653
177	0xbdd2d52d	-0.10294566
178	0xbd593b1c	-0.053034887
179	0x3d0c710b	0.034287494
180	0xbd5a7dc6	-0.053342603
181	0x3dd30c05	0.10305027
182	0x3bc8b18b	0.0061246804
183	0xbe05bd34	-0.13060457
184	0xbd91d993	-0.07121577
185	0xbd6ecdc5	-0.058301706
186	0x3cef7f92	0.029235635
187	0x3e49206e	0.19641277
188	0x3e0ed106	0.13946924
189	0x3d3e98d0	0.046532452
190	0x3d9733a1	0.07382894
191	0x3dded26d	0.10879979
192	0xbd9d9a7f	-0.076954834
193	0xbda46ee6	-0.08028965
194	0x3ce0a016	0.027420085
195	0x3dc48bb0	0.09596956
196	0xbcc1d642	-0.023661736
197	0xbd3e4365	-0.04645099
198	0x3e93cf59	0.2886913
199	0x3e95845d	0.29202548
200	0x3eead955	0.45868936
201	0x3e133ff9	0.14379872
202	0xbcbd8305	-0.023133764
203	0xbe2344c8	-0.15944207
204	0xbc4c7aa5	-0.012480413
205	0xbd56bf6f	-0.05242866
206	0xbce46bff	-0.027883528
207	0xbd88ec6a	-0.066857174
208	0xbdc6791d	-0.09691069
209	0xbe07bd1f	-0.13255738
210	0xbf0f10b8	-0.55884886
211	0xbf0f5332	-0.5598632
212	0xbeff5033	-0.49865875
213	0x3df0b9ba	0.117541745
214	0xbd91785b	-0.07103034
215	0xbd493346	-0.049121164
216	0xbd5311f5	-0.051530797
217	0xbdd2b62d	-0.102886535
218	0xbd0db926	-0.0346004
219	0x3d450bdb	0.04810701
220	0xbde510e7	-0.111848645
221	0x3dac2f15	0.08407418
222	0xbe8fed37	-0.28110668
223	0xbe6f14f9	-0.23347844
224	0xbe8c17f9	-0.2736204
225	0x3d090717	0.033454027
226	0xbe0efbfa	-0.13963309
227	0x3d85bd5b	0.06530257
228	0xbe1ed824	-0.15512139
229	0xbe367ef4	-0.17821866
230	0xbe75e847	-0.24014388
231	0xbcb1719d	-0.02166062
232	0xbe5e4acd	-0.21708222
233	0xbe58d681	-0.21175577
234	0xbc0091f2	-0.007847296
235	0xbdf07327	-0.117407136
236	0xbe26abb9	-0.16276444
237	0xbddd5393	-0.10806956
238	0xbe17dfcf	-0.1483147
239	0xbd11c346	-0.035586618
240	0xbd755bc6	-0.059901975
241	0xbda95976	-0.082690164
242	0xbd5d3f61	-0.05401552
243	0xbd884c43	-0.06655171
244	0x3c3a392d	0.011366171
245	0xbcd664c8	-0.026171103
246	0xbc08487f	-0.008318066
247	0x3d5eb371	0.054370347
248	0x3daec53f	0.085337155
249	0xbf27cec2	-0.6554986
250	0xbf39c7e2	-0.7257062
251	0xbf22267a	-0.6333996
252	0xbdcdc808	-0.100479186
253	0xbcad50c5	-0.021156678
254	0xbdfe019f	-0.12402653
255	0x3e959c2d	0.29220715

conv.5.bias f4 [64]
0	0xbc5e4e2e	-0.013568444
1	0x3e114ce9	0.14189495
2	0xbd13adac	-0.0360543
3	0x3db07570	0.086161494
4	0xbe1fdd8f	-0.15611862
5	0x3dbc24df	0.0918672
6	0x3cf0197a	0.029309023
7	0xbcf6f95f	-0.030148206
8	0x3d41d75d	0.047324527
9	0xbd4ad15e	-0.049516074
10	0xbd505689	-0.050863776
11	0xbd01c7ed	-0.031684805
12	0xbcd3b656	-0.02584378
13	0xbd4984eb	-0.049199026
14	0xbcad9677	-0.021189911
15	0x3dd50d17	0.10402887
16	0x3e107b5b	0.14109556
17	0x3d0420bb	0.032257777
18	0x3cde949e	0.027170476
19	0x3c8199c0	0.015820384
20	0x3b2c2409	0.0026266596
21	0x3c600497	0.013672969
22	0x3d3ebfca	0.046569623
23	0xbd96042e	-0.07325016
24	0x3d8729bf	0.06599759
25	0xbd496d81	-0.049176697
26	0xbd99065f	-0.07471918
27	0x3da9e39f	0.082953684
28	0xbd7e3dd2	-0.062070675
29	0x3ad1b030	0.0015997943
30	0x3d874091	0.06604112
31	0x3db5a289	0.08868892
32	0x3e13a46e	0.14418194
33	0x3d53a9af	0.051675495
34	0xbc516223	-0.012779745
35	0x3bd8e545	0.006619128
36	0xbc6ed067	-0.014576054
37	0xbd2ed235	-0.042680938
38	0x3d664ab2	0.05622358
39	0x3d984b89	0.07436282
40	0xbd3ab903	-0.045586597
41	0xbd34a758	-0.044104904
42	0x3cec743e	0.028864022
43	0xbd45e1a0	-0.048310876
44	0xbda23097	-0.07919424
45	0x3dd41728	0.10355979
46	0xbd61d4ea	-0.05513469
47	0xbb03275a	-0.002001247
48	0xbcc079b1	-0.023495527
49	0x3ce476ed	0.02788874
50	0xbcc229c4	-0.023701556
51	0x3d9df1fb	0.0771217
52	0xbdad91f2	-0.084751025
53	0xbc0a5e79	-0.008445376
54	0x3dc03959	0.09385938
55	0x3d0647e9	0.032783423
56	0xbc38b947	-0.011274642
57	0xbc81fcd9	-0.015867637
58	0x3da0e4eb	0.07856163
59	0x3d9aae89	0.07552821
60	0xbd5dd05c	-0.054153785
61	0x3ce8fd16	0.028440993
62	0xbaf380f0	-0.0018577855
63	0x3cff7a27	0.031186176

conv.6.weight f4 [64]
0	0x3f766795	0.96251804
1	0x3f7d7555	0.9900716
2	0x3f86c2f2	1.0528243
3	0x3f5588e1	0.83411986
4	0x3f750f81	0.9572678
5	0x3f4fe6eb	0.8121173
6	0x3f625c3f	0.88422006
7	0x3f6f0791	0.9337092
8	0x3f80c03f	1.0058669
9	0x3f704f47	0.9387097
10	0x3f704285	0.938515
11	0x3f58a44e	0.8462571
12	0x3f484f3e	0.78245914
13	0x3f344f21	0.7043324
14	0x3f6a30f4	0.91480947
15	0x3f5aef77	0.85521644
16	0x3f8c9920	1.098423
17	0x3f6f6f71	0.9352942
18	0x3f7f4546	0.9971508
19	0x3f57d0dd	0.84303075
20	0x3f721a8e	0.9457177
21	0x3f679f06	0.90477026
22	0x3f77345b	0.96564263
23	0x3f82ff1c	1.0234103
24	0x3f6e2b59	0.93034893
25	0x3f664c2d	0.89959985
26	0x3f844b49	1.0335475
27	0x3f89fe5c	1.0780749
28	0x3f4e2ff3	0.80541915
29	0x3f5e6f9a	0.8688904
30	0x3f851d4a	1.0399563
31	0x3f86883a	1.0510323
32	0x3f81cc7f	1.0140532
33	0x3f66b2ae	0.90116394
34	0x3f48257a	0.78182185
35	0x3f75c6f9	0.96006733
36	0x3f5d9b54	0.86565137
37	0x3f288cc6	0.65839803
38	0x3f80583a	1.0026925
39	0x3f6a3047	0.91479915
40	0x3f649c2d	0.89300805
41	0x3f5d4cf6	0.8644556
42	0x3f620f75	0.88304836
43	0x3f486ded	0.78292733
44	0x3f71c3c3	0.94439334
45	0x3f423b62	0.7587186
46	0x3f4b9b7b	0.7953412
47	0x3f9720e5	1.1806914
48	0x3f6ed990	0.93300724
49	0x3f752a7c	0.9576795
50	0x3f62da9f	0.8861484
51	0x3f6c9ffe	0.9243163
52	0x3f66f6aa	0.9022013
53	0x3f7295fe	0.9476012
54	0x3f739d00	0.9516144
55	0x3f523f65	0.8212798
56	0x3f625d05	0.88423187
57	0x3f3da3f3	0.7407829
58	0x3f80d392	1.0064566
59	0x3f67e3e1	0.9058209
60	0x3f57ccec	0.8429706
61	0x3f747f2d	0.95506555
62	0x3f653579	0.8953472
63	0x3f6ca603	0.92440814

conv.6.bias f4 [64]
0	0xbeb7dece	-0.35912174
1	0xbe2ac130	-0.16675258
2	0xbefb5e05	-0.4909517
3	0xbefbede9	-0.4920495
4	0xbea8b0cf	-0.32947394
5	0xbeb9bce0	-0.36276913
6	0xbecdd05b	-0.40198025
7	0xbe849268	-0.2589295
8	0xbec08ca3	-0.37607297
9	0xbebaa91f	-0.36457154
10	0xbf04494b	-0.51674336
11	0xbe8f5348	-0.27993226
12	0xbf3cf30b	-0.73808354
13	0xbdcc8658	-0.099865615
14	0xbeb357ba	-0.35027868
15	0xbebdd548	-0.37076783
16	0xbe9465c2	-0.28983885
17	0xbeaa0f71	-0.33214906
18	0xbee81a18	-0.45332408
19	0xbdded37b	-0.108801804
20	0xbeb452c2	-0.3521939
21	0xbeffd293	-0.49965343
22	0xbe12bcc0	-0.14329815
23	0xbedec8ce	-0.43512577
24	0xbe097044	-0.13421732
25	0xbec25a6a	-0.37959605
26	0xbed3bc3d	-0.41354552
27	0xbeb1cad9	-0.34725073
28	0xbf0a72e8	-0.54081583
29	0xbe7ec489	-0.2487966
30	0xbe049660	-0.12947989
31	0xbe80dc76	-0.25168198
32	0xbf1e0a89	-0.61734825
33	0xbeef7624	-0.46769822
34	0xbe11881e	-0.14212081
35	0xbe9af966	-0.302684
36	0xbe89f58f	-0.2694516
37	0xbec8ea53	-0.39241275
38	0xbee86b2d	-0.4539427
39	0xbf011d6c	-0.5043552
40	0xbe9c20bf	-0.30493733
41	0xbe766582	-0.2406216
42	0xbea94905	-0.33063522
43	0xbf67b185	-0.9050525
44	0xbe84191f	-0.25800416
45	0xbeb3052c	-0.34964883
46	0xbf01b70d	-0.5066994
47	0xbe8b1355	-0.27163187
48	0xbebbadf6	-0.3665616
49	0xbf194861	-0.59876066
50	0xbe93446c	-0.2876314
51	0xbeaab8df	-0.3334417
52	0xbe85ee0a	-0.26158172
53	0xbeb140cb	-0.34619746
54	0xbf0b7b30	-0.54484844
55	0xbec2ceb5	-0.3804833
56	0xbebf6cb3	-0.37387618
57	0xbf03234e	-0.51225746
58	0xbe937824	-0.28802598
59	0xbf3adc76	-0.72992647
60	0xbe85c382	-0.26125723
61	0xbf1e60a5	-0.6186622
62	0xbef84df3	-0.4849697
63	0xbecc53bd	-0.39907637

conv.6.running_mean f4 [64]
0	0xbed7b414	-0.42129576
1	0x3f403ae6	0.7508987
2	0xbf54d59f	-0.8313846
3	0x3f760f15	0.96116763
4	0xbf8d617d	-1.1045376
5	0xbf13b2c2	-0.5769464
6	0xbf8651a8	-1.049367
7	0xbeea5cc0	-0.45773888
8	0xbf28fd67	-0.6601166
9	0xbf47fa0e	-0.7811593
10	0xbf61eb64	-0.882498
11	0xbfc46a19	-1.5344878
12	0x3f4a7c27	0.7909569
13	0x3dd5bf33	0.10436859
14	0xbefce863	-0.49396047
15	0xbf1f01a8	-0.621119
16	0xbe8b892c	-0.2725309
17	0xbe3a792e	-0.18210289
18	0xbf7eeafb	-0.995773
19	0x3dd393bb	0.10330912
20	0xbf20269e	-0.62558925
21	0xbf689b2e	-0.90861785
22	0xbfacb1f9	-1.3491813
23	0xbf1de531	-0.61677843
24	0xbe9ae078	-0.3024938
25	0xbf215173	-0.63014907
26	0xbfad0a56	-1.3518779
27	0xbe042103	-0.12903218
28	0xbf511b9c	-0.81682754
29	0xbf8b7f19	-1.0898162
30	0xbea3beed	-0.31981602
31	0xbd9d3436	-0.07675974
32	0xbfda58fc	-1.7058406
33	0xbed4a834	-0.4153458
34	0xbefaa5d8	-0.48954654
35	0xbf7df953	-0.99208564
36	0xbf9ebe3d	-1.2401806
37	0x3d9b8b7b	0.07594963
38	0xbfc6677d	-1.5500332
39	0xbf6901b6	-0.91018236
40	0xbc9adbb2	-0.018903587
41	0x3f1ddbb0	0.6166334
42	0xbf4f42ba	-0.8096119
43	0xbdb802a2	-0.08984877
44	0xbfc5fdca	-1.5468075
45	0xbf72fb2c	-0.9491451
46	0xbf7acd79	-0.97969776
47	0xbf4158d7	-0.75526184
48	0xbf8642c8	-1.048913
49	0xbfece85a	-1.8508408
50	0xbf4c5cd0	-0.7982912
51	0xbf3d5789	-0.73961693
52	0xbf3de6cc	-0.74180293
53	0xbf4635df	-0.7742595
54	0xbf27af20	-0.65501595
55	0xbeae0393	-0.33987102
56	0xbe9dcda8	-0.30820966
57	0xbf10a8c1	-0.565075
58	0xbe521047	-0.20514022
59	0x3f19cbc0	0.6007652
60	0xbf5bb423	-0.8582174
61	0x3f108376	0.56450593
62	0x3e58ab0e	0.21159002
63	0x3f4fb640	0.81137466

conv.6.running_var f4 [64]
0	0x3f50af46	0.81517446
1	0x3f943975	1.1580034
2	0x3f7f2cfd	0.9967802
3	0x3f339808	0.70153856
4	0x3f8e14ec	1.1100135
5	0x3f77dabb	0.9681813
6	0x3fc9817f	1.5742644
7	0x3fa5c730	1.2951412
8	0x3f20402a	0.62597907
9	0x3f0f18ac	0.5589702
10	0x3ffdb159	1.9819747
11	0x401fe2b0	2.498211
12	0x3f39a0d7	0.7251105
13	0x3fc1f1b3	1.5151886
14	0x3ef7128a	0.48256332
15	0x3fc682ff	1.5508727
16	0x3faaee6b	1.3354009
17	0x3f9a7565	1.2067076
18	0x3fd411c5	1.6567923
19	0x3fd52642	1.66523
20	0x3f7387d6	0.95129144
21	0x3f8867c5	1.0656668
22	0x40c24be7	6.0717654
23	0x3faea83b	1.364509
24	0x3ebc0cf6	0.36728638
25	0x3f3b1e6b	0.7309329
26	0x4021fa5c	2.5309057
27	0x3ee72890	0.45148134
28	0x3efa5af5	0.4889752
29	0x40732477	3.7991006
30	0x403a72e6	2.9132628
31	0x3fa74de5	1.3070647
32	0x4034cfe3	2.8251884
33	0x3f1c74bf	0.6111564
34	0x401c95ef	2.4466512
35	0x4068c9d3	3.6373184
36	0x3fc79e3c	1.5595164
37	0x3f267e4f	0.6503648
38	0x400fdec7	2.2479722
39	0x400bf5af	2.1868703
40	0x3ef1ecb6	0.4725091
41	0x3f303ad9	0.68839794
42	0x40252814	2.5805712
43	0x3e874517	0.264199
44	0x408e8ef3	4.45495
45	0x3f85d873	1.045668
46	0x3f8acb73	1.0843338
47	0x40352644	2.8304605
48	0x4027ad7f	2.6199644
49	0x402e23b2	2.7209287
50	0x402f3860	2.7378159
51	0x3fa046fc	1.2521663
52	0x3fc62527	1.5480088
53	0x3fc1588a	1.5105145
54	0x3fdad686	1.7096717
55	0x3f5c91f3	0.861602
56	0x3f852b47	1.0403832
57	0x3eeeae13	0.46617183
58	0x3fe5e77a	1.7961266
59	0x3f595fca	0.8491179
60	0x3f7efb26	0.9960197
61	0x3e82d759	0.25554922
62	0x3f6ea450	0.9321947
63	0x3fc11898	1.508563

conv.10.weight f4 [128, 64, 3]
0	0x3cf2eae5	0.029653022
1	0x3d023511	0.03178889
2	0x3df0b863	0.11753919
3	0x3da97482	0.08274175
4	0x3d83d7a3	0.06437614
5	0x3e6026f6	0.21889862
6	0x3e05b479	0.13057126
7	0x3eaa8f1d	0.33312312
8	0x3de1021f	0.10986733
9	0x3e823818	0.2543342
10	0x3dac7f12	0.08422674
11	0x3da8d101	0.08242989
12	0xbe4ebf3e	-0.2019014
13	0xbcaf640b	-0.021410009
14	0xbd9e9ca0	-0.077447176
15	0x3ca89aaf	0.020581571
16	0x3d96f0cf	0.07370149
17	0x3e48e59c	0.19618839
18	0xbdaafa3e	-0.08348511
19	0x3d335eb7	0.0437915
20	0x3d82d643	0.063885234
21	0x3da2d517	0.079508
22	0x3de08f3d	0.109648205
23	0x3cd388a3	0.02582199
24	0xbdf2e3db	-0.11859866
25	0xbe3c5319	-0.18391074
26	0x3d8a51f9	0.06753916
27	0xbe9976b4	-0.29973376
28	0x3db7d534	0.08976212
29	0xbe782506	-0.24232873
30	0x3d92e38f	0.071723096
31	0x3e0252fb	0.12726967
32	0x3de11923	0.109911226
33	0xbc8f59d5	-0.01749889
34	0x3e533590	0.20625901
35	0x3b6fb8f2	0.0036578742
36	0x3ec623d8	0.38699222
37	0x3e2b084e	0.16702387
38	0x3c63e898	0.013910435
39	0xbc8e89c2	-0.017399672
40	0x3d24e065	0.04025306
41	0x3caabe16	0.020842593
42	0x3dbdcb6d	0.09267316
43	0xbb643036	-0.0034818775
44	0xbb6305c8	-0.0034640897
45	0xbbeea18a	-0.0072824406
46	0xbcfbf290	-0.030755311
47	0x3d168c4a	0.036754884
48	0x3dffc995	0.124896206
49	0x3e8c5eaf	0.27415988
50	0x3d6c684b	0.05771665
51	0x3db50db4	0.08840504
52	0x3ca6b0c4	0.02034796
53	0x3de4214a	0.11139162
54	0x3d33bbfe	0.043880455
55	0x3d9a4311	0.07532323
56	0x3d4e6c62	0.05039633
57	0x3d9fe477	0.07807248
58	0x3cec53b3	0.028848505
59	0x3de8bd02	0.113641754
60	0x3e1324b7	0.14369474
61	0x3e290d25	0.1650892
62	0x3e33e736	0.17568669
63	0x3deea478	0.11652464
64	0x3e82ddc5	0.25559822
65	0xbda08310	-0.07837498
66	0xbd9ca5ff	-0.07648849
67	0xbdb8e14a	-0.090273455
68	0xbd824ec1	-0.06362677
69	0x3cc8d244	0.024514325
70	0x3e1f77ed	0.15573092
71	0x3da3032a	0.07959588
72	0xbea6abbb	-0.32552895
73	0xbe8c287d	-0.2737464
74	0xbe21e80b	-0.15811174
75	0x3dad84a2	0.08472563
76	0xbcd0ad72	-0.02547333
77	0xbe568a93	-0.209513
78	0xbeec1a7b	-0.46113953
79	0xbec7245d	-0.3889493
80	0xbead5956	-0.3385722
81	0x3e32c9e4	0.17459828
82	0x3dc65472	0.096840754
83	0x3e3449d9	0.17606296
84	0xbcd26b31	-0.025685878
85	0xbc0c2591	-0.008553878
86	0xbdd462c1	-0.10370398
87	0xbd96e660	-0.07368159
88	0xbdb122a9	-0.08649189
89	0xbeda15ce	-0.4259476
90	0x3db0a6e1	0.086255796
91	0x3e024944	0.12723261
92	0x3e1a5b4b	0.15073888
93	0xbd0194cc	-0.031636044
94	0xbd55b1fa	-0.052171685
95	0x3d9dcc2d	0.07704959
96	0x3e529508	0.20564663
97	0x3e7a5b62	0.24448922
98	0x3e4b6144	0.19861323
99	0x3e4e8e8b	0.20171563
100	0x3e24e48c	0.16102809
101	0xbd21116b	-0.03932325
102	0x3d2de974	0.042458966
103	0xbd23e1be	-0.040010206
104	0xbe25149e	-0.16121146
105	0x3bbdadcb	0.00578854
106	0xbd17a85c	-0.037025794
107	0xbea8d03e	-0.32971376
108	0x3d789b45	0.06069495
109	0x3e8d429c	0.2758988
110	0x3e2f9cea	0.17149702
111	0x3e9074fc	0.28214252
112	0x3e66db05	0.22544487
113	0x3e40ee86	0.1884099
114	0x3e182d31	0.14860989
115	0xbd4a04d6	-0.04932102
116	0x3d5d3520	0.054005742
117	0x3d3e6574	0.046483472
118	0x3dd784c0	0.10523367
119	0x3e232877	0.15933405
120	0xbc462c00	-0.012095451
121	0xbcccf8d0	-0.025020987
122	0x3d341f01	0.04397488
123	0x3d7dfa48	0.062006265
124	0x3dade520	0.08490968
125	0x3deed04c	0.11660823
126	0xbe13ce25	-0.14434107
127	0xbc2daccb	-0.010600279
128	0xbe27f82c	-0.16403264
129	0x3dc29b50	0.0950228
130	0x3e11bd8e	0.14232466
131	0x3e0f9316	0.14020953
132	0x3d07c2b1	0.033144657
133	0x3da9ef56	0.08297603
134	0xbec2b2af	-0.3802695
135	0x3d7536fa	0.059866883
136	0x3ea42ed1	0.32066968
137	0x3ef2b36a	0.47402507
138	0xbe8ae0ff	-0.27124783
139	0xbe42fb67	-0.19041215
140	0xbe84425b	-0.25831875
141	0xbcf0ddd0	-0.029402643
142	0xbbdfabf5	-0.006825919
143	0x3da20b82	0.07912351
144	0xbec2a762	-0.38018328
145	0xbdc512be	-0.096227154
146	0xbee5e203	-0.44898996
147	0x3e2bb01c	0.16766399
148	0x3e3285f6	0.17433915
149	0x3e2ecdc8	0.17070687
150	0xbde7b8ed	-0.11314569
151	0xbe0a692b	-0.13516681
152	0xbce56cf0	-0.028006047
153	0xbdb07268	-0.08615571
154	0xbdba8622	-0.09107615
155	0xbe565730	-0.20931697
156	0x3da00a84	0.07814506
157	0x3e15f28d	0.14643307
158	0x3e2f71a3	0.17133193
159	0xbe876941	-0.2644749
160	0xbe344c1f	-0.17607163
161	0xbeaa702f	-0.33288714
162	0xbdc022ea	-0.09381659
163	0x3d10bfe3	0.035339247
164	0xbda86420	-0.08222222
165	0xbdab236a	-0.08356364
166	0x3dabd1a6	0.08389597
167	0x3e42986b	0.19003455
168	0xbd9efdc6	-0.07763247
169	0x3e4cce57	0.20000587
170	0x3de5a936	0.11213915
171	0xbd6fe5ab	-0.058568638
172	0x3ce05c91	0.02738789
173	0x3dc34958	0.095354736
174	0x3d13e9ac	0.03611152
175	0x3e57dc22	0.21080068
176	0x3e10ca6b	0.14139716
177	0x3e9f368e	0.3109631
178	0x3edac92a	0.427316
179	0x3f290ec8	0.6603818
180	0xbe714031	-0.23559643
181	0xbe55e65a	-0.20888653
182	0xbea9e694	-0.3318373
183	0x3ec72100	0.38892365
184	0x3e8a9242	0.2706471
185	0x3edebe92	0.4350477
186	0x3e83d8c1	0.25751308
187	0x3e12b911	0.1432841
188	0x3d9895ee	0.07450472
189	0x3e3d3aa0	0.18479395
190	0x3e2520cd	0.16125794
191	0x3e9264b3	0.28592452
192	0xbd609ce8	-0.054837137
193	0xbed91cf7	-0.4240491
194	0xbecfa9a0	-0.405591
195	0xbe4b7b6b	-0.19871299
196	0xbe8ea7a1	-0.27862266
197	0xbe942243	-0.2893239
198	0xbe51b663	-0.20479731
199	0xbd0c2724	-0.034217015
200	0xbe0c49e1	-0.13700058
201	0xbcb78183	-0.022400623
202	0xbe09c098	-0.13452375
203	0xbd98cc48	-0.074608386
204	0x3da1222f	0.07867848
205	0x3c46a260	0.012123674
206	0x3dc1de29	0.09466202
207	0xbe7fb1fc	-0.2497024
208	0xbde2b809	-0.11070258
209	0x3da16b96	0.078818485
210	0x3d0bd64d	0.03413992
211	0x3d3c4944	0.04596831
212	0x3dcfc174	0.1014432
213	0xbe0b6fa3	-0.13616805
214	0xbd1b16f2	-0.03786368
215	0x3c7d705f	0.015468686
216	0xbc001f31	-0.007819937
217	0x3e5fc4ef	0.21852468
218	0x3e83e365	0.25759426
219	0x3d55524b	0.052080434
220	0x3e00f550	0.1259358
221	0xbdd51354	-0.10404077
222	0x3c54475a	0.012956465
223	0xbe2af47c	-0.16694826
224	0xbd7f2f84	-0.062301174
225	0xbe2a7310	-0.16645455
226	0xbc1fec61	-0.009760947
227	0xbe3e4f19	-0.18584861
228	0xbcc4ab4c	-0.024007462
229	0xbe3f8f87	-0.18707095
230	0xbe19c058	-0.1501478
231	0x3d314a2b	0.043283623
232	0xbd2efefe	-0.04272365
233	0x3d0a7d0e	0.033810668
234	0x3e308ada	0.17240468
235	0xbddc5165	-0.10757712
236	0xbe30c9f0	-0.17264533
237	0xbb306854	-0.0026917653
238	0xbcfed601	-0.031107904
239	0x3c5959d5	0.0132660465
240	0xbe35fc92	-0.17772129
241	0xbd0a6282	-0.03378535
242	0x3d431a5f	0.04763257
243	0x3d9d7f29	0.076902695
244	0xbcaaef77	-0.020866139
245	0x3d7c6698	0.06162128
246	0xbd133f50	-0.03594905
247	0xbe754a4f	-0.23954128
248	0x3e03786d	0.12838908
249	0xbdaaaea4	-0.08334091
250	0xbe1f2a95	-0.15543588
251	0x3c442933	0.011972713
252	0x3e230733	0.15920715
253	0xbd047c74	-0.03234525
254	0xbb1e9732	-0.0024199006
255	0xbf08a0f7	-0.5337061

conv.10.bias f4 [128]
0	0x3d9a0617	0.07520693
1	0x3ced0f65	0.028938005
2	0x3b6914c6	0.003556536
3	0x3cc1430d	0.023591543
4	0x3d134b2d	0.035960365
5	0x3d2cee46	0.042219423
6	0xbd7c7555	-0.061635334
7	0x3cd0ed41	0.025503756
8	0x3c69da9f	0.014273315
9	0xbd344441	-0.044010404
10	0xbd3071d1	-0.043077294
11	0x3cb6e37c	0.02232527
12	0x3d6e597d	0.05819081
13	0xbd89be4c	-0.067257494
14	0xbcb322db	-0.021867206
15	0x3ca1ec81	0.019766094
16	0x3c4799ba	0.012182647
17	0xbd0ba382	-0.03409148
18	0xbcc136e9	-0.023585754
19	0xbd1885a1	-0.037236813
20	0x3cff6b62	0.031179134
21	0xbcc3a798	-0.023883626
22	0x3d512357	0.051059093
23	0x3d84fb79	0.06493277
24	0x3d41b1d9	0.04728875
25	0x3d2d7406	0.042346977
26	0xbcc857a2	-0.02445585
27	0x3d33cc5c	0.043896064
28	0x3d8a4b37	0.06752627
29	0xbd248e2c	-0.04017465
30	0xbd7b3311	-0.061327998
31	0xbca0765d	-0.01958769
32	0xbc674307	-0.014115102
33	0xbd246521	-0.040135507
34	0xbd65d9c1	-0.05611587
35	0xbd1b5e00	-0.037931442
36	0xbd8e115c	-0.06936905
37	0x3d479dbe	0.04873442
38	0x38589aef	5.1642706e-05
39	0x3d33efed	0.043929983
40	0xbcfa3e3a	-0.03054725
41	0x3d868e22	0.065700784
42	0x3b81f066	0.0039654253
43	0x3c9067ec	0.017627679
44	0xbcfb685d	-0.030689413
45	0x3d821279	0.0635118
46	0xbd8bf89d	-0.068345286
47	0xbd31fd10	-0.04345423
48	0x3d82f228	0.06393844
49	0x3d90d3a5	0.07071618
50	0xbc3fe581	-0.011712433
51	0xbd1d2e6e	-0.038374357
52	0xbd4ce634	-0.050024226
53	0x3ccadb9b	0.02476292
54	0xbd130ab2	-0.03589887
55	0x3cba2676	0.022723418
56	0x3bd5548b	0.0065103224
57	0x3bd86266	0.006603527
58	0x3d01057b	0.031499367
59	0xbb849183	-0.0040456667
60	0xbd26896c	-0.0406584
61	0xbd0306da	-0.031988956
62	0xbdb174d9	-0.08664865
63	0xbd295832	-0.041343875
64	0xbd534f76	-0.05158945
65	0xbcb75aa4	-0.022382088
66	0x3d1cbdd7	0.038266983
67	0x3d9f47c5	0.07777361
68	0xbd16524c	-0.03669958
69	0x3d3600bd	0.044434298
70	0xbd2efaae	-0.042719536
71	0xbc77cb2a	-0.015124122
72	0x3d77386a	0.060356535
73	0x3bda15ac	0.0066554155
74	0xbcea2a39	-0.028584586
75	0x3d94432a	0.07239373
76	0x3d926094	0.07147327
77	0x3b2a7230	0.0026008002
78	0x3da01779	0.07816977
79	0x3d569e48	0.052397043
80	0xbd0e38ff	-0.034722324
81	0x3d25f3b2	0.04051561
82	0xbd381630	-0.044943035
83	0xbd43674a	-0.047705926
84	0x3d9f5427	0.07779723
85	0xbcd8cdd1	-0.026465328
86	0xbabed56a	-0.0014559452
87	0xbd628e9c	-0.055311784
88	0x3c8e51b2	0.01737294
89	0x3cad72d0	0.02117291
90	0xbd394bf3	-0.045238446
91	0x3c862455	0.016374746
92	0x3d805706	0.062665984
93	0x3d3fcdf7	0.046827283
94	0xbc1e430f	-0.009659543
95	0x3d7dd595	0.061971266
96	0x3d069f08	0.032866508
97	0x3c065270	0.008198366
98	0x3cf1ddd8	0.029524729
99	0x3daef118	0.08542079
100	0xbc2b80dc	-0.010467734
101	0x3c139f6c	0.009010177
102	0x3c03e3ba	0.0080499
103	0x3c0d47fb	0.0086231185
104	0x3d1fefa2	0.03904689
105	0x3d63e0ec	0.055634424
106	0xbd37890f	-0.044808444
107	0xbcc0e48b	-0.023546478
108	0xbcbad842	-0.022808198
109	0xbd80a4b6	-0.06281416
110	0xba295c0b	-0.0006460554
111	0x3cceffb5	0.025268415
112	0x3d05c4cd	0.032658387
113	0xbcb7fda7	-0.022459818
114	0x3c1a8fa2	0.009433659
115	0x3d8af97f	0.06785869
116	0xbd216eed	-0.039412428
117	0xbd0673cf	-0.032825287
118	0xbc80e17a	-0.015732516
119	0x3cfb5d9f	0.03068429
120	0x3d720a08	0.059091598
121	0xbd017138	-0.031602114
122	0x3cd094a2	0.025461499
123	0xbb4f8b29	-0.003166864
124	0xbcb5953d	-0.022165889
125	0xbd2dad73	-0.042401742
126	0xbd143cd9	-0.03619084
127	0x3bde6c03	0.0067877783

conv.11.weight f4 [128]
0	0x3f9cb5ec	1.2243018
1	0x3f8afb95	1.0858027
2	0x3f625d20	0.8842335
3	0x3fa33d2b	1.2753042
4	0x3f8eff0c	1.1171584
5	0x3fb40496	1.40639
6	0x3f6dbe79	0.92868763
7	0x3f6b72b5	0.91971904
8	0x3fb69065	1.4262816
9	0x3f8c4c1d	1.0960728
10	0x3f8d44d9	1.1036636
11	0x3fb02158	1.3760176
12	0x3f80953f	1.0045546
13	0x3f7ea1e7	0.99465793
14	0x3fae168a	1.3600628
15	0x3f884995	1.0647455
16	0x3fbf2a5c	1.4934802
17	0x3fbefbf8	1.4920645
18	0x3f90d874	1.1316056
19	0x3f6dba70	0.92862606
20	0x3f71aa45	0.94400436
21	0x3f86d18c	1.0532699
22	0x3f914cdc	1.1351581
23	0x3f6dd5f5	0.929046
24	0x3faff767	1.3747376
25	0x3f821a6b	1.0164312
26	0x3f9c1f71	1.2197095
27	0x3fdaa1b8	1.7080603
28	0x3f94594f	1.1589755
29	0x3f6a5487	0.9153523
30	0x3f92466b	1.142774
31	0x3f91e289	1.1397258
32	0x3fee10ba	1.8598855
33	0x3fba1bea	1.4539769
34	0x3f5f29a4	0.87172914
35	0x3fb01ea5	1.3759352
36	0x3f997d0b	1.1991285
37	0x3fc5b9e6	1.5447357
38	0x3f70530c	0.9387672
39	0x3fef8831	1.8713437
40	0x3ff9efe0	1.9526329
41	0x3fa8691d	1.3157078
42	0x3f876f36	1.0580814
43	0x3fef9d4d	1.8719879
44	0x3f64b194	0.8933346
45	0x3f690802	0.91027844
46	0x3fae9e8d	1.3642136
47	0x3f98ebf5	1.1947008
48	0x3fa2abcb	1.2708677
49	0x3f7a20f2	0.9770652
50	0x3ff7e56d	1.936689
51	0x3fadd092	1.3579276
52	0x3fbd7391	1.4800893
53	0x3fab376a	1.3376286
54	0x3f86c977	1.0530232
55	0x3faf8706	1.3713081
56	0x40042ce4	2.06524
57	0x3f6cab51	0.9244891
58	0x3f7c6165	0.9858611
59	0x3f6cb446	0.92462575
60	0x3fc7100a	1.555177
61	0x3fa5e345	1.2959982
62	0x3fa971d1	1.3237859
63	0x3ff5e70f	1.9211138
64	0x3f8aa6c4	1.0832143
65	0x3f5f18f4	0.8714745
66	0x3f7dde14	0.9916699
67	0x3f9a5633	1.2057556
68	0x3f76640b	0.96246403
69	0x3f7cb586	0.9871448
70	0x4000922b	2.0089214
71	0x3f91ff8f	1.1406115
72	0x3f94752c	1.1598258
73	0x3fb75035	1.4321352
74	0x3fc6c990	1.5530262
75	0x3ff9c863	1.9514278
76	0x3fa4227d	1.2823025
77	0x3f9d839e	1.2305791
78	0x3f89c9b0	1.0764675
79	0x3f8add14	1.0848718
80	0x3f8cf830	1.1013241
81	0x3f68d0dc	0.90943694
82	0x3fd1be0e	1.6386125
83	0x4007af97	2.1200922
84	0x3fbab405	1.4586188
85	0x3fa350e2	1.2759058
86	0x3f982974	1.188765
87	0x3fa1d57e	1.2643278
88	0x3f971658	1.1803694
89	0x3f68e29e	0.9097079
90	0x3f7d5f88	0.98973894
91	0x3f864e37	1.0492619
92	0x3f8b9c7d	1.0907131
93	0x3f779f5b	0.9672753
94	0x3f7ff885	0.99988586
95	0x3f7b4ca2	0.9816381
96	0x3fad9730	1.3561764
97	0x3f59b890	0.85047245
98	0x401213fd	2.28247
99	0x3f888250	1.0664768
100	0x3f89fdc4	1.0780568
101	0x3f898d1a	1.0746186
102	0x3f81f006	1.0151374
103	0x3fae5897	1.3620785
104	0x3fae4f98	1.361804
105	0x3fb5931b	1.4185518
106	0x3fbf8c43	1.496468
107	0x3fb331ac	1.3999534
108	0x3fa8a555	1.3175455
109	0x3fa8fe31	1.3202573
110	0x3f977111	1.183138
111	0x3f9e2780	1.2355804
112	0x3f7c47c4	0.98547006
113	0x3ffc81ee	1.9727151
114	0x3f681af6	0.9066614
115	0x3f6f3e5f	0.93454546
116	0x3f8ed794	1.1159539
117	0x3f6b325b	0.9187371
118	0x3fa4f74f	1.2887973
119	0x3f5daa5a	0.8658806
120	0x3f620706	0.88291967
121	0x3fbe23e0	1.4854698
122	0x3f949ef9	1.1611015
123	0x3f89ec34	1.0775208
124	0x3faa4fca	1.33056
125	0x3f7deeb9	0.99192387
126	0x3f9bac81	1.2162019
127	0x3f6c6c80	0.9235306

conv.11.bias f4 [128]
0	0xbebfb18a	-0.3744014
1	0xbd4a6391	-0.04941136
2	0xbe9f6c97	-0.31137535
3	0xbe022318	-0.127087
4	0x3d51cf5d	0.051223148
5	0xbca0053f	-0.019533752
6	0xbdef275b	-0.11677428
7	0xbe04e734	-0.12978822
8	0xbd835664	-0.06412962
9	0xbdd2fdcc	-0.10302314
10	0xbc15fa7b	-0.0091539575
11	0xbd0ad973	-0.033898782
12	0xbe1721e9	-0.1475903
13	0xbdd9d6aa	-0.10636647
14	0xbf72d4ee	-0.94856155
15	0x3d9c9819	0.07646198
16	0xbdc968bb	-0.09834429
17	0x3d8dddde	0.069270834
18	0xbbddc7b0	-0.0067681894
19	0xbea4e2d2	-0.322043
20	0xbf099d6d	-0.5375584
21	0xbd3bffd2	-0.045898266
22	0xbf229d12	-0.6352092
23	0xbed7dc97	-0.42160484
24	0x3e6f6793	0.23379354
25	0xbe7b413a	-0.245366
26	0xbf224596	-0.6338743
27	0x3b6ef86e	0.0036463994
28	0xbe147877	-0.14499079
29	0xbe492e43	-0.19646554
30	0xba0ee24a	-0.000545059
31	0xbde6f6c5	-0.11277536
32	0x3a77c945	0.0009452294
33	0xbcbe18a3	-0.023205107
34	0xbe6e6cbb	-0.23283665
35	0xbe84bf57	-0.2592723
36	0xbe488743	-0.19582848
37	0x3ccb4197	0.02481155
38	0xbe845c49	-0.25851658
39	0x3e740702	0.23830798
40	0x3d8e291c	0.06941435
41	0x3d7d5af5	0.06185432
42	0xbf680f6c	-0.9064853
43	0xbcc897ad	-0.024486387
44	0xbea2956f	-0.31754634
45	0xbedf899d	-0.43659678
46	0x3d160a5d	0.036630977
47	0xbcf73416	-0.030176204
48	0x3d5a0be6	0.053234003
49	0xbf2db783	-0.6785814
50	0xbd7616a2	-0.060080178
51	0xbed4eabe	-0.41585344
52	0xbd972719	-0.07380504
53	0xbd9851fd	-0.07437513
54	0xbdfc20ba	-0.123109296
55	0x3cc00032	0.023437593
56	0x3d207724	0.03917612
57	0xbe46444d	-0.19361992
58	0xbe3bbf6f	-0.18334745
59	0xbe56e7ed	-0.2098691
60	0x3e226fdb	0.15862982
61	0xbe0c5ba2	-0.1370683
62	0xbe35018c	-0.17676371
63	0xbf15a718	-0.5845809
64	0xbed14125	-0.40870014
65	0xbf2047be	-0.6260947
66	0xbe89ca3b	-0.26912102
67	0xbef4d597	-0.47819206
68	0xbec54d03	-0.38535318
69	0xbe115ee6	-0.14196357
70	0x3ccb566d	0.024821484
71	0xbd84ccaa	-0.06484349
72	0xbe7ea9ad	-0.24869414
73	0xbd45e78e	-0.04831653
74	0xbe2ede97	-0.17077099
75	0xbea1d658	-0.31608844
76	0xba889c0e	-0.0010422484
77	0xbed8533f	-0.42251012
78	0xbed74cc3	-0.42050752
79	0xbd9592ea	-0.07303412
80	0x3dc01bd5	0.093803085
81	0xbe64b6a4	-0.22335297
82	0x3c61e01c	0.013786342
83	0xbe2bcdfb	-0.16777794
84	0xbe0e22e0	-0.13880491
85	0x3e3538ee	0.17697498
86	0xbe14ae7f	-0.1451969
87	0xbed59361	-0.41714004
88	0xba52aa7c	-0.00080362684
89	0xbebffad0	-0.37496042
90	0xbda3355b	-0.07969161
91	0x3c0504a6	0.008118784
92	0xbdd06e57	-0.10177296
93	0xbe8b7459	-0.27237204
94	0xbe7e8af4	-0.24857694
95	0xbe4e1b91	-0.20127703
96	0xbce6001b	-0.028076222
97	0xbea33aba	-0.31880742
98	0x3d7a3676	0.061087094
99	0xbe8e9e09	-0.27854946
100	0xbb0e7c47	-0.0021741556
101	0xbf01fb3f	-0.50773996
102	0xbed98ad8	-0.42488742
103	0x3d93a06a	0.07208331
104	0xbe3cf830	-0.18454051
105	0x3d8f69fe	0.07002638
106	0xbd93ec48	-0.072228014
107	0xbdbffa4a	-0.09373911
108	0xbc682205	-0.014168267
109	0xbcfe955a	-0.031077076
110	0x3d2d3d82	0.042294987
111	0xbe1c5d9f	-0.15270089
112	0xbe879bf3	-0.26486167
113	0xbd65ea0f	-0.05613142
114	0xbeb9c505	-0.36283126
115	0xbe99c840	-0.3003559
116	0xbdc882cf	-0.09790575
117	0xbee8e9e4	-0.45490944
118	0xbef8e4bb	-0.48612007
119	0xbec69ca8	-0.38791394
120	0xbeca98aa	-0.39569598
121	0xbeb5a1ba	-0.3547495
122	0xbc2cbb47	-0.010542697
123	0xb733fba8	-1.0727825e-05
124	0xbe825636	-0.254564
125	0xbdb2c6ef	-0.0872935
126	0xbe0e5924	-0.13901192
127	0xbf0632c9	-0.5242124

conv.11.running_mean f4 [128]
0	0x3fb88d1a	1.4418061
1	0xbff6a379	-1.9268638
2	0xbfc3d557	-1.5299481
3	0xbed901e5	-0.42384258
4	0x3e1e649e	0.1546807
5	0x3f40bf62	0.75292027
6	0xc033d9ed	-2.8101761
7	0xbe03c0d0	-0.12866521
8	0x403d573c	2.9584494
9	0x3df4e258	0.11957234
10	0x3ea9b2ea	0.33144313
11	0x3ea866ea	0.32891017
12	0xbfdb2abf	-1.712242
13	0xbfb4f93a	-1.4138558
14	0xbfd80a71	-1.6878186
15	0xba0d1d0e	-0.00053830526
16	0x3fbf2a74	1.4934831
17	0xbe8fee4d	-0.28111497
18	0xbef7fcb3	-0.48434982
19	0xbf9e2b38	-1.2356939
20	0xbf9af2f2	-1.2105391
21	0x3d7dfc3c	0.062008128
22	0xc0128fff	-2.2900388
23	0x3f6ceb8c	0.92546916
24	0xbe8e95a5	-0.27848545
25	0xbf05371c	-0.52037215
26	0xbffda24f	-1.9815158
27	0x3fbee58b	1.4913801
28	0x3ebb94f6	0.36637086
29	0xbfb5f58d	-1.4215561
30	0x3fa96a47	1.3235558
31	0x3ff49375	1.91075
32	0xbf0dfbad	-0.5546215
33	0x3f4c9ef5	0.7993005
34	0xbed2a439	-0.41140917
35	0x3edbaae6	0.42903823
36	0x3ff7eb97	1.9368771
37	0xbf1044ec	-0.56355166
38	0xbffe5ff5	-1.9873034
39	0x400016cf	2.0013921
40	0x3febd8d5	1.8425547
41	0xbf2bc3aa	-0.67095435
42	0xbf8f39e2	-1.118954
43	0xbea5ce9f	-0.32384202
44	0xbfc55d4a	-1.5419095
45	0xbf36877f	-0.713005
46	0xbf1e1b1d	-0.6176012
47	0x3e95419a	0.29151613
48	0x3fb53a7c	1.4158473
49	0xbf8d8e7c	-1.1059108
50	0x4018adde	2.385612
51	0x3fcde859	1.6086532
52	0x3eaa797c	0.3329581
53	0x3f98c02e	1.1933649
54	0xbfdb61d3	-1.7139229
55	0x3ec64dba	0.38731176
56	0xbcf8ffd4	-0.030395426
57	0xc010cdd7	-2.2625635
58	0xbfd1222d	-1.6338555
59	0xc0156ebe	-2.3348842
60	0xbf2f6c6e	-0.68524826
61	0x3fd91b92	1.6961539
62	0x3dc175a7	0.094462685
63	0xbd27ac8f	-0.04093605
64	0xbf9a5d40	-1.2059708
65	0xbff7b2c0	-1.9351425
66	0xc03439d9	-2.8160307
67	0xbf0f9b64	-0.5609648
68	0xbfc0ea01	-1.5071412
69	0x3f898624	1.0744061
70	0xbf068ee6	-0.52561796
71	0xbe4e8905	-0.20169456
72	0xbfb7086c	-1.4299445
73	0x3fedd86b	1.858167
74	0x3f09e3de	0.5386332
75	0x3ea3816e	0.31934685
76	0x4021acdc	2.5261755
77	0x402055ee	2.5052447
78	0xbe26779a	-0.16256562
79	0x3eb84e73	0.35997352
80	0x3f077c70	0.5292425
81	0xc04b7aa2	-3.17936
82	0x3d9bcf05	0.07607845
83	0xbe0f4cdb	-0.13994162
84	0xbecf5dda	-0.4050129
85	0xbf0d12ce	-0.5510682
86	0x3f287585	0.6580432
87	0xbfc7ff89	-1.5624858
88	0x3f6f75c0	0.9353905
89	0xbfe9cc44	-1.8265462
90	0xc04f5821	-3.239754
91	0xbf4c15d0	-0.79720783
92	0xbf53ffd0	-0.82812214
93	0x3f386bad	0.720393
94	0xbf6fafdf	-0.93627733
95	0xc005c9f7	-2.090452
96	0x3f91c09d	1.1386906
97	0xbffe8c1b	-1.9886507
98	0xbf331423	-0.699526
99	0xbf3685b5	-0.7129777
100	0xbedd087a	-0.4317053
101	0xbd2d4993	-0.042306494
102	0xbe9075a2	-0.28214747
103	0xbe87db9c	-0.26534736
104	0x3fb115e6	1.3834808
105	0x3e78013c	0.24219221
106	0xbf1267da	-0.57189715
107	0x3feecbfa	1.8655999
108	0x3f8e49c7	1.1116265
109	0x4029cfa2	2.653298
110	0x3f2851e4	0.65749955
111	0xbf2c64b4	-0.6734116
112	0xbfadf2e1	-1.3589746
113	0xbef591f5	-0.4796292
114	0xbfbe7195	-1.4878412
115	0xbefb3d3b	-0.49070153
116	0xbe9e6473	-0.30936012
117	0xbef7ae7a	-0.48375303
118	0xbf4ae9ae	-0.79262817
119	0xbdcbee67	-0.09957581
120	0xc00e0ea4	-2.2196436
121	0xbe6332d5	-0.2218736
122	0x3ed5fe6b	0.41795668
123	0xbf00f54c	-0.50374293
124	0x3c782214	0.015144844
125	0xc0313936	-2.7691169
126	0xbf8ccf01	-1.1000673
127	0xbed1d76c	-0.40984666

conv.11.running_var f4 [128]
0	0x405f94f7	3.493467
1	0x40bedd36	5.9645033
2	0x40073201	2.112427
3	0x401f3f99	2.4882567
4	0x401ac307	2.4181535
5	0x40339fdb	2.8066318
6	0x40bdeff2	5.93554
7	0x407df1d6	3.9678855
8	0x4116ee7f	9.433227
9	0x400a092c	2.1568098
10	0x40780a2d	3.875621
11	0x4057f2ba	3.3741899
12	0x4035aed2	2.8387952
13	0x402c7bd5	2.695058
14	0x40828498	4.0786858
15	0x403b437d	2.9259942
16	0x40911d34	4.534815
17	0x40970a75	4.7200265
18	0x3fda76cf	1.7067508
19	0x40bbb66a	5.8660173
20	0x405f598e	3.489841
21	0x407f9eb6	3.994062
22	0x40d7e2ca	6.746434
23	0x3fdd30ba	1.7280495
24	0x40639720	3.556099
25	0x4032e9ab	2.795512
26	0x40ca3df0	6.3200607
27	0x410f76e1	8.966523
28	0x4002250c	2.0335112
29	0x4080db21	4.026749
30	0x3ffd1375	1.9771563
31	0x401c5293	2.44254
32	0x403af305	2.9210827
33	0x405f1aac	3.486003
34	0x4004acfa	2.0730577
35	0x40271f1a	2.6112733
36	0x403905f5	2.8909886
37	0x40a08fa6	5.017535
38	0x40852c9b	4.161695
39	0x41199bd0	9.60054
40	0x414bd76a	12.740091
41	0x40149c88	2.322054
42	0x3f687e96	0.90818155
43	0x402f6009	2.7402365
44	0x4088244a	4.25443
45	0x3fe6156f	1.7975291
46	0x4056ed9b	3.3582523
47	0x3ff409dd	1.906551
48	0x40f20d9f	7.5641627
49	0x406366c4	3.5531473
50	0x40c7779d	6.233351
51	0x40c8cde5	6.2751336
52	0x40642397	3.5646722
53	0x3ff52a0b	1.9153455
54	0x4083d23e	4.1194143
55	0x409ea6fd	4.9578843
56	0x40bcc776	5.8993483
57	0x40ea7fbb	7.328092
58	0x40ee48fb	7.4464087
59	0x3fadb27d	1.3570095
60	0x407d4c0b	3.9577663
61	0x4042cca8	3.0437412
62	0x3fe4ccdb	1.7875017
63	0x408903ba	4.281705
64	0x40b091d6	5.5178022
65	0x3fffa9e4	1.9973722
66	0x411a29f7	9.635245
67	0x40da6c61	6.82573
68	0x40840057	4.1250415
69	0x4010a407	2.2600114
70	0x40e08316	7.0160017
71	0x40a9c15c	5.3048534
72	0x40472e7a	3.1122117
73	0x402b3fcd	2.675769
74	0x40b5dab4	5.682947
75	0x40cef5de	6.467513
76	0x40f37984	7.6085835
77	0x40470058	3.109396
78	0x3fbc8d4c	1.473062
79	0x408d73a0	4.4203644
80	0x405dca36	3.465467
81	0x40ec6cd0	7.388283
82	0x400c5390	2.1926003
83	0x402cfe43	2.703019
84	0x4069baa2	3.6520162
85	0x407f38c9	3.987841
86	0x40831dab	4.0973716
87	0x411997f9	9.599603
88	0x40469eac	3.1034346
89	0x408289cb	4.0793204
90	0x410c2680	8.759399
91	0x402c512c	2.6924543
92	0x3fb9c416	1.4512966
93	0x3fdffc4d	1.7498871
94	0x40e6a515	7.2076516
95	0x405dc881	3.4653628
96	0x409cce79	4.900204
97	0x4043c124	3.0586634
98	0x4104912a	8.28544
99	0x40c17d3e	6.0465384
100	0x3feb2b37	1.8372563
101	0x4087fb5c	4.2494335
102	0x40291246	2.6417403
103	0x401ae7e0	2.4204025
104	0x3ff3392b	1.9001821
105	0x401c049c	2.4377813
106	0x402ff8a8	2.7495518
107	0x40c9f5cb	6.311254
108	0x408cf0dc	4.404402
109	0x40bce89e	5.9033957
110	0x403759f3	2.864865
111	0x405d7915	3.4605153
112	0x4066e28c	3.6075773
113	0x40b327d0	5.59861
114	0x40272642	2.61171
115	0x400582ed	2.086116
116	0x400552d7	2.0831811
117	0x4013baec	2.3082838
118	0x40200489	2.5002768
119	0x400d7f8f	2.2109106
120	0x40d97f18	6.7967644
121	0x40456a7a	3.0846238
122	0x40080355	2.1252034
123	0x403ac8fd	2.9185174
124	0x4089f7d4	4.3115025
125	0x4083a3cc	4.1137447
126	0x40e36e48	7.107212
127	0x40235f5e	2.5526958
