output/energy_cnn_20260221_165014/checkpoints/model_best.pt (torch, 174882 bytes, 21 tensors)

conv.0.weight f4 [32, 14, 3]
00000000: 0dcb 3b3c 55c2 5b3d 8647 13bd a600 b8bd
00000010: e3d0 9e3d 2306 cc3d ea9f 043d 023b 60bd
00000020: e132 98ba f5a7 84bc bb9e a0bc 9d98 fd3d
00000030: 7389 543c 970e 6d3c a1f3 84bd 3fb6 893c
00000040: 63b9 9d3c 7e81 8ebd c4f4 263d ccd3 363d
00000050: b327 cbbb 0e8f 2dbd cb3f a13d 3e6d 09bd
00000060: d2e3 c7be 868a 14bf 9415 febe 1065 aa3e
00000070: 53e2 8a3e 1d5f fd3e 1117 883d 27d1 0abc
00000080: f3b3 2d3e cc59 c0bc ba47 c2be 671b b03c
00000090: e63a 46bd c4e2 e73c 046b 493c 1f45 da3b
000000a0: 70b4 823d e3d9 56bd 6752 28bd ef89 d53d
000000b0: 2c24 94bd c9dc 8fbb 29c0 233d 5f7f 093c
000000c0: c4e3 b33c 7175 62bd 5077 0dbd 766e 94bc
000000d0: c2a3 833b 27d4 b43d f33b c6bb 041a 6dbb
000000e0: c27a 153c b8a5 a9bd 3411 503d 38c3 d13c
000000f0: 800d e83b 616f e3bc aa5c a7bc fc97 95bc
00000100: 3daf 32bc fd7a a7bb e593 153e 85b2 d53e
00000110: ac20 b33e 878a 29bf 42ad 24bf 675c 05bf
00000120: 268f 84be 8753 8abe 5fee 9bbe c24e ecbd
00000130: 7653 fd3d 955d a5bd bac1 40b9 c0b0 e73c
00000140: cddb 273d d3d9 03bd 29ca c7bc 8380 0d3d
00000150: 1716 a6bd 5716 d4bd 1b93 1dbd d395 8dbb
00000160: 54d6 6e3d a193 f33d 3ff3 263e b361 9b3d
00000170: eeeb 953d b43c 04bd 74bb 00be 16d3 b63e
00000180: b96d 7abc 802c ffbd 2530 c6bd c34c 613d
00000190: 566d 5abd 75c4 b0bd d59c 8cbd f466 e8bd
000001a0: d29b c43d 37d8 2f3e 94d5 f1bd d81e 9fbe
000001b0: 2860 803e a016 753e 1458 da3d 22a8 99bb
000001c0: ba16 46be 0a97 f3bd 5322 08bd 77cb 31be
000001d0: efa3 0fbe 5fc8 713e 1c02 623e a04e 8e3e
000001e0: 64a2 21be 0ca0 df3d 9c35 f63c d96d 8fbd
000001f0: 1f4d aa3c 0150 ddbd 517f cebd 9cc1 f63d
00000200: 88f5 813c 0bc9 05bd c173 883d c4c4 fabd
00000210: 7bf4 2bbd 214d d43d 487f 88bd 4c34 0dbd
00000220: 6c87 ac3c 1062 8cbd 6750 88bd c104 d63d
00000230: 2234 27bc 069d d8bb 0635 60bc c1d6 123d
00000240: edc2 1fbe 5f95 4bbd 859d f73d 191d 8c3c
00000250: a1f4 d13b 51aa ae3c 7489 1abf b696 05bf
00000260: e601 efbe 01b7 a3be cb8a 0ebe 1f4c 74be
00000270: 6ccd 8cbe 2fbf f3bd 3d90 69be 2189 2f3d
00000280: 5a8e e8bd 406d 683c 2e6b 643d 5bbd 77bc
00000290: 48b2 c8bc 6507 74bd ccab 9dbd de5e ac3d
000002a0: 03ec ea3d decf 7e3e 8f2e fcbd 259a 5ebd
000002b0: 22b7 fe3c 8c8d 59bc 78ac 193e 2301 0c3e
000002c0: c459 cdbd 1fc6 1bbe 1542 293e 6835 d5bc
000002d0: c820 58bc 14db ee3d 24fb 2bbe ffe3 e1bd
000002e0: eecc a63d 20ea 533b d8d3 133e 32fe a83c
000002f0: 48d5 71be a5b4 3abc fb94 293e c838 98be
00000300: 473b a43e 35bc 3d3e 9b6e 7c3e 1ec6 cbbe
00000310: 0f47 95be d013 1fbe 68a2 b93d 18ce 453d
00000320: 91fb f83d e6ad f63e 564a 823e bab7 923d
00000330: 829f ef3b 9ac3 b1bd 216d a0bd 9736 c13d
00000340: 90a4 b43d a703 a43c 8b0c c9bd dbbb a5bd
00000350: b3b8 983d 7dee cdbd e333 903d 0e36 14bd
00000360: 4450 34bc 21ab c53d 5fe0 babc 2a38 ffbc
00000370: bcea 9dbe c0f2 bfbd 9edc 9abd f377 bb3d
00000380: 9b44 61bd ef83 e5ba 5861 b23c 15cd a0bb
00000390: 8fca e2bd ba2f 923c 8c4f 8e3d f186 973c
000003a0: 17cc b7bc 3cb8 8c3b a94d 81bf 8cb2 81bf
000003b0: 680c 79bf fdf2 003e 6c89 033e 85df 0b3e
000003c0: 13c5 0bbe 3af6 8e3d 4154 1c3e 51a9 233a
000003d0: 3a05 053d efc4 75be 310a 27bd e695 923c
000003e0: 3836 273d ec12 0f3e f77e afbd ef99 64bd
000003f0: 3f9c 6bbd 9c0c 6bbe 4e85 13be 3599 42be
0.011461985 0.053652126 -0.035956882 -0.08984499 0.07754686 0.09962108 0.03237907 -0.054743774
-0.0011611843 -0.01619337 -0.019606939 0.12382624 0.012972224 0.0144688105 -0.06491781 0.016810535
0.019253438 -0.069582924 0.04076077 0.04463558 -0.006199801 -0.042372756 0.07873496 -0.033551447
-0.39041 -0.5802387 -0.49625838 0.3328023 0.27125797 0.49486628 0.066450246 -0.008472717
0.16963176 -0.023480318 -0.37945348 0.021497441 -0.048396014 0.028306372 0.012293581 0.006661072
0.06382072 -0.052453887 -0.04109421 0.10426699 -0.07233462 -0.0043903333 0.03997818 0.008392184
0.021959193 -0.055287782 -0.034537613 -0.018119078 0.004017324 0.08829527 -0.006049627 -0.0036178837
0.009123506 -0.082835615 0.050797656 0.025605783 0.0070816875 -0.02776307 -0.020429928 -0.018260948
-0.010906038 -0.005111097 0.14607199 0.41737762 0.34985864 -0.66227 -0.6432687 -0.5209412
-0.25890464 -0.2701685 -0.304553 -0.11538459 0.123694345 -0.0807449 -0.00018382716 0.028282523
0.040981103 -0.032190155 -0.02438839 0.034546386 -0.08109682 -0.103558235 -0.03847037 -0.004320839
0.058309868 0.11893392 0.16303729 0.07586994 0.07320391 -0.032284454 -0.12571508 0.3570792
-0.015284949 -0.124596596 -0.096771516 0.055004846 -0.053326927 -0.08631221 -0.06865851 -0.11347762
0.09600033 0.17172323 -0.11808315 -0.3107822 0.2507336 0.23934412 0.10661331 -0.0046892324
-0.19344607 -0.11894043 -0.03323586 -0.17362772 -0.1402738 0.23611592 0.22071117 0.2779436
-0.15784603 0.109191984 0.03005486 -0.07003374 0.020788727 -0.10806275 -0.100828774 0.12048647
0.015864149 -0.032662433 0.06662703 -0.12244561 -0.0419812 0.10366274 -0.06664902 -0.034473702
0.021060668 -0.068546414 -0.066559605 0.104501255 -0.0102053005 -0.0066105155 -0.013684517 0.035849337
-0.15601702 -0.049703 0.12090591 0.017103719 0.006407336 0.021321448 -0.60365987 -0.5218309
-0.46681136 -0.31975558 -0.13920133 -0.23857163 -0.27500474 -0.119017 -0.22808929 0.042855386
-0.113552764 0.0141862035 0.055766277 -0.015120829 -0.024499074 -0.059577364 -0.07698783 0.08416532
0.11470797 0.24883983 -0.12313568 -0.054346222 0.031093184 -0.013278376 0.15007198 0.13672309
-0.10026887 -0.15212296 0.16529115 -0.026026443 -0.013191409 0.116628796 -0.16795021 -0.11029815
0.08144556 0.0032335594 0.1443628 0.020629022 -0.23616517 -0.011395608 0.16560738 -0.2973082
0.32076475 0.18528827 0.24651568 -0.3979959 -0.29155776 -0.15534902 0.0906418 0.04829225
0.121573575 0.4817955 0.2544734 0.07163949 0.007312716 -0.08679886 -0.07833315 0.0943424
0.0882045 0.020021273 -0.098168455 -0.08092471 0.074571036 -0.10055254 0.070411466 -0.036184363
-0.011005465 0.09651781 -0.022812067 -0.03115471 -0.3084315 -0.09372473 -0.07561611 0.09153738
-0.054997068 -0.0017510633 0.021774933 -0.00490726 -0.11073791 0.017845023 0.06948766 0.018496962
-0.022436185 0.0042944234 -1.0101825 -1.0132613 -0.97284555 0.12592693 0.12845391 0.13659485
-0.13649397 0.06980558 0.15266515 0.00062431867 0.032475688 -0.24000905 -0.040781204 0.017893743
0.04082319 0.13972062 -0.085691385 -0.055810865 -0.057522055 -0.22954029 -0.1440632 -0.19003756

conv.0.bias f4 [32]
00000000: 1a22 a6bd d925 e53d a291 6e3d 3073 bebd
00000010: 017f dc3c c439 093e e232 1e3d 73e2 263e
00000020: aab4 033e 6f67 143e c1d2 ddbc 7d2d ccbd
00000030: fd27 56bd 2c9c 153e 44dd d2bd 5bf2 40be
00000040: 5677 9bbb f60f babd 9d2e 67bd e14f 29be
00000050: 0254 363d 976b 6a3e 7dd5 92bd f014 f3bc
00000060: 4920 b7bd ce43 4a3e 0c66 0dbe 40aa 2d3e
00000070: 1a5f ce3c e07a 86bd c461 653e a0d9 903d
-0.08111973 0.111888595 0.058244355 -0.09299314 0.026916029 0.13400942 0.038622744 0.16297321
0.12861887 0.14492582 -0.027078034 -0.09969614 -0.05228423 0.14610356 -0.10296109 -0.18842451
-0.0047444506 -0.090850756 -0.05644094 -0.16534378 0.04451371 0.22892605 -0.07169626 -0.02967307
-0.08941705 0.19752428 -0.13808459 0.16959476 0.025191832 -0.06566405 0.22400576 0.07072759

conv.1.weight f4 [32]
00000000: 6dcd 903f 3f17 653f 02dd 213f 844b 6b3f
00000010: d11f 1d3f 2bb6 a53f d0c3 2d3f c034 653f
00000020: 3157 253f c603 383f e940 273f a828 7d3f
00000030: 474f 3e3f e5f4 093f 43d9 8f3f 74da 993f
00000040: 3e02 493f 792b 7d3f 8266 353f 1ca8 a03f
00000050: b257 993f 68f4 a53f dab8 1a3f 0248 183f
00000060: 2478 3d3f e944 553f 494a 693f 87ac 3f3f
00000070: fd75 1f3f f4f3 583f 14b0 783f 72a3 453f
1.1312691 0.89488596 0.63227856 0.919121 0.61376673 1.2946218 0.6787691 0.89533615
0.6458617 0.7188076 0.6533342 0.9889016 0.7433972 0.53889304 1.1238178 1.2019792
0.78519046 0.9889446 0.7085954 1.2551303 1.1979887 1.2965212 0.6043831 0.59484875
0.74011445 0.83308274 0.91128975 0.7487263 0.6228941 0.8474724 0.97143674 0.7720252

conv.1.bias f4 [32]
00000000: 87b0 dfbd 7703 01bf 208e 9fbe 3c2a cabe
00000010: ace9 b9be 9d32 4dbe 8a3d 4fbe 61ee 83be
00000020: 3c5c 5fbe 1d67 6ebd 2022 7cbe e973 bebc
00000030: 63da a3be b4ee 88be ee7f 8bbe 067a 39be
00000040: ca12 00bf c38a 7fbe 5f22 9ebe a43c 2dbe
00000050: 59cd 61be 3172 a1be 4cf9 91be fe4d dfbc
00000060: db44 9ebe 00b9 d8be 0e93 1a3e 0301 fabe
00000070: b174 84be 1785 23be c4c2 f1be acd4 abbe
-0.10922342 -0.5039591 -0.3116312 -0.39485347 -0.3631109 -0.20038839 -0.20238319 -0.25767806
-0.21812528 -0.058203805 -0.24622393 -0.02324863 -0.32002553 -0.26744616 -0.2724604 -0.18112954
-0.5002867 -0.24955277 -0.30885598 -0.16917664 -0.2205099 -0.31532434 -0.2851051 -0.02725887
-0.30911908 -0.42328644 0.1509516 -0.48828897 -0.25870278 -0.15968738 -0.47218907 -0.33560693

conv.1.running_mean f4 [32]
00000000: 0f88 9cbd 6489 f33d 183a 3b3d 4198 64bd
00000010: d25f ff3c dbc6 423e ec47 c73c 4570 2f3e
00000020: e45e 153e 6e9d fa3d 4eeb 7dbd f747 d2bd
00000030: edac 56bd 25d3 f43d a87a 94bd d52e 22be
00000040: 3466 c7bc 692e 13bd 1c4e dbbd 3324 0fbe
00000050: bb89 a43d ef8a 8b3e db20 b9bd 3ac1 51bd
00000060: d7c5 dbbd 8882 413e 1b3a 44be 40d6 333e
00000070: 0645 9ebc f268 b7bc fc24 893e 4a46 c63d
-0.076431386 0.118914396 0.0457097 -0.055809263 0.03117362 0.1902117 0.024326287 0.17132671
0.14586979 0.122370586 -0.061991982 -0.102676325 -0.05241101 0.11954335 -0.07249957 -0.15838178
-0.024340726 -0.035932932 -0.107082576 -0.13978653 0.080340825 0.27254435 -0.0903947 -0.051209666
-0.10731094 0.1889745 -0.1916279 0.17562199 -0.019320022 -0.022388909 0.2678603 0.09681375

conv.1.running_var f4 [32]
00000000: f169 c03f c7c2 3140 cf77 8d3f 6419 7e40
00000010: ffdd 9c3f 289c e640 68d7 5e40 f8d4 ea3f
00000020: 100e 2340 c66f c33f 9722 1d40 6630 ec3f
00000030: c556 bd3f b102 2840 1b14 9140 2caf 0c40
00000040: b363 1640 fb36 c740 4255 3040 1abf 5140
00000050: e4b7 8140 4d9a 8440 489b 4840 f570 f03f
00000060: c1f8 db3f b948 a83f 0eca b840 feae 9f3f
00000070: 18fc 3b40 9791 fe3f faed 9a40 09f9 0540
1.5032331 2.7775133 1.1052188 3.9702997 1.2255248 7.206562 3.4818974 1.8346243
2.5477333 1.5268486 2.4552362 1.845227 1.4792105 2.6251643 4.5337043 2.1981916
2.3498352 6.2254615 2.7552037 3.277289 4.0536976 4.1438355 3.1344776 1.8784472
1.7185289 1.3147193 5.774665 1.2475278 2.9372616 1.988818 4.84155 2.093325

conv.5.weight f4 [64, 32, 3]
00000000: 61a1 17be e1c1 4fbe 2470 69be 5eed 4cbe
00000010: c14e 343d 3ddf a8bd d669 e3bb a1db 743d
00000020: 5dff 503a 611c 7abe 657c cebe becb ccbe
00000030: 166d bebb 0766 4f3e 22f8 ddbd 6a59 2fbe
00000040: a421 babe 6b10 7fbe fcdd e3bd ad89 8abd
00000050: 468c 203e e0ad b4ba 07d0 603d 1763 70bc
00000060: 24fa 89bd a95b f0bd 9ed3 09be 5a90 19be
00000070: b09f 76be 8feb 30be dfa4 25bd 1681 223d
00000080: bfd6 00be 2223 78bd 6703 1bbe ce5c ddbd
00000090: bb0b 023e 3718 893d 2af0 76bc ec68 863d
000000a0: 2710 eabb e979 db3c 1cc2 5ebe d54d d6be
000000b0: 00f5 85be dbc0 743d 0151 993d f270 c9bd
000000c0: bbeb 13be 61c4 10be 1714 6fbd 8ea1 73bc
000000d0: 543b 213e c4c0 143d 211a 113e 8042 a7bd
000000e0: 4b5b 0abd 322a 4bbc 5054 a3bd 807b 10be
000000f0: ca63 453d 5ab0 193b a50e 39bd 3bb1 643e
00000100: 2086 0b3e 86a7 c13b 19ad a9bd 6677 193a
00000110: 3d98 0dbd b18d 72bc 57a6 b1bd fdb6 95bd
00000120: 9bd2 87bb 56e2 e7bc e110 033d 9c1b 943d
00000130: 7d55 f6bc 7cbc abbe 8451 9cbd 9aec 9a3d
00000140: 9de7 9abd 5d87 5c3d 074f ba3d 16c3 92bd
00000150: fd1d c0bc 0dae 0d3d 1f92 f9bd d30d 61bc
00000160: dc7d 463d abac 083e 1311 3abe 2555 afbe
00000170: 6745 65be 15d3 033e 0e4f 0abe fa2f 08be
00000180: bfc7 80be 1618 5ebe b4a9 99bd 23e8 5fbe
00000190: 0c04 71be b03b 5fbe 63c3 84bd 1499 6e3e
000001a0: 86eb 093e 9b64 913d 14f3 ca3d e45a 8a3d
000001b0: 2e6a 69bc b27b c03d 32de c7bd 8e05 45bd
000001c0: 692d 573d 1d80 053e 2b7b fa3c c238 efbd
000001d0: 9fe7 ccbd da6d 36bc b5d4 2a3d e578 2dbd
000001e0: 474b 353d 024f 063e e1a2 96bd 593e 033e
000001f0: 42d3 c23c e8ef 27bd 8b4e 57bd 2c5c b33e
00000200: 53de 6ebb f86f 11bc a36d 4cbc 4c9f 46bc
00000210: cf41 acbd d08a f4bd 2c6d 4abe cd88 15ba
00000220: 5cfc 4f3e 5039 06be 3e0d eebd c9a7 e4bd
00000230: f660 6a3e 884a 05be dd74 d1bd 5f55 313d
00000240: 6439 903d 9462 523e b89a e93d 761e f43c
00000250: d64b 803e 1777 123d ae6e 983d 9e0a 063e
00000260: 92c0 c63d cc86 f03c 66ee 3e3d d243 173d
00000270: 8fa1 233e 498c 3b3e 5896 993e bd16 013e
00000280: 5055 cabd eac6 a73e 82ae 963d af59 c63d
00000290: 6182 85bc 57e1 96bd de88 2dbd a7b2 8839
000002a0: 1384 a3bc 0bd3 233e 2cb7 413e 3f9e adbd
000002b0: d493 21bd a84c 54be 79e4 ecbd 36e2 203e
000002c0: 5618 f73d b171 213e 1c80 ddbc 7a72 a13c
000002d0: 1005 2ebe 3306 143d bb08 acbc e5e3 f13c
000002e0: 097b 8cbd 5041 553c 14b3 9dbd fcbc 273c
000002f0: 3e39 6b3b a821 26be 80e8 21bd bf31 ad3d
00000300: b521 0bbe 6c9c 69be 957b 88be f89d b33d
00000310: dada bc3e d6a2 923d dd49 04be bb82 13be
00000320: 3ddf ddbd b360 ffbd dff5 24be 207e 03be
00000330: 32d0 f23d f8dc 2f3e 312d 6dbe f308 64be
00000340: 9536 98be 378c 81be 0573 9fbd ec0b f73c
00000350: fc0e a5bd 7bb3 86be 54f2 1fbe 8885 b4be
00000360: c9e8 8e3c 1f6e c9bd 5db3 cdbd 3c6a b53d
00000370: 8f73 39bd b6fe b93c e9c9 39bd a65f abbd
00000380: e706 c4bd 9728 6fbe c95a 4dbe c307 86be
00000390: 3197 72bd 8163 333d f538 c5bd e299 483d
000003a0: ac85 d03d 64e9 d1bd 2d00 c3bd e295 bcbd
000003b0: e4df 1fbd a84c b43d 5a2d 9f3d 961f 153e
000003c0: ac83 25be 3615 fcbd 0c02 d4bd 022c 013d
000003d0: 97f0 cf3d 8566 7bbd 6a83 d8bd 9942 113e
000003e0: 2cc9 6cbd 127d 98bc bcc6 623d 9c32 95bd
000003f0: b855 cfbd ed17 37bd 3209 7bbd b983 a33e
-0.14807655 -0.20288803 -0.22796685 -0.20012423 0.044020418 -0.08245704 -0.006940107 0.059779767
0.00079726224 -0.24424888 -0.4032928 -0.39999193 -0.005811344 0.20253764 -0.10838343 -0.17123953
-0.3635379 -0.24908607 -0.111263245 -0.06764541 0.1567851 -0.0013784729 0.05488589 -0.014672062
-0.06737164 -0.11736233 -0.13459632 -0.14996472 -0.24084353 -0.17277358 -0.040440436 0.039673887
-0.12581919 -0.06058038 -0.15138017 -0.10808717 0.12699787 0.06694072 -0.015071908 0.06562981
-0.007143039 0.02679153 -0.21753734 -0.41856256 -0.26163483 0.059754234 0.074861534 -0.09835996
-0.14445393 -0.14137413 -0.05836877 -0.014870061 0.15745288 0.036316648 0.14170124 -0.08166981
-0.03377847 -0.012400197 -0.07975066 -0.14109612 0.04819087 0.002345106 -0.04517998 0.22333233
0.13625383 0.005909863 -0.08284969 0.00058542786 -0.034569014 -0.01480429 -0.08674305 -0.07310293
-0.004144979 -0.028306168 0.03199852 0.072318286 -0.03007006 -0.3354224 -0.07632735 0.075646594
-0.07563708 0.05384003 0.090971045 -0.07166116 -0.0234518 0.034589816 -0.121860735 -0.013736206
0.048459873 0.13347118 -0.18170576 -0.34244648 -0.22389756 0.1287349 -0.1350672 -0.13299552
-0.25152394 -0.21688876 -0.075030714 -0.21865897 -0.235367 -0.21800113 -0.064825796 0.23300582
0.13468751 0.07099267 0.09909645 0.06755617 -0.014246507 0.09398593 -0.09759177 -0.048101
0.05253354 0.13037153 0.03057631 -0.116807476 -0.10005116 -0.011134589 0.04170676 -0.042351622
0.044261243 0.13116077 -0.073552854 0.12816752 0.023782376 -0.041000277 -0.05256514 0.3503126
-0.0036448434 -0.008876793 -0.012477311 -0.01212294 -0.084109895 -0.11940539 -0.19768208 -0.0005704284
0.20311111 -0.131078 -0.116236195 -0.11164815 0.2288855 -0.13016713 -0.10227368 0.043294307
0.070421964 0.20545417 0.114064634 0.029799681 0.25057858 0.035758104 0.074429855 0.13089988
0.097046986 0.029361151 0.046614073 0.036929913 0.15979598 0.18315233 0.29997516 0.1260633
-0.09879553 0.32768947 0.073575035 0.096850745 -0.016297521 -0.07367199 -0.042366855 0.00026073048
-0.019960439 0.15998475 0.18917531 -0.08477449 -0.03944762 -0.20732367 -0.11567015 0.15711293
0.120651886 0.15766026 -0.027038626 0.019707907 -0.16994119 0.036138725 -0.021000257 0.029527614
-0.068594046 0.01301606 -0.07700172 0.0102379285 0.0035892273 -0.16223776 -0.03952837 0.08456754
-0.13587077 -0.22813576 -0.26656786 0.087703645 0.3688572 0.07159965 -0.12918802 -0.14405338
-0.10833595 -0.12469616 -0.16109417 -0.12841082 0.11856116 0.17174137 -0.2316177 -0.22269039
-0.29729143 -0.25302288 -0.0778561 0.030157052 -0.08059499 -0.26308808 -0.15619785 -0.35258126
0.017444985 -0.09835457 -0.100439765 0.08858153 -0.04527622 0.022704463 -0.045358572 -0.08367853
-0.09571629 -0.23355328 -0.20054163 -0.26177797 -0.05922622 0.043796066 -0.09630004 0.04897488
0.10181746 -0.10249594 -0.09521518 -0.092082754 -0.039031878 0.088036835 0.07772322 0.1456283
-0.1616351 -0.12308733 -0.10351953 0.03153611 0.10153311 -0.061377067 -0.1057194 0.14185561
-0.05780904 -0.018614326 0.05536531 -0.072850436 -0.101237714 -0.04470055 -0.061288066 0.31936434

conv.5.bias f4 [64]
00000000: e869 88bc 7b9a 013e c3fa 28bc 73bf 3b3d
00000010: 5704 903d bf66 92bc a7ab d13d 9239 cd3d
00000020: ff00 903c 1b51 dd3d 8dc1 09bc abf5 b33d
00000030: d27d 82bd ca01 68bd 298b 833c 7019 10bd
00000040: ca25 2fbd cf95 8b3d 190a 44bd 84de b6bd
00000050: a0e9 a13c 05c4 c5bb 800a c93d 2f9f af3d
00000060: b8b1 103e c5ff c23c f1b7 e1bd 199b 6e3d
00000070: c956 42bd 0877 953d 2714 6ebd 2750 cdbd
00000080: 6048 c8bd 6199 ba3d 5978 923d a04f ac3d
00000090: 9c95 1a3c fa05 bebd 4e3d 4cbd 2105 333d
000000a0: d510 ebbc 3de4 a3bd 72dd afbb c203 16bd
000000b0: c4ad f8bc 7829 df3d 89f0 1b3d fae1 ddbd
000000c0: 365b eabc d860 0b3e 0197 28bd 0fd9 643d
000000d0: 056c 423d cb93 5abd 34c5 73bc 9a76 21bd
000000e0: fdad 29bc 806a b4bd cf08 a2bd 1923 d03d
000000f0: e699 7a3d ce3c aa3d aaf6 e33d b329 9cbd
-0.016652063 0.12656586 -0.0103136925 0.045836877 0.07032078 -0.017871259 0.10237818 0.10020746
0.0175786 0.10806485 -0.0084079625 0.08787092 -0.063716546 -0.05664233 0.016057568 -0.03518051
-0.042760648 0.06815683 -0.047861192 -0.0892916 0.019764721 -0.0060353302 0.09816456 0.08575284
0.14130294 0.023803601 -0.11021412 0.05825338 -0.047446046 0.07298094 -0.058124688 -0.100250535
-0.097794294 0.09111286 0.07151861 0.08413625 0.009435084 -0.09278484 -0.049863152 0.043706063
-0.02869455 -0.08002517 -0.0053669745 -0.036624677 -0.030356295 0.108965814 0.03807119 -0.10834117
-0.028607946 0.13611162 -0.041159634 0.055871066 0.047466297 -0.053363603 -0.01487856 -0.039419748
-0.010356423 -0.08809376 -0.07911836 0.10162944 0.061181925 0.08312379 0.11131032 -0.07625141

conv.6.weight f4 [64]
00000000: 68db 573f 6435 5e3f 3091 673f 63ac 4c3f
00000010: bfe5 843f f714 813f efa7 853f 6be6 813f
00000020: eea7 633f bfcb 7e3f b5d0 683f f285 5c3f
00000030: 71e9 a93f cf28 4d3f c9bc 6e3f 1f2d 483f
00000040: e986 673f 4d61 7f3f 69d2 753f 73f6 6d3f
00000050: 74e8 693f 190d 603f 95c6 743f 0da4 743f
00000060: adbb 653f 4476 563f 3e73 753f 438d 6e3f
00000070: 41e2 5c3f 283b 8a3f c7ff 593f a724 893f
00000080: f4f0 7a3f 93ed 463f db20 823f 3d2f 663f
00000090: 33fa 4c3f f33c 8c3f a9b6 563f 2d35 7c3f
000000a0: 0cda 733f 4008 5d3f 16ad 873f 1535 893f
000000b0: efcf 8a3f b4d2 643f 370f aa3f 01fc 873f
000000c0: a656 783f 2054 493f bfca 713f 0757 803f
000000d0: 2da9 843f ec53 863f 7aa1 5f3f 9f57 703f
000000e0: acca 633f 4818 643f 5bd3 753f 2890 663f
000000f0: 4dfe 633f 4765 7f3f dc06 723f 6f5b 5b3f
0.8431916 0.8680022 0.90455914 0.7995054 1.0382613 1.0084523 1.0441874 1.0148443
0.88928115 0.9952964 0.9094346 0.86141884 1.3274366 0.80140394 0.93256813 0.7819385
0.9044023 0.99757844 0.96024185 0.92954177 0.9137032 0.87519985 0.9561551 0.9556282
0.89739496 0.8377421 0.9587897 0.931843 0.86282736 1.0799303 0.8515591 1.071431
0.98023915 0.7770626 1.0166277 0.8991583 0.80069274 1.09561 0.8387247 0.9851864
0.9525459 0.86340714 1.0599697 1.0719324 1.0844706 0.8938401 1.3285893 1.062378
0.97007215 0.7864399 0.9444999 1.0026559 1.0364128 1.0494361 0.8735577 0.938837
0.8898113 0.8909955 0.9602563 0.90063715 0.8905991 0.9976391 0.94541717 0.8568639

conv.6.bias f4 [64]
00000000: 0dcd acbe 30a9 c9be 2636 96be 12de dabe
00000010: b7cf a2be 5db2 48be a023 e8bd f58b ebbe
00000020: 2e43 c1be 56a0 65be 9f72 7dbe b814 98be
00000030: 2bab cfbc adc1 e4be f92f 4bbe 847f c0be
00000040: 5549 68be 846f ffbd e7af 5cbe 5527 babe
00000050: d558 6fbe 70f7 afbe 68fa 95be d2fa b1be
00000060: 3de7 10bf 2c80 59be 429d e7bd 4789 f8be
00000070: a450 08bf 03b3 74bd 5049 b8be dcdc ecbe
00000080: bba9 67be 2171 9abd c574 41be 37b4 62be
00000090: db94 b2be 281e d2be 07ac 50be 9d7e f0be
000000a0: 672c 87be f931 ddbe a2a3 14be ca59 d4bd
000000b0: 4e20 63be 836f 91be c886 12be 5e1c 4bbe
000000c0: fb3e 05be 50e5 d0be d2f7 a4be 516f 3dbe
000000d0: ff2f 4abe 4701 19be 0be8 38be ab08 cebe
000000e0: 9ac9 6abe 3429 d4be 0bee cbbe fba0 dbbe
000000f0: 4f69 dfbd c8f1 eabe 2ba7 46be ecd6 aabe
-0.3375019 -0.39386892 -0.29338187 -0.4274755 -0.317991 -0.1959929 -0.1133492 -0.46005216
-0.37746567 -0.22424445 -0.24750756 -0.29703307 -0.025350174 -0.44679013 -0.19842519 -0.37597287
-0.22684224 -0.12472442 -0.21551476 -0.36358133 -0.2337373 -0.34368467 -0.29292607 -0.34761673
-0.5660284 -0.212403 -0.113092914 -0.48542234 -0.5324805 -0.05974103 -0.35993433 -0.46262252
-0.22623341 -0.07541109 -0.188922 -0.22139059 -0.34879193 -0.41038632 -0.20378123 -0.46971598
-0.26401064 -0.4320219 -0.14515546 -0.103686884 -0.22180292 -0.2840539 -0.14309227 -0.1983504
-0.13012306 -0.40799952 -0.32220322 -0.18499495 -0.19744872 -0.14941894 -0.18057267 -0.40240988
-0.22928467 -0.41437685 -0.3983005 -0.42896256 -0.10908758 -0.4588759 -0.19399707 -0.33367097

conv.6.running_mean f4 [64]
00000000: 9a78 a3bf ead4 c33e cf7d 6fbf f358 8fbf
00000010: f45f 383c 91f3 8bbf 0eb2 bdbd c72f 80bf
00000020: 5925 99bf f292 12bf 6866 53be daec 8fbf
00000030: 0f15 6fbe 20df a2bf 9f28 86bf c81d 8bbe
00000040: 8213 7ebf 9292 75be b512 6bbf 34c3 79bf
00000050: b880 623e 2a7c 96bf 341b bcbe b3d9 bc3f
00000060: 709b 30bf 16fc 24bb 73ea b9bf dead 8bbf
00000070: 198d 7bbf 4879 6b3f 56c5 c3be ed1b a0bf
00000080: 84f9 82be a20b f1be 50b2 c23e 04a8 59be
00000090: f6d4 bebf 593e c9bf 5965 1b3c dbf0 26bf
000000a0: a8ef 7fbe ef06 c3bf 2c15 23bf f021 e8be
000000b0: d7cd c13e 7e49 89be 6ec2 a53d d5b3 e33f
000000c0: 2eec 953f 05a9 65bf f37b 8f3f 54cd a23f
000000d0: 6458 81bf e7f7 89bf a854 57bf b761 19bf
000000e0: b6cf 0abf f0a2 87bf bc08 6cbf ad1c 3cbf
000000f0: 26ce 07bf 4802 8fbf 1511 24bf 89bf f1be
-1.277118 0.38248378 -0.93551344 -1.119902 0.011253346 -1.0933706 -0.09262477 -1.001458
-1.1964523 -0.5725547 -0.20644534 -1.1244156 -0.23347877 -1.2724342 -1.0481147 -0.2717116
-0.99248517 -0.23981693 -0.9182542 -0.9756348 0.22119415 -1.1756642 -0.36739504 1.4753937
-0.6898718 -0.002517467 -1.4524673 -1.0912435 -0.9826217 0.91981936 -0.38236493 -1.2508522
-0.2558099 -0.47079188 0.38026667 -0.21255499 -1.490874 -1.5722152 0.009484612 -0.65211266
-0.24993765 -1.5236491 -0.6370418 -0.45338392 0.37852356 -0.26813883 0.08093725 1.7789255
1.1712701 -0.8971103 1.1209701 1.2718911 -1.01051 -1.0778779 -0.8411355 -0.59914726
-0.5422319 -1.05966 -0.9220083 -0.73481256 -0.5304893 -1.1172571 -0.64088565 -0.47216442

conv.6.running_var f4 [64]
00000000: ba52 963f b012 ad3e 7bd7 ce3f 03d1 da3f
00000010: 1b44 ed3f b4c1 3540 d6b3 963f 10ee 1740
00000020: c644 b43f c15d 1c40 4ed9 fb3f 2880 de3f
00000030: 6e9e 1940 976a 9f3f e1d8 c33f dd7c 113f
00000040: 7364 9c3f 457c 923f 5a34 0540 a7a4 0240
00000050: fe48 583f 8c48 c73f f310 dc3e c2b6 c13f
00000060: ebd0 043f a6a4 db3e a872 d83f aa19 b03f
00000070: 2124 993f 4584 2640 5eee 303f 30e7 0b40
00000080: 0ba5 c53f 7e54 de3f 6381 dc3f 44ab 813f
00000090: a0e0 f13f 4aeb 0940 9dbd 9b3f d232 a73f
000000a0: 3675 173f e383 e73f 2d1a 913f 8ac9 b83f
000000b0: f3b2 d23e afb8 183f e16e 1c40 30cb 0240
000000c0: 5e8f 1b40 e346 c63f c885 ca3f 5eef a63f
000000d0: f6ff c83f 8667 1140 4692 943f 1208 603f
000000e0: 3a5c 5a3f d44c b43f b676 603f 2c80 d63f
000000f0: 9779 0f40 3aeb c93f 7f13 7e3f 9358 203f
1.1743996 0.3380332 1.615951 1.7095035 1.8536409 2.8399477 1.1773632 2.3739052
1.4083488 2.4432223 1.9675691 1.738286 2.4002948 1.2454404 1.5300561 0.5683115
1.2218155 1.1444174 2.0813203 2.0412996 0.8448638 1.5569015 0.4298168 1.5133898
0.51881284 0.42899054 1.690999 1.3757832 1.1964151 2.601823 0.6911372 2.1859856
1.5440992 1.7369535 1.7226986 1.0130391 1.8896675 2.154986 1.216724 1.3062384
0.59163225 1.8087124 1.1336113 1.4436505 0.41152152 0.59656805 2.4442675 2.0436516
2.4306254 1.5490383 1.5822077 1.3041799 1.5703113 2.2719436 1.1607139 0.87512314
0.85296977 1.4085946 0.8768114 1.6757865 2.2417963 1.577491 0.992485 0.62635154

conv.10.weight f4 [128, 64, 3]
00000000: 24c8 1ebe 3d10 b8bd 5d05 42bb bb79 ee3c
00000010: 951a febd c01b 3cbd 4b50 5dbd 2d86 53be
00000020: b546 0fbe 9bdf b93d c1b6 debc 9289 b43d
00000030: 4dd8 11be 1afe 25be b60c 81be 4652 2d3d
00000040: 2919 2b3e ab69 ab3e c743 153e da51 d23d
00000050: 8526 903c 7bae dc3c c9dc dbbe c363 32be
00000060: 94ef 6dbd 1b1e 2d3c 2c33 113d b0e4 9e3e
00000070: afa7 973e 0b29 b83e 6ef4 7f3d 5e73 2f3d
00000080: 316a 223e d353 223d 07eb ebbc 3421 ca3c
00000090: 3920 033a 0b0b 8f3c d9dc a33c aca1 2f3d
000000a0: cdbe 8ebc 5005 66bd f72d 81be 82cf 8cbe
000000b0: 7923 1fbd 078f 0f3d 15c7 6d3d 2c09 373e
000000c0: e07d b03c 5689 12be 5117 6a3e b871 0e3e
000000d0: ca4a 1fbd 6854 303e 15ad 87ba 4e1a 243d
000000e0: 5b0e b73d 4100 d6ba 26ab f2bc 2898 15be
000000f0: 6010 a73d e6ae 3d3d f060 183e c5cd f9bd
00000100: 3abd e43d 6566 dc3d dc64 7dbd 4e83 10be
00000110: 0eb2 473e 2524 cbbd 5358 bebd d24c e9bd
00000120: 386f 8ebc 0ffd 2abe 5dfb 683d 56b5 323d
00000130: d56c cbbd 01f9 213d e2b4 bebd 1201 44be
00000140: a8fe 993e 956d 453e f975 293e 5ce2 283e
00000150: a6de 2bbd b654 92bd 63f6 b1bd a10e a13c
00000160: b8a3 163c c5b8 843d 1d3f 03bb 14da d1bd
00000170: 6ac9 d13d 293d 85bd 875a 5fbe e883 4fbe
00000180: 8d3a 36bd 01eb aabd 6b60 78bd 5802 d4bd
00000190: f3d9 27be 7d00 1e3d 3ed6 9f3d db28 eb3b
000001a0: 3391 a73d 5e13 4fbe cb07 4cbe fe68 82be
000001b0: cc78 b13d b52d 2d3d 7044 473d b565 a53d
000001c0: 4962 e0bc db93 42bd 8383 bdbd 9833 11be
000001d0: 5139 93bd 2af0 34bd 6025 1bbd ff97 c53d
000001e0: 2e64 c2bd 063a 0ebd f49e f1bd de62 f03c
000001f0: be2c ab3d d8a1 e4bc f1ef 04bc 811d 99bd
00000200: a607 98bd c12a 2cbe d9ba 4bbe 570a 6dbe
00000210: 6295 30be c498 6fbe 037c 8abe 0ec7 d53c
00000220: 682b 29be fe8d 0fbd b4f4 88bd f146 f6bd
00000230: 4a09 45be efce 4bbd f1ab c7bd e74a 8fbd
00000240: 735f 203d 0904 67bc 5f40 ba3c 9f13 b83d
00000250: 5791 bc3d 4acb 02be 0ad6 c8bd b2ba 38be
00000260: 62a9 31be f4d1 b5bb 4376 a5bc a8f0 343b
00000270: 9ef1 8e3e c245 81bd a48e a83d 5cb5 4a3e
00000280: ba55 afbc 75ae 3e3e ac23 95bd 0127 7ebe
00000290: 081b 883d 770c 79bc e765 87be 99d8 56be
000002a0: ef6b 0bbe 7ba5 b7bd 2804 aa3c d232 d23d
000002b0: e74c 32bd ed84 91bd 3031 aebd a6b4 61bd
000002c0: d6b7 52be 17c1 1e3e 3619 143d e4ba 983d
000002d0: cdf5 15be f14f 55be 7c4f febd 04bf 35be
000002e0: 19c1 5fbe 222c 6ebd 3f74 67bd 6fc0 ba3c
000002f0: 682d 4a3d 7480 0bbe 0b59 e9bd 74b9 aabd
00000300: 7453 563d 5779 04be 76ef 483e fbbe 803d
00000310: ce83 603e e0eb 24bd b71c fcbd ccee 32bd
00000320: 7343 1a3e 7144 65bb 004b 99bd 0268 33bd
00000330: 8f76 36be dd81 f4bd 68fc c2bd ef03 ed3d
00000340: a9a4 683e 048f 623e 34c6 c33d e5fd 8c3c
00000350: 8f9c a73d 0d7e a53d c6ae 84bc d06b 2d3d
00000360: eeca 8cbd 3b28 35be d3fa 31bd f153 2c3e
00000370: f24a 763e c98b 0d3e 8607 e63d d621 bd3d
00000380: 2208 dc3d 5c89 b3bd 1160 1dbd 118b 21be
00000390: bf87 d33d 7c12 483d 23c6 4b3e 8d46 a83c
000003a0: 55e4 3fbe 5c79 af3c ffcf fe3d 85b5 9cbe
000003b0: bae3 4d3e 9b17 0f3e 213b 683e 003c 3b3e
000003c0: 1ec3 383e e6ec ef3d ca08 463e b4b5 e1bd
000003d0: 2bc0 89bd ecde 6d3d 8392 1b3e 4dbf 593e
000003e0: bd6d 4e3e d3c2 b73c 148d 45bd 8d96 933d
000003f0: 83b3 09be d1db 82bc b665 bc3d 55ea 0d3e
-0.15506035 -0.08987472 -0.0029605248 0.02911078 -0.12407414 -0.045924902 -0.05403165 -0.20656653
-0.13991816 0.090758525 -0.027186753 0.08815302 -0.14242668 -0.16210213 -0.2520501 0.04231479
0.16708817 0.33479056 0.14576636 0.10269518 0.017596493 0.026938668 -0.42941883 -0.17420869
-0.058089808 0.01056626 0.035449192 0.3103385 0.2962012 0.35968813 0.062488966 0.042834632
0.15860821 0.039630722 -0.028798593 0.024674036 0.0005002055 0.01746132 0.02000277 0.04287879
-0.017424965 -0.05615741 -0.2523038 -0.27502066 -0.03885219 0.03504851 0.058051188 0.17874593
0.021544397 -0.14310202 0.22860457 0.13910568 -0.038889684 0.17219698 -0.0010351265 0.04006415
0.08938285 -0.001632698 -0.029622626 -0.14608824 0.0815742 0.046309374 0.14880729 -0.121974505
0.111689046 0.10761718 -0.061863765 -0.14112589 0.19501516 -0.099190034 -0.0929419 -0.113916054
-0.017387018 -0.16698097 0.056880344 0.043629967 -0.099328674 0.03954411 -0.093118444 -0.19141033
0.300771 0.19280083 0.16548909 0.16492599 -0.04196038 -0.071450636 -0.08689573 0.019660296
0.009194307 0.064805545 -0.0020026632 -0.10246673 0.10243495 -0.06505806 -0.21811877 -0.20265162
-0.044489432 -0.08345605 -0.060638826 -0.103520095 -0.16391735 0.038574684 0.07804535 0.007176501
0.081819914 -0.20222232 -0.19924848 -0.25470728 0.08665618 0.042279918 0.04864925 0.0807604
-0.027390616 -0.047504287 -0.092535995 -0.14179838 -0.071886666 -0.04417435 -0.03787744 0.096481316
-0.09491764 -0.034723304 -0.11797896 0.029344019 0.08358143 -0.027909204 -0.008113847 -0.074763305
-0.07423334 -0.16813184 -0.19895495 -0.23148476 -0.17244485 -0.23398119 -0.27047738 0.026095893
-0.16520464 -0.035047524 -0.066872984 -0.1202525 -0.19241825 -0.049757894 -0.09749592 -0.06996708
0.039153527 -0.014100083 0.022735773 0.089881174 0.09207409 -0.12772861 -0.0980645 -0.18039969
-0.1734977 -0.00554871 -0.020197993 0.0027609263 0.27918714 -0.06312133 0.082303315 0.19795746
-0.021403182 0.18621238 -0.072821945 -0.24819566 0.06645781 -0.015200726 -0.26444933 -0.20981063
-0.13615392 -0.0896711 0.020753935 0.102635995 -0.04353037 -0.07105432 -0.085054755 -0.05510392
-0.2057794 0.15503345 0.036156856 0.074575216 -0.14644547 -0.20831276 -0.12417504 -0.17748648
-0.21851005 -0.058147557 -0.056507345 0.022796838 0.04935971 -0.1362322 -0.11393937 -0.083361536
0.05232568 -0.12936912 0.19622597 0.06286427 0.2192528 -0.04026401 -0.123101644 -0.043684766
0.15064792 -0.0034983421 -0.07485008 -0.04380036 -0.17818664 -0.11938832 -0.09520799 0.11573016
0.22719063 0.22124869 0.095592886 0.01721091 0.08184158 0.08080683 -0.01619662 0.042339146
-0.06874643 -0.17691128 -0.043452095 0.16828896 0.24052027 0.13822855 0.11231904 0.09234969
0.10743739 -0.087664336 -0.038421694 -0.15775706 0.10328626 0.048845753 0.19899802 0.020541454
-0.18739446 0.021420173 0.12442016 -0.30607238 0.20106402 0.13973849 0.22678806 0.18284607
0.18043181 0.11715107 0.1933929 -0.11020985 -0.06726106 0.058073923 0.15192609 0.21264382
0.2015905 0.022431767 -0.048230246 0.0720645 -0.13447385 -0.015973957 0.09199087 0.13858922

conv.10.bias f4 [128]
00000000: 7e88 38bd 664f e83b 0b0d 1abd d9f9 5dbd
00000010: 9f5d bc3c 8d73 b53b b1c3 01bd 3db8 3fbd
00000020: be66 a1bc fca4 463d 044d e13c 174f 1fbb
00000030: a2e4 db3c c0fa 8dbd aefe 5a3d cfb1 ebbc
00000040: ed9e eebb 8a30 96bc ae46 6ebd 993e 19bd
00000050: 4f66 3a3d d27e 19bd cd88 97bc 9776 653b
00000060: db79 92bc 05ac 86bc 52be 773d 1101 2c3d
00000070: 31e4 ac3c 1d07 b63c dd00 f8bc 571e 29bd
00000080: 7c04 7ebd 528e debc b2a4 00bd 9ef3 fdbc
00000090: 498a 643c d610 6d3c 448e d8bc 0609 32bd
000000a0: 1d91 043c 89f1 4fbd 7070 443d 6e14 813d
000000b0: 67d6 70bc 7008 da3b 6ea3 fc3c 64b0 e7bb
000000c0: ba6e 803d 5e11 873c 781f 8e3d fe6b c53c
000000d0: 3caf 81bd d509 7ebc 6117 e03b 9248 69bd
000000e0: d04a 80bc 6042 19bc cd06 97bd a9ce ae3c
000000f0: a720 b2bc e9f2 83bd 8ab7 15bc 79a6 f5bc
00000100: e64e f9bb 7e51 da3c 2543 733d a443 07bd
00000110: e583 8d3d 87a6 1abd 5b22 17bd 28eb 22bc
00000120: 0ac6 99bc 23e9 f3bc 64c7 55bc e5c7 6bbd
00000130: 5157 db3c f48d 7e3c 893b 60bd 640d 76bc
00000140: cae1 903d f528 833c e5a7 43bb b156 c8bc
00000150: 134b 4e3d 55a2 7cbd 738e 58bd e124 37bd
00000160: 4cdf d4bc 0d2f ddbc edf9 38bd b7ca e53c
00000170: 0512 82bd 8ad4 c43b 76fb 913b 7351 753d
00000180: 6df4 82bd 597f a03c e006 b7bc 97cb efbb
00000190: cb58 9cbd e417 a1ba 0822 393d 5c4b 803d
000001a0: c825 8cbc d80f b03d e088 24bd 384f a83d
000001b0: 2985 223c 7ac3 8fbd 3298 1ebd 80c4 463d
000001c0: c156 553c a685 843d 85bc 22bd 33df 1b3d
000001d0: e597 b1bc 2543 26bd b19c 3b3c dab2 483c
000001e0: e771 fe3c a702 653d 6683 55bd 93ea 873d
000001f0: 15c4 b73c a285 413d 163c 58bd 5948 fb3c
-0.045052044 0.007089543 -0.037610095 -0.05419335 0.02299386 0.0055374564 -0.031680766 -0.046806563
-0.019702312 0.048497185 0.027502544 -0.0024308616 0.026842419 -0.069325924 0.053465538 -0.02877131
-0.007282129 -0.018333692 -0.058172874 -0.037413213 0.045507725 -0.03747446 -0.018497849 0.0035013312
-0.01788037 -0.016439447 0.060484238 0.041993205 0.021104904 0.022220189 -0.03027385 -0.0412887
-0.062015995 -0.027167473 -0.031407066 -0.030999955 0.013948985 0.014469346 -0.026435025 -0.043465637
0.008091238 -0.050767455 0.04795879 0.06302725 -0.014699555 0.006653838 0.030839648 -0.007070588
0.062711194 0.016487774 0.06939596 0.024099346 -0.063322514 -0.015505274 0.0068387245 -0.056953974
-0.015660673 -0.009354204 -0.07374344 0.021338778 -0.021744085 -0.06442816 -0.009137997 -0.029986607
-0.0076082824 0.026650187 0.059390206 -0.03302349 0.069099225 -0.03775647 -0.036898 -0.009943761
-0.01877119 -0.029774254 -0.013048027 -0.05756368 0.026775034 0.015536774 -0.054744277 -0.015017841
0.07074316 0.01601074 -0.0029854712 -0.0244554 0.050364565 -0.06167825 -0.052870225 -0.044712905
-0.025985382 -0.026999975 -0.045160223 0.028050764 -0.06351093 0.006006782 0.0044550253 0.05989213
-0.06394277 0.019591974 -0.022342145 -0.007317971 -0.076341234 -0.0012290445 0.04519847 0.06264374
-0.01710786 0.08596772 -0.040169597 0.08218235 0.009919443 -0.07019706 -0.038719364 0.04852724
0.013021172 0.06470804 -0.039730567 0.038054656 -0.021678874 -0.040591378 0.011450932 0.012249673
0.031060172 0.055910733 -0.052127264 0.06636538 0.022432366 0.047246583 -0.052791677 0.030674146

conv.11.weight f4 [128]
00000000: 1b28 7e3f 7c93 a63f ee7d a73f 776f 7c3f
00000010: 6983 9c3f 0d69 ba3f e56d 973f 4cde c03f
00000020: f942 9b3f 3a4e 7f3f be64 893f 7930 ab3f
00000030: 881c a43f 319f a23f ee77 793f 5ba0 a73f
00000040: dc3d 823f aa94 823f 0c12 9b3f bcb8 993f
00000050: 431e 9e3f 7435 bd3f f202 b63f 8c8e bf3f
00000060: 32a4 b33f bf45 a23f e5b8 743f dfad 8f3f
00000070: 8e3e d33f 6c16 a13f 8547 973f bb90 9c3f
00000080: b634 1340 2ed7 dd3f b2c8 af3f 94f8 7c3f
00000090: 1be0 da3f 08af 9b3f 7691 aa3f 6fb1 eb3f
000000a0: 5303 863f 0aa9 a03f 5c2f 873f d858 a53f
000000b0: f404 c53f d318 e33f 5973 aa3f 03c0 7d3f
000000c0: ba0f d93f d9b9 de3f 4269 d83f f263 a23f
000000d0: 3ebc 7b3f b5cf 813f 2897 803f c3c4 983f
000000e0: 2150 b63f ee3c 823f d85e 823f d1b1 853f
000000f0: e33e e83f 6e79 793f 1d3c a23f 6453 873f
00000100: 7f80 a23f 330b b73f 6d31 9b3f 3678 963f
00000110: 870d 7b3f 4421 ab3f a6f6 7c3f fdf8 823f
00000120: 35ac b33f b34a 9a3f a675 ed3f 0e87 823f
00000130: 6879 ae3f b751 cd3f 74a8 a73f 12fc 903f
00000140: 864d 853f 0c66 b13f 88c5 ad3f d48a 903f
00000150: d0d9 9f3f 691d a63f 32f9 a03f ace0 8f3f
00000160: 3f70 b13f 72aa a73f eb0e 8f3f a89f 9c3f
00000170: 5013 b43f 1177 9b3f eabd bf3f 99bc 893f
00000180: 891c 953f f170 a23f 7892 ad3f e5c2 a83f
00000190: 1474 8e3f a935 7a3f e5bb a43f 9907 9e3f
000001a0: 4dd5 ac3f 01bd 6b3f 4f88 863f 5ff9 783f
000001b0: 79c9 a23f c710 a13f 3b26 a33f 9e45 a63f
000001c0: a472 983f 7189 833f a3f8 773f 12f9 753f
000001d0: eed4 ae3f 202b c83f 7502 ab3f 5c68 823f
000001e0: ae5f 9d3f d454 bb3f 3e9d 9c3f 0a05 733f
000001f0: 5887 a13f abb3 ab3f 4f91 ee3f 04a3 803f
0.99279946 1.3013759 1.3085306 0.9860758 1.2227603 1.4563309 1.1830412 1.506784
1.2129813 0.9972874 1.0733869 1.3374168 1.2821207 1.2704831 0.97448623 1.3095812
1.0175128 1.0201619 1.2114882 1.2009501 1.2352985 1.4781938 1.4219649 1.4965377
1.4034483 1.2677535 0.95594627 1.1224936 1.6503465 1.2584968 1.1818701 1.2231668
2.3000922 1.7331293 1.3733122 0.988168 1.7099642 1.216279 1.3325641 1.8413523
1.0469764 1.2551587 1.0561328 1.2917738 1.5392137 1.7741951 1.3316451 0.9912111
1.6957924 1.7400466 1.6907122 1.2686751 0.9833411 1.0141512 1.0046129 1.1935047
1.4243203 1.0174844 1.0185194 1.044489 1.8144192 0.9745091 1.2674595 1.0572324
1.2695464 1.4300293 1.2124459 1.1755435 0.98067516 1.3369527 0.98813856 1.0232235
1.4036928 1.2054046 1.8551528 1.0197465 1.36308 1.6040562 1.3098283 1.1326926
1.0414283 1.3859267 1.3575907 1.1292367 1.2488346 1.2977725 1.2576048 1.124044
1.386238 1.3098891 1.1176428 1.2236223 1.4068394 1.2145711 1.4979832 1.076068
1.1649333 1.2690717 1.3560324 1.3184477 1.1129174 0.9773813 1.2869841 1.2346069
1.3502594 0.9208527 1.0510348 0.9725551 1.2717735 1.2583245 1.2746042 1.2989995
1.1909986 1.0276319 0.96863765 0.96083176 1.3658731 1.5638161 1.3360125 1.0188098
1.2294824 1.4635262 1.2235487 0.94929564 1.2619429 1.3414205 1.8638095 1.0049748

conv.11.bias f4 [128]
00000000: 9045 5cbe a4b0 163e 24bb 243e b587 eebd
00000010: 8a2d cebc aea6 a2bd 9f43 0e3e 06e6 343e
00000020: 1c7c 1d3e ceb2 21be 5a5a 31be c507 d23d
00000030: 4b71 c13c 12d6 f73d b854 42be a81e 063e
00000040: 358d 71be aa4a 94be c3ae 31be 89d4 01be
00000050: 4595 823d 9251 643e ac60 f9bc 1fa9 3ebe
00000060: c47b e33d 9f3c bd3d 498e 64be 887b 09be
00000070: 7feb 37ba 5dcb fdbb 4fda d83d 1169 403d
00000080: 3078 113e b9e4 a33d cffc fa3d 8d6b 53be
00000090: e709 0c3e b3e6 d23c 594a 483e f554 46be
000000a0: 5f02 bbbd 6be1 013e f696 02bf c165 9f3d
000000b0: 4578 de3d 0646 103d a568 363e b305 25be
000000c0: 12d5 8f3d 379d 003d 5feb 183e 5ffc 133e
000000d0: befc 48be 58ae c0bd d959 17be e806 0e3e
000000e0: 5083 403d 1817 99be fad1 30be 3351 1ebe
000000f0: d7c6 423e 1972 27be ecb8 8a3d 6509 39be
00000100: afb1 d43d 0b25 c03d a72f 3dbd eb6d 413d
00000110: 7da7 7bbe c3e7 a13d f3e8 5fbe cff4 95be
00000120: 1ce5 1a3e c89b 81bc 853d 293e 8c4a 24bf
00000130: 225a dd3d 99c4 843d b8c5 f53c c11d 6abe
00000140: 62c2 7cbe 134a ea3d cd94 123e 2b80 9abe
00000150: 3ea1 cb3d 612d 7dbe 3fd1 5e3d 6d36 b73d
00000160: 9adb 78be bf59 d93d e4b3 903d 4b4d 4cbe
00000170: e669 fd3d 33f7 bb3d 36f3 313d 7e85 32be
00000180: bfbb 79be 8686 663d 8448 ae3d 3611 a83d
00000190: 5933 14be ddc2 32be 4303 9cbd 7eba 573d
000001a0: 04ae 313d 76b1 b0be 138c 1abe 214c 65be
000001b0: 77d1 e73d 980a ea3d 0168 e33d 146c b03d
000001c0: a891 8b3d faeb dabd a278 55be 6055 41be
000001d0: 7b8b 15be 3492 393e a72f 073e 9626 56be
000001e0: 3918 dabc 8551 133e fb6e d63d fa7e 89be
000001f0: 10d8 f43d 25ad 143e 9e9b a53d 8012 4cbe
-0.21510911 0.1471582 0.16087013 -0.11646978 -0.0251682 -0.07941948 0.13892983 0.17665872
0.15379375 -0.15790865 -0.17319623 0.10255388 0.023613593 0.121013775 -0.1897763 0.13097632
-0.23589022 -0.28963214 -0.17351823 -0.12678732 0.06376127 0.22296742 -0.030441605 -0.18619202
0.11107591 0.09240078 -0.22319902 -0.1342603 -0.00070159876 -0.00774519 0.10588514 0.0469752
0.14206004 0.0800261 0.12255251 -0.20646496 0.13675652 0.025744772 0.19559611 -0.19368346
-0.091313116 0.12683646 -0.510116 0.0778308 0.10862783 0.03522303 0.17813356 -0.16115455
0.07023062 0.03139993 0.14933537 0.1445174 -0.19627663 -0.094082534 -0.14780368 0.13869822
0.04700023 -0.29900432 -0.172676 -0.15460663 0.19021164 -0.16352119 0.06773552 -0.1806999
0.10385453 0.093820654 -0.046188023 0.047223967 -0.2457561 0.07905533 -0.21866207 -0.29288337
0.15126461 -0.015821353 0.16527374 -0.6417625 0.10808207 0.064828105 0.030001506 -0.22862913
-0.24683526 0.1143991 0.14314575 -0.3017591 0.09942864 -0.24724342 0.05439877 0.08945928
-0.24302521 0.10612821 0.070655614 -0.1995136 0.12373714 0.09178009 0.043444835 -0.17433736
-0.24388026 0.056280635 0.08509925 0.08206408 -0.14472713 -0.17457147 -0.076178096 0.052668087
0.043378845 -0.34510392 -0.15092497 -0.22392322 0.11319249 0.11427802 0.111038215 0.08614364
0.06814891 -0.1068954 -0.20846799 -0.18880224 -0.14603989 0.18122178 0.13201772 -0.20913157
-0.026622878 0.14386566 0.104703866 -0.26854688 0.11955273 0.14519174 0.08086322 -0.19928932

conv.11.running_mean f4 [128]
00000000: 797f ddbf f594 a23e bc70 4abf 7f7e 77c0
00000010: 5dcd 3fbf cfd9 99bf 9de1 2a3f 3afa a53e
00000020: 71e0 2abf bfdc 73bf 2154 a8bf 0d52 06bf
00000030: 218f 4c3f 9fb4 0b3f 25a4 dabf 2d4d 2a3f
00000040: 1724 71bf aa72 85bf e6dc d0bf b573 a0be
00000050: 391c cf3e 6b01 2340 23f9 653f 88f5 213c
00000060: 6cd7 9d3f 58eb a1be c23c 3dc0 7366 fcbf
00000070: 3282 0b40 1375 e2be 92fd 0c3d 6e4c bdbf
00000080: 015e 18bf f428 da3f 3fb4 6b3f 8e2e 0dc0
00000090: 0c9c d03c 1fcb 2fbf 3805 18be d448 d53e
000000a0: abb6 4fc0 026c 53be 90f5 82bf 7b39 36be
000000b0: c2f9 223f 5de2 aa3f 022c 6e3f 0304 67c0
000000c0: 6846 9f3f 448c 33bf cb9a 3040 b5bc a2be
000000d0: c6a9 a2bf 085e 3dc0 ae66 61c0 9da6 80bf
000000e0: f210 3640 09f8 403f 653f 5dc0 7714 39c0
000000f0: cd41 0e40 385f 59c0 406a 74bf 9f51 00bf
00000100: 2c1a 1840 2d85 71bf 3bab 8fbf 283a 87bf
00000110: 87f3 aebf bbd4 0f3f fad0 0fc0 de90 44bf
00000120: a5fd 423f c3d5 09c0 c768 57be 342a bdbf
00000130: b59f 8bbf 6321 2e40 715e 8e3f 31ae 9dbf
00000140: e647 66be 7ba5 863f c8f6 06bf c0ba c1bf
00000150: 485b 4abe 8b74 ccbf b9d9 d7bf f95b 20bf
00000160: 3a81 9dbe 5921 8b3f 8412 8a3f bdac e53f
00000170: f4b6 13bf 0d1b e93e c9e5 45bf bdda b7bf
00000180: cc53 ddbf d1fd 53bf e85d 623f 5f3d 54bf
00000190: ba9a 0fc0 df95 4ac0 07c6 c23f cacd f0be
000001a0: b0a5 b33e cc26 8ebf 426d afbe d599 f1bf
000001b0: 04b1 963f bb77 94bf 1423 2cbf 5fd1 4cbf
000001c0: 269b 68bf 32b2 36bf ecff 50c0 80d8 60c0
000001d0: 8f05 ccbe 62e9 133e b916 7b3f a677 33bf
000001e0: 7b15 d9bf 1557 13be ce72 f4bd aeb3 f3be
000001f0: 2831 2a3e ea31 a9be c0a8 41bf 3d68 26c0
-1.7304527 0.3175427 -0.7907827 -3.8670957 -0.74922734 -1.2019595 0.6675051 0.3241747
-0.6674872 -0.95258707 -1.3150674 -0.5246895 0.799059 0.5457248 -1.7081343 0.6652401
-0.94195694 -1.0425618 -1.6317413 -0.31338277 0.4045122 2.5469615 0.8983328 0.009885199
1.2331367 -0.31624866 -2.9568334 -1.9718765 2.1798215 -0.44229946 0.03442151 -1.478895
-0.5951844 1.7043748 0.9207191 -2.2059665 0.025465034 -0.68669313 -0.14845741 0.41657126
-3.2455242 -0.2064667 -1.023119 -0.17795365 0.6366235 1.335033 0.930359 -3.6096199
1.2443361 -0.70135903 2.7594478 -0.31784597 -1.2708061 -2.9588642 -3.521892 -1.0050846
2.8447843 0.7537847 -3.4569943 -2.891874 2.2227662 -3.3964367 -0.95474625 -0.50124544
2.3765974 -0.94343835 -1.122413 -1.0564623 -1.3668069 0.56183976 -2.24713 -0.7678355
0.7616828 -2.153672 -0.21036063 -1.4778504 -1.0908114 2.7207878 1.1122571 -1.2318784
-0.22488365 1.0519251 -0.5272031 -1.5135117 -0.19761384 -1.5973066 -1.6863319 -0.6264034
-0.30762655 1.0869552 1.07869 1.794334 -0.5770104 0.4552845 -0.7730375 -1.4363629
-1.7291198 -0.8280917 0.8842454 -0.82906145 -2.2438188 -3.1653974 1.5216683 -0.47032005
0.35087347 -1.110559 -0.34263045 -1.8875071 1.1772771 -1.1599039 -0.67241025 -0.80006975
-0.9086174 -0.71365654 -3.2656202 -3.513214 -0.3984799 0.14444497 0.9808155 -0.70104444
-1.695968 -0.14388688 -0.1193596 -0.47598022 0.16620314 -0.33045894 -0.7564812 -2.6001122

conv.11.running_var f4 [128]
00000000: d762 a840 896e 0940 f483 1f40 4b21 cc40
00000010: 110d 6b40 bacf bb40 5f3c 9340 dd95 3240
00000020: 80d6 5140 1fa6 b240 c24d aa40 769f dd3f
00000030: 8788 c640 1924 1b40 18cf a340 edb7 9040
00000040: deac b73f 184a de40 ca36 7f40 d6d0 0141
00000050: 2276 3e40 0362 0341 362c fa3f b1d2 b940
00000060: d08b 4240 3714 4a40 c12d 6f40 bf51 de40
00000070: 15c8 2e40 85ff 5d40 2e78 2340 b65e 8640
00000080: 7a5e ee40 51db 3240 13bf 5d40 29d8 0c40
00000090: dac0 ec40 b500 fc3f d20d 2040 b4d5 c83f
000000a0: e510 9740 5f73 5540 e4de 1740 9d0c 6140
000000b0: 7266 9640 e73a 8e40 3da7 c340 c3e6 c740
000000c0: bcce b640 c584 9240 ba42 d740 1796 2c40
000000d0: d734 5540 715e c640 4f75 c940 f1b3 8240
000000e0: e5de 2c40 b3db 4540 1c3f bb40 df22 9e40
000000f0: 1eb8 3441 6a58 9240 b643 6240 73e2 0740
00000100: b4f5 a440 9571 0840 bdb4 0640 04ca 2740
00000110: ebff ee40 710b 2440 5810 a440 2203 d840
00000120: 5eb3 8740 5b2f 0140 076e bd40 21e6 d43f
00000130: 5f28 8340 4902 f840 4ee4 0040 d4af 3b40
00000140: 4580 d440 9f72 3640 8ba4 1240 94ed 8a40
00000150: 8fde 2140 fad7 be40 9f91 8040 5db4 3340
00000160: 5250 ec40 674e 5a40 ec75 1a40 9c38 7940
00000170: 9807 0740 ddfe 1640 68c4 7c40 56c4 c940
00000180: a080 6f40 7492 3940 cc91 d040 8399 2540
00000190: 13de 0141 9f48 be40 90ce b840 d469 1840
000001a0: 7bf8 1840 1101 0d40 df15 0040 4c60 a540
000001b0: 9cec 8140 6c3b 7840 a5a7 4740 ca7f e53f
000001c0: 7425 0240 31a4 a340 bdff d240 e7ce 0041
000001d0: f825 c240 0188 4840 e3a7 af40 71ca b03f
000001e0: dc55 4240 080f a940 985c 0740 c41e dd3f
000001f0: 1fcc 1c40 dedd 4640 225f b440 12b1 2940
5.2620654 2.1473715 2.4924288 6.379064 3.6726725 5.8691072 4.6011195 2.790397
3.278717 5.5827785 5.321992 1.7314289 6.204166 2.4240782 5.11903 4.522452
1.434963 6.9465446 3.987719 8.113485 2.9759603 8.211429 1.9544742 5.806969
3.0397835 3.1574838 3.7371676 6.947479 2.730962 3.4687207 2.5542102 4.1990614
7.449033 2.794636 3.4647872 2.2006934 7.3985415 1.9687716 2.5008435 1.5690217
4.7208123 3.3351667 2.3729792 3.5163949 4.7000055 4.44469 6.114165 6.246919
5.712736 4.578707 6.7268953 2.6966608 3.33135 6.1990285 6.29557 4.0844655
2.7011044 3.0915344 5.851454 4.9417567 11.2949505 4.5732927 3.5353827 2.1231964
5.154993 2.1319325 2.1047814 2.621705 7.46874 2.5631983 5.126995 6.7503824
4.2406454 2.0185153 5.919681 1.663273 4.098678 7.750279 2.0139346 2.9326067
6.640658 2.850746 2.291293 4.341501 2.529209 5.9638643 4.017776 2.8078835
7.3848047 3.4110353 2.4134474 3.8940802 2.1098385 2.3593056 3.9494877 6.305217
3.7422256 2.8995638 6.5177975 2.5874946 8.116717 5.946365 5.775215 2.3814592
2.390166 2.20319 2.001335 5.168005 4.060133 3.8786268 3.1196072 1.7929623
2.033536 5.113793 6.593718 8.050513 6.067135 3.133301 5.489244 1.381178
3.0364904 5.283085 2.1150265 1.7275014 2.4499586 3.1072917 5.636613 2.6514325
