output/energy_cnn_20260221_233600/checkpoints/epoch_15.pt (torch, 767268 bytes, 23 tensors)

conv.0.weight f4 [64, 15, 7]
000000 bb 6c ad 3d 75 56 c7 bc a3 80 5b 3d c2 a9 b4 3d
       0.08468004 -0.024333218 0.053589474 0.08821441
000010 65 6a 1c bd b1 b2 74 3c 61 41 ac bc 9a 84 93 bd
       -0.038187403 0.0149351815 -0.021027269 -0.07203026
000020 0a 1a a8 bd 12 d1 9a 3c 6b 37 96 bd ce 71 1e bd
       -0.082080916 0.01889852 -0.07334789 -0.03868275
000030 e0 dc c5 bc de 21 a5 3c 6e 93 4a bd f6 aa 88 3d
       -0.024153173 0.02015775 -0.049457006 0.06673233
000040 f4 ee 5b bd 93 70 be bd 02 20 a8 bd 22 0e 62 3d
       -0.05369468 -0.092988156 -0.0820923 0.05518926
000050 bb b5 8a bc 3c c0 1c 3c 13 a5 43 bd 03 b2 8e 3b
       -0.016932359 0.009567317 -0.04776485 0.0043547167
000060 0d 0a c0 bd f7 7f 26 3c b2 bc c9 bd 13 9d 81 3c
       -0.09376917 0.010162345 -0.09850444 0.01582197
000070 0e b6 1c 3d 98 eb 47 bd 49 3d 67 3d d3 76 c9 bc
       0.03825956 -0.048808664 0.05645493 -0.024592793
000080 2d 81 1c 3c a0 99 3b bd 53 02 76 bd 14 2c 87 3d
       0.009552282 -0.045800805 -0.06006081 0.06600204
000090 47 3e c3 3c 97 12 67 3d 64 51 b0 bd db 27 3f bd
       0.023833407 0.056414213 -0.08609274 -0.04666887
0000a0 c7 f0 89 3c b3 80 4e 3d af 39 87 bd 52 25 99 3c
       0.016838444 0.050415706 -0.06602799 0.018694554
0000b0 34 d5 1b bc 22 b0 71 bb 50 06 44 3d 02 91 31 bd
       -0.009511281 -0.0036878665 0.047857583 -0.04335118
0000c0 11 34 1b 3d 24 dd 0c be 87 1d 80 bd 00 0e 9c bd
       0.03789145 -0.13756233 -0.06255632 -0.07619858
0000d0 c1 f2 c7 bd 44 84 07 be a6 c7 fc bd 91 fe 59 bd
       -0.097630985 -0.13234049 -0.123427674 -0.05322129
0000e0 11 9d 93 3d a4 d6 d2 bc 9e 4d 2f bd b3 62 b9 bc
       0.072076924 -0.025737114 -0.04279863 -0.022630071
0000f0 f5 96 a8 bc 0d c3 a1 bb fd 71 c1 3d 98 4a c7 3c
       -0.020579794 -0.004936582 0.0944557 0.024327561
000100 db 39 f4 bc e0 5d fe 3c 2c 98 71 3d f0 90 47 bd
       -0.029812744 0.031050622 0.058983013 -0.048722208
000110 5c 96 91 3d b6 cc af 3d d6 2d 60 3b b4 e2 8c bd
       0.07108757 0.085839674 0.0034207008 -0.06879178
000120 d4 03 ff b9 cb 50 68 bd 24 ac b9 3d 88 40 74 bc
       -0.00048640242 -0.056717675 0.09066036 -0.014907964
000130 fc 58 24 3d 25 66 88 bd 11 2e 8c bd 25 74 78 3d
       0.040123925 -0.066601075 -0.06844724 0.06065764
000140 aa 00 b5 bd 63 0d a8 3c 5b 2b e4 3c 3f 08 a8 3d
       -0.08838017 0.020514196 0.027852705 0.08204698
000150 1f 1e c2 3c 50 4a de 3c 26 12 46 3d fa 3f c8 3d
       0.023696003 0.027135044 0.04835715 0.097778276
000160 0c ba aa 3d f0 72 7b 3d fe 55 19 3c e0 d6 c3 bd
       0.08336267 0.06138891 0.009358881 -0.095624685
000170 eb a3 38 bd 17 7e f0 3c 0e 1b 7a 3d f6 97 8c bd
       -0.0450782 0.029357 0.061060958 -0.06864922
000180 f3 ec d0 3c ba 60 a2 3d 5d 8b 0e bd fb 04 b8 3d
       0.025503611 0.079286054 -0.034800876 0.08985325
000190 f7 98 95 3d 6a ae b7 bd 7f 15 67 3d 4d d1 36 3d
       0.07304566 -0.08968814 0.056416985 0.0446332
0001a0 6c b5 06 bd 11 b4 8e 3d 19 ec 30 3c 15 95 99 3d
       -0.03288786 0.06967939 0.010798478 0.07499138
0001b0 b2 f1 05 3d 88 d0 02 3b 57 e6 88 bb ab ba 1e 3c
       0.0327012 0.001996072 -0.0041778493 0.00968806
0001c0 a7 16 e9 bc fb 45 61 bd 56 88 90 bc 40 63 98 bd
       -0.028453184 -0.05499838 -0.017643135 -0.074408054
0001d0 6d 8e 7b bd d3 63 ad 3d dd d9 9a 3d e0 bc a2 bc
       -0.061415125 0.084663056 0.075610854 -0.019865453
0001e0 89 33 67 3d 0a c9 8a 3c aa 33 20 3d 7b 91 de bc
       0.056445632 0.016941566 0.03911177 -0.02716898
0001f0 e5 98 63 bd 21 2d ad bd 5e 37 a1 bd 69 4e 50 3b
       -0.055565733 -0.08455873 -0.078718886 0.0031785017
000200 ff 40 cc bd 53 2f dd bc ab f0 0a bd 7d 04 1e bd
       -0.099733345 -0.027000105 -0.033920925 -0.0385785
000210 87 d4 8a 3d 6d 04 7f bd 9e 47 b7 3b 5c c4 88 3d
       0.067788176 -0.06226008 0.005593254 0.066780776
000220 71 df e2 bc 27 87 14 bc 90 13 30 bd ac 5e 2a 3c
       -0.027694436 -0.009065426 -0.042987406 0.010398548
000230 74 83 a4 bd 8f fb 9e bd 88 63 be bd d1 36 9b 3d
       -0.08032885 -0.07762825 -0.09296328 0.07578815
000240 f9 b2 44 bd 13 21 9c 3a fd bc 3c 3d 5b 98 98 3d
       -0.048022244 0.0011911712 0.04607867 0.074509345
000250 45 aa 56 bd a3 cc a2 bd 83 52 32 3d 4f 14 cf 3d
       -0.052408475 -0.079491876 0.04353572 0.101112954
000260 86 a3 30 bd 3c 63 83 bd 37 6f 20 3d 8e 2f c5 3c
       -0.043124698 -0.06415412 0.039168563 0.024070527
000270 05 60 54 bd 04 75 0d 3d 9d c3 4a 3d b7 00 8c 3c
       -0.051849384 0.034535423 0.049502958 0.017090185
000280 66 60 91 bc 36 dd 7b 3c 6a a1 e8 3d ae 3c 88 3d
       -0.017746162 0.015372565 0.11358912 0.06652199
000290 ec c9 06 3e e9 cd 14 3e 81 f8 77 3d bb d7 bd bb
       0.13162965 0.14531673 0.060539726 -0.0057935393
0002a0 38 21 41 bd d1 65 91 bd b0 c2 07 3d c3 77 8b bd
       -0.04715082 -0.07099498 0.033144653 -0.06809952
0002b0 17 d6 cd 3d 08 e5 f5 3b ab 94 b0 3b 5a 6c 2c 3c
       0.100506 0.0075041093 0.0053888164 0.01052388
0002c0 03 ab 60 3d c9 e4 ab 3d 52 b8 c6 3c 23 7d 75 bc
       0.05485059 0.08393247 0.024257813 -0.014983448
0002d0 5c 10 92 3c 3b 64 ee bc a4 03 90 3d fb 13 16 bd
       0.017830066 -0.029100528 0.070319444 -0.03664015
0002e0 1c 6d ba bd 60 8d 42 bd 35 e5 c5 bd 48 4c 6b bd
       -0.09102842 -0.047498107 -0.096628584 -0.057445794
0002f0 c6 db 7f 3d 69 63 a1 3d ab 44 ea bc 06 50 64 bd
       0.06246545 0.07880289 -0.028597197 -0.05574038
000300 80 cc 48 bd b4 37 66 3c ae 66 69 3d 9b 47 b1 3d
       -0.04902315 0.014051367 0.05698269 0.08656236
000310 2b 1b ad bc 22 1c 35 bc 16 59 ee 3c 82 16 11 bd
       -0.021131119 -0.011054071 0.029095214 -0.035421856
000320 88 51 9e bd eb e4 aa 3d c7 bb 18 bd fe 8a 65 bd
       -0.077303946 0.08344444 -0.037288453 -0.056040756
000330 ad 9f c3 bd 8c 21 be bd b8 36 a7 bd 90 22 7c bd
       -0.0955194 -0.09283742 -0.08164734 -0.0615564
000340 51 2c f9 3c 72 2f 9e bd 47 26 8e 3c fe 98 3b bd
       0.03041664 -0.07723893 0.017352236 -0.0458002
000350 5d 92 01 3d 84 f2 9d 3d eb b2 81 bd 49 92 84 3a
       0.031633724 0.07712272 -0.06332954 0.0010114397
000360 47 95 2b 3d e2 0b ad bd b2 0e 31 3c d4 c3 3e 3d
       0.04189041 -0.08449532 0.010806726 0.046573475
000370 4d 32 44 bc e1 3a b7 3d 11 2e 04 3d 2d 1e 4f bd
       -0.011974883 0.08946777 0.032270495 -0.050565887
000380 bc 8c 92 bb 4d 05 a3 bd da 40 94 bd 4c 99 3f bd
       -0.0044723433 -0.079599954 -0.07238932 -0.046777055
000390 14 ee 67 3d bd aa a2 3d a9 c8 c3 bd 54 42 a2 3d
       0.056623533 0.07942722 -0.09559757 0.07922807
0003a0 a2 13 9f bd f2 e1 2e bd 25 e3 ac bd 5f 99 7f 3d
       -0.077674165 -0.042695947 -0.08441762 0.062402125
0003b0 4e 6f 2f bd ba 86 08 3c 45 72 5a 3d 03 ba bb 3b
       -0.042830758 0.008332903 0.053331632 0.0057289614
0003c0 8f 75 2e 3d 19 e1 1d bc c0 c4 0e 3c 0e 9e 98 3d
       0.04259258 -0.009636187 0.008713901 0.074520215
0003d0 54 9c c0 bd 70 04 61 3d 8f a2 70 bd 6b 40 44 bc
       -0.09404817 0.054935873 -0.058748778 -0.011978249
0003e0 a7 ce a9 3d 58 5c 9f 3d 45 a0 e8 3b c6 e3 96 bc
       0.08291369 0.07781285 0.0070991837 -0.018419158
0003f0 15 f4 c2 3d 1d a8 94 bd 99 31 3c bd 42 79 ac bd
       0.09519211 -0.072586276 -0.045945738 -0.084215656

conv.0.bias f4 [64]
000000 29 20 9b 3d 61 f3 86 bb d3 01 48 3d e6 30 1e bc
       0.075744934 -0.0041183685 0.048829865 -0.009655213
000010 af 9f 5d bb 9b 0e 98 bd f8 be 49 bc b6 b4 22 3d
       -0.0033817103 -0.07424661 -0.012313597 0.03972312
000020 92 0e dd bb 6b e3 99 bd d1 32 8c bd 81 fb bc bc
       -0.0067461217 -0.0751408 -0.0684563 -0.023069145
000030 2d 2a 89 bd 45 15 7f bd 60 f9 9a 3d a2 d5 9c bd
       -0.066974975 -0.062276144 0.07567096 -0.07657935
000040 78 9d 42 3c 0b 2c 84 3d 26 ff a9 bd 2b 6b 2f bd
       0.011878364 0.06453713 -0.08300619 -0.042826813
000050 4e 02 93 3d ce 8c 83 3c cf dc 00 3d df 30 1d bd
       0.07178174 0.016058352 0.03146058 -0.038376685
000060 b9 d9 88 bd 7d b9 f7 3b 5f 78 c3 3c fe 1c 2e 3d
       -0.06682152 0.0075599537 0.023861108 0.042508118
000070 f6 f8 17 3d 6f 6e 0a bd a4 04 32 bc e9 14 9f 3d
       0.037102662 -0.033796724 -0.010865364 0.0776766
000080 e2 80 c5 3d 21 5a 17 3d 62 75 17 bc 6c d6 ac bd
       0.09643723 0.036951188 -0.009244295 -0.08439335
000090 f6 d1 05 bd 91 f5 8f 3d f4 18 2b bc 62 46 c4 bd
       -0.032670937 0.0702926 -0.010442961 -0.09583737
0000a0 2d 58 b5 3d 9f d8 88 bd 34 fb c2 3d 5c 6b 8a bd
       0.08854709 -0.06681942 0.095205694 -0.067587584
0000b0 69 26 40 bd c1 a1 98 3d 52 da b0 3c fa 99 cb ba
       -0.04691163 0.07452727 0.021588478 -0.001553356
0000c0 95 7a 01 3d 23 f7 31 bd 2c f7 b5 3d 17 c3 95 3c
       0.031611044 -0.04344858 0.08885035 0.018281503
0000d0 6a 4a 13 bd 1d a4 01 bd 85 57 3c 3d 8f 3f 2e bd
       -0.03595964 -0.03165065 0.045981903 -0.042541083
0000e0 b5 e2 e1 bc b4 65 82 bd f2 13 53 3d 67 b6 97 bc
       -0.027573923 -0.063670546 0.051532693 -0.018519593
0000f0 7f 9e 70 3d 30 b1 bf 3d 82 6f cd 3c 6f b8 c0 bb
       0.058744904 0.09359968 0.025077585 -0.005881361

conv.1.weight f4 [64]
000000 32 ba 71 3f 84 4a 6b 3f 31 79 73 3f 43 31 76 3f
       0.94424736 0.91910577 0.951068 0.9616892
000010 c3 45 82 3f c9 eb 76 3f 55 67 79 3f a4 38 7a 3f
       1.017754 0.9645353 0.974233 0.97742677
000020 33 20 70 3f 29 9a 7b 3f 22 17 90 3f 82 ab 65 3f
       0.9379913 0.98282105 1.125706 0.89714825
000030 e5 5d 83 3f 6d ec 83 3f c2 75 7a 3f 78 04 7a 3f
       1.0263029 1.0306526 0.97835934 0.9766307
000040 97 66 74 3f 13 50 7c 3f df 37 76 3f 3e b4 6f 3f
       0.9546904 0.98559684 0.96179 0.936344
000050 95 d3 7e 3f e6 ae 8c 3f a4 2d 80 3f ee 1f 76 3f
       0.995416 1.0990875 1.0013928 0.9614247
000060 e5 e2 7e 3f f5 e4 7c 3f ed 2c 79 3f 63 a2 7a 3f
       0.99564964 0.9878686 0.97334176 0.9790403
000070 40 44 91 3f 26 23 80 3f ae dd 81 3f 56 38 6a 3f
       1.1348953 1.0010726 1.0145776 0.9149221
000080 e7 8f 87 3f 73 99 78 3f 10 f2 77 3f bb 61 7a 3f
       1.059079 0.97109145 0.96853733 0.97805375
000090 87 96 7a 3f fe 22 78 3f 9d a2 88 3f 90 9e 6f 3f
       0.97885936 0.96928394 1.0674626 0.9360132
0000a0 e1 7e 8a 3f 95 6b 82 3f 20 94 78 3f 67 f1 7c 3f
       1.081997 1.0189081 0.9710102 0.9880585
0000b0 00 46 71 3f 6c dc 82 3f 0e 31 87 3f e7 11 8b 3f
       0.94247437 1.0223517 1.0561845 1.0864838
0000c0 7a 19 74 3f 26 d7 86 3f c3 23 80 3f e9 ba 7f 3f
       0.95351374 1.0534408 1.0010914 0.9989458
0000d0 51 8e 82 3f e7 9f 8b 3f 49 46 6d 3f 1a c3 75 3f
       1.0199682 1.0908173 0.9268537 0.96000826
0000e0 55 6c 7f 3f 2c da 76 3f c7 d0 7f 3f ca f0 82 3f
       0.99774677 0.96426654 0.99927944 1.0229733
0000f0 47 e9 78 3f 72 c4 79 3f de 91 5e 3f 03 96 8d 3f
       0.9723095 0.97565377 0.86941326 1.1061405

conv.1.bias f4 [64]
000000 ae f8 9f bd 4f 5f 4e bd 48 a6 1f bd df 0e 83 bd
       -0.07811104 -0.050383862 -0.038976938 -0.06399321
000010 dd e5 c4 bc 81 c5 6c bd ac bf 63 bc 2d 47 89 bc
       -0.024035389 -0.057805542 -0.013900679 -0.016757572
000020 4d b3 34 bd a2 2a 65 bd 9f b3 a1 3b c5 5e 7c bd
       -0.044116307 -0.05594886 0.0049347426 -0.061613817
000030 ba 1a 78 ba 78 b8 fe bc 6f af 31 bd 8b e9 b9 bc
       -0.0009464432 -0.03109382 -0.043380197 -0.02269437
000040 f5 1f 9a bd 47 c0 d4 bc f1 cc 63 bd 5f 1b 9c bd
       -0.075256266 -0.025970591 -0.05561537 -0.07622408
000050 8c df 08 bd ce b7 5f 3c d9 ed a8 bc 97 1e 57 bd
       -0.033416316 0.013654662 -0.020621227 -0.052519407
000060 2d f9 43 bc 88 62 45 bd 1b a1 3b bd ad 8b fe bc
       -0.011961264 -0.04818967 -0.04580794 -0.031072462
000070 a1 98 8b 3d 2a e5 ff bc 26 f0 00 bd 14 e9 68 bd
       0.06816221 -0.031237204 -0.031479023 -0.056862906
000080 5c 77 c6 3a cd b2 02 bd 4d e2 c7 bd 35 ba 8a bc
       0.0015141773 -0.0319088 -0.0975996 -0.016934494
000090 aa 32 9e bd 48 6c 69 bd 89 05 62 3c d4 0c 23 bd
       -0.07724507 -0.05698803 0.013795265 -0.039807156
0000a0 58 c5 30 3c 25 c8 c4 bc 95 92 25 bd 25 5b 03 bd
       0.010789238 -0.024021218 -0.040422995 -0.032069344
0000b0 60 ac f8 bc f1 c0 24 bd f4 8e 8f 3b aa 13 ab 3c
       -0.030355632 -0.040223066 0.004381055 0.0208834
0000c0 a5 27 e5 bc 3c 0a 0f bd e2 41 67 bc 9a 8e 8d 3b
       -0.027973006 -0.03492187 -0.014114829 0.004319978
0000d0 74 0f ae ba 12 b5 fc bb 58 23 d2 bd 7b c7 a7 bc
       -0.0013279752 -0.007712015 -0.102606475 -0.020480862
0000e0 a5 42 24 bd f8 d0 56 bd bb d1 ff bc 48 50 15 bd
       -0.04010262 -0.052445382 -0.031227937 -0.036453515
0000f0 e6 f7 2a bd 96 90 97 bc 17 3d fe bd e3 11 02 bc
       -0.04174032 -0.018501561 -0.12413996 -0.007938835

conv.1.running_mean f4 [64]
000000 f8 65 91 3d f3 ad 8b bb 47 67 21 3d 65 ca fe bb
       0.07099527 -0.0042626797 0.039405134 -0.007775592
000010 d6 98 a9 b8 ac 4d 98 bd 9c 86 be bc 13 00 3e 3d
       -8.087016e-05 -0.0743669 -0.023257546 0.04638679
000020 79 82 59 bc 75 ed 8c bd 8c e0 8d bd 8e b3 e3 bc
       -0.013275736 -0.06881229 -0.069275945 -0.02779558
000030 b4 80 8b bd a2 81 7e bd 4c 18 9c 3d cc bd 95 bd
       -0.068116575 -0.062135346 0.07621822 -0.073115915
000040 13 30 88 3c 4d 3f 8c 3d 12 ce a7 bd 79 24 0a bd
       0.016624486 0.06848011 -0.08193602 -0.03372619
000050 72 f0 8f 3d 7c db b4 3c a5 6c 1a 3d 50 3e 07 bd
       0.07028283 0.022077315 0.037701268 -0.03301841
000060 cd a8 86 bd de d3 a3 3a 6d 3d ae 3c 60 45 1f 3d
       -0.06575165 0.0012499054 0.021269524 0.03888452
000070 a4 f7 13 3d e0 f9 19 bd 8a 46 13 bc e5 95 9a 3d
       0.03612484 -0.037591815 -0.008988986 0.07548121
000080 7a 3f c9 3d b4 56 08 3d 7f 80 05 bc 15 26 94 bd
       0.0982656 0.03328581 -0.008148312 -0.07233826
000090 fb e1 e8 bc 62 da a4 3d 5e e2 f5 bb 5e a7 c5 bd
       -0.028428068 0.08049466 -0.0075037917 -0.096510634
0000a0 78 69 b7 3d 0f 3e 7d bd 0e 43 c3 3d 06 7b 86 bd
       0.089556634 -0.06182676 0.09534274 -0.065664336
0000b0 56 63 4c bd 4d 8f a2 3d 74 7a dd 3c 23 df 1a bb
       -0.04989942 0.07937489 0.02703593 -0.0023631535
0000c0 aa 98 0e 3d 3e 63 2e bd 98 e0 b6 3d fb 8f a5 3c
       0.03481356 -0.042575113 0.089295566 0.020210257
0000d0 db 5c 18 bd a1 eb df bc fb 0c 27 3d 66 b8 52 bd
       -0.03719793 -0.027334036 0.040783864 -0.051445387
0000e0 34 72 07 bd 03 dc 7e bd 5f 32 52 3d 75 24 b3 bc
       -0.033067897 -0.06222154 0.05131757 -0.02186797
0000f0 84 46 41 3d 2f a8 b3 3d fe 72 ce 3c 8d c6 43 bb
       0.04718639 0.08772313 0.025201317 -0.0029872984

conv.1.running_var f4 [64]
000000 9b 3a 2e 3f 4a b9 22 3f d3 e0 1c 3f 07 d2 ed 3e
       0.68058175 0.6356398 0.61280555 0.464493
000010 32 9b e6 3e 18 7c 5b 3f 6c c5 a3 3f 11 f4 76 3f
       0.4504028 0.8573623 1.2794623 0.96466166
000020 c6 d1 d2 3f 79 fc cb 3e 4f 26 49 3f 97 b7 64 3f
       1.6470268 0.3984106 0.7857408 0.89342636
000030 e7 b5 0d 3f 54 66 21 3f d8 e3 d7 3e bf 31 36 3f
       0.55355686 0.63046765 0.42166018 0.71169657
000040 f4 0b ae 3e 3b d4 e5 3e fd 6c 94 3f 6e 57 ee 3e
       0.33993495 0.44888481 1.159576 0.4655108
000050 91 29 69 3f 43 55 a1 3f 2f 85 05 3f cb 68 82 3e
       0.9107905 1.2604145 0.5215635 0.25470576
000060 54 c2 f6 3e 31 0a 8c 3f ae 82 0b 3f b0 34 b9 3e
       0.48195136 1.094061 0.54496276 0.3617301
000070 6b df 37 3f f4 30 f1 3e 42 e2 fd 3e e8 27 28 3f
       0.71825284 0.4710766 0.49586684 0.6568589
000080 6f 2c 6e 3f ab 29 02 3f a7 81 9b 3e c0 46 b6 3f
       0.9303655 0.5084483 0.30372354 1.4240341
000090 b7 37 5a 3f f0 e0 21 3f 3b c2 64 3f 04 a8 32 3f
       0.85241264 0.6323385 0.8935887 0.6978762
0000a0 6e 9a 39 3f f4 5b 21 3f 4d 4d 0b 3f ce bb 79 3f
       0.72501266 0.63030934 0.54414827 0.9755219
0000b0 17 4a 0d 3f 3a 17 3c 3f 38 32 d5 3f d6 87 aa 3f
       0.5519118 0.7347294 1.665595 1.3322704
0000c0 62 17 11 3f 6b ad 16 3f 9a 09 26 3f 98 e2 09 3f
       0.56676304 0.58858365 0.648584 0.5386138
0000d0 f5 a8 e0 3e 8d f9 99 3f 4a a5 73 3f 8d 1a 7e 3f
       0.43878904 1.2029282 0.95174086 0.99259263
0000e0 c1 31 ce 3e 4d 2d 36 3f 80 d3 15 3f 6a 2b 1b 3f
       0.40272334 0.71162874 0.5852585 0.6061312
0000f0 c0 70 a5 3f 61 ca 63 3f aa 04 1d 3f 59 26 52 3f
       1.2925034 0.8898068 0.6133524 0.82089764

conv.5.weight f4 [128, 64, 5]
000000 20 cf a5 bc ba d9 52 3d 99 a8 13 3d a6 b2 18 bc
       -0.020240366 0.05147717 0.03604946 -0.009319937
000010 36 73 8b bc a7 e7 c7 bc 67 ee 2a 3d 48 df 07 bd
       -0.01702271 -0.024402453 0.041731264 -0.033171922
000020 72 67 ad 3c d5 43 e3 bb 82 51 94 3a 3c 26 06 3c
       0.02116749 -0.0069355764 0.0011315795 0.008187827
000030 22 fa d8 3c 71 7a ea 39 49 aa 33 3d 35 43 30 3d
       0.02648646 0.00044723184 0.04386357 0.043032844
000040 40 9b 5a 3d cd e4 5a 3d c3 46 07 3d 44 8a 5b 3d
       0.053370714 0.053440858 0.033026468 0.053598657
000050 40 6c 39 bd bf ae 40 bd 46 d6 64 bd 6f 6e b5 bc
       -0.04526925 -0.04704165 -0.05586841 -0.022147385
000060 47 07 b4 bc 78 a8 2c bd 8e b7 46 3c 5b b4 04 3d
       -0.021976126 -0.04215285 0.012128724 0.032398563
000070 0f d4 e0 bc dc d0 44 3d f8 0c 0a 3a 8f e2 b1 bc
       -0.027444867 0.048050746 0.0005266215 -0.021714477
000080 06 67 6e bd 60 ae a7 bc d9 cf d0 bc 80 fb 11 b9
       -0.05820372 -0.02046889 -0.025489734 -0.00013921969
000090 ed 27 1d 3d e6 87 80 3d 50 90 5e 3d 13 2b 8b 3c
       0.038368154 0.062759206 0.054336846 0.016988313
0000a0 18 6e 2a bd 72 ba 88 bd d8 b2 02 bc 8d 64 1d 3c
       -0.0416089 -0.066761866 -0.00797721 0.009606493
0000b0 34 a0 9d 3c 32 91 92 bd 8f 03 ae 3c 46 e2 43 bd
       0.01924143 -0.071566 0.021241931 -0.047823213
0000c0 d6 22 96 ba 5d 11 89 bd 9f 6f 7f 3c ca a4 5b 3d
       -0.0011454474 -0.06692765 0.015590577 0.053623952
0000d0 e8 5a a1 3c d2 6c 28 3b 95 74 db bb 8a b6 e2 bc
       0.019696668 0.0025699628 -0.0066972473 -0.027674932
0000e0 44 db 06 bd 5b 15 40 bd 22 6a 05 bd c1 22 58 bd
       -0.03292395 -0.046895366 -0.03257192 -0.05276752
0000f0 41 d0 1f bd 7e 86 49 bc 12 68 02 3d b9 ae cd bc
       -0.039016966 -0.012300132 0.03183753 -0.025107728
000100 62 e1 08 3d 2d a4 3d 3d a7 ca f1 3c 1e f0 f3 bc
       0.033418067 0.04629915 0.029515577 -0.029777583
000110 d7 4b 09 3d 85 ed 22 bb ea 59 8c 3c 9a c5 d1 3c
       0.033519592 -0.002486081 0.017132718 0.02560692
000120 af b5 f1 3c 9f 33 38 bd fa 46 f5 bc 94 06 94 3c
       0.029505579 -0.044971105 -0.02994107 0.018069543
000130 97 44 47 bd b0 7a cb bc dc c4 97 3c ce f0 c3 3c
       -0.048649397 -0.024838775 0.018526487 0.023918536
000140 1c 2a 74 3b 4f f0 af bc 56 15 09 3c 08 37 d6 3c
       0.0037256544 -0.021476893 0.008366903 0.026149288
000150 dc 7a 6c bd 9b b3 39 bd 69 3d 1b bd 6f 7d 55 bd
       -0.057734355 -0.0453373 -0.037900362 -0.052121576
000160 30 4d 2d 3d 20 db 7a 3d 17 7f 7b bd 00 7e c6 3c
       0.04230994 0.06124413 -0.0614005 0.024230003
000170 cd 82 86 bd 4e e4 f1 b9 14 3b 89 bc 05 74 ac ba
       -0.06567917 -0.00046137202 -0.016751803 -0.0013157135
000180 81 04 06 bd 36 d4 3e bd a4 d6 79 3a 0b 21 0b bd
       -0.03271914 -0.0465891 0.000953058 -0.03396706
000190 3e 4e 1b 3d 7c 6d 58 3c 68 14 85 3c 8c b9 ff bc
       0.037916414 0.013209697 0.016245082 -0.031216405
0001a0 f5 96 6d 3c fc 8e 3b 3d 44 75 97 3d 9c d2 a0 3d
       0.014501323 0.045790657 0.073954135 0.078526706
0001b0 11 87 08 bd 65 ef d2 3c d9 b5 08 3d a8 b5 3b 3c
       -0.033331934 0.025748918 0.03337655 0.011456884
0001c0 97 6a ad 3c 71 bb 3b bb 91 e1 27 3d 2d e6 31 bd
       0.02116899 -0.002864566 0.0409866 -0.043432403
0001d0 f7 00 92 bc c2 aa 57 bd d4 d9 61 bd 11 9b 02 3c
       -0.017822726 -0.05265308 -0.055139378 0.007971541
0001e0 3c 35 68 bd ca cd 53 bd 5b f8 f3 bc 03 b2 98 bc
       -0.056691393 -0.051709928 -0.029781511 -0.01863957
0001f0 61 d7 26 3c 8e b2 5b 3d 57 33 62 3d 74 29 22 bd
       0.010183186 0.05363708 0.055224743 -0.039590314
000200 59 bb f2 3c ca c2 1d 3d 4e d5 14 3c 39 35 9a 3c
       0.02963035 0.038515843 0.009084059 0.018824207
000210 67 18 9d 3c b0 54 32 bd 7d 81 65 bd 89 8b fc 3c
       0.019176675 -0.043537796 -0.056031693 0.030828254
000220 c7 b5 c2 bb f2 d2 fb 3c 28 ee 2b 3d 8e c4 45 bd
       -0.0059420797 0.030740235 0.04197517 -0.048283152
000230 bd 0b 03 3d 0b f6 f5 ba 8d 4a 60 3c bd 42 f9 3c
       0.031993616 -0.0018765343 0.013689649 0.030427331
000240 b5 e2 1f bb 0b 81 9f 3c b9 f4 ab bc fd b4 93 bc
       -0.0024396603 0.019470712 -0.020990716 -0.018030638
000250 90 b1 fe bc 83 f5 5e 3c 50 6d e0 bb 94 cc 95 bc
       -0.031090528 0.013608339 -0.0068489686 -0.018286027
000260 50 d8 63 bd e4 d6 78 bd 5d 07 31 3d a0 42 0a 3d
       -0.055626214 -0.06075181 0.043219913 0.033754945
000270 b6 cb 67 bd 39 70 6e bd 92 99 3a 3d e2 67 10 bd
       -0.05659076 -0.058212493 0.045556612 -0.03525532
000280 ce 36 50 3d 93 f7 20 3d ac 8b 26 3d 60 5a 84 3d
       0.050833516 0.039298605 0.040660545 0.0646255
000290 23 db e8 3c 91 31 51 3d ff e3 1d 3d df 68 0c bd
       0.028424805 0.05107266 0.038547512 -0.0342797
0002a0 c9 ba 28 3c d4 6d 6a 3c 10 58 60 bd 63 13 8a 3c
       0.010298439 0.014308412 -0.054771483 0.016854947
0002b0 5e a1 5a bc 83 b2 53 bd a3 26 58 3d a5 1e 70 3d
       -0.013344137 -0.051683914 0.05277122 0.058622975
0002c0 62 bf 7a 3d 53 6b f6 bc 08 55 69 3c 98 a3 c8 bc
       0.061217673 -0.030080473 0.014241464 -0.02449207
0002d0 43 64 3c 3d ef 90 04 3d 34 cb ae 3a c8 1c 26 3d
       0.045994055 0.032364782 0.0013335706 0.04055479
0002e0 7e d9 33 bd 19 aa 96 3c 9c f0 19 bc 7a b5 56 3b
       -0.04390859 0.018391656 -0.009395745 0.0032761977
0002f0 29 bf 01 bd 2a 2b d1 bc ed 65 e2 3b 9e 93 df 3c
       -0.031676445 -0.025533278 0.006909123 0.027292069
000300 c1 f0 ba 3c e9 01 31 bc 9b b9 54 3a 3d 2a 5b bd
       0.022819879 -0.010803678 0.00081148156 -0.05350708
000310 d0 0f 21 3d 96 35 18 bd 69 02 8c 3c 39 3c 20 bc
       0.03932172 -0.03716048 0.017090993 -0.009779983
000320 2a 38 40 3d 41 c9 9a 3d 26 a4 b8 3a 32 66 78 3b
       0.046928562 0.075579174 0.0014087006 0.003790271
000330 71 e2 27 3d d8 63 75 3c fc 71 24 3d 61 7b 13 bd
       0.040987436 0.014977418 0.040147766 -0.036006335
000340 58 1c 14 bd 8e a8 ef bc 96 98 43 bc 52 c2 9e bc
       -0.036159843 -0.029255178 -0.011938235 -0.019379769
000350 48 5e d1 bc 43 39 43 3c b3 ec f3 3b 92 b7 70 3c
       -0.025557652 0.011915508 0.007443988 0.014692204
000360 26 2d 26 3d fb 1d a1 3c f0 b1 c7 3c 85 3e c3 3c
       0.0405704 0.019667616 0.02437684 0.023833523
000370 0c 1e 43 bd ee d2 2b 3d 6f ac 9a 3c bb 08 04 3b
       -0.047636077 0.041949205 0.01888105 0.0020146805
000380 fc 57 40 3c 56 d6 83 3c 19 7e 25 bd d2 aa 99 3c
       0.011739727 0.016093414 -0.04040346 0.018758211
000390 6f f0 d0 bc 0f ec ba bc 1b d5 45 3d 33 ad 8c bc
       -0.025505273 -0.02281764 0.048298936 -0.017172432
0003a0 d7 67 88 3d 62 9c fa bc 85 08 4a 3d 40 95 75 3d
       0.06660431 -0.030592147 0.04932453 0.05995679
0003b0 f2 16 a3 bc 44 15 85 bc 9b f4 6c 3d 71 a0 73 3d
       -0.019908402 -0.016245492 0.05785046 0.05947918
0003c0 ad fe 91 3c 17 60 b5 bc 92 d8 11 3d 0d d3 ec 3c
       0.017821634 -0.022140546 0.03560693 0.02890923
0003d0 93 71 08 3c 2c 5a 68 3c 3c af 67 3d 07 c0 90 3d
       0.008327859 0.014181655 0.0565636 0.07067876
0003e0 98 e6 27 bc e3 02 48 3d 59 c7 8b 3b 9c 6a 3a 3c
       -0.010247849 0.048830878 0.0042657075 0.011377957
0003f0 30 d4 06 bd 85 8c 83 bd 1d a9 bf 3c 6f 87 22 bc
       -0.0329172 -0.06423286 0.02339607 -0.009919985

conv.5.bias f4 [128]
000000 91 6a 4a bb fb 8b d3 bc d5 c9 8e 3c 74 d5 4d bd
       -0.0030886272 -0.025823584 0.017430225 -0.050252393
000010 b1 75 17 3d 97 10 2b 3d b2 62 31 bd 1b 7f 43 bc
       0.036977474 0.04176387 -0.043307014 -0.01193216
000020 f4 4f 4d bc 5c cf 05 3d 2b 27 21 3c c9 1f 04 bd
       -0.012531269 0.032668456 0.0098359985 -0.032256875
000030 32 0d 23 3d 22 23 b4 ba e6 20 74 bc 17 6d 36 3d
       0.039807506 -0.001374338 -0.014900422 0.04453763
000040 5d 61 44 bd f5 4a 10 bd 33 42 0a bd 2a 71 51 3d
       -0.047944415 -0.035227735 -0.03375454 0.051133312
000050 45 fd 57 3d 71 67 e7 bc d4 01 50 bc ad a7 3e bc
       0.05273177 -0.028247567 -0.012695748 -0.011636657
000060 ea e8 24 bd d7 01 93 3b d3 d9 44 bc a6 48 d6 bc
       -0.040261187 0.0044863033 -0.012014824 -0.026157688
000070 22 c6 04 3d ca 32 d3 bc e8 b0 3c 3a bf 82 5b 3d
       0.032415517 -0.025781054 0.0007197992 0.053591486
000080 dd 02 38 bd 66 aa 19 bd c6 6d a1 3c 8b c7 f3 3c
       -0.044924606 -0.03751602 0.019705664 0.029758235
000090 b6 f0 35 bd a1 4e 10 3d 1e 50 5a bd 9e df 3f 3c
       -0.044419013 0.035231236 -0.053299062 0.011711029
0000a0 03 fc ee 3c 01 de d2 3c 45 0d 34 bc 6b 49 14 3c
       0.029172903 0.025740625 -0.010989492 0.009050707
0000b0 cf 32 97 bb 93 c4 0b bd c9 95 96 bc e4 cd 28 bd
       -0.004614211 -0.034123015 -0.01838197 -0.041211978
0000c0 5d c7 eb 3c 5c c3 98 3a 43 0d 2c 3d 07 43 f6 bc
       0.028781587 0.0011654901 0.042004835 -0.030061258
0000d0 a1 c0 b2 3c 83 da 02 3c 1b ad cc bc 30 51 a9 3c
       0.021820368 0.007986668 -0.024984887 0.020668596
0000e0 93 bc 33 bd 6d 9a 23 3c b9 88 40 3d 53 cd 0f 3d
       -0.04388101 0.009985548 0.04700539 0.03510792
0000f0 b0 d5 62 3d a5 03 de bc b8 99 0e bd 43 60 42 3d
       0.05537957 -0.027101347 -0.034814566 0.047455084
000100 39 f2 8d ba a9 b4 4b bd d1 ba 39 bd 93 d8 aa 3c
       -0.0010829634 -0.049732838 -0.045344178 0.020855224
000110 bc c6 24 bd 7d a5 48 3d e8 b9 60 bd aa b9 25 bc
       -0.04022859 0.048985947 -0.054864794 -0.010115067
000120 7f f0 5f bd 4c e0 e1 3c 0f 70 bd 3c 75 4f e4 3c
       -0.054672714 0.027572773 0.023124723 0.02786992
000130 3d b5 93 ba f0 f0 21 bd bb 89 25 3d e0 92 3b 3d
       -0.0011269223 -0.039536417 0.040414553 0.045794368
000140 dc 8e 72 3a af 7f 11 3d 00 35 90 bc 09 15 00 bd
       0.0009252855 0.03552216 -0.017603397 -0.03127006
000150 b0 3d 4e 3d 82 37 12 bc 6a 5c db 3c 2d 72 33 3d
       0.0503518 -0.008924367 0.026777465 0.04381006
000160 e5 7d 0f bd fd 95 fe bc d5 f0 97 ba 07 ce 37 bd
       -0.03503217 -0.03107738 -0.0011592159 -0.044874217
000170 08 77 25 3d 7a 93 df 3c 18 b1 65 bc 9d 32 e8 bc
       0.04039672 0.027292002 -0.014019273 -0.028344447
000180 59 77 bc bb 87 96 3e bc db 96 41 ba f0 fe 3a 3d
       -0.005751532 -0.011632568 -0.0007384845 0.045653284
000190 36 da 32 3d 7d 23 3f 3d 92 a3 04 3c 67 6a 52 bd
       0.043665133 0.046664704 0.008095639 -0.051371004
0001a0 78 21 58 3b 4c 5c 31 bd 54 5f 23 bc 28 72 ff 3c
       0.0032978933 -0.04330091 -0.009971458 0.031182364
0001b0 4e 8c 58 3d 2f 84 6d bb 73 74 49 3c d2 4f 34 bd
       0.05286818 -0.0036242118 0.01229583 -0.044021435
0001c0 5e 0c 07 3c 55 8f 7e 3c aa 1d 43 3d 38 80 0a ba
       0.008242695 0.015537103 0.04763571 -0.00052833883
0001d0 98 df 17 bd 2d 7a df bc 2b 23 cb bb 53 6a 73 3d
       -0.03707847 -0.027279938 -0.0061992607 0.05942757
0001e0 da 3a 51 3d f2 2a 32 3d 73 b6 39 3d 7c 4a c6 3c
       0.051081516 0.043497987 0.045340013 0.024205439
0001f0 a0 cb 56 3d a4 fa 95 bc b9 a6 de bc 69 db cd 3c
       0.052440286 -0.018307991 -0.027179109 0.025129037

conv.6.weight f4 [128]
000000 33 6a 7e 3f 86 e3 8a 3f ad 0f 85 3f 1e a1 83 3f
       0.993808 1.0850685 1.0395409 1.0283544
000010 7b a7 80 3f dd c7 7d 3f 18 f4 79 3f a4 4f 83 3f
       1.0051111 0.9913309 0.9763808 1.0258679
000020 e5 4e 81 3f 48 a4 7c 3f d0 e3 7c 3f 0b a4 7e 3f
       1.0102202 0.98688173 0.98785114 0.9946906
000030 d6 7b 78 3f f1 d0 78 3f e3 01 6d 3f 4c f6 7b 3f
       0.9706396 0.9719382 0.92581004 0.98422694
000040 49 fa 81 3f 45 4e 80 3f cc 7b 6f 3f b1 93 86 3f
       1.0154506 1.0023886 0.93548274 1.0513822
000050 ba 92 80 3f ce b7 80 3f ed f3 89 3f 59 4c 7b 3f
       1.0044777 1.0056093 1.0777565 0.9816337
000060 08 26 85 3f 02 57 8a 3f a8 a9 78 3f d7 41 79 3f
       1.0402231 1.0807803 0.97133875 0.9736609
000070 ca 29 83 3f 8f 21 75 3f 6b 53 81 3f 25 b7 7b 3f
       1.0247128 0.9575433 1.0103582 0.9832633
000080 8c af 88 3f a9 42 7d 3f dd 16 88 3f dc d9 79 3f
       1.0678573 0.9892984 1.0631977 0.9759805
000090 ec 62 74 3f c4 6b 8a 3f 59 27 73 3f 2c 1d 8c 3f
       0.9546344 1.0814137 0.94981915 1.0946403
0000a0 93 37 7b 3f 7b e6 83 3f 2e f6 80 3f 46 1c 84 3f
       0.98131675 1.0304712 1.0075128 1.0321128
0000b0 b0 b2 7f 3f af 4a 79 3f 45 e4 7d 3f e7 97 76 3f
       0.9988203 0.97379583 0.99176437 0.96325535
0000c0 a5 3e 7b 3f c6 2e 7b 3f 1c d5 80 3f da 12 7b 3f
       0.9814246 0.98118246 1.0065036 0.9807564
0000d0 80 b7 7f 3f 46 ba 70 3f 19 2f 8b 3f 4c 12 86 3f
       0.99889374 0.9403423 1.0873748 1.0474334
0000e0 fc dd 7d 3f 27 c6 77 3f 3a f7 84 3f 9b 37 83 3f
       0.99166846 0.9678673 1.0387948 1.0251344
0000f0 c7 eb 7b 3f 17 8d 78 3f 88 71 81 3f 2d 0a 86 3f
       0.9840664 0.97090286 1.0112772 1.0471855
000100 d4 93 71 3f 8b c5 7b 3f 81 b0 7a 3f f9 f2 77 3f
       0.9436619 0.983483 0.97925574 0.9685512
000110 e7 c7 82 3f 59 b9 7f 3f 32 3d 8b 3f ce 02 87 3f
       1.0217255 0.99892193 1.087805 1.0547731
000120 d1 e4 7a 3f 6a 77 76 3f 03 b4 82 3f 67 fb 7c 3f
       0.98005396 0.9627596 1.0211185 0.9882111
000130 41 7d 80 3f 05 fd 7b 3f cc 8b 73 3f 86 85 86 3f
       1.0038224 0.9843295 0.9513519 1.0509498
000140 eb 22 76 3f 7d d1 72 3f 90 0d 81 3f c3 c7 88 3f
       0.9614703 0.94850904 1.0082264 1.0685962
000150 b0 fb 80 3f 81 7f 74 3f 20 80 83 3f 1a 75 78 3f
       1.0076809 0.95507056 1.0273476 0.9705368
000160 2d eb 76 3f 02 d5 7b 3f 33 7e 7b 3f 6c a1 80 3f
       0.964526 0.983719 0.9823944 1.0049262
000170 5f 41 7c 3f 02 06 88 3f de 60 7b 3f e8 77 80 3f
       0.9853725 1.0626833 0.9819468 1.0036592
000180 0a 64 87 3f 43 68 82 3f ae bf 88 3f 69 a9 7c 3f
       1.0577404 1.0188068 1.0683496 0.98696
000190 44 bb 81 3f b2 9f 80 3f fd d9 79 3f 37 49 83 3f
       1.0135274 1.0048735 0.9759825 1.0256718
0001a0 d5 9f 7d 3f 99 0b 81 3f a7 07 89 3f 7a 3c 73 3f
       0.9907201 1.0081664 1.070546 0.95014155
0001b0 e8 79 7f 3f 4a 2e 81 3f 80 8f 7f 3f 15 55 88 3f
       0.9979539 1.0092251 0.9982834 1.0650965
0001c0 18 ed 89 3f 2b 05 7f 3f 49 11 79 3f 2d 4a 8a 3f
       1.077548 0.9961726 0.97292 1.0803887
0001d0 49 52 86 3f db d3 84 3f ad 7a 82 3f 72 be 79 3f
       1.0493861 1.0377153 1.0193688 0.9755622
0001e0 1b 6b 7d 3f 97 91 7a 3f 1c ed 83 3f 2d 1d 81 3f
       0.98991555 0.978784 1.0306735 1.0087029
0001f0 59 9b 80 3f f7 82 78 3f d4 fb 7f 3f 31 06 7e 3f
       1.0047408 0.97074836 0.99993634 0.992282

conv.6.bias f4 [128]
000000 1f eb ce bc a7 7e 44 bd 26 46 56 bd fa 36 f4 bc
       -0.025258599 -0.047972348 -0.052312993 -0.029811371
000010 c4 63 98 bc 54 7a 67 bd 92 4e 4e bd cf 36 81 bd
       -0.01860226 -0.056513146 -0.0503679 -0.06309282
000020 8b 5b 51 bd 7c 54 0f bd 9e da cb bd 7c e4 36 bd
       -0.051112693 -0.03499268 -0.09953807 -0.044651493
000030 05 18 68 bd 63 fc 76 bd 70 35 9c bd cc bd 41 bd
       -0.05666353 -0.06029929 -0.0762738 -0.047300145
000040 5c 3d 05 bc f0 df a8 bd b4 b2 90 bd 9e 0d a3 bd
       -0.008132305 -0.08245838 -0.07065335 -0.07961582
000050 41 0a 59 bd fe c9 8d bc a3 ef 6e bd c2 b4 42 bd
       -0.052988295 -0.017308231 -0.058334004 -0.047535665
000060 24 81 3b bd 9b 86 bd bd 33 9e 33 bd dc d7 70 bd
       -0.045777455 -0.092541896 -0.043852042 -0.05879961
000070 c8 7e 8d bc 13 e6 9b bd b2 8e 90 bd ad ab 0e bd
       -0.017272368 -0.076122425 -0.07058467 -0.03483169
000080 d0 8c 0a bd 05 b0 6d bd 03 e9 8f bd 15 bd 11 bd
       -0.033825696 -0.058029193 -0.07026865 -0.035580713
000090 a5 9e 58 bd 07 3f 4f bd 38 3a a0 bd 08 3e 86 bd
       -0.05288567 -0.050597217 -0.07823604 -0.065548
0000a0 1b 4e 90 bd 6c f8 a0 bd 6c 53 97 bd 61 45 47 bd
       -0.070461474 -0.07859883 -0.07388958 -0.04865015
0000b0 02 99 c9 bd 69 5c ab bd 39 80 3b bd 0e 6a 7d bd
       -0.09843637 -0.08367235 -0.04577658 -0.06186872
0000c0 5b 3d 8a bc 98 54 09 bd bf ce c4 bd f7 74 3c bd
       -0.01687496 -0.03352794 -0.09609746 -0.046009984
0000d0 f1 d5 a8 bd 39 ee 91 bd 9b ba 6a bd 5f a7 74 bd
       -0.08243931 -0.071255155 -0.057306867 -0.05972993
0000e0 7e 40 17 bd 2b 0c 86 bd 23 b9 29 bb 4c 03 f0 bb
       -0.03692674 -0.065452896 -0.0025897704 -0.007324612
0000f0 e1 03 15 bd 5e ce 4c bd 52 10 aa bd fc b4 d1 bc
       -0.036380652 -0.050001495 -0.08303894 -0.025598995
000100 4e 59 cb bd 12 c5 73 bd 23 da 97 bd ca 66 2f bd
       -0.09929143 -0.059514113 -0.07414653 -0.042822637
000110 0c 5b 1d bc 74 c8 50 bd 39 c4 42 bd 96 8c 6a bd
       -0.009604227 -0.050972417 -0.047550414 -0.05726298
000120 00 8c 78 bc e9 0b b0 bd dd d8 56 bd f2 4b af bd
       -0.015170097 -0.08596022 -0.05245291 -0.08559407
000130 1e 4d a7 bd 18 1a 43 bd f7 35 25 bd aa b4 09 bd
       -0.08169006 -0.047632307 -0.040334668 -0.03361956
000140 82 d4 45 bd 54 e4 82 bd db d3 0b bc 04 50 f6 bc
       -0.048298366 -0.063912064 -0.008534397 -0.030067451
000150 3e 98 a4 bd 35 2a b0 bd 64 47 57 bd a6 dd 21 bd
       -0.080368504 -0.086018 -0.052558318 -0.03951802
000160 c3 c4 bb bd e5 fe 65 bd 91 88 7b bd 3f 4a 31 bd
       -0.09168389 -0.05615129 -0.061409537 -0.043283697
000170 44 36 44 bd 8b 5a 3b bc d3 9d 90 bd 0e 92 e7 bc
       -0.047903314 -0.011435161 -0.070613526 -0.028267886
000180 34 ff 92 bc 29 8f 44 bd 49 ae 21 bd 4c a0 c4 bc
       -0.017943956 -0.04798809 -0.039472852 -0.024002217
000190 38 56 f7 bc b4 5a 66 bd 58 8c 4c bd a9 7a af bc
       -0.03019248 -0.056238845 -0.04993853 -0.021420794
0001a0 6c 2c 45 bd 59 9d 46 bd 29 d9 d8 bd 59 4a a3 bd
       -0.048138067 -0.048489902 -0.10588295 -0.07973165
0001b0 79 b0 d1 bc 3b 33 38 bd d4 30 91 bd 8e 5f c9 bd
       -0.025596844 -0.044970732 -0.07089391 -0.09832679
0001c0 ce 50 3e bd d0 d3 ec bc 8c 13 8c bd c5 67 da bd
       -0.04646378 -0.028909594 -0.06839666 -0.10664324
0001d0 d5 9c 12 bd d5 d5 89 ba db ae cf bc ae 16 ad bd
       -0.035794098 -0.0010515997 -0.025351932 -0.084515914
0001e0 37 ae 81 bd 61 1e 81 bd a7 c1 b0 bc 4c ee ef bc
       -0.06332057 -0.063046224 -0.021576716 -0.029288433
0001f0 29 36 66 3c f4 4d 6d bd 66 b6 a1 bd 1d 42 31 bc
       0.014050999 -0.05793567 -0.07896118 -0.010818985

conv.6.running_mean f4 [128]
000000 17 f5 ad 3e 5c 20 b6 3e 86 8f 4b 3d a1 61 ce be
       0.3397605 0.35571563 0.04969742 -0.4030886
000010 37 b0 2b 3f 2c e4 8e bf fd 30 17 bf a3 c3 11 bf
       0.6706576 -1.1163383 -0.59059125 -0.5693914
000020 92 1a 96 bd de c8 8b bf 92 fb 45 bf f9 97 8f bf
       -0.07329287 -1.0920675 -0.7733699 -1.1218253
000030 e3 e7 14 bf fb de 26 be 62 fd 50 bd a2 9d ea be
       -0.5816633 -0.16295998 -0.051022895 -0.4582339
000040 84 9a ed be e0 d8 b8 bd f1 c4 2a bf f3 89 0e bf
       -0.4640695 -0.090257406 -0.6670676 -0.55679244
000050 87 89 52 bf 62 42 e8 be 06 35 44 bf 2c 60 84 bd
       -0.822411 -0.45363146 -0.7664341 -0.06463656
000060 8e 1b c8 bf 31 13 b9 3e 66 d1 4c be 19 89 20 bf
       -1.5633409 0.36147454 -0.20001754 -0.62709194
000070 3c 48 40 be 1a 0c 7c bf c9 8c d5 bd 91 fc 5b bf
       -0.18777555 -0.98455966 -0.10427243 -0.8593226
000080 a3 74 84 bf 9f e3 88 3f d2 8f 30 bf 0d 88 72 3e
       -1.0348095 1.0694464 -0.6896945 0.23684712
000090 c7 67 cc be dc 80 00 3f 3f c2 fd be dc fc 17 3e
       -0.39922926 0.50196624 -0.4956226 0.14842552
0000a0 32 c9 2c 3e a6 64 5a 3f c8 09 33 be 5c 92 97 3d
       0.16873625 0.8530983 -0.174842 0.07400963
0000b0 98 bc c6 3e 80 bd 07 3d da ee ac be 7f 1d 66 bf
       0.3881576 0.033139706 -0.3377598 -0.8988876
0000c0 9c 01 43 bf d6 91 75 bf e2 d9 ac bc 9e 98 ce be
       -0.7617433 -0.95925653 -0.021099988 -0.40350813
0000d0 e2 f0 1b bf 41 c7 33 be f5 91 b6 bf b0 b8 5c bf
       -0.60914433 -0.17556478 -1.4263293 -0.8621931
0000e0 85 ce 63 3d 86 df c0 bd 13 af d8 be 88 9a bb bd
       0.055616874 -0.09417634 -0.4232107 -0.09160334
0000f0 d1 e9 1d bf 18 c5 07 bf 21 19 ec 3e ba 10 21 3f
       -0.616849 -0.53035116 0.46112922 0.6291615
000100 3e 97 4c bf 01 69 36 be 85 16 4a 3f 5b 41 94 3e
       -0.7991828 -0.17813493 0.7894061 0.28956112
000110 b1 a6 0d bf cd ef 78 3f a9 b8 b6 bf 66 10 61 3f
       -0.55332476 0.97240907 -1.4275104 0.8791565
000120 7f a3 8a bf 37 c1 c3 be 24 c6 8e 3f 6f f1 95 be
       -1.0831145 -0.3823335 1.1154218 -0.29285762
000130 98 76 d1 be 00 26 82 bf 38 77 7d bf 35 39 36 bf
       -0.40910792 -1.0167847 -0.9901004 -0.7118104
000140 ee c3 8b bf 99 02 03 bf e9 8f 81 bf 11 0a 20 bf
       -1.0919168 -0.5117584 -1.0122043 -0.6251536
000150 a2 38 8f 3e fe 87 83 3d 33 a4 13 3f 78 eb 38 3c
       0.27972895 0.06422423 0.57672423 0.011286609
000160 28 6a 91 be 45 db 5a bf 11 68 11 3f e2 63 7f 3e
       -0.28401303 -0.8549083 0.5679942 0.24940446
000170 4f e0 80 3d c4 16 44 bf 7d d3 3e 3d d1 01 39 be
       0.062927835 -0.7659724 0.04658841 -0.18067099
000180 3f e8 08 3f 04 76 82 bf ab e2 93 bf e1 89 9b be
       0.5347938 -1.0192266 -1.1553549 -0.3037863
000190 50 43 20 3f 99 21 54 bf 30 f5 0d bf 2d e7 0f 3f
       0.6260271 -0.82863766 -0.5545225 0.5621212
0001a0 5f b4 60 bf 9d b0 83 bf 57 2c bf bf 77 08 2b bf
       -0.87775224 -1.0288273 -1.4935406 -0.6680979
0001b0 b8 63 39 bf 15 b0 92 3f 05 fa 5c 3f d5 10 b9 bf
       -0.72417784 1.1459986 0.86319 -1.4458262
0001c0 f3 f2 a9 3d df db 9b bc 22 78 99 3c 4a 26 1a 3f
       0.08298292 -0.019025741 0.018734042 0.60214674
0001d0 7f dd 39 3f 5e 05 d6 bd 6b fd 19 3e 46 4a 8e be
       0.726036 -0.104502425 0.15038078 -0.2779104
0001e0 6d 1b 32 bf 7a 28 64 be a5 e1 84 3e 42 9b 74 bf
       -0.695731 -0.22281066 0.25953403 -0.95549405
0001f0 f6 69 58 bf 41 47 2d bf 65 2f b8 3e 2b 06 db bd
       -0.84536684 -0.6768685 0.3597366 -0.10694536

conv.6.running_var f4 [128]
000000 a2 a0 23 3f e5 9e 72 3f 09 a1 0f 3f f7 b3 ef 3e
       0.6391698 0.94773704 0.56105095 0.4681699
000010 e0 18 50 3f 09 25 b1 3f e6 10 2e 3f da 58 84 3e
       0.81287956 1.3839427 0.67994535 0.25849038
000020 4a 34 22 3f a3 c5 ce 3f 36 ce 42 3f 46 58 8b 3f
       0.63361037 1.6154064 0.760959 1.0886314
000030 a8 4c 86 3f 46 92 3d 3f 5a 5f 17 3f 9c a4 50 3f
       1.0492144 0.7405132 0.5912987 0.81501174
000040 73 92 22 3f 3f ed 02 3f ca 96 fe 3e f9 3f 4f 3f
       0.63504714 0.5114326 0.49724418 0.8095699
000050 ec 54 0d 3f ec c6 9a 3e fd 11 af 3f 3e 61 a6 3e
       0.55207705 0.3022989 1.3677365 0.32496065
000060 c9 76 46 3f 32 b6 0b 3f ef e5 62 3f 69 be 3a 3f
       0.77525 0.54574883 0.886321 0.7294679
000070 e4 01 8b 3f be 0a 54 3f 06 c7 1a 3e bc 17 0a 3f
       1.0859952 0.8282889 0.15114984 0.53942466
000080 22 91 c0 3f cf 91 21 3f 20 bd 4b 3f bc 08 83 3f
       1.5044291 0.6311311 0.79585457 1.023704
000090 27 94 b0 3e 7b da 2a 3f 76 78 05 3f 0c 96 2c 3f
       0.3448803 0.66739625 0.52136934 0.67416453
0000a0 4b 1c 31 3f 7e 4e f6 3e 5b bd 1f 3f 45 49 6f 3f
       0.69183797 0.4810676 0.6239831 0.93471175
0000b0 21 c8 3c 3f eb c5 b5 3f b8 84 a9 3f f5 4c 48 3f
       0.7374287 1.4201025 1.3243628 0.7824243
0000c0 c3 3a 4a 3f 9f 40 04 3f 4b 72 00 3f de 2e 17 3f
       0.78995913 0.51661104 0.501744 0.5905589
0000d0 90 8b 10 3f ef 39 92 3e 58 09 83 3f 43 55 c5 3f
       0.56462955 0.28559825 1.0237226 1.5416645
0000e0 a0 8c 3c 3f 46 d9 64 3f 4f af 7e 3f dc bf f5 3e
       0.73652077 0.8939403 0.9948625 0.4799794
0000f0 a0 3a 47 3f 4e 86 fa 3e 7c 3f 10 3f 18 80 89 3f
       0.7782383 0.4893059 0.5634687 1.0742216
000100 03 31 c6 3f d0 97 be 3e 40 87 56 3f 8e eb 41 3f
       1.5483707 0.372252 0.83800125 0.7575005
000110 e1 62 72 3f 88 9e 54 3f bf 90 c5 3f 18 d6 5b 3f
       0.9468213 0.830544 1.5434798 0.85873556
000120 ea 18 a4 3f d9 dd 0f 3f 8c 62 34 3f 71 20 01 3f
       1.2820103 0.5619789 0.7046287 0.50440127
000130 3f 33 2d 3f 32 f9 ad 3f d2 28 18 3f 47 43 d9 3e
       0.6765632 1.3591673 0.59437287 0.4243414
000140 4f 3a cc 3f 5d a0 3b 3f 2c e2 46 3f ba 2a 73 3f
       1.5955294 0.7329157 0.7768886 0.9498707
000150 0b 11 ea 3e 7a 16 f7 3e b4 c9 0f 3f f2 c0 f0 3e
       0.45716128 0.48259336 0.5616715 0.47022206
000160 c6 f4 39 3f 37 db ae 3f 99 42 a5 3e c6 9a a1 3e
       0.7263912 1.3660649 0.32277372 0.31563395
000170 d6 67 df 3e 73 d8 d3 3f db d9 ba 3e c1 3e 8f 3e
       0.43633908 1.655043 0.36494336 0.27977565
000180 c9 19 87 3f 9c 8a 14 3f bc 4e c9 3f 92 fc e3 3f
       1.0554744 0.58024 1.5727153 1.7811453
000190 b7 42 4e 3f 09 f7 70 3f 1a 3d bc 3e 33 62 77 3f
       0.8057055 0.94126946 0.36765367 0.96634215
0001a0 26 97 20 3f 07 dd 8f 3f 76 6e 8b 3f aa f1 45 3f
       0.62730634 1.1239327 1.0893085 0.77321875
0001b0 0e 2e 31 3f 65 2d 3f 3f f4 68 66 3f 6f 5b 95 3f
       0.692109 0.7467864 0.90003896 1.1668528
0001c0 58 4e 64 3f 89 82 86 3f 3f 5c 30 3f d5 70 f4 3e
       0.89182043 1.0508586 0.68890756 0.47742334
0001d0 07 b8 81 3f cd b9 77 3e d2 a9 a9 3e fe a7 01 3f
       1.0134286 0.24191971 0.33137375 0.5064696
0001e0 44 4c 76 3f 72 de 83 3f 2d 1c 0f 3f 42 0a 14 3f
       0.9621012 1.030226 0.5590237 0.5782815
0001f0 fb ea a9 3f 2b fb 16 3f af e3 2f 3f 56 7d 52 3f
       1.3274835 0.58977 0.6870679 0.822225

conv.10.weight f4 [256, 128, 3]
000000 e3 61 60 bb ed 8e 81 3b 86 4f f2 3c a1 2c cb 3c
       -0.0034238033 0.0039538057 0.029578935 0.024801554
000010 bd 54 10 bd 01 6d 28 3d 83 78 d6 3c af e9 9c 3d
       -0.035237063 0.04111958 0.026180511 0.07661759
000020 51 e2 17 3d 61 7d 90 bd 6b 33 b0 bc b5 d6 01 bd
       0.037081067 -0.07055164 -0.021508893 -0.0316989
000030 97 da f5 3b 3f 4a 49 3d 55 d5 8f bb fd a0 26 3b
       0.0075028646 0.049143072 -0.004389445 0.0025425546
000040 60 2b 85 bd 4f 4b b7 3b 49 f4 a6 3c 2c 83 9e bc
       -0.06502414 0.0055936943 0.020380156 -0.019349657
000050 b1 9a 08 bd 2d 74 21 bd 63 34 33 3d 76 c9 a8 bd
       -0.03335065 -0.039417434 0.04375113 -0.082415506
000060 e1 94 69 3b 2e e6 13 bd 7a f2 7f bc 84 90 2c 3d
       0.0035641717 -0.03610819 -0.015621776 0.04213001
000070 91 c4 e0 3c c8 01 e7 3c 46 c3 1d bd d3 f1 8f 3b
       0.02743748 0.028199092 -0.038516305 0.0043928414
000080 83 34 9f 3b 27 7b 3b 3d 4e 8d 9b 3c 24 11 12 3d
       0.004858555 0.045771744 0.018988278 0.035660878
000090 68 8e fb bc 56 c8 f8 3c 60 c0 07 bd 04 5c 4b 3d
       -0.030707553 0.030368965 -0.033142447 0.0496483
0000a0 5e 47 b4 3c be 57 7e bc b0 36 c8 3c 37 50 39 bd
       0.022006687 -0.015523849 0.02444014 -0.045242514
0000b0 bd 2b e3 3c cb a5 c5 3c 8c c1 84 3c 0a 5f 91 3b
       0.027730817 0.024126908 0.016205572 0.0044363784
0000c0 9d 49 b9 bc f7 7c a6 3d cc 5e 87 bd 2e e3 b7 bc
       -0.02261811 0.08129304 -0.06609878 -0.022447195
0000d0 9d 41 02 3c 26 64 b9 ba 9c 18 d4 ba f3 48 8b bc
       0.007950214 -0.0014144226 -0.001618165 -0.017002558
0000e0 ab cf cf 3b 9e f7 85 bd 2d 5e 4c bd 54 c8 b3 bd
       0.0063418946 -0.0654137 -0.0498945 -0.08778444
0000f0 e6 eb 26 3c 06 69 2d 3d 47 41 ad 3b f5 40 c3 ba
       0.0101880785 0.042336486 0.0052873227 -0.0014896678
000100 2c de 7e bd 59 5b b3 bc 1b c9 12 3d 53 c0 90 3c
       -0.0622236 -0.021894144 0.03583632 0.017669832
000110 4e 00 40 bc 1d 80 84 3c 29 0a fe bc 8e 24 8f 3c
       -0.011718823 0.01617437 -0.031010704 0.017473485
000120 ae c7 d4 3c aa 72 ed 3c 2c 1f 2d bd 4a 19 61 3c
       0.025974121 0.02898534 -0.042266056 0.01373894
000130 23 c0 07 bd b0 28 b2 bd 20 a4 8d 3c 80 69 67 3d
       -0.03314222 -0.08699167 0.017290175 0.056497097
000140 bc 7b c0 bc 64 79 c9 3b 5a 23 45 bd 7f 84 05 bb
       -0.023496501 0.006148504 -0.048129417 -0.0020373163
000150 ec 21 08 3d 84 d0 58 3d 64 c1 78 ba 32 00 ce 3b
       0.033235475 0.05293323 -0.00094892667 0.0062866444
000160 87 7b 06 bd 01 01 8c 3c 76 fa d4 bc 91 e1 82 3d
       -0.03283265 0.017090322 -0.025998335 0.0639068
000170 78 34 12 bd 83 cd 93 39 49 a8 1c bd 76 90 e1 bc
       -0.03569457 0.00028191143 -0.038246427 -0.027534705
000180 81 e7 00 3d f1 af 73 bc 6b 61 ca 3b cc 06 36 bd
       0.03147078 -0.014873491 0.006176164 -0.044440076
000190 76 91 2d 3d 92 a4 1d bd 1a 29 11 3c ff 8d 3e bc
       0.04237505 -0.038487025 0.008859897 -0.011630534
0001a0 fd b2 aa bd c6 a9 a8 3c 7e a9 2e 3d 67 aa 9e bc
       -0.083349206 0.020588767 0.04264211 -0.019368364
0001b0 9b 30 74 bd e3 f8 6a bc 82 bf a4 bb 0e da 97 3c
       -0.059616666 -0.014341566 -0.0050277123 0.018536594
0001c0 77 36 fc bc a4 c9 18 bd d9 3a b7 bc 83 77 fb bc
       -0.03078769 -0.037301674 -0.022366928 -0.030696636
0001d0 0e f4 71 3d 89 27 ca bc 37 a9 1a bd 4b eb 5e bd
       0.05907064 -0.024677055 -0.037759032 -0.05442361
0001e0 d9 af d2 bc 76 f4 51 bd 7f 35 e1 3c b8 d5 fe bc
       -0.025718616 -0.051258527 0.02749133 -0.031107768
0001f0 91 eb 22 3d 45 f3 83 bd 7c 73 af 3b c9 99 26 bd
       0.039775435 -0.06442884 0.005354343 -0.040674005
000200 db 0e fd bc d1 ea 2c bd 73 3f 1f bb 82 ca 1e 3c
       -0.030890873 -0.042216126 -0.0024299293 0.009691836
000210 6f 59 60 38 14 09 69 bd 0a f4 2c bd ac 11 c4 bc
       5.3489053e-05 -0.056893423 -0.04222492 -0.023934208
000220 a3 f9 3a 3d fb 97 13 bd f5 bd 18 bd 5c 3a 0f 3d
       0.04564823 -0.03603361 -0.037290532 0.034967765
000230 fd ea 3b 3c a3 78 5c bc 39 85 c7 bc b5 86 b8 bc
       0.0114696 -0.013456496 -0.024355518 -0.02252517
000240 7d 9d 83 bc 64 be 7d 3d ca 40 49 bd 68 0d 54 3d
       -0.016066307 0.06194915 -0.049134053 0.051770598
000250 21 16 55 bd a3 87 7a 3d 44 16 a7 bb ef 44 85 bd
       -0.052023057 0.06116451 -0.00509909 -0.06507289
000260 f1 bb 95 3c 27 4c 9c 3c 10 b1 89 bd cf f4 d3 3c
       0.018278094 0.019079281 -0.06723225 0.02587357
000270 c8 06 01 3d a4 e6 19 bd 47 aa 0b 3c 37 53 83 3c
       0.031500608 -0.03757347 0.008524484 0.01603089
000280 51 18 cc bb 95 a3 f5 39 e0 ef 04 3d 96 c6 53 bd
       -0.0062284847 0.0004685192 0.032455325 -0.05170306
000290 38 80 87 bb 67 70 10 3d 0f 1e a4 3b 41 06 e9 bb
       -0.004135158 0.035263445 0.005008466 -0.007111341
0002a0 f0 90 9b bc e3 3e 43 bc 3f 0e 33 3d e8 2c 8c bb
       -0.01899001 -0.011916849 0.043714758 -0.004277814
0002b0 f5 76 2c 3d 58 44 ae bc 3b 59 42 3d f6 e6 a9 3b
       0.042105634 -0.021272823 0.047448378 0.0051850034
0002c0 13 50 f4 bc de b9 54 bd e2 ba 33 bc 3a a9 62 bd
       -0.029823339 -0.05193507 -0.010969849 -0.05533717
0002d0 39 29 c4 bc a8 96 53 3d 47 c8 3b 3c 76 fe 0a bb
       -0.023945438 0.05165735 0.011461324 -0.00212088
0002e0 54 74 b2 3c 31 25 35 bc 79 27 37 3c 3b e8 a3 3c
       0.021783985 -0.01105623 0.011178845 0.020008197
0002f0 51 da 65 bd bc 1d 1a bd db 47 7f 3d c8 a4 97 bc
       -0.056116406 -0.037626013 0.062324386 -0.018511191
000300 92 06 a4 ba 05 cc 3d bc 3f 4e 83 bd b4 09 82 3c
       -0.0012514165 -0.011584287 -0.06411409 0.015873767
000310 8b e2 1e 3d ee 56 5c bd 0b a5 59 3d 8f bd ba bc
       0.038790267 -0.05379384 0.053135913 -0.022795467
000320 61 8f 6c bc b2 4c 9f 3c cd c0 84 bc f7 66 54 bd
       -0.014438481 0.01944575 -0.016205216 -0.051856007
000330 32 35 dc 3c 68 29 30 3d 5b 8a ab b9 6b 6f 26 3d
       0.026880834 0.043008238 -0.00032718744 0.0406336
000340 c4 b5 48 bd dc 74 2a 3d 16 af 3f bc aa 55 5b 39
       -0.04900147 0.041615352 -0.011699459 0.0002091738
000350 cd 86 d9 3c 16 95 0e 3d a5 bb 06 3b 24 39 a7 3c
       0.026553536 0.03481015 0.0020558622 0.020412989
000360 de 8b 38 bd a2 f4 23 3c e5 66 6f bc 86 36 1c 3d
       -0.045055263 0.0100070555 -0.014611934 0.038137935
000370 fb b5 fa bb 01 3b 2a bc c3 6c 51 3c 03 fd a4 bc
       -0.0076510883 -0.010390044 0.0127822785 -0.020140177
000380 e9 2e 2e 3d 8b 09 ab 3c a4 bb c9 3c 1c f2 32 bd
       0.042525206 0.020878574 0.024625607 -0.043687925
000390 f9 d3 40 bd 7c fb 1d bd 11 0e 87 bc 8b eb 38 bd
       -0.047077153 -0.038569912 -0.0164862 -0.045146506
0003a0 8a f5 27 3d b5 62 3f bd 2f a5 66 bb 1e 4f 24 3c
       0.04100565 -0.046724994 -0.0035193672 0.010028629
0003b0 73 6b 15 bc 8e f8 4b ba 39 84 90 bc 8c 50 bb bd
       -0.009119856 -0.0007780873 -0.017641174 -0.091462225
0003c0 68 50 8a 3d de a0 de 3c 58 3e 29 bb 12 57 44 bd
       0.067536175 0.027176317 -0.0025824513 -0.0479346
0003d0 27 85 24 bd f1 61 91 3d 69 5e 88 3c 27 78 83 3d
       -0.040166046 0.07098759 0.01664658 0.064194016
0003e0 32 c3 e3 3b 79 1c d6 3c 18 4d c9 3c 25 b6 9d 3c
       0.0069507593 0.026136624 0.024572894 0.019251892
0003f0 59 8d 18 bd 65 78 ab bb 59 b2 af bd ac a9 d3 bc
       -0.037244175 -0.005232858 -0.08578939 -0.025837742
