output/energy_cnn_20260221_233600/checkpoints/epoch_20.pt (torch, 767268 bytes, 23 tensors)

conv.0.weight f4 [64, 15, 7]
00000000: 5888 af3d ba88 c5bc 175d 613d e03e b83d
00000010: c6c6 17bd 4fa2 683c 8e61 bbbc 9672 81bd
00000020: d22a 91bd c890 d23c 3d98 8abd fb67 0fbd
00000030: c6e5 94bc e93f d03c ead8 33bd 30bf 943d
00000040: b945 48bd d5d0 b5bd 9974 a2bd 6704 6b3d
00000050: 0eaa 84bc 9e50 123c 7ae7 4cbd 3640 b13a
00000060: e5ac c1bd d730 153c df20 cbbd c31a 873c
00000070: 1579 113d aa2e 53bd 940f 663d 4312 cabc
00000080: 24fb 2a3c 64bd 3fbd fbc1 72bd 8710 743d
00000090: 323c 973c 15c6 573d 0bf3 b5bd 540c 53bd
000000a0: d0b4 223c f434 283d 1c7a 82bd beab a63c
000000b0: 1da1 f0bb 7123 afba b9e8 493d e486 31bd
000000c0: 6bdd 153d aec8 1bbe cf45 9cbd 4511 b9bd
000000d0: eca8 e3bd e45c 16be 0710 0dbe 4e5f 8bbd
000000e0: ed13 8e3d 8439 e9bc 93e3 3abd 2eb7 d0bc
000000f0: 280f c2bc dcac 0fbc d2ea b93d d48b b73c
00000100: 30d5 01bd 7d5f ee3c 462d 693d c1f1 50bd
00000110: 3868 8b3d b926 aa3d 17bd b93b b8c9 88bd
00000120: 826c ad3a e156 60bd ed91 bd3d aef9 5fbc
00000130: 5534 293d 529e 97bd 4665 9ebd 045c 4f3d
00000140: a625 c6bd 473c 5d3c 9acd ab3c 57ac 9f3d
00000150: 2311 ce3c c36f ac3c f0fa 3a3d 39f3 df3d
00000160: f884 af3d 8e8d 5f3d 7122 da3b c014 ccbd
00000170: 074c 49bd 9fd6 d03c 8dc5 693d 9b26 95bd
00000180: 4a5e b33c 1cf5 9c3d 3f7d 15bd 1415 b53d
00000190: 7cea 913d 6b3f bbbd b119 5a3d c19f 2b3d
000001a0: a771 10bd ebc3 953d 8e18 5a3c 7cfa 9f3d
000001b0: 3b11 133d 5443 9b3b 8bde 2bbb 6832 3c3c
000001c0: a799 f0bc 75a6 65bd 05e4 9ebc 83d1 9bbd
000001d0: 8e0c 80bd c0a2 aa3d 74db 963d 93a0 a2bc
000001e0: 78ee 643d 25c6 833c f83d 1d3d 668d e2bc
000001f0: b00c 68bd 7c96 b0bd 7008 99bd 02f4 ad3b
00000200: 229f c8bd 644d d9bc 2c0a 0abd 39c1 1fbd
00000210: e0fd 893d 1f42 88bd d024 e03a e96b 813d
00000220: ed27 fbbc 4154 44bc 20a9 43bd 8482 c93b
00000230: cdf0 a4bd 049b a1bd 3d56 c0bd 781c 983d
00000240: 038d 4bbd e275 a9b9 d77c 333d 63ea a03d
00000250: 05c2 4abd 7087 9cbd de9b 3e3d 1f93 d43d
00000260: 9bc9 29bd 7646 80bd 3f24 303d 52e4 d33c
00000270: 2292 4dbd 0eec 103d 1406 4b3d 3a2c b03c
00000280: 590c 55bc 89c3 963c 5ba6 ee3d 8658 8e3d
00000290: 7404 0a3e fbf7 173e 53cb 823d 3179 12bb
000002a0: 8e1d 3fbd 729f 90bd b223 093d 2e65 8abd
000002b0: 75ce ce3d d4c0 063c c2b2 cc3b 66d0 123c
000002c0: a165 5a3d 20c5 a83d cb44 ba3c c799 87bc
000002d0: c4bf 833c f0d4 fcbc c53f 933d 82ce 20bd
000002e0: 793a b6bd 35ef 40bd 666e c6bd 7982 66bd
000002f0: 8c83 853d 168f a43d cce7 f1bc 158c 81bd
00000300: 9559 29bd bea0 843c 88d4 703d b0b8 a53d
00000310: a3c0 cabc 4642 62bc 6317 df3c f002 18bd
00000320: 9e9d a0bd 6053 ad3d 249d 11bd 9d63 68bd
00000330: 3af9 c4bd 3fd7 b7bd 6c57 a0bd c42a 67bd
00000340: 1fb9 143d 5132 92bd 66bb 883c bd05 41bd
00000350: 338f f63c 2d8e 9b3d f019 84bd a2f4 7c3a
00000360: 3368 293d 5be8 a8bd b8a3 543c 6714 493d
00000370: 3a68 20bc 9a07 bd3d 72f4 083d 665f 47bd
00000380: 7e57 79bb 4fd9 a2bd 20d4 93bd 0219 3ebd
00000390: 8a6c 6b3d 99fb a33d 471c c2bd 0c52 a83d
000003a0: 6f2d 98bd 98b8 22bd 795b a5bd 8c3c 873d
000003b0: ffaa 1bbd 79bc 4d3c 04f8 5a3d f04d 9b3b
000003c0: 483e 2a3d 04f0 3bbc 287e ed3b 00b0 953d
000003d0: 6ada c2bd a5d0 623d fcd7 73bd 96cf 54bc
000003e0: 35d9 a33d 97dc 953d 97d8 533b 7861 b5bc
000003f0: 7e03 c33d edf3 95bd a643 3fbd e6f2 acbd
0.085709274 -0.024113048 0.055020418 0.089963675 -0.0370548 0.014198854 -0.022873666 -0.06320684
-0.070882455 0.025703803 -0.067673184 -0.035011273 -0.01817597 0.0254211 -0.043908037 0.072630286
-0.048894618 -0.08877722 -0.079323955 0.057377245 -0.01619437 0.008930353 -0.05002544 0.0013523165
-0.09456805 0.009105883 -0.09918379 0.016492253 0.035515863 -0.051558174 0.0561672 -0.024666911
0.010435853 -0.046811476 -0.059267025 0.059586074 0.01846132 0.05267914 -0.088842474 -0.05152543
0.009930804 0.041066125 -0.06370947 0.020345565 -0.007343425 -0.0013362003 0.049294207 -0.043341532
0.036588114 -0.15213272 -0.076305024 -0.09036497 -0.11116204 -0.14683872 -0.13775645 -0.06805287
0.06937394 -0.028469808 -0.045627188 -0.025477972 -0.023688868 -0.00876924 0.090779915 0.022405542
-0.031697452 0.029098267 0.05692794 -0.051011804 0.068069875 0.08308167 0.005668293 -0.066791
0.001323119 -0.054770354 0.09256349 -0.013670368 0.041309673 -0.07403244 -0.0773416 0.050624862
-0.096751496 0.013503141 0.020972062 0.07796543 0.025154656 0.021049386 0.04564947 0.10935063
0.08570284 0.054578356 0.0066569378 -0.09964895 -0.04914477 0.025492964 0.057073165 -0.07282754
0.021895546 0.076639384 -0.036496397 0.08841911 0.071248025 -0.091429554 0.053247157 0.0419004
-0.035264637 0.07312759 0.013311518 0.07811448 0.035905104 0.0047382507 -0.0026225175 0.011486627
-0.029370142 -0.05606695 -0.019395838 -0.076083206 -0.062523946 0.08331823 0.07366076 -0.019851958
0.055891484 0.016085694 0.038389176 -0.027655315 -0.056652725 -0.086224526 -0.074723125 0.005308629
-0.09795977 -0.02652616 -0.033701107 -0.03900263 0.06737876 -0.066532366 0.0017100815 0.0631941
-0.030658687 -0.011982978 -0.047768712 0.006149592 -0.080537416 -0.07890895 -0.09391449 0.07427305
-0.049695026 -0.0003232202 0.04382023 0.07857206 -0.049501438 -0.0764302 0.046535365 0.103796236
-0.04145203 -0.06263439 0.043003317 0.025865708 -0.05018819 0.03538137 0.049566343 0.021505464
-0.013003432 0.018403785 0.116528235 0.06950478 0.13478261 0.14840691 0.06386437 -0.0022350068
-0.046659045 -0.07061662 0.033481307 -0.0675758 0.10097972 0.008224685 0.0062468955 0.008960819
0.053319577 0.082407236 0.022737881 -0.016552819 0.016082652 -0.030863255 0.071898974 -0.03925944
-0.088978715 -0.047103126 -0.096890256 -0.056276772 0.06519231 0.08035104 -0.029529475 -0.06325547
-0.041345198 0.01618993 0.058796436 0.08091867 -0.02475006 -0.013809746 0.027232831 -0.037112176
-0.07842563 0.08463168 -0.03555025 -0.056735624 -0.09617849 -0.08976602 -0.078291744 -0.05643727
0.036309358 -0.07138503 0.016690921 -0.047124613 0.03009758 0.07595477 -0.0645026 0.000964949
0.041359138 -0.08247443 0.012978487 0.049091723 -0.009790475 0.092299655 0.033436246 -0.048674963
-0.0038046534 -0.079516046 -0.07218194 -0.046410568 0.057476558 0.08006973 -0.0947805 0.08218774
-0.07430541 -0.039726824 -0.08074088 0.06603345 -0.03800487 0.012557142 0.053459182 0.0047395155
0.041563302 -0.011470798 0.007247705 0.0730896 -0.095143154 0.05537476 -0.05953215 -0.0129889455
0.08000413 0.07317465 0.0032325143 -0.022141203 0.095221505 -0.07321916 -0.046695374 -0.08444767

conv.0.bias f4 [64]
00000000: 51d3 9a3d f08b 8ebb 9d5b 483d 6498 20bc
00000010: e889 3abc 276e 98bd ca22 55bc 283d 1d3d
00000020: b36e d3bb 7222 97bd df4d 86bd 431e bbbc
00000030: bc65 90bd 1499 81bd 4635 9a3d dd10 9cbd
00000040: e552 3b3c 8afe 863d 45cd a9bd cb1b 30bd
00000050: 6a8e 933d fefb 8e3c 1958 f33c 77fe 20bd
00000060: 324e 89bd 887a f83b 4c7c c63c cbf6 233d
00000070: 458e 213d 7ec4 f0bc e648 78bc 78dd 9e3d
00000080: 832f b93d 5def 123d 2333 16bc e573 a7bd
00000090: 8583 02bd 0524 903d f6c0 8abb 63fd c2bd
000000a0: da92 bd3d cfce 8bbd 7c0f c43d 5682 88bd
000000b0: d54c 41bd 5f92 9f3d 0797 b53c 30c5 9a3a
000000c0: 01be 123d f92d 23bd 1974 c13d 2017 863c
000000d0: 96d5 10bd fd70 22bd e2bc 3b3d ad2f 30bd
000000e0: 37ab dbbc 5d39 82bd e1e4 783d 4ef7 91bc
000000f0: e159 743d 541d bf3d fa05 cc3c 1c91 08bc
0.07559837 -0.004350178 0.048915494 -0.009801958 -0.0113854185 -0.07442885 -0.013008783 0.0383884
-0.0064524054 -0.07379617 -0.065578215 -0.022841578 -0.07050654 -0.063280255 0.07529692 -0.07620404
0.011433338 0.06591518 -0.08291105 -0.042995255 0.07204898 0.017454144 0.029705094 -0.039305177
-0.06704368 0.0075829662 0.024229191 0.040030282 0.03944232 -0.02939057 -0.015154099 0.077570856
0.09042265 0.035872806 -0.009167465 -0.08176402 -0.031863708 0.0703812 -0.0042344285 -0.09520986
0.09256525 -0.06826555 0.09573266 -0.066654846 -0.047192413 0.0779159 0.022166742 0.0011808034
0.035825733 -0.039838765 0.09445972 0.016368449 -0.03535994 -0.039658535 0.04583443 -0.043014217
-0.02681504 -0.063585974 0.06076515 -0.01781812 0.059656028 0.09331766 0.024905194 -0.008335378

conv.1.weight f4 [64]
00000000: a8be 6e3f 3b86 683f c8a7 703f 5b8a 743f
00000010: 3e75 823f 6d98 753f 26aa 773f eb1c 7d3f
00000020: 6168 6e3f 9cea 783f 4e55 913f 1eb6 613f
00000030: b5d5 833f 6fad 843f f2ea 773f 63b3 793f
00000040: 1e08 733f 2bec 7b3f fe65 753f 5991 6c3f
00000050: dc87 7e3f 10d9 8c3f a738 803f 90c5 743f
00000060: a350 7f3f 8ae9 7c3f 6e4f 783f 8524 7a3f
00000070: 21c4 913f 0a41 803f b1b8 813f 0fca 683f
00000080: 65f2 873f 667b 773f 049e 753f 4509 7b3f
00000090: 1ceb 783f 64e5 743f 510b 8b3f 40ad 6d3f
000000a0: 6c4e 8b3f 6c54 823f a89e 763f 6398 7a3f
000000b0: f876 6d3f 4902 833f 28b3 873f 395e 8b3f
000000c0: 817d 733f 5835 873f a20a 803f d032 803f
000000d0: 199b 823f bbda 8c3f bc34 6c3f f2ba 733f
000000e0: 1eff 7e3f 1f0f 763f 4966 7f3f aa66 833f
000000f0: 3a11 783f b9a6 783f 116f 5b3f 36f3 8d3f
0.9325967 0.9082982 0.94006014 0.95523614 1.019203 0.9593571 0.96744 0.9887225
0.9312802 0.97232985 1.1354158 0.88168514 1.0299593 1.0365428 0.96842873 0.9753935
0.9493426 0.9840724 0.9585875 0.9240928 0.99426055 1.1003742 1.0017289 0.95613956
0.99732417 0.9879385 0.969962 0.97711974 1.1387979 1.0019848 1.0134488 0.90933317
1.0620848 0.96672666 0.9594424 0.9806102 0.9723375 0.9566252 1.0862828 0.92842484
1.0883307 1.0182014 0.9633584 0.97888774 0.92759657 1.0235072 1.0601549 1.088813
0.9511338 1.0563154 1.0003245 1.0015507 1.0203582 1.1004251 0.92267966 0.9520713
0.9960803 0.9611682 0.9976545 1.0265706 0.96901286 0.971294 0.8571635 1.1089847

conv.1.bias f4 [64]
00000000: 4356 bcbd 1da4 6abd d743 41bd 27cd 90bd
00000010: c039 c8bc 471b 8fbd bb89 99bc 1cf5 72bc
00000020: 2924 56bd a99f 8cbd b9ac 1fb9 a090 97bd
00000030: c716 deba 7a18 23bd dd97 58bd 9b03 c6bc
00000040: 74e0 9dbd 8949 f9bc f8c2 75bd ae9e b5bd
00000050: 100d 1bbd b688 3d3c 8d54 dcbc 760f 7fbd
00000060: f31f 3ebc 469d 57bd 20df 5bbd 87ae 12bd
00000070: 4a38 7a3d 0430 01bd 24f9 14bd ec59 82bd
00000080: cf13 43ba d91a 1dbd 32e6 ecbd 38e9 80bc
00000090: f77c a7bd faa6 83bd 7652 3f3c 0917 51bd
000000a0: 03b9 ff3b 2b8f 01bd b647 42bd b803 2dbd
000000b0: 3b5b 14bd cf8a 29bd 660e b73b ee65 ab3c
000000c0: dd5d 00bd 9e79 3bbd b17e 6ebc 40e5 093c
000000d0: ee52 2cbc 9395 2fbc 2b14 ddbd 207f f4bc
000000e0: cc9b 3bbd 18d2 68bd 1c57 16bd a980 38bd
000000f0: b55b 58bd 5522 c8bc b114 16be 4d3d cdbc
-0.091961406 -0.057285417 -0.047183838 -0.0707038 -0.0244416 -0.069876246 -0.018742433 -0.014828946
-0.05228058 -0.0686639 -0.00015227766 -0.07400632 -0.0016944044 -0.039818265 -0.052879203 -0.024171641
-0.07708827 -0.030430572 -0.06000039 -0.088681564 -0.037854254 0.011568239 -0.026895786 -0.062270604
-0.011604297 -0.052640222 -0.053679585 -0.035810973 0.061088838 -0.031539932 -0.03637041 -0.063648075
-0.00074416114 -0.038355682 -0.11567344 -0.015736207 -0.08178132 -0.064283326 0.011677375 -0.05104736
0.0078040375 -0.031630676 -0.04743167 -0.042239875 -0.036219817 -0.041392144 0.005586433 0.020922627
-0.031339515 -0.04577028 -0.014556573 0.008416474 -0.010517819 -0.010716814 -0.10794862 -0.029845774
-0.045802876 -0.056840986 -0.036704168 -0.045044575 -0.052821834 -0.024430433 -0.1465633 -0.025053645

conv.1.running_mean f4 [64]
00000000: 825a a03d 91b5 beba 7055 433d fe1c 27bc
00000010: dd37 15bc 814a 8ebd 56c9 98bc 0e16 453d
00000020: a30f a5bb ec87 9abd 0c1a 7fbd 9b2b dabc
00000030: 9844 84bd 82ad 85bd 53c6 9a3d e0c7 9ebd
00000040: 5a88 7d3c 03f4 813d 8f14 c1bd 47a5 2bbd
00000050: c269 8f3d dd16 cd3c c72b 093d d82e 26bd
00000060: aa1e 86bd edef b4b9 1854 eb3c 9a6b 243d
00000070: 4f9a 0c3d 0111 07bd 5cd1 40bc f175 a23d
00000080: e39f c23d 0364 1a3d 9c88 38bc fbbc 8abd
00000090: afdf 06bd dffb 893d 90c3 4f3b 95e6 bbbd
000000a0: 005c c73d 12ac 83bd 912f c33d 624a 78bd
000000b0: 83ed 39bd b786 9f3d 6c69 f03c 32f9 9abb
000000c0: 30b6 0a3d 08c8 2abd c37d bb3d f0ab b93c
000000d0: 0813 18bd d464 01bd fc28 573d b58b 3fbd
000000e0: 37a6 e3bc 2b2f 7abd 453f 643d 4170 a5bc
000000f0: 7fc1 713d d269 c03d fa48 e83c a507 01bc
0.07829763 -0.0014549961 0.0476889 -0.010199783 -0.009107557 -0.06947804 -0.018650692 0.048116736
-0.0050372644 -0.07545456 -0.0622807 -0.02663212 -0.06458396 -0.065272346 0.075573586 -0.07752967
0.015474403 0.0634537 -0.09427749 -0.041905668 0.070025936 0.025035316 0.033489015 -0.040572017
-0.065488175 -0.00034511034 0.028726622 0.04014168 0.034326848 -0.0329752 -0.011768665 0.07932652
0.09503152 0.037693035 -0.011263039 -0.067743264 -0.032928165 0.06737494 0.0031702258 -0.091748394
0.097343445 -0.06429304 0.09530557 -0.060617812 -0.045392524 0.07789367 0.029347144 -0.0047294134
0.033865154 -0.04169467 0.091548465 0.022664994 -0.037127525 -0.031590298 0.05252932 -0.046764094
-0.027789218 -0.06108014 0.0557244 -0.020195128 0.059022423 0.093951836 0.02835511 -0.007875358

conv.1.running_var f4 [64]
00000000: 60a9 383f 7482 223f 2d3d 243f 408d 083f
00000010: ac49 023f d53e 753f 5fbe b13f ebc6 853f
00000020: a283 e73f 2feb bb3e 479b 543f a935 873f
00000030: bcce 163f f6e5 263f aac1 e93e 686a 473f
00000040: 4d2b bd3e 2ab5 fa3e aab1 a03f d102 f53e
00000050: 1d83 703f a838 ab3f f20b 173f c04d 823e
00000060: 37d5 0d3f 6e64 913f 06f6 053f 73f2 cc3e
00000070: b52c 443f c7cd 093f fd96 073f 2b69 3a3f
00000080: d0a7 7d3f cc8a 073f 610f a23e 1a99 c43f
00000090: 686a 6f3f f6b4 2a3f 1447 703f 8245 4c3f
000000a0: edb6 3f3f 7141 273f 649a 143f d614 853f
000000b0: 3d16 113f 3b61 523f fa23 e83f 15d9 bc3f
000000c0: 5dae 183f e459 1b3f d844 3d3f 0e64 1a3f
000000d0: 9ba5 ee3e c77b 993f 55e1 7d3f 84d4 913f
000000e0: 2f7c dc3e 4ee7 573f 6165 223f 1227 1a3f
000000f0: 1c8e 9b3f 87e9 733f 1b06 1c3f 2432 613f
0.72133446 0.63480306 0.64155847 0.5334053 0.50893664 0.95799 1.3886222 1.045133
1.8087046 0.36702868 0.83049434 1.0563251 0.589092 0.6519464 0.45655566 0.7789674
0.36947098 0.48966342 1.2554219 0.4785371 0.93950063 1.3376665 0.590026 0.25449944
0.55403465 1.1358774 0.52328527 0.40028724 0.7663072 0.53829616 0.52964765 0.72816724
0.99084187 0.5294616 0.31652358 1.5359223 0.9352174 0.66682374 0.93858457 0.7979356
0.748885 0.6533423 0.5804808 1.0396984 0.5667456 0.8217961 1.8135979 1.4753748
0.5964106 0.6068404 0.7393317 0.6030892 0.46610722 1.1990899 0.99171954 1.139298
0.43063495 0.8433732 0.6343594 0.60215867 1.2152743 0.9527821 0.60946816 0.87967134

conv.5.weight f4 [128, 64, 5]
00000000: b85a 97bc 3496 573d 6457 0e3d b5f1 00bc
00000010: 5ed8 87bc e427 cfbc f224 2c3d 79b2 03bd
00000020: d09a b73c fc58 aabb 1afe 273b 7c1e e43b
00000030: 73e0 d43c 601a c63a 4d7f 3d3d 57bd 313d
00000040: fbed 5e3d 3445 593d f6d1 0e3d d507 603d
00000050: eab5 2ebd 7288 33bd fddc 66bd 485a b3bc
00000060: cc3d b9bc f47e 31bd a7e2 2d3c ef3b 063d
00000070: 7a9e e4bc da83 453d 2c53 7cbb cadb bebc
00000080: 3509 73bd 4d7e c3bc c2f8 e4bc 0478 413b
00000090: c4c2 133d ea45 853d f37b 513d 6222 6e3c
000000a0: 4c43 3dbd 3ef8 8bbd 09ed 4cbc b192 923b
000000b0: f9c2 743c 0eb9 96bd 1977 a03c d86f 5abd
000000c0: 267b 96bb 9002 8dbd ce1a 9b3c fb11 723d
000000d0: 0fc8 bc3c 739a 203b 15ae a5bb 0497 f5bc
000000e0: 51e5 09bd ffa1 48bd 9663 0dbd d9dc 62bd
000000f0: 6250 f9bc 24fc d2bb a503 123d a569 afbc
00000100: 787c 1b3d 2d63 403d 17b0 0d3d d4ca e2bc
00000110: 7f76 1d3d f929 38bb d891 713c b04e d53c
00000120: 3249 de3c 5aac 3ebd f513 01bd 0ef7 903c
00000130: 131f 45bd fac6 b5bc 12b5 913c 5e63 b93c
00000140: 46f7 5f3a fd37 c0bc c4f8 803b bfc0 c43c
00000150: 6329 7fbd 3588 35bd ecee 19bd de65 59bd
00000160: c383 2b3d 446f 753d 8bdb 85bd 4a79 8f3c
00000170: 809a 93bd 244c cabb 08a4 b6bc 81ca 95ba
00000180: e5ca 0bbd f2b4 40bd d427 3bba 93f9 0fbd
00000190: 4d7c 1a3d 7978 373c 79b1 863c 4a01 04bd
000001a0: f7fa 623c 7ed3 293d 8fe6 9e3d cf6c 9f3d
000001b0: 9499 15bd 04c6 c53c a728 043d ee6b 353c
000001c0: 3c05 ae3c 25f1 7339 ccd5 253d 7a75 47bd
000001d0: 0bc9 babc daa2 6bbd 2ee9 70bd 978e 3f3b
000001e0: a0fd 6ebd 0ed8 63bd 5ffb 00bd 274d cfbc
000001f0: 81fd a63b ca02 643d c5e6 633d 861f 1bbd
00000200: 3d02 fb3c a693 223d 504a f63b 45c9 873c
00000210: f9d2 863c 3652 40bd 1357 71bd 4185 f03c
00000220: 415c e7bb 158f f23c 5974 303d e6a6 47bd
00000230: f8bd 0b3d 9f8a 873b 7cb6 933c 4fd4 0e3d
00000240: 9138 fc3a 1e8c 5d3c 2ac7 d5bc d5e8 c9bc
00000250: 9d30 15bd e6e9 d03b 08f7 07bc c81c a4bc
00000260: b696 6abd ff8f 77bd 51aa 2f3d b282 f03c
00000270: d7ad 73bd be31 81bd 3155 273d 14a2 2abd
00000280: a8f8 513d 6a15 1a3d 6298 183d 4876 7c3d
00000290: d771 d33c 998e 563d b4cb 263d 2f58 0dbd
000002a0: 3aaa 4a3c 91d3 863c 67d7 6ebd 070b 553c
000002b0: ae64 86bc 2a94 62bd ea0d 433d 4c98 7c3d
000002c0: ec13 7f3d 4761 e9bc f877 813c ece8 cbbc
000002d0: cc14 453d 3dea 073d a789 983a 729d 2f3d
000002e0: adfc 34bd 0a94 973c 0763 ebbb e39d 243b
000002f0: f972 03bd 8767 d9bc 14a2 e83b a031 ef3c
00000300: c3ad a53c 4396 1bbc a0c1 963a 15de 52bd
00000310: c3b7 1e3d f19f 1fbd dcc0 9b3c dc7e 3abc
00000320: 54f6 383d a58d 9e3d d6d3 9dba eb9d 143b
00000330: 6c20 1d3d 6e7f 753c b1ef 163d caf2 20bd
00000340: 274a 20bd f9b8 fabc b02c 51bc 2bde b0bc
00000350: 5c51 d2bc 8d03 463c 548f fd3b 710a 863c
00000360: 9154 1f3d 1587 a73c eb55 c23c 6c45 c23c
00000370: d133 47bd 93d1 2b3d 521a 983c 3c0f 773b
00000380: 51b8 483c 2c9c 8f3c 48e6 14bd 93e2 9b3c
00000390: 9b88 d4bc 8b74 afbc 601b 433d 95f5 a3bc
000003a0: 8a8c 8c3d 1ea4 12bd 36e8 473d 337b 793d
000003b0: 75d1 79bc 80ae 77bc fa3d 6a3d 016b 6c3d
000003c0: c8b4 8e3c c92e b9bc 5399 1c3d 618b ef3c
000003d0: 1fa9 273c bbfc 893c a869 6a3d 7b93 943d
000003e0: 0daf c9bb 67cf 4c3d ac2e d2ba 8db3 d43b
000003f0: 0a51 1ebd ebee 8dbd d73e 893c 183a 0dbc
-0.018475875 0.05263348 0.03475131 -0.007870127 -0.016582664 -0.025287576 0.04202742 -0.032152627
0.022412688 -0.005198596 0.0025633634 0.006961642 0.025985932 0.0015114062 0.04626398 0.04339346
0.054426175 0.053044513 0.034868203 0.05469497 -0.042653956 -0.043831296 -0.056363095 -0.021893635
-0.022612475 -0.043333963 0.01061312 0.032772 -0.027907599 0.048221447 -0.0038501723 -0.023298163
-0.059334952 -0.023863936 -0.027950648 0.0029520998 0.036074415 0.06507476 0.051143598 0.014534565
-0.046206757 -0.06834458 -0.012507685 0.0044730534 0.014939063 -0.07359515 0.01958804 -0.05332932
-0.004592317 -0.068852544 0.01893368 0.05909918 0.023044614 0.0024506121 -0.0050561526 -0.029979236
-0.03366596 -0.048982617 -0.0345188 -0.055386398 -0.030433837 -0.006438749 0.035648007 -0.02141268
0.0379605 0.04696958 0.03459176 -0.027684607 0.038443085 -0.002810119 0.0147442445 0.026038498
0.027134512 -0.046551086 -0.031513173 0.01769593 -0.048125338 -0.022189606 0.017786536 0.02263039
0.00085436215 -0.023464197 0.003935905 0.02401769 -0.06229533 -0.04431935 -0.03758137 -0.053075664
0.041873705 0.059920564 -0.06536015 0.01751389 -0.07207203 -0.0061736275 -0.022295013 -0.0011428149
-0.034129042 -0.047047563 -0.0007139419 -0.035150122 0.0377162 0.0111981565 0.016442047 -0.03222779
0.01385378 0.04146146 0.07758819 0.077844255 -0.036523417 0.024142273 0.03226533 0.011073096
0.02124273 0.00023264119 0.040487096 -0.04869602 -0.022800943 -0.057528354 -0.058816127 0.0029229277
-0.058347344 -0.055625968 -0.031489726 -0.025305344 0.005096138 0.055666722 0.05564 -0.03787186
0.030640716 0.03969159 0.007516183 0.016575465 0.016458021 -0.046953402 -0.05892093 0.029360415
-0.007060558 0.029609242 0.043079708 -0.04874315 0.034116715 0.004136398 0.018031351 0.034870442
0.0019242932 0.013522176 -0.026095945 -0.024647156 -0.036423314 0.006375539 -0.008298643 -0.020033255
-0.057272635 -0.06044006 0.042887036 0.029359195 -0.05949196 -0.06308316 0.04085273 -0.041658476
0.051262528 0.03761808 0.0372547 0.06163624 0.025811119 0.052382085 0.04072161 -0.034507927
0.012369687 0.016458305 -0.058310892 0.013003117 -0.01640543 -0.05531708 0.04762069 0.06166868
0.06227486 -0.028488768 0.015804276 -0.02489134 0.048115537 0.03318237 0.0011637703 0.04287476
-0.044186283 0.018503208 -0.007183436 0.0025118522 -0.03209207 -0.026538623 0.0070993993 0.029198468
0.020224458 -0.009496274 0.0011501797 -0.051481325 0.038749468 -0.03897089 0.019012861 -0.011382785
0.04515679 0.0774186 -0.0012041281 0.0022677134 0.038360998 0.014983995 0.03684968 -0.03929404
-0.039133217 -0.03060578 -0.012767002 -0.021590313 -0.02567356 0.0120858075 0.0077380333 0.0163624
0.03889901 0.020450154 0.02372261 0.023714744 -0.0486334 0.041947912 0.018567238 0.003769829
0.012250976 0.017530523 -0.036352426 0.019028937 -0.025944045 -0.021417877 0.04763353 -0.020014564
0.06862743 -0.035801046 0.048805438 0.060908508 -0.015247692 -0.015117288 0.05718801 0.057719234
0.017420188 -0.022605317 0.03823216 0.029241266 0.010233193 0.016844144 0.057229668 0.07254692
-0.006154901 0.05000248 -0.0016035638 0.0064911307 -0.038651504 -0.069303356 0.016753597 -0.008619808

conv.5.bias f4 [128]
00000000: 99c3 7bbb e163 d8bc a10c 963c eaa6 49bd
00000010: ae66 193d 7adc 283d 7b0a 32bd 2966 44bc
00000020: b49b 4dbc aa32 063d e2e7 213c 0fcf 06bd
00000030: f714 233d b74d 93ba 0d55 75bc 80f7 373d
00000040: b69c 3fbd b0ff 10bd 5424 09bd 60a3 553d
00000050: bfc2 563d 14c0 eabc 9180 3dbc d200 37bc
00000060: 02dc 22bd 2b97 dd3b 45f5 3dbc 4fc4 d1bc
00000070: 6033 073d deae d1bc 9506 bab9 024f 5d3d
00000080: 5f0b 3bbd 36da 15bd 0a45 ab3c bba4 fa3c
00000090: 4c73 36bd 22f1 053d fa67 5abd 83c8 923c
000000a0: 8335 e63c 9ca4 c83c f5f1 25bc e626 1b3c
000000b0: b912 cfbb 53ee 09bd d328 96bc dbf1 27bd
000000c0: 9629 ef3c 7306 a33a 0b0e 2c3d 6b6b f5bc
000000d0: 778b b93c 7ca1 f63b 22bd c4bc 6ac6 a93c
000000e0: a33e 31bd a7d1 293c daa8 3d3d 3fd6 0b3d
000000f0: 2a9b 633d 7783 d8bc f9a8 0ebd dddc 423d
00000100: b4d8 90ba 5fca 4dbd 4f9e 34bd d40c a33c
00000110: 034e 23bd 694d 453d 794e 55bd ebec 22bc
00000120: cfcd 5fbd c449 e33c d95e b73c 3d82 e43c
00000130: 7fb4 85ba 5d52 21bd 5245 253d 0d49 443d
00000140: b787 393a fc6f 113d ad20 8bbc 06f2 01bd
00000150: 202d 5d3d faad 16bc a463 e13c 733b 323d
00000160: ef12 10bd 6d7f 01bd 6096 73ba 4e71 3cbd
00000170: 2d15 273d 125a e63c 190e 61bc e1e2 e9bc
00000180: 9245 f4bb dc1b 3abc 80a6 b0b9 587c 3b3d
00000190: e5bf 313d 12a5 3f3d 2660 0d3c 66c8 55bd
000001a0: 5d88 853b d579 30bd effe 29bc 9f4f 013d
000001b0: 67d8 573d 9344 2dbb 360d 433c 833d 3abd
000001c0: bd72 1f3c e67d 773c e528 443d a64c d539
000001d0: 838d 18bd 2e78 e3bc 76c8 ecbb 3bbb 753d
000001e0: 1a64 503d 9224 343d 418a 373d 3e0c d43c
000001f0: f0e8 563d c1de 96bc 2001 e1bc b39d cf3c
-0.0038416146 -0.026414813 0.018316569 -0.049231447 0.03745144 0.041225888 -0.043467026 -0.0119872475
-0.01254933 0.03276316 0.009881945 -0.03291231 0.039814916 -0.0011238371 -0.014973891 0.04491377
-0.04678031 -0.035400093 -0.03348191 0.05215776 0.052431818 -0.028656043 -0.011566297 -0.011169629
-0.039760597 0.0067624054 -0.011594121 -0.025606303 0.03300798 -0.025596078 -0.0003548159 0.054030426
-0.04566514 -0.036585055 0.020906944 0.030596128 -0.04454355 0.032700665 -0.053321816 0.017917877
0.028101688 0.024492554 -0.010128488 0.009469723 -0.0063193706 -0.03367455 -0.018330013 -0.041002136
0.029194634 0.0012437835 0.04200558 -0.029958447 0.02264951 0.0075265747 -0.024015967 0.020724494
-0.043272626 0.010364926 0.046303608 0.034139868 0.055567898 -0.026429875 -0.034829114 0.047573913
-0.0011050911 -0.050241824 -0.044096287 0.019903578 -0.03986932 0.048169527 -0.05207679 -0.009944181
-0.054639634 0.027745135 0.022384094 0.027894134 -0.0010200887 -0.03938519 0.040349312 0.04792123
0.0007077413 0.035507187 -0.016983354 -0.031724952 0.053998113 -0.009196753 0.027513333 0.043513726
-0.035174306 -0.031615663 -0.0009292122 -0.046006493 0.04079168 0.02811912 -0.013736271 -0.028550567
-0.0074545825 -0.011359181 -0.00033693388 0.04577288 0.043395896 0.046788283 0.008628881 -0.052193068
0.0040750937 -0.043084938 -0.010375722 0.031570073 0.05269661 -0.0026438578 0.011905005 -0.04546882
0.009731946 0.0151057 0.047890563 0.00040683633 -0.03724433 -0.027767267 -0.0072260452 0.05999301
0.050876714 0.04398019 0.044809584 0.025884744 0.05246824 -0.018416764 -0.027466357 0.025343752

conv.6.weight f4 [128]
00000000: 4f26 7d3f b77a 8b3f 8ca3 863f 8f03 843f
00000010: d41a 813f 260a 7e3f 1c54 793f fce2 823f
00000020: 1447 813f 2a9b 7c3f 5240 7d3f 3233 7f3f
00000030: ba06 773f b9f5 773f 859b 6b3f 1a13 7b3f
00000040: 2234 823f e419 803f b5e8 6f3f 90bc 863f
00000050: b751 803f a639 813f 442d 8a3f 8c58 7c3f
00000060: d554 863f 1671 8a3f a482 773f 4ef3 783f
00000070: 7bd8 833f 945c 753f c1e7 803f e2dc 7d3f
00000080: 66f3 883f 5fe7 7c3f ec55 883f f8e8 793f
00000090: 95d1 723f a6b9 8a3f c40f 713f 4cb7 8c3f
000000a0: 5af1 7a3f 74ea 833f 6db5 803f 9c4d 843f
000000b0: a70b 803f 3e13 783f 9654 7d3f 8dc5 763f
000000c0: d2d8 7a3f 4b72 7b3f ca03 813f 8ff6 793f
000000d0: 747e 7f3f 43aa 703f 85a1 8b3f b932 863f
000000e0: ec5c 7d3f b9ce 753f c132 863f 6d2c 833f
000000f0: 0557 7a3f 8dfe 793f a660 813f a536 873f
00000100: 438e 6f3f 19c8 7a3f 6979 7a3f a2e1 773f
00000110: 6457 833f f5b0 7f3f d59c 8b3f 2d6c 873f
00000120: 6407 7b3f 9e73 743f 88c2 823f 90fa 7b3f
00000130: 1701 803f f8be 7c3f 2095 733f d269 873f
00000140: 4e78 763f ff04 713f b35b 813f 3b50 893f
00000150: 2f29 813f e7d3 733f 629f 833f 64dc 783f
00000160: 1b33 763f 0045 7b3f 440b 7c3f 7bc8 803f
00000170: 642e 7c3f ae1a 893f 2d77 7b3f 9d95 803f
00000180: 9f91 873f 0deb 823f 5ee8 883f f7bc 7a3f
00000190: 8989 813f aca2 803f daeb 7a3f 96ee 823f
000001a0: 00f6 7c3f 7b1b 813f 005a 893f c6b1 703f
000001b0: 7fdb 803f 7940 813f be34 7f3f a2af 883f
000001c0: 2520 8a3f e4e2 7e3f e8be 7a3f 8143 8a3f
000001d0: 1059 863f a138 853f 4ef7 823f fdb4 783f
000001e0: 8652 7d3f 53c9 793f 0c52 843f 8497 803f
000001f0: 090e 813f 2f44 783f fbee 7e3f 5711 7e3f
0.9888658 1.0896825 1.051866 1.0313586 1.0086312 0.99234235 0.97393966 1.022552
1.0099816 0.9867426 0.9892627 0.9968749 0.9649464 0.9685932 0.9203418 0.9807602
1.017216 1.0007901 0.9371446 1.0526295 1.0024937 1.0095718 1.0795064 0.9857261
1.0494639 1.0815761 0.96683717 0.97246253 1.030044 0.9584439 1.0070726 0.99165165
1.0699279 0.98790544 1.0651221 0.9762111 0.94851047 1.0837905 0.9416468 1.0993438
0.98024523 1.0305924 1.0055367 1.0336185 1.0003556 0.9690436 0.9895719 0.9639519
0.9798709 0.9822127 1.0079281 0.97641844 0.9980233 0.940098 1.0908667 1.0484229
0.9896991 0.9601856 1.0484239 1.0247933 0.9778903 0.9765404 1.010762 1.0563551
0.9357645 0.97961575 0.9784151 0.96828663 1.0261045 0.9987939 1.0907236 1.0579888
0.9805815 0.9548892 1.0215616 0.98429203 1.0000333 0.98728895 0.9514942 1.0579169
0.9627732 0.9414825 1.0106109 1.0727609 1.0090693 0.9524521 1.0283015 0.9721129
0.9617173 0.9815216 0.9845469 1.0061182 0.98508286 1.0711267 0.9822872 1.0045658
1.0591315 1.0227982 1.0695913 0.9794459 1.0120097 1.0049644 0.9801613 1.0229061
0.98812866 1.0086511 1.0730591 0.9402126 1.0066985 1.00978 0.99689853 1.0678599
1.079106 0.9956496 0.9794755 1.080185 1.049593 1.0407907 1.0231721 0.97151166
0.98954046 0.9757282 1.0337539 1.0046239 1.0082408 0.9697904 0.99583405 0.9924521

conv.6.bias f4 [128]
00000000: 9f96 06bd 6d8e 52bd 997a 71bd 73ea fabc
00000010: c860 adbc 92ae 6fbd e29a 78bd 7fb8 90bd
00000020: 28aa 5cbd 91da 03bd deec d9bd 4e66 27bd
00000030: 9e09 78bd b9b9 8ebd 79ef acbd e229 6abd
00000040: 7537 8ebc dfe8 b2bd bd2a 9bbd bc17 b2bd
00000050: e004 74bd 6e94 9abc 9990 82bd 3363 7abd
00000060: 3d12 52bd 7212 cdbd 1b67 67bd ca7e 7ebd
00000070: b710 82bc c28e b1bd d850 a7bd 6230 16bd
00000080: c2e7 18bd e659 84bd 539d 9abd ec92 31bd
00000090: 8e27 82bd 7898 5fbd da63 b5bd 6832 8fbd
000000a0: dc15 a1bd cd1f aebd 0311 9fbd 94f0 55bd
000000b0: 7d6b d6bd a461 bdbd fe03 4fbd 5f06 88bd
000000c0: f909 ccbc a9df 40bd abc7 d7bd 77ab 5dbd
000000d0: c26f b9bd 449c a2bd a344 80bd 37bd 87bd
000000e0: b8dc 41bd 421f 9fbd 23ac 39b9 a60e 69bc
000000f0: 28be 43bd 50be 57bd c7e9 b4bd 1052 e7bc
00000100: 1078 dcbd 9d07 82bd 5511 a8bd edb3 3ebd
00000110: bfb8 07bc 62a5 6abd 31c3 54bd 37fc 80bd
00000120: 8bed 8cbc 4d94 c8bd c1a7 67bd 85fc b9bd
00000130: 41c1 b4bd 8ffb 25bd aa07 40bd 809e 0bbd
00000140: d961 2bbd 9953 a3bd a008 5cbc 9e8b 03bd
00000150: 57b6 b1bd 2d6e c1bd b34a 60bd 47a7 21bd
00000160: 35fe c9bd 16aa 77bd 9862 8abd 98b5 3bbd
00000170: 7552 4dbd 248b 4dbc 2c20 97bd 15a2 1abd
00000180: e83a a6bc 5b2c 55bd b8ca 2fbd c85f edbc
00000190: 5033 0dbd ab47 7fbd 8ab3 71bd 6d54 d8bc
000001a0: 527c 64bd b0b4 52bd b5bd e7bd 446b c5bd
000001b0: 36b0 cfbc 5079 49bd b159 9abd 825f d7bd
000001c0: b42b 51bd cb4c 10bd 2c0f 8fbd b1fc f0bd
000001d0: 619c 2ebd 43d9 01ba 3c5e d3bc 756d b2bd
000001e0: e876 8cbd 1980 95bd b552 b2bc 80b2 1abd
000001f0: c435 883c 09e5 92bd 9a2d b8bd b9d4 7cbc
-0.032858487 -0.05140536 -0.05895481 -0.030629372 -0.021164313 -0.058516093 -0.060694583 -0.0706644
-0.05387321 -0.032190863 -0.10640882 -0.04086905 -0.060556047 -0.069690175 -0.08444113 -0.05716885
-0.017360428 -0.08735823 -0.07576511 -0.08695933 -0.05957496 -0.018869605 -0.06375236 -0.06112976
-0.051286925 -0.10013284 -0.056494813 -0.062132634 -0.01587711 -0.08669807 -0.081697166 -0.036667235
-0.037330396 -0.06462459 -0.075495385 -0.043353006 -0.06355201 -0.054588765 -0.08856936 -0.06992036
-0.078654975 -0.08502159 -0.077669166 -0.052231386 -0.104697205 -0.09247139 -0.050540917 -0.0664184
-0.0249071 -0.0470883 -0.105361305 -0.0541186 -0.09054519 -0.079399616 -0.062630914 -0.06627887
-0.047329634 -0.07769634 -0.00017707101 -0.014224684 -0.04778877 -0.05267173 -0.08833652 -0.028237373
-0.107650876 -0.06349108 -0.08206431 -0.04655831 -0.008283793 -0.057286628 -0.05194396 -0.06298106
-0.017203113 -0.09793911 -0.056556467 -0.090813674 -0.08825923 -0.040523108 -0.04688231 -0.034086704
-0.04184136 -0.07974929 -0.013429791 -0.03211557 -0.08677357 -0.094448425 -0.05475874 -0.03946617
-0.09862939 -0.06046494 -0.067570865 -0.04582748 -0.050127465 -0.012545381 -0.07379183 -0.03775223
-0.02029176 -0.052044254 -0.042917937 -0.028976336 -0.034472764 -0.062324207 -0.059009112 -0.026407445
-0.055782624 -0.05144185 -0.113154806 -0.096396 -0.025352579 -0.04918796 -0.075366385 -0.105162635
-0.05106707 -0.035229485 -0.06985316 -0.11766947 -0.042629603 -0.0004953334 -0.02580177 -0.087122835
-0.06858617 -0.07299823 -0.021767953 -0.037767887 0.0166272 -0.07172591 -0.08993073 -0.015431576

conv.6.running_mean f4 [128]
00000000: 9537 8f3e b144 e63e 7bf0 c73d aeb1 bdbe
00000010: cdb9 433f 9e1c 9dbf b5f5 15bf e24f 01bf
00000020: fd5c 41bd 02c2 97bf 7ad7 54bf 8779 a2bf
00000030: acf1 30bf 5317 1fbe 7636 febc 6d54 07bf
00000040: e666 d3be b83b 9bbd 1d51 0fbf 8b98 1dbf
00000050: 8d6f 59bf 17e6 03bf 176a 38bf e0cf a6bc
00000060: 7715 d6bf ad0f ba3e 101b 75be 190b 18bf
00000070: 6993 85be 7b3d 8ebf ce1a a7bc d3c8 40bf
00000080: f1b4 84bf 8908 913f cebd 3abf 1845 a43e
00000090: f83d bcbe 6d8e f33e d2c3 1cbf bc6e 003e
000000a0: db71 953e bbf1 593f 18bf 23be 75ba 0b3e
000000b0: 78c7 c53e 4df5 b9bb 8fd5 d2be 278c 80bf
000000c0: a068 34bf 79f3 86bf 3a15 073b 4750 00bf
000000d0: 281f 31bf 7522 d5bd ad1f c6bf 6a51 47bf
000000e0: 4c02 b6bd 76e5 56be 2510 03bf 64aa fcbd
000000f0: 57d7 37bf bf84 1bbf 3660 ff3e 3009 263f
00000100: 1b76 58bf ccef 81be 368f 3d3f d261 993e
00000110: 2ccd 32bf 7619 843f ce88 c8bf 76c6 7b3f
00000120: 6853 94bf 5eef d5be 13ac 8f3f 4c81 aebe
00000130: 9952 d9be 8e76 93bf 8488 8abf d90d 3abf
00000140: 0677 9cbf 9159 15bf d5f6 74bf 4502 25bf
00000150: 76f9 863e c0dd 773d b4b5 293f 30f1 f13b
00000160: 31ab 5fbe 4106 79bf 9b12 2d3f bde3 953e
00000170: d102 1f3d 0cc4 4dbf e86a 453d b687 74be
00000180: 2489 0a3f c6b3 8bbf a980 9bbf 5b59 b9be
00000190: 3527 283f eea9 81bf eb1e 04bf 67e1 143f
000001a0: b44c 77bf 6d4a 90bf e012 cdbf d80b 52bf
000001b0: dd2e 3bbf f8de 9b3f 63a5 513f f70b c8bf
000001c0: 41e3 bb3d 2569 81bc c1e5 1cbd 8637 1d3f
000001d0: 0da0 383f a9fb 50be fa5a 6f3e 441d a1be
000001e0: c6d4 54bf 8e72 babe 8d2d bb3e 2f60 7ebf
000001f0: c6a2 75bf 1085 42bf 453f d33e a6b3 cebd
0.27972093 0.44974282 0.09762665 -0.3704962 0.76455384 -1.2274358 -0.58578044 -0.50512516
-0.04720782 -1.1856081 -0.8314129 -1.2693337 -0.6911876 -0.15536241 -0.031031828 -0.528632
-0.41289443 -0.0757975 -0.55983144 -0.6156089 -0.8493584 -0.51522964 -0.7203688 -0.020362794
-1.67253 0.36340085 -0.23936105 -0.59391934 -0.26089028 -1.1112512 -0.020398524 -0.75306433
-1.0367719 1.133073 -0.7294587 0.32083964 -0.36766028 0.475696 -0.612363 0.12542242
0.29188427 0.85134476 -0.15990865 0.13645346 0.38628745 -0.005674994 -0.41178557 -1.0042771
-0.70472145 -1.0543052 0.0020612017 -0.50122494 -0.69188166 -0.10406963 -1.5478417 -0.77858603
-0.08887157 -0.2098597 -0.5119651 -0.12337187 -0.7181296 -0.6074943 0.4987809 0.6485777
-0.84555215 -0.25378263 0.7404665 0.29957443 -0.6984432 1.032027 -1.566675 0.983497
-1.1587954 -0.41784185 1.1224388 -0.3408302 -0.4244583 -1.1520555 -1.0822911 -0.7267738
-1.2223823 -0.5833979 -0.95689136 -0.6445659 0.263622 0.06051421 0.6629288 0.007383488
-0.21842648 -0.9727517 0.67606515 0.29275313 0.038821045 -0.8037727 0.048197657 -0.23879895
0.5411551 -1.0914237 -1.2148639 -0.36200985 0.65684825 -1.0129983 -0.5160968 0.58156437
-0.96601415 -1.1272713 -1.6021385 -0.8204932 -0.7311838 1.217742 0.81892985 -1.5628651
0.091742046 -0.015797207 -0.038305048 0.6141285 0.7211922 -0.204085 0.23374549 -0.3146764
-0.83137167 -0.36415523 0.3655819 -0.99365515 -0.959515 -0.7598429 0.41259208 -0.10092859

conv.6.running_var f4 [128]
00000000: 1373 3c3f bdaa 903f f803 1d3f c16a d13e
00000010: f2de 763f ea4d c03f aeb3 403f c659 a33e
00000020: df61 2f3f 0099 e33f b5dc 5e3f e29b 9b3f
00000030: a08f a13f 5494 3c3f 5511 1e3f 6191 7d3f
00000040: 85fd 2b3f 22be 153f 91ec be3e 04ca 713f
00000050: ac44 333f eb1d 983e b102 b83f c1f1 b23e
00000060: 0c6d 623f 761a 1a3f 7068 623f c827 213f
00000070: 1448 a93f 0886 4e3f 60dd 313e b889 d43e
00000080: d47f c63f e165 2f3f 0b63 713f 7924 8b3f
00000090: fa72 d43e c3be 423f ccb4 033f 1499 413f
000000a0: 7709 353f 2e53 003f 8e48 333f cc3f 8c3f
000000b0: 4052 513f 5a9d bb3f 3a46 d53f b970 293f
000000c0: ca88 413f 4762 0f3f ee40 0c3f fc6a 3f3f
000000d0: efb1 223f 8b12 9b3e 5a2f 963f ec31 c43f
000000e0: b96a 613f 77a7 803f c32e 973f 3643 093f
000000f0: 7ead 823f 42d4 003f c6c3 263f 8c61 8f3f
00000100: 7ebd d23f 08c3 cf3e 1a49 503f 3bf0 4e3f
00000110: 6595 913f b278 683f 638b d93f ba40 7d3f
00000120: e827 c33f 9ffc 1f3f 11d5 483f 865b 133f
00000130: d388 3e3f ecd2 c93f b3aa 2b3f 2046 cf3e
00000140: 514f df3f 49d3 553f 5e1c 383f 09c3 863f
00000150: 13e4 0b3f 1356 123f cc0e 1c3f 983f 8c3e
00000160: e486 543f a242 c93f f4cc f83e 5840 a43e
00000170: 46aa 093f 7c1a f23f 2987 fb3e ac59 9b3e
00000180: fb7d 913f a1e7 303f f98e d23f a8f0 0040
00000190: d73c 523f 204a 8e3f 448e dc3e 63c9 793f
000001a0: 93a9 243f 0eb8 9a3f e405 a13f 10c7 6a3f
000001b0: 108b 4b3f bfd3 483f d041 633f a050 ad3f
000001c0: 8efa 7e3f c38f 943f 52cf 3e3f 147f 083f
000001d0: a845 853f f761 743e cb29 d43e 1a6b 0e3f
000001e0: aa4a 843f f886 963f bccb 3a3f 53ea 243f
000001f0: 01e1 b73f b181 2d3f daeb 4f3f 85f1 4e3f
0.7361309 1.1302105 0.6133418 0.4090176 0.9643394 1.5023777 0.7527417 0.3190443
0.68508714 1.7781067 0.8705552 1.2156947 1.2621956 0.7366383 0.61745197 0.99049956
0.67183715 0.58493245 0.3728986 0.94448876 0.7002666 0.29710326 1.4375821 0.3495007
0.8844764 0.60196626 0.8844061 0.62951326 1.3225121 0.80673265 0.17369604 0.4151132
1.550776 0.6851483 0.9429175 1.0870506 0.4149397 0.7607233 0.5144775 0.75624204
0.7071757 0.5012692 0.70032585 1.0956969 0.8176613 1.4657395 1.6662056 0.66187626
0.7559935 0.56009334 0.54786575 0.7477262 0.63552755 0.30287585 1.17332 1.5327735
0.8805347 1.0051106 1.1811146 0.5361818 1.0209196 0.5032388 0.65142477 1.1201644
1.6464078 0.40578485 0.81361544 0.8083531 1.1373717 0.90809166 1.6995662 0.9892689
1.5246553 0.62494844 0.78450114 0.5756153 0.7442753 1.5767493 0.6705734 0.4048319
1.744608 0.8352552 0.71918285 1.052827 0.5464489 0.5716259 0.6096008 0.27392268
0.83018327 1.572346 0.48593867 0.3208034 0.5377544 1.8914332 0.49126557 0.30341852
1.1366571 0.6910344 1.6449882 2.0146885 0.82124084 1.1116371 0.4307729 0.97572917
0.6432125 1.2087419 1.2579923 0.91709995 0.7950907 0.784481 0.88772297 1.354023
0.99601066 1.1606373 0.74535096 0.53318906 1.0411882 0.23865496 0.41438136 0.55632174
1.0335286 1.1759939 0.72967124 0.6442005 1.4365541 0.6777602 0.81219256 0.8083728

conv.10.weight f4 [256, 128, 3]
00000000: 337b 01bc 6063 25b9 7ac9 c23c ecd7 bb3c
00000010: 7855 1ebd 0d87 163d 32b0 013d 885d ab3d
00000020: 1386 443d d39a 94bd 9c8b dbbc fecd fbbc
00000030: 0c9d c63b b196 2f3d 69d6 28bc ed3f 6f3b
00000040: 1456 84bd 0fbb bb3b 441d 7e3c 0498 cdbc
00000050: 9ce3 eebc fb46 0ebd 2223 313d 3fb5 b9bd
00000060: 06c5 893b 6a3c 20bd 059a 9bbc 988b 563d
00000070: 7c0e 3b3d 3d7c cf3c fdaf 3bbd a99f babb
00000080: 6c90 31bb 6afa 653d 8e0f 853c 2ab4 d93c
00000090: 395e bebc c7e2 f43c e931 17bd b7be 3b3d
000000a0: 9563 973c 3206 67bc 37b4 b43c e8de 56bd
000000b0: 53b0 f23c ee57 b73c a99c 8f3c 425f 9f39
000000c0: dc12 fabc 5c1c ae3d 6c2e 9dbd 49b5 a7bc
000000d0: 64c2 7c3b 1f01 b6bb b8f6 8bbb a348 5abb
000000e0: 9792 a53b e67b 53bd 6b09 48bd f725 bbbd
000000f0: cb67 853c 464d 163d d7b8 89ba f9c8 14bc
00000100: 82e8 81bd df9b debc cf0e 213d 504b 9b3c
00000110: 34ea b0bb 52ad 923b 4a6f 2fbd 6250 9f3c
00000120: b1dc b43c 6e15 ed3c a09c 2dbd 73fa 9e3c
00000130: 5a2a ccbc dfd3 c4bd 7d50 b63c 03c5 4e3d
00000140: 6868 15bd 67ef d53a 0635 5cbd 458e 99ba
00000150: 2cb5 1a3d f7ac 6e3d 0448 02bc 68f6 bc3b
00000160: d38b 2ebd f8c9 873c aff3 afbc 1e59 843d
00000170: 34e0 4bbd 5414 91bb 8e99 6bbd b2b8 02bd
00000180: f470 063d afae 97bc 51d4 d23b 0f2b 3ebd
00000190: dcaf 173d e7bc 51bd 248f ab3c 2395 edbb
000001a0: d367 b0bd 3376 813c bbf4 243d 1cd4 8fbc
000001b0: 09fc 7ebd 7357 5bbc a792 b7bb 62f4 af3c
000001c0: 0d68 f4bc d4cc 5abd 9ac3 b0bc 2a6d 02bd
000001d0: 8d37 863d 612d 56bc 8f97 fbbc 118e 8abd
000001e0: 2141 c6bc 8ba5 33bd 2455 b63c 523e efbc
000001f0: 970f 1f3d 8177 95bd 7eba ee3b dcf7 25bd
00000200: 20a9 fdbc d112 1ebd 4d13 71bb 5562 a43b
00000210: a677 7aba ccd0 71bd 85ad 58bd 6ea6 bdbc
00000220: 3a22 373d 68cf 54bd 183f 02bd 8d71 1b3d
00000230: 33f0 3939 cfb5 3ebc 07ee f0bc 425a 8dbc
00000240: 5f07 a6bc b754 8d3d 53fc 6dbd d420 6c3d
00000250: bc5f 65bd bf45 893d 045b 3fbc 2898 8fbd
00000260: d7eb 223c 9039 c73c a7ba 7dbd dde9 eb3c
00000270: 5024 0c3d 0bb9 27bd afc6 213c cc77 a33c
00000280: fc2b 95bb 900b 93ba 4578 0f3d 1314 36bd
00000290: 5494 27bc 7f0e 083d dcf8 8a3b 07b6 11bb
000002a0: 9cad 8abc d96a 40bc 6b1d 303d 3b5c c6bb
000002b0: 5d57 113d 2e67 c2bc 7b86 603d a39c 933b
000002c0: 7118 22bd 03a7 4fbd 56ec 47bc b810 71bd
000002d0: 7176 41bc 4b00 723d 7a95 333c d60d 9cbb
000002e0: 9365 693c a5b7 32bc 5f44 c93b a1ac 6e3c
000002f0: 4a93 65bd 52a5 0dbd 2865 7d3d 7111 afbc
00000300: 5f5b a73b 2da9 14bc c257 86bd 680c 563c
00000310: f77d 133d 367f 4fbd 09c2 493d ec7e f0bc
00000320: 3ae5 7fbc acde b93c 280c bbbc 1dbd 6dbd
00000330: adec cd3c ea52 363d 64dd 51bc b743 2c3d
00000340: 18f9 5abd 5fde 0d3d c143 80bb ae50 9f38
00000350: 2935 853c 47f9 ee3c d127 463a 6b08 8a3c
00000360: 1777 13bd 1ff0 833c 358c 7abc 0f88 213d
00000370: 7557 f3bb 4fd7 2fbc 1f3f 323c 8f7c bdbc
00000380: b32e 2b3d 5846 873c ccbf a93c 590b 3abd
00000390: 0f46 46bd b3cd 2ebd 2aa0 87bc 1912 03bd
000003a0: 5b71 503d f0b1 5cbd df77 05bc fff2 2a3c
000003b0: 3356 8bbc 0e4e 53bb c87a e5bc 16cd b8bd
000003c0: 0c7f 8f3d 7f6b cf3c 6793 24bc 6578 3bbd
000003d0: 90eb 3abd 6b84 893d 6924 d83c bc3d 943d
000003e0: 282f d73b 828e f73c 02cf c93c 5f31 723c
000003f0: e335 dabc fb9d 45bb 70a8 ccbd 433c b6bc
-0.007902908 -0.00015772646 0.023777712 0.022930108 -0.038655728 0.03674989 0.031662174 0.08367449
0.047979426 -0.07256093 -0.02679997 -0.030737873 0.006061202 0.04286832 -0.010305026 0.0036506609
-0.064617306 0.005729086 0.015509907 -0.0250969 -0.029161267 -0.03473566 0.043246396 -0.09067773
0.004204395 -0.039120115 -0.01899434 0.05237922 0.04566811 0.025327796 -0.045822132 -0.0056953025
-0.0027094139 0.056147017 0.016242769 0.026575167 -0.023238288 0.029893292 -0.036912832 0.045836177
0.018480102 -0.014100598 0.02205859 -0.052458674 0.029625094 0.022380795 0.017530756 0.00030397816
-0.030526571 0.08501503 -0.0767487 -0.020472186 0.0038568014 -0.005554333 -0.0042713545 -0.0033307455
0.0050528753 -0.05163183 -0.048837107 -0.091381006 0.016284844 0.036694787 -0.0010507357 -0.009081119
-0.063431755 -0.027173935 0.039320763 0.01895681 -0.005399013 0.004476228 -0.042830743 0.01944751
0.02207789 0.028940883 -0.042385697 0.019406533 -0.024922539 -0.09610724 0.022255177 0.050480854
-0.036476523 0.0016321958 -0.053761505 -0.0011715373 0.037770435 0.05827042 -0.00795174 0.0057666786
-0.042613816 0.016575798 -0.021478502 0.0646231 -0.049774364 -0.004427472 -0.057519488 -0.03191442
0.032822564 -0.018515913 0.0064340015 -0.046427783 0.037032947 -0.051205542 0.020942278 -0.0072504445
-0.08613553 0.015803432 0.040272456 -0.017557196 -0.06225208 -0.013387549 -0.005602199 0.021478835
-0.029834772 -0.053417996 -0.021577645 -0.03184239 0.06553564 -0.013072343 -0.030711917 -0.06765378
-0.024200978 -0.043859046 0.022257395 -0.029204521 0.038833227 -0.07298184 0.007285415 -0.04051958
-0.030964434 -0.038592163 -0.0036785186 0.005016605 -0.0009554572 -0.059037015 -0.052899856 -0.023150649
0.044710375 -0.05195561 -0.031798452 0.037950087 0.00017732456 -0.011640026 -0.029410375 -0.017254952
-0.020267187 0.06900924 -0.058101963 0.057648495 -0.055999503 0.06702756 -0.011679415 -0.070114434
0.009943924 0.02431944 -0.061945584 0.028798038 0.034214318 -0.040947955 0.00987403 0.019954585
-0.0045523625 -0.0011218656 0.035026807 -0.044452738 -0.010228235 0.03321695 0.004241092 -0.002223374
-0.016928487 -0.0117442245 0.042996805 -0.006053475 0.035483707 -0.02373084 0.05481575 0.0045047565
-0.03957409 -0.050696384 -0.012202343 -0.058853835 -0.011808024 0.05908231 0.010960931 -0.0047623916
0.014245409 -0.010908042 0.0061421837 0.014567525 -0.05604867 -0.03458149 0.06186405 -0.021370621
0.005107328 -0.009073538 -0.06559707 0.013064481 0.0360088 -0.050658427 0.049257312 -0.029357396
-0.015618617 0.022689186 -0.022832945 -0.05804168 0.02513727 0.044512667 -0.012809131 0.042056765
-0.05346021 0.034635898 -0.003914327 7.5967386e-05 0.0162607 0.0291716 0.00075590337 0.016849717
-0.036002245 0.01610571 -0.015292217 0.039436396 -0.007426197 -0.010732486 0.010879307 -0.023130683
0.041792583 0.016513035 0.020721339 -0.04542098 -0.048406657 -0.04267664 -0.016555864 -0.03199968
0.050889354 -0.053880632 -0.008146255 0.010433911 -0.017008876 -0.003224257 -0.028012648 -0.09023492
0.07006654 0.025319813 -0.010044909 -0.045769114 -0.045634806 0.0671471 0.02638455 0.072383374
0.0065669008 0.03021932 0.024634842 0.014782279 -0.026637023 -0.0030153978 -0.099930644 -0.022245532

conv.10.bias f4 [256]
00000000: 2d4e aa3c 177c 2ebc bf78 f03b 160f 4a3d
00000010: a258 463d ed9d 583c 20fb 133d 2734 bbbc
00000020: bd74 a03c 9c5c 2abd 0007 ae3b bd57 be3c
00000030: 2ef2 a0bb 041f 12bd 5a39 013d dea6 7f3c
00000040: ba86 c93c bc88 c73c c39f f03c abcc 03bd
00000050: c89d 863b 66e3 693c 5087 12bc 9f5d 1b3d
00000060: 0aee ea3c 64a9 e2bc 3c23 dabc 522a 4abd
00000070: 54b1 ba3c 9408 62bc 46a7 0ebc 764a 1dbd
00000080: 8725 1f3d 1d70 5bbc c457 3abc 3b50 36bd
00000090: cd54 203d 33cf 86bc d123 943c 8c0d 4d3d
000000a0: ebe7 22bd dbfd 56bc bbac 29bd d1e2 5cbc
000000b0: 49ba 5a3c 138d 44bd 5aec 3abd 0184 07bd
000000c0: b59e 13bb 8f49 46bd 4e5a 1abd d884 a13c
000000d0: 44f1 c23c 9048 4d3d 5976 0bbc 2219 39bd
000000e0: e3d2 083b dc6f 27bd 9e9c 113d 91b7 43bd
000000f0: 8593 043c 6e0f 1dbd 3a37 cdbb 63ff 423d
00000100: 9c0c f33b 65ac 9abc 9524 43bd 8c86 19bc
00000110: a381 37bc 6935 2ebd d9d3 39bd 4324 a2bc
00000120: 9a7f cdbc 309f cfbb cc7e 88bc 96d4 cd3c
00000130: a7e5 f2bc c182 843c 85f0 093d 6c67 e8bb
00000140: 39ec 15bd 458b 833c 492e 14bc 5a5f 273d
00000150: 8cfc 1abd a6e8 37bc 27e5 443d edea c6bc
00000160: 6d59 78bc f75c 69bc cca2 a9ba adc8 edbc
00000170: 675f 053c ad39 dc3c 4fef 42bc 63e0 cabc
00000180: b7b1 32bd 499d 4b3d 8077 f33b 6771 4dbd
00000190: 1f27 dbbb 552c d4bc 1f32 d9bc eb48 45bc
000001a0: 19de 17bb f388 99bc 485f 233d 8ac3 b83c
000001b0: 04cd 42bd fbc2 bc3c 6332 7dbc 3794 a73c
000001c0: 8c71 d53c 744a 1bbd fa17 1ebd f7b4 37bd
000001d0: c228 853b e952 213d 6c50 163d 0071 303d
000001e0: e492 c73c 9320 2abd 712c 22bd 584a 843b
000001f0: f6be ecba fcab 893c fde3 243d 03dd abbc
00000200: e0d9 2dbd 5295 1cbd 1877 0abd 916a 1dbd
00000210: 9bed 073d 70cb 293d 1d64 5a3c ba6b 873c
00000220: 09ee e3bc d3f5 733c 8bf6 04bd 7798 37bd
00000230: 74e0 763b 313f 953b 5d81 15bc d06c 15bd
00000240: 251e 07bd 992a b13b 4790 023b b2c8 383c
00000250: fce4 073c 9954 2bbd 93f2 8ebb c943 a83c
00000260: 2dbe 6f3c 5ca1 073d 5845 35bd 1eca 263d
00000270: beca dc39 8568 8a3c f95d 04bd d4a0 2a3d
00000280: ed06 5cbc efde ee3a f147 44bd 7953 343d
00000290: abb9 a2bb d57c 8cbc 84be 3e3d df0f ca3b
000002a0: fe6c 3dbd 0ff0 65bb a787 dfbb 57ae f03c
000002b0: ec9b 903c d787 32bd 3088 49bd ad32 aa3b
000002c0: 38f2 283c 00ce 32bd 66b1 51bd f045 c83c
000002d0: d1fe ae39 45ca e2ba f7e2 2e3c 82f3 783c
000002e0: f8ce dabb 4773 d5bc 0d7d 2d3d 6be8 eebb
000002f0: 9e1d b03b 52ab 103b 67ca 3a3d 9c71 97bc
00000300: b1dc 09bd d723 be3c f30b 02bd de11 163d
00000310: eaf9 45bd 2690 123d f1f2 363d 50fa 26bd
00000320: ee11 3d3d 1ee7 c0bc 5e09 0a3d c11a d3bc
00000330: 2ad9 f13c 5fce 4bbd cc6f 07bc e48b 1b3d
00000340: e45d 3e3d c40f d8b8 ee76 29bd 32c5 b6bc
00000350: c6ba c8bc af43 ec3c 215b 9b3c 1b90 2f3d
00000360: 7a1b 81bc 115a a5bc c8df 37bd 670e a13c
00000370: ffce 003d 7d7b 293d 0bcb 14bc 9da6 d7bb
00000380: 3044 97bc 9833 d23a 3f37 d6bc eb86 5cbc
00000390: 9bd5 3abd 3113 323d b6c9 3a3d 503a f4bb
000003a0: 6211 2e3d 25f1 c93b fbb5 d4bc 7bb0 343d
000003b0: 8df2 31bd 0cfc 4f3c 58e1 c7bc cf29 f2bc
000003c0: f3dc 0abd f560 eebc 6387 35bd 4248 3ebd
000003d0: 0d02 b93c d52e 42bd 8a73 aabc 1cfa eebc
000003e0: 0c19 27bd 6924 21bd 3931 cb3c 82e1 2a3c
000003f0: 2848 0abd 0a5a b7bc 1c38 0dbd d414 d83c
0.02078923 -0.0106497025 0.007338613 0.049330793 0.04842437 0.013221246 0.036128163 -0.022852017
0.019586915 -0.041592225 0.005310893 0.023235196 -0.0049116826 -0.03567411 0.031548835 0.015603749
0.024600375 0.024357192 0.029373055 -0.03217761 0.0041081645 0.014275407 -0.008943394 0.03793108
0.028677959 -0.027668662 -0.02662813 -0.049356766 0.022789635 -0.0137959905 -0.008706873 -0.03840109
0.03885415 -0.013393429 -0.011373464 -0.044510107 0.039143372 -0.016456222 0.018083485 0.050061747
-0.039771955 -0.013122047 -0.041424494 -0.013481812 0.013350078 -0.0479861 -0.04563556 -0.033084873
-0.0022525017 -0.048409995 -0.037683778 0.019716665 0.023796685 0.05011803 -0.008512103 -0.045189984
0.0020877651 -0.04087816 0.035549752 -0.047782484 0.008091812 -0.038344793 -0.006262687 0.047606837
0.0074172746 -0.018881032 -0.04764231 -0.009370457 -0.011200341 -0.042531405 -0.04536805 -0.019792682
-0.02508526 -0.0063361153 -0.016662024 0.025125783 -0.029650522 0.01617563 0.033676643 -0.007092407
-0.036602233 0.01605762 -0.009044238 0.04086242 -0.037838504 -0.011224901 0.0480701 -0.024281943
-0.0151580395 -0.014243356 -0.0012942194 -0.029026354 0.0081404215 0.02688297 -0.011897876 -0.024765199
-0.043626513 0.049710546 0.007430017 -0.050156977 -0.006688013 -0.025900045 -0.026513157 -0.012041311
-0.0023173152 -0.01874206 0.03988579 0.022554178 -0.0475588 0.023042193 -0.015453908 0.020456417
0.02605512 -0.0379128 -0.038597085 -0.044850316 0.0040636966 0.03938571 0.03669779 0.043076515
0.024362035 -0.04153497 -0.039593164 0.004037183 -0.0018062282 0.016805641 0.04025649 -0.02097941
-0.04244411 -0.03822834 -0.033804983 -0.038431708 0.033185583 0.04145378 0.013329533 0.01653086
-0.027823465 0.014890152 -0.032461684 -0.044823136 0.0037670406 0.004554652 -0.009125081 -0.036480725
-0.032987732 0.0054066894 0.0019922422 0.011278318 0.00829434 -0.041828725 -0.004362413 0.020540135
0.014632744 0.03311287 -0.044255584 0.040720098 0.00042112725 0.016895542 -0.03231618 0.041657284
-0.013429386 0.0018224398 -0.04792017 0.04402492 -0.004965981 -0.017149368 0.04656841 0.0061664428
-0.04624652 -0.0035085713 -0.006821591 0.029380007 0.017652474 -0.04358658 -0.049202144 0.0051940293
0.010311656 -0.04365349 -0.05119457 0.024447411 0.0003337772 -0.0017302713 0.01067423 0.015194776
-0.0066775046 -0.026055945 0.042355586 -0.00729089 0.0053746244 0.002207477 0.045603182 -0.01848679
-0.033657733 0.02321045 -0.031749677 0.036638133 -0.04833404 0.035782002 0.04466528 -0.04076606
0.046159677 -0.023547705 0.03370034 -0.025769593 0.029522497 -0.049757358 -0.008266401 0.037975207
0.04647626 -0.00010302619 -0.041373186 -0.022310827 -0.024503123 0.028840868 0.018964352 0.04286204
-0.015760172 -0.020184549 -0.04489115 0.019660188 0.031447407 0.041377533 -0.009081612 -0.006581141
-0.018465132 0.0016037105 -0.02614939 -0.013459901 -0.045613866 0.043475334 0.045602523 -0.0074532405
0.042497046 0.00616278 -0.025965681 0.044113617 -0.043444205 0.01269437 -0.024399444 -0.029560952
-0.03390212 -0.029098967 -0.044318568 -0.04645563 0.022583986 -0.047407944 -0.020807046 -0.029171996
-0.04079537 -0.039341364 0.024803745 0.010429742 -0.03376022 -0.022381801 -0.03447734 0.02637712
