output/electricity_cnn_20260221_172453/checkpoints/model_best.pt (torch, 174882 bytes, 21 tensors)

conv.0.weight f4 [32, 14, 3]
000000 fc d0 1b 3e e1 fc 95 bc 1e 9b de bb 81 7d 45 be
       0.1521644 -0.018309059 -0.0067933938 -0.19286157
000010 aa 5a ba 3b 4d b3 27 3d d9 50 7e 3c 7a 27 ac 3d
       0.0056870775 0.04094248 0.015522205 0.08405967
000020 a5 14 fa 3d b3 68 d5 3e 03 35 af be aa 91 68 3e
       0.12210969 0.41681442 -0.34220132 0.22711816
000030 b9 7a c2 bd e9 21 3b 3d bc c1 78 3d 03 33 bc bd
       -0.09496064 0.045686636 0.060731634 -0.09189417
000040 63 a6 40 3d ab f0 80 bd 99 76 b0 bd 3b 86 a1 3d
       0.04703368 -0.06295904 -0.08616371 0.078869306
000050 98 dc 58 bc 5d 4b 2c bc 03 b2 d8 3d e2 4f 2d bd
       -0.013236187 -0.010516015 0.10580828 -0.04231251
000060 fd 74 cf be 8c e3 2b bf 71 aa b0 be c2 9d b5 3d
       -0.40518942 -0.67144084 -0.34505036 0.088679805
000070 7c d3 9f 3d 3d ec af 3e 20 32 cb bd 37 b2 1c bc
       0.07804009 0.34359923 -0.0992167 -0.009563974
000080 05 c4 4d 3c ad d8 c4 bd 92 60 16 bf 47 1f 51 be
       0.012558942 -0.0961164 -0.58741105 -0.20422088
000090 08 1b db bd 0d 1c 6b bd 5b b0 4f 3d cb 98 59 3d
       -0.10698515 -0.0573998 0.050705295 0.05312423
0000a0 11 6a 9e bd 96 bf 9d 3d 85 c8 00 be 42 f2 d1 3d
       -0.07735074 0.07702558 -0.12576492 0.10251285
0000b0 d2 bf ea 3d 73 b0 7b bd bb 01 38 3c ae e1 e3 3d
       0.11462368 -0.061447572 0.011230881 0.11127029
0000c0 d3 d5 6a 3e 3d 3f 95 3e 71 67 b7 3e 5a 9f 25 be
       0.2293313 0.2914981 0.35821107 -0.16174069
0000d0 7f a9 c0 3d ae f2 38 be 96 f4 a6 bc 9b 40 85 3d
       0.09407329 -0.18061325 -0.0203803 0.06506463
0000e0 f8 29 0b 3e 0c 38 d9 bd f1 35 5c bb 26 d8 25 3e
       0.13590229 -0.10606393 -0.0033601488 0.16195735
0000f0 bc 33 6e bd 09 7d 88 3e 79 34 73 3e b2 fe 6f bd
       -0.058154806 0.26657894 0.23750485 -0.058592506
000100 46 de 08 3d ad 45 5f bd 7c 80 93 be 9a fe d2 be
       0.0334151 -0.054509807 -0.28808963 -0.4120987
000110 86 09 df bd 9d 98 6b be 58 5d 46 be b0 d5 39 3e
       -0.10890488 -0.23007436 -0.19371545 0.18147922
000120 37 9c 5c be bf 7d d5 be 51 3f 85 be 1c a6 ae 3e
       -0.21543966 -0.416975 -0.2602487 0.34111106
000130 95 ac 0a 3e 99 7b 8c bd 84 50 92 3d da 7e 90 3d
       0.13542397 -0.06859512 0.071442634 0.07055445
000140 d7 e8 42 be 70 99 62 bd d4 30 a1 3b 3c 70 8f bd
       -0.19034134 -0.05532211 0.004919151 -0.07003829
000150 c5 de 05 be a9 09 82 be 2f db 9d 3e 5a 5b d3 3c
       -0.13073261 -0.25397995 0.30831286 0.025800396
000160 5e d6 80 3d 88 a0 58 be c8 da 82 be 34 a8 37 be
       0.06290887 -0.21154988 -0.25557542 -0.17935258
000170 f7 a8 c8 3e ce fa e0 bd 25 a1 1e bf 31 ac 0a 3e
       0.3919141 -0.10985337 -0.6196464 0.13542248
000180 bc 1c fd bd 43 34 a9 3c d9 1c e3 3d 26 84 dc 3d
       -0.12358996 0.020654803 0.11089487 0.10767393
000190 37 18 93 3d ab fd 54 3c 6f 94 99 be c0 45 c0 be
       0.07182353 0.012999932 -0.29996058 -0.37553215
0001a0 9b 8d bd 3e 63 0c f8 bd 87 a5 5b bd d2 30 b1 3d
       0.370221 -0.121117376 -0.053624656 0.0865189
0001b0 8f 7c 79 3e 2d 07 f3 3c be d5 9a 3e 54 d1 9f 3c
       0.24363922 0.029666508 0.30241197 0.019508995
0001c0 4d b1 21 3e ee 29 a9 3e 3e 18 1b bd bf ca ce 3c
       0.15790291 0.33039802 -0.037864916 0.025243161
0001d0 1d 8c 00 3e ce fd e6 bc 8c 33 8b 3c 65 16 c2 3d
       0.12553449 -0.028197195 0.016992353 0.09476928
0001e0 40 78 6f 3d 44 cb b5 3c ee 61 04 bb b0 ad 62 bc
       0.05846429 0.022191651 -0.0020199972 -0.013835356
0001f0 7b f5 a6 bd c8 e8 bd 3c 65 e1 ea bd 92 68 41 bd
       -0.081522904 0.023182288 -0.11468772 -0.047218867
000200 11 a3 51 3d 41 0a f8 bd 02 ac fd bd 0d 16 08 3e
       0.051180903 -0.12111331 -0.123863235 0.13289662
000210 8f 5d 8c 3d ac ce f1 3d 79 aa 0d 3d a8 d4 a2 bd
       0.068537824 0.11806998 0.034586404 -0.07950717
000220 33 25 21 bd 55 5e 0b 3e 7f f6 62 bd 77 3d 11 bd
       -0.039342117 0.13610204 -0.05541086 -0.035459008
000230 b0 1e 8e 3d 42 d6 a4 bc 84 9b 12 bd 9b 45 32 3c
       0.06939447 -0.020121697 -0.035792843 0.010880853
000240 5c c8 5b 3d 95 69 37 be be 22 2b bb ef 9b 42 bd
       0.053657874 -0.1791137 -0.0026113237 -0.04751199
000250 f8 56 37 3e 95 67 f4 bd 23 5d 4e bf cf d4 4e bf
       0.1790427 -0.11933819 -0.80610865 -0.8079347
000260 19 9d 75 bf b1 ed 5a 3e 4c 38 d5 3e 2a dd 99 3d
       -0.95942837 0.21379735 0.41644514 0.07512887
000270 b6 dd c5 3d eb 09 6a 3e 40 8e 77 3e d3 83 bb 3d
       0.09661429 0.22855346 0.24175358 0.09156003
000280 c6 e7 a2 3d 03 c4 88 3e 31 00 3c bc 7e 3d a2 3c
       0.079543635 0.26712045 -0.011474655 0.019804712
000290 8e 83 a6 3c bf 9d 8d bb 6f 01 d5 bc 4d de 93 bc
       0.020326402 -0.0043217833 -0.02600166 -0.018050337
0002a0 01 54 8e bb f5 51 74 3d a1 0c 08 3e 0b 99 fa bd
       -0.00434351 0.059648473 0.13286068 -0.12236222
0002b0 5b 4a 6e bd f3 6b 16 3d ab 68 8e bd f5 83 31 3e
       -0.05817638 0.036724042 -0.069535576 0.17335494
0002c0 1e 25 3a 3d f4 fe d4 bd a3 de 82 3b c3 54 96 3e
       0.045445554 -0.10400191 0.0039938255 0.29361543
0002d0 f6 6f bc 3d 09 85 89 bd 6c 1d 87 bd 5f c7 66 3d
       0.09201042 -0.067148276 -0.06597409 0.05634248
0002e0 bf 2d d0 bd 71 0f 0f 3c ff 9f 95 bd 38 34 82 bb
       -0.101649754 0.008731709 -0.073059075 -0.00397351
0002f0 62 af 84 bd 0a e8 36 3e b2 0d c2 bc d3 32 9a 3d
       -0.06478764 0.17861953 -0.023688171 0.07529225
000300 c2 18 95 be de f1 a1 be c6 67 c7 be 5f 92 3a bf
       -0.2912045 -0.31629843 -0.3894636 -0.72879595
000310 ef a4 37 bf a8 d0 54 bf eb 37 83 3e 1d 93 4e 3e
       -0.71736044 -0.83130884 0.256286 0.20173307
000320 04 d7 08 3e c8 e4 ff 3e 1f 70 59 3e 21 66 68 3d
       0.13363272 0.49979234 0.21234177 0.056738023
000330 6b 24 5c 3c 98 b3 45 3d 01 a3 39 bd b5 ee b8 3d
       0.013436417 0.048266977 -0.04532147 0.09029905
000340 7e c5 06 bd e9 92 11 bd f3 96 7a bc c9 56 a3 bd
       -0.032903187 -0.035540495 -0.015294778 -0.07975537
000350 4a 78 8f bd aa 5f 7f bd ba f1 33 be 99 28 ef 3d
       -0.07005365 -0.06234709 -0.1757268 0.11677665
000360 ea 3d c6 3c 8b 7a 12 bd 30 04 f7 3d 17 a8 c0 3d
       0.024199445 -0.035761397 0.120613456 0.094070606
000370 2f 0a 98 be 1f 94 8f be c9 88 0c 3e 29 ce 5d 3c
       -0.2969527 -0.28042695 0.13724054 0.013537922
000380 84 b6 4d be bc ff 9d bd 07 de 5e bd 89 30 bc bd
       -0.20089155 -0.07714793 -0.05441096 -0.09188945
000390 12 33 f0 3b 9b 4e 43 be b3 5e 22 be 21 8e f0 bd
       0.007330307 -0.19072954 -0.15856437 -0.11745859
0003a0 af 02 f8 bc 97 d8 34 3c 22 79 33 3e db a6 a1 3e
       -0.030274717 0.011037967 0.17526677 0.31572613
0003b0 c5 c7 07 3f 07 e9 a0 3e 2a a7 ab 3e d4 55 38 3e
       0.530392 0.31427786 0.33525974 0.18001491
0003c0 46 a5 94 bd 47 a0 b9 be c5 4e 1b 3e 7d ac 2a bd
       -0.07258086 -0.36255094 0.15166767 -0.041668404
0003d0 55 a2 80 3d d2 8d 9b be 47 b4 f2 3b 98 2e d9 3d
       0.062809624 -0.30381638 0.0074067446 0.1060459
0003e0 93 1d 9b bd b1 b5 99 bd d0 cb 6a be e7 1b 72 bd
       -0.07574 -0.07505358 -0.22929311 -0.05910864
0003f0 fc 2e 28 bb 3d f5 32 3d 4f 27 bd be dd ef a3 3d
       -0.002566277 0.04369091 -0.36944053 0.08004735

conv.0.bias f4 [32]
000000 fd e7 b7 3c 41 88 1c 3e 73 7d ba bc 71 37 06 3e
       0.022449488 0.15286352 -0.022764897 0.13107087
000010 0d a0 ba bd 88 c4 ac 3c 6f 10 53 bd 4e 8b a8 3d
       -0.091125585 0.021089807 -0.051529344 0.08229695
000020 24 1a 17 3e b9 0e c6 3c 62 93 81 3d 7c e9 ee bc
       0.14756066 0.024176942 0.06326939 -0.029164068
000030 1a 1c 2e bd a2 b1 9a 3d eb bf 84 be e2 2f dd 3c
       -0.04250727 0.07553412 -0.25927672 0.027000371
000040 b6 74 d4 bb 12 ce de bd a0 85 58 bd 96 06 6a 3c
       -0.0064836396 -0.108791485 -0.05286181 0.014283797
000050 49 37 30 be 8d 3b 1c 3e 0b bc 06 3e 77 a7 72 3d
       -0.1720859 0.15257092 0.1315767 0.05924174
000060 16 73 82 3e 21 45 c8 3e dd ee 1f be bb d5 39 3d
       0.2547843 0.3911524 -0.15618463 0.045369845
000070 10 1a 7d 3e 14 73 96 3e 18 b4 8c bc a8 a0 91 3e
       0.24716973 0.29384673 -0.01717572 0.28442883

conv.1.weight f4 [32]
000000 5a 84 54 3f 95 70 38 3f dc 31 22 3f f2 fa 5f 3f
       0.8301445 0.72046787 0.6335733 0.8749229
000010 42 80 49 3f 86 1b 0a 3f f7 de 14 3f 79 1a 15 3f
       0.7871133 0.5394825 0.5815272 0.5824352
000020 e8 62 2f 3f 16 de 52 3f 75 36 98 3f 6e 79 79 3f
       0.68510294 0.82370126 1.1891619 0.9745091
000030 8c a1 52 3f ef aa 63 3f be 77 83 3f f4 b6 49 3f
       0.8227775 0.889327 1.0270917 0.7879479
000040 2f d3 8c 3f 09 c8 92 3f e0 33 02 3f fd e9 a5 3f
       1.1001948 1.1467296 0.50860405 1.2962033
000050 ff f0 88 3f 44 38 5f 3f cc 59 14 3f da 7d 02 3f
       1.0698546 0.8719523 0.5794952 0.50973284
000060 5a 9f 28 3f 9a 3a 74 3f a5 d4 26 3f 28 c9 41 3f
       0.6586815 0.9540192 0.6516822 0.75697565
000070 99 0c 5f 3f c0 d5 73 3f 8e db 44 3f 98 9d 25 3f
       0.871286 0.9524803 0.76897514 0.64693594

conv.1.bias f4 [32]
000000 63 ed d1 be 3f 60 cf be e0 91 ca be a1 86 97 be
       -0.41001424 -0.40503117 -0.3956442 -0.295949
000010 12 ce e3 be 52 d8 b8 bd e2 37 6a be 43 13 94 be
       -0.44493157 -0.09025635 -0.2287288 -0.28920946
000020 03 d2 d6 be 95 01 31 bf 46 f4 ab be 17 dc a4 be
       -0.419571 -0.6914304 -0.33584803 -0.32199165
000030 ca 0b 0f 3e 8c 90 ac be 0b dc 84 be 82 6c 91 be
       0.13969341 -0.3370403 -0.2594913 -0.28403097
000040 94 49 29 3e 4b 6f 13 bd 62 75 bf bd 39 ed 88 be
       0.16531974 -0.03599481 -0.09348561 -0.26743487
000050 90 19 fd be 16 6f ad be 4a a6 ca be 02 81 e1 be
       -0.49433565 -0.33873814 -0.39579993 -0.44043738
000060 5c 85 dc be e6 f6 0b bf be 28 a4 be 4d 76 fe be
       -0.43070495 -0.5467361 -0.32062334 -0.4969963
000070 ff 23 20 bf 5c b1 1c bf 85 f7 11 bf d1 41 29 bf
       -0.62554926 -0.6120813 -0.5701831 -0.6611605

conv.1.running_mean f4 [32]
000000 8b a2 4f 3d de 7e 41 3e 6e b8 18 bd a0 c2 3c 3e
       0.050692122 0.18896052 -0.03728526 0.18433619
000010 41 24 37 bd ad 19 e0 bc a3 cb 9a bd 57 7f 46 3d
       -0.04471231 -0.027355993 -0.07558372 0.048461284
000020 ab f9 02 3e 47 41 ae 3b 9b 71 78 3d 43 d3 ec 3c
       0.12790553 0.0053178403 0.060655218 0.028909331
000030 41 53 25 be 96 ef 8f 3d 44 77 4a be e3 be 9e 3d
       -0.1614504 0.07028119 -0.19772059 0.077512525
000040 f2 6b 72 3c 94 d4 d8 3b 73 20 8c bd b3 05 89 3d
       0.014796244 0.006617138 -0.06842127 0.0669054
000050 92 44 f9 bd b8 a3 46 3e dc 60 f7 3d 59 b8 af 3d
       -0.12171282 0.19398391 0.12079021 0.085800834
000060 cc c1 96 3e 59 e9 c7 3e e9 ab 1a be eb 51 d5 3d
       0.2944473 0.39045218 -0.15104641 0.10416015
000070 97 36 6e 3e 43 fc 9a 3e 15 75 84 3b 7b a3 91 3e
       0.23263012 0.30270585 0.0040422776 0.28445038

conv.1.running_var f4 [32]
000000 35 6f dd 3f fc f0 3f 40 29 7f c5 3f 3d 55 a5 40
       1.7299563 2.9990835 1.5429431 5.166655
000010 34 23 16 41 75 fc 78 40 2d ca 13 40 5f 06 b7 40
       9.3835945 3.8904088 2.3092148 5.7195277
000020 10 fe 58 40 d7 5c d9 40 98 b8 c9 40 c4 0a c1 40
       3.3905067 6.792583 6.3037834 6.032564
000030 6d 97 db 41 d6 6b 80 40 b6 c9 c9 40 42 da b6 40
       27.448938 4.0131636 6.305873 5.714143
000040 3f 81 3b 40 86 7a b3 41 f4 aa 14 40 a2 5e a0 40
       2.9297636 22.434826 2.3229342 5.011552
000050 b3 f9 f4 40 81 7e 44 40 10 b8 9f 40 b5 99 ae 40
       7.655481 3.0702212 4.9912186 5.456263
000060 e3 4c 89 40 9d af 29 40 cc 33 5a 40 b4 7f 02 41
       4.2906356 2.6513436 3.4094114 8.1561775
000070 09 77 61 40 a5 3b af 40 a0 7f d6 3f f6 df 09 40
       3.5228903 5.476031 1.6757698 2.1542945

conv.5.weight f4 [64, 32, 3]
000000 b3 40 49 be ac c1 27 be 6a 74 1c bd fd ba 52 3d
       -0.19653587 -0.16382474 -0.03819696 0.051447857
000010 55 9b 8f bd d8 39 17 be 0d c8 40 bd 4f 5c 2b bd
       -0.07012049 -0.1476816 -0.047065783 -0.04183608
000020 14 41 11 3d f4 85 ba 3b 04 8a 02 3d 77 2d fb bd
       0.035462454 0.005692238 0.031869903 -0.12264531
000030 ef 17 d4 3d 13 8a eb 3c a1 5d 15 3d 72 2e a9 ba
       0.103561275 0.028752362 0.036466245 -0.0012907519
000040 70 71 f3 bb d4 19 71 3c 5d 3b 34 3c b8 27 e0 bd
       -0.0074292943 0.014715631 0.011000481 -0.10945076
000050 2f 07 5b bd 1f ca 32 3d a7 b1 3d be 90 c5 f3 bd
       -0.053473648 0.04364979 -0.185248 -0.119029164
000060 51 99 aa bd 9f 0e 01 be 0e 33 0e be 90 52 72 be
       -0.08330024 -0.12603234 -0.13886663 -0.23664308
000070 0a 57 83 be 34 06 70 be 55 06 df bd 1c bc 6b 3e
       -0.25652343 -0.23439866 -0.108898796 0.23020977
000080 c5 50 2d 3e 8b 43 b9 3d 04 bd 5c bd f1 b5 05 bd
       0.16925342 0.09046086 -0.053891197 -0.032644216
000090 ad f2 c4 bb 48 7c d8 bc 42 cc a5 bb 7a 87 fe be
       -0.0060103745 -0.02642645 -0.00505975 -0.49712735
0000a0 24 d4 2a bf f0 71 14 bf 67 f5 f7 3c 5f f5 a5 bc
       -0.6672995 -0.57986355 0.030268384 -0.020258604
0000b0 a4 b5 8e 3b cb 1a 55 3d 55 ec 12 be a4 d0 ec 3d
       0.0043551493 0.052027505 -0.14347966 0.115632325
0000c0 cb 3f ae ba ce ae a6 3d 32 09 e6 3d 4c 83 b1 3d
       -0.0013294158 0.0813881 0.112322226 0.08667621
0000d0 8d e9 8d 3d 68 16 a1 3c 46 77 0b 3d e1 62 07 3d
       0.06929312 0.019664004 0.034049295 0.033053283
0000e0 32 a4 a4 3c c8 f5 1e bc 48 18 5c bd 3e 07 5f bd
       0.020097826 -0.0097021535 -0.053734094 -0.054450266
0000f0 a6 6f 0e bd b8 11 2d bd 68 04 bd bd 36 ee bb bd
       -0.034774445 -0.042253226 -0.09229356 -0.091762945
000100 c9 75 72 be d3 12 e4 bd df 54 ba bc 11 d0 de bd
       -0.23677744 -0.11136403 -0.022745548 -0.10879529
000110 9d 22 97 3d b1 ea 91 3d 4e 38 9a bd 6c 08 bf 3b
       0.07379649 0.07124842 -0.075302705 0.0058298614
000120 52 15 1d bc 82 99 ed bc 7d 78 d1 bc b8 ad 07 bf
       -0.009587603 -0.029003862 -0.025570149 -0.5299945
000130 22 77 10 bf 86 c5 f9 be d0 20 0e 3e db 8a d4 3d
       -0.5643178 -0.4878351 0.13879704 0.10378047
000140 37 3f 4d be a9 5a 09 be e0 93 9e 3d 8c 37 66 be
       -0.20043646 -0.1341349 0.07743049 -0.22482127
000150 fd 53 ef bd a5 26 01 be fb 57 38 be cd 88 42 3e
       -0.11685941 -0.12612398 -0.18002312 0.18997498
000160 e3 b5 69 3e 5b 98 45 3e 8b b9 94 bd 4c 37 ad 3c
       0.2282329 0.192964 -0.07261952 0.021144532
000170 1b e0 ec bc d5 18 06 be 14 5d 19 be 8f 75 68 be
       -0.028915456 -0.1309541 -0.14976913 -0.22701095
000180 3c be a0 3d 6c a6 2e bd 61 96 c3 bd d2 0f 9c bc
       0.07848784 -0.04263918 -0.09550167 -0.019050512
000190 d9 b7 89 3e 99 1d 84 bd 27 cc cd 3c 56 71 9a be
       0.26898077 -0.06450958 0.025121761 -0.30164593
0001a0 29 2c 16 bd 78 79 5b bd 47 b3 c9 bc 0d 38 1f be
       -0.03666321 -0.05358264 -0.024621619 -0.15548725
0001b0 36 87 02 3d 12 9d 01 3d 5a b1 75 3c 0a 66 e6 3d
       0.03186723 0.031643935 0.014995897 0.11249931
0001c0 a8 e4 e0 b9 e8 23 1a 3e 88 a2 9b bd 8c 86 00 bc
       -0.00042894972 0.1505276 -0.0759936 -0.0078445785
0001d0 80 88 60 be eb 61 d7 3d 93 cd 31 3c 92 0f 19 be
       -0.2192707 0.10516723 0.010852235 -0.14947346
0001e0 ac e9 a8 3c bb e7 be 3c e6 ac 9d bd a9 f2 56 3e
       0.020619236 0.023303857 -0.076989934 0.20991005
0001f0 80 bd 02 3e ce f7 59 bc 5a c5 b0 3e da 11 3b 3c
       0.12767601 -0.01330371 0.34525567 0.01141783
000200 6e 1e 9d 3e 5f 6c 7e bd 08 82 50 be b2 d7 c0 bc
       0.30687279 -0.06211507 -0.20362103 -0.023540352
000210 fa 66 1b bd 2e 6f 0c bc 0b c6 ed bc 50 ec 09 bf
       -0.037940003 -0.008571429 -0.029025098 -0.5387621
000220 a8 fd 19 bf 6f bb fa be 15 1d fb 3d fc 93 08 3e
       -0.60152674 -0.48971125 0.12261406 0.13337702
000230 1c fd e5 3d 66 d7 13 bd 57 14 9e bd b7 66 f5 bb
       0.112299174 -0.03609409 -0.07718723 -0.007489051
000240 a0 6b 57 bc ad 00 13 3e 30 d9 01 3d 61 7a cc 3d
       -0.013148218 0.14355727 0.031701267 0.099842794
000250 b2 f9 92 3d e4 da f0 bd e3 68 f2 bd 40 bc 77 be
       0.07176532 -0.117605 -0.11836412 -0.24192905
000260 8c 3a e1 bc bd 3b 0d 3d 43 6f 5c 3d d7 8d 62 3d
       -0.027493738 0.0344808 0.053817045 0.05531105
000270 b3 76 ea 3d e6 76 d4 3d 6f 02 03 bd bd f0 13 be
       0.11448421 0.103742406 -0.031984743 -0.14447303
000280 53 2c ad be 37 24 6b be 1d 41 0c bc 5e e1 aa bc
       -0.3382288 -0.22963034 -0.008560446 -0.020859417
000290 e8 0b e4 3d 7b 8c 15 bd 95 12 92 3d d1 67 a9 be
       0.111350834 -0.036510926 0.071324505 -0.33087018
0002a0 2c cb 74 3d 42 fb 0e 3e 57 0f 4a be 71 bf da be
       0.059764072 0.13963035 -0.19732414 -0.42724183
0002b0 bd 33 07 bf 3e b5 e5 be 61 35 6b bd e0 64 e0 3d
       -0.5281332 -0.4486484 -0.057423953 0.109567404
0002c0 15 27 1a be 92 6c 1d be 1c 08 0e 3d 3a a3 55 be
       -0.15053971 -0.15373448 0.034675702 -0.20863047
0002d0 7a de 32 be 62 50 cc bd 94 f2 f1 be 0f 24 02 3e
       -0.1746768 -0.09976269 -0.47255385 0.12709068
0002e0 55 38 8d 3d 8b fe 18 3e 65 19 81 3c 51 41 b4 bc
       0.0689551 0.1494085 0.01575918 -0.022003802
0002f0 22 b8 40 be 03 f8 85 3b b8 82 2d bd 2e 18 04 3d
       -0.18820241 0.004088403 -0.04236099 0.032249622
000300 14 e6 5f bd 9b ab 64 be 81 2f 2c be 95 a5 d5 bc
       -0.05466278 -0.22331087 -0.16814996 -0.026079932
000310 df d9 56 3d 3c 09 23 3e ff 5b 09 be 0b d3 4c bd
       0.05245387 0.15921491 -0.13414 -0.050005954
000320 02 3f ec bd 7b 44 a7 bd ca 5d 22 3f 59 34 3b be
       -0.11535455 -0.081673585 0.6342436 -0.18281688
000330 56 da e8 bc 50 ea 34 3c 31 4a ce bd 5d c8 2e be
       -0.028424423 0.011042193 -0.10072745 -0.1706862
000340 25 39 46 be 30 a7 0c be 83 4c a2 bd 03 18 fa 3b
       -0.19357736 -0.13735652 -0.0792475 0.007632257
000350 bb 66 27 3e 4c a8 ea bc 18 35 86 bd bb 90 e8 bd
       0.16347782 -0.028644703 -0.065530956 -0.1135573
000360 2a 25 4d be 2e 9d ee bd 39 e6 a0 bd cf 5d c7 be
       -0.20033708 -0.116510734 -0.078564115 -0.38938758
000370 8d e3 ff be 47 75 ee be 25 cc 5c be a9 a0 8b be
       -0.49978295 -0.4657385 -0.2156225 -0.2727101
000380 09 82 41 be 72 1d a5 bd ec e4 65 bd 69 e5 ea 3b
       -0.1889726 -0.08062257 -0.05612652 0.007168461
000390 94 7e 8e be 4d 7a c8 bd 2c 04 37 be f6 ee 0e be
       -0.27830946 -0.09788952 -0.17872685 -0.13958344
0003a0 2e 27 1f bb d3 e3 22 3d dc 40 8d 3e fe 8a de 3e
       -0.0024284828 0.03976805 0.27588546 0.43465418
0003b0 8b d0 e1 bd df 3f bf bd ac 9f 04 be ed 0e 63 be
       -0.110261045 -0.09338354 -0.12951535 -0.22173662
0003c0 9c e5 4a 3d bc 7c 34 bd 1f 04 cb 3d da f7 a1 bd
       0.04953538 -0.04406427 0.099128954 -0.07908602
0003d0 13 50 2d bc 21 3b b9 3d 4c e3 01 be 15 aa d4 3d
       -0.010578173 0.09044481 -0.12684363 0.10384003
0003e0 33 25 2c 3d eb 3c 29 3e 9a 88 4e 3e 42 d8 3c 3e
       0.042027663 0.16527145 0.20169297 0.18441871
0003f0 5d 4e 0c be 73 6c 32 be 1d ff 35 be a2 f9 33 3a
       -0.13701768 -0.17424183 -0.17773099 0.00068655063

conv.5.bias f4 [64]
000000 d0 13 41 bd ec 32 5a 3d 7e 16 c2 3d a0 63 8b 3d
       -0.047138035 0.05327122 0.09476946 0.06806111
000010 7a 80 f9 bb 10 21 c0 bd 95 db 9d 3b 24 22 fd 3d
       -0.0076141926 -0.09381306 0.004817436 0.123600274
000020 9f da c5 bb f2 02 eb 3d b7 bd 81 3c 42 3f 3f bd
       -0.0060380246 0.11475171 0.015837533 -0.046691187
000030 0b b3 1c 3c c1 bd f1 bc cb b7 aa 3b 9b cf f2 3d
       0.009564172 -0.029509427 0.005209898 0.11856004
000040 f3 88 6f 3d 19 4a 1a bd bd 20 e6 3d fa 06 a0 3d
       0.058480214 -0.03766832 0.11236713 0.07813831
000050 1b aa 18 bd 18 2f 04 3e 2c 8c a2 3d 15 f8 88 bc
       -0.0372716 0.1290859 0.07936892 -0.016719857
000060 d2 b5 7f bc 8b 0c ad bb f2 1e 9a bd 14 3f 20 be
       -0.015607314 -0.0052810363 -0.075254336 -0.15649062
000070 77 57 59 bc 67 84 1d 3e d6 a4 f9 bc c8 79 a8 bd
       -0.013265482 0.15382539 -0.030474108 -0.08226353
000080 79 70 a2 bd a2 2f 06 be 44 d7 cd bd b8 17 9c 3d
       -0.07931609 -0.13104108 -0.10050824 0.076217115
000090 b7 b7 df 3d ad d2 ac 3d 8c 5f 54 bc 00 e0 e9 3c
       0.10923713 0.08438621 -0.012962233 0.028549194
0000a0 75 f2 c6 3c f7 53 17 3e 3e 85 59 3d c3 fe 29 3e
       0.024285534 0.14778124 0.053105585 0.1660109
0000b0 c6 b8 ac bc 36 ef cd 3d c1 a0 89 3d 8e 2a 74 bd
       -0.0210842 0.100553915 0.067201145 -0.059610896
0000c0 cf 5a c4 bd f8 86 d3 3d 84 40 6f bd 4e 0b 04 bc
       -0.09587633 0.103284776 -0.058411136 -0.008059336
0000d0 4e 28 ee 3c bf e6 94 bd 15 90 76 bd 28 f4 25 3d
       0.029071953 -0.07270574 -0.060196 0.04051605
0000e0 9e 64 93 3c 74 7f 08 3c a2 30 b6 3d e3 72 d7 3c
       0.017992314 0.008331168 0.08895995 0.0262999
0000f0 0f ea f9 3c db 99 cc 3c 1b 03 81 3d 59 14 02 bd
       0.030507116 0.024975708 0.062994204 -0.031757686

conv.6.weight f4 [64]
000000 b0 2c 6c 3f 14 5b 79 3f 92 53 56 3f 67 15 57 3f
       0.9225569 0.974046 0.8372127 0.8401703
000010 11 44 43 3f d5 88 5c 3f 87 9b 7e 3f 33 32 72 3f
       0.76275736 0.8614629 0.99456066 0.9460785
000020 41 75 5b 3f 99 ae 68 3f d7 b2 5f 3f ac 26 87 3f
       0.8572579 0.90891415 0.8738226 1.0558677
000030 48 35 6e 3f ce 30 69 3f 59 6c 59 3f 8e 20 72 3f
       0.9305005 0.91090095 0.8493095 0.94580925
000040 ed ae 5c 3f dd 28 78 3f 5d b6 36 3f 93 3a 4e 3f
       0.86204416 0.9693735 0.71372014 0.8055813
000050 0b c2 57 3f 7a d7 75 3f 82 ea 80 3f b9 16 82 3f
       0.8428046 0.96031916 1.0071566 1.0163184
000060 8a 03 7a 3f 6a e8 62 3f 6f 0a 6f 3f 9d c2 70 3f
       0.9766165 0.88635886 0.93375295 0.94046956
000070 78 ca 7c 3f 5b 1c 4c 3f eb 4f 4f 3f 99 b9 4e 3f
       0.9874644 0.79730767 0.8098132 0.8075195
000080 dc 9c 5f 3f 35 56 6d 3f e6 1f 64 3f b4 3d 46 3f
       0.87348723 0.92709666 0.89111173 0.774379
000090 bd c1 75 3f 74 ac 72 3f c0 23 8c 3f 01 6f 80 3f
       0.95998746 0.9479439 1.094841 1.0033876
0000a0 24 98 88 3f 4a 60 a0 3f 7e 1d 57 3f 78 a1 4f 3f
       1.067143 1.2529385 0.84029377 0.81105757
0000b0 65 a7 68 3f bc 62 66 3f b3 c7 48 3f 72 a9 5f 3f
       0.90880424 0.89994407 0.78429717 0.8736793
0000c0 7e ae 60 3f 23 4b 48 3f 9a cc 5e 3f 06 47 66 3f
       0.87766254 0.7823965 0.8703095 0.89952123
0000d0 c6 da 78 3f 47 43 71 3f 9a 80 7c 3f 85 9a 62 3f
       0.9720882 0.9424328 0.9863373 0.8851703
0000e0 c9 ad 7e 3f 80 e1 80 3f 0c 24 52 3f f0 46 3d 3f
       0.99483925 1.0068817 0.82086253 0.7393637
0000f0 6a bf 6c 3f c9 39 65 3f a3 0c 77 3f 39 20 74 3f
       0.92479575 0.895413 0.9650366 0.9536167

conv.6.bias f4 [64]
000000 ce 7a 3d be a3 5e b6 be a0 02 77 be a3 92 ef be
       -0.18503878 -0.35619077 -0.24122095 -0.46791562
000010 b4 ac 60 be 2a e9 b3 be ac 41 c4 be e8 a3 e0 be
       -0.21940881 -0.35138828 -0.38331354 -0.4387505
000020 bf bb 0a bf e5 92 98 be 0c 39 de be 76 93 e0 be
       -0.5419273 -0.29799572 -0.43402898 -0.43862504
000030 4b de 0b bf 33 23 a2 be 80 11 05 bf 6d cb 83 be
       -0.5463607 -0.3166748 -0.5197983 -0.2574114
000040 7b d8 0d bf 9c b5 c3 be 71 e3 c4 be 58 47 6f be
       -0.5540845 -0.38224494 -0.38454774 -0.23367059
000050 99 43 ad be 47 e8 9f be be b3 a5 be 65 bc 9c be
       -0.33840635 -0.312319 -0.32363695 -0.30612484
000060 55 49 ae be 9d 06 a2 be 12 42 54 be d6 cd 01 bf
       -0.34040323 -0.3164567 -0.20728329 -0.50704706
000070 17 18 9c be 61 de be be df 6b d6 be ba ff 04 bf
       -0.3048713 -0.37279037 -0.41879174 -0.5195271
000080 d3 dd 2f bf 92 8e ea be aa 83 a5 be 86 83 25 be
       -0.6869785 -0.45811898 -0.32327014 -0.16163453
000090 9d 7c 95 be 85 6c a6 be 7f 96 25 bf 65 1d 17 bf
       -0.29196635 -0.3250467 -0.64682764 -0.5902923
0000a0 69 94 5c be 74 6e f4 be c3 ae 0b bf 69 3f 0d bf
       -0.21540989 -0.4774052 -0.5456354 -0.5517488
0000b0 92 07 e7 be 59 35 bf be cb b3 ad be 8f 0b 45 bf
       -0.45122963 -0.3734539 -0.33926234 -0.7697076
0000c0 8b 53 20 bf bc c7 ab be 5e b8 b4 be 4a 91 d4 be
       -0.62627476 -0.33550823 -0.3529691 -0.41517097
0000d0 57 9e 14 be 8e d1 89 be 65 f9 ad bc 80 62 af be
       -0.14513527 -0.2691769 -0.021237085 -0.34254837
0000e0 74 5e 8e be 5b df 02 bf 14 e8 bf be 05 85 9c be
       -0.27806437 -0.51122063 -0.3748175 -0.30570236
0000f0 31 f4 85 be 6d c5 b3 be b7 16 cf be e3 d1 71 be
       -0.26162866 -0.3511156 -0.40447018 -0.23615222

conv.6.running_mean f4 [64]
000000 2c bc 60 bf 1b f7 0f bf 5a f2 1d bf dc 17 98 bf
       -0.8778713 -0.5623643 -0.61697924 -1.1882281
000010 06 5c 6e bf 54 d2 78 bf 77 8a 19 3f 82 d9 ac bf
       -0.93109167 -0.97195935 0.59976906 -1.3503878
000020 2c da c7 be 2c a6 48 be 84 8a 6c be 43 9f 9a be
       -0.3903364 -0.1959464 -0.23099715 -0.30199632
000030 f0 ea a9 bf 92 6e 90 bf 1c f0 57 bf ab 0c 19 bf
       -1.3274822 -1.1283743 -0.8435075 -0.59784955
000040 e2 2d 87 be 4e 3c bb bf 9d 2b 8a bf 05 b5 3e bf
       -0.26402193 -1.4627779 -1.079456 -0.74494964
000050 3f 73 1b bf bc 39 b0 be c5 23 52 bf 31 63 3e bf
       -0.60722727 -0.34419048 -0.8208583 -0.74370104
000060 b7 f1 83 bf c8 c0 4c bf 6d 1a 0b bf ab ef b3 bf
       -1.030814 -0.7998166 -0.543372 -1.4057516
000070 a2 c7 d5 bf 97 4b 54 be 51 ad 8f bf c8 e2 eb bf
       -1.6701548 -0.2073196 -1.1224767 -1.8428583
000080 53 94 eb bc dc c2 66 bf ca ea 33 bf b9 bc 83 3f
       -0.02875725 -0.9014108 -0.70280135 1.0291969
000090 25 a5 4a bf f2 c4 57 bf 5c 95 6c bf 5e 43 a7 bf
       -0.7915824 -0.8428489 -0.92415404 -1.3067434
0000a0 98 5b 8d bf 54 b3 57 bf 84 43 54 bf 78 2a 27 bf
       -1.1043577 -0.8425801 -0.8291552 -0.6529918
0000b0 5e 2d 4b bf 59 e1 b6 bf e8 7c f5 be 1c cd c7 3e
       -0.793661 -1.4287521 -0.47946858 0.39023674
0000c0 0f c8 ad 3e 8b 22 59 bf c6 01 5d bf 0e ea c4 bf
       0.33941695 -0.84818333 -0.8633083 -1.5383928
0000d0 0c 00 e5 bc fd d4 9c bf 39 94 c6 3f a2 05 89 bd
       -0.027954124 -1.2252499 1.5513984 -0.066905275
0000e0 99 69 90 bf e5 80 6d bf f2 4d 7f bf c9 bb a7 bf
       -1.1282226 -0.927748 -0.9972831 -1.3104182
0000f0 00 ee ca 3f e3 9f cc 3e f6 ac c2 bf 45 bb 21 bf
       1.5853882 0.39965734 -1.5209033 -0.63176376

conv.6.running_var f4 [64]
000000 4d 5c f7 3f 86 67 d3 3f 99 09 dd 3f 74 64 13 40
       1.9325043 1.6515968 1.7268554 2.3030062
000010 0c a3 90 40 24 b9 39 3f 6c 15 99 3f ba bd c2 40
       4.519903 0.7254813 1.1959662 6.08566
000020 7f a6 e6 3f 94 3e 80 3f 87 de 3c 3f 68 fe ae 3f
       1.801956 1.0019097 0.7377705 1.3671389
000030 66 ed ff 3f e1 85 8b 3f 38 34 b4 3f 06 c1 1b 40
       1.9994323 1.0900232 1.4078436 2.4336562
000040 87 f9 8d 3f c6 4f 35 40 e9 b3 7c 40 17 08 b1 3f
       1.1091775 2.832994 3.9484808 1.3830594
000050 34 a5 4b 3f 1f 43 a6 3f 8b 20 b4 3f f4 68 6c 3f
       0.79548955 1.2989234 1.4072431 0.92347646
000060 71 22 13 40 e1 ea 41 3f 06 ab 6b 40 bd 36 2f 40
       2.2989771 0.7574902 3.6823134 2.737716
000070 6c 28 a7 40 f1 de a1 3f 5a ab 67 3f 87 68 11 40
       5.2236843 1.2646161 0.90495837 2.2720048
000080 a8 73 12 3f b9 d2 28 40 7a 0c e4 3f db 2b 08 40
       0.5720773 2.6378615 1.7816308 2.1276767
000090 12 d9 0f 40 ce 4e 92 3f f2 f8 0b 40 a3 9b 27 40
       2.247624 1.1430299 2.1870694 2.6188743
0000a0 e5 e5 ad 40 51 d9 02 40 90 b8 d0 3f dd 86 c5 3f
       5.4343133 2.044514 1.6306324 1.5431782
0000b0 5c 13 00 40 67 da 18 40 e9 bf 3f 3f 5d 6c 79 3f
       2.0011816 2.3883302 0.74902207 0.97430974
0000c0 d1 cb 6b 3f 80 6d 90 3f f6 a1 a1 3f f5 6c 90 40
       0.92107874 1.1283417 1.2627552 4.5133004
0000d0 94 a3 d0 3f 7b 75 17 40 da 56 20 40 f0 33 8c 3f
       1.629992 2.3665454 2.505301 1.095335
0000e0 d1 de d4 3f 03 f9 22 40 a2 75 11 40 fe fe e2 3f
       1.6630498 2.5464485 2.2728047 1.7734067
0000f0 4f 30 fb 3f c3 2e ef 3e ff e7 b3 40 f1 ea cb 3f
       1.9624118 0.46715364 5.62207 1.5931073

conv.10.weight f4 [128, 64, 3]
000000 1b 27 ac bd a0 c5 44 bc 4c 93 4c 3d 25 02 71 bd
       -0.08405896 -0.012010008 0.04994516 -0.058839936
000010 d6 d3 81 be 3a 3a b2 3d 08 3a 37 3e d1 3e 47 3e
       -0.2535693 0.08702512 0.17893231 0.19457556
000020 6a 31 50 3e 63 44 0e be 7f b5 e6 ba 30 1f b5 bd
       0.2033135 -0.13893275 -0.0017601697 -0.08843839
000030 31 7d 8e 3c 4b 01 15 3e 91 19 b5 3d 18 f1 15 be
       0.01739368 0.14551274 0.08842767 -0.14642751
000040 59 51 d8 bd 74 45 11 bc 85 d2 35 be 7f 12 0b be
       -0.10562391 -0.008866657 -0.17756088 -0.13581274
000050 57 39 85 be fb 71 0c 3e 69 ac a5 3b 10 79 8d 3c
       -0.2602031 0.13715355 0.0050559533 0.017269641
000060 23 fd dc 3d cd fa c0 bd 7f d5 27 be 86 c9 50 3c
       0.107904695 -0.094228365 -0.16390036 0.012743359
000070 95 13 1c bc 7f 04 ff bd a6 e9 19 be 64 f5 84 be
       -0.009526153 -0.124520294 -0.15030536 -0.25968468
000080 56 6f 13 be 24 b1 0a bf 36 b3 03 bf ef e6 0c bf
       -0.1439794 -0.54176545 -0.5144533 -0.55039877
000090 73 42 21 3e 9b 76 99 3d 49 72 9b 3e d8 07 c9 bd
       0.15748005 0.07493325 0.3036063 -0.09815949
0000a0 5e 98 31 3e 13 75 94 3e 8e 6e 3c 3e 99 95 e0 bd
       0.1734328 0.2899557 0.18401548 -0.109660335
0000b0 f8 21 97 3d a0 a4 7f be 24 f2 82 3b fa ab 8d 3d
       0.07379526 -0.24965143 0.0039961506 0.069175676
0000c0 22 a0 09 3f b5 c9 6e 3e ba 02 a9 3a 16 4c cf 3d
       0.5375997 0.23319133 0.0012894489 0.10121934
0000d0 e9 e6 8c 3d 6b c3 13 3e 03 a4 7d 3d 7d 2a 89 bc
       0.0687998 0.14430015 0.061923992 -0.016743893
0000e0 44 ff 00 3e df 31 8a bd 05 8e 3e 3a c6 37 4c bd
       0.12597376 -0.067477934 0.00072690874 -0.049857877
0000f0 d9 b1 40 3d 0d fb 30 be a4 9c 7c be 55 73 ec 3d
       0.04704461 -0.17283268 -0.24669129 0.11545435
000100 71 cc b9 3d 68 79 af 3d a7 02 05 bc b5 ee 8b 3d
       0.09072197 0.08568078 -0.008118308 0.06832639
000110 43 31 a7 3e 08 18 c1 3d 60 c8 4a 3d cb e3 01 3d
       0.3265477 0.09428412 0.0495075 0.03171138
000120 ab a3 60 bd 98 5c 58 bd ca 6c bc 3c 28 16 b7 bd
       -0.054843586 -0.05282268 0.023001093 -0.08939773
000130 1d 24 64 3d ac 36 cf bd cf ce bf 3c 09 e8 d8 bc
       0.055698503 -0.1011785 0.023414044 -0.02647783
000140 2a 3e f1 3c 5e ed bb 3c 51 41 87 bd 21 c4 35 3e
       0.029448587 0.022940334 -0.06604255 0.17750598
000150 62 10 ff 3d 8e d8 fc 3d 40 a2 a9 3e 15 5d b0 bd
       0.12454297 0.12345992 0.331316 -0.08611504
000160 41 1f bd bd b6 c9 b3 be b5 e6 cf 3d 8e 19 20 3d
       -0.09234477 -0.3511483 0.10151426 0.03908687
000170 c6 52 05 3e 1d 20 50 3d fd 08 d6 3d d1 27 4c 3e
       0.13019857 0.050811876 0.10450933 0.19937064
000180 04 1b 74 be fb b6 7a be 79 6d 8c be 48 74 3e bc
       -0.2383843 -0.24483864 -0.2742727 -0.011624403
000190 a1 f2 60 bd 3a ac 4e be 2e bd 74 be 3f 8b 43 be
       -0.05491889 -0.20182887 -0.23900291 -0.19096087
0001a0 50 51 f7 bd 1b 55 d4 3d d4 ac 19 3d f7 f1 01 3e
       -0.12076056 0.10367795 0.037518337 0.12689959
0001b0 4b e6 30 3d 85 eb 1d be 60 70 0c 3e d6 85 ed bc
       0.043188374 -0.15421875 0.13714743 -0.028994482
0001c0 c1 7e 94 3c 8e bb 11 3e b1 1b f2 3d eb 87 2d 3e
       0.018126847 0.14231703 0.11821688 0.1694638
0001d0 87 a8 02 3e db a5 6e be e0 eb ab be d9 9c ac be
       0.127596 -0.23305456 -0.33578396 -0.33713415
0001e0 86 3c ab 3e 8c 15 e0 3d 56 c7 8d 3e c2 4d 87 be
       0.33444613 0.1094161 0.27691144 -0.26426512
0001f0 19 60 56 be 0c 32 44 be d8 d6 73 bd c4 63 10 bd
       -0.20935096 -0.19159716 -0.059531063 -0.035251394
000200 29 de 85 bc 22 70 b7 3d f6 9e 44 3d 95 52 87 3d
       -0.016341286 0.089569345 0.04800316 0.06607548
000210 42 4f 9e bd 66 3f 03 be 59 93 b9 3d 2a 8e 05 be
       -0.07729961 -0.12817153 0.090613075 -0.13042513
000220 8f ec 27 bd 60 6e a9 3d 2f cd 43 bd b7 33 81 bd
       -0.040997084 0.082730055 -0.0478031 -0.06308692
000230 83 9e 2a be 97 94 2f be ed b1 33 be f3 b3 ba be
       -0.1666203 -0.17146526 -0.17548342 -0.36465415
000240 c4 fe ad ba 99 bb e1 bd 02 b8 9e bd f5 e2 f7 bd
       -0.0013274779 -0.110221095 -0.077499405 -0.121038355
000250 75 32 61 be af 21 4f be 21 f0 ef bc 77 08 7b bd
       -0.21991904 -0.20227693 -0.029289307 -0.06128737
000260 b3 aa d8 3c 26 47 06 3e 04 58 c2 bc f4 5b 1f bc
       0.026448583 0.13113078 -0.02372361 -0.009726513
000270 db 08 70 3d af a3 aa bc 51 c8 16 be f1 b3 1f 3e
       0.058602195 -0.020830004 -0.14724852 0.15595986
000280 93 84 7a bc d8 70 6f 3e b7 50 89 3e da 47 32 3e
       -0.015290397 0.2338289 0.26819393 0.17410222
000290 dd 3b 83 3e 33 c2 07 be f0 42 e1 bd ff b1 8a be
       0.2563161 -0.13257675 -0.109990954 -0.27088925
0002a0 61 bd bb 3d 53 8d 40 3e 69 ff cf 3e 3f d6 2b bd
       0.091669805 0.18803911 0.4062455 -0.041952368
0002b0 8c 0c 8d 3c 99 aa 9f 3d 5a 2d 9e be 28 31 62 be
       0.017217897 0.07796211 -0.30893975 -0.22089064
0002c0 47 98 ab be b1 be 8f 3d a0 55 39 bd 1f a6 0e 3e
       -0.33514616 0.070187934 -0.045247674 0.13930558
0002d0 cb 78 be 3b ec 06 9c bc f5 7c 9e bd 3b 69 25 3e
       0.0058127395 -0.01904627 -0.077386774 0.16153423
0002e0 fc a4 f7 3d 72 1a 91 3d 72 9a 32 3e 71 d7 d4 3d
       0.12092015 0.07085122 0.17441729 0.10392655
0002f0 fe 16 6f 3e 08 f6 c6 be 17 61 6e be e0 d7 d8 be
       0.23348615 -0.38859582 -0.23279224 -0.423522
000300 4f 51 13 3e f0 30 b7 3d 14 8d 54 3e 34 bc 9f 3e
       0.14386486 0.08944881 0.20756942 0.31198275
000310 1c 88 bc 3d 67 20 cf 3e cc 93 be 3d 17 07 42 bd
       0.09205648 0.4045441 0.09305534 -0.047370043
000320 33 b8 c2 bc 16 cc 01 be f8 20 a2 bd bd fe aa bd
       -0.023769474 -0.12675509 -0.079164445 -0.08349369
000330 07 7b 13 3b 3b ef 11 3e a8 d9 22 3e bd de 99 be
       0.002250375 0.14251415 0.15903342 -0.30052748
000340 ce 34 94 be 01 55 0b be 4f ea 94 3c ea cd d4 3d
       -0.28946537 -0.13606645 0.018178133 0.103908375
000350 39 9e 02 3d 3a 71 23 3d 21 8f 93 3d de bf 6f 3d
       0.031889174 0.039902903 0.07205034 0.05853259
000360 dc 60 0f 3e 82 f2 4f 3d 53 25 54 bd bf e3 18 be
       0.14001793 0.050768383 -0.051793408 -0.14930628
000370 6d b4 81 bb a9 c9 9f be 74 26 78 3e 15 f1 5f 3e
       -0.003958276 -0.31208542 0.24233419 0.21869309
000380 0f 19 a7 3e 33 fd 8e 3d 5f ce e7 3d 41 87 06 3e
       0.32636306 0.06981888 0.11318659 0.13137533
000390 d4 d5 04 3e 45 59 83 ba bb 65 65 3e 58 42 5d be
       0.12972194 -0.0010021111 0.22402088 -0.2160734
0003a0 de 4f bc be f7 a3 81 3c 9d c9 8c 3e b1 30 ee 3d
       -0.36779684 0.015825255 0.2749757 0.11630381
0003b0 86 78 64 3c ad 0d bd 3d 84 54 2d 3e b2 a5 2f 3e
       0.013944751 0.09231124 0.16926771 0.17153051
0003c0 36 2c 91 3e 94 20 a3 3d 16 3b 95 bc 5e 29 91 3e
       0.28354043 0.07965198 -0.018216651 0.28351873
0003d0 0c 61 6b 3e 7a 66 c5 3e 6e f0 9c 3e 06 dc 47 3e
       0.22986239 0.38554746 0.30652183 0.19517526
0003e0 73 d4 04 3e 73 5a 35 bd 62 cd 87 bd 94 f1 6c 3c
       0.12971668 -0.044275712 -0.066309705 0.014461894
0003f0 49 7a c3 bd 24 e6 5e bc 28 f5 a1 be fa 2c bf bd
       -0.095448084 -0.0136046745 -0.31632352 -0.093347505

conv.10.bias f4 [128]
000000 66 e5 82 bd eb 7c 49 bd 7c b5 01 bd e8 d6 b4 bc
       -0.063914105 -0.049191397 -0.031667218 -0.022075132
000010 3f 4b 2e bd cc 1f 74 3d 5a ae 3f bd 6b d0 64 bd
       -0.04255223 0.059600636 -0.046797134 -0.055862825
000020 95 d4 7f 3d c0 b4 84 3d 4a b9 b4 bc d9 50 2c bd
       0.062458593 0.06479788 -0.022061009 -0.04206929
000030 2e f9 7c 3d d3 29 3f 3d c7 61 22 bd 51 cf 11 bd
       0.061761074 0.046670746 -0.03964403 -0.035598103
000040 a6 89 61 bd ed 43 16 3c 5a 20 85 3d 5a 0a 92 bd
       -0.055062912 0.009171468 0.06500311 -0.07130881
000050 3c 72 60 3d 33 20 7a bd 9a 35 ad bb 22 f2 13 bd
       0.054796442 -0.061065864 -0.005285931 -0.036119588
000060 dc 43 6c 3d 62 27 a8 3c 0a 1c 80 b9 8c ec 82 bd
       0.057681903 0.020526592 -0.00024434953 -0.06392774
000070 89 d0 92 bd c9 78 9c 3c 4c 15 25 bd 33 11 12 3d
       -0.07168681 0.019100564 -0.040303513 0.035660934
000080 a5 91 49 bd 0c c0 14 bd 01 9a ad 3c 59 df 5b bc
       -0.049211163 -0.036315963 0.021191599 -0.013419949
000090 18 f3 8d bd 47 2d 81 3d 12 50 a0 3d 84 a6 cf 3c
       -0.06931132 0.06307464 0.07827772 0.025347956
0000a0 db f6 a1 bb 64 98 94 bd c1 ff 27 bd 3c cb 1e 3d
       -0.0049427575 -0.07255629 -0.04101539 0.03876804
0000b0 e9 4d 1f bd 47 54 50 bb 7d 0c 43 3d 49 d7 dd 3c
       -0.03889266 -0.0031788514 0.04761933 0.027080195
0000c0 8c d8 19 3d 51 f2 0f bd f3 86 dc 3b 30 da 07 bd
       0.03756003 -0.0351432 0.0067299544 -0.033167064
0000d0 45 4a 60 bd 56 fa 8b bd ab ac 71 ba 8d 0f b2 bb
       -0.05475833 -0.06834857 -0.000921915 -0.0054339827
0000e0 2c 63 bd bb 46 e5 54 3d 86 8f 64 3d bf ce f8 3c
       -0.0057796445 0.051976465 0.055800937 0.030372022
0000f0 74 8a 0e bc ff a6 fc bc 5a a2 79 bc e2 f4 45 bd
       -0.008700002 -0.030841349 -0.015236462 -0.04832924
000100 8d 0e ed bb c2 10 17 bd 88 f5 18 3d 99 e5 44 bd
       -0.0072344006 -0.036881216 0.03734353 -0.048070524
000110 33 6d 8f 3d b3 89 44 bc e5 d3 82 bb 03 c5 3a 3d
       0.0700325 -0.011995721 -0.003992545 0.04559804
000120 5e 8a b5 3c 2c 67 76 bd 6c 6e 66 bc f9 9f a8 39
       0.022160705 -0.060156986 -0.014064413 0.00032162646
000130 db a9 8e 3d 76 cd 95 3d 03 c2 3a 3d a6 60 62 3d
       0.06965991 0.07314579 0.04559518 0.055267952
000140 3d 32 55 bd 7a 1d 17 bc fe 9b a5 3d 8a 9f b1 3b
       -0.052049864 -0.009223336 0.08086394 0.00542063
000150 f9 32 13 3d 0f b0 72 bc 19 8c 94 3b 51 df 4d 3d
       0.035937283 -0.014812483 0.0045333025 0.0502618
000160 0c 74 89 3d f7 9c 8a bb 66 40 54 3d c2 8c a0 3c
       0.06711587 -0.0042301374 0.051819228 0.019598369
000170 22 59 2c bd 88 3a 33 3d 90 23 e4 bc 9f 50 68 3d
       -0.04207719 0.04375699 -0.027848989 0.05671751
000180 62 02 94 3d 6c c1 b9 3d 3c 5e 66 bd e2 da 72 3d
       0.07227017 0.090700954 -0.056242213 0.059290774
000190 08 60 92 bd c1 8e 64 bd c9 1f b7 bc cd 6b 63 bd
       -0.07147223 -0.055800203 -0.022354024 -0.05552273
0001a0 70 82 35 bd b6 88 b7 bb ab 54 0f 3d 36 d4 3d 3d
       -0.044313848 -0.005601014 0.034992855 0.04634496
0001b0 d3 19 85 3d 8e b5 a6 3b ad e5 ac bc be 0d 88 3d
       0.06499066 0.005087561 -0.021105612 0.06643246
0001c0 02 a2 04 bd b0 4f 85 3c fa d6 b0 3d 41 60 47 3d
       -0.032381065 0.01627335 0.086347535 0.04867578
0001d0 21 97 64 bc bd 25 2b bd 2f 7c 25 bd 5e 5b d5 3c
       -0.013952048 -0.041784037 -0.040401634 0.026044544
0001e0 c0 4a 8d bd 75 4b 96 bd 7b 61 b1 bc d6 52 82 bd
       -0.06899023 -0.07338611 -0.021652928 -0.06363456
0001f0 bf 9e 66 bd 2c 72 11 3c c2 1c 60 3d f1 10 72 bc
       -0.056303736 0.008877318 0.054714926 -0.014774547

conv.11.weight f4 [128]
000000 78 86 7b 3f 5f c2 66 3f d3 e6 84 3f da a6 5c 3f
       0.9825206 0.90140337 1.0382942 0.86192095
000010 04 9c 9b 3f e3 d5 8b 3f 87 c3 97 3f d2 6b 99 3f
       1.2156987 1.0924648 1.1856545 1.1986029
000020 ad 43 7f 3f 38 7e a6 3f 1e 7a 91 3f 5e 70 aa 3f
       0.9971264 1.3007269 1.1365392 1.3315542
000030 bb 13 59 3f 9a 9b 9f 3f 82 1b 6b 3f 61 01 a0 3f
       0.8479573 1.2469361 0.9183885 1.2500421
000040 07 d9 a0 3f 00 2e 9f 3f 79 a2 87 3f c2 43 a9 3f
       1.2566231 1.2435913 1.0596458 1.3223803
000050 19 e0 89 3f bb c2 9d 3f 0f e4 88 3f 35 01 63 3f
       1.0771514 1.2325052 1.0694598 0.88673717
000060 d5 ff aa 3f 78 dc be 3f 56 c1 56 3f 39 72 85 3f
       1.3359324 1.4911032 0.8388876 1.0425483
000070 f8 e1 a9 3f 97 a5 c0 3f 6c ef c7 3f f6 31 9e 3f
       1.3272085 1.5050534 1.5619941 1.2358997
000080 b8 c9 f0 3f 40 ce 00 40 4a 3c a0 3f 12 20 9d 3f
       1.881156 2.0125885 1.2518399 1.2275412
000090 af aa bd 3f fc 6a a3 3f 11 53 d3 3f 67 c1 61 3f
       1.4817713 1.2767024 1.6509725 0.88185734
0000a0 a7 91 92 3f 89 6b a3 3f 10 fa 84 3f ce 55 88 3f
       1.14507 1.2767192 1.0388813 1.0651186
0000b0 97 6a d2 3f 9b e9 70 3f fb 77 95 3f 96 87 c7 3f
       1.6438779 0.94106454 1.167724 1.5588253
0000c0 b7 ad 9f 3f 7e ff b4 3f e3 82 5d 3f 00 ee e1 3f
       1.2474889 1.414047 0.8652784 1.7650757
0000d0 85 8d a5 3f 63 76 a0 3f a4 69 8f 3f 83 29 68 3f
       1.2933813 1.2536129 1.1204114 0.9068834
0000e0 e5 19 ac 3f b0 f2 a4 3f ec d6 be 3f 11 6b 96 3f
       1.3445402 1.2886562 1.4909339 1.1751424
0000f0 3e a8 8d 3f 3f 3b a7 3f cd c1 8a 3f 64 f9 98 3f
       1.1066968 1.3064955 1.0840393 1.1951108
000100 21 63 ac 3f 29 0e 6d 3f 4d dc 83 3f bb 6f 83 3f
       1.3467752 0.9259973 1.0301605 1.0268472
000110 24 67 b4 3f 84 6d ac 3f 26 e5 c9 3f 2b d2 bd 3f
       1.4093976 1.3470922 1.5773056 1.4829763
000120 49 6b 8c 3f a5 4f c8 3f 91 63 8a 3f d0 44 83 3f
       1.0970241 1.5649306 1.0811635 1.0255375
000130 9b e7 69 3f 2a 41 a4 3f 5c 2a 85 3f f2 ea 75 3f
       0.91369027 1.2832386 1.0403552 0.96061623
000140 57 d6 7f 3f dd 30 96 3f 64 80 66 3f 2b c5 68 3f
       0.9993643 1.1733662 0.9003966 0.90925854
000150 e5 51 9c 3f c4 9e 8d 3f 94 c2 9a 3f c2 1c e9 3f
       1.2212492 1.1064076 1.209063 1.8211901
000160 e1 61 99 3f 8d 15 54 3f 63 d3 6b 3f 59 d4 20 40
       1.1982995 0.82845384 0.92119426 2.5129607
000170 7c 03 b5 3f 9c ae 8e 3f 45 fe a4 3f 3a 22 99 3f
       1.4141688 1.1147037 1.2890097 1.196357
000180 af 02 9e 3f db f1 65 3f 23 f1 02 40 0a ac 84 3f
       1.2344569 0.8982217 2.0459678 1.0365002
000190 78 c9 66 3f 72 bf be 3f cf 00 78 3f 80 af a1 3f
       0.90151167 1.4902174 0.96876234 1.2631683
0001a0 a1 ba 6d 3f f7 fb 93 3f 1f cb 6d 3f 55 86 b3 3f
       0.928629 1.1561269 0.92888063 1.402537
0001b0 97 fe a7 3f fd 05 c6 3f 4a a9 00 40 67 d9 6a 3f
       1.312457 1.5470577 2.0103326 0.9173798
0001c0 8f 51 cf 3f 86 31 96 3f 0b e1 61 3f 0b 25 de 3f
       1.6196765 1.1733863 0.88234013 1.7355055
0001d0 42 e4 bb 3f e6 57 64 3f 9f a7 fc 3f 11 53 6b 3f
       1.4679034 0.8919662 1.9738654 0.91923624
0001e0 e7 95 c2 3f 27 0d bb 3f 12 0a a1 3f 1f da 74 3f
       1.5201997 1.4613389 1.2581198 0.95645326
0001f0 11 89 af 3f 1b 01 b6 3f 95 2d 8f 3f b3 5d b0 3f
       1.3713704 1.4219087 1.1185786 1.3778595

conv.11.bias f4 [128]
000000 23 fc 7a be d8 0e c8 be bc 0c 4c be 3d 2d 8c be
       -0.24510245 -0.39073825 -0.19926733 -0.27378264
000010 8c df 64 bc 6d d9 b9 be cf e8 3d bd 55 d4 63 3d
       -0.013969313 -0.36298695 -0.0463646 0.055622417
000020 05 89 2a be 6e 7e 06 3e c6 cf dc bc d5 15 87 be
       -0.16653831 0.13134167 -0.026954543 -0.26383844
000030 e5 53 a6 be 8a 19 86 be 49 7e 80 be a6 9f f4 3d
       -0.3248588 -0.2619136 -0.25096348 0.11944513
000040 af 78 23 3e 1d fc 92 be d3 6d 1c bb 76 c4 1f bc
       0.15964006 -0.28707972 -0.0023869171 -0.00975143
000050 2e 0e c1 be da 63 aa 3d 73 57 81 be da 9d 49 be
       -0.3770613 0.083198264 -0.2526203 -0.19689122
000060 a0 32 2e 3d 8c f2 db 3d 44 77 e1 be 44 a6 cd be
       0.04252875 0.107396215 -0.44036305 -0.40165913
000070 24 00 f6 3c ec fe 2b be d8 42 e1 bc bf e3 79 3d
       0.030029364 -0.16796464 -0.027497694 0.06100821
000080 d0 55 0e 3d bc 2b b4 3d fa fc 91 3c 20 be 81 be
       0.034749806 0.08797404 0.017820824 -0.25340366
000090 11 ea 73 3d e9 b9 0d 3e 92 44 b9 be 82 3f ac be
       0.059549395 0.1384045 -0.36185127 -0.33642203
0000a0 c5 15 b5 3d 20 31 3e bd 98 6b 08 be eb 40 36 bd
       0.08842043 -0.046433568 -0.13322294 -0.044495504
0000b0 a4 b1 fb 3d 41 29 69 be e1 00 87 bd 49 e0 9a 3d
       0.12289742 -0.22769643 -0.065919645 0.0756231
0000c0 88 67 b5 bc 21 84 71 3d 97 ea e9 be 67 7d d3 bb
       -0.022144094 0.0589639 -0.4568679 -0.006454158
0000d0 85 5b 5e ba 0c da fa 3d 5d ac 3a be d8 b2 a0 be
       -0.00084822654 0.122486204 -0.18229814 -0.31386447
0000e0 5f 34 b5 bd 2a c5 00 3e c5 59 82 3d a6 91 85 be
       -0.088478796 0.12575212 0.063647784 -0.26087683
0000f0 bc 67 61 be 9b 8c 2d be 2f d0 3c 3d e2 61 fe bd
       -0.22012228 -0.16948168 0.046096977 -0.124210134
000100 6f 98 b8 3c 84 5c 89 be b9 8d 8d be c2 f3 03 be
       0.022533624 -0.26828396 -0.27647188 -0.12885955
000110 8e 78 2c 3e 85 9f 4e be 61 9e bf be b0 ab 1f be
       0.16842863 -0.2017804 -0.3742552 -0.15592837
000120 68 f4 6a be ec ee dc bc 80 6b f1 be e2 15 b0 bd
       -0.22944796 -0.026969396 -0.47152328 -0.08597924
000130 9e 24 39 be 27 e2 18 bf dd 60 36 be 80 e1 98 be
       -0.18080375 -0.5972008 -0.17810388 -0.29859543
000140 9e 4a 69 be 39 81 ee be b1 99 74 be 10 6c 69 be
       -0.2278237 -0.46582964 -0.23886754 -0.22795129
000150 b0 95 9e be cd b6 5c be aa 08 8d 3d 61 2e 06 3e
       -0.30973577 -0.21554108 0.06886418 0.1310363
000160 fc 51 0a be 93 86 95 be ff 5f 56 be 4b e1 45 39
       -0.13507837 -0.29204234 -0.20935057 0.00018871312
000170 bd 71 7c 3c db 38 7e be 80 58 b3 bd 23 00 7c be
       0.015407977 -0.24826376 -0.087571144 -0.24609427
000180 6b 7b c2 be 34 79 34 be ec 8b 9f 3d 41 4b ed bd
       -0.37984785 -0.1762436 0.0779036 -0.11586619
000190 44 5a 86 be b5 68 05 bd 30 80 7b bd 5b ba b3 3d
       -0.26240742 -0.03257056 -0.061401546 0.08775779
0001a0 b6 9a e9 bd 6f bc bf be 1c 81 2d be c1 8b ec bd
       -0.11406462 -0.3744845 -0.16943783 -0.115500934
0001b0 4f f2 25 3d 9e 8b 8d be 40 2e fc 3d 22 bf 02 be
       0.040514287 -0.27645582 0.12313509 -0.12768224
0001c0 c1 e7 bf 3d 55 6b 38 3e 1c 43 63 be a3 04 04 3e
       0.093703754 0.18009694 -0.22193569 0.12892394
0001d0 03 cf 37 bd b7 ba 6f be db 92 87 3d dc b9 81 be
       -0.044875156 -0.2341107 0.06619807 -0.25337112
0001e0 70 9b 35 3d 43 79 1a bd 16 bb 4f be a8 54 12 be
       0.04433769 -0.0377133 -0.20286211 -0.14290106
0001f0 31 b1 53 3d 4a bf 0d 3e 99 eb 3b 3e df 60 d3 3d
       0.051682655 0.13842502 0.18351592 0.10321211

conv.11.running_mean f4 [128]
000000 18 83 38 bf 96 af 04 bf c7 e9 ee bf 91 07 7a bf
       -0.72075033 -0.5183042 -1.8665093 -0.97667795
000010 51 81 80 be 51 ef 9e bf bf 94 6c bf 02 3e 0b bf
       -0.2509866 -1.2416784 -0.9241447 -0.5439149
000020 4b 4d 88 bf 24 1f 91 3f 4c 83 be bd ed 18 9d bf
       -1.0648588 1.1337628 -0.09302387 -1.2273232
000030 78 d3 d1 bf 8f 2d a7 3f eb 03 ed bf 25 88 7f be
       -1.639266 1.3060778 -1.8516821 -0.24954279
000040 98 2e 61 bd 57 98 01 bd bf 23 7d be 8e 56 eb 3f
       -0.054976076 -0.031639423 -0.24720667 1.8385789
000050 9f f6 c1 bf 1a ca e0 3e 56 44 ad bf 28 79 05 c0
       -1.5153388 0.4390419 -1.353648 -2.0855198
000060 9b e9 50 3e e6 a9 fd 3f 8a 2f bb bf 0e 8a 00 bf
       0.20401613 1.9817474 -1.4623883 -0.50210655
000070 52 39 1f 40 b6 d5 de be 78 9a 3a 3f e9 c7 91 be
       2.4878736 -0.43522424 0.7289195 -0.28472832
000080 ba 10 71 be f7 83 5c 3e f5 62 c0 be 79 6a 2b 3f
       -0.23541537 0.21534716 -0.37575498 0.6695934
000090 d4 7b 4e be 29 a0 f0 3d e2 b8 2a 3e cc 03 3f be
       -0.20164424 0.11749298 0.1667209 -0.18653792
0000a0 42 77 bf 3f c9 92 b4 be eb 03 7f 3f e6 1d c1 bf
       1.495827 -0.35268238 0.99615353 -1.5087249
0000b0 04 5b fe 3d a7 c0 d4 be 5a 71 ea bf 80 01 b0 be
       0.124197036 -0.41553232 -1.8315842 -0.34376144
0000c0 d3 b8 a8 3d 22 e0 10 40 73 ee c4 bf dd 7d b5 bd
       0.082383774 2.26368 -1.5385269 -0.08861897
0000d0 1e e2 dc be 1b 15 7f be 4f 60 c7 bf 9f 80 39 bf
       -0.43141264 -0.24910395 -1.5576266 -0.72461885
0000e0 49 6f 5a bf e4 7c 1f 3f 35 62 b6 3f ac e9 b3 bf
       -0.8532606 0.6229994 1.424872 -1.4055686
0000f0 ac 57 a6 be 79 fc 80 3f 51 fa 95 3f ae 6c ca 3c
       -0.32488763 1.0077049 1.1717016 0.024710026
000100 64 8b 8c bd 25 8c 0a c0 24 8a e7 bf 66 fd 94 bf
       -0.06862524 -2.1648037 -1.8089032 -1.1639831
000110 27 75 23 40 e6 73 90 bf 0d 40 14 3e 18 dc c3 3e
       2.5540254 -1.1285369 0.14477558 0.38253856
000120 51 59 52 bf 8d 5e 30 3f 7b 68 80 bf b3 79 1c bf
       -0.82167536 0.68894273 -1.0031885 -0.611232
000130 d9 83 18 c0 95 2c 74 bf 5c 8d 95 be 34 e7 3a bf
       -2.3830473 -0.95380527 -0.2920941 -0.7300904
000140 cb 31 62 bf 49 c6 1b bf 7d 49 ee bf 25 18 09 c0
       -0.8835723 -0.60849434 -1.8616177 -2.1420987
000150 77 19 f4 3e f1 c8 9a 3e a4 3a 28 bd c4 d8 b3 3e
       0.47675678 0.3023143 -0.04107155 0.35126317
000160 57 13 c8 be 51 a5 ec bf c0 2d dc bf 82 3d 84 be
       -0.39077255 -1.848795 -1.7201462 -0.25828177
000170 2a 40 73 bc 72 43 45 3d 59 99 8e 3e a3 43 b7 bf
       -0.014846841 0.048160024 0.2785137 -1.4317516
000180 32 8e 84 3f ca d2 1c c0 3a ed 70 3f 37 e6 a6 3e
       1.0355895 -2.4503655 0.9411198 0.32597515
000190 c0 2e b5 bf d9 d5 91 3f 6c 89 46 3e 73 5f 2d be
       -1.4154892 1.1393386 0.1938836 -0.16930942
0001a0 d7 7e 38 c0 28 88 43 bf e0 5d e5 bf e5 ef 46 3f
       -2.8827417 -0.7637963 -1.7919273 0.777098
0001b0 28 6d e2 3f f4 74 9a bd 8b d8 65 3e f8 0b 22 c0
       1.7689562 -0.07541838 0.22445886 -2.5319805
0001c0 0b 43 c3 3d 78 33 9a 3f 61 86 2d c0 01 d8 e5 3f
       0.09534272 1.2046957 -2.7113268 1.7956544
0001d0 6c ea 78 3f 74 53 1f c0 df 0f 85 3e 1f 78 cf bf
       0.972327 -2.4894686 0.2598867 -1.6208533
0001e0 4c 4b 3b 3f 69 96 21 3e 4e c6 68 bf 78 54 2a c0
       0.7316177 0.15780033 -0.9092759 -2.6614056
0001f0 94 a3 f2 3e 7a 37 ff bd cc 6c d9 3e db 33 46 3f
       0.47390425 -0.12461753 0.42465818 0.77422875
