output/energy_cnn_20260221_230745/checkpoints/epoch_10.pt (torch, 767268 bytes, 23 tensors)

conv.0.weight f4 [64, 15, 7]
0	0x3db5314e	0.08847295
1	0x3cb87d39	0.022520648
2	0x3cba3a80	0.022732973
3	0x3cbd02ce	0.023072626
4	0x3ceae1d3	0.028672135
5	0x3bc10a30	0.005891107
6	0xbce17df3	-0.027525878
7	0x3da105e1	0.078624494
8	0xbcec3e2f	-0.028838245
9	0xbd990179	-0.07470984
10	0xbd6b7b8b	-0.057490867
11	0xbd9bf8a6	-0.07615785
12	0xbd556dff	-0.052106854
13	0x3d91bb34	0.07115784
14	0xbc8feda4	-0.01756937
15	0x3d7d9605	0.061910648
16	0xbc6067fc	-0.013696667
17	0x3d3ce6b2	0.046118446
18	0xbd6fad31	-0.058514778
19	0x3ccfa179	0.02534555
20	0x3d571b2a	0.05251614
21	0xbdc25057	-0.0948798
22	0xbdd710c1	-0.105012424
23	0xbd960252	-0.07324661
24	0x3d4a06c5	0.049322862
25	0x3d0e0302	0.034670837
26	0x3d4fcf0d	0.05073457
27	0xbd88e1dd	-0.06683705
28	0x3d739d95	0.059476454
29	0xbc83929f	-0.016061125
30	0xbda2456f	-0.079234
31	0x3ceffd19	0.029295491
32	0xbb2b6700	-0.0026153922
33	0x3cf6b8b2	0.030117366
34	0x3994cb0f	0.0002838005
35	0x3c7b0da0	0.015323073
36	0x3dafa724	0.085768014
37	0xbd5eb192	-0.054368563
38	0xbd9afff3	-0.0756835
39	0x3d003306	0.03129866
40	0x3c0f620a	0.008751402
41	0xbd526557	-0.051366176
42	0x3c1fba83	0.009749058
43	0x3cdcea01	0.02696705
44	0x3ce1c4b1	0.02755961
45	0xbbbfb2a2	-0.005850152
46	0x3d94f75e	0.07273744
47	0xbd62a126	-0.055329464
48	0x3c90df79	0.017684685
49	0xbdb5095e	-0.08839677
50	0xbd31bc52	-0.043392487
51	0xbd600444	-0.054691568
52	0x3db0633f	0.0861268
53	0xbd6e2925	-0.058144707
54	0xbd80090a	-0.06251724
55	0xbc38d822	-0.011281999
56	0xbdc5b085	-0.09652809
57	0xbe28b6c4	-0.1647597
58	0xbdbe1f59	-0.09283323
59	0xbd647c8b	-0.055782836
60	0xbe18cad1	-0.14921118
61	0xbdbd8895	-0.092545666
62	0xbe3acf71	-0.18243195
63	0x3d018a07	0.031625774
64	0x3dacc76f	0.084364764
65	0xbc9045b5	-0.017611364
66	0xbcdc82c3	-0.02691782
67	0xbdbfd09e	-0.093659624
68	0xbc69f8c1	-0.014280499
69	0x3d8472c8	0.06467205
70	0xbd4b7e3e	-0.04968094
71	0xbd60d724	-0.054892674
72	0x3bd1bd1c	0.0064007174
73	0x3db15438	0.086586416
74	0x3d960969	0.073260136
75	0xbd9fb90b	-0.07798966
76	0xbd02b6da	-0.031912662
77	0x3d94363f	0.07236909
78	0x3cbeb357	0.023278875
79	0xbd80c35f	-0.06287264
80	0x3b545778	0.0032400768
81	0x3c942e42	0.018088464
82	0x3dbcae07	0.092128806
83	0xbd0e8518	-0.034794897
84	0xbbf42648	-0.0074508525
85	0xbd9a922b	-0.075474106
86	0xbcda9e45	-0.026686797
87	0xbcdf7ad3	-0.027280247
88	0xbc74cece	-0.014941884
89	0x3c9b27ab	0.018939814
90	0x3d35f3d5	0.04442199
91	0x3c7f78be	0.015592752
92	0x3dab003c	0.08349654
93	0xbd77bc94	-0.060482576
94	0xbd3cdcea	-0.046109118
95	0xbd8bd983	-0.068285964
96	0x3be48d39	0.006974843
97	0xbd826f1b	-0.06368848
98	0x3c7412b2	0.014897035
99	0xbb75a204	-0.0037480602
100	0xbcc8a883	-0.024494415
101	0xba77905f	-0.0009443815
102	0xbc6b15cd	-0.014348459
103	0xbd9cbfac	-0.07653746
104	0x3cee5ecf	0.029097943
105	0x3d27f132	0.041001506
106	0x3d91c4ec	0.07117638
107	0x3dd2b952	0.10289253
108	0xbd82c8dc	-0.06385967
109	0x3cd82dde	0.026389059
110	0x3d1e1a00	0.038599014
111	0xbda36c31	-0.0797962
112	0xbd98617c	-0.07440469
113	0x3bdb4d88	0.006692592
114	0x3d747429	0.05968109
115	0x3dbc756f	0.09202086
116	0xbc77e4fc	-0.015130278
117	0x3d0abe71	0.033873025
118	0x3da01399	0.07816238
119	0xbcf93b81	-0.030423881
120	0xbc48b562	-0.012250276
121	0x3d6260fd	0.055268276
122	0x3bc468a0	0.0059939176
123	0xbce910a6	-0.028450321
124	0xbd85e0fc	-0.06537053
125	0x3dd98a78	0.10622114
126	0x3c6b4987	0.014360792
127	0xbdcdff72	-0.10058488
128	0xbdbd6505	-0.092477836
129	0x3cf1f260	0.029534519
130	0xbd6165d3	-0.055028748
131	0x3c165278	0.0091749355
132	0xbc3c644e	-0.011498524
133	0xbbabda7e	-0.005244552
134	0xbd3ce7b9	-0.046119425
135	0x3dd069df	0.10176443
136	0xbd0c5873	-0.03426404
137	0xbd681ad5	-0.056666214
138	0xbd98a1af	-0.07452714
139	0xbc0fb80e	-0.008771909
140	0x3a890394	0.0010453337
141	0xbb95311c	-0.0045529734
142	0x3cc1e39b	0.023668101
143	0x3d82b2e2	0.063817754
144	0xbc875306	-0.01651908
145	0xbd84818d	-0.06470022
146	0x3c93561f	0.017985402
147	0xbd7a322d	-0.061083008
148	0xbd0f6516	-0.035008512
149	0xbb8dd0a1	-0.004327849
150	0xbca0f569	-0.01964827
151	0xbcc6acdf	-0.024252353
152	0xbdb227cb	-0.08698996
153	0xbc186a67	-0.009302712
154	0x3c9262b4	0.017869331
155	0xbbfd2ea1	-0.007726506
156	0x3daa7163	0.08322408
157	0xbdab4385	-0.08362488
158	0xbd398248	-0.04529026
159	0x3d6960bc	0.05697702
160	0x3d96500c	0.073394865
161	0x3d0bb670	0.034109533
162	0xbd82cb30	-0.06386411
163	0xbe1adbbc	-0.15122885
164	0xbd983b19	-0.07433147
165	0xbdf6b6fd	-0.12046621
166	0xbda3ee7c	-0.08004472
167	0xbd86f3c3	-0.065894626
168	0xbdc36d42	-0.09542324
169	0xbdfa5c20	-0.12224603
170	0xbd6c0215	-0.057619173
171	0xbd8c203b	-0.06842085
172	0x3c6dbca9	0.014510312
173	0xbc32bdb2	-0.010909485
174	0xbd93b7c7	-0.07212787
175	0xbcebde73	-0.028792595
176	0x3b9c1586	0.004763308
177	0x3d5e62df	0.05429351
178	0x3837da17	4.3833712e-05
179	0xbd92aa1d	-0.07161353
180	0xbc91d043	-0.017799502
181	0x3d81a09d	0.06329463
182	0xbc08d558	-0.008351646
183	0xbd65b03f	-0.056076284
184	0xbd18799b	-0.037225347
185	0xbd548880	-0.05188799
186	0x3c247f90	0.010040179
187	0xbda25296	-0.07925908
188	0xbd18a120	-0.037263036
189	0x3cc39cb5	0.023878435
190	0x3ce4a0b1	0.027908655
191	0xbcbc6436	-0.022997003
192	0xbd9d6bb0	-0.076865554
193	0x3d2fdfec	0.042938158
194	0xbd5242fe	-0.05133342
195	0x3c6e56b5	0.01454704
196	0xbd830746	-0.06397872
197	0x3db4d598	0.08829802
198	0xbd219fba	-0.039458968
199	0xbd8e62c7	-0.06952434
200	0xbce015cf	-0.02735415
201	0x3c6300e8	0.013855197
202	0xbd67e711	-0.056616846
203	0x3db38a4b	0.08766612
204	0xbdac65d8	-0.08417863
205	0x3cded2b2	0.027200077
206	0x3d0fb5b0	0.03508538
207	0x3dc6494d	0.0968195
208	0xbd262c3b	-0.040569525
209	0x3d609a60	0.054834723
210	0xbd07ec50	-0.03318435
211	0x3d1a7524	0.03770937
212	0x3d9d1ba9	0.076712914
213	0x3da1794c	0.07884464
214	0xbd9ceb4f	-0.07662069
215	0x3cd1311f	0.025536118
216	0xbdb47b36	-0.08812563
217	0xbc241cae	-0.010016603
218	0x3cabe115	0.02098135
219	0xbd61dbd1	-0.055141274
220	0xbd9d6275	-0.07684795
221	0xbd9619c2	-0.07329132
222	0xbd55865d	-0.052130092
223	0x3d6a4fa8	0.057204872
224	0x3d8e6290	0.06952393
225	0xbda94237	-0.082645826
226	0xbdb444c6	-0.0880218
227	0x3db9e433	0.09076729
228	0xbd6a57ac	-0.057212517
229	0x3d6ae1f3	0.05734439
230	0x3c22b0ee	0.009929879
231	0xbdef681a	-0.11689778
232	0xbdd301cc	-0.10303077
233	0x3d468981	0.048470978
234	0xbce2bfc1	-0.027679326
235	0x3d6763cf	0.05649167
236	0x3c61cb14	0.013781328
237	0xbd087433	-0.03331394
238	0x3d9300b0	0.071778655
239	0x3be934f8	0.00711691
240	0xbd57eb5e	-0.052714698
241	0xbd290d0c	-0.041272208
242	0x3d940470	0.07227409
243	0xbdb0ba00	-0.08629227
244	0xbd71731f	-0.05894768
245	0x3dc3f52f	0.095682494
246	0xbd9edd27	-0.07757025
247	0x3dcda859	0.100418754
248	0xbd5df927	-0.05419269
249	0xbd9c859f	-0.07642674
250	0xbd757529	-0.059926186
251	0x3d47bf4e	0.048766427
252	0x3d97e93e	0.07417534
253	0x3d547cfe	0.051877014
254	0xbd8f739b	-0.07004472
255	0xbd06a702	-0.032874115

conv.0.bias f4 [64]
0	0x3daef30d	0.08542452
1	0x3d63f65d	0.055654872
2	0x3ca6fbeb	0.020383796
3	0x3d20f3ba	0.039294936
4	0x3d54ce43	0.05195452
5	0x3da33da7	0.079707436
6	0x3d02b319	0.031909082
7	0xbc16fc11	-0.009215371
8	0xbd3f6584	-0.046727672
9	0xbdb5782f	-0.08860814
10	0xbdb6261c	-0.088939875
11	0x3c14fbce	0.009093238
12	0x3d7f5041	0.062332395
13	0xbdc64a9a	-0.09682198
14	0xbdad008c	-0.0844737
15	0xbd6917a9	-0.05690733
16	0xbd23b790	-0.03996998
17	0xbdbbf721	-0.091779955
18	0xbdb9cbef	-0.090721
19	0x3ccb975e	0.024852451
20	0xbd140d83	-0.0361457
21	0x3d86df58	0.06585568
22	0x3bf48ac8	0.007462833
23	0xbd6825b9	-0.0566766
24	0x3da09725	0.078413285
25	0x3d846130	0.064638495
26	0x3da259be	0.07927273
27	0xbdbe94d1	-0.09305728
28	0x3c62b340	0.013836682
29	0xbd69de18	-0.05709657
30	0xbd86de44	-0.065853626
31	0x3d916bf4	0.071006685
32	0x3db6fe61	0.08935238
33	0x3cf4bd2e	0.029875364
34	0xbd8b1148	-0.067904055
35	0xbd93805c	-0.07202217
36	0xbc90ae45	-0.017661223
37	0x3c5e9a59	0.013586604
38	0x3d1dd0f0	0.038529336
39	0x3d2dfbc3	0.042476427
40	0xbc4253e1	-0.011860819
41	0xbd58034c	-0.05273752
42	0xbc44b832	-0.012006806
43	0x3c9233fd	0.017847056
44	0xbcf2e765	-0.029651353
45	0xbce7d1c5	-0.028298268
46	0x3d4938db	0.049126487
47	0x3db33a46	0.08751349
48	0x3d2ccff8	0.042190522
49	0x3ce05daa	0.027388413
50	0xbbad1765	-0.00528233
51	0xbcad4c5c	-0.021154575
52	0x3d6fa1de	0.058503978
53	0xbc4520db	-0.012031759
54	0x3dc9894f	0.09840643
55	0xbd832e56	-0.06405322
56	0x3a2fae3a	0.0006701682
57	0x3d61c894	0.055122927
58	0xbbb685f9	-0.00557017
59	0xbd86ed7c	-0.06588265
60	0x3d8d91f3	0.06912603
61	0x3d6c8deb	0.05775253
62	0xbc92f0d8	-0.017937109
63	0xbc031fa7	-0.008003152

conv.1.weight f4 [64]
0	0x3f801cc6	1.0008781
1	0x3f70a722	0.94005024
2	0x3f7ef8b2	0.9959823
3	0x3f7f1c47	0.9965252
4	0x3f80f78d	1.0075547
5	0x3f7f524f	0.9973497
6	0x3f79346e	0.97345626
7	0x3f70078c	0.93761516
8	0x3f7f6fb1	0.997798
9	0x3f8843f2	1.0645735
10	0x3f8414af	1.0318812
11	0x3f8b787d	1.0896145
12	0x3f7e1537	0.9925112
13	0x3f72fc53	0.94916266
14	0x3f79c30e	0.97563255
15	0x3f845fd8	1.0341749
16	0x3f7e2d99	0.99288327
17	0x3f8084a6	1.0040481
18	0x3f8a9110	1.082552
19	0x3f8602a5	1.0469557
20	0x3f81bcf3	1.0135788
21	0x3f808aa3	1.0042309
22	0x3f91586a	1.1355107
23	0x3f882529	1.063634
24	0x3f866464	1.0499387
25	0x3f7d340f	0.9890756
26	0x3f7e92fa	0.9944302
27	0x3f7cfbc0	0.9882164
28	0x3f6cd13a	0.92506754
29	0x3f801948	1.0007715
30	0x3f77d03a	0.96802104
31	0x3f831b33	1.0242676
32	0x3f74584e	0.9544724
33	0x3f78e337	0.972217
34	0x3f799067	0.97485965
35	0x3f694a23	0.9112875
36	0x3f80311f	1.001499
37	0x3f6a721f	0.91580385
38	0x3f81e081	1.0146638
39	0x3f802a73	1.0012954
40	0x3f76cbd9	0.96404797
41	0x3f812445	1.0089194
42	0x3f7daaa7	0.9908852
43	0x3f7694b2	0.9632064
44	0x3f8c16a0	1.0944405
45	0x3f744f07	0.95433086
46	0x3f74c2e1	0.9560986
47	0x3f78eeb5	0.9723924
48	0x3f8513bc	1.0396647
49	0x3f788899	0.9708343
50	0x3f699059	0.9123588
51	0x3f7b68c5	0.9820674
52	0x3f6e676b	0.93126553
53	0x3f791085	0.9729083
54	0x3f832212	1.0244772
55	0x3f7e67f6	0.9937738
56	0x3f8ab44b	1.0836271
57	0x3f780a76	0.9689096
58	0x3f932048	1.1494226
59	0x3f8013be	1.0006025
60	0x3f79d71f	0.97593874
61	0x3f7a19d9	0.9769569
62	0x3f839473	1.0279678
63	0x3f7adb39	0.9799076

conv.1.bias f4 [64]
0	0xbca6cb7c	-0.0203607
1	0xbd62c3c3	-0.055362474
2	0xbd26b957	-0.040704098
3	0xbcefaaac	-0.029256187
4	0xbcd924a9	-0.026506739
5	0xbcee187b	-0.029064408
6	0xbd51ef8d	-0.051253844
7	0xbd43d283	-0.04780818
8	0xbc992b8b	-0.01869752
9	0xbc190407	-0.009339339
10	0xbce8e6ee	-0.028430428
11	0x3c3440d0	0.011001781
12	0xbd19d078	-0.037552327
13	0xbcd3d141	-0.025856616
14	0xbcdf937d	-0.027292008
15	0xbd0ca8ef	-0.034340795
16	0xbd58eaa1	-0.052958135
17	0xbd14b7e6	-0.03630819
18	0x3c400276	0.011719337
19	0xbd65e85b	-0.056129795
20	0xbd237ccf	-0.03991395
21	0xbd65cc19	-0.056102846
22	0x3d2da8a8	0.04239717
23	0xbcc6bcc2	-0.024259929
24	0xbd00f34c	-0.031482026
25	0xbd08e329	-0.03341976
26	0xbc849e86	-0.016188871
27	0xbc333358	-0.010937534
28	0xbcfae109	-0.030624883
29	0xbd197170	-0.037461698
30	0xbd5968e9	-0.053078566
31	0xbd927848	-0.07151848
32	0xbd13d6c6	-0.036093496
33	0xbd477d3c	-0.048703417
34	0xbd27f15c	-0.041001663
35	0xbdbc580f	-0.09196483
36	0xbc563305	-0.013073687
37	0xbd906dc5	-0.07052187
38	0xbceb66b6	-0.0287355
39	0xbd082e95	-0.03324755
40	0xbcf20b67	-0.029546453
41	0xbd00689e	-0.03134977
42	0xbc413524	-0.011792455
43	0xbd5b4205	-0.053529758
44	0x3b034bc3	0.0020034171
45	0xbd1e6d2e	-0.03867834
46	0xbcc4b074	-0.02400992
47	0xbd773bed	-0.060359884
48	0x3bfe2f55	0.0077571073
49	0xbcecab02	-0.028890137
50	0xbd3cc034	-0.046081737
51	0xbd507d46	-0.05090072
52	0xbd8a4c25	-0.06752805
53	0xbc827343	-0.015924102
54	0xbd2c061b	-0.04199801
55	0xbcac5f6f	-0.0210416
56	0xbc294dee	-0.010333521
57	0xbd76181d	-0.06008159
58	0x3d33705c	0.043808326
59	0xbc831068	-0.015999034
60	0xbcdba21c	-0.026810698
61	0xbd7a0971	-0.06104416
62	0x3bd424ac	0.006474098
63	0xbd349ed8	-0.044096798

conv.1.running_mean f4 [64]
0	0x3dc209bc	0.09474513
1	0x3d6de8fd	0.058083523
2	0x3caac43b	0.020845523
3	0x3d1339eb	0.035943907
4	0x3d567fc0	0.052367926
5	0x3da32af9	0.07967181
6	0x3d051081	0.032486442
7	0xbc764caf	-0.015032931
8	0xbd20f41d	-0.039295305
9	0xbdb4224a	-0.087956026
10	0xbdaa3af9	-0.083120294
11	0x3c357b22	0.01107672
12	0x3d6efb6c	0.058345243
13	0xbdc1c48b	-0.09461316
14	0xbda79068	-0.0818184
15	0xbd679487	-0.05653813
16	0xbd1af974	-0.037835553
17	0xbdbea914	-0.09309593
18	0xbdb31acf	-0.08745348
19	0x3ce9ddc1	0.028548123
20	0xbd058f7f	-0.03260755
21	0x3d9117a5	0.07084588
22	0x3c44d59d	0.01201382
23	0xbd61f88c	-0.055168673
24	0x3da4853f	0.08033227
25	0x3d77f180	0.060533047
26	0x3da64f40	0.081205845
27	0xbdbe33fc	-0.09287259
28	0x3c5c16ad	0.013433141
29	0xbd5a89d8	-0.053354114
30	0xbd82d9f8	-0.063892305
31	0x3d96b2bd	0.0735831
32	0x3db6d70f	0.08927738
33	0x3d01cafb	0.031687718
34	0xbd8418b0	-0.06450021
35	0xbd8bf214	-0.06833282
36	0xbc92f0de	-0.01793712
37	0x3c43a476	0.011941066
38	0x3d0d5d12	0.034512587
39	0x3d2d659b	0.042333227
40	0xbc4d86ae	-0.012544317
41	0xbd6a8166	-0.05725231
42	0xbbca5308	-0.006174449
43	0x3c930eef	0.017951457
44	0xbcff3fab	-0.031158289
45	0xbd065ec5	-0.032805223
46	0x3d3abf6d	0.045592714
47	0x3db35b62	0.08757664
48	0x3d411213	0.047136378
49	0x3d00543e	0.03133034
50	0xbc095997	-0.008383176
51	0xbcb217cb	-0.021739861
52	0x3d673f6d	0.056456972
53	0xbc03bdf8	-0.008040898
54	0x3dcf1db9	0.10113091
55	0xbd83172f	-0.06400906
56	0x3b8433bb	0.004034487
57	0x3d78382b	0.06060044
58	0xb9c5064f	-0.00037579468
59	0xbd81711f	-0.06320404
60	0x3d8438ce	0.06456147
61	0x3d7f1dd6	0.062284313
62	0xbc8788ae	-0.016544666
63	0xbbbcb104	-0.0057584066

conv.1.running_var f4 [64]
0	0x3f4bdf45	0.7963756
1	0x3f8fadfa	1.1224968
2	0x3e8b2958	0.2717998
3	0x3f027563	0.5096037
4	0x3f52e3d8	0.8237891
5	0x3f1378fd	0.5760649
6	0x3f8cf8ff	1.1013488
7	0x3ed3ef4a	0.413935
8	0x3f995337	1.197852
9	0x3f118c9f	0.56855196
10	0x3f6d3c21	0.92669874
11	0x3f431722	0.7620717
12	0x3f2f0256	0.6836294
13	0x3f561f79	0.83641773
14	0x3eaa89e7	0.33308336
15	0x3f20cfe2	0.62817204
16	0x3e947437	0.28994915
17	0x3e99057c	0.29886997
18	0x3fa57b18	1.292819
19	0x3eb7f96c	0.3593248
20	0x3ed22f90	0.41051912
21	0x3f217fa8	0.6308541
22	0x3f87290e	1.0559404
23	0x3f060316	0.5234846
24	0x3f5206ee	0.82041824
25	0x3f1d4e2d	0.6144741
26	0x3f4533d1	0.7703219
27	0x3f0e67dd	0.5562723
28	0x3eac87fc	0.33697498
29	0x3eb02d78	0.3440969
30	0x3f0e01e6	0.55471647
31	0x3eeff7c4	0.46868718
32	0x3f597e55	0.8495839
33	0x3f592c0f	0.84832853
34	0x3f1eb22f	0.61990637
35	0x3f6be89a	0.92151797
36	0x3f57a5de	0.8423747
37	0x3f8e96d0	1.1139774
38	0x3f0794af	0.5296125
39	0x3ef5be9f	0.47996995
40	0x3ed0be6c	0.4077028
41	0x3f173a3c	0.59073234
42	0x3f2714bd	0.6526602
43	0x3f3ac72f	0.7296018
44	0x3f5841ff	0.844757
45	0x3f1a165e	0.6019038
46	0x3f84ffed	1.0390602
47	0x3f1fd18a	0.62429106
48	0x3f28f13b	0.6599309
49	0x3f9de7df	1.2336386
50	0x3f11d51a	0.5696579
51	0x3ef3f9b6	0.47651452
52	0x3ef6aedb	0.4818028
53	0x3f177ae6	0.59171903
54	0x3e53a359	0.20667781
55	0x3ed422da	0.4143284
56	0x3fa36852	1.2766211
57	0x3effa872	0.499332
58	0x3f54992c	0.8304622
59	0x3f0a56c6	0.54038656
60	0x3f2049d0	0.6261263
61	0x3eb60f15	0.35558382
62	0x3f7a75c1	0.9783593
63	0x3f810930	1.0080929

conv.5.weight f4 [128, 64, 5]
0	0x3baa1086	0.005189958
1	0x3c88be4c	0.016692303
2	0xbb5474bf	-0.003241822
3	0xbd1752a8	-0.03694406
4	0x3cfd04e5	0.030886123
5	0xbd452eb8	-0.048140258
6	0xbcd5cdd5	-0.026099125
7	0x3c10c93f	0.008837043
8	0xbc3adb9f	-0.011404901
9	0xbca8ce63	-0.020606225
10	0xbc6f3909	-0.014601001
11	0xbbe69ccd	-0.007037735
12	0xbc38018f	-0.01123084
13	0x3bd5eb8a	0.0065283226
14	0x3cecc482	0.028902296
15	0x3c5e3819	0.013563179
16	0xbd62bd06	-0.055356048
17	0xbc3a8e15	-0.011386414
18	0x3d0f9f16	0.035063826
19	0x3d25e333	0.040499877
20	0xbc9282af	-0.01788458
21	0x3cb1d021	0.021705689
22	0xbd3ddb1e	-0.046351545
23	0xbd67abb1	-0.056560222
24	0xbc808828	-0.015689924
25	0xbcded25f	-0.027199922
26	0xbd4be20c	-0.049776122
27	0xbcb50a18	-0.02209954
28	0xbd4ad79c	-0.049522027
29	0x3cd8423d	0.026398772
30	0xbcabf9a5	-0.020993063
31	0xbc998099	-0.018738078
32	0xbd3f503c	-0.046707377
33	0xbb6922b6	-0.0035573668
34	0x3c7c2515	0.0153897
35	0xbcd33b7e	-0.025785204
36	0xbd2cea42	-0.042215593
37	0xbd0d897f	-0.034554955
38	0xbc50f1c8	-0.012752958
39	0xbcf7c30e	-0.030244377
40	0xbcc29064	-0.023750491
41	0x3d1b79e4	0.03795804
42	0xbca9302a	-0.02065285
43	0x388d2b7e	6.731505e-05
44	0xbd35a21d	-0.044344056
45	0x3cbc0183	0.02294994
46	0xbb44825c	-0.0029984927
47	0xbd67b1ff	-0.056566235
48	0xbd780b81	-0.060557846
49	0xbd5ea3fd	-0.05435561
50	0xbbcea8db	-0.0063067502
51	0x3c587ae9	0.013212898
52	0xbca8d7f8	-0.020610794
53	0x3be31fb8	0.0069312714
54	0x3c0789ae	0.0082725715
55	0x3d3ce32c	0.046115085
56	0x3ce55b21	0.027997555
57	0x3ceb83ba	0.028749336
58	0x3d15ef0c	0.036604926
59	0xbcabc3d5	-0.020967403
60	0x3cc43244	0.02394975
61	0x3cf1c862	0.029514495
62	0xbc43b014	-0.011943836
63	0xbd25d1ac	-0.04048316
64	0xbc5ce1cc	-0.013481569
65	0x3d15c2be	0.036562674
66	0x3ca7aa32	0.020466898
67	0x3d5b5787	0.05355027
68	0xbd5b671c	-0.05356513
69	0xbd397a6f	-0.045282777
70	0xbd392af7	-0.04520699
71	0xbd85571d	-0.06510756
72	0x3bdde0f6	0.006771202
73	0xbc5440b3	-0.012954879
74	0xbd561b18	-0.052271932
75	0x3cdffc7e	0.027342077
76	0x3c5d974c	0.0135248415
77	0x3d27c4bb	0.0409591
78	0xbcd94949	-0.026524203
79	0xbd3f305e	-0.046676986
80	0xbc725fe6	-0.014793372
81	0x3d5f52b2	0.054522224
82	0x3b8966d1	0.004193165
83	0xbca9dfda	-0.020736624
84	0x3c2ca8c2	0.010538282
85	0xbd5c3eac	-0.053770706
86	0xbca94f49	-0.020667689
87	0xbda4f2e8	-0.08054143
88	0x3c247ed1	0.010040001
89	0xbd4cdfd8	-0.05001816
90	0xbcb91242	-0.022591714
91	0xbc98891b	-0.018620064
92	0x3ca3b94c	0.019985817
93	0xbd131653	-0.035909962
94	0xbd6b785a	-0.057487823
95	0xbd7cab1e	-0.061686628
96	0xbd37bc5c	-0.044857368
97	0xbd11949b	-0.03554211
98	0x3d1d83f6	0.038455926
99	0x3c96298a	0.018330354
100	0x3cce53ae	0.025186386
101	0x3c75d6ca	0.015004823
102	0x3cc1475d	0.023593599
103	0x3d44394a	0.047906198
104	0xbcb0baa6	-0.021573376
105	0x3c94b99e	0.018154915
106	0xb95cf98c	-0.00021073798
107	0xbc35abae	-0.011088295
108	0xbd78c1ae	-0.060731582
109	0x3ccac48c	0.024751924
110	0x3c77462f	0.015092417
111	0x3cd1a0e3	0.025589412
112	0x3d0a0e5d	0.033705104
113	0xbd72171d	-0.059104074
114	0x3a77a63a	0.0009447072
115	0xbd12db16	-0.035853468
116	0xbd66c087	-0.056335952
117	0xbc8bb4e8	-0.017054036
118	0xbbb028b9	-0.0053759483
119	0xbd34b1d3	-0.0441149
120	0xbc8e3760	-0.01736039
121	0x3b6d58f8	0.003621636
122	0x3d2464d9	0.04013524
123	0xbd4ec8ba	-0.050484397
124	0x3d036525	0.03207888
125	0x3d34c157	0.044129696
126	0xbd437041	-0.047714476
127	0x3ca62eee	0.02028605
128	0x3c9b3411	0.018945726
129	0x3d08e362	0.033419974
130	0xbd5d7064	-0.054062262
131	0xbd1c8918	-0.03821668
132	0xbd763a55	-0.060114224
133	0xbd0a774e	-0.033805184
134	0xbd3794ad	-0.044819523
135	0x3d9bee78	0.07613844
136	0x3d2ebba5	0.04265942
137	0x3cbde0b4	0.023178436
138	0x3d3298fd	0.043602932
139	0xbd6856c9	-0.05672339
140	0xbb62e417	-0.0034620815
141	0xbbe80c61	-0.007081554
142	0xbd23f796	-0.04003104
143	0xbcf4f0a7	-0.029899908
144	0xbb067290	-0.0020515062
145	0x3d5c06af	0.05371731
146	0x3c07e6a7	0.008294738
147	0x3cae4be7	0.021276427
148	0xbd8b6368	-0.068060696
149	0xbd916de3	-0.07101037
150	0x3d52849c	0.051395997
151	0xbafee970	-0.0019448232
152	0x3d160b9b	0.03663216
153	0x3b6f69c0	0.0036531538
154	0xbd22abff	-0.03971481
155	0x3c11f028	0.008907355
156	0xbcbb5e84	-0.022872217
157	0x3caac6a3	0.02084667
158	0xbd1e244d	-0.038608838
159	0xbcc8eac7	-0.024526013
160	0xbd7e6a99	-0.06211338
161	0xbbbf60e9	-0.00584041
162	0x3c0cc529	0.0085919285
163	0xbc3a54e0	-0.011372775
164	0xbd22a926	-0.039712094
165	0x3c5e1537	0.013554863
166	0x3ced6839	0.028980361
167	0xbd26d717	-0.04073247
168	0x3a0ae6c0	0.00052986667
169	0xbcda4906	-0.026646148
170	0x3b0210b8	0.001984639
171	0xbcecd263	-0.028908914
172	0x3d3f124d	0.046648312
173	0xbc5f70b7	-0.013637713
174	0x3d3a6d82	0.04551459
175	0x3d2ccb24	0.042185917
176	0x3cd15e79	0.025557743
177	0xbd51580f	-0.05110937
178	0x3c09fc4b	0.008421968
179	0xbafbe9b1	-0.0019219426
180	0xbc0491fe	-0.008091448
181	0x3b37c4ce	0.0028040889
182	0x3b6b91a3	0.003594496
183	0xbd880445	-0.06641439
184	0xbd43121d	-0.047624696
185	0xbce3afbd	-0.02779376
186	0x3cff2783	0.03114677
187	0x3cdc854e	0.026919033
188	0x3d3abfb4	0.04559298
189	0x3c8c338e	0.017114427
190	0x3cb4fc0a	0.022092838
191	0xba4a8af9	-0.0007726397
192	0x3c304b0f	0.010760083
193	0x3aa5329b	0.0012603583
194	0xbcbfd5db	-0.023417404
195	0xbb6414a7	-0.0034802349
196	0x3c8db07b	0.017296067
197	0x3d27db66	0.04098072
198	0x3cfb316e	0.030663218
199	0x3d019bda	0.031642772
200	0xbd819fd9	-0.06329317
201	0xbcdb63e5	-0.026781032
202	0x3cedf283	0.029046303
203	0xbb2e2a25	-0.0026575413
204	0x3c265d84	0.010154132
205	0xbc94ab4c	-0.018148087
206	0xbd3d7f30	-0.046263874
207	0x3c33505f	0.010944455
208	0xbd480643	-0.048834097
209	0x3cfec4d2	0.03109971
210	0x3cf43c61	0.029813947
211	0xbd641a7d	-0.055689324
212	0xbd0b8313	-0.03406055
213	0xbc8971ff	-0.01677799
214	0xbd7dd717	-0.061972704
215	0xbd139858	-0.03603396
216	0xbd10716c	-0.035264418
217	0x3d63dd4b	0.055630963
218	0x3d10edf9	0.0353832
219	0xbd83fe01	-0.06444932
220	0xbc090924	-0.008363996
221	0x3d4dab7f	0.05021238
222	0xbb7889bb	-0.003792389
223	0xbb9257ca	-0.0044660317
224	0xbd4c3b0e	-0.049861006
225	0xbb40a4e6	-0.0029395162
226	0xbd61faac	-0.0551707
227	0xb6f0eaae	-7.1798777e-06
228	0xbc19a6db	-0.00937816
229	0xbcc55d29	-0.024092274
230	0xbd268779	-0.04065654
231	0xbc9e5a4a	-0.019330163
232	0x3cbe60db	0.023239544
233	0xbce8b35b	-0.028405836
234	0x3b8c002c	0.0042724814
235	0xbd40f6b5	-0.04711028
236	0xbd11e15d	-0.035615314
237	0x3b7da2bf	0.003870174
238	0xbd76672e	-0.060156994
239	0x3d03e52f	0.03220099
240	0xbb8824c4	-0.0041547734
241	0x3d292c08	0.041301757
242	0xbab45bba	-0.0013760247
243	0x3d2bd0d9	0.04194722
244	0xbd5283dd	-0.051395286
245	0xbc1630b4	-0.009166885
246	0xbcf4c1d8	-0.029877588
247	0x3d2e20a9	0.042511616
248	0x3be3194b	0.0069305054
249	0xbcc8acf4	-0.024496533
250	0xbc5933ce	-0.01325698
251	0xbc83c546	-0.016085278
252	0x3ccd58d0	0.025066763
253	0x3d0b1e27	0.033964302
254	0xbcef6991	-0.029225143
255	0x3c97aedf	0.018516002

conv.5.bias f4 [128]
0	0xbc450bc7	-0.012026734
1	0x3c268147	0.010162658
2	0xbcd4b585	-0.025965462
3	0xbd0c0e78	-0.034193486
4	0x39d23cc9	0.0004009961
5	0xbd35b0ce	-0.044358067
6	0xbca8ec68	-0.02062054
7	0xbcbb80d9	-0.022888588
8	0x3c704105	0.014663939
9	0xbd389ead	-0.0450732
10	0x3cf459cf	0.02982798
11	0x3c61d5ce	0.013783885
12	0xbc963d94	-0.01833991
13	0x3c8e88b1	0.017399164
14	0x3d4d5416	0.05012902
15	0x3cb227ee	0.021747556
16	0xbd143c65	-0.03619041
17	0x3ce9f030	0.028556913
18	0xbd1f7009	-0.038925204
19	0xbd2b2892	-0.041786738
20	0xbc40c58a	-0.011765847
21	0x3cb77a76	0.022397261
22	0xbd01fbf2	-0.031734414
23	0xbd564bce	-0.052318387
24	0x3d00b071	0.031418268
25	0xbd5c24d4	-0.05374606
26	0x3ba9a2ba	0.005176869
27	0x39c947d3	0.0003839122
28	0x3cacec84	0.021108873
29	0x3d0a10dd	0.03370749
30	0xb987057e	-0.00025753299
31	0xbcaefbcf	-0.021360306
32	0x3cf3a610	0.02974227
33	0x3d1838a8	0.037163407
34	0xbc82d03c	-0.015968435
35	0xbc0d94dd	-0.008641449
36	0x3d521712	0.051291533
37	0xbc9fbe77	-0.0195
38	0x3d43f28b	0.04783873
39	0xbd1e7ea3	-0.03869499
40	0x3d2579ec	0.040399477
41	0x3d2347fe	0.03986358
42	0x3cf65663	0.03007049
43	0xbcafd286	-0.02146269
44	0xbc4df4e7	-0.012570596
45	0x3d547747	0.051871564
46	0x3bbfa970	0.005849056
47	0x3d27a4cc	0.040928647
48	0xbd03dc08	-0.03219226
49	0x3ced6db5	0.028982976
50	0xbc8429f4	-0.016133286
51	0xbd37d57d	-0.044881333
52	0xbd2dfd9f	-0.0424782
53	0xbbf59c2c	-0.007495424
54	0x3bd16519	0.0063902256
55	0xbc9e1148	-0.01929535
56	0xbd419f9c	-0.047271356
57	0xbcf39f88	-0.029739156
58	0xbd617371	-0.055041734
59	0x3b81e41e	0.0039639613
60	0x3d1e9531	0.0387165
61	0x3d4b70f3	0.049668264
62	0x3d1521ba	0.036409117
63	0xbcd83414	-0.02639202
64	0x3d58bc07	0.05291369
65	0xbcc23ab7	-0.023709638
66	0x3cb15dd4	0.021651186
67	0xbd2ded8b	-0.042462867
68	0x3d1dfcc0	0.03857112
69	0xbbdc5ba1	-0.00672479
70	0x3cda3e84	0.026641138
71	0xbcfed7c4	-0.031108744
72	0xbce130eb	-0.027489146
73	0xbd5caa11	-0.053873125
74	0xbc5444f4	-0.012955893
75	0xbc84c080	-0.016205072
76	0xbd203c70	-0.039120138
77	0xbbf39c34	-0.0074343923
78	0xbd1b1ac6	-0.03786733
79	0xbd5f21af	-0.054475483
80	0xbd2cf4ac	-0.042225525
81	0xbc90cf55	-0.017676989
82	0x3b427de9	0.00296771
83	0xbc93d242	-0.018044595
84	0xbd1d0b08	-0.0383406
85	0x3d41bea3	0.047300946
86	0xbc1fe67f	-0.009759544
87	0x3d388fd9	0.04505906
88	0x3d583909	0.052788768
89	0xbd45e05b	-0.048309665
90	0xbd57ea3e	-0.052713625
91	0xbd2dd251	-0.0424369
92	0xbd309fa1	-0.043120984
93	0xbd333a8c	-0.043757007
94	0x3d412975	0.047158677
95	0x3d3d858c	0.04626994
96	0xbc9d7d6d	-0.019224847
97	0xbc87ae1c	-0.016562514
98	0x3c8790d2	0.016548548
99	0xbcca957f	-0.024729488
100	0x3d135800	0.035972595
101	0xbd4c4ca1	-0.049877767
102	0x3d115e56	0.035490356
103	0xbbe10962	-0.0068675736
104	0xbc8573f2	-0.016290639
105	0x3c5dd6f2	0.0135400165
106	0x3c1c42b5	0.009537389
107	0x3caf1b73	0.021375393
108	0x3c7a6a60	0.015284151
109	0x3ca56888	0.020191446
110	0xbcd6b321	-0.026208462
111	0x3c930fb6	0.017951827
112	0xbc45f298	-0.012081765
113	0x3c1bee51	0.009517268
114	0x3c92bacc	0.017911337
115	0x3c94ab92	0.018148217
116	0xbd098b73	-0.033580255
117	0xbc702adc	-0.014658656
118	0x3ca4672b	0.020068726
119	0x3c757eef	0.014983877
120	0x3d375484	0.044758335
121	0x3b08a61b	0.002085096
122	0x3c6642eb	0.01405404
123	0x3d16db7d	0.036830414
124	0x3c0241f6	0.007950297
125	0x3ac8a122	0.001530681
126	0xbc045be6	-0.008078551
127	0x3ce08582	0.027407411

conv.6.weight f4 [128]
0	0x3f74736a	0.9548861
1	0x3f7c9e00	0.9867859
2	0x3f85a820	1.0441933
3	0x3f7f9ae7	0.9984574
4	0x3f76ba64	0.9637816
5	0x3f7d2e4c	0.9889877
6	0x3f898054	1.0742288
7	0x3f7acf72	0.97972786
8	0x3f81c2de	1.0137594
9	0x3f80f484	1.007462
10	0x3f78a5fb	0.97128266
11	0x3f81eecc	1.0151
12	0x3f8017e4	1.0007291
13	0x3f748650	0.95517445
14	0x3f8e819c	1.1133304
15	0x3f7c099b	0.98452157
16	0x3f843592	1.0328848
17	0x3f7b5071	0.9816962
18	0x3f78dea2	0.9721471
19	0x3f776f88	0.9665456
20	0x3f84d3d6	1.0377147
21	0x3f7de41f	0.9917621
22	0x3f7a1e02	0.9770204
23	0x3f795908	0.97401476
24	0x3f7ae83c	0.9801061
25	0x3f72d836	0.9486116
26	0x3f80af47	1.005349
27	0x3f7dc30f	0.9912576
28	0x3f76ac71	0.96356875
29	0x3f7ea8ec	0.99476504
30	0x3f79dd07	0.97602886
31	0x3f7afa42	0.98038113
32	0x3f828240	1.0195999
33	0x3f7ec758	0.99522924
34	0x3f7cf5a2	0.98812306
35	0x3f800c1d	1.0003697
36	0x3f7ad527	0.97981495
37	0x3f8219d0	1.0164127
38	0x3f7abde2	0.9794599
39	0x3f81d5b7	1.0143346
40	0x3f869e11	1.0516988
41	0x3f835ba4	1.0262341
42	0x3f7aa9ab	0.9791514
43	0x3f8c9da9	1.0985614
44	0x3f7b2c0a	0.98114073
45	0x3f8064b4	1.0030732
46	0x3f844d2f	1.0336055
47	0x3f80228d	1.0010544
48	0x3f87c5dc	1.0607257
49	0x3f79147e	0.97296894
50	0x3f8d6ade	1.1048238
51	0x3f780d4d	0.96895295
52	0x3f7fae07	0.9987492
53	0x3f7d0b01	0.98844916
54	0x3f800bae	1.0003564
55	0x3f7ef4c0	0.9959221
56	0x3f75b15a	0.9597374
57	0x3f7fcd93	0.99923056
58	0x3f87d4cc	1.0611815
59	0x3f7a11a8	0.9768319
60	0x3f80ef2d	1.0072991
61	0x3f7cbbe6	0.9872421
62	0x3f6f3265	0.9343627
63	0x3f80f66d	1.0075203
64	0x3f85742a	1.0426075
65	0x3f7ab9c0	0.9793968
66	0x3f8155c6	1.0104301
67	0x3f854b8f	1.0413684
68	0x3f7c2c44	0.98505044
69	0x3f83af6b	1.0287908
70	0x3f85b1eb	1.0444921
71	0x3f82b080	1.0210114
72	0x3f86f29c	1.0542789
73	0x3f7824c9	0.9693113
74	0x3f80d97f	1.0066375
75	0x3f79012d	0.9726742
76	0x3f8b79f7	1.0896596
77	0x3f8a6d8a	1.0814679
78	0x3f7bd6f9	0.983749
79	0x3f805f17	1.0029019
80	0x3f87f3be	1.0621259
81	0x3f7562b6	0.95853746
82	0x3f8462ad	1.0342613
83	0x3f77b171	0.9675513
84	0x3f81dbe4	1.014523
85	0x3f8c4b8a	1.0960553
86	0x3f7d126a	0.9885622
87	0x3f7c64a1	0.9859105
88	0x3f7973b6	0.97442186
89	0x3f7c37fc	0.98522925
90	0x3f79efbc	0.9763143
91	0x3f87b86d	1.0603157
92	0x3f85370d	1.0407425
93	0x3f8791a1	1.0591317
94	0x3f7dd13c	0.9914739
95	0x3f82ff4b	1.0234159
96	0x3f827cb7	1.019431
97	0x3f86fec1	1.0546495
98	0x3f7cad7b	0.9870221
99	0x3f7adb75	0.97991115
100	0x3f80581f	1.0026892
101	0x3f8120a6	1.0088089
102	0x3f833862	1.0251582
103	0x3f7fa4be	0.9986075
104	0x3f7abaef	0.9794149
105	0x3f80b61f	1.0055579
106	0x3f810dba	1.0082314
107	0x3f7a5f07	0.9780125
108	0x3f7580bf	0.95899576
109	0x3f80ac1d	1.0052525
110	0x3f82adc9	1.0209285
111	0x3f8207da	1.0158646
112	0x3f7adb1b	0.9799058
113	0x3f7eef80	0.995842
114	0x3f778bcf	0.96697706
115	0x3f7f088b	0.9962241
116	0x3f7d94c8	0.9905515
117	0x3f84b211	1.0366842
118	0x3f7c7552	0.98616517
119	0x3f7473eb	0.95489377
120	0x3f831734	1.0241456
121	0x3f7ad1ce	0.97976387
122	0x3f807a68	1.0037355
123	0x3f883d7d	1.0643765
124	0x3f7fa6d9	0.99863964
125	0x3f7a4365	0.97759086
126	0x3f751dda	0.95748675
127	0x3f7c4dcf	0.98556226

conv.6.bias f4 [128]
0	0xbd4d3c79	-0.0501065
1	0xbd8604cc	-0.06543884
2	0xbd8877bb	-0.06663462
3	0xbd153790	-0.03642994
4	0xbd5deb3e	-0.054179423
5	0xbdb7fe90	-0.08984101
6	0xbd735b21	-0.05941308
7	0xbd90cf56	-0.07070796
8	0xbcdb76c4	-0.02679003
9	0xbd56f88d	-0.05248313
10	0xbd8d7fd1	-0.06909145
11	0xbc879aaa	-0.016553242
12	0xbc42a671	-0.011880503
13	0xbd2f9d48	-0.042874604
14	0xbd3d89c8	-0.046273977
15	0xbd6e016b	-0.05810682
16	0xbd28abc7	-0.041179445
17	0xbd0829e6	-0.033243082
18	0xbd591ffc	-0.05300902
19	0xbd925a06	-0.07146077
20	0xbd4fe684	-0.050756946
21	0xbd9f0c14	-0.077659756
22	0xbd15a684	-0.036535755
23	0xbd550db7	-0.052015033
24	0xbd98ad91	-0.0745498
25	0xbd85b76f	-0.06529128
26	0xbd75116b	-0.059831064
27	0xbd30f83d	-0.04320549
28	0xbd2ed259	-0.042681072
29	0xbd10bef6	-0.035338365
30	0xbcb12941	-0.021626117
31	0xbd0ebbb7	-0.034846988
32	0xbcd02443	-0.025407916
33	0xbda4f5d2	-0.08054699
34	0xbd182de6	-0.037153147
35	0xbcae3303	-0.021264559
36	0xbd4d2000	-0.050079346
37	0x3c3e1f2d	0.011604113
38	0xbd92afd0	-0.0716244
39	0xbd26ba62	-0.040705092
40	0xbd0c0915	-0.03418835
41	0xbca3677e	-0.01994681
42	0xbd356e6a	-0.044294752
43	0xbd52ad5d	-0.051434863
44	0xbd46db2c	-0.048548862
45	0xbd330bd4	-0.043712452
46	0xbd273bf3	-0.040828656
47	0xbcc4b36d	-0.024011338
48	0xbd834663	-0.064099096
49	0xbd228fba	-0.03968785
50	0xbcbea244	-0.023270734
51	0xbd378abc	-0.04481004
52	0xbcc1dd16	-0.023664992
53	0xbd3370e7	-0.043808844
54	0xbd16d791	-0.036826674
55	0xbd819e37	-0.06329005
56	0xbd4cc7d5	-0.049995262
57	0xbd401838	-0.046898097
58	0xbd77d77d	-0.06050824
59	0xbd82ffd5	-0.06396452
60	0xbdd7560a	-0.105144575
61	0xbd04d418	-0.03242883
62	0xbdc6ff5b	-0.09716674
63	0xbd9b98e1	-0.07597519
64	0xbc96a42a	-0.018388826
65	0xbd2dc19d	-0.042420972
66	0xbd4f205b	-0.050567966
67	0xbdabf3ba	-0.083960965
68	0xbcc892df	-0.024484096
69	0xbd059543	-0.03261305
70	0xbd78247c	-0.06058167
71	0xbbe97501	-0.0071245437
72	0xbd09a2db	-0.033602577
73	0xbd2163d0	-0.03940183
74	0xbd182a68	-0.037149817
75	0xbd7ba9c7	-0.06144121
76	0xbd1e8a9f	-0.038706418
77	0xbdd5c6ad	-0.10438285
78	0xbd860247	-0.06543403
79	0xbd00c10c	-0.031434104
80	0xbd48480f	-0.048896845
81	0xbd9d6a32	-0.07686271
82	0xbd3af44e	-0.045643143
83	0xbd27a5dd	-0.040929664
84	0xbdaf093b	-0.085466824
85	0xbd933550	-0.07187903
86	0xbd58bba5	-0.052913327
87	0xbd22bd18	-0.039731115
88	0xbd26f026	-0.040756367
89	0xbd5f89ad	-0.054574657
90	0xbda532a0	-0.080662966
91	0xbd41e075	-0.0473332
92	0xbd11ff4c	-0.03564386
93	0xbd2cccf5	-0.04218765
94	0xbdaa361d	-0.083111025
95	0xbd1d5715	-0.038413126
96	0xbc030552	-0.007996874
97	0xbd573770	-0.052543104
98	0xbd117e73	-0.035520982
99	0xbd228f0c	-0.0396872
100	0xbc2c8e41	-0.010531963
101	0xbc3784c8	-0.011201091
102	0xbd96b911	-0.07359517
103	0xbd08f275	-0.03343435
104	0xbd873bf7	-0.06603234
105	0xbc9e24f4	-0.01930473
106	0xbd06ddca	-0.03292636
107	0xbd75af6d	-0.059981752
108	0xbd0376b2	-0.03209562
109	0xbd6e05c9	-0.058110986
110	0xbd41fe0f	-0.04736143
111	0xbd4c68a2	-0.049904473
112	0xbce64d36	-0.028112989
113	0xbcfcb5de	-0.03084844
114	0xbd65ff27	-0.056151535
115	0xbd98315c	-0.074312896
116	0xbcb98f12	-0.022651229
117	0xbca23331	-0.0197998
118	0xbd296884	-0.04135944
119	0xbd344855	-0.044014294
120	0xbcdde64b	-0.027087351
121	0xbd7c5d6d	-0.061612535
122	0xbd6a040c	-0.057132766
123	0xbcebaa53	-0.02876774
124	0xbd7a496e	-0.061105184
125	0xbda92845	-0.08259634
126	0xbda4c76d	-0.0804585
127	0xbd989b7b	-0.074515305

conv.6.running_mean f4 [128]
0	0xbf083f1a	-0.53221285
1	0xbdab5c3b	-0.08367201
2	0x3e5ec4da	0.2175478
3	0xbe04a302	-0.12952808
4	0xbf508dbc	-0.8146627
5	0x3e6be8ce	0.23038027
6	0x3ede5693	0.43425426
7	0xbe4e2c61	-0.20134117
8	0xbee6d253	-0.4508234
9	0xbea9fc8f	-0.332005
10	0xbef3dcd2	-0.4762941
11	0xbf2f71bd	-0.68532926
12	0xbf587737	-0.8455691
13	0xbf4e1a6b	-0.8050906
14	0x3e7a559d	0.24446721
15	0xbee8de31	-0.4548202
16	0x3f8b0203	1.0859989
17	0x3ed50b21	0.41610053
18	0xbf14f6f3	-0.58189315
19	0xbea14b5c	-0.31502807
20	0x3f147fef	0.5800771
21	0xbebba0d8	-0.36646152
22	0xbe25bca2	-0.16185239
23	0xbeb3bd63	-0.35105428
24	0xbf228d83	-0.6349718
25	0xbe813378	-0.2523458
26	0xbe906645	-0.28203025
27	0x3f6d0177	0.9258036
28	0xbf5c46c5	-0.86045486
29	0xbf371812	-0.71521103
30	0x3e580b09	0.2109796
31	0x3e907222	0.28212076
32	0xbf21ca91	-0.63199717
33	0xbd83bb9f	-0.0643227
34	0xbee31a47	-0.44355986
35	0xbe8255cb	-0.2545608
36	0xbf5c3303	-0.8601534
37	0xbf4f330e	-0.8093728
38	0xbebb16ba	-0.36540776
39	0xbe820169	-0.253917
40	0xbea2ba5d	-0.3178281
41	0xbf0577f6	-0.5213617
42	0x3f50a1bf	0.81496805
43	0xbefbd85b	-0.49188504
44	0xbe657c46	-0.22410688
45	0xbeaa704e	-0.33288807
46	0x3f806d81	1.0033418
47	0x3e36a177	0.17835031
48	0xbd7fb789	-0.062430892
49	0xbf037426	-0.51349103
50	0x3ea8b657	0.32951614
51	0xbe864d3d	-0.26230803
52	0xbf190b95	-0.597833
53	0xbdd62421	-0.1045611
54	0xbea97289	-0.33095196
55	0xbba02ba7	-0.0048880163
56	0xbf2b4193	-0.66896933
57	0xbf41b5ac	-0.75667834
58	0xbfa17d4b	-1.2616361
59	0xbf099be6	-0.5375351
60	0x3ea87f0b	0.32909426
61	0xbe142a02	-0.1446915
62	0xbed2ef4c	-0.41198194
63	0x3e62b507	0.22139369
64	0x3e8f1fe0	0.27954006
65	0xbef98442	-0.48733717
66	0xbeaf5d9e	-0.34251112
67	0x3c6a1fc5	0.014289801
68	0xbf0f9c19	-0.5609756
69	0x3d52cf2b	0.051467102
70	0x3e09523d	0.13410278
71	0x3ed336a6	0.4125263
72	0xbf8c8fd2	-1.098139
73	0xbf191293	-0.59793967
74	0xbf0d5106	-0.55201757
75	0xbf34c69d	-0.7061556
76	0xbf8a1822	-1.0788615
77	0x3f114b49	0.567555
78	0xbebac48c	-0.36478078
79	0x3d130ecc	0.035902783
80	0x3f9bb0e9	1.2163364
81	0xbe9a97dc	-0.30193985
82	0xbf42f29d	-0.7615145
83	0xbe868523	-0.2627345
84	0x3f13059a	0.5743042
85	0xbf16707b	-0.5876538
86	0xbf1ed088	-0.62036943
87	0xbd04fe02	-0.032468803
88	0xbe8f6c47	-0.28012297
89	0xbec2aba9	-0.3802159
90	0xbf0a696a	-0.540671
91	0xbf598dc0	-0.8498192
92	0xbf3c13c8	-0.73467684
93	0xbe9b2643	-0.3030263
94	0x3dd5dfbc	0.104430646
95	0x3e517b08	0.20457089
96	0xbf2cf419	-0.67559963
97	0xbf600a23	-0.8751547
98	0x3f06b2a3	0.5261633
99	0xbdcd40c3	-0.10022118
100	0xbf520d03	-0.82051104
101	0xbf2e700b	-0.68139714
102	0xbda13204	-0.07870868
103	0xbd320f9f	-0.04347193
104	0xbee7e3d5	-0.4529101
105	0xbf50f899	-0.8162933
106	0x3f8ef573	1.1168655
107	0xbeaecc1a	-0.34140092
108	0xbf048e86	-0.51779974
109	0xbf64b401	-0.89337164
110	0x3f06d80b	0.52673405
111	0x3fa0df3f	1.2568129
112	0xbf7acf2e	-0.9797238
113	0xbf2691ea	-0.650664
114	0xbf321534	-0.69563603
115	0xbecf1adf	-0.4045019
116	0xbf2c363b	-0.6727025
117	0x3ee4bf6b	0.4467729
118	0xbceb18b3	-0.028698301
119	0xbeb898fa	-0.36054212
120	0x3ec52615	0.38505617
121	0xbf7280ea	-0.9472796
122	0xbefd91dc	-0.49525344
123	0xbe5e5d5d	-0.21715303
124	0x3e4067e1	0.18789627
125	0xbf08d4b7	-0.5344958
126	0xbef507f3	-0.47857627
127	0xbdae46c0	-0.08509588

conv.6.running_var f4 [128]
0	0x3eb6e9ff	0.357254
1	0x3f00a834	0.5025666
2	0x3f1695ec	0.5882251
3	0x3f0050fa	0.5012356
4	0x3e8d2a87	0.27571508
5	0x3f1a2682	0.6021501
6	0x3f02cef3	0.5109703
7	0x3f12f33b	0.5740239
8	0x3e95f681	0.2928963
9	0x3f40a822	0.7525655
10	0x3eeae62d	0.45878735
11	0x3ebd93a2	0.37026697
12	0x3f829865	1.0202757
13	0x3f006dda	0.5016762
14	0x3ecbdac8	0.39815354
15	0x3f294319	0.6611801
16	0x3f387020	0.7204609
17	0x3f95861e	1.1681554
18	0x3f095167	0.53639835
19	0x3e8f39a3	0.2797366
20	0x3f016fa4	0.50560975
21	0x3ed0778d	0.4071621
22	0x3f2356cb	0.6380431
23	0x3f2b7d7d	0.66988355
24	0x3e685a0f	0.22690605
25	0x3e95ffde	0.29296774
26	0x3ed7dcbb	0.4216059
27	0x3ef50581	0.47855762
28	0x3f1ab652	0.6043445
29	0x3ef7faeb	0.48433623
30	0x3f1ebc13	0.6200573
31	0x3eda2454	0.4260584
32	0x3f7054d5	0.93879443
33	0x3f0b3161	0.5437222
34	0x3ec60b81	0.38680652
35	0x3edc482a	0.43023807
36	0x3f3c353e	0.7351874
37	0x3f887e97	1.0663632
38	0x3e82234b	0.2541755
39	0x3f575eeb	0.8412921
40	0x3eb9da8c	0.3629955
41	0x3e333d47	0.17503844
42	0x3ec0681e	0.37579435
43	0x3f0f52e9	0.55985886
44	0x3ed692ba	0.41908818
45	0x3ea0dcbf	0.31418416
46	0x3f3a3519	0.7273727
47	0x3ea60044	0.32422078
48	0x3ea71a92	0.3263746
49	0x3f3161d1	0.6928988
50	0x3ec03230	0.3753829
51	0x3ece26ec	0.4026407
52	0x3ef74def	0.48301646
53	0x3f265d8d	0.649865
54	0x3e8127d3	0.25225696
55	0x3f0749bd	0.5284689
56	0x3f13111c	0.5744798
57	0x3f08a2c4	0.5337336
58	0x3f612dda	0.8796059
59	0x3ee200bf	0.44141194
60	0x3ef24f49	0.47326115
61	0x3f04e5db	0.5191323
62	0x3f23c22b	0.6396815
63	0x3ee854b2	0.45377117
64	0x3f14f2b7	0.58182853
65	0x3f255951	0.6458941
66	0x3fbc4b26	1.4710433
67	0x3ef5aced	0.47983494
68	0x3f32ddaf	0.6986951
69	0x3ee31b96	0.44356984
70	0x3f3fde2d	0.7494839
71	0x3ed7b9d3	0.4213396
72	0x3f530b6c	0.82439303
73	0x3ebecc8e	0.37265438
74	0x3e8af011	0.2713628
75	0x3f12ddb1	0.57369524
76	0x3fa1b21e	1.2632482
77	0x3ef20255	0.47267404
78	0x3e1e57ba	0.15463153
79	0x3f4e15f6	0.8050226
80	0x3f6fccfd	0.9367216
81	0x3e980b2a	0.29696018
82	0x3f38af8f	0.7214288
83	0x3f3a1985	0.7269519
84	0x3e5ce126	0.21570262
85	0x3f335193	0.7004635
86	0x3e8336b5	0.25627676
87	0x3f2c66b2	0.673442
88	0x3e8496f1	0.2589641
89	0x3f09d7ab	0.5384471
90	0x3eb80aeb	0.3594583
91	0x3fb011b5	1.3755404
92	0x3f40aef8	0.7526698
93	0x3f120cd3	0.5705082
94	0x3f071d94	0.5277951
95	0x3f250da7	0.64473957
96	0x3f597e8f	0.8495874
97	0x3f51ad84	0.8190539
98	0x3f556d3a	0.8336979
99	0x3f77b77e	0.9676436
100	0x3ecd3d95	0.40086046
101	0x3f1b33e2	0.6062604
102	0x3f02b544	0.5105784
103	0x3e4d7260	0.20063162
104	0x3e39d28d	0.18146725
105	0x3f2307d4	0.6368382
106	0x3ef9eb66	0.48812407
107	0x3ebd6a73	0.36995277
108	0x3f4d1430	0.8010893
109	0x3f0758ab	0.5286967
110	0x3f1e5a1f	0.61856264
111	0x3f3fa0f7	0.7485499
112	0x3f1e0d95	0.61739475
113	0x3ef2d769	0.4742997
114	0x3f820648	1.0158167
115	0x3e314551	0.17311598
116	0x3f475ea1	0.7787877
117	0x3ecccec2	0.40001494
118	0x3ef4956e	0.47770256
119	0x3f3a0cab	0.7267558
120	0x3f13ef15	0.57786685
121	0x3faddec1	1.3583604
122	0x3e9db02d	0.30798474
123	0x3edfc376	0.43703812
124	0x3ee98f2a	0.45617038
125	0x3f0e9807	0.55700725
126	0x3e8cfa88	0.2753489
127	0x3edb8559	0.42875174

conv.10.weight f4 [256, 128, 3]
0	0xbcbbc328	-0.022920206
1	0xba9161a0	-0.0011091717
2	0xbd35d3e1	-0.044391517
3	0x3c931496	0.017954152
4	0x3d628431	0.05530185
5	0x3cfc1d91	0.030775817
6	0x3a996939	0.0011704332
7	0xbbc1b2fd	-0.0059112296
8	0xbc90b4cc	-0.017664336
9	0xbd16e026	-0.03683486
10	0xbd19f6b5	-0.037588794
11	0xbcaad05d	-0.020851308
12	0xbc2f3405	-0.010693555
13	0xbd0304fe	-0.031987183
14	0xbc0e82a1	-0.008698137
15	0xbd13c64e	-0.03607779
16	0xbbf307be	-0.0074166944
17	0xbbf005b3	-0.007324898
18	0xbd469f85	-0.048491973
19	0xbd0671d2	-0.03282339
20	0xbcf6f8d6	-0.030147951
21	0xbcd001a9	-0.025391417
22	0xbbe3fb3f	-0.006957441
23	0xbc466187	-0.012108213
24	0xbc6330ce	-0.013866616
25	0x3cc097cc	0.023509882
26	0xba44effe	-0.0007512568
27	0xbc891763	-0.016734784
28	0x3d70f132	0.05882377
29	0x3cf226a7	0.029559446
30	0x3c87de60	0.016585529
31	0xbca00145	-0.019531855
32	0x3c653f78	0.013992183
33	0x3c5ed366	0.013600206
34	0x3bb479f1	0.0055077006
35	0xbc980e45	-0.018561492
36	0x3d220649	0.039556775
37	0xbccbbb0a	-0.02486946
38	0xbc559ef1	-0.013038383
39	0x3c238505	0.009980445
40	0x38925472	6.977552e-05
41	0x3c87953e	0.016550656
42	0xbd6468f4	-0.055764154
43	0xbd9a9310	-0.07547581
44	0xbd6aacc2	-0.05729366
45	0x3c41a9b0	0.011820242
46	0x3c960b35	0.01831589
47	0x3c8694ca	0.01642837
48	0xbcef239a	-0.02919178
49	0xbd2e9915	-0.04262646
50	0xbcc6bbd5	-0.024259487
51	0x3b6b7045	0.0035925072
52	0x3c991a2b	0.018689236
53	0x3cf0764c	0.029353283
54	0x3d2bc912	0.041939802
55	0x3cc52e13	0.024069821
56	0x3cf938e2	0.030422632
57	0xbcecb903	-0.028896814
58	0xbc0daa6b	-0.008646588
59	0x3b9e93e8	0.004839409
60	0xbd4a4bcd	-0.049388696
61	0xbc2399c2	-0.009985389
62	0xbcf7abae	-0.03023323
63	0x3c642cac	0.013926666
64	0xbd07d7b5	-0.0331647
65	0xbd0e9e80	-0.034819126
66	0xbbb528f1	-0.0055285622
67	0x3d0019f7	0.031274762
68	0xbc95ea03	-0.018300062
69	0x3d4cd94c	0.050011918
70	0x3c7df2af	0.015499755
71	0x3c2162f1	0.00985025
72	0xbd060cd2	-0.03272707
73	0x3ced9235	0.029000381
74	0xbbe7931b	-0.007067097
75	0x3b9b3d1b	0.004737509
76	0xbd64f5aa	-0.055898346
77	0xbb6a04d8	-0.0035708454
78	0x3d2f6a72	0.042826124
79	0xbd1927bc	-0.03739141
80	0x3bc9fb6c	0.006164005
81	0x3d11fa05	0.035638828
82	0xbb39b5b3	-0.002833706
83	0xbc878f9e	-0.016547974
84	0x3ca604ab	0.020265898
85	0xbc4da387	-0.012551195
86	0x3d52e7fc	0.05149077
87	0xbd21474e	-0.039374642
88	0x3caa7a3f	0.020810245
89	0x3d2eefe5	0.04270925
90	0xbcb079c6	-0.021542441
91	0x3d70b754	0.058768585
92	0xbd16a6d2	-0.036780186
93	0xbcb912c3	-0.022591954
94	0x3ce01813	0.02735523
95	0x3b8598d8	0.0040770583
96	0xbbe9f22d	-0.0071394653
97	0xbd12d945	-0.035851736
98	0xbcf74ec7	-0.030188931
99	0x3c5e62a5	0.013573323
100	0x3c095322	0.008381637
101	0x3d124b5f	0.03571641
102	0x3b748405	0.0037310135
103	0xbc439a3e	-0.01193863
104	0x3c0ef0de	0.008724419
105	0x3c360b07	0.011111028
106	0xbd6e2a7b	-0.05814598
107	0x3c86b384	0.016443022
108	0x3c04604f	0.008079602
109	0xbc46d4b3	-0.012135672
110	0x3d2ef070	0.042709768
111	0xbd261352	-0.04054577
112	0xbccd4afb	-0.025060168
113	0xbd606b6c	-0.054789945
114	0x3bf2bcbc	0.007407753
115	0xbc4e79f7	-0.012602321
116	0xbc9c673c	-0.019092195
117	0xbcba8446	-0.022768151
118	0x3ca84830	0.020542234
119	0x3be9547a	0.007120666
120	0x3d4b3dc6	0.04961946
121	0xbcf32b3f	-0.029683707
122	0xbbf60fd6	-0.007509212
123	0xbce578f0	-0.028011769
124	0x3d556392	0.05209691
125	0xbc3d9949	-0.011572191
126	0x3b93e2d2	0.004513123
127	0xbd5dce11	-0.0541516
128	0xba3c0295	-0.00071720156
129	0xbd267c37	-0.040645804
130	0x3c346145	0.011009519
131	0xbc8e4823	-0.017368382
132	0x3cbdef67	0.023185445
133	0x3cbae43b	0.022813907
134	0x3cc3df96	0.023910325
135	0x3b26219c	0.0025349623
136	0xbd27f85c	-0.04100834
137	0x3d307dfb	0.043088894
138	0xbcefa064	-0.029251285
139	0xbd188f5d	-0.037246097
140	0xbd18a30d	-0.037264872
141	0xbd43d438	-0.04780981
142	0xbbf3c548	-0.0074392892
143	0x3d18c050	0.03729278
144	0x3d462e24	0.048383847
145	0x398c5056	0.00026762736
146	0xbcbe11f5	-0.023201922
147	0x3d4f2829	0.05057541
148	0x3d2352f9	0.03987405
149	0x3c41ab41	0.011820615
150	0xbdd461f2	-0.10370244
151	0xbdd64f07	-0.10464292
152	0xbd865860	-0.06559825
153	0x3c8819e8	0.016613916
154	0xbcbb22bc	-0.022843711
155	0x3c59b283	0.013287189
156	0xbbdfcd6d	-0.0068299086
157	0x3cfe77d7	0.031063003
158	0xbc923226	-0.017846178
159	0x3d026c0a	0.031841315
160	0xbd0ca92a	-0.034341015
161	0x3d3a7ee5	0.045531172
162	0x3c511cbd	0.012763199
163	0xbc246326	-0.010033404
164	0xbd2383ce	-0.03992062
165	0xbbeb092e	-0.007172725
166	0x3d5358e7	0.051598456
167	0x3cd79976	0.026318293
168	0xbbb7fa35	-0.005614544
169	0xbd02744d	-0.031849194
170	0xbc0c6b81	-0.008570553
171	0x3d3f3523	0.046681534
172	0x3ca9aef9	0.020713316
173	0x3d96afba	0.07357736
174	0x3cc19059	0.0236284
175	0xbd326ddc	-0.0435618
176	0xbcd182d1	-0.025575073
177	0xbc3b5298	-0.011433266
178	0x3d10288d	0.035194922
179	0xbcaf2f14	-0.021384753
180	0xbd04d7ca	-0.032432355
181	0x3d121757	0.03566679
182	0x3d11d8b3	0.03560705
183	0xbd130e8f	-0.035902556
184	0xbca40066	-0.020019721
185	0x3c89b017	0.016807599
186	0x3ae819df	0.0017707905
187	0xbbcfed12	-0.0063453997
188	0x3cc65084	0.024208315
189	0x3c60dd91	0.013724701
190	0x3b60e359	0.0034315197
191	0x3cf503ce	0.02990904
192	0xbd09e8de	-0.033669345
193	0xbd8e56d9	-0.069501586
194	0xbdaba03f	-0.08380174
195	0x3d36d92a	0.044640698
196	0x3c505a31	0.012716816
197	0x3d4bab84	0.049724117
198	0x3c980a59	0.018559622
199	0xbc2117e9	-0.009832361
200	0x3c055d21	0.008139879
201	0x3c049499	0.008092069
202	0xbd5b9987	-0.053613212
203	0x3d03f987	0.03222039
204	0x3b95ab5c	0.004567547
205	0x3cac0384	0.02099777
206	0xbbac5167	-0.0052587274
207	0xbc011dc7	-0.007880635
208	0x3c893be9	0.0167522
209	0xbd8f93a8	-0.07010585
210	0x3d199b72	0.03750176
211	0xbc442267	-0.011971093
212	0x3b9e40d9	0.004829508
213	0xbcacdd9e	-0.021101769
214	0x3b8f0845	0.0043649995
215	0x3af17d4e	0.0018424185
216	0x3cdb050b	0.026735803
217	0xba8209cc	-0.0009921133
218	0xbceb2fd2	-0.028709326
219	0xbc91a38e	-0.017778184
220	0xbc605fe4	-0.013694737
221	0xbcca4288	-0.024689928
222	0x3d0b84dc	0.03406225
223	0xbca2a5a9	-0.019854384
224	0xbd0867c6	-0.03330209
225	0x3d104356	0.035220467
226	0x3bc4a63f	0.0060012634
227	0x3ccaf469	0.024774747
228	0xbd6adb46	-0.05733802
229	0xbcc584d6	-0.024111193
230	0xbc7f3862	-0.015577408
231	0x3d2436da	0.040091373
232	0x3b822711	0.0039719422
233	0x3be8ab16	0.007100473
234	0xbbd5fa05	-0.006530049
235	0xbcd3173b	-0.025767913
236	0x3d254fa1	0.040359143
237	0x3c801a49	0.015637534
238	0xbd0baa02	-0.03409768
239	0x3ca89f10	0.02058366
240	0xbd1caef0	-0.03825277
241	0xbc84ffe3	-0.016235298
242	0x3cb82e8d	0.022483135
243	0xbd249d4c	-0.040189072
244	0x3c01b888	0.007917531
245	0x3d371c5f	0.04470479
246	0x3cf06fef	0.02935025
247	0xbcafccee	-0.021460023
248	0x3bd788f8	0.0065776072
249	0xbd330efb	-0.04371546
250	0x3d467c36	0.0484583
251	0xbcb13f72	-0.021636698
252	0x3cd8d58c	0.026469015
253	0xbbcd932e	-0.0062736487
254	0xbca8650a	-0.020555992
255	0x3bd3192d	0.00644221
