output/energy_cnn_20260221_230745/checkpoints/model_best.pt (torch, 767330 bytes, 23 tensors)

conv.0.weight f4 [64, 15, 7]
00000000: 492d b03d 356e a73c 6042 aa3c 7886 b93c
00000010: c18e ea3c a580 ba3b ba20 e8bc 05b9 a43d
00000020: 5125 e3bc 102c 97bd 5009 6cbd 9fd2 9cbd
00000030: 1dee 57bd 96c1 913d ada8 9ebc 06fb 753d
00000040: de63 80bc 9e94 363d 82b5 74bd fa83 c33c
00000050: dc09 523d 6c8d b9bd f30b cebd e18e 8ebd
00000060: 3e6e 5a3d 376b 1f3d 085d 633d d949 81bd
00000070: 6284 743d 05eb 7dbc 97ea a0bd 8ebe f53c
00000080: 10fd cdba aefa fe3c 45f0 873a 6c9b 863c
00000090: 3bf8 b03d c48d 5dbd 0d49 99bd 7f60 023d
000000a0: df94 063c b60f 52bd 007c f83b be3e cd3c
000000b0: d1f5 d23c 85f1 d1bb 3c7b 943d d974 64bd
000000c0: 8e5c 893c 3196 b2bd 1d04 1dbd 6ca4 42bd
000000d0: 2c13 ba3d d6c5 58bd 1201 6bbd 5533 babb
000000e0: 8b70 f0bd 54d4 3ebe 997b ebbd 69b9 9ebd
000000f0: f3ac 2fbe 600c eabd 1988 50be 2480 1b3d
00000100: c182 b83d f11d 4fbc ab2f b1bc 95d0 b5bd
00000110: da4c 18bc 5f24 8f3d 6632 38bd 2326 4ebd
00000120: 86b6 343c 53c2 ba3d 7451 9f3d eaa1 95bd
00000130: 00d1 dbbc 43ec 953d 6e86 aa3c cda7 89bd
00000140: 94f7 eeb9 a51e 6c3c f8d7 b53d 4554 24bd
00000150: 8834 13bc 2351 93bd 3c2d dbbc a45c ffbc
00000160: d061 86bc b975 c43c 587f 373d 55d9 843c
00000170: c997 ac3d 830d 73bd a379 38bd 201e 8abd
00000180: 320e 073c a644 7ebd db86 863c 9509 e6ba
00000190: d0f4 b3bc 5d4a cc3a 6de8 45bc 3104 97bd
000001a0: aee5 053d bd4f 1e3d 9745 8f3d a4e5 d03d
000001b0: 2ed3 82bd 6a93 d73c a7f9 0a3d 5ccc aabd
000001c0: 30db a5bd db3a abb9 d850 563d 4dc4 ac3d
000001d0: c5e8 babc 8f43 eb3c 08c9 933d b69f 11bd
000001e0: 1943 8abc e1c2 4e3d 9ac1 af3a d8e8 07bd
000001f0: a44e 90bd a0ac ce3d e610 3d3c b5d5 d4bd
00000200: dc0f c3bd 1641 e03c 849e 67bd 1379 553b
00000210: 09db 7fbc dbfb 6dbb 4fea 32bd a62a d43d
00000220: da08 02bd 9944 5fbd 7c23 97bd 62fb 0dbc
00000230: f755 61bb fa8c 07bc 21ac a03c 1abd 7b3d
00000240: f4fe 9abc 653b 8cbd 0e93 603c 9cd2 85bd
00000250: 5424 1dbd bc74 f4bb 1799 b4bc 6228 dabc
00000260: 00f5 bdbd f70f 69bc 32f3 613c 1857 2fbc
00000270: ed39 a63d bd1a a9bd 6244 30bd cff5 663d
00000280: 0da2 8f3d 427c 993b 6071 bbbd 97b6 36be
00000290: eb04 cfbd b8c3 16be 1804 ddbd e438 c3bd
000002a0: 9f9b c8bd aa75 fcbd 22a8 6ebd 97cf 8cbd
000002b0: 485e 673c 5373 41bc 974e 97bd a7e5 edbc
000002c0: 2ddf 993b 55ab 5d3d 1681 d6b8 dbce 92bd
000002d0: c1bb 92bc 941c 813d f451 00bc e5c5 61bd
000002e0: d3d9 04bd 1198 2fbd a2e9 9a3c 2d0d 95bd
000002f0: f061 01bd d274 873c d1db 113d 80f4 53bc
00000300: 7ec8 aebd d516 0a3d 36d5 39bd 3080 b33c
00000310: b6a2 82bd 6f75 b53d d027 1ebd 2ab4 8bbd
00000320: 106a d4bc ee66 823c 2a1d 61bd bc59 ad3d
00000330: d70f b4bd 2aac be3c 6b9f 003d 07a0 be3d
00000340: f178 34bd e801 513d be30 0dbd b95c 163d
00000350: 1c03 9c3d 413f a03d ecc8 9ebd a0c7 b93c
00000360: ae74 babd 3e95 efbb a0b5 c03c 8897 59bd
00000370: e63a 98bd f553 90bd 65bf 43bd 54c6 7a3d
00000380: df49 913d 31f4 a5bd 8af0 b0bd 375c bd3d
00000390: 95b0 63bd f1bd 6e3d 0dbf 2b3c 3f95 f1bd
000003a0: 2ba4 d5bd 60c0 483d 5d76 d9bc 59cf 6b3d
000003b0: ab8b 593c bab5 09bd b400 8d3d bcd0 8b3b
000003c0: 277c 61bd 941c 35bd 549f 8f3d 12e5 b4bd
000003d0: a3d1 75bd 0686 b73d abec a7bd b409 c43d
000003e0: b92e 67bd 06da a0bd 4391 7fbd e896 393d
000003f0: 41e0 963d 60a1 533d 50fb 8ebd 4dab 05bd
0.086023875 0.020438293 0.020783603 0.022647128 0.028632523 0.005691605 -0.028335918 0.08043102
-0.027727755 -0.07381451 -0.05762607 -0.0765736 -0.052717317 0.07117002 -0.01936754 0.060053848
-0.01567262 0.044575326 -0.05974341 0.023866642 0.051278934 -0.09060177 -0.10060873 -0.06960846
0.05332779 0.038920607 0.055508643 -0.063129134 0.059696563 -0.015497928 -0.078572445 0.02999809
-0.0015715677 0.031125393 0.0010371289 0.016431533 0.08641096 -0.054090276 -0.074846365 0.031830307
0.008214205 -0.051284514 0.0075831413 0.025054332 0.02575198 -0.006406965 0.072500676 -0.055775497
0.016767766 -0.08720053 -0.038334 -0.047520086 0.09085688 -0.052923046 -0.057374068 -0.005682389
-0.11740216 -0.18635684 -0.11498184 -0.07750208 -0.17155819 -0.114281416 -0.20364417 0.037964
0.09009314 -0.012641416 -0.021629175 -0.088776745 -0.009295667 0.06989359 -0.04496994 -0.05032934
0.011029845 0.09119096 0.07779208 -0.07306273 -0.026833057 0.07320454 0.020816054 -0.067214586
-0.00045579358 0.014411603 0.088790834 -0.04011943 -0.008984692 -0.0719321 -0.026754968 -0.031172104
-0.016404063 0.023981916 0.04479918 0.016216913 0.08427388 -0.059339058 -0.045037877 -0.06744027
0.0082431305 -0.062077187 0.016421726 -0.0017550463 -0.021967322 0.0015586127 -0.01207934 -0.07373846
0.032689743 0.038650263 0.06995695 0.102000505 -0.063879356 0.02631541 0.033929493 -0.0833976
-0.08098447 -0.00032659512 0.052323192 0.08435879 -0.022816071 0.028718738 0.07216078 -0.035552703
-0.016877698 0.05047882 0.0013409138 -0.03318104 -0.070462495 0.10091519 0.011539673 -0.10392324
-0.09524509 0.027374785 -0.056547657 0.0032573387 -0.015616187 -0.0036313448 -0.043680485 0.10359697
-0.031746723 -0.05450878 -0.07379815 -0.008665891 -0.0034383514 -0.0082733575 0.019613327 0.06145964
-0.0189204 -0.06847266 0.013706936 -0.06534311 -0.038364723 -0.007460205 -0.022045655 -0.026630584
-0.09275246 -0.014224998 0.013790892 -0.010701917 0.08116517 -0.08257053 -0.043033965 0.056386765
0.070133306 0.004684002 -0.09152484 -0.1784309 -0.1010836 -0.14723098 -0.107917964 -0.095323354
-0.09795307 -0.1232713 -0.058265813 -0.06875532 0.0141215995 -0.011807281 -0.07388037 -0.02904017
0.004695794 0.054118473 -0.00010228359 -0.07168361 -0.017911794 0.06304279 -0.007832039 -0.055120368
-0.032434296 -0.04286963 0.018910233 -0.07277904 -0.03158754 0.016535196 0.035610024 -0.012936711
-0.085343346 0.03371318 -0.04536935 0.02191171 -0.06378691 0.08860289 -0.038612187 -0.06821473
-0.02592948 0.015918221 -0.054959454 0.08464381 -0.08792084 0.023275454 0.031402033 0.093078665
-0.04406065 0.05102721 -0.034470312 0.03670952 0.076177806 0.07824565 -0.077531666 0.022678196
-0.09104286 -0.007311492 0.023524106 -0.053123027 -0.07433109 -0.070472635 -0.04778995 0.061224297
0.07094168 -0.081032164 -0.08639629 0.09246104 -0.055588324 0.05828661 0.010482562 -0.117960446
-0.10431703 0.049011588 -0.026545698 0.05757079 0.013277928 -0.033620574 0.068849 0.0042668264
-0.05505004 -0.044216707 0.07012811 -0.08832754 -0.06001438 0.0896111 -0.08199438 0.09572163
-0.056441043 -0.07854085 -0.06239439 0.04530993 0.07366992 0.05166757 -0.06981528 -0.03263407

conv.0.bias f4 [64]
00000000: cec1 b13d c67b 663d 8687 a33c 5e1a 513d
00000010: 25a8 5f3d c3e2 a33d 4099 003d deda 05bc
00000020: de4b 37bd fe1a afbd 2396 b4bd 6f78 4cb9
00000030: 9957 793d f002 c6bd 86e7 b8bd 83ae 6cbd
00000040: 4930 21bd d7d9 cfbd 7df5 aebd fefa b53c
00000050: 29eb 1ebd 2645 863d 44bd 143c af17 52bd
00000060: aed9 a63d 3060 853d 6b4e a63d 61f7 bdbd
00000070: 63fe 6b3c 4eea 7dbd 6850 88bd ea78 923d
00000080: 21f4 b63d ef61 fb3c 82c7 8abd 66f0 90bd
00000090: cd09 a3bc 3202 5b3c 66f8 353d 30a5 423d
000000a0: b8f9 45bc 65ff 51bd 75ab 46bc 56ec 923c
000000b0: 631f efbc 44b9 ddbc 82ac 473d 7c2f b23d
000000c0: 5ce1 403d e26e e83c beea b9bb 35cc a1bc
000000d0: f406 6d3d bbe6 3abc 5dde cc3d 4a3e 5abd
000000e0: 5fd3 44ba 586f 5b3d 21fd a33a cd72 8cbd
000000f0: f0f3 8d3d a0ad 743d 7524 cbbc 06df 13bc
0.086795434 0.056270383 0.019962084 0.051050536 0.054603714 0.08002236 0.03139615 -0.008169858
-0.044750087 -0.0855007 -0.08817699 -0.00019499821 0.060874555 -0.09668529 -0.090285346 -0.057783615
-0.03935269 -0.101489715 -0.08542917 0.022214409 -0.038798485 0.06556158 0.009078328 -0.051292118
0.08146988 0.06512487 0.08120426 -0.092756994 0.014403912 -0.06199103 -0.06655961 0.07151969
0.08933283 0.030686347 -0.06776334 -0.07077102 -0.019902134 0.013367223 0.044426344 0.047520816
-0.012083463 -0.051268954 -0.0121258395 0.01793496 -0.029189771 -0.02706588 0.0487485 0.08700463
0.04708992 0.028373186 -0.0056737354 -0.019750694 0.05786796 -0.0114075495 0.1000335 -0.05328206
-0.00075083034 0.053572983 0.0012511351 -0.06857834 0.06931293 0.059735894 -0.024797658 -0.009025341

conv.1.weight f4 [64]
00000000: 7bd0 803f c60d 6f3f 1c1c 7d3f 0608 7f3f
00000010: fe41 813f 9ec4 7e3f 8702 733f e171 693f
00000020: 0e5e 7f3f 781b 893f 6225 843f b7e6 8c3f
00000030: c235 7e3f 268e 6e3f c98c 793f 8071 843f
00000040: ddb2 7f3f 2d61 803f b576 8b3f 3f82 863f
00000050: 7aca 813f d916 803f 625e 943f 56b1 883f
00000060: ccb1 863f bc16 793f 703e 813f 709e 7b3f
00000070: 2970 6a3f c152 7f3f 5e84 743f cc33 833f
00000080: ceda 713f f4b0 733f 3e46 773f 0675 5e3f
00000090: b9e3 7f3f bd9d 623f c0ae 813f bd41 803f
000000a0: 018b 713f ac61 813f 7c4f 7d3f 95d4 743f
000000b0: cbed 8c3f 5d58 6e3f 511b 733f be23 733f
000000c0: 0b87 863f 8033 783f f263 623f 3c16 783f
000000d0: 0b9b 693f d32c 763f 73be 833f 0093 7e3f
000000e0: c572 8b3f ee83 743f 68ee 963f 3c24 7f3f
000000f0: 44c4 753f bc0a 793f f143 843f 38a8 783f
1.0063623 0.9338039 0.98871017 0.9962162 1.0098264 0.99518764 0.9492573 0.9118939
0.9975289 1.0711508 1.0323908 1.1007909 0.9930078 0.9318565 0.97480446 1.0347137
0.998823 1.0029656 1.0895602 1.0508498 1.0139916 1.0006973 1.1591303 1.0679119
1.0523009 0.97300315 1.009718 0.9828863 0.9157739 0.9973565 0.95514476 1.0250182
0.94474494 0.95191884 0.96591556 0.86897314 0.9995685 0.8852194 1.0131454 1.0020062
0.9435273 1.0107932 0.9894941 0.95636874 1.1010069 0.9310358 0.94963557 0.94976413
1.0509962 0.9695358 0.88433754 0.96908927 0.912522 0.96162146 1.0292495 0.99443054
1.08944 0.9551381 1.1791506 0.99664664 0.960026 0.97282004 1.0333234 0.9713168

conv.1.bias f4 [64]
00000000: b74a b7bc c1e3 84bd a6fe 50bd de6f 0fbd
00000010: 3f5e f3bc 3ff3 19bd f4f6 9ebd 4c94 8ebd
00000020: d37e b6bc acbf 83bc 64ae 18bd ca54 e73b
00000030: 892b 42bd 8a74 2bbd 2014 18bd c927 1abd
00000040: b663 65bd 9384 1ebd 2c2a 1c3c 546c 75bd
00000050: b763 34bd 32ba 72bd d701 233d b9d0 1fbd
00000060: 7fdd 43bd a376 47bd 2fc9 43bc 0ae4 7abc
00000070: a999 36bd 58a1 22bd 3209 8fbd 6096 98bd
00000080: 8e91 34bd 200c a4bd aa04 4fbd 0152 0abe
00000090: d432 92bc 9202 cabd c70d 12bd eb9f 34bd
000000a0: 0b63 42bd a436 19bd 39d8 59bc a635 81bd
000000b0: 69f8 97bc eb78 51bd b8d1 07bd 77fd a8bd
000000c0: 71e5 af3b dcef ecbc e2de 72bd f03f 91bd
000000d0: 626c bcbd 32da d8bc 9a74 54bd 630a fdbc
000000e0: 2669 e4bc 8cef a3bd 4051 2f3d 430e c7bc
000000f0: ca59 16bd c3ab 8bbd d9eb 983a 5e4b 71bd
-0.022374494 -0.06488753 -0.0510241 -0.035018794 -0.029708026 -0.037585493 -0.07761946 -0.06961879
-0.022277271 -0.016082607 -0.037275687 0.007059668 -0.0474048 -0.041859187 -0.037128568 -0.0376356
-0.056003295 -0.03870065 0.009531539 -0.059917763 -0.044040408 -0.0592596 0.039796676 -0.039017413
-0.047818657 -0.048697125 -0.011949821 -0.015313158 -0.044580135 -0.03970465 -0.06984176 -0.07450557
-0.044084124 -0.08010125 -0.050541557 -0.13507845 -0.017846502 -0.098637715 -0.03565767 -0.044097822
-0.047457736 -0.037405625 -0.01329618 -0.06309061 -0.018551068 -0.051140707 -0.033158988 -0.082514696
0.0053679277 -0.028922968 -0.05929459 -0.07092273 -0.0920036 -0.026471231 -0.051869012 -0.030888742
-0.02788217 -0.08004674 0.042802095 -0.024298793 -0.036706723 -0.0681987 0.0011666968 -0.058909766

conv.1.running_mean f4 [64]
00000000: 9d0e b73d 037c 553d 606e 9d3c a01d 653d
00000010: cfd1 483d d137 ac3d f184 123d 525b 24bc
00000020: f8c4 38bd 4dc3 9fbd 8d84 babd 6f9e 04bb
00000030: 38e4 7e3d 5757 cbbd 394c b6bd 3b62 80bd
00000040: 162f 25bd 7b33 d5bd 85ce b4bd 7e72 a93c
00000050: 0527 29bd 3a2d 853d 6af0 163c 72a8 55bd
00000060: 9e97 a23d eec4 823d c9cd 9d3d 9fea b6bd
00000070: 7e6a 873c e9f1 7dbd 3b10 8bbd cc9c 893d
00000080: af0b c13d 581c e63c 7aa1 94bd 9db4 97bd
00000090: fd57 9abc 6b22 823c 4deb 483d f3ff 3d3d
000000a0: 67fe 41bc fdcd 43bd ec7c 59bc 4fc8 9b3c
000000b0: 09ab 0ebd 5c42 e1bc d5ea 353d c6af b43d
000000c0: 5d14 423d d578 b83c f979 12bb 6b24 c2bc
000000d0: 230d 833d 1660 19bc 014c cf3d c980 46bd
000000e0: af5b 46bb bf47 653d 4f9a 003b b774 90bd
000000f0: 3d43 8d3d 1741 733d 5f77 f3bc 6e9e 5bbc
0.08938334 0.05212022 0.01921767 0.055936456 0.049028214 0.08409084 0.035771314 -0.010031538
-0.04510972 -0.078009225 -0.09107313 -0.0020236035 0.062229365 -0.09928768 -0.08901257 -0.06268736
-0.040328108 -0.1041021 -0.08828453 0.020684477 -0.041296978 0.06502767 0.009212593 -0.052162595
0.07939075 0.063852176 0.07705266 -0.08931469 0.016530272 -0.06199828 -0.06790205 0.0671936
0.094260566 0.028089687 -0.07257362 -0.07407496 -0.018840784 0.015885552 0.049052525 0.04638667
-0.011840439 -0.047803868 -0.013274413 0.019016413 -0.03483108 -0.027497463 0.044413406 0.088225886
0.0473827 0.022518555 -0.0022350533 -0.023699006 0.0639899 -0.009361288 0.101219185 -0.048462663
-0.003026705 0.055976626 0.0019623225 -0.070535116 0.0689759 0.059388246 -0.029720007 -0.013404472

conv.1.running_var f4 [64]
00000000: 88be 803f 62e2 b73f f082 c13e d4f6 0d3f
00000010: c8f7 863f 9aee 2c3f 4cf8 993f ca53 ff3e
00000020: 8fbd b43f dba1 193f b4ae 843f dacd 573f
00000030: 6696 5d3f 3799 913f c973 a83e 5550 443f
00000040: 9b28 be3e cf71 c23e c1ac ac3f 4904 e03e
00000050: d660 073f 5623 4e3f 56e4 963f f294 113f
00000060: 6e94 4c3f c0ce 3a3f c0d2 6f3f 6875 2d3f
00000070: d49b c33e 23d2 ee3e 1c52 223f 7c6f 093f
00000080: 4cd4 693f 5d4b 723f cf13 1e3f 8193 763f
00000090: eb6f 5d3f ca7a c53f cff4 173f 0acc 033f
000000a0: 0c30 f73e ebf9 283f 7f8a 573f 9298 633f
000000b0: 7321 5b3f 0ecb 273f 033d 913f c2e2 2b3f
000000c0: f606 433f 9638 c33f 2d70 1e3f a821 f53e
000000d0: 7a74 fb3e 9250 223f 3731 6f3e 1370 063f
000000e0: 7035 9c3f e8c0 113f f217 7c3f 3174 193f
000000f0: 44c0 2d3f f669 d73e 4617 843f d15a 9c3f
1.0058146 1.4365962 0.3779521 0.55454755 1.0544367 0.6755158 1.2028899 0.49868613
1.4120349 0.60012597 1.0365815 0.8429848 0.86557615 1.1374882 0.32900837 0.76685077
0.37140355 0.37977454 1.349022 0.4375327 0.52882135 0.8052267 1.1788433 0.568679
0.79913986 0.72971725 0.93680954 0.6775727 0.38204825 0.46644697 0.6340654 0.53685737
0.91339564 0.94646245 0.61748976 0.96318823 0.864989 1.5428097 0.59357923 0.51483214
0.48278844 0.66006345 0.84195703 0.8890468 0.85597914 0.6554421 1.1346744 0.6714288
0.76182497 1.5251644 0.61889917 0.4787724 0.49112302 0.6340419 0.23358618 0.5251476
1.2203808 0.56934977 0.9847404 0.5994292 0.678715 0.4207303 1.0319602 1.2215215

conv.5.weight f4 [128, 64, 5]
00000000: 09a1 053a e4b7 0f3c 9d8c 7dbc 0a86 25bd
00000010: 620c 013d ef89 34bd 985e d1bc 6c24 f13b
00000020: 7f51 85bc 1988 ecbc 5240 b4bc 30cb 67bc
00000030: 66b1 a8bc 2252 d43b 8f05 c53c 26e5 703c
00000040: 2808 4bbd 4063 41bc 6f47 093d 0d11 153d
00000050: 007f b3bc 956b fb3b aadc 68bd 08cf 83bd
00000060: 828c bcbc bbf8 03bd de5c 5ebd 8307 dcbc
00000070: ea04 55bd 67ea c93c 5374 e7bc bedb a3bc
00000080: d533 53bd b1b0 933a 4cb4 c73c 41bf 07bd
00000090: 7764 38bd de8e 3dbd f434 a8bc 573f 05bd
000000a0: 5100 a9bc fc91 2f3d a5b6 7cbc ab2b 33b8
000000b0: 027c 36bd 936d 9d3c 6385 62bc b44c 74bd
000000c0: ab45 88bd 0d8f 7bbd 3174 b1bb 4428 913c
000000d0: 0ff9 d4bc 93a1 fc3b 34a0 2e3b c3ff 5d3d
000000e0: 4431 c73c f9b0 043d 9bd0 f83c 4c07 b2bc
000000f0: 3abf a33c 7fd1 f93c 612b 5ebc ab5c 16bd
00000100: beaf 57bc b3ea 2d3d b9ba 1e3d c7c8 7c3d
00000110: 6124 22bd ce5e 1abd 86f9 37bd 378f 8ebd
00000120: 25f9 93bb abab 8cbc 0e74 6abd 40f8 d63c
00000130: 7666 9c3c 78d9 0e3d 2e4d debc 8676 47bd
00000140: 149c 733b 45e1 7c3d f0df 3abc d128 c0bc
00000150: f87f 693b 9ebb 56bd 66aa b9bc 1bb9 afbd
00000160: ef6c b53a 6476 7cbd 650a 64bc 256f e7bb
00000170: cab5 ce3c ebd6 0dbd 3f30 66bd bfb6 6fbd
00000180: f339 1cbd 632b 00bd 7902 263d fe29 993c
00000190: f3c9 ab3c ebe8 753c 1cf2 b13c b6de 303d
000001a0: ebc4 b1bc 1a8f ba3c 91ed 0fba 10b5 2fbc
000001b0: 0c5b 6ebd 6490 a03c 50be 513c 7f97 8a3c
000001c0: 52f3 0c3d 0ad0 65bd f3fe 113b 58c1 0abd
000001d0: 9dd6 2cbd 28f0 57bc c520 97ba 2eea 26bd
000001e0: 64ca 88bc ee13 1d3c acda 0e3d ea38 37bd
000001f0: 06f7 243d 7240 013d e92a 7abd ca06 623c
00000200: 8140 883c b581 073d 992d 63bd 755f 41bd
00000210: 13fa 90bd 90d9 18bd dcfd 2dbd cd1f a43d
00000220: 9089 393d 1199 e33c 33c7 2d3d 921f 82bd
00000230: f743 21bc 14ff 9fbc 2684 4bbd 91aa 0cbd
00000240: 438f a1bb a533 743d a425 303c 2659 ab3c
00000250: eb53 8dbd 41ef 9fbd 993c 683d b7fc 5239
00000260: 6741 223d 3599 ca3a 20bd 12bd 2482 493b
00000270: 8b27 d1bc 72c3 4a3c 4d04 3ebd 458c 07bd
00000280: a252 83bd f440 62bc afd9 543c 5022 7bbc
00000290: 169d 26bd 3167 933c da76 283d 2a5f 13bd
000002a0: b1f9 463c 1165 e4bc 56c0 66bc 45e6 4bbd
000002b0: 467a f43c d32b b1bc 29aa 243d da0c 273d
000002c0: 7dc3 a03c 7993 67bd 47e9 123c a4c8 8abb
000002d0: 289c 17bc 6f80 d33a 03f6 f839 b3f3 8abd
000002e0: 6890 44bd 0169 0fbd b179 f13c c6f4 f73c
000002f0: 13d6 303d 7887 b83c c40b e33c 05b2 673b
00000300: 127e 5e3c 1e2e ae3b c4e3 83bc 467f 5cbc
00000310: dab6 ff3b 073b 113d 3080 f13c 69f3 ed3c
00000320: dc3e 8fbd 086b e5bc ea80 943c 9602 ffba
00000330: 4423 0d3c a5db 91bc 4b3d 47bd 32ec 363c
00000340: 7a79 43bd 0d47 0d3d a6e2 123d 4c2d 79bd
00000350: 9239 05bd 3158 61bc 64ac 81bd afe0 f7bc
00000360: c945 b2bc a5ee 623d ab52 083d 7319 91bd
00000370: c1d5 923b 835b 593d cbb0 06bc f78b 043b
00000380: 3637 44bd 382a d6bb 6039 6cbd 21de a7bb
00000390: 9e54 2dbc a990 e1bc 2cd5 18bd 947d a6bc
000003a0: eb8e d03c bccc f8bc 3e03 9d3a eec6 5ebd
000003b0: ff9e 33bd 7d7e 38bc 2559 82bd e254 163d
000003c0: 289c c3ba 64ec 4f3d 224f 27bc 3b6a fe3c
000003d0: 5af7 62bd b882 09bc 4478 eabc d477 163d
000003e0: 1d64 7c3b 54b8 e0bc 2f22 94bc 4492 72bc
000003f0: 3434 ae3c d507 0d3d 80e6 c6bc 32ea 243c
0.00050975435 0.00877187 -0.015475419 -0.040411033 0.03150595 -0.044076856 -0.025557801 0.007359078
-0.016274212 -0.02887349 -0.022003327 -0.014147565 -0.020592403 0.0064795176 0.024050502 0.014703071
-0.049568325 -0.011803448 0.03351539 0.036393214 -0.021911144 0.007672737 -0.056851067 -0.064359725
-0.023016218 -0.03221963 -0.054287784 -0.02685905 -0.05200664 0.024647905 -0.02825371 -0.020002242
-0.051563103 0.0011267868 0.024377964 -0.03314138 -0.045017686 -0.046278827 -0.020533063 -0.03253111
-0.020630034 0.04286383 -0.015424405 -4.2717595e-05 -0.044551857 0.019217288 -0.013825747 -0.059643462
-0.06653913 -0.06141572 -0.0054154624 0.017719395 -0.025997667 0.007709691 0.0026645781 0.05419899
0.024315484 0.032395337 0.030372908 -0.021731995 0.019988645 0.030495403 -0.013560147 -0.03670947
-0.013164459 0.042460155 0.03875229 0.061714914 -0.039585475 -0.03768807 -0.0449157 -0.0696091
-0.0045157843 -0.017171701 -0.057239585 0.026241422 0.019091826 0.034875363 -0.027136412 -0.048697017
0.0037171887 0.06173827 -0.01140593 -0.023456963 0.0035629254 -0.05242502 -0.02266426 -0.08580228
0.0013841669 -0.061636344 -0.013918494 -0.00706281 0.025233168 -0.03462879 -0.056198355 -0.05852389
-0.038141202 -0.031291377 0.0405297 0.018696781 0.02097032 0.015009145 0.021721892 0.043181144
-0.021700343 0.022773314 -0.0005490417 -0.010724321 -0.058192298 0.0196001 0.012801722 0.016917942
0.034411736 -0.056106605 0.0022277206 -0.033875793 -0.04219686 -0.013179816 -0.0011530152 -0.040750675
-0.01669807 0.009587271 0.03487651 -0.04473201 0.040274642 0.0315556 -0.06107608 0.013795564
0.01663232 0.033082683 -0.055463407 -0.047210176 -0.07078948 -0.03731686 -0.042478427 0.08013878
0.045297205 0.027782949 0.0424263 -0.06353678 -0.009842864 -0.01953081 -0.049686573 -0.034342352
-0.004930408 0.059619565 0.010751162 0.020916533 -0.06900772 -0.07809306 0.056698415 0.00020121304
0.039613154 0.0015457036 -0.035824895 0.0030747736 -0.02553155 0.012375699 -0.04639082 -0.033092756
-0.06412245 -0.013809431 0.012991353 -0.015328005 -0.040677153 0.017993541 0.04112897 -0.035979427
0.012144492 -0.027880223 -0.014083942 -0.04978015 0.02984346 -0.021627342 0.04020134 0.04078374
0.019624466 -0.056537125 0.00896675 -0.004235344 -0.009253539 0.0016136299 0.0004748554 -0.06784763
-0.04798928 -0.03501225 0.029476972 0.030268084 0.043172907 0.022525534 0.027715571 0.003535391
0.013579862 0.005315556 -0.016099818 -0.013458079 0.00780378 0.035456683 0.02948007 0.029046731
-0.06994411 -0.028005138 0.018127877 -0.0019455727 0.008614365 -0.01780493 -0.048642438 0.011164712
-0.04772327 0.034491587 0.03586068 -0.060834214 -0.032525606 -0.013753937 -0.06331709 -0.030258505
-0.021761792 0.05540337 0.033281963 -0.07084932 0.004481048 0.053065788 -0.008220862 0.0020225027
-0.047904216 -0.0065357946 -0.057671905 -0.0051229154 -0.010579256 -0.0275348 -0.03731267 -0.020323552
0.025458774 -0.030371062 0.0011979116 -0.054388933 -0.043852802 -0.011260626 -0.06364659 0.036702044
-0.0014923858 0.05076255 -0.010211738 0.031056514 -0.055411674 -0.008392982 -0.0286218 0.03673537
0.003851182 -0.027431644 -0.018082706 -0.01480538 0.021265127 0.034431297 -0.024279833 0.010065602

conv.5.bias f4 [128]
00000000: 0f0a 44bc ce86 1f3c 8852 edbc f641 10bd
00000010: 2619 c339 8f6d 37bd 0e2e 95bc 82e1 b8bc
00000020: 5036 8d3c 48ba 38bd f56e f43c 8b01 513c
00000030: a442 96bc 1f8e 903c d182 4f3d 62f5 b53c
00000040: fe78 0cbd 321f e33c f915 20bd 17df 2cbd
00000050: ca39 56bc 8f43 bb3c 69ba fcbc b9af 54bd
00000060: d550 ff3c 1c70 58bd d318 6f3b 4b23 7a3a
00000070: 1a1b ae3c fe29 093d 0c03 9eb9 d770 aabc
00000080: 9b0a f03c b85e 183d 7a79 89bc ba29 2abc
00000090: 206a 553d 05fd acbc 793e 473d 452e 22bd
000000a0: f9eb 223d c663 1b3d 6666 003d b3ca cbbc
000000b0: bb3f 40bc e741 523d d4ad bf3b 8395 2a3d
000000c0: 4dd5 05bd bf08 ee3c c269 49bc 5130 38bd
000000d0: c5bd 2abd 0938 f6bb 30d9 ca3b baf2 a2bc
000000e0: 484a 3fbd 1c80 f7bc 720e 73bd 44f7 7e3b
000000f0: 61c7 203d 52bd 483d a7ac 143d bb1d cfbc
00000100: aaa7 5b3d 88df c0bc bac8 ac3c 39af 2bbd
00000110: 5ce9 1f3d 7801 d1bb 14b9 cf3c 3dce 02bd
00000120: 51cd e6bc 0158 5dbd c835 44bc 858e 80bc
00000130: cf15 1dbd f22c 61bc f846 10bd cc5e 5ebd
00000140: 02ee 2bbd 5263 8cbc 1c85 6e3b 6359 93bc
00000150: afa7 f9bc d484 2f3d 1d5e 27bc fab0 3a3d
00000160: 4c6a 593d b2f2 44bd 40df 58bd d8eb 30bd
00000170: 14ca 28bd 1358 31bd a4cd 413d 6eb4 363d
00000180: c2ec 9cbc 8dbd 85bc d401 873c 27ab c9bc
00000190: 41da 163d 4b55 4dbd f3a0 093d 9a75 aabb
000001a0: ab24 70bc df50 653c c4d8 c33b 281b ad3c
000001b0: 0290 7e3c 4a8b bb3c f7bc d4bc 2d8a 963c
000001c0: 0524 46bc 81e2 143c 6214 943c 6b43 913c
000001d0: 5e26 09bd 4abd 4bbc 013d b33c b41a 763c
000001e0: 850a 353d 0f34 213b b38b 683c d7a6 183d
000001f0: bd2c da3b 56a9 043b 372b febb 1579 e53c
-0.011965289 0.00973673 -0.028970018 -0.035219155 0.00037212035 -0.044782218 -0.018210437 -0.022568468
0.017237812 -0.045099527 0.029838065 0.0127567155 -0.018342324 0.017645894 0.050661866 0.022211734
-0.034295075 0.027724836 -0.039083455 -0.042204943 -0.013075301 0.022859363 -0.030850606 -0.051925395
0.031166473 -0.05284129 0.0036483302 0.0009542002 0.021253157 0.033487312 -0.00030138378 -0.02080576
0.029301932 0.037199706 -0.016781557 -0.010385925 0.05210316 -0.021116743 0.048643563 -0.039594907
0.039775822 0.03793695 0.031347655 -0.024876928 -0.0117339445 0.05133238 0.0058495793 0.04164649
-0.032674123 0.029056905 -0.012293281 -0.044967953 -0.041684885 -0.007514004 0.0061904415 -0.019891132
-0.0467017 -0.030212454 -0.059339948 0.0038904706 0.039252643 0.049008675 0.036297467 -0.025282731
0.053626694 -0.023544088 0.021091808 -0.041915152 0.03904091 -0.006378349 0.025356807 -0.031934965
-0.028174074 -0.054039005 -0.011975713 -0.015692959 -0.038350876 -0.013743626 -0.03522393 -0.054289624
-0.04197503 -0.017137203 0.0036395257 -0.017986959 -0.030475466 0.042851284 -0.010215309 0.045578934
0.05307989 -0.048083015 -0.052947283 -0.043193668 -0.04120834 -0.043296885 0.047315255 0.044605665
-0.019155864 -0.016325736 0.016480364 -0.024617745 0.036829237 -0.05013017 0.03360076 -0.0052020075
-0.01465718 0.013996332 0.005976768 0.021131113 0.015537264 0.022893567 -0.025969012 0.018376434
-0.012093549 0.009087206 0.018076126 0.017732343 -0.033483855 -0.012435267 0.021879675 0.015021015
0.044199485 0.002459768 0.014193463 0.037268486 0.0066581652 0.0020242534 -0.0077566165 0.028011838

conv.6.weight f4 [128]
00000000: e29c 733f 6276 7a3f 5325 863f 8f3f 7d3f
00000010: 0458 7a3f e2cb 7a3f 9103 8a3f ba75 783f
00000020: 7066 823f 7346 803f ad5b 763f d3b7 823f
00000030: 41e9 7f3f 3bc9 7a3f 0ad3 8e3f c524 793f
00000040: eeba 843f 5a8b 7c3f b2aa 773f 8fc9 793f
00000050: c242 853f 5678 7d3f 5b24 7a3f 9d94 783f
00000060: 7503 7b3f c550 733f f9a4 803f 0417 7f3f
00000070: 2c3b 753f 6eec 7e3f aae8 7a3f 67f4 793f
00000080: 5d60 823f 3701 7b3f b0a8 803f bc5b 803f
00000090: c95a 7c3f f368 823f 8966 7b3f daa4 823f
000000a0: 1763 873f 752a 853f 394e 7a3f b210 8d3f
000000b0: 5624 7b3f 9cea 803f 5545 843f 139c 7f3f
000000c0: 77a7 883f 203a 763f aec3 8d3f d797 753f
000000d0: 72b4 7f3f 8ed0 7d3f a77c 803f 9177 803f
000000e0: 61fe 723f 5708 7f3f 5785 883f c8c1 753f
000000f0: c8ab 803f 5bab 7c3f b02e 6c3f 2da8 7f3f
00000100: d7b0 853f 1e9b 793f cd26 823f d4c3 853f
00000110: af23 7b3f a021 843f 0042 863f 306d 833f
00000120: b390 873f 7cdf 773f 1944 803f bd7f 783f
00000130: e878 8b3f c7af 8a3f d4f6 7a3f 2096 803f
00000140: 2448 883f 9835 723f b8dc 843f 7300 763f
00000150: 0bd7 813f 5c5a 8c3f 7370 7c3f bfef 7c3f
00000160: 1767 783f 576f 7c3f f2ac 7a3f 2af6 883f
00000170: 9b98 853f 1a28 883f 7ade 793f 3a67 833f
00000180: 80ae 833f 78c9 873f 473c 7d3f f2ac 783f
00000190: cc9f 813f c948 813f 5269 833f bb77 7f3f
000001a0: a8ab 7a3f 4919 803f 505e 803f cb29 7c3f
000001b0: e702 763f 2412 813f 4c70 833f bd07 823f
000001c0: 29c1 7d3f 14b8 7e3f 03aa 763f 67ab 803f
000001d0: 7b76 7e3f a850 853f 9981 7e3f c141 723f
000001e0: 1af5 823f b497 793f abc1 7f3f 8328 893f
000001f0: 7fb1 7d3f 25f4 793f 0e38 743f e2b2 7b3f
0.9516126 0.9783689 1.048014 0.9892511 0.9779055 0.9796735 1.0782338 0.97054636
1.0187511 1.0021499 0.96233636 1.0212349 0.9996529 0.97963303 1.1158154 0.9732173
1.0369546 0.98650134 0.96744835 0.9757318 1.0410998 0.99011743 0.97711724 0.97101766
0.9805215 0.9504512 1.0050346 0.99644494 0.95793414 0.99579513 0.9801127 0.97638553
1.0185658 0.9804873 1.0051479 1.0027995 0.9857603 1.0188278 0.9820333 1.0206559
1.0577115 1.0403582 0.9777561 1.102072 0.9810232 1.0071597 1.0333658 0.99847525
1.0676106 0.9618244 1.1075342 0.95934814 0.9988471 0.99146354 1.0038041 1.0036489
0.949194 0.996221 1.0665692 0.9599881 1.0052423 0.9869897 0.9225874 0.9986599
1.0444592 0.97502315 1.0168091 1.0450387 0.98101324 1.0322762 1.0488892 1.0267696
1.0591034 0.96825385 1.0020782 0.97069913 1.0896273 1.0834893 0.9803288 1.0045815
1.0647016 0.9461303 1.0379858 0.96094435 1.0143751 1.0965075 0.98609084 0.98803324
0.970323 0.9860739 0.97920144 1.0700123 1.0437196 1.0637238 0.976051 1.0265877
1.0287628 1.0608358 0.989201 0.97138894 1.0126891 1.0100337 1.0266516 0.9979207
0.97918177 1.0007716 1.0028782 0.9850127 0.9609818 1.0083661 1.0268645 1.0158612
0.99122864 0.9949963 0.9635317 1.0052308 0.99399537 1.0415239 0.994165 0.9463158
1.0231049 0.97497106 0.9990489 1.0715488 0.9909896 0.9763816 0.9539803 0.9831983

conv.6.bias f4 [128]
00000000: 5f97 7ebd d4e8 a0bd b1f3 99bd 80c2 33bd
00000010: 3ead 99bd 6a24 e4bd 7dbb 87bd fc0d bebd
00000020: 89ef e6bc f5aa 90bd 2888 a2bd 5d84 abbc
00000030: 7379 72bc a3af 08bd cbc6 4dbd bd25 9cbd
00000040: 13e5 3dbd 9f32 13bd b7ab 87bd 1f8a a1bd
00000050: 1a45 73bd 19e6 b4bd e142 2abd 218a 85bd
00000060: 919f aebd 1725 8bbd ee4c 9bbd a8ac 38bd
00000070: 2b42 65bd 488e 35bd d31c cebc a78e 38bd
00000080: 05a7 0abd f5c1 c6bd e3cd 41bd 8dd4 b9bc
00000090: 621e 6dbd c6ca 313c 382f a9bd 747f 40bd
000000a0: 858a 45bd 1ce9 97bc 877a 69bd 1a3a 71bd
000000b0: 3cb7 73bd ccdb 41bd 1591 4ebd c8e3 0ebd
000000c0: 9851 96bd cdf0 5ebd acf6 c2bc 97e4 51bd
000000d0: 1b7f 03bd 643a 79bd a309 22bd fd43 9bbd
000000e0: 75e2 7abd 901e 63bd 855b 8dbd bdee b2bd
000000f0: eb34 03be 550c 29bd 4f87 e1bd ce8a bbbd
00000100: 58b6 ddbc 72c0 57bd 248f 5fbd 77e6 bcbd
00000110: 74db 1fbd 9dd5 0abd eaae 8cbd 3e11 f1bb
00000120: 7bf6 25bd 88ae 5dbd c7bd 5fbd 4a2f 83bd
00000130: 7157 30bd da5d fbbd 8992 aabd 163e 15bd
00000140: 1011 65bd 2de1 bbbd dca0 61bd 0ea6 3fbd
00000150: f420 d2bd f973 aebd 11a1 8cbd 6106 33bd
00000160: 058d 3ebd eb3d 76bd dcde c3bd 7bb0 56bd
00000170: 090b 1cbd 478b 5dbd e252 dabd aa78 2fbd
00000180: 19d2 0bbc aab8 69bd 46aa 60bd 68a3 74bd
00000190: 9ba2 dabc 4bf8 bebc b94a b3bd 09bb 5bbd
000001a0: f65e aabd bc97 e4bc a93d 30bd 41d1 8ebd
000001b0: 056f febc 266e 91bd a800 6abd a673 71bd
000001c0: 0910 c8bc 0984 18bd 97bd 84bd 68c3 a4bd
000001d0: 4a9e e3bc cc74 c0bc f4cb 22bd 69d2 57bd
000001e0: f3d8 00bd cc10 9abd a10f 8ebd 033e 08bd
000001f0: bd8a 99bd 4ba6 bdbd 809b ccbd 16b0 c9bd
-0.062156077 -0.078569084 -0.075171836 -0.04388666 -0.075037464 -0.11139758 -0.066275574 -0.09280011
-0.028190391 -0.070638575 -0.07936126 -0.02093714 -0.014799464 -0.033370625 -0.050238412 -0.076243855
-0.04636104 -0.035936948 -0.06624549 -0.07887673 -0.059392072 -0.0883295 -0.041567687 -0.065204866
-0.085265286 -0.06794184 -0.075830325 -0.045086533 -0.055971306 -0.044325143 -0.025160229 -0.04505792
-0.03385069 -0.09704963 -0.04731549 -0.02268436 -0.057890303 0.010851568 -0.082609594 -0.04699655
-0.048227806 -0.018543772 -0.057001617 -0.0588933 -0.059500918 -0.047328755 -0.05043133 -0.034885198
-0.073397815 -0.054428864 -0.023799263 -0.05124339 -0.03210364 -0.0608467 -0.03955997 -0.07581327
-0.061251123 -0.05544907 -0.069022216 -0.08736942 -0.12813155 -0.041271526 -0.11012136 -0.09157334
-0.027064487 -0.052673765 -0.05457987 -0.09223645 -0.039027646 -0.033895124 -0.068693 -0.0073567918
-0.040518265 -0.054121524 -0.054624345 -0.06405504 -0.04305214 -0.1227376 -0.083287306 -0.036436163
-0.055924475 -0.09173808 -0.055085048 -0.04678922 -0.102601916 -0.08518214 -0.068666585 -0.043707255
-0.046521205 -0.060117643 -0.095639914 -0.0524144 -0.03809646 -0.054087903 -0.1066034 -0.042839684
-0.008533978 -0.057060875 -0.054849885 -0.05972615 -0.026688864 -0.023311755 -0.087544866 -0.053645167
-0.083188936 -0.027904384 -0.043027554 -0.06973506 -0.031058798 -0.07101087 -0.057129532 -0.05894818
-0.024421709 -0.037235294 -0.06481474 -0.08045083 -0.027785439 -0.023493193 -0.039745286 -0.052690897
-0.0314569 -0.07522735 -0.06936575 -0.033262264 -0.07497165 -0.092602335 -0.09990597 -0.09848039

conv.6.running_mean f4 [128]
00000000: bb1f 1ebf 0bd4 15be 00f0 8f3e 336f f7bd
00000010: ca87 80bf 907e 473e 41c8 cb3e b16b bfbe
00000020: 5b12 10bf 2f20 d6be 8d53 11bf a42b 2cbf
00000030: 1fa8 5ebf 22ea 38bf e6c1 693e d85b 09bf
00000040: 61db 903f 16b4 983e f657 2ebf 9542 b4be
00000050: 7504 233f c1a6 bebe 1a00 52be 486d e0be
00000060: 60b3 23bf d726 3ebe 1bff 93be 0fbb 793f
00000070: 167e 81bf 72c9 38bf 5e9f 6e3e 479d 873e
00000080: 6f26 36bf 001f e4bd 4f0a f7be 86de cbbe
00000090: c3ba 52bf 8c88 66bf fde7 f8be b233 88be
000000a0: 90e9 6fbe 72c1 16bf 9925 683f 7970 14bf
000000b0: 9830 9cbe 19e4 92be b335 8b3f a4fd 443e
000000c0: 5686 16be da36 10bf 3b85 d13e 1e46 edbe
000000d0: a308 28bf 08b0 23be 4639 fabe a5ae 023c
000000e0: fc34 33bf cde9 66bf 55fd bcbf c3ad 35bf
000000f0: 09ff f13e 68ce 83be d5f7 19bf c38b bc3e
00000100: 8189 c03e 625b 25bf 7f7d fbbe fcfc 4abc
00000110: b9f7 27bf 5de7 c13d 4faf b83d 38b5 f53e
00000120: 44a0 a1bf 87d1 46bf f5bf d3be ffb2 38bf
00000130: a7c8 96bf 2c3a 0e3f 7fa5 aabe b6d1 ebbd
00000140: 197a a23f eac0 b7be 2d75 36bf c30a d1be
00000150: 9980 0f3f 8953 3abf 187b 20bf b28c 9ebd
00000160: 94ad 8bbe 39bb bebe bae1 fabe d624 7abf
00000170: e22e 48bf 74a6 b5be b200 193d 9982 a73d
00000180: 0ea7 28bf e3da 83bf 7395 e63e fcbd 17be
00000190: 67fe 6ebf ed86 43bf 38bd a0bd 0845 9e3b
000001a0: bbfe f7be f0f0 65bf 3b49 953f 541e b7be
000001b0: 6371 0abf 0ed2 87bf 9964 0d3f 3f05 aa3f
000001c0: a003 86bf 960c 3dbf e21d 2abf 524c ffbe
000001d0: 70da 3cbf 2919 053f 01c0 11bb 24fb 0dbf
000001e0: b63d c53e 5d8b 82bf 8aae 05bf 122d 99be
000001f0: 1974 c13e 0d3c 14bf 7116 3bbf c0ff 87be
-0.61767167 -0.14631669 0.28112793 -0.120817564 -1.004144 0.19481874 0.3980122 -0.3738685
-0.5627801 -0.4182143 -0.56768113 -0.6725409 -0.8697528 -0.7223226 0.22827873 -0.5365577
1.1316949 0.29824895 -0.6810297 -0.35207048 0.63678676 -0.37236598 -0.20507851 -0.43833375
-0.6394558 -0.18569504 -0.28905568 0.97551054 -1.0116603 -0.7218238 0.23302981 0.2648718
-0.71152395 -0.11138725 -0.48250052 -0.3981821 -0.82316226 -0.90052104 -0.48614493 -0.2660194
-0.23428941 -0.58888924 0.9068237 -0.5798412 -0.30505824 -0.2868965 1.0875763 0.19237381
-0.14699683 -0.56333697 0.4092196 -0.46342558 -0.6563818 -0.1598512 -0.4887182 0.007976209
-0.7000272 -0.902005 -1.4764811 -0.70968264 0.4726489 -0.25743413 -0.60143787 0.3682538
0.37604907 -0.64592564 -0.49119183 -0.012389418 -0.6561237 0.09467957 0.090178125 0.4798982
-1.2627034 -0.77663463 -0.4135739 -0.72148126 -1.1779984 0.55557513 -0.33329388 -0.115146086
1.2693511 -0.3588937 -0.71272546 -0.40828523 0.560556 -0.72783715 -0.62687826 -0.07741679
-0.27280867 -0.37252215 -0.4900034 -0.9771246 -0.7819654 -0.35478556 0.03735418 0.081792064
-0.65879905 -1.0301174 0.45035896 -0.14818567 -0.9335694 -0.76377755 -0.078485906 0.0048300065
-0.4843653 -0.89820766 1.1662973 -0.35765326 -0.54079264 -1.0610979 0.55231625 1.3282851
-1.0469856 -0.7384733 -0.6645185 -0.49862915 -0.7377081 0.51991516 -0.0022239687 -0.55461335
0.38523644 -1.019878 -0.5221945 -0.29917198 0.37783888 -0.5790413 -0.7308112 -0.2656231

conv.6.running_var f4 [128]
00000000: 0b81 d83e c5e3 2b3f e41c 3c3f edb8 113f
00000010: cfad ac3e bc17 723f 4575 113f 43a2 323f
00000020: 2e67 9c3e 4fed 693f 6bf0 223f 61d8 ce3e
00000030: b586 a03f 1107 af3e 38da 003f e7ec 3d3f
00000040: dc30 513f 84da af3f 8eeb 3d3f 47dd be3e
00000050: 6c85 233f 7eb2 eb3e 98fd 253f 7165 193f
00000060: 4e69 933e 3693 833e 026a f93e 9cfd 173f
00000070: 99cc 303f 3026 fc3e ae4e 083f 1ec8 2c3f
00000080: 6701 953f 10bc 1c3f 12ba c43e 3785 033f
00000090: 5600 7d3f 7b3c ab3f 360e 8c3e 0d20 743f
000000a0: b152 c93e 07fe 4d3e 35a4 e53e 84b4 3c3f
000000b0: 8b52 ef3e ccf4 d63e 2c2e 5f3f 1512 c63e
000000c0: 43d5 e93e d383 1a3f 40d3 0d3f e981 013f
000000d0: 6e89 043f 12c6 503f 3adb 9a3e 39b7 143f
000000e0: 84ea d83e 57e7 1a3f 6c45 9c3f bd45 053f
000000f0: f4f8 173f dcde ee3e 1b8d 6c3f ca1c 0c3f
00000100: e1ea 203f 2004 393f d5eb f13f 5342 1f3f
00000110: 632a 363f 8391 203f 0a90 733f 70a5 113f
00000120: b366 8c3f ffb3 e23e b52d 553e ebe2 363f
00000130: ea69 c73f 7c77 153f 5074 5d3e 50a1 5d3f
00000140: 6a9f 833f 82ae a03e d2f4 2a3f 8f8d 753f
00000150: cc3a 903e ecab 6e3f 030f 913e 5ea9 493f
00000160: de79 9c3e 9bff 1c3f 4ed0 b33e 7e23 d33f
00000170: d536 573f 603b 303f 54ed 2c3f 5d5b 213f
00000180: 9b65 913f afab 8a3f 3192 463f 6560 933f
00000190: 2cb7 e93e 73a3 223f f191 273f 8d9b 613e
000001a0: 70fd 4a3e 275a 323f 286a 0d3f c8f7 d53e
000001b0: b187 543f 51c3 443f 9c21 533f fca2 563f
000001c0: cac3 2b3f 5343 e53e 487b 873f 2df8 4c3e
000001d0: eeb1 743f c625 063f 7a4e 043f efa7 7c3f
000001e0: e39f 1f3f c8a4 d03f dc87 a33e 4bcb 053f
000001f0: 54d5 0e3f b8a7 fb3e 96d8 8c3e bd6d 0b3f
0.42285952 0.67144424 0.73481584 0.569228 0.33726355 0.94567466 0.56819564 0.6977884
0.3054747 0.9137773 0.636481 0.4039946 1.2541109 0.3418508 0.50332975 0.7418961
0.8171518 1.3738561 0.7418755 0.37278196 0.6387546 0.46034616 0.6484008 0.5992041
0.2879128 0.2569825 0.4871369 0.5937135 0.6906219 0.49247885 0.53245056 0.67492855
1.1641053 0.6122446 0.3842321 0.51375145 0.9882864 1.3377832 0.27354592 0.95361406
0.393209 0.20116435 0.44851843 0.73712945 0.46742663 0.4198364 0.8717983 0.3868567
0.45670518 0.603574 0.55400467 0.5058885 0.517722 0.8155223 0.30245382 0.58092076
0.4236642 0.60509247 1.2208686 0.5205954 0.5936425 0.46654403 0.9240281 0.5473143
0.62858397 0.7227192 1.8900095 0.6221058 0.71158427 0.62722033 0.9514166 0.5689306
1.0968841 0.4427795 0.20818217 0.7144 1.5579197 0.58385444 0.21626401 0.8657427
1.0283024 0.3138314 0.66779816 0.95919126 0.28169858 0.9323108 0.28331766 0.7877406
0.30561727 0.61327523 0.3511986 1.6495206 0.8406804 0.688406 0.67549634 0.63030034
1.1359133 1.0833644 0.7756682 1.1513792 0.45647562 0.63530654 0.65457064 0.22031994
0.19823241 0.6966881 0.55240107 0.41790605 0.8301955 0.7686053 0.8247316 0.83842444
0.67095625 0.44777927 1.0584497 0.20016547 0.95584 0.5240139 0.51682246 0.98693746
0.6235334 1.6300287 0.3193959 0.52263325 0.5579426 0.49151397 0.27508992 0.5446432

conv.10.weight f4 [256, 128, 3]
00000000: af59 8dbc 67e6 98ba 7289 27bd 2016 863c
00000010: df31 573d 2aca f63c ffa4 94ba adc5 10bc
00000020: fa0b 91bc 47b6 23bd 4ba4 23bd df2a ccbc
00000030: 3275 21bc a7dc e3bc 0465 0dbb 56b0 1dbd
00000040: c04f 23bc 0d23 26bc e729 39bd a7fe e4bc
00000050: ab24 dabc d8e0 e1bc 0ff5 1dbc e86c 6ebc
00000060: 2dd2 48bc 483b ca3c 9c89 3e3a b4e2 68bc
00000070: ca9f 6f3d a5e8 003d 039b 863c ea88 9cbc
00000080: 1edf 573c b092 843c e1c2 053c 2b93 82bc
00000090: ae3c 2a3d e3ea b4bc ff00 2abc 9f00 0e3c
000000a0: 7bc7 96bb e2be 8c3c 0bae 7cbd 85a4 a7bd
000000b0: c441 84bd 9c4a 3a3c eb6f 953c 6b38 853c
000000c0: 7a1d 19bd 8a52 4abd 8f12 f2bc bfc8 58b8
000000d0: 6753 933c 69da ed3c 7d81 3b3d 51d3 b03c
000000e0: 4f5e f73c 806b ebbc 3097 03bc 0628 b23b
000000f0: 2764 4abd 5ebc 21bc 77a6 e2bc f29a 813c
00000100: 01e5 03bd 4b9e 05bd ecfe d2bb 1541 f63c
00000110: 0e0f 9ebc bc87 5c3d e61e 8d3c 79ba 473c
00000120: 5040 06bd 9e2e e03c 1b10 f3bb 5a77 033c
00000130: 86cc 60bd daeb caba 8e4e 2e3d 3889 16bd
00000140: 420a c93b 051e d13c fd4a 3cbc af8c b2bc
00000150: 6ce9 9f3c ed09 61bc c93d 503d 6686 21bd
00000160: 39e2 ab3c 83b5 2c3d 0fca 80bc e07f 873d
00000170: c53b 05bd 0224 eebc d827 ae3c add8 07bb
00000180: 3013 27bb 0e01 02bd d55a d2bc 7372 313c
00000190: 0ac6 6b3b fb81 033d da3a be3b 9c02 2cbc
000001a0: 13b5 2d3c dcc3 243c 9219 79bd daf3 733c
000001b0: f22d 1e3c 3906 26bc 3580 353d 003d 32bd
000001c0: 06bc e8bc 9e66 6cbd 805a 143c 1518 35bc
000001d0: afbd 8dbc 6149 d7bc fc47 973c bf05 813b
000001e0: 7675 4d3d 691f fdbc 7d0e 13bc 086b c5bc
000001f0: 01e2 603d 1ca8 ebbb 5c13 8cb9 231c 69bd
00000200: 8fca 81bb 8529 28bd f23b 1c3c 5289 8ebc
00000210: 016d d43c 37ca c63c d612 de3c 802a 763b
00000220: 6e18 27bd 6a96 343d f741 0cbd bd16 2dbd
00000230: 782e 2dbd 12a4 54bd 4ad8 3fbc 7753 153d
00000240: 5659 333d 9cbe 9abb bc61 cbbc 2943 5b3d
00000250: 85a8 273d 4dc1 6c3c 68aa e3bd 251d e7bd
00000260: 97fa 95bd 5082 623c 6688 f6bc 62f9 a33b
00000270: 1878 c9bb 1158 f53c daec 6dbc cfda 073d
00000280: 1c4e 02bd 54aa 3b3d 6b33 563c e27a 21bc
00000290: 1348 24bd a603 d6bb f9c6 553d 4b6e e13c
000002a0: 8063 3abb a110 f6bc f06b e0bb 093e 4f3d
000002b0: f3be c73c ea17 9e3d 2180 ec3c c92e 1ebd
000002c0: 55fd abbc 5591 0fbc d9fd 113d 5256 a5bc
000002d0: 92d0 04bd 69ea 143d e806 0f3d a114 12bd
000002e0: e16c a8bc e368 8f3c 9499 37ba a4cc 16bc
000002f0: 6287 a53c 514a 3f3c e4da 373b 5bb1 e73c
00000300: 231f 09bd 2fcf 8fbd 5878 acbd bc09 403d
00000310: 86ce 343c f891 523d 030a 973c a472 22bc
00000320: 0a87 163c 0528 943b 10be 6bbd 6a7b db3c
00000330: f20d 003c e2eb b23c 2ccf 3fbb 9a40 6abc
00000340: 4d0a 123c 13d4 9dbd ec8e 073d 6865 71bc
00000350: 0b86 703b 7af3 c3bc ef44 203b d756 06bb
00000360: 2216 fa3c 3bb1 333b 4a64 bdbc a9b8 52bc
00000370: 9ba0 03bc d606 8abc 54d8 2b3d a2e3 61bc
00000380: 535a d6bc 657f 0b3d 2226 d53b e389 c33c
00000390: c89a 54bd 427b a4bc b63a 27bc 39d7 0d3d
000003a0: c0af d8ba be12 8d3b 0b73 e53b f92b 8dbc
000003b0: 72d0 423d c7ae 8e3c bd52 01bd f114 bb3c
000003c0: 9dd5 34bd 045f c5bc b2d9 7d3c b166 27bd
000003d0: 1dfd e33b 525c 3a3d bdd8 003d 7e39 9dbc
000003e0: a5ab 063c 59c7 33bd b5c6 3a3d aebc b2bc
000003f0: 5c21 973c c9ec 40bc 110b ddbc 73f7 3e3c
-0.017254679 -0.0011665345 -0.040902562 0.016367972 0.052537795 0.030125696 -0.0011340677 -0.008836192
-0.017705906 -0.039968755 -0.039951604 -0.024922786 -0.009854602 -0.027815176 -0.0021575103 -0.038498245
-0.009967744 -0.010140193 -0.045205977 -0.027953459 -0.026628813 -0.027573034 -0.009640946 -0.014552332
-0.012257141 0.02468647 0.000726843 -0.0142142065 0.058501996 0.031471867 0.016431337 -0.019108254
0.013175754 0.016183227 0.0081641385 -0.015939316 0.041561775 -0.022084659 -0.010376214 0.00866714
-0.0046014166 0.017180864 -0.061689418 -0.081856765 -0.06457856 0.011370327 0.018241843 0.016262254
-0.037381627 -0.04939512 -0.029549865 -5.1685372e-05 0.017984105 0.02903481 0.045777787 0.021585139
0.030196337 -0.028737783 -0.008031651 0.0054369 -0.04941192 -0.00987157 -0.027667267 0.015820954
-0.032200817 -0.032621663 -0.0064390805 0.03006033 -0.019294288 0.053840384 0.017226648 0.012190455
-0.032776177 0.027365979 -0.0074176914 0.008024061 -0.05488255 -0.0015481666 0.042555384 -0.036751956
0.006135256 0.02552701 -0.011492488 -0.021795599 0.019520484 -0.013735277 0.050840173 -0.039434813
0.020981895 0.04216529 -0.015721349 0.06616187 -0.032527704 -0.029069904 0.021259233 -0.0020728514
-0.0025493614 -0.031739287 -0.025678078 0.0108305095 0.0035976195 0.03210638 0.0058053555 -0.010498669
0.0106022535 0.010056462 -0.0608154 0.014889682 0.009654509 -0.01013332 0.04431172 -0.043515205
-0.028409969 -0.05771505 0.00905478 -0.011053105 -0.017302362 -0.026280107 0.018466942 0.0039374526
0.050160848 -0.030898767 -0.008975622 -0.024098888 0.054903034 -0.007191671 -0.00026717305 -0.0569116
-0.0039609144 -0.04105522 0.009535776 -0.017399464 0.025930883 0.024266345 0.027108591 0.0037561953
-0.040794782 0.04408876 -0.034242596 -0.042258013 -0.042280644 -0.051914282 -0.011709282 0.03645655
0.04378637 -0.0047224294 -0.024826877 0.053530846 0.040932197 0.014450383 -0.11116487 -0.11284856
-0.07323187 0.013825014 -0.030094337 0.005004094 -0.0061483495 0.02994922 -0.014521802 0.033167657
-0.031812772 0.045816734 0.013073782 -0.009855958 -0.040107798 -0.0065311966 0.05219171 0.027518412
-0.0028440654 -0.030037226 -0.0068488047 0.05059627 0.024383044 0.07719405 0.02886969 -0.038618837
-0.020994822 -0.008762677 0.03564248 -0.020182762 -0.03242547 0.036356363 0.034918696 -0.035664205
-0.02055973 0.017506069 -0.0007003781 -0.009204064 0.020206157 0.011675433 0.0028054053 0.028282812
-0.03347696 -0.07021939 -0.08421391 0.046884283 0.011035567 0.051408738 0.018437391 -0.009915028
0.009187469 0.0045213723 -0.057554305 0.026792247 0.007815825 0.021840993 -0.0029267771 -0.014297629
0.008913589 -0.077064656 0.033095285 -0.01473365 0.003670099 -0.02391981 0.002445515 -0.0020498538
0.030528132 0.002741887 -0.02311911 -0.012861409 -0.008033897 -0.016848963 0.041954353 -0.013787182
-0.026166117 0.03405704 0.00650479 0.02386946 -0.051905423 -0.020078305 -0.010206869 0.03462908
-0.001653187 0.0043052128 0.0070022396 -0.017232882 0.04756207 0.017417325 -0.031573046 0.022837134
-0.04414903 -0.024093159 0.015493797 -0.04086942 0.0069576637 0.0454982 0.031456698 -0.019192453
0.008219634 -0.043891285 0.045599658 -0.021818485 0.018448524 -0.011775204 -0.026982816 0.011655676

conv.10.bias f4 [256]
00000000: 68fd d53b 4102 423d 4682 2b3d 5a3d e13c
00000010: cd32 d03c 02fa f9bc 7208 ca3c afb5 32bc
00000020: 4067 df3b 2d14 87bc 5b4b 99bc 38f9 bbbc
00000030: c07f a4bc 1e39 603c f7bf 233d 5d31 ef3c
00000040: 3ddf f53c fc76 9d3a 172d 273c 1396 84bc
00000050: 8c08 79bb b690 573b b595 343d afcb 0bbd
00000060: b16a a9b7 82a3 ba3c 2ebe 613c 2d47 983c
00000070: f0b7 23bd 0500 d9bc 874f 083d 3f84 24bd
00000080: 62af 5d3c 4666 c3bc cd1d aabc 0688 a33b
00000090: 88ec 933c 6faa 53bc 4848 083d 7250 453d
000000a0: ad85 403d b732 4a3d f464 143d 7e51 053d
000000b0: ba7e cfbc 30d6 c8bb ca45 bdbc 3d4f 973c
000000c0: 9f10 fdbc f75b 513d 4ceb 173c 475a 26ba
000000d0: 77f5 30bd 1094 bc3c 922d b53c 47b8 ff3a
000000e0: 1d6c 353d ee55 a63c 6665 cebc 0804 ce3c
000000f0: fbe0 a63b 8210 c4bb e04e 343d f8e7 40bd
00000100: 8ab3 2b3d d2af 70bc 0920 ec3c 2964 673b
00000110: df30 8ebc c934 863c b60e 9ebb 9afb 793c
00000120: bb6b 43bd 9bec ce3c 1ec5 023d b950 be3c
00000130: d9d7 c0bc fe13 4e3c 977e 533c 5340 293d
00000140: d23e 9f3b ec53 a8bb b101 20bd 42ef 4e3d
00000150: de9c c83c 764f 5abc 8540 7a3b 8567 6c3b
00000160: e4ed afbb d471 a53b c103 423d 1091 54bc
00000170: 16e0 6b3a e999 08bd 5635 043d 91e7 9a3b
00000180: a8b7 5abc ae4e cbbc 39ff e4bc d112 65bc
00000190: d6a7 4f3d 4ef4 c9ba 6a90 1cbd 2fc5 033c
000001a0: 4cbe 4abc ef07 67bc f8b3 373d b26b dd3c
000001b0: c897 ee3c d095 e03b 7097 bd3b 82f3 8ebc
000001c0: c77f c33c 7fc7 fabc 4209 f73b 1d67 973c
000001d0: afd5 04bd 9e51 bf3a 565e b53a e0a2 a0bc
000001e0: b1f2 2ebd 7691 debc 7799 8b3c cd78 16bd
000001f0: 7056 2f3c db47 40bd b319 2dbd 266f 9dbb
00000200: 4024 c93c abc5 5a3c e102 38bd 9eb0 14bd
00000210: fedb 48bc 41d1 00bc 9c2c b8bc 3b2f 2bbb
00000220: 2b55 e33a d243 353d 5973 a4bc 4fc4 263d
00000230: 0d48 ab3c 2620 f43b ba40 e7bc ff86 36bd
00000240: 9547 27bd 4243 303c 227c 263d b336 513d
00000250: ccd2 ae3c 93ce 3dbd d2d9 eeba 0087 513c
00000260: c947 723a 4f15 30bd 564b a43c 72f0 363c
00000270: be07 b6bc 2126 493d 17f5 483d 6a0f 3b3d
00000280: 96b4 81bb 9222 94bc c5d6 a1bc 6449 3bbb
00000290: 7c9e 3b3d ae14 6dbc ec58 923c 52d3 2e3d
000002a0: 7d61 a8bc 774f 0fbd 47a7 e23c adb7 203c
000002b0: 5cb9 223c f306 2a3d 73d8 0d3c 583d 31bd
000002c0: 74de 123d eccd 093d 6cb0 2bbd 62fa dbbc
000002d0: 763e 8bbc a6b0 4a3c f48d 863c c9d1 113d
000002e0: b40d 59bc 151c 043d d494 afbc 2c8a bbbb
000002f0: 8c53 b03c 0804 283c b477 823b 53e7 f93c
00000300: 8f3b 203c 635e 8fbc f997 12bb 2e7d 153d
00000310: 6611 0e3d a609 02bd 2d55 09bd 06f7 c6bc
00000320: 22e1 b43c 127f 91bc 631d d33c a00e c83c
00000330: e294 2d3d 3cd2 203d 9e12 a9bc b3d1 08bd
00000340: 8ad0 5f3c 5451 18bd 4c73 283d da26 35bd
00000350: ac52 84bc fcf0 aabc 5d3c 20bd 6ac8 e7bc
00000360: e967 4c3d 818c 42bd 01ee 0bbd bbe1 be3c
00000370: a6b5 8fbc c182 16bc e345 12bd 2037 493d
00000380: 4fb2 26bd 49c7 01bd 3bdc 13bd c60e 3f3c
00000390: 4048 16bc 0821 043d 598c 2a3c 6b79 e83c
000003a0: 4e1b 7cbb 8c49 b63c 0f26 a53c 69ed 073d
000003b0: 4ccd cd3b 45a8 2abd 8440 13bd b0ea d5bc
000003c0: d156 36bc 8235 0abc 32d8 0abc 256c 54bc
000003d0: 4e19 b3bc 2992 94bc 489e e9bc e264 483d
000003e0: 97cd c2bb a75d 223d 094d 393c 4f7a 02bc
000003f0: b50f 2c3d 78fe 003d 42ec e239 4f59 bbbb
0.0065304525 0.04736543 0.041872285 0.027495075 0.025414849 -0.03051472 0.02466223 -0.010907575
0.0068177283 -0.016489113 -0.01871269 -0.022945985 -0.020080447 0.013685493 0.039977994 0.029198343
0.030013675 0.001201361 0.010203621 -0.016184842 -0.003799948 0.003289265 0.044088084 -0.034129795
-2.0196052e-05 0.022783045 0.0137782525 0.018588627 -0.03997034 -0.026489267 0.03327897 -0.040165182
0.013530584 -0.023852479 -0.020766163 0.0049905805 0.018057123 -0.0129190525 0.033272058 0.04817242
0.047002483 0.04936477 0.03622909 0.03254842 -0.025328983 -0.0061290488 -0.023104567 0.018470401
-0.030891715 0.051113095 0.009272408 -0.000634585 -0.043202844 0.02301982 0.022116456 0.0019509875
0.044292558 0.020304646 -0.025194835 0.025148407 0.0050927377 -0.005983413 0.044020534 -0.047096223
0.04191927 -0.014690356 0.02882387 0.0035307503 -0.017357288 0.016382592 -0.004823531 0.01525774
-0.04771016 0.025259307 0.031926267 0.023231851 -0.023540424 0.012578009 0.012908599 0.04132111
0.0048597837 -0.0051369574 -0.039064113 0.050521143 0.024488863 -0.013324609 0.003818543 0.0036072445
-0.005368935 0.0050489698 0.04736686 -0.012974039 0.000899793 -0.033349905 0.032277428 0.004727312
-0.013349451 -0.02481779 -0.02795373 -0.013981537 0.05069717 -0.0015407891 -0.03822366 0.008042618
-0.012374472 -0.014101013 0.044849366 0.027028892 0.02912511 0.0068537965 0.005785875 -0.017450098
0.02386464 -0.030612705 0.0075389454 0.018481785 -0.032430347 0.0014596467 0.0013837318 -0.019608915
-0.042711917 -0.02716897 0.017040951 -0.0367363 0.010701761 -0.046943527 -0.042260837 -0.0048045097
0.024553418 0.013352792 -0.04492462 -0.036301248 -0.0122594815 -0.00786239 -0.022482209 -0.002612068
0.0017344108 0.04425413 -0.020074533 0.04071456 0.02090838 0.0074501215 -0.028229106 -0.044562336
-0.04083975 0.010758223 0.040645726 0.051077556 0.02134075 -0.046339583 -0.0018222874 0.012788534
0.0009242264 -0.04298907 0.020055454 0.011165725 -0.022220489 0.04910863 0.04906186 0.045668997
-0.003958295 -0.01808289 -0.01975573 -0.002857768 0.04580544 -0.014470262 0.017864667 0.042682
-0.020554299 -0.034987893 0.027667655 0.009809417 0.009931888 0.041510534 0.008657563 -0.043271393
0.03585668 0.033643648 -0.041916296 -0.02685279 -0.016997557 0.012371218 0.01642511 0.035600457
-0.013247896 0.032253344 -0.021433271 -0.0057232585 0.021524213 0.010254867 0.003981555 0.030505812
0.009779825 -0.017501062 -0.0022368415 0.036496334 0.03468456 -0.031747483 -0.033528496 -0.024287712
0.022080008 -0.017760787 0.025770849 0.024421036 0.042378314 0.039262995 -0.02063876 -0.03340311
0.013660559 -0.037186936 0.04112558 -0.044226505 -0.016152702 -0.020866863 -0.039120067 -0.028293807
0.049903784 -0.047497276 -0.034162525 0.023300996 -0.017542671 -0.009186448 -0.03571118 0.049124837
-0.040697392 -0.031684194 -0.0360987 0.011661237 -0.009172499 0.032258064 0.010409438 0.02837821
-0.0038468423 0.022251867 0.02015975 0.033185396 0.006280577 -0.04166438 -0.0359502 -0.026112884
-0.011129097 -0.008435609 -0.008474397 -0.012965237 -0.021862652 -0.0181361 -0.028517857 0.048924334
-0.0059449184 0.039640095 0.0113098705 -0.007963731 0.042007167 0.03149268 0.00043282105 -0.0057174335
