output/electricity_cnn_20260221_230745/checkpoints/epoch_5.pt (torch, 766789 bytes, 23 tensors)

conv.0.weight f4 [64, 15, 7]
000000 f1 87 bb 3d 4d e3 d3 3c 14 ab d7 3c e6 1f d8 3c
       0.09156788 0.025865221 0.026326694 0.026382398
000010 f0 1c 04 3d 61 1a 26 3c 4f 3f be bc b8 b8 9d 3d
       0.03225416 0.010138125 -0.023223547 0.07701248
000020 7f 3e fb bc 74 7e 9e bd cd 6b 74 bd 4a 86 a0 bd
       -0.030669449 -0.07738963 -0.05967312 -0.078381136
000030 aa a7 63 bd 8e 02 8a 3d 86 da 7a bc da 2e 83 3d
       -0.05557982 0.067387685 -0.015310889 0.064054206
000040 d4 3a 43 bc fa 84 43 3d 57 6c 68 bd 0a 0d d9 3c
       -0.011915881 0.04773424 -0.056743946 0.026495475
000050 53 54 5b 3d 70 ad c6 bd 43 97 d9 bd e8 9c 97 bd
       0.053547215 -0.09701049 -0.10624554 -0.07402974
000060 a8 db 47 3d 6b 78 0d 3d 4c 34 4e 3d 1f 9a 87 bd
       0.048793465 0.034538668 0.050342843 -0.06621193
000070 18 32 74 3d 99 88 81 bc 9c 0b a0 bd 41 c0 fd 3c
       0.059618086 -0.015812205 -0.07814714 0.030975463
000080 9b e7 33 3a 72 23 0f 3d db d7 92 3b d1 e5 82 3c
       0.000686282 0.034945913 0.0044812984 0.015978726
000090 74 c6 b1 3d 37 d4 5a bd 66 fe 99 bd d0 14 03 3d
       0.0868043 -0.05342504 -0.07519226 0.03200227
0000a0 42 58 1b 3c 7f b4 53 bd 8d db 4f 3c 97 35 f6 3c
       0.0094814915 -0.051685806 0.012686622 0.03005485
0000b0 e8 85 fb 3c 67 2e 3f bb df 36 9b 3d 3b 5c 55 bd
       0.0307035 -0.0029171945 0.07578825 -0.05208991
0000c0 e9 72 ac 3c c5 5b c4 bd e7 71 54 bd 0f df 82 bd
       0.021050887 -0.09587816 -0.05186644 -0.06390201
0000d0 f7 8c a8 3d b1 0c 81 bd 33 e0 91 bd a1 4a ac bc
       0.08230012 -0.06301249 -0.07122841 -0.02103168
0000e0 1c 00 8a bd 47 59 0a be 1b 16 81 bd 0e 9c d6 bc
       -0.06738302 -0.13510619 -0.063030444 -0.02619746
0000f0 7e f7 f3 bd 43 a8 81 bd 60 10 1d be 46 1d 0c 3d
       -0.1191244 -0.063309215 -0.15338278 0.034207605
000100 fa 25 b3 3d 61 e1 67 bc 4a 61 c2 bc d4 62 b8 bd
       0.08747478 -0.014152856 -0.023728032 -0.09003225
000110 99 22 35 bc 23 0f 8b 3d ab 6e 6e bd da 28 82 bd
       -0.011055612 0.067899965 -0.05821101 -0.06355448
000120 94 1b 22 bb c8 19 9f 3d bd 16 84 3d 55 1e b3 bd
       -0.0024735676 0.07768589 0.064496495 -0.0874602
000130 ca 1b 2a bd 60 14 98 3d 8e 44 e1 3c aa ce 6c bd
       -0.041530408 0.07425761 0.02749851 -0.057814278
000140 1d b6 07 3c 45 f4 a8 3c 14 36 c8 3d dc d1 f9 bc
       0.008283165 0.02062429 0.097759396 -0.030495577
000150 93 be 53 bc ab 94 59 bd e1 91 a5 bc 59 e0 2a bd
       -0.012923854 -0.053120296 -0.020211162 -0.04171786
000160 b6 24 a4 bc fc 38 19 3d 8e 1a 4e 3d 43 75 aa 3c
       -0.020037036 0.03740786 0.050318293 0.020807868
000170 10 0e b0 3d aa 14 7a bd 23 16 3e bd d9 ac 8e bd
       0.08596432 -0.061054863 -0.04640783 -0.06966562
000180 d3 b0 aa 3b 10 e0 88 bd 89 17 a8 3c de 42 ab b9
       0.0052090674 -0.066833615 0.020519035 -0.00032665482
000190 0f 3b bf bc d5 33 b6 39 26 cd 62 bc b2 c6 9c bd
       -0.023343591 0.00034752363 -0.0138428565 -0.076550856
0001a0 91 5f e5 3c 37 4b 20 3d 3a e6 91 3d 80 9c d0 3d
       0.027999671 0.03913423 0.0712399 0.101861
0001b0 47 ed 85 bd de 51 cc 3c d0 21 2f 3d 67 b8 a1 bd
       -0.06539398 0.024941381 0.042756855 -0.078965
0001c0 40 e1 93 bd 83 22 05 3c ee 6a 7d 3d c9 6f c1 3d
       -0.072206974 0.008125904 0.061869554 0.094451495
0001d0 93 26 54 bc 2e 4f 06 3d 07 d9 9d 3d 24 45 f8 bc
       -0.01294865 0.032790355 0.0770741 -0.030306406
0001e0 94 87 43 bc 60 7f 64 3d 59 67 d1 3b c8 b5 e6 bc
       -0.01193418 0.055785537 0.006390494 -0.028162852
0001f0 dc bc 84 bd ea 47 d7 3d 21 a4 81 3c c0 10 c9 bd
       -0.064813346 0.105117634 0.015825333 -0.09817648
000200 44 4e ba bd a0 e9 f5 3c 17 11 62 bd 79 17 21 3c
       -0.09096959 0.030018628 -0.05519208 0.0098322565
000210 a4 9f 50 bc 08 c5 d4 bb f9 fc 3f bd f0 5e d0 3d
       -0.012733374 -0.0064932145 -0.046872113 0.10174358
000220 0e 20 11 bd d4 1e 6c bd a0 61 96 bd 2b 28 10 bc
       -0.03543096 -0.057646587 -0.07342839 -0.008798639
000230 1e 40 89 b9 b3 dc c2 bb b5 ef b0 3c c9 8d 79 3d
       -0.00026178447 -0.0059467196 0.021598676 0.060926232
000240 69 22 9e bc 79 e0 8a bd 21 69 7d 3c b8 ef 7c bd
       -0.019303517 -0.06781096 0.015466959 -0.06175205
000250 09 25 0c bd ee 55 90 bb 1a 8c a4 bc 63 89 ca bc
       -0.034215007 -0.004404775 -0.020086337 -0.024723714
000260 6b 56 ab bd c5 2a 12 bc 27 78 ea 3c a8 2a d2 ba
       -0.08366092 -0.00892133 0.028621746 -0.0016034441
000270 42 09 b3 3d a9 98 ac bd 08 10 40 bd 60 98 72 3d
       0.08742 -0.08427555 -0.04689029 0.059227347
000280 8c c0 9c 3d 28 32 93 3d a0 f6 d4 bc ee eb e8 bd
       0.07653913 0.07187301 -0.025996506 -0.11373125
000290 7e 33 18 bd 1a b2 aa bd 85 e6 29 bd 09 ea dd bc
       -0.03715848 -0.083347514 -0.041479606 -0.027089136
0002a0 2b 2b ac bd 1f 2c e3 bd 3f d7 3e bd 60 27 6c bd
       -0.08406671 -0.110924 -0.046591993 -0.05765474
0002b0 c3 48 cf 3c ff 60 45 3a 94 3f 78 bd d0 2a e4 bc
       0.02530325 0.0007529407 -0.060607508 -0.027852446
0002c0 6f 2c c9 3b db 56 64 3d ec db da 3a c8 93 8f bd
       0.00613933 0.055746894 0.0016697622 -0.07010609
0002d0 14 d5 86 bc 28 d7 82 3d f0 76 27 bc 47 94 68 bd
       -0.016459025 0.06388694 -0.010221228 -0.056782033
0002e0 c8 8a 2f bd e1 75 68 bd d5 47 b7 3b e9 52 b5 bd
       -0.04285696 -0.056753043 0.00559328 -0.088537045
0002f0 02 67 40 bd 41 55 0d 3d 22 11 ec 3c 34 b9 02 bd
       -0.046973236 0.034505133 0.028816763 -0.031914905
000300 c7 ba ab bd 99 a6 57 3d a1 d4 44 bd 8b 5a 92 3b
       -0.08385234 0.052649114 -0.04805434 0.00446636
000310 c9 26 91 bd b3 b2 a6 3d 10 22 42 bd d7 72 9e bd
       -0.07087476 0.08139553 -0.047395766 -0.07736748
000320 f4 58 10 bd 82 9d c6 3b 77 68 85 bd 41 4b bb 3d
       -0.035241082 0.006061257 -0.06514066 0.09145213
000330 15 00 a4 bd 7b 6a f3 3c 54 ce 19 3d bb 82 cb 3d
       -0.08007828 0.02971386 0.037550285 0.09937044
000340 66 8e 1b bd 62 3d 67 3d 69 16 06 bd de b1 1b 3d
       -0.0379776 0.056455024 -0.032736216 0.038011424
000350 d5 52 9d 3d 62 d4 a1 3d 4a 31 9e bd 82 0e e1 3c
       0.076818146 0.07901837 -0.07724245 0.027472738
000360 cd 93 af bd 8b 9b 80 bc 32 39 78 3c eb ea 7b bd
       -0.08573113 -0.015699169 0.015150355 -0.061503332
000370 da 1d aa bd 83 7c 9f bd aa b0 74 bd d3 1b 4a 3d
       -0.08306475 -0.077874206 -0.059738792 0.04934294
000380 51 4a 88 3d ce 93 af bd 43 52 bb bd 9b 37 b3 3d
       0.066548 -0.085731134 -0.091465496 0.0875084
000390 e3 e0 76 bd 67 b6 61 3d 3c 9e 02 3c c5 0e e9 bd
       -0.060273062 0.055105593 0.007972296 -0.1137977
0003a0 2e 9d cb bd f4 6e 55 3d 0c 29 cd bc 60 4b 62 3d
       -0.09942089 0.052107766 -0.025043987 0.055247664
0003b0 e8 42 70 3c 38 70 04 bd 06 b5 97 3d f2 62 1a 3c
       0.014664389 -0.032333583 0.07407574 0.009423004
0003c0 34 3e 4f bd 32 f4 23 bd 86 15 94 3d da c5 ae bd
       -0.05059643 -0.040027805 0.07230668 -0.08533831
0003d0 8e 6c 6e bd b9 82 c3 3d ca 94 a1 bd ed 7f cb 3d
       -0.058208995 0.09546418 -0.078897074 0.09936509
0003e0 ca 25 63 bd b4 5d 9c bd 7b 66 70 bd f9 61 51 3d
       -0.05545596 -0.0763506 -0.058691483 0.051118825
0003f0 71 43 97 3d e0 a1 52 3d 64 f3 90 bd 48 14 09 bd
       0.0738591 0.051423907 -0.07077673 -0.033466607

conv.0.bias f4 [64]
000000 f3 15 aa 3d d9 64 65 3d f6 60 ac 3c f6 61 29 3d
       0.08304968 0.05600438 0.021042328 0.04135319
000010 1f b9 4e 3d 11 52 a4 3d 4e ad 03 3d a6 34 11 bc
       0.050469514 0.080234654 0.032147698 -0.00886265
000020 25 b9 3b bd 2e 4d c0 bd 88 cb b3 bd 46 ee 11 3c
       -0.045830864 -0.09389721 -0.08779055 0.0089069065
000030 67 2e 74 3d 12 5b c7 bd 4e 49 ad bd dc 4d 6b bd
       0.059614565 -0.09734167 -0.084612474 -0.0574473
000040 64 f5 2f bd e6 43 b9 bd 59 45 b4 bd 4f a5 04 3d
       -0.042958632 -0.09046154 -0.088022895 0.032384213
000050 17 ea 17 bd a4 44 8e 3d bd da 18 3b 70 41 78 bd
       -0.03708848 0.06946686 0.0023323738 -0.06060928
000060 43 17 a1 3d ac f3 83 3d c6 c8 a1 3d 4f ae ba bd
       0.07865765 0.06442961 0.078996226 -0.09115278
000070 e2 4a 4b 3c 9c 91 6e bd ba 45 8b bd 56 d1 92 3d
       0.01240799 -0.058244333 -0.06800409 0.07168834
000080 f7 19 b5 3d 20 71 ec 3c 92 29 8c bd 82 e7 93 bd
       0.08842843 0.028862536 -0.068438664 -0.07221891
000090 ba 5f 79 bc 38 80 5d 3c 52 f4 f9 3c de 12 33 3d
       -0.015220577 0.013519339 0.030512009 0.043719165
0000a0 df a4 51 bc 4c 56 62 bd 87 11 46 bc 71 79 87 3c
       -0.012795656 -0.05525808 -0.01208914 0.0165374
0000b0 5a d7 0c bd 5c 26 e7 bc bf a1 44 3d 2e 15 b1 3d
       -0.034385063 -0.028216533 0.048005816 0.08646618
0000c0 cd 0e 37 3d c1 29 da 3c 0c 9c c5 bb 5b 05 b3 bc
       0.04469185 0.026631238 -0.006030565 -0.02185314
0000d0 d5 6c 6f 3d c5 15 4e bc d4 cf c8 3d a6 a8 88 bd
       0.0584534 -0.012578432 0.09805265 -0.06672792
0000e0 5a 9a dd 3a 4b cf 65 3d ae c9 8a bb f5 1d 86 bd
       0.0016906962 0.056105893 -0.004235468 -0.065486826
0000f0 90 af 93 3d 8d 61 64 3d 78 ea 87 bc 57 cb 15 bc
       0.0721122 0.055757094 -0.016591296 -0.009142718

conv.1.weight f4 [64]
000000 84 03 7f 3f cf 60 75 3f 7e 50 80 3f 2b 83 7e 3f
       0.9961474 0.95850843 1.0024564 0.99418896
000010 02 68 80 3f 09 e8 7f 3f 02 84 7e 3f 98 ae 77 3f
       1.0031741 0.9996343 0.9942018 0.96750784
000020 b3 30 7d 3f c1 b8 87 3f 39 7e 83 3f be 30 88 3f
       0.98902434 1.0603257 1.0272895 1.0639875
000030 87 3b 7e 3f 0c 2f 79 3f 4e 05 7c 3f 0a f5 83 3f
       0.9930958 0.9733741 0.98445594 1.0309155
000040 97 7e 7d 3f 35 69 80 3f 2a 77 88 3f 87 ed 83 3f
       0.99021286 1.0032107 1.0661366 1.0306863
000050 31 e5 81 3f 27 cc 80 3f 15 25 8c 3f 5d fb 85 3f
       1.0148069 1.0062302 1.0948817 1.0467335
000060 9e 38 85 3f da 42 80 3f aa 4b 7b 3f 70 f0 7f 3f
       1.0407903 1.0020401 0.9816233 0.99976254
000070 2c 87 74 3f 54 09 80 3f 0b 3d 7a 3f 33 b4 82 3f
       0.95518756 1.0002847 0.97749394 1.0211242
000080 af c1 78 3f b1 93 7c 3f 22 da 7d 3f 63 80 74 3f
       0.9717054 0.9866286 0.9916097 0.955084
000090 cb f8 80 3f 17 cb 74 3f 9c c5 81 3f 2d 7e 7f 3f
       1.0075926 0.9562239 1.013843 0.99801904
0000a0 93 96 7b 3f 4f 7b 81 3f b0 76 7f 3f 6f b3 78 3f
       0.98276633 1.0115756 0.9979048 0.97148794
0000b0 7f 3e 8a 3f 42 b0 7b 3f 2a 40 78 3f 4b 3a 80 3f
       1.0800322 0.98315823 0.96972907 1.001779
0000c0 e7 6f 82 3f 52 c3 78 3f 00 67 72 3f e1 07 80 3f
       1.01904 0.97173035 0.94688416 1.0002404
0000d0 4c 67 77 3f 7a db 7b 3f 8d b4 82 3f d0 e7 7e 3f
       0.96641994 0.9838177 1.021135 0.9957247
0000e0 9e 28 89 3f 11 41 7b 3f 70 f5 8d 3f 71 13 81 3f
       1.071552 0.9814616 1.1090527 1.0084058
0000f0 06 16 7e 3f 2e f5 7a 3f 94 96 82 3f c3 85 7a 3f
       0.99252355 0.98030365 1.0202203 0.97860354

conv.1.bias f4 [64]
000000 fb 4f a6 bc d9 75 0c bd 36 65 ed bc ba c9 9c bc
       -0.02030181 -0.034292076 -0.028978925 -0.01913916
000010 f7 42 ba bc a0 59 66 bc 49 52 d9 bc b1 0a bc bc
       -0.02273701 -0.014059454 -0.026528494 -0.022954317
000020 d6 00 a2 bc 31 1d 8f 3b e7 8a 8e bc 70 c9 87 3c
       -0.01977579 0.0043674936 -0.017400218 0.016575545
000030 88 0f a9 bc 8b 7a 41 bc f4 95 39 bc 34 e9 06 bd
       -0.020637289 -0.011809002 -0.0113272555 -0.032937244
000040 ec d1 5a bd b0 0f f5 bc 29 08 65 3c 82 f4 60 bd
       -0.053422853 -0.029914707 0.013978996 -0.05492068
000050 b2 db 05 bd 72 d9 47 bd 68 a1 29 3d 77 d3 2e bc
       -0.03268022 -0.048791356 0.041413695 -0.010670534
000060 29 24 42 bc 5a 13 a9 bc cd ba 06 bd b3 7f 85 bb
       -0.011849442 -0.02063911 -0.03289299 -0.004074061
000070 dc f5 67 bc 48 c8 09 bd 46 35 0e bd 1c 72 8c bd
       -0.014157739 -0.03363827 -0.034718774 -0.06857702
000080 34 2b eb bc 9f 4b e7 bc 86 51 bb bc 30 43 2f bd
       -0.028707124 -0.028234301 -0.022866022 -0.042788684
000090 e0 9d b8 bb 3a 6f 11 bd cf 22 89 bc 19 95 7d bc
       -0.0056340545 -0.035506465 -0.01674023 -0.015477442
0000a0 87 46 45 bc e3 bd ac bc f8 2d 2d bc 4b 4f 11 bd
       -0.012040741 -0.021086639 -0.010570042 -0.03547601
0000b0 f7 29 99 3c ed 86 9b bc fd eb 29 bc 65 10 f3 bc
       0.018696768 -0.018985236 -0.010371205 -0.029670903
0000c0 9d e1 17 3c ce 0f c6 bc df 7e 05 bd 91 cd f0 bc
       0.009270099 -0.024177458 -0.032591697 -0.029394897
0000d0 74 93 13 bd 00 bc 26 bc 13 18 ee bc cb 38 67 bb
       -0.036029294 -0.010176659 -0.029064214 -0.0035281654
0000e0 95 e8 e9 3b 9f 28 1a bd 28 a6 1a 3d ba b1 42 bb
       0.0071383216 -0.037636396 0.037756115 -0.0029707984
0000f0 93 d6 87 bc 77 c8 29 bd d5 54 3a 3c 5c 63 e7 bc
       -0.01658181 -0.041450944 0.011372765 -0.02824562

conv.1.running_mean f4 [64]
000000 99 bb ba 3d 71 7e 66 3d 9b 86 d3 3c a1 b2 16 3d
       0.09117813 0.056272928 0.02582102 0.036791448
000010 97 9c 54 3d ad 3c ab 3d 14 0f 19 3d 99 15 4e bc
       0.05190715 0.08361182 0.037367895 -0.0125783915
000020 a5 df 2b bd 79 dc c6 bd fb 81 a3 bd 38 ea 00 3c
       -0.04196133 -0.097100206 -0.07983776 0.007868342
000030 b8 31 56 3d 2c 6d d3 bd 72 b9 b1 bd 30 7f 62 bd
       0.05229351 -0.10323557 -0.08677949 -0.055297077
000040 b8 6b 2d bd 04 12 b8 bd a8 2e af bd a2 65 10 3d
       -0.042339057 -0.08987811 -0.08553821 0.035253175
000050 54 0c fb bc 16 98 9e 3d ff 04 85 3b 12 35 70 bd
       -0.030645527 0.07743852 0.0040594335 -0.05864436
000060 25 69 9f 3d bf 2b 7d 3d 86 42 a0 3d a2 80 c3 bd
       0.077837266 0.061809298 0.07825188 -0.09546019
000070 5d cd 2e 3c 63 9e 5d bd 9d 5e 8a bd c2 ad 9e 3d
       0.01066908 -0.054106127 -0.06756327 0.077479854
000080 46 6e b4 3d 48 62 fb 3c fc 10 8b bd 47 4d a6 bd
       0.088100955 0.030686513 -0.06790349 -0.08120208
000090 b7 8b 92 bc 57 d7 92 3c 73 0a cc 3c 43 65 3a 3d
       -0.017888887 0.017924948 0.024907326 0.045506727
0000a0 23 87 41 bc 9c e0 7b bd 50 3c d7 bb a3 e5 80 3c
       -0.011812004 -0.0614935 -0.006568469 0.0157345
0000b0 b6 9a 10 bd 09 b4 1d bd 77 62 2b 3d 22 8b bc 3d
       -0.035303794 -0.038501773 0.04184195 0.09206225
0000c0 c3 9f 3c 3d 4e 19 f3 3c 34 a9 7d bb 2c 97 b1 bc
       0.0460508 0.029675152 -0.003870559 -0.02167853
0000d0 31 a0 71 3d d3 f8 3d bc aa fb cb 3d b1 36 8c bd
       0.05899066 -0.011594969 0.099601105 -0.06846369
0000e0 5b 15 28 3b de 08 8a 3d 84 3c 52 bb fc 23 91 bd
       0.0025647494 0.067399725 -0.0032079527 -0.070869416
0000f0 61 f0 82 3d 52 88 67 3d 0c 8e 81 bc 93 5f 6e bc
       0.06393505 0.05652649 -0.015814804 -0.014549154

conv.1.running_var f4 [64]
000000 99 a0 0f 3f 56 e1 45 3f 7e f0 69 3e 15 eb e3 3e
       0.5610443 0.7729696 0.22845647 0.4451529
000010 3b ef 0a 3f a8 64 fb 3e d9 52 78 3f 5e d5 b6 3e
       0.54271287 0.49100232 0.97001415 0.3570966
000020 5e 89 6d 3f ac 37 04 3f 4e 5f 4c 3f b0 82 24 3f
       0.9278773 0.5164745 0.79832923 0.64261913
000030 1c 6f eb 3e c5 68 e9 3e ae a0 9e 3e 87 30 f0 3e
       0.45983207 0.45587745 0.30981964 0.46912023
000040 eb 00 38 3e 7a fb 76 3e 23 e5 77 3f cf a4 88 3e
       0.179691 0.24119368 0.9683401 0.2668824
000050 e3 95 8a 3e 49 0b e9 3e 66 7a 61 3f b4 2e cd 3e
       0.2706748 0.45516422 0.8807739 0.40074694
000060 a9 71 50 3f ad eb 04 3f e6 98 08 3f aa bf ea 3e
       0.8142343 0.5192211 0.53358305 0.45849353
000070 f6 dc a3 3e f6 02 92 3e 96 79 e8 3e 14 dc be 3e
       0.32004517 0.28517884 0.45405263 0.3727728
000080 89 c5 28 3f 7f 88 30 3f 45 d6 0b 3f 84 2f 3c 3f
       0.65926415 0.68958277 0.54623824 0.73510003
000090 f3 3b 35 3f 7e 5e 86 3f be 93 e1 3e 2c 63 dc 3e
       0.707946 1.0497587 0.4405803 0.43044412
0000a0 c9 e6 c4 3e b7 0d fa 3e eb 3c 01 3f ab 97 1b 3f
       0.38457325 0.4883859 0.5048358 0.607783
0000b0 e1 38 51 3f ba 56 fd 3e d8 31 4d 3f a5 28 0e 3f
       0.81727415 0.4948023 0.8015418 0.5553077
0000c0 d9 fd 07 3f 2c b8 63 3f 03 9c eb 3e 5b 20 00 3f
       0.53121716 0.889529 0.46017465 0.5004937
0000d0 c4 6e f9 3e 36 3c fb 3e 42 74 3e 3e b3 0e 8a 3e
       0.4871732 0.49069375 0.18599036 0.2696434
0000e0 72 01 9d 3f c4 11 e2 3e 6c 6d 34 3f 63 95 e0 3e
       1.2266066 0.4415418 0.70479465 0.43863973
0000f0 91 20 fc 3e 1a eb cc 3e ba 35 62 3f cf d6 49 3f
       0.49243596 0.40023118 0.8836323 0.78843397

conv.5.weight f4 [128, 64, 5]
000000 b5 d6 95 3c 77 91 02 3d 6a 48 0f 3c 12 bf 10 bd
       0.018290857 0.031877007 0.008745292 -0.03533847
000010 2c fa 12 3d 8b a5 59 bd 30 8c e2 bc 94 75 8d 3c
       0.035883114 -0.05313639 -0.027654737 0.01726798
000020 05 d4 19 3b 96 a8 90 bb 69 27 e8 ba 8d 73 5a 3b
       0.002347232 -0.0044146283 -0.001771194 0.0033333034
000030 ae 21 10 bc d3 01 4a 3c 00 10 42 3d 88 2a 0c 3c
       -0.008797092 0.0123295365 0.04737854 0.008555062
000040 3b 19 59 bd 60 3f 2a bc 40 63 09 3d e5 c6 1a 3d
       -0.053002577 -0.010391086 0.033541918 0.037787337
000050 9c ea 59 bc 00 5f ea 3c 71 07 33 bd a4 45 3f bd
       -0.013300564 0.028609753 -0.04370827 -0.046697274
000060 1d 5e 5d 3b 02 88 a5 bc 1b 13 2b bd 4f 7b 72 bc
       0.003377802 -0.020206455 -0.041766267 -0.014799907
000070 b6 28 30 bd 08 ba 03 3d b2 fa 54 bc 06 3b e2 bb
       -0.043007575 0.032159835 -0.012999224 -0.006904009
000080 18 3a 20 bd 74 b9 65 3b 96 2d 8c 3c 5f 64 67 bc
       -0.039117903 0.0035053166 0.01711158 -0.014123051
000090 75 01 1c bd 98 fe b3 bc 58 d4 e7 bb 55 89 b1 bc
       -0.038087327 -0.021971986 -0.007074874 -0.02167193
0000a0 21 d3 0e bd 46 33 e8 3c ac 09 d2 bc 79 b0 9c 3b
       -0.034869317 0.028344762 -0.025639378 0.0047817794
0000b0 1d 1c 11 bd c2 88 a9 3c 93 6f 54 bb c3 08 5c bd
       -0.0354272 0.020695094 -0.0032415136 -0.053719293
0000c0 b1 c4 89 bd 0f 78 75 bd 6f 7d 1b bc f8 97 9d 3c
       -0.06726969 -0.05992895 -0.009490355 0.019237503
0000d0 6c 2a 20 bc e6 c9 aa 3c 23 9c ba 3c e3 d8 2b 3d
       -0.009775739 0.020848226 0.02277953 0.041954886
0000e0 b7 fc ec 3c 60 28 f5 3c 4a 88 1d 3d 3f 5f b4 bc
       0.028929098 0.029926479 0.038460054 -0.022018073
0000f0 ff 5e b3 3c 8a b9 df 3c 45 03 85 bc 78 8f 53 bd
       0.021895884 0.027310152 -0.01623691 -0.051650494
000100 89 db b0 bc 05 38 cc 3c 11 d8 41 3c a0 f5 49 3d
       -0.021589058 0.024929056 0.011831299 0.049306512
000110 46 84 4b bd 98 fb 0c bd df 10 65 bd 7b 0f 82 bd
       -0.049686693 -0.034419626 -0.055924293 -0.06350609
000120 ae 7f 13 3c 4f dc 64 bc 7c 34 37 bd 84 3a dd 3c
       0.009002609 -0.013968541 -0.044727787 0.027005441
000130 7e 14 3a 3c 3c 8f 31 3d 1b b8 a3 bc bf f2 1a bd
       0.011357425 0.04334949 -0.01998525 -0.037829157
000140 7d b2 d9 bc a6 80 1c 3d a5 c6 1e 3b 7e bd cf bc
       -0.026574368 0.038208626 0.0024227288 -0.025358912
000150 97 1a a5 3c 63 aa 3a bd be 39 8d bc 08 dd 92 bd
       0.02015428 -0.04557265 -0.017239448 -0.071710646
000160 10 dd f2 3c ba 43 e9 bc bd 64 e9 bc 03 0f 79 bc
       0.029646426 -0.028474677 -0.028490419 -0.015201333
000170 06 d7 c6 3c b8 8c fe bc 98 48 64 bd 40 02 78 bd
       0.024272453 -0.03107296 -0.055733293 -0.06054902
000180 b6 50 55 bd 62 c8 09 bd be 65 45 3d db ee 0d 3d
       -0.052078925 -0.033638366 0.048192732 0.03465162
000190 b9 4b db 3c 52 41 74 3c c6 ff 67 3c 91 a5 52 3d
       0.026769506 0.014908152 0.014160102 0.051427428
0001a0 5f b7 53 bc 2a 76 60 3c a9 7b b9 bb e3 6e 91 bc
       -0.012922137 0.0137000475 -0.0056604934 -0.01775307
0001b0 f5 27 6c bd ce c3 07 3d df 7b 07 3c a9 53 dd 3c
       -0.057655293 0.03314572 0.008269279 0.027017431
0001c0 bf c8 20 3d ac d4 44 bd 83 5c f0 3b 72 d8 43 bd
       0.039253946 -0.048054382 0.007335247 -0.04781384
0001d0 80 52 5a bd ca b1 80 bc df 33 b5 36 e0 f0 2e bd
       -0.053301334 -0.015709776 5.400259e-06 -0.042710185
0001e0 72 63 ac bc 86 f4 21 3b 9b 59 31 3d 19 93 50 bd
       -0.021043513 0.0024712398 0.043298345 -0.050921533
0001f0 4d 0a 15 3d d3 82 6d 3d 97 8d 11 bd 2f 38 01 3d
       0.036386777 0.05798609 -0.03553542 0.03154772
000200 b6 17 b5 3c 5a 3d 18 3d 4c a8 4d bd 51 d2 d3 bc
       0.022106033 0.037167884 -0.05020933 -0.025857123
000210 e3 0b 4a bd 4b f9 bf bc 5b 04 29 bd 7b 9e 6a 3d
       -0.049327742 -0.023434302 -0.04126392 0.057280045
000220 11 3c bc 3c 69 8a 34 3c 02 4f 16 3d 7f f7 50 bd
       0.02297786 0.011019328 0.03669644 -0.05101728
000230 2d 6c 2f 3c 31 12 2d 3c c1 19 bd bc 7b b3 c3 bc
       0.010706943 0.010563419 -0.02308357 -0.023889294
000240 04 a6 a5 3a 72 9d 22 3d 71 d1 53 bc 53 45 76 3c
       0.0012637977 0.039700933 -0.012928353 0.015031177
000250 52 ad 71 bd 99 8f 64 bd 9c 00 34 3d d9 47 ad bc
       -0.05900318 -0.055801008 0.043945894 -0.021152424
000260 26 bb bf 3c a4 5c 74 3b eb 30 06 bd 57 96 36 3c
       0.023404669 0.0037286663 -0.032761496 0.011144242
000270 c9 65 bc bc fa 4b f2 3c ed b5 f5 bc 18 96 ee bb
       -0.022997754 0.029577244 -0.029993976 -0.007281076
000280 29 7e 67 bd a0 d5 d2 37 45 c7 87 3b fa 0d fc ba
       -0.0565168 2.5133428e-05 0.004143628 -0.001923024
000290 dc 38 23 bd 62 18 31 bc cc 39 23 3a 40 33 68 bd
       -0.039849147 -0.010809036 0.0006226569 -0.0566895
0002a0 ec ca 84 bb 29 d3 8c bc f1 b1 74 3c 36 33 87 bc
       -0.0040525105 -0.017190533 0.014935003 -0.016503911
0002b0 b0 99 75 3d f4 69 93 bb f6 8e 53 3d c6 03 47 3d
       0.05996102 -0.0044987146 0.05165001 0.048587583
0002c0 67 61 00 3d c7 e9 55 bd 40 36 4c 3c 94 c3 a2 ba
       0.03134289 -0.0522249 0.012464106 -0.0012417906
0002d0 f0 8f 76 bc 5f e1 b1 3b d5 23 12 3c 78 93 85 bd
       -0.015048966 0.0054284777 0.008919676 -0.06522268
0002e0 39 30 4b bd d9 16 c6 bc f7 77 15 3d fc 71 0d 3d
       -0.049606536 -0.024180816 0.03649136 0.034532532
0002f0 59 d8 2b 3d 98 1c a4 3c 6e 7e 99 3c 46 db a1 bb
       0.041954372 0.020033166 0.018737044 -0.0049394695
000300 01 0b 16 3c 82 4d a7 bb 44 72 f6 bc dd fc 13 3c
       0.009157897 -0.005105675 -0.030083783 0.009032455
000310 36 14 d4 3c b6 4a 1a 3d 36 63 b1 3c 79 78 d7 3c
       0.025888544 0.037668906 0.021653753 0.026302563
000320 ef 11 3d bd 8f 01 0a bc 0f 48 2b 3d 39 93 63 3b
       -0.04615968 -0.008423223 0.041816767 0.0034725203
000330 80 32 8b 3c 7c 44 a9 bc 32 54 3f bd 4e f8 2b 3c
       0.016991854 -0.020662539 -0.046711154 0.010496212
000340 40 24 4f bd 85 05 de 3c 42 2f 00 3d 91 cf 49 bd
       -0.05057168 0.027102241 0.03129507 -0.049270216
000350 71 be af bc c1 59 2b bc 62 fb 6f bd 2d fd 4e bd
       -0.021453114 -0.010458411 -0.058589347 -0.050534416
000360 f0 97 5f bd a1 7d 5b 3d 1b 25 1d 3d 4d d5 3b bd
       -0.05458826 0.053586606 0.038365465 -0.045857716
000370 86 8b a0 bc a1 4c 2f 3d 9a 21 b7 ba 43 43 a3 bb
       -0.01959778 0.04279769 -0.0013971806 -0.0049823835
000380 ae ad 38 bd c5 87 f6 bb a3 b2 7a bd 9f 2a ec 3b
       -0.04508751 -0.007523509 -0.061205518 0.0072072293
000390 c8 d1 2d bb a9 f2 5e bc 15 8a 3e bd 13 d5 ad bc
       -0.0026522744 -0.013607659 -0.046518404 -0.021219766
0003a0 6e 3d 96 3c 0d d2 f8 bc 2d 2e 48 3b a0 d8 16 bd
       0.018339839 -0.030373598 0.00305451 -0.036827683
0003b0 84 f2 d6 bc ec 09 43 3c 73 f7 5c bd 36 a0 38 3d
       -0.026238687 0.011904221 -0.053946923 0.045074664
0003c0 7d 43 0a bc 5d 53 2a 3d 79 3e e8 3b ac 27 45 3d
       -0.008438942 0.041583408 0.0070875254 0.048133537
0003d0 4f 09 33 bd 6f cd 36 bb cf d1 d8 bc f2 ed 64 3d
       -0.04371005 -0.0027893444 -0.026467232 0.055890985
0003e0 87 30 49 3c 20 cc 84 bc 12 b1 29 bc c5 d7 4f bc
       0.012279636 -0.016210616 -0.010357158 -0.012685721
0003f0 20 5c c4 3c 31 cc ee 3c 9e cd f6 bc be da f1 3c
       0.02396971 0.0291501 -0.030127343 0.02952325

conv.5.bias f4 [128]
000000 2c 9f 4f bc 2a 66 2d 3c 19 9e e2 bc 6e cd 10 bd
       -0.012672227 0.01058344 -0.027663277 -0.035352163
000010 47 80 2f 3a 75 ed 36 bd 99 1b b7 bc a8 4b c0 bc
       0.0006694835 -0.04466005 -0.022352027 -0.023473576
000020 54 ca 74 3c 6a da 37 bd 03 bf ee 3c 6d dd 7f 3c
       0.014940817 -0.04488603 0.029143816 0.015616757
000030 18 d5 98 bc 69 e4 8f 3c 0c 85 3f 3d 7f 16 b2 3c
       -0.018656299 0.01756497 0.046757743 0.021739243
000040 6e 79 1c bd 8c 62 de 3c cc 04 23 bd c0 61 2b bd
       -0.038201742 0.0271466 -0.039799497 -0.04184127
000050 9c 84 13 bc 0b 42 b3 3c b1 f1 03 bd a3 35 58 bd
       -0.0090037845 0.021882078 -0.032212917 -0.052785527
000060 a7 5f fc 3c 97 49 5d bd c5 48 98 3b 35 9a a6 3a
       0.03080733 -0.05402526 0.0046473467 0.0012710752
000070 f8 d0 ac 3c 31 67 0d 3d f2 c2 13 ba 8d b1 af bc
       0.021095738 0.03452224 -0.0005636654 -0.021446967
000080 c6 9a ec 3c 4d 7d 16 3d 98 d6 87 bc 30 99 fb bb
       0.028882395 0.03674059 -0.016581818 -0.0076781735
000090 af a1 50 3d 4e fd a1 bc 56 c0 3f 3d b7 6a 1e bd
       0.050935443 -0.019774105 0.046814285 -0.03867599
0000a0 94 fa 22 3d f6 7f 21 3d bf 2d f9 3c 46 ac db bc
       0.03978975 0.039428674 0.030417321 -0.026815545
0000b0 56 f8 40 bc 23 6e 50 3d 91 62 db 3b 47 8c 29 3d
       -0.011777958 0.050886285 0.0066950996 0.041393545
0000c0 79 9f 00 bd 34 5d eb 3c eb 63 95 bc b7 7f 37 bd
       -0.031402085 0.028730966 -0.018236121 -0.044799533
0000d0 2e 25 2c bd 25 c9 fb bb b3 49 0a 3c 79 33 9c bc
       -0.042027645 -0.0076838904 0.008440423 -0.019067513
0000e0 d9 9f 43 bd d7 3a f2 bc b6 31 60 bd 4d b2 76 3b
       -0.047759864 -0.029569073 -0.054734908 0.0037642897
0000f0 59 5b 19 3d e1 18 49 3d 98 f8 14 3d 01 a5 d1 bc
       0.03744063 0.049095992 0.03636989 -0.025591375
000100 64 59 58 3d 10 1a c1 bc 79 f0 b2 3c fc 36 49 bd
       0.052819625 -0.023571998 0.021843182 -0.049124703
000110 3f 59 1c 3d a1 ca bf bb 93 ef e5 3c cc 6b f8 bc
       0.03817105 -0.0058530127 0.02806834 -0.030324839
000120 a8 be cf bc a8 cd 5e bd 5b b3 59 bc 57 eb 85 bc
       -0.025359467 -0.054395348 -0.013287391 -0.01634757
000130 c1 8e 21 bd 79 ba 2d bc 51 b8 1b bd 10 7a 5e bd
       -0.03944278 -0.010603541 -0.038017575 -0.054315627
000140 a9 92 1e bd d9 42 93 bc 29 f2 8b 3b 95 44 97 bc
       -0.038714085 -0.017976211 0.004270811 -0.01846532
000150 7f 8d 0f bd 69 c3 4a 3d 13 34 19 bc ec 9c 36 3d
       -0.03504705 0.049502764 -0.009350794 0.044583246
000160 c2 12 58 3d f1 f2 46 bd 4f 39 59 bd ca 61 33 bd
       0.052752264 -0.04857153 -0.05303317 -0.04379443
000170 ef 7d 28 bd 2e ee 2d bd b6 eb 41 3d 65 49 3f 3d
       -0.041135725 -0.042463474 0.047343932 0.046700854
000180 f7 1b 9c bc 71 fa 9d bc e0 75 87 3c ab 53 ce bc
       -0.019056303 -0.019284459 0.0165357 -0.02518638
000190 a9 eb 12 3d c8 b9 4c bd 1d 43 ff 3c ee 79 d5 bb
       0.035869274 -0.049981862 0.031159932 -0.0065147793
0001a0 91 41 8c bc 59 68 58 3c cf bc 14 3c e4 3a a6 3c
       -0.017121108 0.013208472 0.009078219 0.020291753
0001b0 94 aa 79 3c 2e 3c a8 3c 55 4f cb bc c0 19 89 3c
       0.015238423 0.020536508 -0.024818102 0.016735911
0001c0 f0 9a 47 bc 12 6b 15 3c 32 a0 93 3c 3c 14 94 3c
       -0.012182936 0.009119766 0.018020723 0.018076055
0001d0 9a 40 05 bd 12 d5 6d bc 18 4d a5 3c 6b 97 75 3c
       -0.032532312 -0.014516132 0.020178363 0.014989714
0001e0 4d 57 3b 3d 6e 21 c3 3a dd f5 5d 3c 9f f5 0f 3d
       0.045737553 0.0014887282 0.013547388 0.035146352
0001f0 73 01 0c 3c 00 90 c3 3a 15 2a 0f bc d1 17 de 3c
       0.008545267 0.0014920235 -0.0087380605 0.027110966

conv.6.weight f4 [128]
000000 b1 7d 76 3f 08 8d 7f 3f 66 56 84 3f 19 08 81 3f
       0.9628554 0.9982457 1.0338867 1.0080596
000010 4c 6a 75 3f a2 28 7f 3f c8 75 88 3f cc 61 7d 3f
       0.9586532 0.99671376 1.0660944 0.9897735
000020 66 b2 80 3f 52 bc 81 3f af 31 7b 3f 81 8b 81 3f
       1.0054443 1.0135596 0.98122686 1.0120698
000030 c0 23 7f 3f 3b b8 74 3f a0 12 8d 3f 5b bc 7f 3f
       0.99663925 0.95593613 1.1021309 0.9989678
000040 38 fd 82 3f a0 78 7b 3f 3e 0f 7d 3f 5e c4 7a 3f
       1.0233526 0.98230934 0.9885138 0.9795588
000050 31 e0 82 3f 8b 82 7d 3f 0d 09 7c 3f 47 99 7b 3f
       1.0224668 0.9902732 0.9845131 0.9828076
000060 e1 ad 7c 3f d1 e3 73 3f 55 88 80 3f 46 80 7c 3f
       0.9870282 0.95269495 1.0041605 0.9863323
000070 a2 78 78 3f e8 5e 7f 3f 80 2a 7b 3f fb ab 7a 3f
       0.9705907 0.9975419 0.98111725 0.9791867
000080 d9 89 82 3f 21 80 81 3f c2 76 79 3f a2 48 7f 3f
       1.0198318 1.0117227 0.97446835 0.99720204
000090 04 c7 7b 3f da 01 82 3f ab 4a 7d 3f 0b d8 80 3f
       0.9835055 1.0156815 0.9894206 1.0065931
0000a0 0d a1 83 3f 73 27 7c 3f 86 85 7b 3f 72 48 8a 3f
       1.0283524 0.98497695 0.98250616 1.0803359
0000b0 b2 3a 7c 3f 16 0a 80 3f 49 82 83 3f 11 27 81 3f
       0.9852706 1.0003078 1.0274135 1.0090047
0000c0 93 44 84 3f 0e 6d 7c 3f 9a db 8b 3f 0c 13 7b 3f
       1.0333427 0.98603904 1.0926392 0.9807594
0000d0 7c 3c 7e 3f 3c 7c 7d 3f 49 c3 7e 3f 71 a2 78 3f
       0.9931104 0.9901769 0.9951673 0.97122866
0000e0 14 34 7b 3f 61 8b 80 3f 12 45 85 3f 38 a6 7e 3f
       0.9812634 1.0042535 1.0411704 0.9947238
0000f0 04 22 81 3f 2d 86 7e 3f 09 b6 74 3f 80 3b 82 3f
       1.0088506 0.99423486 0.95590264 1.0174408
000100 f8 f6 84 3f f4 c3 7c 3f ac 05 80 3f c9 a4 82 3f
       1.0387869 0.987365 1.0001731 1.0206538
000110 cb f0 7d 3f 74 ca 82 3f b8 69 83 3f fe 33 81 3f
       0.99195546 1.0218034 1.0266638 1.0093992
000120 6c bb 85 3f a4 1e 7a 3f db db 7d 3f 63 ed 78 3f
       1.0447822 0.97703004 0.991636 0.97237223
000130 08 4a 8b 3f cc 49 88 3f 56 44 76 3f 09 a3 80 3f
       1.0881968 1.0647521 0.9619802 1.0049754
000140 6b 55 87 3f b8 41 7b 3f 98 d9 83 3f 6a ab 79 3f
       1.0572942 0.98147154 1.0300779 0.9752718
000150 31 c2 80 3f d4 2f 8a 3f 8a ca 7c 3f 6c 4c 7d 3f
       1.0059263 1.0795846 0.9874655 0.98944736
000160 f2 72 79 3f 68 13 7c 3f 7e 1a 7c 3f 5e 33 85 3f
       0.9744102 0.9846711 0.98477924 1.0406301
000170 42 33 85 3f c3 92 86 3f 7f 85 80 3f 08 47 81 3f
       1.0406268 1.0513538 1.004074 1.0099802
000180 8f 46 82 3f 84 a8 85 3f e2 3a 7c 3f 26 eb 7c 3f
       1.0177783 1.0442052 0.9852735 0.9879631
000190 77 48 7f 3f be 04 81 3f e8 a7 7f 3f 24 aa 7d 3f
       0.9971995 1.0079572 0.9986558 0.9908774
0001a0 49 0f 7b 3f 73 97 81 3f 95 07 81 3f 2e 33 7c 3f
       0.980702 1.0124344 1.0080439 0.98515594
0001b0 7d eb 78 3f 5e 70 80 3f ae e0 80 3f 45 97 81 3f
       0.97234327 1.0034292 1.0068567 1.0124289
0001c0 df 1e 79 3f 24 df 7f 3f ef e0 79 3f 6b b9 7f 3f
       0.9731273 0.9994986 0.97608846 0.998923
0001d0 c3 65 7b 3f d2 af 83 3f 7a c0 79 3f 58 67 78 3f
       0.9820215 1.0288031 0.9755932 0.9703269
0001e0 57 5d 82 3f b5 3a 7d 3f eb eb 80 3f 3a ad 86 3f
       1.0184735 0.98917705 1.0071996 1.0521615
0001f0 77 95 80 3f 04 a5 7c 3f 10 2d 79 3f 64 6a 7e 3f
       1.0045613 0.98689294 0.97334385 0.9938109

conv.6.bias f4 [128]
000000 56 3f fd bc 4e 37 45 bd 3f 96 2f bd c8 d4 d0 bc
       -0.03091399 -0.048148446 -0.042867895 -0.025492087
000010 92 75 02 bd 83 45 5e bd fd 56 3c bd a5 f5 3c bd
       -0.031850405 -0.05426551 -0.045981396 -0.046132702
000020 41 36 81 bc fa 58 06 bd af a4 5f bd fa 59 44 bc
       -0.01577294 -0.0327997 -0.054600414 -0.011984343
000030 9b 07 56 bc 76 7f 3e bd 42 da 0a bd 39 2a 1a bd
       -0.013063337 -0.046508275 -0.033899553 -0.037637923
000040 ce de fb bc 45 8e d2 bc 47 df 06 bd e0 02 37 bd
       -0.03074589 -0.025702605 -0.032927778 -0.044680476
000050 c7 b6 ff bc b4 61 6f bd 8b 6e ab bc 29 9f 03 bd
       -0.031215085 -0.058442786 -0.020926734 -0.03213421
000060 09 8c 83 bd 37 77 6e bd b3 c8 21 bd 9e 0d f3 bc
       -0.06423194 -0.05821916 -0.039498042 -0.02966958
000070 71 af ef bc 9c ee b7 bc 54 87 33 bc b4 16 a6 bc
       -0.029258462 -0.022452645 -0.010957558 -0.020274498
000080 14 e9 8f bc 53 1e 61 bd 36 bc fd bc b3 20 8f bc
       -0.017567195 -0.05496056 -0.030973535 -0.017471647
000090 62 9d 1e bd a4 43 26 3c 87 12 36 bd 44 fc 07 bd
       -0.03872431 0.010147963 -0.044451263 -0.033199564
0000a0 a8 6f b1 bc 24 86 d8 bc ae 54 f3 bc 85 d6 e5 bc
       -0.021659687 -0.02643115 -0.029703464 -0.028056392
0000b0 5e f4 04 bd da 39 d2 bc b9 02 e6 bc 43 ce 25 bc
       -0.03245961 -0.025662351 -0.02807747 -0.010119977
0000c0 a1 6d f6 bc 0e 52 d8 bc 7f aa a7 bc 7c 00 f6 bc
       -0.030081572 -0.026406314 -0.020467041 -0.030029528
0000d0 80 af b4 bc 1c 2c fc bc 2e b6 b5 bc 65 7e 62 bd
       -0.022056341 -0.030782752 -0.022181597 -0.05529632
0000e0 83 ed ce bc da 8f 10 bd 86 d5 33 bd 94 81 14 bd
       -0.025259739 -0.035293438 -0.043904804 -0.036256388
0000f0 62 83 8f bd bc 4c b7 bc 2c 23 86 bd d3 dc 40 bd
       -0.07007481 -0.022375457 -0.06549677 -0.047085594
000100 58 85 08 bc fd d5 f3 bc cd 76 1f bd 93 cb 6b bd
       -0.008332573 -0.029765124 -0.038931657 -0.05756719
000110 97 c7 12 bc de 8e cf bc e8 79 14 bd 78 34 94 bb
       -0.008958719 -0.02533668 -0.03624907 -0.0045228563
000120 05 3a 9c bc 1c 9d b5 bc b5 1b dd bc 79 7d 6d bd
       -0.019070635 -0.022169642 -0.02699075 -0.05798099
000130 b9 f9 fc bc ca cd 6d bd 23 64 40 bd 82 ed c7 bc
       -0.030880796 -0.058057584 -0.046970498 -0.024405245
000140 f4 27 1e bd 7b 61 3f bd e0 ab 02 bd f9 46 04 bd
       -0.03861232 -0.046723824 -0.031902194 -0.032294247
000150 35 47 29 bd 7b 8b 31 bd 5c bf 0c bd ae 44 03 bd
       -0.041327674 -0.04334591 -0.034362182 -0.03204792
000160 6a 43 fc bc e2 89 29 bd eb e2 66 bd f8 cb 0a bd
       -0.030793864 -0.04139126 -0.05636875 -0.033885926
000170 d0 22 e2 bc d9 13 b8 bc 67 54 6d bd ee fc 09 bd
       -0.02760449 -0.022470402 -0.05794182 -0.03368848
000180 dc 80 8e bb 4e a6 21 bd 11 65 89 bc 2d f0 ae bc
       -0.0043488573 -0.03946524 -0.016771825 -0.02135476
000190 df b4 84 bb 8b d4 13 bc bc 6f 31 bd ae 41 ab bc
       -0.004049882 -0.009022842 -0.04331945 -0.020905342
0001a0 5a af 30 bd 32 f1 22 bc 44 61 22 bc 0f 46 2d bd
       -0.04313598 -0.009945201 -0.009910885 -0.04230314
0001b0 a5 95 c5 bc 8c f7 23 bd ef e4 f9 bc 36 db 02 bd
       -0.024119208 -0.040031 -0.030504672 -0.031947337
0001c0 4b 27 02 bd d6 7b b1 bc 1b 0f 2c bd 10 37 38 bd
       -0.031775754 -0.021665495 -0.042006593 -0.044974387
0001d0 bd 1c 9b bc 0a 59 4c bc 56 73 1b bd fe 08 17 bd
       -0.018934602 -0.0124724 -0.03795179 -0.03687381
0001e0 52 0d c7 bc 7b bc 36 bd 1c 0f 2b bd 42 14 fc bc
       -0.024298344 -0.044613343 -0.041762456 -0.030771378
0001f0 eb 38 2c bd 85 56 85 bd 05 57 50 bd ec b0 42 bd
       -0.04204647 -0.06510643 -0.05086424 -0.047532007

conv.6.running_mean f4 [128]
000000 a8 c4 d2 be 4d 6c cc bd 71 b6 2d 3e 21 49 94 be
       -0.41165662 -0.09981594 0.16964127 -0.28962043
000010 eb ba b9 be 6c 88 e9 3d fa 3a d0 3e 28 ec a2 be
       -0.3627542 0.114029735 0.40669996 -0.31820798
000020 2a d5 17 bf b6 ac ba be ca 4a ee be d5 c6 35 bf
       -0.5930964 -0.36459893 -0.46541435 -0.7100652
000030 74 bb 4d bf 37 c6 db be ee cf 47 3e 72 02 ea be
       -0.80364156 -0.42924663 0.19512913 -0.4570499
000040 56 ff 71 3f 25 ba 1a 3f f7 4c 13 bf d1 ad 83 be
       0.94530237 0.60440284 -0.57539314 -0.2571855
000050 ea ef 0d 3f a7 de 97 be 85 96 79 be 37 77 04 bf
       0.55444205 -0.29662058 -0.24373825 -0.5174441
000060 8f 11 13 bf 91 48 8b be e1 70 ea be 0c 0d 1f 3f
       -0.5744867 -0.272038 -0.45789245 0.6212928
000070 5d 2f 0a bf 17 2c 24 bf bc 88 9e bc 35 21 d0 3d
       -0.5397852 -0.64129776 -0.01935231 0.10162584
000080 03 26 08 bf d2 a5 1a be 3c 3e bd be 17 75 a6 be
       -0.53183 -0.15102318 -0.36961544 -0.32511207
000090 ac ca 52 bf 55 68 16 bf b4 50 87 be 2f cf a9 be
       -0.823405 -0.5875295 -0.2642876 -0.3316588
0000a0 12 8e 47 be e5 8a 0f bf 84 76 2c 3f 6e dd 8f be
       -0.1948779 -0.5607131 0.6736834 -0.28098625
0000b0 08 ad aa be e1 0e 05 bf c8 e1 4f 3f fc 28 67 3e
       -0.33335137 -0.5197583 0.8120389 0.22574228
0000c0 80 ce 72 bd 99 71 dd be fe 31 49 3e 76 d5 45 be
       -0.059278965 -0.4325073 0.19647977 -0.1931971
0000d0 4e 31 02 bf 34 3c 85 bd a2 30 d3 be da eb 23 be
       -0.50856483 -0.065056235 -0.4124804 -0.16007939
0000e0 69 c3 f3 be e3 10 f6 be 7e e4 76 bf b0 dc cc be
       -0.47610024 -0.4805976 -0.964424 -0.4001212
0000f0 99 82 d5 3d 04 1b 22 be 92 c2 0b be b9 a4 81 3d
       0.104253 -0.15830618 -0.13648441 0.063302465
000100 a5 30 53 3e 40 b7 d5 be 71 e2 27 be 96 20 d1 3c
       0.20624025 -0.4174137 -0.16394974 0.025528233
000110 35 e7 f7 be 8d 15 06 be 36 25 5d 3e da 9b 6d 3e
       -0.48418584 -0.13094158 0.21596226 0.23203984
000120 6d d2 5c bf f4 17 e0 be b0 58 41 bf 6d cc 0e bf
       -0.86258584 -0.43768275 -0.7552595 -0.5578068
000130 be f6 6f bf 4f 72 1a 3f 19 c8 2d bf 38 bd b6 bd
       -0.93735874 0.6033067 -0.6788345 -0.08922809
000140 e4 b5 8a 3f bc 3b 93 be 09 ad 3e bf 9d b5 ec bd
       1.0836759 -0.2875651 -0.7448278 -0.115580775
000150 da 7b 08 3f e7 1c a8 be 9e 15 29 bf ed 80 1c bd
       0.5331398 -0.3283455 -0.6604861 -0.03820889
000160 56 83 59 be c0 91 98 be 12 62 05 bf 3d de 28 bf
       -0.21241507 -0.29798698 -0.5210277 -0.6596411
000170 26 d4 3b bf a8 4b b0 be ff d3 59 bd 80 65 f5 bc
       -0.7337059 -0.3443272 -0.05318069 -0.029955626
000180 02 0a 32 bf 38 33 2a bf 02 68 e8 3e b1 fc da bd
       -0.6954652 -0.66484404 0.45391852 -0.10692728
000190 99 c6 3b bf ca 0f 1a bf 02 31 48 3d 8f b7 67 be
       -0.7334991 -0.6018034 0.048874862 -0.22628616
0001a0 97 de 16 bf d3 60 4a bf bd a4 75 3f 15 a2 d2 be
       -0.58933395 -0.7905399 0.95954496 -0.41139284
0001b0 ab a6 a5 be 4c 08 24 bf 28 95 ba 3e 7b 0b 7e 3f
       -0.3235372 -0.6407516 0.36441922 0.9923627
0001c0 ed 50 51 bf 09 5e 14 bf e0 e6 23 bf 33 a7 de be
       -0.8176411 -0.57955986 -0.6402416 -0.43486938
0001d0 b5 69 03 bf 3f 34 99 3e 92 a0 30 be 48 ff 9c 3d
       -0.5133317 0.29922673 -0.17248753 0.076658785
0001e0 59 45 ac 3e 68 14 51 bf 17 0f d0 be 2e 68 84 be
       0.33646658 -0.8167176 -0.40636513 -0.25860733
0001f0 bd 4f d8 3a 1f 54 07 bf af ef 68 be 48 eb 0a bd
       0.0016503256 -0.52862734 -0.22747682 -0.033915788

conv.6.running_var f4 [128]
000000 90 63 f0 3e db 9a b4 3e 1b 5b d0 3e 3e 5b e7 3e
       0.4695096 0.35274395 0.40694508 0.451868
000010 85 ee 87 3e c7 f0 ac 3e e2 06 b6 3e 02 97 b3 3e
       0.26549163 0.3377745 0.35552126 0.35076147
000020 39 e6 cd 3e c8 8c 11 3f bc 08 a6 3e 23 2a 8f 3e
       0.40214708 0.5685544 0.3242854 0.27961835
000030 d6 5f 57 3f c7 80 fa 3e f8 bf b1 3e aa 72 00 3f
       0.8413061 0.48926374 0.34716773 0.50174963
000040 f6 fc 07 3f 14 a3 73 3f 84 62 b7 3e d1 17 d1 3e
       0.5312036 0.9517071 0.3581735 0.40838483
000050 7e cb b7 3e 6c 07 0c 3f 0b a2 20 3f 22 69 24 3f
       0.3589744 0.54698825 0.6274726 0.6422292
000060 fd 1f 85 3e aa 9c c0 3e 48 b9 ad 3e 28 e0 c3 3e
       0.26000968 0.37619525 0.3393042 0.38256955
000070 80 f3 13 3f 45 a0 ca 3e fc b6 00 3f c4 f5 79 3e
       0.57793427 0.395754 0.5027921 0.24410158
000080 d7 cd 49 3f 39 7f bd 3e 24 1d e9 3e d8 d9 ae 3e
       0.7882971 0.37011126 0.45530045 0.34150577
000090 82 d1 f9 3e ea 66 40 3f d5 1a b2 3e fe f7 35 3f
       0.48792654 0.75157034 0.34786096 0.7108153
0000a0 d4 9e 73 3e a0 b0 54 3e 45 ac bc 3e 8d 81 a6 3e
       0.23791057 0.20770502 0.3685018 0.32520714
0000b0 a4 1c e8 3e e9 93 9d 3e 96 70 14 3f 48 cb 89 3e
       0.4533435 0.3077691 0.5798429 0.26912904
0000c0 a3 a1 50 3e 39 c2 34 3f 00 eb 98 3e 4a 44 9f 3e
       0.2037416 0.7060886 0.2986679 0.31106788
0000d0 f1 88 e1 3e 5c b7 b8 3e bd ab e6 3e 33 1a 0a 3f
       0.4404979 0.36077392 0.450529 0.53946227
0000e0 5a 9c 26 3f 2d f9 ec 3e 06 ee 0e 3f 03 d7 e7 3e
       0.65082324 0.46283856 0.55831945 0.45281228
0000f0 29 d9 bc 3e f9 9a 15 3f 29 a9 dd 3e c6 4e a2 3e
       0.3688443 0.58439595 0.4329312 0.31700724
000100 a4 f7 13 3f bd c3 02 3f 29 48 99 3f 90 90 b1 3e
       0.57799745 0.5107992 1.1975147 0.34680605
000110 e8 23 1f 3f 9a 34 09 3f e2 b8 18 3f 7c b8 d3 3e
       0.62164164 0.5359589 0.5965711 0.41351688
000120 ff 19 08 3f 05 aa 8a 3e 9c 61 71 3f 50 e1 0f 3f
       0.53164667 0.2708284 0.94289565 0.56203175
000130 f0 17 72 3f e5 8a ac 3e 62 93 b2 3e da 6d 19 3f
       0.94567776 0.33699718 0.3487807 0.59933245
000140 21 d5 48 3f 33 41 bb 3e 09 0d 14 3f a8 4a 05 3f
       0.7845021 0.3657318 0.5783239 0.5206704
000150 d2 01 1c 3e 0f f9 d7 3e b9 96 fb 3e 93 7f ee 3e
       0.1523507 0.42182204 0.4913843 0.46581706
000160 15 e6 ae 3e a4 2c fb 3e 04 b6 bd 3e c4 73 96 3f
       0.34159914 0.49057496 0.3705293 1.1754079
000170 6a db fe 3e 61 ca d1 3e 39 0a b7 3e 11 59 d9 3e
       0.49776775 0.40974715 0.35749987 0.42450765
000180 17 c9 ff 3e 16 b3 07 3f 57 8a 23 3f 06 d6 72 3f
       0.49958107 0.5300764 0.63882965 0.94857824
000190 ab 48 b0 3e 34 28 e7 3e 89 ff b4 3e 47 4f 98 3e
       0.3443044 0.4514786 0.35351208 0.29747984
0001a0 f3 4c f3 3e 77 e9 e6 3e 41 76 b3 3e d5 16 bd 3e
       0.47519645 0.45099995 0.35051158 0.36931482
0001b0 16 a3 32 3f 25 5c 9d 3e 66 ce ee 3e 63 55 06 3f
       0.697801 0.30734363 0.46641845 0.5247404
0001c0 53 7c 0e 3f ed d6 04 3f e0 7b 4d 3f 4e 91 aa 3e
       0.55658454 0.5189045 0.80267143 0.33313984
0001d0 cd 66 24 3f 82 1f 9f 3e 60 cb 0c 3f f7 69 d8 3e
       0.6421936 0.31078726 0.54997826 0.42268345
0001e0 e4 e5 f6 3e 83 b8 51 3f 0b 0a b6 3e 2f 78 ad 3e
       0.48222268 0.8192217 0.35554537 0.33880755
0001f0 f3 2b c9 3e 51 4d 0c 3f cf 6d a1 3e 0c 40 8d 3e
       0.39291343 0.54805475 0.3152909 0.27587926

conv.10.weight f4 [256, 128, 3]
000000 d2 a4 ca bc c5 f5 b7 ba 92 12 30 bd 6c e9 b5 3c
       -0.024736796 -0.0014035037 -0.04298646 0.02220603
000010 ca 20 5f 3d ec 9a f6 3c db 86 26 3b 0a bd 2c bc
       0.05447463 0.03010317 0.002540997 -0.010543117
000020 ec 9c 96 bc 53 61 09 bd 82 d3 16 bd b7 7d ac bc
       -0.018385373 -0.03354008 -0.036822803 -0.02105604
000030 af 95 2e bc 43 82 0c bd fb 41 59 bc 3b 12 0b bd
       -0.010655805 -0.034303915 -0.01326036 -0.033952933
000040 de 00 f8 bb 8c dc 17 bc 64 81 45 bd a4 f6 03 bd
       -0.0075684628 -0.009268891 -0.0482191 -0.032217637
000050 67 ed f7 bc d4 c3 c9 bc f6 22 3a bc b9 4f 67 bc
       -0.03026457 -0.024629511 -0.011360874 -0.014118128
000060 85 b7 8e bc 27 5a af 3c 08 2b 5c bb a4 ef a5 bc
       -0.017421493 0.021405293 -0.0033594985 -0.020255871
000070 b1 fe 5b 3d 13 b0 d0 3c 5b a1 a8 3c 47 4a bb bc
       0.05370969 0.025474584 0.020584753 -0.022862567
000080 71 d0 4f 3c 1f 5f ea 3b 01 f6 09 3b 4e f2 b9 bc
       0.012683974 0.0071524526 0.002105117 -0.022698548
000090 b2 44 28 3d 0f 35 b3 bc 49 cc 49 bc 51 72 31 3c
       0.041081138 -0.021875886 -0.012316772 0.010830478
0000a0 0d d3 cc 3a 4e ee 7c 3c fa 93 40 bd 80 6f 88 bd
       0.0015626863 0.015437676 -0.04701612 -0.06661892
0000b0 69 24 44 bd e8 c4 45 3c cd e0 91 3c 94 ef 84 3c
       -0.047886286 0.012070872 0.017807389 0.016227521
0000c0 24 3e d7 bc dc 2a 23 bd b8 48 a6 bc 83 2f e0 3a
       -0.026274748 -0.039835796 -0.020298347 0.0017104003
0000d0 21 ce 94 3c be 4e dc 3c 4b d7 35 3d 69 17 d3 3c
       0.018164696 0.026893016 0.044394772 0.025767999
0000e0 60 3f 0b 3d de 10 f9 bc d6 fa 13 bc 3a 11 92 3b
       0.033995986 -0.03040355 -0.009031972 0.00445762
0000f0 01 06 56 bd a2 d6 1a bc e3 32 03 bd d4 2d 59 3c
       -0.05225182 -0.0094505865 -0.03203095 0.013255555
000100 bc 46 f2 bc 21 03 05 bd ae de e2 bb 40 6a f4 3c
       -0.029574744 -0.032473687 -0.006923518 0.02983582
000110 be e9 9a bc 68 da 52 3d a7 cf 6d 3c cb 16 1e 3c
       -0.018910285 0.05147782 0.01451484 0.009648989
000120 cb 96 f2 bc 8e f5 02 3d 82 f5 6e bb 8d 1b e8 b9
       -0.02961292 0.03197246 -0.0036462252 -0.00044271015
000130 52 90 73 bd 08 a6 a0 bb 5f 9c 38 3d 91 e2 fb bc
       -0.059463806 -0.004902605 0.045071002 -0.030747684
000140 a6 88 0a 3c 20 28 2e 3d ef a0 1a 3b 90 77 20 bc
       0.008455431 0.042518735 0.002359446 -0.009794131
000150 71 fd 98 3c 6a bb 5c bc a2 cd 45 3d 10 51 27 bd
       0.018675538 -0.013472417 0.04829181 -0.04084879
000160 5b 89 8e 3c 2d d2 16 3d 3d 71 df bc 74 75 56 3d
       0.01739948 0.036821533 -0.027275676 0.052358106
000170 1a ee 32 bd 82 ff 9e bc b5 59 08 3d a6 8a 28 3c
       -0.043684103 -0.019408945 0.033288676 0.010286963
000180 f0 c9 49 bc a6 4a 2b bd ef c3 11 bd f1 6f b7 3c
       -0.012316212 -0.041819237 -0.035587247 0.022392245
000190 ab 65 2e 3c fb cd 21 3d 20 7b 54 3b 96 ee 6a bc
       0.010644357 0.03950308 0.003242202 -0.01433911
0001a0 c7 d6 4c 3c 6a 36 7d 3c 32 8a 5b bd 55 f4 ad 3c
       0.012502379 0.015454868 -0.05359859 0.02123467
0001b0 1c a8 0d 3c 15 15 43 bc d8 46 1b 3d 39 18 3a bd
       0.008646037 -0.011906882 0.03790936 -0.045433257
0001c0 9e bf d9 bc 65 88 63 bd b3 30 a1 3b 2a e9 75 bc
       -0.026580628 -0.055549998 0.0049191355 -0.015009204
0001d0 3c 09 ab bc 7e 20 8c bc f2 05 d2 3c 70 ac 55 3c
       -0.020878427 -0.017105337 0.0256376 0.013041601
0001e0 3f ae 3c 3d 54 f3 06 bd 1f 8d 29 bc 85 06 d8 bc
       0.04606461 -0.0329469 -0.010348587 -0.026370296
0001f0 26 57 4f 3d de 14 89 bc c4 ac c2 3b 19 9d 59 bd
       0.05062022 -0.016733583 0.0059410054 -0.053128336
000200 de c6 73 3a e6 3c 38 bd c6 4c ff 3b bb ab de bc
       0.0009299348 -0.044979952 0.0077911345 -0.027181497
000210 54 0b b1 3c 0d d4 b7 3c c3 16 c3 3c 69 0f 0a 3a
       0.021611847 0.02243998 0.023814565 0.00052665785
000220 32 98 27 bd 37 d1 2e 3d da 22 b8 bc 95 c8 fa bc
       -0.04091663 0.04267999 -0.022477556 -0.030613223
000230 85 78 f0 bc 61 95 2e bd 50 08 f7 ba 5b 47 21 3d
       -0.029354343 -0.042622928 -0.0018847082 0.03937469
000240 2c a5 54 3d 4d c8 27 3b 74 5a d3 bc 8e ec 38 3d
       0.051915333 0.0025601566 -0.025799967 0.04514747
000250 37 3a 0e 3d 37 da c7 3b 60 9a c1 bd 08 b9 c0 bd
       0.034723487 0.0060990113 -0.09453273 -0.09410292
000260 50 38 65 bd fd 73 50 3c 6c 96 d2 bc 96 3f 78 3c
       -0.055961907 0.012722966 -0.025706492 0.015151879
000270 c5 fc 03 bc 48 d9 f6 3c 56 d4 91 bc 4e 00 f7 3c
       -0.00805587 0.030132905 -0.017801445 0.030151512
000280 d0 55 16 bd 8c 36 34 3d 35 4b 3d 3c 23 fd 27 bc
       -0.03670293 0.043997332 0.011553575 -0.010253224
000290 c7 39 22 bd d4 cc f6 bb e1 fc 55 3d 50 20 e0 3c
       -0.039605882 -0.0075317416 0.052243117 0.027359158
0002a0 65 aa 19 bc 87 f2 0c bd d0 e2 5e bc 85 f4 23 3d
       -0.009379004 -0.03441098 -0.013603881 0.040028114
0002b0 f1 0a 78 3c df 05 8a 3d bb 45 94 3c b7 54 45 bd
       0.015139327 0.06739401 0.018099656 -0.048176493
0002c0 46 de f9 bc 64 df 93 bc 6e 24 f2 3c 2a f1 cc bc
       -0.030501496 -0.018050857 0.029558387 -0.02501734
0002d0 d3 db ed bc bc 96 21 3d d9 87 0f 3d 6c ee 1f bd
       -0.029035484 0.039450392 0.035041664 -0.039045736
0002e0 c8 9f d0 bc 4f 3a 5c 3c bd 70 e5 3b 67 2b ce ba
       -0.025466815 0.013441636 0.007001965 -0.0015729488
0002f0 6f ea f2 3c da 2e 6f 3c 4f 75 85 3b 20 98 06 3d
       0.029652802 0.014598573 0.004072822 0.03285992
000300 15 5d 01 bd 59 32 8d bd 4f af a7 bd 2e 6e 26 3d
       -0.03158291 -0.06894369 -0.08187734 0.04063242
000310 8d 2b 1f 3c 27 0f 2e 3d db 9a 7a 3c cf 6d 5d bc
       0.009714973 0.04249492 0.0152957095 -0.01351495
000320 c8 7a c7 3b 6b 92 29 3c d2 ca 5e bd 6e 21 0d 3d
       0.0060876347 0.01034985 -0.054392643 0.03445571
000330 da b3 1c ba cc 52 87 3c 81 45 3e bc 9a 4e a0 b9
       -0.00059777277 0.016518973 -0.011613251 -0.0003057614
000340 02 68 d0 3c 25 2c 78 bd 39 e9 1c 3d bb 6a 75 bc
       0.02544022 -0.060588975 0.038308356 -0.01497906
000350 fd 71 24 ba 25 90 7e bc 38 83 3a 3c 57 45 fc 3b
       -0.0006273089 -0.015537296 0.011383824 0.0076986956
000360 97 c2 a6 3c ab 9c ea bb 8d 57 13 bd 02 eb 6f bc
       0.02035646 -0.0071597896 -0.035972167 -0.014643433
000370 5e 52 41 bc 75 5e d5 bc 31 af 0a 3d f9 df 92 bc
       -0.011799423 -0.026046017 0.03385848 -0.017929064
000380 aa e8 f5 bc be 8a 13 3d 95 75 dc 3b d6 f8 db 3c
       -0.03001817 0.036020987 0.006727884 0.026852053
000390 b3 60 81 bd cb 2a f6 bc e8 40 b6 bc ba 58 38 3d
       -0.06317272 -0.030049702 -0.022247747 0.04500649
0003a0 c2 16 b2 3b da ec 0a 3c b6 de bd bc 3e 82 03 bd
       0.005434842 0.008479321 -0.023177486 -0.03210663
0003b0 71 fe 06 3d 2a cd 90 3c af 62 0b bd 75 04 ac 3c
       0.032957498 0.017675955 -0.03402966 0.020998219
0003c0 d0 24 0b bd 85 f8 56 bc ce ae d2 3c b0 b3 2f bd
       -0.033970654 -0.013120775 0.025718119 -0.042895973
0003d0 31 a6 b4 3b 9e 10 2b 3d b5 90 cc 3c 4c f8 d0 bc
       0.0055129756 0.041763894 0.024971345 -0.025509022
0003e0 99 09 29 3b 9c 6f 3c bd 9f 7b 46 3d a6 b1 89 bc
       0.0025793074 -0.046004876 0.048457738 -0.016808342
0003f0 bc 15 e1 3c 62 0f a8 bb a8 d5 b4 bc 3c 12 29 3b
       0.027476184 -0.005128787 -0.022074535 0.0025798222
