output/electricity_cnn_20260221_230745/checkpoints/epoch_15.pt (torch, 767268 bytes, 23 tensors)

conv.0.weight f4 [64, 15, 7]
000000 e8 7a b1 3d 07 cd ab 3c 50 97 ad 3c 55 9b b8 3c
       0.08666021 0.020971788 0.021190315 0.022535006
000010 d2 6b e8 3c 08 79 af 3b a3 a2 ea bc d3 3b a4 3d
       0.028371725 0.005355004 -0.028642004 0.08019223
000020 46 aa e3 bc 80 e9 96 bd e2 ac 69 bd 47 88 9b bd
       -0.027791154 -0.07368755 -0.05704964 -0.07594352
000030 7e 39 54 bd 40 8d 93 3d 80 98 9c bc f6 51 77 3d
       -0.05181264 0.07204676 -0.019115686 0.0603809
000040 29 13 7a bc 07 67 38 3d 0d f1 72 bd 29 7b c8 3c
       -0.015263357 0.04502013 -0.059311915 0.02447279
000050 ad 38 54 3d 67 54 be bd 79 be d2 bd d4 a2 92 bd
       0.051811863 -0.09293442 -0.10290236 -0.07159963
000060 31 cc 4f 3d dc 15 13 3d af 0e 58 3d f1 6c 86 bd
       0.05073184 0.03590952 0.05274838 -0.06563748
000070 e8 d4 73 3d b2 8b 82 bc 48 49 a2 bd f8 64 ed 3c
       0.059529215 -0.015935753 -0.079241335 0.02897881
000080 05 e9 2d bb 9b ef f7 3c a5 67 97 39 b1 48 9b 3c
       -0.0026536596 0.03026562 0.00028878186 0.01895556
000090 99 a0 b5 3d de 25 54 bd 9a 5b 94 bd 8f ba 0b 3d
       0.08868522 -0.051793925 -0.07244034 0.034113463
0000a0 c1 b3 33 3c 8c cf 47 bd ea 7e 04 3c b4 11 d1 3c
       0.01096815 -0.048781916 0.008086899 0.025521137
0000b0 9c 54 d6 3c 7a 2d d1 bb 92 3f 94 3d 6f e9 64 bd
       0.026163392 -0.006383595 0.072386876 -0.055886682
0000c0 fa 82 88 3c 5a c1 ae bd c3 f2 12 bd 43 fa 37 bd
       0.016664017 -0.08532973 -0.035876047 -0.044916403
0000d0 5f 19 c0 3d 28 3b 4c bd 86 d2 63 bd 94 fd 8f bb
       0.09379839 -0.049861103 -0.055620693 -0.0043942425
0000e0 85 59 eb bd 1f 3a 3c be d9 2c e6 bd f6 8b 99 bd
       -0.11491684 -0.18381546 -0.11239023 -0.074973986
0000f0 66 fb 2c be 9b c6 e4 bd 30 fd 4d be ef 3d 18 3d
       -0.16892776 -0.111706935 -0.20116115 0.03716844
000100 51 f4 b6 3d 58 6e 5a bc 33 09 b7 bc 37 28 b7 bd
       0.089333184 -0.013331972 -0.022343254 -0.08943217
000110 83 5c 22 bc ae d8 8d 3d 96 9e 39 bd c1 75 4f bd
       -0.009909752 0.06926094 -0.045317255 -0.05064941
000120 d6 a0 2f 3c fd 1f ba 3d 90 b5 9e 3d c8 60 96 bd
       0.010719499 0.090881325 0.07749474 -0.07342678
000130 d4 2d df bc 2b 60 96 3d 3b 58 b0 3c f3 18 88 bd
       -0.027243532 0.07342561 0.021526447 -0.06645384
000140 ce 11 2d 39 be 68 6f 3c 92 c7 b6 3d cc b8 1f bd
       0.00016505198 0.014612375 0.08924784 -0.038994595
000150 7a ff ce bb 4b db 98 bd 48 a4 e9 bc 3f e7 f2 bc
       -0.0063170763 -0.07463702 -0.028520718 -0.029651282
000160 e1 fa 5b bc 53 2e b5 3c 41 cb 2f 3d 8e 47 88 3c
       -0.013426513 0.022116816 0.042918447 0.016635682
000170 47 b2 ad 3d ad 5f 71 bd 17 d8 36 bd 05 5a 89 bd
       0.08481269 -0.058929134 -0.044639673 -0.06706623
000180 99 31 0d 3c 1d e9 7c bd 5a b4 89 3c 81 bb a0 ba
       0.008617782 -0.06174575 0.016809631 -0.0012262912
000190 75 2b b0 bc 71 fd 02 3b fd 0a 40 bc 14 51 96 bd
       -0.021505097 0.0019987489 -0.01172137 -0.07339683
0001a0 f8 f7 06 3d 54 7d 28 3d 61 65 94 3d 07 1a d5 3d
       0.032951325 0.041135147 0.07245899 0.10405355
0001b0 db 24 7d bd 9a bf e8 3c ed 6e 14 3d 12 07 a7 bd
       -0.061802726 0.028411675 0.0362386 -0.081556454
0001c0 74 68 a8 bd 55 75 d2 ba fa 03 53 3d f2 08 ab 3d
       -0.08223048 -0.0016056696 0.051517464 0.083513156
0001d0 68 59 c2 bc b5 45 e4 3c 9a 3d 92 3d 33 41 10 bd
       -0.023724273 0.02786527 0.07140656 -0.03521843
0001e0 e5 2d 88 bc e5 89 50 3d 54 67 eb 3a 2c 22 06 bd
       -0.016623447 0.050912756 0.0017959871 -0.032747433
0001f0 25 46 8f bd 3e 7b cf 3d 05 0a 54 3c ff 13 d1 bd
       -0.06995801 0.101309285 0.012941842 -0.10208892
000200 e5 09 c0 bd c2 a2 ea 3c c4 85 62 bd e4 04 ad 3b
       -0.09376887 0.028642062 -0.05530335 0.005280124
000210 cd aa 63 bc 40 0c fd ba 0c 77 2e bd 60 fb d5 3d
       -0.013895703 -0.0019306019 -0.042594 0.104483366
000220 77 6d fa bc 3f 4d 5a bd 49 26 95 bd 9e d1 00 bc
       -0.030569775 -0.053296324 -0.07282693 -0.007862477
000230 a3 15 3c bb d8 3e fd bb 40 e1 a4 3c 84 05 7c 3d
       -0.002869942 -0.007728439 0.020126939 0.061528698
000240 8f ff 9a bc ad dd 8a bd 3d 60 6b 3c 3e e3 81 bd
       -0.018920688 -0.067805625 0.014366207 -0.06342171
000250 7c 0b 15 bd 91 0e bc bb 57 99 a6 bc 49 2f cc bc
       -0.036387905 -0.005739041 -0.02033679 -0.024924891
000260 7a fd b9 bd ad 78 4f bc 5c 07 89 3c 8f 79 fe bb
       -0.0908155 -0.012663049 0.016727142 -0.0077659558
000270 32 7b ab 3d 17 09 a8 bd f5 bc 32 bd 2f b5 68 3d
       0.08373107 -0.08204859 -0.043637235 0.056813415
000280 d7 c9 90 3d 1d c3 df 3b 62 8a b7 bd 20 db 34 be
       0.07069748 0.0068286792 -0.08961941 -0.17661715
000290 c6 63 cb bd 51 f3 14 be 43 06 d9 bd 36 58 bf bd
       -0.0993114 -0.14545943 -0.105968975 -0.09342997
0002a0 6c 25 cb bd 95 76 ff bd 38 1e 75 bd 17 10 90 bd
       -0.09919247 -0.124737896 -0.059843272 -0.07034319
0002b0 a6 12 4e 3c 4e d8 59 bc 59 96 9a bd 5d ea ed bc
       0.012577688 -0.0132962 -0.07548208 -0.029042417
0002c0 00 f8 9a 3b 8b dc 5d 3d 8e 55 66 b8 66 ce 92 bd
       0.004729271 0.054165404 -5.4915952e-05 -0.07168274
0002d0 12 f2 92 bc de fc 80 3d 8a 1a 1b bc 46 d2 63 bd
       -0.017937694 0.062982306 -0.009466777 -0.055620454
0002e0 a5 d3 0b bd 1e 81 38 bd d8 03 89 3c 1d c2 96 bd
       -0.034137387 -0.04504501 0.016725466 -0.07361243
0002f0 e3 64 05 bd c1 eb 93 3c b9 0f 08 3d bd 37 9a bc
       -0.032566916 0.018056752 0.03321812 -0.018825406
000300 f8 71 9d bd a1 06 12 3d 53 ef 41 bd 73 0f 81 3c
       -0.076877534 0.035650853 -0.047347378 0.015754437
000310 be 7b 7c bd 91 45 ba 3d ac 39 15 bd 13 81 87 bd
       -0.061641447 0.090953 -0.036431953 -0.06616416
000320 60 64 c3 bc b2 4a 93 3c 09 00 58 bd 1e 33 b0 3d
       -0.023851573 0.017979953 -0.05273441 0.086035
000330 54 3a b0 bd ce a0 cd 3c a0 a0 07 3d a8 3c c2 3d
       -0.08604875 0.025101092 0.03311217 0.094842255
000340 d7 95 2c bd 0c 4f 59 3d b2 57 0c bd 48 3e 17 3d
       -0.042135086 0.0530539 -0.03426332 0.03692463
000350 7a 4b 9c 3d c4 b7 a0 3d 2e 90 9e bd 47 d6 bb 3c
       0.076315835 0.078475505 -0.07742344 0.022929324
000360 77 fd b9 bd 5b c3 02 bc 0b 04 ba 3c 3f 94 5c bd
       -0.09081548 -0.007981147 0.022707006 -0.053852316
000370 44 f1 99 bd f4 0d 92 bd 73 60 47 bd 9b 8a 77 3d
       -0.07516721 -0.071315676 -0.048675966 0.06043492
000380 5f 3f 91 3d 36 3d a6 bd 75 3c b1 bd ff 36 bd 3d
       0.07092165 -0.08117144 -0.086541094 0.09239005
000390 b4 7c 64 bd d7 20 6e 3d 80 05 2a 3c a4 c0 f4 bd
       -0.05578299 0.058136787 0.010377288 -0.11950806
0003a0 e3 12 d8 bd 16 2c 44 3d 23 27 e6 bc 0a c6 64 3d
       -0.10550477 0.047893606 -0.028094834 0.055852927
0003b0 b0 3c 41 3c 9f 6e 10 bd c3 67 8e 3d 69 16 a3 3b
       0.011794254 -0.035261746 0.06953385 0.0049770367
0003c0 a7 99 5e bd b3 3b 31 bd 8f cf 90 3d eb b5 b3 bd
       -0.054345753 -0.043269824 0.07070839 -0.087749325
0003d0 95 b3 73 bd 44 22 bb 3d f3 12 a5 bd 6e f2 c6 3d
       -0.059497435 0.09137395 -0.08060255 0.097142085
0003e0 4a c0 61 bd 72 6f 9e bd 59 7c 79 bd 5b aa 40 3d
       -0.05511502 -0.077361 -0.060909603 0.047037464
0003f0 c0 f6 96 3d 41 ca 53 3d 95 08 8f bd ec 9e 05 bd
       0.073712826 0.051706556 -0.06984059 -0.032622263

conv.0.bias f4 [64]
000000 27 51 b2 3d 14 f3 64 3d d5 ce a0 3c c7 9e 4b 3d
       0.08706885 0.05589588 0.019629875 0.04971197
000010 70 0c 60 3d c5 bf a3 3d da cb 00 3d 0c 87 00 bc
       0.05469936 0.079955615 0.031444408 -0.007844698
000020 2a d1 36 bd 11 93 ac bd 68 38 b7 bd 22 f2 5a 39
       -0.04463307 -0.08426488 -0.089463055 0.00020880302
000030 6d 2c 7c 3d 29 3f c6 bd 5f fe be bd ce cd 6a bd
       0.061565805 -0.096800156 -0.09325861 -0.057325177
000040 33 e9 28 bd 64 03 c8 bd e2 23 ad bd 28 77 a4 3c
       -0.04123802 -0.09766272 -0.0845411 0.02007635
000050 7f 41 24 bd ff e9 84 3d 72 37 e0 3b 5a 25 60 bd
       -0.040101524 0.06489944 0.006842547 -0.05472312
000060 14 10 a6 3d 8a a9 85 3d 9e 1c a2 3d 04 88 bc bd
       0.081085354 0.06526478 0.079156145 -0.092056304
000070 01 47 64 3c 47 54 72 bd 23 6e 88 bd 9b 68 86 3d
       0.013932944 -0.059162404 -0.06661632 0.06562921
000080 1a 36 b7 3d f1 b8 fc 3c 59 f3 8b bd 16 1c 91 bd
       0.08945866 0.030849906 -0.06833524 -0.07085435
000090 bb eb 9d bc 21 24 5c 3c 63 cf 39 3d aa 3d 42 3d
       -0.019277444 0.013436348 0.045363795 0.04742209
0000a0 7d 01 43 bc c6 7a 57 bd 63 7b 41 bc 80 1d 94 3c
       -0.01190221 -0.05260732 -0.011809203 0.018080473
0000b0 8c 83 f4 bc 92 e0 df bc c7 7b 48 3d e7 64 b2 3d
       -0.029847883 -0.027328763 0.04894617 0.08710652
0000c0 bd 75 3a 3d 3f 32 e6 3c af c6 af bb 17 1d a0 bc
       0.04552244 0.028100131 -0.005364261 -0.019545121
0000d0 fc e7 6d 3d a9 37 3b bc 2b 48 cb 3d 6d 2f 6b bd
       0.058082566 -0.011426845 0.09925874 -0.057418276
0000e0 76 8b 11 39 29 a1 5d 3d 09 d6 b9 ba 5f b5 89 bd
       0.00013880231 0.054108772 -0.0014178167 -0.06724047
0000f0 79 a1 8c 3d 10 7e 7d 3d 1e 31 be bc d4 a9 12 bc
       0.06866736 0.0618878 -0.02321678 -0.008951623

conv.1.weight f4 [64]
000000 f2 c7 80 3f 87 e7 6e 3f 9b a7 7d 3f e3 f5 7e 3f
       1.0061018 0.9332203 0.9908387 0.99593943
000010 eb 44 81 3f ed d4 7e 3f 44 05 74 3f d4 13 6a 3f
       1.0099157 0.9954365 0.95320535 0.91436505
000020 b5 35 7f 3f 37 b7 88 3f 22 2d 84 3f 32 d3 8c 3f
       0.99691325 1.0680913 1.0326273 1.1001952
000030 b5 1f 7e 3f 9a fc 6e 3f 14 a9 79 3f 36 7f 84 3f
       0.9926713 0.9335419 0.9752362 1.0351322
000040 e2 86 7f 3f 28 75 80 3f 78 68 8b 3f dc 6d 86 3f
       0.9981519 1.0035753 1.0891256 1.0502276
000050 34 cf 81 3f 31 35 80 3f d8 11 94 3f ed bb 88 3f
       1.0141358 1.0016233 1.1567945 1.068235
000060 b1 93 86 3f ee 7d 79 3f 4c ac 80 3f 9e e0 7b 3f
       1.0513822 0.9745778 1.0052581 0.98389614
000070 6b db 6a 3f af 8f 7f 3f 19 8f 75 3f 51 34 83 3f
       0.91741055 0.9982862 0.95921475 1.0250341
000080 1e 51 72 3f 5b 23 74 3f 79 7a 77 3f 01 9b 5f 3f
       0.94655025 0.9536645 0.96671253 0.8734589
000090 7e d5 7f 3f 20 12 64 3f aa a3 81 3f dc 39 80 3f
       0.9993514 0.89090157 1.0128071 1.0017657
0000a0 39 9e 72 3f b9 3f 81 3f bc 2b 7d 3f 83 ee 74 3f
       0.9477268 1.0097572 0.9889486 0.9567644
0000b0 3d d5 8c 3f 90 1c 6f 3f cc 71 73 3f 86 ee 73 3f
       1.1002575 0.9340296 0.95095515 0.9528583
0000c0 22 61 86 3f ed a9 78 3f 7b 71 63 3f ca cd 78 3f
       1.0498393 0.97134286 0.8884503 0.9718901
0000d0 bf 2b 6a 3f 9a a1 76 3f 19 c0 83 3f 23 7d 7e 3f
       0.91473 0.96340334 1.0292999 0.99409693
0000e0 18 4a 8b 3f c7 2f 75 3f 35 b2 96 3f 1d 31 7f 3f
       1.0881987 0.9577603 1.1773134 0.99684316
0000f0 79 68 76 3f 9b 3b 79 3f 2b 6e 84 3f 05 a8 78 3f
       0.9625316 0.97356576 1.034612 0.9713138

conv.1.bias f4 [64]
000000 32 90 b6 bc 7c 1a 86 bd a0 8e 46 bd fb a9 0d bd
       -0.022285555 -0.0654802 -0.04847586 -0.034585934
000010 47 da f9 bc 8d b3 15 bd 34 b1 96 bd 69 92 8c bd
       -0.03049959 -0.036548186 -0.073580176 -0.06863863
000020 c2 3c b4 bc 4b a5 81 bc a1 80 13 bd 9b 32 01 3c
       -0.022001628 -0.015825888 -0.036011342 0.0078856
000030 61 8c 3e bd ff 13 26 bd 4f aa 11 bd f6 21 17 bd
       -0.046520595 -0.040546414 -0.03556281 -0.036897622
000040 6d 74 62 bd 04 4a 1c bd b6 ef 20 3c 23 00 73 bd
       -0.055286814 -0.038156524 0.009822777 -0.059326302
000050 f1 7b 31 bd b7 7a 70 bd bd 09 26 3d e0 7a 17 bd
       -0.04333109 -0.05871078 0.04053663 -0.036982417
000060 59 79 40 bd d0 24 41 bd 99 87 4a bc a3 ef 6b bc
       -0.046990726 -0.047154248 -0.012361431 -0.014400396
000070 06 60 23 bd d2 26 20 bd c5 29 87 bd b1 72 97 bd
       -0.039886497 -0.039099522 -0.06599764 -0.073949225
000080 c8 0e 32 bd eb d2 9d bd 7f 58 44 bd dd 81 03 be
       -0.043471128 -0.07706245 -0.04793596 -0.12842508
000090 f4 e8 92 bc ce 6f be bd 15 ac 0f bd 66 a3 2e bd
       -0.017933346 -0.09298669 -0.03507622 -0.042636298
0000a0 b5 b7 30 bd 32 9d 15 bd 81 2b 55 bc e6 ec 80 bd
       -0.043143947 -0.036526866 -0.01301086 -0.06295185
0000b0 f2 e8 8a bc 49 c1 4a bd 98 0b 03 bd 42 a2 a2 bd
       -0.01695678 -0.049500737 -0.03199348 -0.079411045
0000c0 74 8e c2 3b e1 ee e7 bc 4e 31 69 bd 57 3f 88 bd
       0.005937392 -0.028312149 -0.056931786 -0.06652706
0000d0 3c dd b5 bd a6 b9 d0 bc 95 d7 4e bd 9f 59 f3 bc
       -0.08880088 -0.02547915 -0.050498564 -0.02970582
0000e0 0a 6b db bc 16 89 9d bd a7 77 33 3d bc 98 c1 bc
       -0.026784439 -0.07692163 0.04381528 -0.0236324
0000f0 6c 75 12 bd 3b 10 8a bd 63 79 2b 3b 9e ab 74 bd
       -0.035756513 -0.06741377 0.0026164881 -0.05973398

conv.1.running_mean f4 [64]
000000 cd 54 b1 3d 1f 88 4e 3d da e3 8e 3c 32 15 4a 3d
       0.086587526 0.050422784 0.017442632 0.04933662
000010 7a bd 46 3d 0f 06 b5 3d 44 4c 15 3d a3 cb 01 bc
       0.048520543 0.08839046 0.036449686 -0.007922086
000020 da 64 47 bd c4 9a a6 bd a5 19 ba bd 04 ba ea bb
       -0.048680164 -0.08134988 -0.090869226 -0.007163288
000030 1e ee 4d 3d a5 ba c0 bd c9 9c be bd ab 51 7f bd
       0.050275914 -0.094105996 -0.09307248 -0.062333744
000040 5d 8c 35 bd ee 2e bf bd db 77 bf bd 0f c1 af 3c
       -0.044323314 -0.09335123 -0.093490325 0.021454362
000050 dd c4 17 bd eb f8 98 3d 56 94 cf 3a 7e ad 6d bd
       -0.037052978 0.07469352 0.0015837054 -0.058026783
000060 9a 38 99 3d d8 2b 8b 3d 56 0d 96 3d 6d 09 c4 bd
       0.07481499 0.06795472 0.073267624 -0.0957211
000070 0d 23 5e 3c df 26 50 bd 71 08 8e bd 85 1a 8e 3d
       0.013558161 -0.05081832 -0.06935204 0.06938652
000080 36 b5 c2 3d 07 1f 05 3d 5c 28 87 bd fa 54 92 bd
       0.095072195 0.032500293 -0.06599495 -0.07145114
000090 62 3b d5 bc 27 9b 4c 3c 81 8a 35 3d ba 83 2c 3d
       -0.026029292 0.012488163 0.04432154 0.04211781
0000a0 37 4a 3a bc 7c ba 57 bd d1 9a 73 bc 61 51 b7 3c
       -0.011370233 -0.05266808 -0.014868454 0.022377672
0000b0 b8 91 1f bd 78 9c d5 bc 90 96 33 3d 6e 2a ba 3d
       -0.038957328 -0.026075587 0.04384476 0.09090124
0000c0 02 cd 2c 3d e3 c0 ae 3c b9 f3 82 bb d5 4b a5 bc
       0.0421877 0.02133221 -0.003996339 -0.020177761
0000d0 8f f5 77 3d 67 da 9c bb 7f 5a d1 3d 93 10 7a bd
       0.060536917 -0.004786778 0.10222339 -0.061050963
0000e0 a5 b8 f8 bb 7a ef 63 3d 6a cb 99 bb 98 b3 8f bd
       -0.0075903707 0.055648305 -0.0046934383 -0.07016677
0000f0 a1 ab 8d 3d ea c8 91 3d b2 b8 01 bd 71 05 6e bb
       0.06917501 0.071183994 -0.03167028 -0.0036319161

conv.1.running_var f4 [64]
000000 46 75 75 3f b7 cf b1 3f df ae ae 3e 19 3d 0c 3f
       0.9588207 1.3891515 0.3411779 0.5478073
000010 d5 28 82 3f fe f8 29 3f 8e 9a 93 3f 08 47 f7 3e
       1.0168711 0.66395557 1.1531541 0.4829638
000020 51 b9 b1 3f 44 eb 17 3f 99 5b 83 3f f4 56 4f 3f
       1.3884679 0.5934336 1.0262328 0.80992055
000030 96 90 55 3f 0d e3 8b 3f 89 40 a1 3e 8c 47 3c 3f
       0.83423746 1.0928665 0.3149455 0.7354667
000040 3f 9c b0 3e 09 70 bf 3e 5b 31 a9 3f ae 5f d7 3e
       0.34494206 0.37390164 1.3218187 0.42065185
000050 aa 57 01 3f 8b 16 49 3f d7 b5 90 3f c4 33 0b 3f
       0.5052439 0.7855002 1.1305493 0.54375863
000060 2f f5 4c 3f 9c 50 37 3f 84 0a 65 3f 11 ec 26 3f
       0.8006162 0.71607375 0.8946917 0.6520396
000070 f5 d0 c7 3e b5 4c e7 3e 6c 94 11 3f f3 2f 07 3f
       0.3902661 0.4517571 0.568671 0.5280754
000080 9e 8c 64 3f 06 6a 70 3f 8a 91 1b 3f 75 56 7c 3f
       0.89277065 0.9391178 0.6076895 0.9856942
000090 38 54 5d 3f 7d 8c b5 3f 79 1c 15 3f ce 0a 01 3f
       0.8645663 1.4183499 0.5824657 0.5040711
0000a0 c3 c7 e6 3e 3f 20 25 3f 12 8e 4e 3f 1b 94 54 3f
       0.4507428 0.6450233 0.8068553 0.8303849
0000b0 2e 93 58 3f 70 ad 25 3f a4 5e 8d 3f 45 c2 2b 3f
       0.8459958 0.6471777 1.1044507 0.67093307
0000c0 86 dc 3a 3f af c7 ba 3f 37 65 18 3f 30 8b ef 3e
       0.7299274 1.4592189 0.5952944 0.4678588
0000d0 8f 28 f7 3e 28 43 1c 3f f3 5f 67 3e 9b dc 02 3f
       0.4827313 0.6103997 0.22595195 0.5111787
0000e0 d0 d3 9d 3f 74 3d 0c 3f a7 ce 6e 3f 90 0f 17 3f
       1.2330265 0.5478127 0.93284076 0.5900812
0000f0 96 93 2c 3f a6 59 d0 3e 2c 09 81 3f b5 6c 94 3f
       0.674127 0.40693396 1.0080924 1.1595675

conv.5.weight f4 [128, 64, 5]
000000 30 34 fe 39 48 af 04 3c b3 a8 6e bc 4b 91 18 bd
       0.00048485538 0.008098431 -0.014566588 -0.037247937
000010 af cb 07 3d 91 73 38 bd b4 85 f4 bc 77 76 f0 3b
       0.033153232 -0.045032088 -0.02984891 0.007338341
000020 62 a7 89 bc 3b a2 e2 bc f6 7b ab bc 70 24 54 bc
       -0.016803447 -0.027665248 -0.020933133 -0.0129481405
000030 bf 64 9a bc b7 9b 00 3c 4a 46 e1 3c 2a 58 64 3c
       -0.018846868 0.007849625 0.027499337 0.013937036
000040 1e a4 51 bd 1f 0d 35 bc f4 9f 0d 3d e5 0a 14 3d
       -0.051181905 -0.011050492 0.03457637 0.036143202
000050 7e 40 ab bc 44 0c 26 3c 98 da 5d bd b9 91 79 bd
       -0.020904776 0.01013476 -0.054163545 -0.060929988
000060 c5 0d b2 bc e8 e6 04 bd 69 f0 63 bd ec c7 dc bc
       -0.021735081 -0.03244677 -0.055649195 -0.026950799
000070 69 88 59 bd 8f 4d c3 3c 55 26 ce bc 03 af 86 bc
       -0.053108606 0.023840694 -0.025164763 -0.016440874
000080 fe 92 3f bd b4 87 89 3b c8 18 db 3c 94 25 07 bd
       -0.046771042 0.0041970853 0.026745215 -0.03299482
000090 09 2d 36 bd a1 1d 3a bd 7f 9b a5 bc 53 97 06 bd
       -0.044476543 -0.045438413 -0.020215748 -0.032859158
0000a0 ef 4b ae bc 79 ba 2a 3d 02 6a 75 bc 74 15 ba 3a
       -0.021276442 0.04168174 -0.0149788875 0.0014197067
0000b0 64 59 2c bd 7c 71 86 3c 29 4f 3a bc 2d d9 6c bd
       -0.042077437 0.016411535 -0.011371412 -0.057824302
0000c0 b2 9a 83 bd d7 27 77 bd a3 28 92 bb dc cb 7e 3c
       -0.0642599 -0.06034073 -0.0044604107 0.015551534
0000d0 e4 df db bc da 24 05 3c a9 46 6c 3b 2e 21 58 3d
       -0.026840158 0.008126462 0.003605286 0.052766018
0000e0 7c ec e1 3c e8 26 f5 3c 67 a3 0c 3d 28 29 9d bc
       0.027578585 0.029925779 0.03433552 -0.019184664
0000f0 63 ce a3 3c c6 ba f2 3c e8 6e 5a bc 45 80 16 bd
       0.019995874 0.029630076 -0.013332106 -0.03674342
000100 1a fe 4f bc 81 bd 1b 3d e0 a2 18 3d 6e 2c 78 3d
       -0.01269486 0.038022522 0.037264705 0.060589246
000110 a4 2e 1c bd 07 81 1a bd 58 58 34 bd f6 b7 97 bd
       -0.038130417 -0.037720706 -0.044029564 -0.07408135
000120 f3 3e 68 bb a7 a9 85 bc 40 b6 6f bd 14 5b d1 3c
       -0.0035437911 -0.016316248 -0.058523417 0.025556125
000130 ea bb 83 3c 88 b9 10 3d d9 24 cd bc 08 45 3b bd
       0.016080815 0.035333186 -0.025041984 -0.04572013
000140 1a 7f 38 ba 45 7a 75 3d 8c 8c 37 bc 8f 7a 8a bc
       -0.00070379826 0.05993106 -0.011202943 -0.016904144
000150 36 77 f6 3b 12 5e 63 bd 63 69 c8 bc 39 07 b3 bd
       0.0075215353 -0.055509634 -0.024464315 -0.08741612
000160 c3 09 4c 3b d8 f4 7c bd 22 25 77 bc 1f 77 07 bc
       0.0031133748 -0.06175694 -0.015084537 -0.008268147
000170 c0 05 d1 3c 12 c4 fa bc 51 66 5a bd fa 1c 70 bd
       0.025515437 -0.030611072 -0.053320233 -0.058621384
000180 71 c5 22 bd 2b 01 03 bd d8 17 27 3d 52 3e a6 3c
       -0.039739076 -0.031983536 0.040794224 0.020293389
000190 4d 85 97 3c 0a 28 68 3c 22 96 aa 3c a3 c6 33 3d
       0.01849618 0.014169702 0.020823542 0.043890607
0001a0 d1 9e b3 bc f4 1a ab 3c 6e 77 24 3a cc 3f 4f bc
       -0.021926316 0.020886876 0.00062739 -0.012649488
0001b0 9d 28 70 bd c3 c1 a7 3c 9d b9 69 3c 19 e2 ba 3c
       -0.05863248 0.020478135 0.014265445 0.02281289
0001c0 8a f2 0e 3d 40 9a 58 bd bf 16 8e 3b 30 6e 03 bd
       0.034899272 -0.05288148 0.0043362076 -0.032087505
0001d0 06 06 2c bd 27 99 4f bc db 14 c0 3a 8e 3e 26 bd
       -0.041997932 -0.012670792 0.0014654653 -0.040587
0001e0 99 e8 8a bc d9 fc 30 3c 38 f4 0c 3d 68 c3 28 bd
       -0.016956614 0.010802471 0.034412593 -0.04120198
0001f0 77 e6 24 3d 3b 6a 04 3d 23 ff 71 bd 1d 2c 74 3c
       0.04025885 0.03232787 -0.059081208 0.014903096
000200 a9 16 8b 3c 35 e1 0b 3d 2f 8f 66 bd 65 a9 37 bd
       0.016978579 0.03415032 -0.056288894 -0.04483928
000210 62 b9 8d bd 48 e0 13 bd 60 45 2b bd 07 68 a8 3d
       -0.069201246 -0.036102563 -0.041814208 0.08222967
000220 cc 24 3e 3d be 06 dd 3c 91 47 38 3d 8a 0b 79 bd
       0.04642181 0.026980754 0.044990126 -0.06080202
000230 ff 4a 47 bc 59 19 a7 bc b3 6c 4d bd 81 dd 04 bd
       -0.012163877 -0.020397829 -0.05015249 -0.032437805
000240 9e 3e e3 bb af 3a 6a 3d 87 c9 2a 3c 85 82 a8 3c
       -0.006934955 0.05718487 0.010424024 0.020570049
000250 d8 5a 90 bd de 01 9f bd e3 3e 66 3d 0e 6d f3 3a
       -0.07048577 -0.07764028 0.056212317 0.001857193
000260 31 e2 19 3d b8 4f 5c 3b 83 80 13 bd e8 00 7c 3b
       0.03756923 0.0033616852 -0.03601123 0.0038452689
000270 89 3b cd bc bf 06 59 3c c9 cd 38 bd 8e 8f fd bc
       -0.025052803 0.013246237 -0.045118127 -0.030952241
000280 cb 65 87 bd a1 da 77 bc 2b 46 46 3c 97 55 88 bc
       -0.06611212 -0.015127809 0.01210169 -0.016642375
000290 db 4d 2b bd 66 84 8a 3c 2f fa 1b 3d 88 83 19 bd
       -0.041822296 0.016908836 0.03808039 -0.037478954
0002a0 ec f9 4e 3c c3 fa d0 bc 82 4a 40 bc 34 57 3c bd
       0.012632828 -0.025510198 -0.011736514 -0.0459816
0002b0 ee bc 02 3d 45 1a ab bc cb df 26 3d 0d 08 30 3d
       0.03191846 -0.02088655 0.04074077 0.042976428
0002c0 5d dd b5 3c ca b3 5c bd 2a 48 2d 3c 3c 07 2a bb
       0.02220028 -0.053882398 0.010576287 -0.0025944253
0002d0 b9 5f 26 bc 01 fc 96 3a b8 62 fb 3a 60 c1 83 bd
       -0.010154658 0.0011519195 0.0019179201 -0.06433368
0002e0 7d cc 3e bd c4 45 f0 bc 1a 00 07 3d f5 d4 05 3d
       -0.046581734 -0.029330142 0.03295908 0.032673795
0002f0 7f c3 46 3d c4 99 cc 3c 86 84 da 3c ab f8 2b 3b
       0.048526283 0.024975665 0.02667452 0.0026240747
000300 56 f8 58 3c f5 79 b6 3b f3 ca 83 bc 9a ee 1a bc
       0.013242802 0.0055687376 -0.016087985 -0.009456301
000310 c8 d4 23 3c 9e 4e 1f 3d 89 92 03 3d 01 b5 fa 3c
       0.0099994615 0.038893335 0.03212217 0.030603888
000320 b4 02 93 bd 3a 5b fb bc 4a 95 8a 3c 4d 61 5c bb
       -0.0717825 -0.030683149 0.01691689 -0.0033627332
000330 91 38 00 3c 92 73 94 bc 93 b5 4d bd b1 2d 2c 3c
       0.0078259865 -0.018121514 -0.05022199 0.010508941
000340 81 64 42 bd 59 ab 0b 3d 12 02 05 3d e7 75 80 bd
       -0.04745913 0.034098957 0.032472678 -0.06272488
000350 3d 19 0d bd 17 17 47 bc 20 38 7e bd 0b 44 00 bd
       -0.034447897 -0.012151501 -0.062065244 -0.03131489
000360 5b b9 bf bc 4c d5 66 3d 10 27 09 3d 69 aa 89 bd
       -0.023403814 0.05635576 0.03348452 -0.06721956
000370 3b 2e c5 39 e9 06 5a 3d 20 df 14 bc 0f 50 a2 3b
       0.00037609212 0.053229246 -0.0090864 0.0049533914
000380 f3 11 36 bd a2 65 f5 bb ef 4f 6f bd 85 a5 d4 bb
       -0.04445071 -0.007488922 -0.05842584 -0.006489458
000390 37 cc 38 bc 5c 10 ec bc ea 23 1c bd fe 05 a6 bc
       -0.011279157 -0.028816395 -0.038120188 -0.02026653
0003a0 63 c2 d1 3c 77 1c e6 bc ea 6f 84 3b b2 c5 53 bd
       0.025605386 -0.028089745 0.0040416615 -0.05170221
0003b0 b9 6a 20 bd 89 c9 a7 bb ed b2 80 bd 07 0f 17 3d
       -0.03916428 -0.0051204604 -0.062841274 0.036879566
0003c0 d9 0a 09 bb 24 83 53 3d 3b 49 d4 bb ed be 0f 3d
       -0.0020911007 0.051638737 -0.0064784563 0.03509419
0003d0 30 c6 5a bd cf 66 01 bc 8d 71 df bc 82 08 1b 3d
       -0.053411663 -0.007898047 -0.027275825 0.03784991
0003e0 23 b2 92 3b 03 3d d3 bc 63 81 85 bc 13 e3 5b bc
       0.004476802 -0.025785929 -0.016297048 -0.013420838
0003f0 70 7c c1 3c a6 14 12 3d cb ab ba bc 44 d2 2a 3c
       0.023618907 0.035664223 -0.022786995 0.010426108

conv.5.bias f4 [128]
000000 91 f0 3e bc 9e 94 21 3c 7f b1 e6 bc e4 8c 11 bd
       -0.011654035 0.009862093 -0.028160809 -0.035534754
000010 54 b7 c1 39 ec be 37 bd a7 81 92 bc 04 7e ba bc
       0.0003694842 -0.04485981 -0.017884089 -0.022765167
000020 11 6d 87 3c f5 77 38 bd 5f 02 f4 3c 24 11 55 3c
       0.0165315 -0.045036275 0.029786287 0.013004575
000030 49 94 95 bc a3 61 8e 3c e7 d4 4c 3d 5c b6 b4 3c
       -0.018259184 0.017380541 0.050007727 0.022059612
000040 2a d0 16 bd f3 a3 e3 3c 5b d1 1e bd ef 6b 2c bd
       -0.036819614 0.027788138 -0.038773876 -0.04209512
000050 01 52 64 bc bb 6c bb 3c 0a ba fd bc e6 0f 56 bd
       -0.013935567 0.022878995 -0.0309725 -0.052261256
000060 ea 1c 00 3d c8 ab 58 bd 99 df 91 3b 52 30 7e 3a
       0.031277575 -0.0528982 0.0044517037 0.00096965313
000070 bd ee ad 3c 9f 11 09 3d ae 78 bc b9 6d a6 aa bc
       0.021232003 0.03346407 -0.00035948068 -0.020831311
000080 8e f0 ed 3c aa 43 18 3d 84 d0 87 bc cc 6c 1c bc
       0.02904537 0.037173904 -0.01657892 -0.009547424
000090 a3 52 56 3d 03 56 ab bc 06 a9 46 3d ca 7d 21 bd
       0.052324902 -0.020915037 0.048501037 -0.039426602
0000a0 c2 d9 27 3d b1 b0 1c 3d 79 9d 01 3d 47 43 c3 bc
       0.040979154 0.038254444 0.03164432 -0.023835791
0000b0 3d 04 45 bc d8 2e 54 3d 8d 5a b8 3b 51 a8 29 3d
       -0.012024936 0.051802486 0.005626029 0.041420285
0000c0 f8 93 08 bd 9e 47 ee 3c c6 4c 55 bc 1d 5f 38 bd
       -0.03334424 0.029086884 -0.0130187925 -0.045012582
0000d0 d5 d9 29 bd 03 c2 f9 bb 22 b7 cb 3b 95 be a0 bc
       -0.041467506 -0.007622005 0.0062168995 -0.019622127
0000e0 52 8d 40 bd d9 b7 f6 bc b4 9a 6b bd 6d 0f 83 3b
       -0.047009774 -0.030116962 -0.057520583 0.0039996416
0000f0 30 ba 1f 3d 94 2f 49 3d e7 6d 14 3d 0d 1f d3 bc
       0.03899592 0.04911764 0.036237624 -0.025771642
000100 dc f9 5a 3d 7a 3e c0 bc cf 19 b2 3c 1f 29 2b bd
       0.05346094 -0.023467291 0.021740822 -0.041787263
000110 80 66 1e 3d 47 15 c7 bb c6 c1 d3 3c 1a be 01 bd
       0.03867197 -0.0060755345 0.025849234 -0.031675436
000120 c2 4e eb bc 7e bd 5d bd 70 be 3d bc 62 9f 81 bc
       -0.028724078 -0.054135792 -0.011581048 -0.01582307
000130 5e 2c 1d bd 5f 9a 5d bc 76 ac 14 bd 01 40 5d bd
       -0.03837239 -0.0135255745 -0.036297284 -0.054016117
000140 07 67 2e bd 26 b7 8d bc 41 74 7c 3b 6d d3 93 bc
       -0.042578723 -0.017299246 0.0038521441 -0.018045152
000150 b0 1e 07 bd c2 fb 38 3d 21 61 2b bc 55 49 3a 3d
       -0.03298825 0.04516197 -0.010460169 0.04548009
000160 99 80 58 3d 6a 27 45 bd 0c 99 59 bd e5 41 30 bd
       0.052857015 -0.04813329 -0.053124472 -0.043031592
000170 0d 22 28 bd a9 23 32 bd 85 d0 40 3d 07 08 38 3d
       -0.0410481 -0.04349104 0.04707386 0.04492953
000180 9b 57 9c bc 4e c3 8f bc 42 56 87 3c 89 6d ca bc
       -0.019084742 -0.017549183 0.016520623 -0.024710434
000190 7a 02 15 3d 06 46 4c bd fe ed 03 3d 69 1f c3 bb
       0.036379315 -0.049871467 0.03220939 -0.005954672
0001a0 9f cb 75 bc a2 25 64 3c 83 e3 d9 3b 6d fd ab 3c
       -0.01500216 0.013924988 0.006649436 0.020994866
0001b0 56 88 7e 3c f4 98 bf 3c 2c ee d4 bc 6f f2 99 3c
       0.015535435 0.023388363 -0.025992475 0.01879236
0001c0 0d 90 3f bc 6d 30 13 3c 75 25 93 3c a9 2e 8f 3c
       -0.011692059 0.008983714 0.017962197 0.017478304
0001d0 37 cf 09 bd 99 63 5c bc 87 13 af 3c b5 2d 77 3c
       -0.03364488 -0.01345148 0.021371616 0.015086581
0001e0 56 0e 36 3d 89 11 20 3b d1 b5 62 3c 44 6f 15 3d
       0.044447266 0.0024424514 0.013837294 0.036483064
0001f0 8a 70 e2 3b 93 c2 06 3b 6f 42 f5 bb 00 30 e4 3c
       0.0069103884 0.0020562753 -0.007484726 0.02785492

conv.6.weight f4 [128]
000000 78 4b 73 3f 73 c5 7a 3f 39 fc 85 3f fe bc 7d 3f
       0.9503703 0.97957534 1.0467597 0.99116504
000010 68 89 7a 3f 75 e0 7a 3f c1 ff 89 3f 5e d1 78 3f
       0.97865915 0.97998744 1.0781175 0.9719447
000020 a4 4c 82 3f 53 6e 80 3f 9e ed 76 3f 2a 84 82 3f
       1.0179639 1.0033668 0.96456325 1.0196583
000030 86 ca 7f 3f f3 2f 7b 3f 44 c3 8e 3f 9a 44 79 3f
       0.999184 0.9812004 1.115334 0.973703
000040 a9 d6 84 3f 30 19 7c 3f ac 11 78 3f cb 36 79 3f
       1.0378009 0.98475933 0.96901965 0.9734923
000050 7c 33 85 3f 31 f8 7c 3f b6 2f 7a 3f 50 63 78 3f
       1.0406337 0.9881621 0.9772905 0.9702654
000060 59 58 7b 3f f7 dd 72 3f cc c2 80 3f bc c1 7e 3f
       0.9818168 0.9486994 1.0059447 0.99514365
000070 38 63 75 3f af b9 7e 3f 69 62 7a 3f d7 16 7a 3f
       0.9585452 0.9950208 0.9780641 0.976911
000080 5f 81 82 3f 27 a5 7b 3f e2 31 80 3f b9 43 80 3f
       1.0195731 0.9829888 1.0015223 1.0020667
000090 dd 28 7c 3f 5b fc 81 3f 28 7b 7b 3f 43 95 82 3f
       0.9849985 1.0155138 0.98234797 1.0201801
0000a0 5a 1f 87 3f 50 01 85 3f ce 2e 7a 3f 36 fd 8c 3f
       1.0556443 1.0391026 0.9772767 1.1014774
0000b0 c5 2c 7b 3f e2 cb 80 3f 8d 53 84 3f d5 bb 7f 3f
       0.9811519 1.006222 1.0337998 0.99895984
0000c0 e5 96 88 3f de 11 76 3f d8 b7 8d 3f 6e 0f 76 3f
       1.0671049 0.96121013 1.107173 0.96117294
0000d0 cc 3b 7f 3f cc f4 7d 3f 08 66 80 3f c8 70 80 3f
       0.9970062 0.99201655 1.0031137 1.0034418
0000e0 f9 18 73 3f ef 4c 7f 3f f4 85 88 3f 3a 87 76 3f
       0.9495998 0.99726766 1.0665879 0.9630009
0000f0 4b bf 80 3f f0 65 7c 3f 34 b8 6c 3f ac fb 7f 3f
       1.0058378 0.98593044 0.9246857 0.99993396
000100 18 c5 85 3f 12 d1 79 3f 52 f1 81 3f de a0 85 3f
       1.0450773 0.9758464 1.015177 1.0439718
000110 d7 52 7b 3f 3b 0e 84 3f 06 30 86 3f 1f 4f 83 3f
       0.9817328 1.0316843 1.0483406 1.0258521
000120 65 84 87 3f 25 18 78 3f c3 f4 7f 3f 09 ad 78 3f
       1.0587279 0.9691184 0.9998285 0.9713903
000130 99 98 8b 3f cc 9f 8a 3f c9 2a 7b 3f f9 99 80 3f
       1.0905944 1.0830016 0.9811216 1.0046989
000140 ff 61 88 3f 8f 31 73 3f 36 d6 84 3f 13 0f 76 3f
       1.0654906 0.94997495 1.0377872 0.9611675
000150 71 ca 81 3f 6e 64 8c 3f e6 af 7b 3f e1 53 7d 3f
       1.0139905 1.0968149 0.98315275 0.98956114
000160 1a 73 78 3f 21 5d 7c 3f 3b 24 7a 3f 83 b1 88 3f
       0.9705063 0.98579603 0.97711533 1.0679172
000170 26 90 85 3f ca 23 88 3f 5c 2d 7a 3f 7a 5e 83 3f
       1.0434616 1.0635922 0.9772546 1.0263207
000180 29 63 83 3f 85 a6 87 3f e8 31 7d 3f 87 39 79 3f
       1.0264636 1.0597693 0.98904276 0.97353405
000190 46 8c 81 3f 63 0c 81 3f b4 4b 83 3f cd 9c 7f 3f
       1.0120933 1.0081905 1.0257478 0.99848634
0001a0 ef 19 7b 3f d8 1a 80 3f 49 66 80 3f 2e 43 7c 3f
       0.98086447 1.0008192 1.0031215 0.9854001
0001b0 e7 6b 76 3f 13 11 81 3f e7 69 83 3f a1 00 82 3f
       0.96258396 1.0083336 1.0266694 1.0156442
0001c0 c2 f0 7d 3f f3 8f 7e 3f 30 7b 76 3f 1d 99 80 3f
       0.9919549 0.994384 0.9628172 1.0046726
0001d0 37 44 7f 3f d0 2e 85 3f 01 5a 7e 3f a5 c0 72 3f
       0.9971346 1.0404911 0.99356085 0.948252
0001e0 18 09 83 3f b4 cb 79 3f 1a 00 80 3f 81 23 89 3f
       1.023715 0.9757645 1.0000031 1.071396
0001f0 9f ca 7d 3f e5 2f 7a 3f 0d e8 73 3f b5 e5 7b 3f
       0.991373 0.9772933 0.95275956 0.9839738

conv.6.bias f4 [128]
000000 a8 80 81 bd 0a 91 9d bd bd 15 99 bd 47 77 30 bd
       -0.06323367 -0.0769368 -0.074748494 -0.0430825
000010 32 de 90 bd c8 0a df bd f8 98 86 bd d5 0d b6 bd
       -0.070736304 -0.10890728 -0.06572145 -0.08889357
000020 31 78 e0 bc 33 0f 8b bd 37 5f 9f bd e0 cb a8 bc
       -0.027401062 -0.067900084 -0.07781833 -0.020605028
000030 d8 75 70 bc 34 b9 f6 bc 84 73 4b bd bd e5 9a bd
       -0.014676534 -0.030117609 -0.04967071 -0.0756335
000040 1d 94 3a bd 5b 31 14 bd 7e a6 82 bd 22 28 a0 bd
       -0.045551408 -0.03617988 -0.06379412 -0.07820155
000050 6e 0f 6f bd 3b f5 b6 bd 97 46 26 bd 57 b8 82 bd
       -0.058364324 -0.08933493 -0.040594663 -0.06382816
000060 84 27 aa bd 12 b6 8e bd 50 7e 94 bd 09 83 3b bd
       -0.08308318 -0.06968321 -0.07250655 -0.04577926
000070 29 2f 5b bd c2 0d 32 bd 93 1b cb bc 0f 59 36 bd
       -0.053511772 -0.04347015 -0.024793422 -0.044518527
000080 05 40 01 bd 24 31 c2 bd 4e 58 39 bd 82 86 b6 bc
       -0.031555194 -0.09482029 -0.04525023 -0.022280935
000090 e6 72 66 bd 11 3d 1a 3c e9 64 a6 bd 62 63 38 bd
       -0.05626192 0.009413973 -0.08124716 -0.045016654
0000a0 f4 63 42 bd c8 c0 98 bc 17 08 64 bd d7 98 6c bd
       -0.047458604 -0.018646613 -0.055671778 -0.057762947
0000b0 26 22 6a bd f2 b9 40 bd 5f fb 4e bd 47 12 09 bd
       -0.057161473 -0.04705233 -0.050532695 -0.033464696
0000c0 77 db 92 bd 3b e1 59 bd f9 e7 c0 bc cd 7e 4d bd
       -0.07170766 -0.053193312 -0.023548113 -0.050169755
0000d0 af 22 f3 bc 30 a1 6c bd 80 b0 21 bd d4 33 98 bd
       -0.029679624 -0.057770908 -0.039474964 -0.074317604
0000e0 7b 29 75 bd 1b 88 59 bd 5c a0 8a bd f5 f4 a9 bd
       -0.059854012 -0.053108316 -0.067688674 -0.08298675
0000f0 94 4a 00 be b9 88 23 bd fd 94 d9 bd a0 b5 b8 bd
       -0.1252845 -0.03992531 -0.106241204 -0.09019017
000100 c4 ed d1 bc 13 08 4f bd f0 63 5e bd d7 14 bb bd
       -0.02562607 -0.05054481 -0.054294527 -0.09134834
000110 e5 0c 17 bd d9 4f 09 bd da 12 8a bd ce a5 ef bb
       -0.03687753 -0.033523414 -0.06741877 -0.0073134666
000120 a9 90 20 bd 21 43 50 bd c8 82 63 bd d4 37 85 bd
       -0.03920046 -0.05084527 -0.055544645 -0.06504789
000130 83 50 2c bd 86 56 f7 bd be ab a7 bd bd a0 0f bd
       -0.04206897 -0.1207705 -0.08187054 -0.0350654
000140 fb 65 61 bd b5 07 b1 bd c5 89 5a bd b5 f9 3e bd
       -0.055028897 -0.08644048 -0.053354044 -0.046624858
000150 28 91 ce bd 09 b7 a9 bd b9 78 91 bd 56 af 29 bd
       -0.1008628 -0.08286864 -0.07103104 -0.04142698
000160 6a 32 40 bd e1 cf 73 bd 32 1a c0 bd 8e d3 55 bd
       -0.04692308 -0.05952442 -0.09379996 -0.052203707
000170 51 af 17 bd 52 d8 56 bd 02 63 d4 bd 6e db 2c bd
       -0.03703243 -0.052452393 -0.10370447 -0.042201452
000180 7f 9d 02 bc 11 3a 66 bd 1a 7f 56 bd c5 5a 64 bd
       -0.00797212 -0.05620772 -0.052367307 -0.055750627
000190 78 7d ba bc f5 28 c6 bc 3f c2 b0 bd a0 34 51 bd
       -0.022764906 -0.024189452 -0.086307995 -0.051075578
0001a0 79 f4 a5 bd e8 60 da bc aa 6b 2d bd 18 0b 85 bd
       -0.0810327 -0.026657537 -0.042339005 -0.064962566
0001b0 56 7c f0 bc 9b b7 8d bd de cb 64 bd 27 12 70 bd
       -0.029356163 -0.069197856 -0.055858485 -0.05861106
0001c0 22 3e b2 bc 9f 4e 18 bd 70 66 85 bd cd fb a3 bd
       -0.021758143 -0.037184354 -0.06513679 -0.080070116
0001d0 0e 58 cf bc a1 5d bd bc ac 44 23 bd be f5 50 bd
       -0.025310542 -0.023115935 -0.039860412 -0.051015608
0001e0 b1 d1 fa bc 42 f9 95 bd 68 50 88 bd 41 e2 fc bc
       -0.030617567 -0.07322933 -0.06655961 -0.030869605
0001f0 19 96 97 bd 94 c6 ba bd ce 96 c7 bd 14 73 c2 bd
       -0.07401676 -0.09119907 -0.097455606 -0.09494606

conv.6.running_mean f4 [128]
000000 70 ab 0d bf a5 88 16 be 8e d3 89 3e f5 b3 bc bd
       -0.5533972 -0.14700563 0.26919216 -0.092140116
000010 bb a8 7a bf 0c 73 44 3e 2c 2a e1 3e 5c 7b b4 be
       -0.9791371 0.19184512 0.43977487 -0.35250366
000020 e5 f0 1b bf cf 30 b8 be ca 8b 15 bf 45 87 2d bf
       -0.6091445 -0.35974738 -0.58416426 -0.6778453
000030 c0 57 62 bf fc 58 44 bf f5 db 6e 3e be e3 09 bf
       -0.88415146 -0.7669828 0.23326094 -0.5386313
000040 0b c0 92 3f 1f 31 a5 3e f3 51 28 bf 02 9a b9 be
       1.1464857 0.3226404 -0.65750045 -0.3625031
000050 b3 a0 1f 3f 8c 5e ae be 78 9c 3a be 3d 46 c9 be
       0.6235458 -0.3405651 -0.1822375 -0.393114
000060 9e 1b 1f bf 85 ea 49 be 59 8c 94 be aa 1a 7e 3f
       -0.62151515 -0.19718368 -0.29013327 0.99259436
000070 41 5d 7f bf 1a 45 3b bf 71 97 88 3e 5e 27 96 3e
       -0.9975167 -0.73152316 0.2667804 0.2932691
000080 93 f4 34 bf 23 41 eb bd 3b a1 04 bf a4 ed c5 be
       -0.7068569 -0.11487033 -0.5180852 -0.38657868
000090 e1 44 55 bf 11 ca 67 bf 6b 14 06 bf ee 95 82 be
       -0.83308226 -0.90542704 -0.52374905 -0.25505012
0000a0 6c c3 83 be 82 e6 21 bf f9 77 67 3f 6e ad 16 bf
       -0.25735033 -0.6324235 0.9041744 -0.5885838
0000b0 76 1b 97 be 1a 86 9a be 33 66 8f 3f 46 67 3e 3e
       -0.2951314 -0.30180436 1.1203064 0.18594083
0000c0 15 40 24 be 6e ce 11 bf 3b 6e d6 3e e9 08 bc be
       -0.1604007 -0.5695561 0.41880974 -0.36725548
0000d0 61 66 2c bf 7a 26 0f be 7b 6b f0 be 56 26 33 3a
       -0.6734372 -0.13979521 -0.46957 0.00068340206
0000e0 a2 9a 31 bf 6c ae 65 bf f9 b3 bb bf a9 a7 2b bf
       -0.69376576 -0.8971927 -1.4664298 -0.67052704
0000f0 45 c6 e8 3e 3d 79 6a be 92 c1 15 bf 89 68 b4 3e
       0.45463768 -0.22897811 -0.5849849 0.35236004
000100 62 20 c5 3e 3f 4a 1a bf a8 6a fc be 0b 98 25 bd
       0.3850127 -0.6026954 -0.49300122 -0.040428203
000110 f2 b9 20 bf 2a 83 c1 3d a7 bf 95 3d 34 e3 f9 3e
       -0.6278373 0.09448846 0.073119454 0.48806155
000120 cd 2a a1 bf 26 74 45 bf 78 24 cd be 4a 20 35 bf
       -1.2591187 -0.77130353 -0.40066886 -0.70752394
000130 2c b6 97 bf ab 1c 0a 3f 80 03 a4 be a6 dc 9b bd
       -1.185247 0.53949994 -0.3203392 -0.07610445
000140 76 ed a3 3f ab fb a5 be 80 15 3b bf db 8a c4 be
       1.2806842 -0.3241857 -0.7307968 -0.38387188
000150 59 19 0f 3f 8a 14 3c bf 13 b4 1e bf a5 30 73 bd
       0.5589805 -0.7346884 -0.6199352 -0.059372563
000160 4e c6 62 be 27 03 c3 be b3 02 0b bf b7 3b 7b bf
       -0.2214596 -0.38088343 -0.54300994 -0.9813799
000170 8b 14 49 bf 0b e4 a4 be 5a 78 6a 3d c9 1c 0e 3e
       -0.7854697 -0.32205233 0.057243682 0.13878168
000180 f0 b4 28 bf f7 66 84 bf 52 30 f9 3e 93 91 bc bd
       -0.6590109 -1.0343922 0.48669678 -0.092074536
000190 19 13 68 bf 84 c8 44 bf 99 9c bf bd c2 28 45 bb
       -0.9065414 -0.7686846 -0.093560405 -0.0030084108
0001a0 0e be d8 be ff 97 65 bf d1 84 97 3f 9a 9f c7 be
       -0.423325 -0.8968505 1.1837407 -0.38988954
0001b0 49 17 0c bf b1 37 85 bf 3c 48 18 3f 28 3b ad 3f
       -0.5472303 -1.0407621 0.5948522 1.3533678
0001c0 ca 0b 87 bf 88 28 41 bf 20 4e 25 bf 67 30 ef be
       -1.0550473 -0.7545247 -0.64572334 -0.46716616
0001d0 f1 59 38 bf b0 7a 04 3f 50 94 14 bd b7 09 fd be
       -0.7201224 0.51749706 -0.036274254 -0.49421474
0001e0 74 dd d5 3e a3 c7 7e bf b9 17 06 bf 94 ed 91 be
       0.41770518 -0.9952337 -0.5237995 -0.2850157
0001f0 2f 74 b5 3e f8 cd 13 bf 8b d0 3b bf 07 6e 8c be
       0.35440204 -0.5773616 -0.73365086 -0.27427694

conv.6.running_var f4 [128]
000000 e5 76 d5 3e 96 7d 28 3f 5b ac 3b 3f 55 1a 0a 3f
       0.41692272 0.6581663 0.7330987 0.5394643
000010 7b a8 aa 3e a4 0e 6c 3f 4b cf 12 3f ec 13 2d 3f
       0.33331665 0.9220984 0.57347554 0.67608523
000020 dd c9 ac 3e 8f 3c 5b 3f ed c5 1d 3f 1b ee d0 3e
       0.3374776 0.8563928 0.61630136 0.4080666
000030 d9 66 98 3f e4 89 9c 3e b5 93 02 3f a2 9b 3c 3f
       1.1906387 0.30573952 0.51006633 0.73674977
000040 ea 64 54 3f 78 20 ab 3f a0 d3 36 3f a5 70 b1 3e
       0.8296648 1.3369284 0.71416664 0.34656253
000050 52 cd 24 3f 86 55 f7 3e e9 83 36 3f 35 f6 1e 3f
       0.64375794 0.48307437 0.7129503 0.6209443
000060 a9 04 88 3e f1 6a 95 3e d2 5a fd 3e b1 a8 16 3f
       0.26566055 0.29183152 0.49483353 0.5885115
000070 6d b2 34 3f 6f 36 03 3f 4e 11 11 3f a7 0e 2a 3f
       0.70584756 0.51254934 0.5666703 0.6642861
000080 b9 6d 8c 3f 70 11 15 3f 0d c2 d0 3e 3f 8c 12 3f
       1.0970985 0.5822973 0.4077305 0.5724525
000090 b0 43 79 3f 55 99 a4 3f 59 d9 65 3e 16 5e 72 3f
       0.9736891 1.2859293 0.22446193 0.94674814
0000a0 20 77 cd 3e 58 08 59 3e 28 e8 e4 3e b9 a5 40 3f
       0.40129948 0.21194589 0.4470837 0.7525287
0000b0 0e 4e ec 3e 66 bd d8 3e cf 90 65 3f 64 fa cc 3e
       0.461533 0.42332 0.89674085 0.40034783
0000c0 c8 12 eb 3e 5b 41 24 3f a1 20 0f 3f 50 8f 04 3f
       0.45912766 0.64162225 0.5590916 0.5178118
0000d0 72 b1 08 3f 87 c1 49 3f 8e 4f 9d 3e 22 a9 15 3f
       0.5339576 0.78810924 0.30724758 0.584612
0000e0 a4 86 f1 3e 06 36 07 3f 45 10 9b 3f ec 4c fc 3e
       0.47173035 0.5281681 1.211434 0.49277437
0000f0 93 47 15 3f 43 97 e7 3e 9e 56 57 3f 49 fb 07 3f
       0.5831234 0.4523259 0.8411654 0.53117806
000100 84 8b 20 3f 4d 11 34 3f 67 42 ea 3f 12 54 24 3f
       0.62712884 0.703389 1.8301514 0.6419078
000110 10 b6 2e 3f 74 e2 28 3f d3 dc 75 3f b5 39 18 3f
       0.68246555 0.6597054 0.96040076 0.59463054
000120 eb c3 89 3f e9 d4 df 3e bd 72 59 3e d1 63 1e 3f
       1.0762914 0.43717125 0.21235175 0.6187106
000130 98 3b c1 3f 8d b8 14 3f 30 99 4b 3e 90 64 6b 3f
       1.5096312 0.580941 0.19882655 0.9195032
000140 2f 29 84 3f 36 1e 9d 3e 20 33 32 3f 33 19 6c 3f
       1.0325068 0.30687112 0.6960926 0.9222595
000150 bd 7f 8c 3e 53 67 6e 3f 48 e5 ad 3e f5 47 41 3f
       0.27441207 0.9312641 0.3396399 0.7550042
000160 72 3d 92 3e b8 66 1d 3f 16 f0 bb 3e 9c a9 cd 3f
       0.28562504 0.6148486 0.3670661 1.6067386
000170 34 f3 51 3f 7a 06 31 3f 9a 56 26 3f 42 cd 2e 3f
       0.82011724 0.6915051 0.64975893 0.6828195
000180 a9 31 91 3f d6 66 8a 3f 7d ba 41 3f 1b 72 8f 3f
       1.134328 1.0812633 0.75675184 1.1206697
000190 c2 27 f2 3e ca aa 21 3f 61 8e 2c 3f 78 fd 62 3e
       0.47295958 0.6315123 0.6740475 0.22167003
0001a0 e8 16 0e 3e 83 cd 30 3f ff cd 10 3f e4 21 ca 3e
       0.13875926 0.69063586 0.56564325 0.39478981
0001b0 d8 e0 33 3f 94 b6 42 3f db c6 54 3f 70 c7 5b 3f
       0.7026496 0.7605984 0.8311593 0.8585119
0001c0 d0 15 2d 3f b8 7a e6 3e 99 65 83 3f 17 13 36 3e
       0.6761141 0.45015502 1.026538 0.1778072
0001d0 e5 67 6d 3f 47 7a 0b 3f 4b be 01 3f 5c 55 6b 3f
       0.92736655 0.54483455 0.5068099 0.91927123
0001e0 d6 ba 2c 3f 5b 17 c6 3f c9 d7 a1 3e 50 09 07 3f
       0.6747259 1.5475878 0.31609944 0.52748585
0001f0 f0 dc 11 3f 25 66 fe 3e e1 28 93 3e 36 47 07 3f
       0.5697775 0.49687305 0.28742126 0.52843034

conv.10.weight f4 [256, 128, 3]
000000 bb 42 94 bc ed 58 de ba bf 20 2d bd a0 29 92 3c
       -0.018098226 -0.0016963758 -0.042267557 0.017842114
000010 7e 7f 5f 3d f6 64 00 3d bd f1 9e 39 b1 05 09 bc
       0.054564945 0.031346284 0.00030316217 -0.008363173
000020 33 74 8f bc b3 c9 1d bd 3b 3e 1d bd 13 fa c1 bc
       -0.017511463 -0.038522433 -0.038389426 -0.023678815
000030 16 4f 3e bc d8 f1 ed bc bd 53 b3 bb 8e 3f 17 bd
       -0.011615535 -0.029045984 -0.005472629 -0.036925845
000040 eb 6b f4 bb a4 b4 f7 bb 32 27 40 bd 8d 9f f6 bc
       -0.007459154 -0.007559376 -0.04691238 -0.030105377
000050 1b ce e6 bc e7 44 e2 bc 65 fe 1a bc 19 78 71 bc
       -0.02817445 -0.027620746 -0.009460066 -0.014738106
000060 0d 0d 5e bc b9 4f be 3c 3a 9b 3a ba 5d bf 68 bc
       -0.013552916 0.023231374 -0.00071184675 -0.014205781
000070 38 9a 71 3d d9 fb 03 3d 2f bd 8a 3c 90 0c 9a bc
       0.058984965 0.032222603 0.016935913 -0.018804818
000080 3f d8 57 3c dc 90 6a 3c 30 66 cf 3b 8d 0e 91 bc
       0.013174116 0.014316764 0.0063293204 -0.017707134
000090 e2 38 26 3d 3a 57 c3 bc 9f 65 3d bc e1 ea 0c 3c
       0.04058159 -0.023845304 -0.011559873 0.008600921
0000a0 55 e6 82 bb d5 18 98 3c b3 63 7a bd 67 28 a6 bd
       -0.003994743 0.018566528 -0.061130237 -0.08113175
0000b0 36 4c 82 bd 2a ba 3e 3c 6d 2f 93 3c 4d 0c 88 3c
       -0.06362192 0.011641065 0.01796695 0.016607428
0000c0 11 40 0f bd 35 61 42 bd 54 94 e4 bc 29 f6 63 ba
       -0.034973208 -0.047455985 -0.02790276 -0.00086960435
0000d0 e6 ca 88 3c ba e5 e3 3c 90 ed 41 3d 2f 32 c6 3c
       0.016698312 0.027819503 0.047345698 0.024193851
0000e0 04 bd 03 3d 00 00 e8 bc 42 d3 fe bb f5 51 bd 3b
       0.03216268 -0.028320312 -0.0077766487 0.0057775923
0000f0 87 20 48 bd 76 fc 0f bc 95 fa dd bc 2d ed 84 3c
       -0.048859145 -0.008788219 -0.027097026 0.016226375
000100 0e 96 03 bd 8f 20 07 bd a8 7f d3 bb 00 68 f0 3c
       -0.032125525 -0.032990035 -0.006454427 0.029346466
000110 c4 44 9b bc 24 c0 57 3d de d6 88 3c 9f 79 38 3c
       -0.018953688 0.052673474 0.01670402 0.0112594655
000120 58 08 0a bd 21 6c e2 3c 46 3b 11 bc 30 c1 d8 3b
       -0.033699363 0.02763945 -0.00886423 0.0066148266
000130 e0 19 6b bd af af 51 bb 99 2f 37 3d 86 bc 0b bd
       -0.057397723 -0.0031995585 0.044723127 -0.034115337
000140 c4 ce 12 3c 94 ea e6 3c f3 23 0d bc 9b d6 9a bc
       0.00896043 0.028188027 -0.008614528 -0.01890116
000150 65 ce 9e 3c ae b6 63 bc 11 52 51 3d 95 83 26 bd
       0.019385526 -0.013898535 0.051103655 -0.04065283
000160 85 91 9e 3c cb fb 26 3d 33 a3 8b bc 5d b7 82 3d
       0.019356498 0.040767472 -0.017045593 0.0638263
000170 e3 1f 0d bd df 3d db bc 3d 89 c0 3c b5 99 14 b9
       -0.034454238 -0.0267629 0.02350294 -0.0001417164
000180 c1 a5 a4 bb 16 5a 0c bd e5 d2 e7 bc 02 81 66 3c
       -0.005024642 -0.0342656 -0.028298805 0.014068844
000190 94 db de 3b 30 b6 0c 3d 54 bb 07 3b d6 83 58 bc
       0.006801078 0.034353435 0.0020711021 -0.013215026
0001a0 63 a9 e9 3b 0d 97 19 3c fa b6 79 bd 6b 73 6a 3c
       0.007130788 0.009374392 -0.060965516 0.014309744
0001b0 a8 21 ee 3b ba d9 47 bc ad 2f 2d 3d 34 58 34 bd
       0.0072671957 -0.012197906 0.042281795 -0.04402943
0001c0 1d 9c ee bc 7e bb 6e bd 17 b9 ec 3b 48 01 4f bc
       -0.029127175 -0.058284275 0.007224213 -0.012634583
0001d0 fc a1 9e bc ad 81 dd bc fc 71 92 3c 70 11 69 3b
       -0.01936435 -0.027039373 0.017876618 0.0035563372
0001e0 0a 0e 4e 3d 2f 7f 00 bd cf 4e 18 bc 28 5b d5 bc
       0.050306357 -0.03137129 -0.009296133 -0.026044443
0001f0 3e 41 59 3d 83 f3 0d bc db 3e 76 3a 0f 6a 66 bd
       0.053040735 -0.008664015 0.00093935215 -0.05625349
000200 56 8b 4c bb 46 b1 2b bd d1 ad 0a 3c f6 2f 9f bc
       -0.003121098 -0.041917108 0.008464293 -0.01943205
000210 d5 92 c2 3c 8c 30 b8 3c 61 f5 cb 3c 9c ca 66 3b
       0.023751656 0.022484086 0.02489728 0.003521598
000220 8f 35 28 bd 39 8f 33 3d aa ed 04 bd 4f 28 26 bd
       -0.041066702 0.04383776 -0.032453217 -0.040565785
000230 9c 4a 26 bd 41 d1 55 bd a7 13 42 bc 6c 41 14 3d
       -0.040598497 -0.052201513 -0.011845506 0.036195204
000240 8e 01 3b 3d 8e 52 7c bb c5 d4 c6 bc ee 64 56 3d
       0.04565578 -0.0038501355 -0.024271378 0.052342348
000250 b2 95 21 3d 82 d6 4d 3c 7c 40 e1 bd 1b 00 e5 bd
       0.0394494 0.01256335 -0.109986275 -0.11181661
000260 9c f2 92 bd 35 89 83 3c db 7e e5 bc c7 44 dc 3b
       -0.0717518 0.016056636 -0.028014591 0.006722066
000270 6e f7 05 bc c0 e1 fe 3c 44 43 87 bc c7 a9 fb 3c
       -0.008176668 0.031113505 -0.016511567 0.030720605
000280 91 b2 0c bd f4 fd 32 3d f8 3c 3f 3c 06 b7 39 bc
       -0.03434998 0.04369922 0.011672251 -0.01133514
000290 00 75 29 bd c3 34 e1 bb 96 bd 53 3d de 8e d7 3c
       -0.041371346 -0.0068727448 0.051694475 0.026313242
0002a0 a2 31 9d bb 33 83 02 bd b0 4f 09 bc 42 8f 43 3d
       -0.0047971765 -0.031863403 -0.008380815 0.047744043
0002b0 b3 47 ac 3c ed fc 97 3d 95 bd da 3c f0 a5 28 bd
       0.021030283 0.07421289 0.026701728 -0.041173875
0002c0 7d 08 c6 bc 7b d4 26 bc 02 b8 0d 3d 8d 90 b2 bc
       -0.02417397 -0.010182495 0.03459931 -0.021797443
0002d0 87 ca f5 bc bc 27 21 3d cb 4a 1a 3d 9e 54 14 bd
       -0.0300038 0.039344534 0.037668984 -0.03621351
0002e0 df c5 b2 bc 5c 7a 87 3c 8e b3 89 3a ab 40 ef bb
       -0.021822868 0.016537838 0.0010505782 -0.00730141
0002f0 57 61 b7 3c b9 45 67 3c 0d c5 bd 3b 36 96 fe 3c
       0.022385282 0.014115744 0.0057913125 0.031077486
000300 68 9c 0e bd 85 27 93 bd d2 be ae bd d3 ad 3a 3d
       -0.03481713 -0.07185272 -0.0853249 0.045575928
000310 67 fd 1f 3c e7 89 49 3d 08 d4 87 3c 67 c7 3a bc
       0.009765006 0.04920378 0.016580597 -0.01140008
000320 04 09 f8 3b 69 90 ad 3b 88 f1 65 bd 8c 48 e9 3c
       0.007569434 0.005296756 -0.056138545 0.028476976
000330 5a 94 c9 3b ee c1 a4 3c 72 10 9b bb 8d 9f 5b bc
       0.006151718 0.020112004 -0.004732185 -0.013404739
000340 7a ad 22 3c 00 6b 9b bd 90 e4 07 3d b4 7d 5b bc
       0.009929055 -0.07588768 0.03317696 -0.013396669
000350 a0 4b 50 3b 37 71 b8 bc b4 e2 72 3b c7 2c 18 ba
       0.0031783357 -0.022514923 0.0037061395 -0.0005805012
000360 0f 30 e6 3c 96 0a 4e 3a ca ad d7 bc fa b0 82 bc
       0.028099088 0.0007859854 -0.026327986 -0.01595353
000370 f4 0a 2c bc ed e3 a0 bc 1a a9 1e 3d 5e fb 80 bc
       -0.010500658 -0.019639933 0.038735487 -0.015744861
000380 60 77 f2 bc b0 e2 0b 3d c3 6f ef 3b 8a d2 c4 3c
       -0.029597938 0.034151733 0.007307024 0.024026174
000390 37 3b 61 bd b4 8b bc bc 77 44 58 bc 36 8b 15 3d
       -0.054988112 -0.023015834 -0.013199917 0.036509715
0003a0 ed ec a0 b8 86 a0 ca 3b 4b 53 96 3b 80 6f a8 bc
       -7.6735254e-05 0.0061836867 0.004587566 -0.02056098
0003b0 b3 df 36 3d 38 ae 88 3c 50 8e 05 bd b5 90 b4 3c
       0.04464693 0.016684636 -0.032606423 0.022041658
0003c0 2f b6 30 bd c6 93 bc bc 0d f9 87 3c 37 76 28 bd
       -0.043142494 -0.023019683 0.016598249 -0.041128363
0003d0 41 e0 df 3b 87 2c 37 3d 92 73 f3 3c cb 23 ad bc
       0.006832153 0.0447202 0.029718194 -0.021135231
0003e0 a3 61 d1 3b 49 bd 35 bd 9b b7 3d 3d bf 2f ae bc
       0.006389813 -0.04436997 0.046317678 -0.021263001
0003f0 49 a8 a6 3c 0c 65 15 bc f5 a7 cc bc 3f 3c 25 3c
       0.020343916 -0.00911833 -0.024982432 0.010085165
