output/energy_cnn_20260221_204822/checkpoints/epoch_15.pt (torch, 174824 bytes, 21 tensors)

conv.0.weight f4 [32, 14, 3]
-0.11637027 -0.03445087 -0.0015579491 -0.0287052 0.11327862 -0.056546997 -0.08936066 0.1181995
-0.07494125 0.0317378 -0.091516696 0.012577249 0.02114997 0.00011305659 -0.037002567 0.021277945
0.05736435 -0.068896815 0.03147912 0.14195238 0.003326172 0.0010007024 -0.010672882 -0.016581737
0.35939476 0.27464625 0.44469923 -0.6091606 -0.68225205 -0.71800697 -0.17987356 -0.2088929
-0.13252322 -0.025462376 0.018763572 -0.032250427 -0.113371745 0.10556177 -0.018840492 -0.0422231
0.008101191 0.05211662 -0.16760917 0.093503684 0.054894097 0.03425327 0.027612692 0.0333592
-0.1612057 -0.04572139 -0.038177725 0.16003348 0.08514355 -0.27096236 -0.031145018 -0.004128502
0.15675123 0.06693425 0.03845948 -0.08439457 0.03369583 0.03298275 0.14306653 -0.31286395
-0.35388502 0.14255612 -0.13234673 0.036441833 0.047512334 0.16660266 0.19649632 0.3372584
-0.13471758 -0.22698322 -0.18593645 0.011797497 0.07417447 -0.22800101 0.056868736 -0.06634769
-0.0045588454 0.036882173 -0.07109454 0.0945708 0.1256333 0.16209447 -0.24408026 0.042655315
0.074714564 0.08150082 -0.01559431 0.03854265 -0.21765077 -0.061347574 0.16588819 -0.053158812
0.15079825 -0.046498712 -0.05288628 0.03038052 0.050341953 -0.030270306 0.105460726 0.13365613
-0.057922307 -0.057771474 0.13423295 -0.18805109 -0.6347648 -0.40308413 -0.59607357 -0.12031644
0.092364565 0.17006852 0.11570905 -0.010897704 0.21231695 -0.038680736 0.020570435 -0.028348994
-0.050721742 0.14184989 -0.09580628 -0.10622058 -0.03943017 0.12250197 0.17168324 -0.024956822
-0.12664457 -0.09690427 0.040835902 0.004930054 -0.027885536 0.03654623 -0.10061416 0.06826465
-0.0046411077 -0.001037981 0.08331602 0.05034289 -0.04856892 -0.014036472 0.028185839 -0.0027307833
-0.08427485 0.053428672 -0.25162405 -0.035193976 -0.27150276 -0.21407622 0.21053784 0.28634575
0.2997632 0.016456896 0.097773336 0.20328876 0.17162228 0.20327392 0.19127648 0.36454096
0.093770765 0.07907185 0.07569401 -0.0954241 -0.073902324 0.027448991 0.09545627 0.1267016
0.116158225 -0.05416478 -0.035911024 0.020536633 -0.06507784 -0.037936915 0.08363589 0.051751886
0.022746075 0.010399734 0.01668181 -0.034221426 -0.023385122 -0.026750963 -0.087970905 0.027624238
-0.012611842 -0.0066001764 -0.01341194 -0.00036457067 -0.01129912 0.061001178 0.029776586 0.0071196076
0.44765034 0.51241297 0.55394465 -0.17846118 0.032404497 0.071529716 0.14096257 0.24754466
0.26451352 0.097967766 0.11209508 0.012813301 0.044405244 -0.0035288308 -0.04072251 -0.031237131
0.037189584 0.035019647 -0.07559959 0.03997092 -0.09825264 0.14737552 -0.09973045 0.094174914
-0.055499617 -0.07683683 -0.089161895 -0.2313459 -0.024809772 -0.09462885 -0.02883868 -0.0033856756
0.06743122 0.043474067 0.08790819 0.14602153 -0.07852918 0.17336895 -0.17789659 0.20742498
-0.060220018 -0.45178887 0.1795181 0.36031994 0.19589256 -0.25421715 -0.35828847 -0.3468346
0.24371636 0.015484638 0.21378052 0.1783734 0.16728936 0.07918309 0.048851755 0.079568386
0.09671532 0.10895815 0.023775049 -0.16238071 -0.15309875 -0.13453472 0.20980789 0.03397856
00000000: 8953 eebd 5b1c 0dbd 1934 ccba 2b27 ebbc
00000010: 9ffe e73d d39d 67bd b902 b7bd 9412 f23d
00000020: cc7a 99bd 7fff 013d 1b6d bbbd ce10 4e3c
00000030: b442 ad3c cb18 ed38 0190 17bd 164f ae3c
00000040: e1f6 6a3d c619 8dbd 40f0 003d f75b 113e
00000050: e8fb 593b 002a 833a 50dd 2ebc 6cd6 87bc
00000060: 9702 b83e 6f9e 8c3e 9eaf e33e f3f1 1bbf
00000070: 12a8 2ebf 4ecf 37bf c630 38be 05e8 55be
00000080: 2bb4 07be 7996 d0bc 10b6 993c 0619 04bd
00000090: 722f e8bd c530 d83d 6057 9abc 21f2 2cbd
000000a0: dcba 043c 3d78 553d bda1 2bbe dc7e bf3d
000000b0: a2d8 603d 284d 0c3d 0334 e23c a8a3 083d
000000c0: 1b13 25be 5a46 3bbd 3f60 1cbd d1df 233e
000000d0: be5f ae3d 94bb 8abe d623 ffbc 6348 87bb
000000e0: 6583 203e d314 893d b087 1d3d 0fd7 acbd
000000f0: a304 0a3d ec18 073d 0880 123e b42f a0be
00000100: 6b30 b5be 3bfa 113e e785 07be 0844 153d
00000110: 4b9c 423d e399 2a3e 5536 493e 22ad ac3e
00000120: 68f3 09be 4a6e 68be 2066 3ebe 4a4a 413c
00000130: c9e8 973d 1979 69be 31ef 683d 4ce1 87bd
00000140: 5e62 95bb c311 173d 049a 91bd 56ae c13d
00000150: 04a6 003e 18fc 253e 2df0 79be 57b7 2e3d
00000160: f303 993d e7e9 a63d 477f 7fbc e6de 1d3d
00000170: d8df 5ebe 9847 7bbd 98de 293e 0ebd 59bd
00000180: db6a 1a3e 6f75 3ebd 499f 58bd 91e0 f83c
00000190: 5d33 4e3d 6ff9 f7bc cbfb d73d 27dd 083e
000001a0: f13f 6dbd c8a1 6cbd 5d74 093e 7790 40be
000001b0: f27f 22bf 0b61 cebe 4798 18bf 7768 f6bd
000001c0: a229 bd3d 7126 2e3e def8 ec3d 498c 32bc
000001d0: 9d69 593e b16f 1ebd 5483 a83c 263c e8bc
000001e0: 9ac1 4fbd 1941 113e 1536 c4bd 2d8a d9bd
000001f0: 8881 21bd 50e2 fa3d bbcd 2f3e 4072 ccbc
00000200: 1daf 01be bf75 c6bd 8c43 273d 4a8c a13b
00000210: 3570 e4bc 80b1 153d cc0e cebd 56ce 8b3d
00000220: 6f14 98bb dd0c 88ba 97a1 aa3d 5934 4e3d
00000230: 34f0 46bd 3bf9 65bc fde5 e63c f1f6 32bb
00000240: 4b98 acbd 06d8 5a3d ded4 80be 8f27 10bd
00000250: 6902 8bbe cc36 5bbe 3b97 573e e99b 923e
00000260: 907a 993e 9dd0 863c 633d c83d ee2a 503e
00000270: c0bd 2f3e 0a27 503e fbdd 433e 1da5 ba3e
00000280: e30a c03d 6cf0 a13d 7605 9b3d b66d c3bd
00000290: 1a5a 97bd b5dc e03c 947e c33d 10be 013e
000002a0: 5de4 ed3d e3db 5dbd 7017 13bd 713c a83c
000002b0: 8847 85bd bd63 1bbd 4b49 ab3d c9f9 533d
000002c0: fa55 ba3c a563 2a3c 4ba8 883c c42b 0cbd
000002d0: 2892 bfbc d624 dbbc 172a b4bd 3a4c e23c
000002e0: e6a1 4ebc 4b46 d8bb c1bd 5bbc d923 bfb9
000002f0: f21f 39bc 5fdc 793d 07ee f33c 994b e93b
00000300: 6d32 e53e 7f2d 033f 51cf 0d3f 87be 36be
00000310: 94ba 043d 2c7e 923d 7e58 103e 597c 7d3e
00000320: 516e 873e 53a3 c83d 1b92 e53d e1ee 513c
00000330: 46e2 353d f543 67bb a6cc 26bd 03e5 ffbc
00000340: 1b54 183d c370 0f3d f5d3 9abd 8cb8 233d
00000350: ae38 c9bd 9ce9 163e 7a3f ccbd c7de c03d
00000360: 9153 63bd a15c 9dbd 839a b6bd f1e5 6cbe
00000370: dd3d cbbc c5cc c1bd 183f ecbc 36e2 5dbb
00000380: 6119 8a3d dd11 323d 3609 b43d ab86 153e
00000390: e8d3 a0bd a187 313e 862a 36be 3767 543e
000003a0: 44a9 76bd df50 e7be 98d3 373e db7b b83e
000003b0: 0f98 483e c028 82be 9671 b7be 4e94 b1be
000003c0: c890 793e 47b3 7d3c 48e9 5a3e 84a7 363e
000003d0: e74d 2b3e be2a a23d c718 483d c0f4 a23d
000003e0: af12 c63d 7325 df3d e4c3 c23c 2147 26be
000003f0: ebc5 1cbe 78c3 09be e1d7 563e 1a2d 0b3d

conv.0.bias f4 [32]
0.08363027 -0.0016085701 0.04753558 0.10369564 0.11685759 0.14683199 -0.09826998 0.043165665
0.03955605 0.10072596 0.031023093 0.081747614 -0.12722221 -0.02049444 0.0102146305 -0.10342113
-0.058042526 0.09281681 0.1697565 0.077031665 0.14743324 0.1609363 0.13168798 -0.12363731
0.1236622 0.11330326 0.043504655 0.15627071 -0.09022253 -0.05312471 0.13203491 0.11605697
00000000: 5946 ab3d a8d6 d2ba abb4 423d 615e d43d
00000010: 0853 ef3d 205b 163e c541 c9bd 7bce 303d
00000020: 8605 223d 6a49 ce3d 2424 fe3c 4b6b a73d
00000030: 8a46 02be f5e3 a7bc 445b 273c 75ce d3bd
00000040: 00be 6dbd bd16 be3d a6d4 2d3e c7c2 9d3d
00000050: bdf8 163e 7ccc 243e 37d9 063e 8f35 fdbd
00000060: 9c42 fd3d 8a0b e83d f031 323d 6e05 203e
00000070: 97c6 b8bd 4c99 59bd 2934 073e 47af ed3d

conv.1.weight f4 [32]
1.1247813 0.7601148 1.0976509 0.8199598 0.88059783 0.6756017 1.0146865 1.105439
0.5392725 0.7424271 0.9035307 0.7342968 0.7552049 0.74709654 0.79250354 1.043162
0.83342105 1.1945231 0.8839717 1.0908651 0.9646073 0.89827746 0.8603087 1.2408065
0.9475811 1.2911065 0.981575 0.702244 1.0108347 0.87745947 0.8259053 0.96103173
00000000: d5f8 8f3f e296 423f d37f 8c3f e3e8 513f
00000010: dc6e 613f 3cf4 2c3f 3fe1 813f 067f 8d3f
00000020: c30d 0a3f b40f 3e3f ca4d 673f e0fa 3b3f
00000030: 1c55 413f b841 3f3f 83e1 4a3f 5586 853f
00000040: 155b 553f 22e6 983f f84b 623f 78a1 8b3f
00000050: 81f0 763f 83f5 653f 313d 5c3f bfd2 9e3f
00000060: ad94 723f fa42 a53f 8048 7b3f 43c6 333f
00000070: 0863 813f 2fa1 603f 886e 533f 2d06 763f

conv.1.bias f4 [32]
-0.35254106 -0.2391119 -0.17710927 -0.15915155 -0.35144046 -0.28251025 -0.34363037 -0.14806913
-0.28822452 -0.3067358 -0.22156781 -0.16084257 -0.2803052 -0.20075883 -0.25178537 -0.2796445
-0.3383972 -0.4677656 -0.28453106 -0.23856144 -0.18464199 -0.41523722 -0.41126874 0.053883247
-0.05891305 -0.10747409 -0.21287225 -0.27121618 -0.17093058 -0.27820042 -0.18548152 -0.31955087
00000000: 4380 b4be c0d9 74be 225c 35be a0f8 22be
00000010: 01f0 b3be 2fa5 90be 52f0 afbe 6f9f 17be
00000020: 2a92 93be 7a0c 9dbe ace2 62be eab3 24be
00000030: 2a84 8fbe b993 4dbe 03ea 80be 902d 8fbe
00000040: 6642 adbe f97e efbe 0eae 91be 7349 74be
00000050: ca12 3dbe f999 d4be d191 d2be aeb4 5c3d
00000060: cf4e 71bd 601b dcbd 2ffb 59be d9dc 8abe
00000070: 6d08 2fbe 4970 8ebe deee 3dbe 2c9c a3be

conv.1.running_mean f4 [32]
0.08726298 0.010941772 -0.030873025 0.13337979 0.18680708 0.16669807 -0.16980375 -0.009756664
0.07282762 0.051862475 -0.03857323 0.1450363 -0.23405488 -0.025889892 -0.054206192 -0.1861556
-0.05101753 0.09114504 0.10530882 -0.03967654 0.109815426 0.17613125 0.13176368 -0.013180394
0.026584756 0.027356906 -0.04769289 0.13035846 -0.1505699 -0.049455862 0.16190092 0.045155223
00000000: efb6 b23d 1e45 333c 6de9 fcbc b694 083e
00000010: 5b4a 3f3e e6b2 2a3e 09e1 2dbe 6ada 1fbc
00000020: a626 953d bf6d 543d f7fe 1dbd 6584 143e
00000030: 15ac 6fbe 0a17 d4bc 5007 5ebd 939f 3ebe
00000040: c2f7 50bd 40aa ba3d 27ac d73d de83 22bd
00000050: e9e6 e03d c05b 343e 0fed 063e 94f2 57bc
00000060: 46c8 d93c 971b e03c 9f59 43bd b07c 053e
00000070: ff2e 1abe 3b92 4abd 5bc9 253e aff4 383d

conv.1.running_var f4 [32]
2.7637572 1.1482279 2.7254252 1.7396101 2.4661622 1.1726999 2.749121 2.4264138
2.285476 3.0023685 2.774464 3.3930314 7.1550765 2.458606 2.4889371 6.1753435
1.9808995 2.575478 4.237409 5.822198 4.10234 1.9704052 0.6530274 7.5760274
3.4700313 3.3792274 5.4483166 1.6484107 4.065657 1.2590487 1.2236193 2.7588825
00000000: 66e1 3040 22f9 923f 5e6d 2e40 8bab de3f
00000010: 9ad5 1d40 081b 963f 99f1 2f40 5d4a 1b40
00000020: 3d45 1240 ce26 4040 d190 3140 6d27 5940
00000030: 63f6 e440 cd59 1d40 bf4a 1f40 6a9c c540
00000040: 1d8e fd3f a2d4 2440 db98 8740 724f ba40
00000050: 5f46 8340 3d36 fc3f ce2c 273f d16e f240
00000060: fe14 5e40 4345 5840 9c58 ae40 1fff d23f
00000070: dd19 8240 8228 a13f 8f9f 9c3f 8891 3040

conv.5.weight f4 [64, 32, 3]
0.11677945 0.091145895 -0.058397867 -0.060730528 -0.053347412 0.037677754 -0.1559065 -0.16967349
-0.05788864 0.0034499045 -0.05230981 0.082874365 -0.018006917 0.07793361 -0.11897226 -0.0044907145
0.13244842 -0.042370502 0.03218013 0.17339481 -0.008095601 0.124499284 -0.023254633 -0.1040571
-0.08321981 -0.07621108 0.09438179 -0.015605031 0.033315036 0.07737589 -0.061133415 -0.087890506
-0.04879049 -0.069014415 -0.004558756 0.06062409 -0.0011022236 9.037105e-05 0.038690943 -0.007198466
0.06410367 0.06390114 0.00029119905 -0.03796295 -0.06978111 0.1666159 0.17259106 0.18527025
-0.002641902 -0.08833814 0.0028285894 0.16085784 0.080038 -0.0644283 -0.014545794 -0.06447867
-0.03489371 0.081739515 0.07628974 -0.13220525 0.2352794 0.20080747 0.19930893 -0.14027667
-0.20564789 -0.32326734 0.016260533 0.26812342 -0.016085645 -0.014079822 0.026437547 0.02187587
-0.019087723 0.03760421 -0.11218433 -0.2394608 -0.1285255 -0.31147423 0.07642909 0.29910463
-0.22899245 0.023996891 0.08466328 -0.011881278 0.1981724 0.08847134 0.12026453 -0.16309212
-0.17805614 0.0749541 0.04605587 0.12974884 -0.14738359 -0.110238835 -0.1450131 -0.20329446
-0.11671684 -0.057858292 -0.1255923 0.1170493 0.11494398 0.04405679 0.18869823 0.2261121
0.20196041 0.08282387 0.05421942 0.17955595 0.15128829 0.04594218 0.0754562 0.010096352
-0.017982554 0.10104133 -0.046741504 0.1358546 0.18394725 0.16346343 0.02674462 0.14722063
-0.01400687 -0.03962837 0.08464524 -0.06908932 0.043518458 0.027589772 -0.04187902 -0.011872829
-0.0021795633 0.018416235 0.057733994 0.01642392 -0.03804037 -0.057725757 0.0125110885 -0.0040625897
-0.059629433 0.0634845 0.036461405 0.11130803 0.04143657 -0.14513642 -0.10038464 -0.10600392
-0.1451149 -0.042808756 -0.04339595 -0.094209954 -0.077656806 -0.040796068 0.05906952 0.22082697
0.1624134 0.046164338 0.12837932 0.11035468 0.03693082 0.045592085 0.055968147 -0.057386786
0.028487742 -0.08157588 -0.029448379 0.0061049294 0.21517365 0.066027656 0.12030009 -0.004700577
-0.027006311 0.016322661 0.11560402 0.23326753 0.32939503 0.6383381 -0.1270777 0.1439243
-0.026502464 -0.075049885 -0.0072987676 0.07536425 -0.012590812 0.09967484 0.13891791 0.028848559
0.04282885 0.06509916 -0.041463044 0.15441352 0.20240338 -0.013690254 -0.01249345 0.02430577
-0.05747259 -0.027039355 0.17910399 0.083081976 0.008883528 -0.012253258 0.074713245 0.119977035
0.34100828 0.03264648 -0.058950935 -0.08750713 -0.10462449 -0.1065027 -0.06513857 -0.08158632
-0.041487228 -0.03656188 -0.3428776 -0.24474323 -0.1382869 -0.08023062 -0.18673407 -0.15521203
-0.028688302 -0.13249183 -0.029018052 0.034328055 -0.093460105 0.10830883 -0.15761298 0.010438858
-0.061517294 0.05027214 -0.17789039 0.039980583 0.05232078 -0.016770782 -0.039324585 0.06449196
-0.07299287 -0.12952058 -0.0910096 -0.09252851 -0.115470804 -0.19952497 -0.20574802 -0.052622695
-0.15004408 0.051393066 0.054122 -0.06099858 0.06194767 0.066381186 0.11535932 0.08617089
0.14862098 -0.36351764 -0.39700377 -0.3331464 -0.03148413 0.01181972 -0.046771325 0.20746402
00000000: 102a ef3d b3aa ba3d 9a32 6fbd 93c0 78bd
00000010: d182 5abd fd53 1a3d f4a5 1fbe e3be 2dbe
00000020: a31c 6dbd cb17 623b d042 56bd 09ba a93d
00000030: 3e83 93bc a89b 9f3d baa7 f3bd d826 93bb
00000040: 8fa0 073e b18c 2dbd 50cf 033d 698e 313e
00000050: 69a3 04bc 7bf9 fe3d 8080 bebc e41b d5bd
00000060: 266f aabd 8e14 9cbd 3d4b c13d 3eac 7fbc
00000070: 5975 083d 4077 9e3d 0867 7abd f0ff b3bd
00000080: 89d8 47bd 6e57 8dbd 9e61 95bb f750 783d
00000090: 7d78 90ba 9785 bd38 657a 1e3d 1ce1 ebbb
000000a0: c948 833d 9ade 823d 13ac 9839 0a7f 1bbd
000000b0: 66e9 8ebd 5c9d 2a3e b6bb 303e 7cb7 3d3e
000000c0: c323 2dbb a0ea b4bd db5f 393b ebb7 243e
000000d0: f7ea a33d fcf2 83bd 7b51 6ebc 650d 84bd
000000e0: b5ec 0ebd 0c67 a73d cc3d 9c3d d060 07be
000000f0: 15ed 703e 79a0 4d3e a417 4c3e b0a4 0fbe
00000100: 5c95 52be 4c83 a5be cf34 853c 7947 893e
00000110: 0bc6 83bc 0eaf 66bc 8e93 d83c 0635 b33c
00000120: db5d 9cbc df06 1a3d e6c0 e5bd 3635 75be
00000130: 309c 03be 8d79 9fbe db86 9c3d 3e24 993e
00000140: ff7c 6abe 2195 c43c f163 ad3d b1a9 42bc
00000150: b5ed 4a3e 7630 b53d 404d f63d 9f01 27be
00000160: 5954 36be 8981 993d 14a5 3c3d e1dc 043e
00000170: b9eb 16be e6c4 e1bd 507e 14be 6c2c 50be
00000180: 3d09 efbd d1fc 6cbd 459b 00be 8bb7 ef3d
00000190: c067 eb3d e574 343d 1c3a 413e ee89 673e
000001a0: b6ce 4e3e 909f a93d 2f15 5e3d 84dd 373e
000001b0: 51eb 1a3e de2d 3c3d c888 9a3d 2b6b 253c
000001c0: 2650 93bc c2ee ce3d 0574 3fbd 781d 0b3e
000001d0: ab5c 3c3e f562 273e 8917 db3c 01c1 163e
000001e0: 127d 65bc 5c51 22bd 7c5a ad3d b47e 8dbd
000001f0: 6940 323d f203 e23c 5689 2bbd 4186 42bc
00000200: 01d7 0ebb a5dd 963c 7b7a 6c3d 758b 863c
00000210: 38d0 1bbd d871 6cbd 4ffb 4c3c 791f 85bb
00000220: fe3d 74bd 2904 823d 8e58 153d 77f5 e33d
00000230: 65b9 293d a49e 14be 7696 cdbd 9518 d9bd
00000240: 0099 14be 3c58 2fbd f4bf 31bd 26f1 c0bd
00000250: 880a 9fbd c719 27bd e2f2 713d 7720 623e
00000260: b34f 263e d116 3d3d de75 033e a201 e23d
00000270: c644 173d c4be 3a3d db3e 653d 680e 6bbd
00000280: 205f e93c 4111 a7bd ba3d f1bc dc0b c83b
00000290: 7b56 5c3e 8239 873d e55f f63d 4c07 9abb
000002a0: 573c ddbc 1ab7 853c cdc1 ec3d afdd 6e3e
000002b0: 77a6 a83e 206a 233f a820 02be e460 133e
000002c0: b21b d9bc c1b3 99bd 802a efbb 9258 9a3d
000002d0: b149 4ebc 5322 cc3d 7f40 0e3e d053 ec3c
000002e0: 4e6d 2f3d b552 853d 27d5 29bd 941e 1e3e
000002f0: d542 4f3e 164d 60bc 54b1 4cbc e51c c73c
00000300: 6168 6bbd a381 ddbc 0967 373e e226 aa3d
00000310: 388c 113c e4c1 48bc 4203 993d 85b6 f53d
00000320: a398 ae3e 51b8 053d 8976 71bd f036 b3bd
00000330: 5d45 d6bd 161e dabd 5f67 85bd bb16 a7bd
00000340: 83ee 29bd e9c1 15bd a78d afbe f89d 7abe
00000350: 159b 0dbe f44f a4bd 3737 3fbe e7ef 1ebe
00000360: bb03 ebbc f0ab 07be 44b7 edbc 939b 0c3d
00000370: 0368 bfbd 05d1 dd3d 4c65 21be be07 2b3c
00000380: 8ff9 7bbd 29ea 4d3d e628 36be aec2 233d
00000390: 504e 563d e162 89bc d112 21bd 5c14 843d
000003a0: 497d 95bd 0ba1 04be 3e63 babd 967f bdbd
000003b0: f57b ecbd 4650 4cbe 9caf 52be e58a 57bd
000003c0: 28a5 19be 8981 523d 08af 5d3d a6d9 79bd
000003d0: d7bc 7d3d dcf2 873d 8241 ec3d 5d7a b03d
000003e0: 1930 183e fc1e babe 1444 cbbe 2a92 aabe
000003f0: 81f5 00bd 80a7 413c 4a93 3fbd 7371 543e

conv.5.bias f4 [64]
-0.011580591 0.09432941 -0.08064786 0.08012341 -0.11342596 0.07215318 0.032617163 -0.03050655
0.06332749 -0.038800746 -0.044169903 -0.023745375 -0.021979632 -0.04597828 -0.04853411 0.088025115
0.08339963 -0.050252195 -0.02450334 0.035126243 0.06600509 -0.022624282 0.034314226 -0.09822869
0.02725235 -0.08757114 -0.007657586 0.10289185 -0.037110228 0.0009916819 0.06607966 0.113718614
0.025086982 0.06278673 -0.015639154 -0.008429989 -0.07270682 -0.056717966 0.0954522 0.079573214
-0.057965886 -0.08500213 -0.017220262 0.05384184 -0.100224584 0.08735807 -0.043501623 -0.075868234
0.0017442872 -0.0013824914 -0.05819801 0.068353 -0.07991174 -0.015239634 0.09720944 0.039095145
-0.0037839322 -0.05012591 0.054589838 0.048350405 -0.05110326 0.01857139 0.014014266 0.020775197
00000000: 85bc 3dbc c72f c13d b52a a5bd be17 a43d
00000010: df4b e8bd 0cc5 933d 9399 053d dfe8 f9bc
00000020: d8b1 813d 88ed 1ebd 80eb 34bd a985 c2bc
00000030: a10e b4bc b953 3cbd b4cb 46bd 8346 b43d
00000040: 6dcd aa3d 3fd5 4dbd 3abb c8bc 89e0 0f3d
00000050: ad2d 873d 8f56 b9bc 138d 0c3d 202c c9bd
00000060: 5240 df3c 7f58 b3bd 7dec fabb f6b8 d23d
00000070: e500 18bd 53fb 813a c654 873d 4ee5 e83d
00000080: 3783 cd3c 5496 803d af1d 80bc f01d 0abc
00000090: 50e7 94bd 1951 68bd 717c c33d 48f7 a23d
000000a0: a36d 6dbd 9915 aebd 8211 8dbc 4389 5c3d
000000b0: 8c42 cdbd cae8 b23d c22e 32bd ce60 9bbd
000000c0: 91a0 e43a b734 b5ba 0961 6ebd a8fc 8b3d
000000d0: c4a8 a3bd a8af 79bc be15 c73d 3b22 203d
000000e0: d9fb 77bb d450 4dbd 9899 5f3d 130b 463d
000000f0: a751 51bd 0723 983c 189c 653c bf30 aa3c

conv.6.weight f4 [64]
1.1387541 1.0682377 1.0488014 0.8641147 0.90413254 0.8467538 0.80012447 1.1227612
1.017962 0.92389524 1.0512072 0.90795445 0.84138 0.96802866 1.1088103 0.8971799
1.1047144 1.1697541 0.9963474 0.9781136 1.0831281 0.9052664 0.9212863 1.0893306
1.0309641 0.95796967 0.96955365 1.0101238 1.0143361 0.9023972 1.1538032 1.1458949
1.1031111 1.0079904 1.0075889 1.0339501 0.99303234 0.8196669 0.954933 0.96290314
1.0800732 1.0549148 1.0226846 0.8708284 0.89563733 0.8473519 0.84531415 1.2835952
0.9103321 0.9865727 1.0350875 0.875366 0.9113843 0.89635587 0.95139635 0.88304263
0.9836898 0.9288631 1.1132457 1.0070224 0.8910155 1.0083965 0.904833 1.0361278
00000000: b2c2 913f 03bc 883f 203f 863f 9f36 5d3f
00000010: 3b75 673f dbc4 583f f5d4 4c3f a4b6 8f3f
00000020: 944c 823f 6684 6c3f f58d 863f b46f 683f
00000030: ae64 573f bad0 773f 7fed 8d3f 95ad 653f
00000040: 4867 8d3f 81ba 953f a010 7f3f a765 7a3f
00000050: f1a3 8a3f 8abf 673f 6bd9 6b3f 2f6f 8b3f
00000060: a2f6 833f 803d 753f ab34 783f bd4b 813f
00000070: c4d5 813f 8103 673f d3af 933f afac 923f
00000080: bf32 8d3f d405 813f acf8 803f 7a58 843f
00000090: 5e37 7e3f b1d5 513f 7d76 743f d280 763f
000000a0: d73f 8a3f 7307 873f 54e7 823f 9cee 5e3f
000000b0: 7d48 653f 0eec 583f 8266 583f d94c a43f
000000c0: 860b 693f 0790 7c3f bf7d 843f fc17 603f
000000d0: 7b50 693f 9477 653f b68e 733f 150f 623f
000000e0: 18d3 7b3f f9c9 6d3f d67e 8e3f 1ce6 803f
000000f0: 9819 643f 2313 813f 23a3 673f d69f 843f

conv.6.bias f4 [64]
-0.07559467 -0.0740583 -0.21754262 -0.19344172 -0.06456591 -0.21400079 -0.29138318 -0.098288715
-0.1744217 -0.20266363 -0.20525157 -0.2329852 -0.22115533 -0.04322754 -0.085328266 -0.22151525
-0.12016511 -0.047840845 -0.17656747 -0.10278613 -0.114489004 -0.1670309 -0.11701862 -0.17565148
-0.00531097 -0.16863644 -0.23431061 -0.18133377 -0.14657982 -0.18708107 -0.02049078 -0.041103702
-0.28886294 -0.15163593 -0.014167761 -0.14972854 -0.12638786 -0.07589727 -0.19868824 -0.267327
-0.15206155 -0.08793488 -0.16563728 -0.42589936 -0.18172416 -0.11299273 -0.32161948 -0.08822253
-0.2781796 -0.22376208 -0.09082593 -0.22482185 -0.09559273 -0.30604848 -0.42267734 -0.23837768
-0.106934026 -0.23194206 -0.03395443 -0.31168976 -0.13422298 -0.18582955 -0.2642582 -0.09343444
00000000: 61d1 9abd e1ab 97bd 7ec3 5ebe 9615 46be
00000010: 223b 84bd 0623 5bbe 2d30 95be 984b c9bd
00000020: 9a9b 32be 0e87 4fbe 782d 52be ac93 6ebe
00000030: 8b76 62be 5c0f 31bd 96c0 aebd e5d4 62be
00000040: 2019 f6bd c3f4 43bd 1ace 34be 8981 d2bd
00000050: 3679 eabd 260a 2bbe 75a7 efbd fbdd 33be
00000060: a507 aebb 08af 2cbe 1fef 6fbe 8faf 39be
00000070: 0519 16be 2e92 3fbe 48dc a7bc 5b5c 28bd
00000080: d8e5 93be 7346 1bbe e61f 68bc 7052 19be
00000090: d26b 01be 0770 9bbd ee74 4bbe 16df 88be
000000a0: 06b6 1bbe 3417 b4bd d29c 29be 7b0f dabe
000000b0: e615 3abe bc68 e7bd 4fab a4be 04ae b4bd
000000c0: 8e6d 8ebe e321 65be f202 babd b337 66be
000000d0: 1fc6 c3bd 63b2 9cbe 2a69 d8be 4719 74be
000000e0: 3a00 dbbd 3882 6dbe cd13 0bbd cd95 9fbe
000000f0: c071 09be 1a4a 3ebe da4c 87be 8e5a bfbd

conv.6.running_mean f4 [64]
-0.06501293 1.3109956 -0.7087113 0.3837706 -1.1128575 -0.44722593 -1.0577973 -0.17739533
-0.8017087 -0.79325134 -0.27393407 -1.5565947 0.014730209 0.7105688 -0.4409051 -0.45792657
-0.039706893 -0.213611 -0.96345574 0.17702201 -0.81013554 -0.589898 -1.209722 -0.20566845
-0.4055835 -0.6287508 -1.5356348 -0.48921755 -0.7305225 -0.6468077 -0.4585792 0.2611768
-1.2053865 0.12919532 -0.0996479 -0.6258991 -1.9024565 0.49595192 -1.5195578 -0.926622
1.0587952 0.7260176 -0.4591714 0.09105037 -1.3096818 -1.3577629 -1.266578 -0.7206095
-1.0391266 -1.2766483 -0.47358137 -0.8164162 -0.3298067 -0.8639259 -0.2330693 0.4648303
-0.18737176 -0.052765414 0.4755105 0.50056857 -0.57784903 0.29681602 0.11608478 0.9855226
00000000: 8025 85bd b4ce a73f 1b6e 35bf 957d c43e
00000010: 1d72 8ebf ccfa e4be e765 87bf 1fa7 35be
00000020: c83c 4dbf 8512 4bbf 1641 8cbe 7f3e c7bf
00000030: f956 713c d6e7 353f 50be e1be 5a75 eabe
00000040: b2a3 22bd d8bc 5abe 09a5 76bf 4245 353e
00000050: 0b65 4fbf 8e03 17bf 2cd8 9abf c09a 52be
00000060: a4a8 cfbe d0f5 20bf ae8f c4bf b97a fabe
00000070: 8603 3bbf 3095 25bf e5ca eabe f7b8 853e
00000080: 1b4a 9abf c74b 043e 3314 ccbd ec3a 20bf
00000090: b283 f3bf 69ed fd3e df80 c2bf 1937 6dbf
000000a0: 9a86 873f 4adc 393f 8418 ebbe 9e78 ba3d
000000b0: a7a3 a7bf 2dcb adbf 3a1f a2bf dd79 38bf
000000c0: 1a02 85bf 3669 a3bf 4279 f2be a700 51bf
000000d0: 6cdc a8be 3f2a 5dbf b8a9 6ebe 3dfe ed3e
000000e0: 62de 3fbe 8c20 58bd 1d76 f33e 4325 003f
000000f0: eaed 13bf 45f8 973e dbbd ed3d 364b 7c3f

conv.6.running_var f4 [64]
0.71064013 1.038924 0.644087 0.91779757 0.5951573 0.7292129 1.1003972 1.1274377
0.55373514 0.8906664 1.2239158 1.5058014 1.3135065 1.1721923 0.4366691 0.9928959
1.1114131 0.7569694 1.4874927 1.7059319 1.2412176 0.6288894 4.146902 0.9009444
0.33317012 0.84750444 3.4498708 0.7218995 0.50035423 1.685548 2.046943 1.442132
1.6967199 0.52322495 1.9176222 2.731372 1.6959188 1.7777061 1.5492327 2.1577814
1.0253923 0.5550896 1.0910096 0.5624872 2.946945 1.0451716 1.2486738 1.9513807
3.0306842 1.4893186 2.0903137 0.69186044 0.82310176 1.6969206 1.2039787 0.57844853
1.3701333 0.75711507 1.9913611 0.9867399 0.7309079 0.57858884 0.830539 1.1678641
00000000: 83ec 353f 76fb 843f e3e2 243f c8f4 6a3f
00000010: 3b5c 183f b2ad 3a3f d1d9 8c3f e14f 903f
00000020: 96c1 0d3f b702 643f 46a9 9c3f 1abe c03f
00000030: fb20 a83f 660a 963f 1893 df3e 6d2e 7e3f
00000040: c942 8e3f bfc8 413f 2966 be3f fa5b da3f
00000050: 38e0 9e3f e5fe 203f 6cb3 8440 4ba4 663f
00000060: 4695 aa3e 0df6 583f afca 5c40 68ce 383f
00000070: 3717 003f 09c0 d73f 1d01 0340 c897 b83f
00000080: 1e2e d93f 12f2 053f a574 f53f cdce 2e40
00000090: de13 d93f e08b e33f 424d c63f 1719 0a40
000000a0: 0e40 833f 5a1a 0e3f 34a6 8b3f 29ff 0f3f
000000b0: bf9a 3c40 2fc8 853f 8bd4 9f3f d8c6 f93f
000000c0: bbf6 4140 fea1 be3f b3c7 0540 c41d 313f
000000d0: ccb6 523f b234 d93f f91b 9a3f 3415 143f
000000e0: 8760 af3f 4bd2 413f ece4 fe3f fc9a 7c3f
000000f0: c81c 3b3f 661e 143f 349e 543f 927c 953f

conv.10.weight f4 [128, 64, 3]
0.17820726 -0.023512207 0.13032228 0.17710352 0.09752748 0.2236197 -0.0018922832 0.021898312
-0.038480673 0.062053423 -0.016642682 0.07679509 -0.121607855 -0.078776896 -0.07151127 -0.11235256
0.20331457 0.031085035 0.06349515 0.03721798 0.15057683 -0.011859377 0.09949056 -0.06249993
0.035674717 0.014854519 -0.026401201 -0.14378802 -0.009059973 -0.07533783 -0.033274427 -0.03179474
0.030250967 0.07728045 -0.06457793 0.04889065 0.16027413 0.07885643 0.0053061363 0.02593298
-0.044721488 -0.065081574 0.067811 0.10422873 0.06915385 0.022874717 0.07669586 0.06490788
0.033425868 0.08790249 -0.2237695 0.12419416 -0.017729549 0.056344412 -0.027733652 0.07588911
-0.0122714145 0.12740703 0.035908826 0.1010677 0.060143363 0.06878139 -0.0015901661 0.057290494
0.113531776 0.050873585 -0.042625394 -0.06462455 -0.031232059 0.05438549 0.2283857 0.013334347
-0.032001123 -0.033414535 -0.06960276 0.13022906 -0.0077449116 0.043649133 -0.15317275 -0.18749492
-0.0744951 -0.059071165 -0.07858319 0.017245177 -0.12663801 0.044551425 -0.103835374 -0.12279542
-0.14284179 -0.021963933 0.11386106 0.09422305 0.13508812 0.09988414 0.08433229 0.06683047
0.067043036 0.05407695 0.020666014 0.1642988 0.060734827 -0.086512 0.13869342 0.027622031
-0.02808889 0.009813434 -0.13692603 -0.041657668 0.054428566 -0.032478917 0.06961088 0.16848642
-0.021295443 0.10875834 0.18133816 0.09645973 0.030807795 -0.039118227 -0.10964836 -0.06252852
-0.066868305 -0.11871427 -0.10659807 0.19385153 -0.03395215 0.06752519 -0.0050775576 0.12656471
-0.040516086 -0.13256001 0.010480659 -0.02249908 -0.036637813 -0.106300205 -0.010130462 -0.03350238
0.03595627 0.06548227 -0.087056376 -0.057662435 -0.12482274 0.22730152 0.096022986 0.23975213
0.0052810768 -0.11258805 -0.027420335 0.015074259 -0.008757738 0.114255376 0.012865224 -0.012916344
0.09575742 -0.009387528 -0.020313716 0.047140565 -0.027038658 -0.13155028 0.020339461 -0.16285522
-0.087257504 -0.093140356 -0.010189717 -0.006194927 -0.08292303 0.022170518 0.15168415 0.057088062
-0.10063362 0.09719713 0.020945389 -0.1885693 -0.06513737 0.092604965 0.060568087 0.13972636
0.05150575 0.13113979 0.21909119 0.25308147 -0.116877556 -0.028073877 -0.11050658 0.22336763
0.1405609 0.12939823 0.028262297 0.18178041 -0.05279967 0.19522355 0.19415341 0.07649829
0.009471598 -0.22384076 -0.33220783 -0.0857393 -0.16242243 -0.2105395 -0.0715976 -0.013531252
-0.053064935 0.011205972 0.03965417 -0.036601737 0.033415977 -0.023436496 0.01181082 -0.09133032
-0.052308977 -0.07928916 0.04600909 -0.002859406 -0.010781397 -0.11918973 -0.17672192 -0.15701401
0.07696484 0.09010245 0.08379789 0.12641609 0.014465369 -0.007760345 0.009398453 -0.035059247
-0.007653483 0.041621298 0.13203697 0.04447547 -0.009308562 -0.07190451 -0.07512238 -0.02867396
-0.09019628 0.044011503 0.06773057 -0.06757041 -0.05475051 0.018748198 -0.015111405 -0.05185545
-0.07028077 -0.036066364 0.03405716 -0.029113697 -0.101700656 -0.022526802 -0.028257363 -0.09911043
0.13605072 -0.10600573 -0.16763249 -0.07024278 0.0069229486 -0.0679169 -0.09280815 -0.07931413
00000000: f77b 363e ac9c c0bc 3473 053e a05a 353e
00000010: 7dbc c73d 90fc 643e 7d06 f8ba 1764 b33c
00000020: e99d 1dbd bb2b 7e3d 3c56 88bc bf46 9d3d
00000030: 8a0d f9bd c855 a1bd 8074 92bd 1919 e6bd
00000040: b231 503e 0ba6 fe3c bf09 823d e171 183d
00000050: d030 1a3e d54d 42bc b5c1 cb3d edff 7fbd
00000060: a71f 123d 5e60 733c 5547 d8bc 2b3d 13be
00000070: 4870 14bc b84a 9abd c44a 08bd 343b 02bd
00000080: e0d0 f73c 3645 9e3d 6f41 84bd 9041 483d
00000090: e71e 243e 7b7f a13d 19df ad3b 6771 d43c
000000a0: e12d 37bd 7d49 85bd 7ee0 8a3d df75 d53d
000000b0: 89a0 8d3d c263 bb3c b812 9d3d 6cee 843d
000000c0: 90e9 083d 3806 b43d d523 65be 8259 fe3d
000000d0: 8f3d 91bc 66c9 663d af31 e3bc c06b 9b3d
000000e0: 0b0e 49bc fd76 023e 2215 133d 95fc ce3d
000000f0: e358 763d 42dd 8c3d 1f6d d0ba 70a9 6a3d
00000100: 5983 e83d d260 503d f797 2ebd e059 84bd
00000110: 60da ffbc 52c3 5e3d f1dd 693e 4e78 5a3c
00000120: 9c13 03bd aedd 08bd e48b 8ebd c45a 053e
00000130: 07c9 fdbb 6fc9 323d 51d9 1cbe abfe 3fbe
00000140: e390 98bd 9bf4 71bd 39f0 a0bd c245 8d3c
00000150: 65ad 01be 8e7b 363d a4a7 d4bd 2a7c fbbd
00000160: 1e45 12be b5ed b3bc fd2f e93d 04f8 c03d
00000170: 8a54 0a3e 0e90 cc3d 68b6 ac3d 6ade 883d
00000180: dc4d 893d cb7f 5d3d c64b a93c f23d 283e
00000190: 15c5 783d 342d b1bd a605 0e3e 9947 e23c
000001a0: ac1a e6bc 87c8 203c 5636 0cbe 3ba1 2abd
000001b0: 7df0 5e3d 9d08 05bd 2690 8e3d b487 2c3e
000001c0: c873 aebc b1bc de3d b6b0 393e ae8c c53d
000001d0: a160 fc3c 6f3a 20bd 528f e0bd f40e 80bd
000001e0: 40f2 88bd 7820 f3bd 1750 dabd 0481 463e
000001f0: 6911 0bbd a64a 8a3d a461 a6bb 2e9a 013e
00000200: 32f4 25bd d0bd 07be 12b7 2b3c fe4f b8bc
00000210: 8811 16bd ecb3 d9bd 3dfa 25bc cb39 09bd
00000220: e246 133d 921b 863d 9d4a b2bd 722f 6cbd
00000230: 11a3 ffbd bbc1 683e b3a7 c43d 9581 753e
00000240: e20c ad3b 9094 e6bd 9ca0 e0bc 06fa 763c
00000250: 9e7c 0fbc b9fe e93d a9c8 523c 139f 53bc
00000260: 771c c43d 25ce 19bc f368 a6bc 7716 413d
00000270: 2d80 ddbc 1eb5 06be f19e a63c 85c3 26be
00000280: 10b4 b2bd 5fc0 bebd c5f2 26bc d0fe cabb
00000290: 8dd3 a9bd f29e b53c 1753 1b3e 2cd5 693d
000002a0: 0019 cebd 4a0f c73d aa95 ab3c 5018 41be
000002b0: be66 85bd aca7 bd3d 3e16 783d 6d14 0f3e
000002c0: b1f7 523d 8249 063e 7159 603e e593 813e
000002d0: 805d efbd 30fb e5bc 4651 e2bd 7cba 643e
000002e0: 32ef 0f3e f880 043e 5586 e73c a524 3a3e
000002f0: 7744 58bd afe8 473e 27d0 463e 23ab 9c3d
00000300: c32e 1b3c 8336 65be 2517 aabe 1698 afbd
00000310: 1152 26be ab97 57be c3a1 92bd 2fb2 5dbc
00000320: 9e5a 59bd 4199 373c 696c 223d b4eb 15bd
00000330: 31df 083d e5fd bfbc 2b82 413c 640b bbbd
00000340: f041 56bd 5b62 a2bd 0774 3c3d df64 3bbb
00000350: 75a4 30bc bf19 f4bd 97f6 34be 48c8 20be
00000360: be9f 9d3d a287 b83d 3a9e ab3d 3873 013e
00000370: 2800 6d3c 7e4a febb f8fb 193c 499a 0fbd
00000380: 12ca fabb 187b 2a3d b334 073e e92b 363d
00000390: f082 18bc ac42 93bd c3d9 99bd a7e5 eabc
000003a0: d4b8 b8bd 6845 343d 53b6 8a3d 5b62 8abd
000003b0: 1242 60bd d295 993c d495 77bc 6166 54bd
000003c0: 5def 8fbd 53ba 13bd 857f 0b3d d97f eebc
000003d0: 6f48 d0bd 218a b8bc fc7b e7bc 69fa cabd
000003e0: e150 0b3e 8819 d9bd daa7 2bbe 72db 8fbd
000003f0: e7d9 e23b 0418 8bbd 3312 bebd 726f a2bd

conv.10.bias f4 [128]
0.0698323 0.029096875 -0.005303696 0.011743533 0.034783952 0.03938537 -0.0676059 0.036977384
0.0139231905 -0.049923863 -0.045147076 0.02217871 0.058346033 -0.049242955 -0.03245551 0.021376675
0.011343038 -0.0312615 -0.025035936 -0.041560486 0.020949159 -0.024298977 0.046821102 0.06436242
0.050171368 0.042055834 -0.020947872 0.046502564 0.057626046 -0.036338985 -0.061759047 -0.027684638
-0.016388655 -0.038762532 -0.056725234 -0.055125903 -0.070169434 0.037881635 -0.0040135426 0.037521195
-0.03628492 0.055019543 -0.00051585125 -0.0022794534 -0.03950334 0.06254667 -0.066999696 -0.0437783
0.061398737 0.06838798 -0.03784922 -0.05075903 -0.05675171 0.0100106215 -0.0368456 0.018432828
-0.008345981 0.005334207 0.03065667 0.021347256 -0.01982609 -0.03949121 -0.07813251 -0.042683937
-0.051826615 -0.02192024 0.03208661 0.073638 -0.04322468 0.04617544 -0.063122086 -0.017460756
0.057211533 0.012206509 -0.028837005 0.04597591 0.068660006 0.0001473201 0.08014278 0.057397753
-0.042836756 0.027178656 -0.043676652 -0.04538916 0.06983341 -0.024639687 -0.0017286317 -0.070345744
0.0068280986 0.020758498 -0.046056177 0.019540392 0.06086105 0.04427118 -0.0010858319 0.061234932
0.028482636 0.0017106454 0.01341576 0.084095165 -0.0158731 0.01654029 -0.0029586717 0.0055011297
0.03340365 0.064316116 -0.053999946 -0.023629991 -0.025794964 -0.061788335 -0.0025071714 0.026469849
0.025819782 -0.0035610758 0.001544136 0.048848744 -0.041298598 -0.0354267 -0.020661 0.025074147
0.06507565 -0.038139615 0.0311648 -0.0018804148 -0.010165968 -0.04435715 -0.037391763 -0.021087794
00000000: 3d04 8f3d 925c ee3c a0ca adbb f367 403c
00000010: 9e79 0e3d 8e52 213d f674 8abd 9975 173d
00000020: 181e 643c f77c 4cbd 24ec 38bd 20b0 b53c
00000030: 40fc 6e3d fbb2 49bd 12f0 04bd 231e af3c
00000040: 26d8 393c 0f0c 00bd 2a18 cdbc 543b 2abd
00000050: 929d ab3c a60e c7bc 7cc7 3f3d 72d0 833d
00000060: 7e80 4d3d bd42 2c3d df9a abbc 7979 3e3d
00000070: 4a09 6c3d 30d8 14bd 0ef7 7cbd e5ca e2bc
00000080: 8041 86bc 76c5 1ebd b858 68bd b3cb 61bd
00000090: feb4 8fbd c629 1b3d 0984 83bb d3af 193d
000000a0: 7f9f 14bd 2c5c 613d 313a 07ba e262 15bb
000000b0: 41ce 21bd 7818 803d 2337 89bd e050 33bd
000000c0: 3e7d 7b3d ff0e 8c3d c907 1bbd b3e8 4fbd
000000d0: 7b74 68bd 9703 243c 69eb 16bd 7100 973c
000000e0: 95bd 08bc 92ca ae3b b223 fb3c 71e0 ae3c
000000f0: 536a a2bc 89c1 21bd f003 a0bd 5ad5 2ebd
00000100: 2548 54bd 1392 b3bc 406d 033d 85cf 963d
00000110: 5d0c 31bd 7522 3d3d 2746 81bd dc09 8fbc
00000120: a456 6a3d cffd 473c 953b ecbc 3c51 3c3d
00000130: 9e9d 8c3d f079 1a39 e621 a43d e819 6b3d
00000140: 9875 2fbd c6a5 de3c 4ae6 32bd fce9 39bd
00000150: d204 8f3d 2bd9 c9bc 4193 e2ba 6e11 90bd
00000160: 3ebe df3b ba0d aa3c 67a5 3cbd 2c13 a03c
00000170: 7049 793d b255 353d 7952 8eba 7bd1 7a3d
00000180: 6b54 e93c bc37 e03a c7cd 5b3c 163a ac3d
00000190: 4e08 82bc 817f 873c 46e6 41bb d242 b43b
000001a0: 44d2 083d 2bb8 833d 0c2f 5dbd af93 c1bc
000001b0: f64f d3bc c415 7dbd 5b4f 24bb 4cd7 d83c
000001c0: 0284 d33c f060 69bb 9b64 ca3a 9f15 483d
000001d0: b828 29bd 961b 11bd 4241 a9bc 4c68 cd3c
000001e0: 6246 853d 4938 1cbd 534d ff3c 4078 f6ba
000001f0: 298f 26bc d8af 35bd 1b28 19bd 4fc0 acbc

conv.11.weight f4 [128]
1.1731206 0.97525346 0.9847779 1.199142 1.2508314 1.2304853 0.92474705 0.94736946
1.5484998 1.1549395 1.1719043 1.1207887 0.97227454 0.96692145 1.2246854 1.0929871
1.3882546 1.2896161 1.1931838 0.969595 0.91411346 1.1321452 1.0884433 1.0426564
1.3185571 1.0149769 1.273851 1.6023166 1.2643557 0.91603816 1.2586219 1.1946232
1.4463257 1.2766639 1.0491908 1.405109 1.2292166 1.3984108 0.9750933 1.741637
1.6677606 1.2580968 1.139863 1.45149 0.9631991 0.9671067 1.2097962 1.2152781
1.1802338 1.1055537 1.7761357 1.4511007 1.3630276 1.345455 0.9760014 1.3181634
1.5510653 0.9976862 0.9634077 0.92638046 1.3874029 1.3098558 1.1842191 1.7716483
1.0509031 0.9052248 1.0103172 1.0832279 0.96081614 1.0633631 1.4181985 1.1869862
0.96184355 1.3324101 1.3117058 1.4502702 1.3997539 1.1817309 1.171999 1.1355063
1.1286628 0.96493125 1.3187014 1.7246932 1.1023082 1.1796591 1.19533 1.1330981
1.2050031 0.96172553 0.98018765 1.1220616 1.1621269 1.05556 1.0186855 1.0239043
1.1361638 0.93764734 1.6084859 0.97582704 1.1831784 1.1476508 0.9760913 1.3158199
1.2267184 1.4448427 1.2206272 1.3107281 1.2006658 1.3674513 1.2591063 1.1883465
1.0023267 1.4773346 0.94459975 0.9826455 1.2224765 0.95152646 1.2520825 0.9770665
0.9547094 1.39469 1.2130425 1.1681731 1.4031503 0.92754984 1.0597299 0.9668012
00000000: d128 963f 36aa 793f 681a 7c3f 7c7d 993f
00000010: 3e1b a03f 8b80 9d3f 39bc 6c3f ce86 723f
00000020: 3e35 c63f 0fd5 933f f600 963f 0176 8f3f
00000030: fce6 783f 2a88 773f 7ec2 9c3f 00e7 8b3f
00000040: 54b2 b13f 2412 a53f 3fba 983f 6137 783f
00000050: 5703 6a3f 22ea 903f 1c52 8b3f c475 853f
00000060: 7bc6 a83f c3ea 813f 8d0d a33f b618 cd3f
00000070: 68d6 a13f 7a81 6a3f 861a a13f 6ae9 983f
00000080: 3321 b93f b969 a33f e24b 863f 9dda b33f
00000090: f856 9d3f 20ff b23f b79f 793f f6ed de3f
000000a0: 2e79 d53f 5109 a13f 08e7 913f 6dca b93f
000000b0: 3794 763f 4e94 773f 9ada 9a3f 3c8e 9b3f
000000c0: e711 973f c982 8d3f 6a58 e33f abbd b93f
000000d0: b077 ae3f df37 ac3f 3adb 793f 94b9 a83f
000000e0: 4f89 c63f 5d68 7f3f e3a1 763f 4527 6d3f
000000f0: 6b96 b13f 5ba9 a73f 7e94 973f 5fc5 e23f
00000100: fe83 863f d0bc 673f 1352 813f 36a7 8a3f
00000110: 0cf8 753f 481c 883f 8787 b53f 2aef 973f
00000120: 613b 763f 6a8c aa3f fae5 a73f 74a2 b93f
00000130: 232b b33f f542 973f 1004 963f 4558 913f
00000140: 0678 903f bc05 773f 35cb a83f bfc2 dc3f
00000150: 6f18 8d3f 12ff 963f 9300 993f 5c09 913f
00000160: 8b3d 9a3f a533 763f 94ed 7a3f b79f 8f3f
00000170: 93c0 943f 971c 873f 4964 823f 4c0f 833f
00000180: d16d 913f a809 703f dee2 cd3f cdcf 793f
00000190: 6472 973f 39e6 923f 1fe1 793f c96c a83f
000001a0: 1c05 9d3f 9bf0 b83f 833d 9c3f f0c5 a73f
000001b0: 6baf 993f a508 af3f 652a a13f bd1b 983f
000001c0: 3e4c 803f 4d19 bd3f 4ad1 713f a88e 7b3f
000001d0: 1c7a 9c3f 3d97 733f 3d44 a03f 0821 7a3f
000001e0: d667 743f 3485 b23f fa44 9b3f b286 953f
000001f0: 6e9a b33f e873 6d3f 3ba5 873f 4980 773f

conv.11.bias f4 [128]
-0.03413294 -0.14644271 -0.13635299 -0.0261228 0.13623105 0.1446844 -0.2057025 -0.120263934
0.06140082 0.13426912 0.06747918 0.0703706 -0.17417149 -0.184311 -0.66689664 0.12988399
0.029841198 0.11716901 0.15189314 -0.20655787 -0.21234828 0.120790236 -0.29727763 0.08006764
0.18539539 -0.120178096 -0.26677874 0.09977599 0.068110384 -0.2220427 0.13487083 0.10102952
0.051724352 0.09690949 0.05215219 0.08217975 0.10095448 0.075432085 -0.17436744 0.20979385
0.12230793 0.08794984 0.09515541 0.071588665 -0.20613627 -0.2937766 0.04934747 0.100647345
0.24518299 -0.09900242 0.0382334 -0.08848913 0.06294513 0.06554706 -0.14076497 0.10496874
0.08951531 -0.102684416 -0.17527413 -0.1562377 0.123755075 0.115269706 0.06299311 -0.14628306
-0.28172702 -0.28655252 -0.1751785 -0.3035529 -0.28355813 0.02220875 0.054124273 0.06758462
-0.16403383 0.12095161 0.09697042 0.071993254 0.09888372 0.055217326 0.044941746 0.09259089
0.124255076 -0.20118394 0.12817581 -0.047976594 0.13085078 0.18288255 0.030588513 -0.23576826
0.13968796 -0.20977162 -0.15691128 0.11374421 0.13731658 0.15975402 -0.12816408 -0.13587959
0.112414435 -0.22211125 0.09990561 -0.16237716 0.12473019 -0.3732732 -0.22160102 0.16369796
0.095265076 0.14398456 0.08971105 -0.0046526864 0.09402031 0.12853709 0.1557077 0.09134281
-0.2283538 0.107479565 -0.21836455 -0.13869 0.02448916 -0.21360932 -0.1049274 -0.2005188
-0.2432066 0.015663872 0.08050934 0.080352925 -0.113123074 -0.17106147 -0.14581382 -0.26813394
00000000: fbce 0bbd 14f5 15be 1ea0 0bbe 7bff d5bc
00000010: 2780 0b3e 2628 143e ada3 52be f04c f6bd
00000020: 6d7f 7b3d d87d 093e 8632 8a3d 761e 903d
00000030: 035a 32be 06bc 3cbe bdb9 2abf 4f00 053e
00000040: 8775 f43c 4ef6 ef3d e089 1b3e e883 53be
00000050: d471 59be df60 f73d c634 98be 81fa a33d
00000060: 4ad8 3d3e ef1f f6bd 3997 88be 5b57 cc3d
00000070: 757d 8b3d 295f 63be 941b 0a3e 91e8 ce3d
00000080: eadc 533d 7c78 c63d 899d 553d db4d a83d
00000090: 39c1 ce3d 237c 9a3d 618d 32be 33d4 563e
000000a0: 947c fa3d 0c1f b43d d7e0 c23d 149d 923d
000000b0: 6315 53be e369 96be 9320 4a3d 3220 ce3d
000000c0: 4011 7b3e c8c1 cabd a09a 1c3d ca39 b5bd
000000d0: 60e9 803d 893d 863d b124 10be daf9 d63d
000000e0: ce53 b73d 354c d2bd 107b 33be c7fc 1fbe
000000f0: 4d73 fd3d 8612 ec3d 8802 813d 3acb 15be
00000100: 863e 90be 03b7 92be fe61 33be 496b 9bbe
00000110: 882e 91be 20ef b53c 6ab1 5d3d ce69 8a3d
00000120: 7cf8 27be 7ab5 f73d 6d98 c63d 3371 933d
00000130: 8c83 ca3d 902b 623d d614 383d 4ba0 bd3d
00000140: 7279 fe3d 2a03 4ebe 8540 033e 1b83 44bd
00000150: bffd 053e 9045 3b3e c394 fa3c 3c6d 71be
00000160: 5c0a 0f3e 5fce 56be 5aad 20be b9f2 e83d
00000170: b89c 0c3e 8f96 233e 723d 03be 0524 0bbe
00000180: 8a39 e63d 2271 63be 509b cc3d 3346 26be
00000190: 8b72 ff3d aa1d bfbe 61eb 62be 70a0 273e
000001a0: 561a c33d b070 133e 6dba b73d 9075 98bb
000001b0: b88d c03d 3a9f 033e d771 1f3e f011 bb3d
000001c0: 94d5 69be 3f1e dc3d f59a 5fbe c004 0ebe
000001d0: 7e9d c83c 67bc 5abe 2de4 d6bd cd54 4dbe
000001e0: 270b 79be 8551 803c 15e2 a43d 1390 a43d
000001f0: 12ad e7bd bd2a 2fbe 3850 15be da48 89be

conv.11.running_mean f4 [128]
1.8567766 -2.7935915 -2.103353 -0.4432306 0.35063034 0.0012344784 -2.972108 -1.2104657
2.1400607 0.37687153 0.35964048 0.9532829 -2.558286 -1.6900315 -1.5332209 0.311539
1.4414696 0.9304616 -0.18544582 -2.6171155 -1.6837697 0.44612643 -1.7762164 1.0566427
1.1585133 -2.0361083 -1.0787133 1.6342458 1.4409037 -2.4896896 0.41954032 0.799318
0.20312886 0.83104074 0.2406029 0.3168939 0.96112674 -0.4724887 -1.9527738 3.0874689
2.5138314 0.40865976 -0.72174084 0.20657468 -2.6489406 -2.0078716 -0.6251078 -0.351989
1.7966429 0.9089352 2.7596004 2.445911 1.3499177 0.2529612 -1.8238391 0.037092388
-0.010666101 -1.699845 -2.244386 -2.6964493 0.005391391 1.3754742 -0.36905733 1.6567858
-1.524729 -2.774999 -2.578436 -1.0719798 -2.7316663 1.6741952 0.27389336 0.9884279
-2.1283844 1.6453247 3.0951843 1.5032744 1.998026 0.6451422 -0.14290096 0.39654893
0.9727867 -2.6505246 0.094945215 -0.04434746 0.5139395 -0.3367894 0.81962675 -1.1278673
1.014824 -2.9473152 -3.9997432 0.09144815 0.23266333 -0.4498431 -0.16610235 -3.00211
1.9001709 -2.1875584 0.5816238 -1.7918508 0.0036215545 -0.8436554 0.07523246 -0.51917934
0.2526126 0.9599758 -0.6453005 2.1138356 1.0094396 3.4843512 0.55678415 0.26203752
-0.9533012 -0.15568177 -3.0324645 -1.6266463 0.6493329 -1.8531492 0.60072196 -2.5432625
-1.8139664 3.0829453 0.81722826 -0.49767646 0.51798487 -3.6472106 -0.17081578 -1.3855946
00000000: dbaa ed3f 34ca 32c0 569d 06c0 1fef e2be
00000010: d285 b33e 39ce a13a 0437 3ec0 8af0 9abf
00000020: c1f6 0840 4ef5 c03e cc22 b83e 590a 743f
00000030: f5ba 23c0 f452 d8bf 9540 c4bf 0a82 9f3e
00000040: 1382 b83f bb32 6e3f 82e5 3dbe d27e 27c0
00000050: c485 d7bf af6a e43e 0f5b e3bf 1140 873f
00000060: 2a4a 943f 994f 02c0 4713 8abf f72e d13f
00000070: 886f b83f 1357 1fc0 fdcd d63e 1ba0 4c3f
00000080: 0301 503e 16bf 543f 9b60 763e eb3f a23e
00000090: 670c 763f 0aea f1be 7ef4 f9bf 1799 4540
000000a0: 9de2 2040 da3b d13e 02c4 38bf 5088 533e
000000b0: 3e88 29c0 f880 00c0 1107 20bf e737 b4be
000000c0: 65f8 e53f faaf 683f 4b9d 3040 ce89 1c40
000000d0: 1aca ac3f 2184 813e 8f73 e9bf 30ee 173d
000000e0: dfc0 2ebc 8594 d9bf 05a4 0fc0 a092 2cc0
000000f0: 44aa b03b 8a0f b03f 15f5 bcbe 8f11 d43f
00000100: 522a c3bf 9599 31c0 1805 25c0 a236 89bf
00000110: 9fd3 2ec0 074c d63f c03b 8c3e 9c09 7d3f
00000120: 7337 08c0 009a d23f 8017 4640 4c6b c03f
00000130: 51bf ff3f 0a28 253f a154 12be 7608 cb3e
00000140: 8d08 793f 32a2 29c0 a372 c23d afa5 35bd
00000150: 8a91 033f a96f acbe 0fd3 513f f55d 90bf
00000160: c1e5 813f d0a0 3cc0 cbfb 7fc0 2b49 bb3d
00000170: 4c3f 6e3e d651 e6be bc16 2abe 9222 40c0
00000180: cd38 f33f f500 0cc0 4ce5 143f 5e5b e5bf
00000190: 9a57 6d3b cdf9 57bf 7a13 9a3d f0e8 04bf
000001a0: 7056 813e f9c0 753f 6a32 25bf 1549 0740
000001b0: 5135 813f 9cff 5e40 6889 0e3f c829 863e
000001c0: 8c0b 74bf 0b6b 1fbe e613 42c0 f235 d0bf
000001d0: ae3a 263f fe33 edbf eac8 193f d0c4 22c0
000001e0: 0d30 e8bf fa4e 4540 df35 513f 73cf febe
000001f0: a89a 043f e66b 69c0 55ea 2ebe 2a5b b1bf

conv.11.running_var f4 [128]
1.9702635 5.50379 2.4441345 3.30382 1.7698354 4.021563 3.4551518 3.6322699
13.188972 2.0117035 2.8941956 3.659709 3.3261518 2.508503 2.09146 2.2418244
11.532056 4.247133 1.8668492 3.637132 2.9688146 2.56072 3.909483 3.3989618
2.278474 3.4220395 3.8308485 12.54341 2.6651833 5.1964064 3.163251 2.5314503
5.0779963 2.9633684 2.195811 1.9461495 2.240943 2.8171346 3.2644942 12.674941
16.006016 1.952734 1.8160629 6.274694 3.1342037 3.7311015 3.4557588 1.6223136
7.7487597 2.8123958 15.227836 5.1606836 3.5070882 3.423067 3.4207509 5.668441
10.430732 3.6983156 3.5319993 2.8333442 5.433622 2.3799329 2.3701353 5.6223793
5.483003 5.5136456 6.6782765 4.808406 5.906195 3.7647614 7.348996 8.695729
2.0744662 3.5940375 11.44063 3.7326493 12.261817 1.4029633 1.6045368 2.7074242
2.5679758 4.22385 3.400649 5.703381 2.6053963 2.8165176 4.584075 3.5090897
2.9716132 4.2084866 5.898981 3.8287787 3.490531 3.2595754 4.906756 2.8127446
5.858728 2.5303195 8.112143 4.366632 2.409442 5.6378136 2.041288 2.2099588
2.2683432 2.411723 2.505717 11.846662 8.483367 9.4382105 3.7715492 2.9597914
1.8059576 7.000557 6.435133 2.8938577 2.5792484 3.0849376 5.3105307 2.95873
4.663337 6.7302084 2.6557717 3.6091795 3.778583 5.5387483 2.8916264 4.539022
00000000: 9831 fc3f 0c1f b040 b36c 1c40 c971 5340
00000010: f789 e23f a5b0 8040 3521 5d40 1c77 6840
00000020: 0806 5341 c0bf 0040 803a 3940 ac38 6a40
00000030: acdf 5440 508b 2040 7bda 0540 0d7a 0f40
00000040: 4d83 3841 83e8 8740 eaf4 ee3f c5c6 6840
00000050: 0f01 3e40 d6e2 2340 f834 7a40 9788 5940
00000060: 85d2 1140 b202 5b40 9f2c 7540 cfb1 4841
00000070: 5d92 2a40 f648 a640 b472 4a40 4803 2240
00000080: f27e a240 d4a7 3d40 2b88 0c40 6d1b f93f
00000090: 9c6b 0f40 ef4b 3440 79ed 5040 8fcc 4a41
000000a0: 520c 8041 30f3 f93f c074 e83f 4bca c840
000000b0: cb96 4840 5eca 6e40 272b 5d40 f9a7 cf3f
000000c0: d7f5 f740 4bfe 3340 37a5 7341 5224 a540
000000d0: 2274 6040 8813 5b40 95ed 5a40 de63 b540
000000e0: 47e4 2641 34b1 6c40 470c 6240 8355 3540
000000f0: 3be0 ad40 d250 1840 4cb0 1740 88ea b340
00000100: c374 af40 c96f b040 71b4 d540 76de 9940
00000110: 8dff bc40 daf1 7040 fa2a eb40 b521 0b41
00000120: 0ec4 0440 b604 6640 d20c 3741 bae3 6e40
00000130: 6730 4441 4d94 b33f 7661 cd3f 7046 2d40
00000140: b759 2440 c729 8740 3ca4 5940 1982 b640
00000150: d0be 2640 d341 3440 beb0 9240 ed94 6040
00000160: e92e 3e40 ecab 8640 74c4 bc40 b60a 7540
00000170: dc64 5f40 e29c 5040 2504 9d40 0204 3440
00000180: b37a bb40 c1f0 2140 56cb 0141 73bb 8b40
00000190: 4c34 1a40 f868 b440 76a4 0240 f76f 0d40
000001a0: 892c 1140 ab59 1a40 ab5d 2040 ed8b 3d41
000001b0: dfbb 0741 e902 1741 1061 7140 396d 3d40
000001c0: 9e29 e73f 9004 e040 9cec cd40 f734 3940
000001d0: 6812 2540 9e6f 4540 deef a940 d55b 3d40
000001e0: 0f3a 9540 de5d d740 2af8 2940 ccfc 6640
000001f0: 4ed4 7140 6d3d b140 6810 3940 ab3f 9140
