output/energy_cnn_20260221_204822/checkpoints/epoch_10.pt (torch, 174824 bytes, 21 tensors)

conv.0.weight f4 [32, 14, 3]
0	0xbdd54361	-0.10413242
1	0xbcee6170	-0.029099196
2	0x3b11f8f3	0.002227363
3	0xbd103666	-0.03520813
4	0x3e044e9b	0.1292061
5	0xbd0aa37b	-0.033847313
6	0xbdb38443	-0.08765461
7	0x3dfcdea2	0.12347151
8	0xbd8fa556	-0.07013957
9	0x3d610488	0.054935962
10	0xbd93bbe2	-0.0721357
11	0x3cfaa436	0.03059588
12	0x3d3b9462	0.045795806
13	0x3c8600e5	0.016357848
14	0xbcc7c8c2	-0.024387721
15	0x3d0fb90c	0.035088584
16	0x3d60ba33	0.054865073
17	0xbdb166db	-0.08662196
18	0x3d2daa8e	0.04239898
19	0x3e183c2c	0.14866704
20	0x3c07828d	0.008270872
21	0xbca3527b	-0.01993679
22	0xbc7bc919	-0.01536777
23	0xbbf88a60	-0.007584855
24	0x3ea64678	0.32475638
25	0x3e75c3ff	0.24000548
26	0x3ed1e89a	0.40997773
27	0xbf0a14d0	-0.5393801
28	0xbf1e909d	-0.6193941
29	0xbf2604a6	-0.6485084
30	0xbe196d86	-0.14983186
31	0xbe38afd3	-0.18035822
32	0xbdd4b087	-0.103852324
33	0xbc7b8f52	-0.015353994
34	0x3cbc96f4	0.023021199
35	0xbc4a06bb	-0.012330706
36	0xbdfa519d	-0.12222598
37	0x3dc4bac0	0.09605932
38	0xbcf5ba62	-0.0299961
39	0xbd308a87	-0.04310086
40	0x3bd04542	0.0063559124
41	0x3d5ce13f	0.05392575
42	0xbe29690a	-0.16543975
43	0x3d98159b	0.07425996
44	0x3ce876a4	0.028376885
45	0x3d3c707a	0.046005704
46	0x3d6bae9c	0.057539567
47	0x3dba16e1	0.09086395
48	0xbe13e140	-0.14441395
49	0xbd20eac8	-0.039286405
50	0xbca2e095	-0.01988248
51	0x3dcea846	0.10090689
52	0x3cf0368a	0.029322881
53	0xbe93d8b4	-0.2887627
54	0xbdde8289	-0.10864741
55	0xbd6139f7	-0.05498692
56	0x3e13ffab	0.14452998
57	0x3da0df58	0.078550994
58	0x3d2085c3	0.039190065
59	0xbd8fdada	-0.070241645
60	0x3d2380c6	0.03991773
61	0x3cb2d608	0.021830574
62	0x3dff79da	0.12474413
63	0xbe8b816f	-0.27247187
64	0xbeae9d1d	-0.34104243
65	0x3e19f3c5	0.15034397
66	0xbdec532b	-0.115393005
67	0x3d5d08f3	0.053963613
68	0x3d9f232d	0.07770381
69	0x3e039f09	0.12853636
70	0x3e229e2b	0.15880649
71	0x3e9db73c	0.3080386
72	0xbd955e10	-0.072933316
73	0xbe2bc7d1	-0.16775443
74	0xbde9a55a	-0.114084914
75	0xbd02b42f	-0.031910118
76	0x3d71c87b	0.059029084
77	0xbe598cc3	-0.21245103
78	0x3c67ff1a	0.014159942
79	0xbdd2a0c6	-0.10284571
80	0xbcdd5b34	-0.027021028
81	0x3cc1f383	0.023675686
82	0xbd9c14ed	-0.07621179
83	0x3dd368d2	0.10322727
84	0x3dfa8a0e	0.12233363
85	0x3e1c8633	0.15285568
86	0xbe7b0062	-0.24511865
87	0x3d4d4a3b	0.05011962
88	0x3da2e6ae	0.07954155
89	0x3db328e5	0.087480344
90	0xbc3bfd5c	-0.01147398
91	0x3d1978f5	0.03746887
92	0xbe5a659d	-0.21327825
93	0xbd3761ba	-0.044770934
94	0x3e211cd3	0.15733652
95	0xbd95c506	-0.0731297
96	0x3e07b5f3	0.13253002
97	0xbd7e1ffd	-0.062042225
98	0xbda53945	-0.08067564
99	0x3d0114c8	0.03151396
100	0x3cce4931	0.025181385
101	0xbd48bab9	-0.049006198
102	0x3de41794	0.1113731
103	0x3e035fd3	0.12829523
104	0xbd622f5d	-0.05522095
105	0xbd8b01fb	-0.06787487
106	0x3e0bf9f8	0.13669574
107	0xbe441395	-0.19148095
108	0xbf0ee4bb	-0.55817765
109	0xbea8dc30	-0.3298049
110	0xbf071b83	-0.52776355
111	0xbe11ab56	-0.14225516
112	0x3d912df5	0.07088844
113	0x3e100962	0.1406608
114	0x3dce4bb5	0.10073034
115	0xbcc994d5	-0.024607101
116	0x3e455a32	0.19272688
117	0xbcec8543	-0.028872138
118	0x3d23e584	0.040013805
119	0xbcf569e0	-0.029957712
120	0xbd36b6a0	-0.04460776
121	0x3e1b226e	0.15149853
122	0xbdb76509	-0.08954818
123	0xbde0d919	-0.10978908
124	0xbd2a325b	-0.04155193
125	0x3de00661	0.10938717
126	0x3e5e3f4f	0.21703838
127	0x3d0a56de	0.03377425
128	0xbd35faef	-0.044428762
129	0xbe03bf46	-0.12865934
130	0x3a11a2b4	0.00055555557
131	0xbd4e3c13	-0.05035026
132	0xbca64939	-0.020298587
133	0x3d360ee8	0.04444781
134	0xbdbbd204	-0.09170917
135	0x3d8d3b40	0.06896067
136	0x3b4c9452	0.0031216335
137	0x3d57eb9e	0.052714936
138	0x3dcda0f6	0.100404665
139	0x3d86f037	0.06588786
140	0xbd13539f	-0.03596842
141	0xbd6d7830	-0.057975948
142	0xbc805ebc	-0.015670173
143	0xbd1e040d	-0.038578082
144	0xbd4dfb23	-0.05028833
145	0x3dce5524	0.10074833
146	0xbe32e8b9	-0.17471589
147	0xbdfb0ec1	-0.122586735
148	0xbe849102	-0.25891882
149	0xbe81429d	-0.25246134
150	0x3e3dc182	0.18530849
151	0x3e84a040	0.2590351
152	0x3e89a3b5	0.2688271
153	0xbc8bc359	-0.017060922
154	0x3d8747d6	0.066054985
155	0x3e2e2558	0.17006433
156	0x3de09806	0.10966496
157	0x3e0a4fce	0.13507006
158	0x3e025968	0.12729418
159	0x3ec48dbc	0.38389385
160	0x3daba7e5	0.08381633
161	0x3dde66dd	0.10859463
162	0x3d920ecd	0.07131729
163	0xbdbcee8d	-0.092251875
164	0xbd80b416	-0.06284349
165	0xbc672b04	-0.014109377
166	0x3d952fd9	0.07284517
167	0x3dde63b6	0.10858862
168	0x3dd7e043	0.105408214
169	0xbd543900	-0.051812172
170	0xbae4fb06	-0.001746983
171	0xbc3b7b2f	-0.0114429435
172	0xbdd1e094	-0.10247913
173	0xbdb201c1	-0.08691741
174	0x3d76e99f	0.060281392
175	0x3ceae5e1	0.028674068
176	0x3bc72f33	0.0060786246
177	0xbd42ba0b	-0.047540706
178	0x3c389ce3	0.011267873
179	0x3aa7dc5e	0.0012806763
180	0x3c66d2da	0.014088357
181	0x3c9010b1	0.017586084
182	0xbdbd27a8	-0.092360795
183	0x3d0ac23d	0.033876646
184	0xbcec02fe	-0.02881002
185	0xbbc1c533	-0.0059134006
186	0xbd22502a	-0.03962723
187	0xbc4b3ebf	-0.012405097
188	0x3c8256f9	0.015910612
189	0x3cf6e314	0.030137576
190	0x3c94122c	0.018075071
191	0xbce0eae0	-0.027455747
192	0x3ec902f6	0.39260072
193	0x3eeee94a	0.4666236
194	0x3efeee39	0.49791124
195	0xbe6d4617	-0.23171268
196	0xbcacf8aa	-0.021114666
197	0x3c5ae471	0.013360129
198	0x3dbcd39e	0.0922005
199	0x3e4a29e9	0.1974255
200	0x3e5d3dfe	0.2160568
201	0x3d05d956	0.03267797
202	0x3d5f24c4	0.05447842
203	0x3c74bf12	0.014938133
204	0x3d4400e0	0.047852397
205	0xbb15c80a	-0.0022854828
206	0xbd31efaf	-0.04344147
207	0xbd800014	-0.06250015
208	0x3c44d5a8	0.01201383
209	0x3b557f22	0.0032576998
210	0xbdaad750	-0.08341849
211	0x3cd4b276	0.025964003
212	0xbdd24eca	-0.10268934
213	0x3e1051b2	0.14093664
214	0xbdbcdd8e	-0.09221946
215	0x3dcbfd62	0.09960438
216	0xbd892c35	-0.06697885
217	0xbda84d60	-0.08217883
218	0xbdb23524	-0.08701542
219	0xbe6d965b	-0.23201887
220	0xbd42bd0e	-0.047543578
221	0xbde366bd	-0.1110358
222	0xbdaa20f9	-0.0830707
223	0xbda5ec2a	-0.08101685
224	0x3b1730e0	0.0023069903
225	0x3c03ebc9	0.008051821
226	0x3d9a0571	0.07520569
227	0x3e1cc6c1	0.15310194
228	0xbda682d2	-0.08130421
229	0x3e2c0709	0.16799559
230	0xbe335bce	-0.1751549
231	0x3e4cf732	0.20016173
232	0xbddbd8ee	-0.107347354
233	0xbec96297	-0.3933303
234	0x3e03dd8e	0.12877485
235	0x3e9ddd38	0.3083284
236	0x3e16fede	0.14745662
237	0xbdca21af	-0.09869706
238	0xbe524f43	-0.20538048
239	0xbe3e4bda	-0.18583623
240	0x3e5b6431	0.21424939
241	0xbc123b9e	-0.008925347
242	0x3e458325	0.19288309
243	0x3e51f03c	0.20501798
244	0x3e35964f	0.1773312
245	0x3daba25b	0.08380576
246	0x3d8f7ff5	0.07006828
247	0x3db991b5	0.090609945
248	0x3de71bff	0.11284637
249	0x3d928060	0.07153392
250	0xbcbd4f73	-0.023109173
251	0xbe61bfc8	-0.22045815
252	0xbe1ba6f4	-0.15200406
253	0xbdfc8d57	-0.12331646
254	0x3e4d41e7	0.20044671
255	0x3d0d8b42	0.034556635

conv.0.bias f4 [32]
0	0x3ccb5de3	0.024825042
1	0xbc960e9c	-0.018317513
2	0x3d47865a	0.048712112
3	0x3dd4ce89	0.10390956
4	0x3dd32a9b	0.10310861
5	0x3e118cf1	0.14213921
6	0xbdc88bcf	-0.097922914
7	0x3d4f1676	0.05055853
8	0x3d1fd524	0.039021626
9	0x3dd57b40	0.10423899
10	0x3a6717f2	0.0008815519
11	0x3d911f41	0.07086039
12	0xbdfa5606	-0.12223439
13	0xbca21eac	-0.019790016
14	0x3d16aa6c	0.03678362
15	0xbe015dd0	-0.12633443
16	0xbd943270	-0.07236183
17	0x3dc317b9	0.09526009
18	0x3e154c6f	0.14579938
19	0x3db98b7e	0.09059809
20	0x3e07db78	0.13267314
21	0x3e032807	0.12808238
22	0x3dd1a541	0.10236598
23	0xbe0fd8b4	-0.1404751
24	0x3deb0163	0.11474874
25	0x3e07d064	0.13263088
26	0x3d4ea1c6	0.050447248
27	0x3e19a08f	0.15002654
28	0xbe066aab	-0.13126628
29	0xbd362cba	-0.04447625
30	0x3e09bbcc	0.13450545
31	0x3ded0957	0.11574047

conv.1.weight f4 [32]
0	0x3f8eb1b8	1.1147985
1	0x3f509d2a	0.81489813
2	0x3f8d5469	1.1041385
3	0x3f5ec0f9	0.870132
4	0x3f604717	0.87608474
5	0x3f421027	0.75805897
6	0x3f81a140	1.0127335
7	0x3f9457b6	1.1589267
8	0x3f268011	0.65039164
9	0x3f56b04d	0.83862764
10	0x3f63c5a0	0.88973427
11	0x3f59d3fb	0.8508908
12	0x3f496ddc	0.7868326
13	0x3f62ef17	0.8864607
14	0x3f563a6a	0.8368288
15	0x3f87a5de	1.0597494
16	0x3f6208fa	0.8829495
17	0x3f98fdf9	1.1952506
18	0x3f6da43e	0.9282874
19	0x3f8b4266	1.0879638
20	0x3f7a22dc	0.9770944
21	0x3f6b6a2b	0.91958874
22	0x3f64a13d	0.8930853
23	0x3fa2f34e	1.2730501
24	0x3f714c00	0.9425659
25	0x3f9fd3a8	1.2486467
26	0x3f815249	1.0103236
27	0x3f3fd24d	0.7493027
28	0x3f864477	1.0489644
29	0x3f702982	0.93813336
30	0x3f5b5a1a	0.8568436
31	0x3f76697f	0.96254724

conv.1.bias f4 [32]
0	0xbea2036a	-0.3164323
1	0xbe18119a	-0.14850464
2	0xbe07aa0b	-0.1324846
3	0xbda1dd59	-0.07903547
4	0xbe854a00	-0.2603302
5	0xbe4fb5bd	-0.20284171
6	0xbe91e755	-0.28496805
7	0xbd958307	-0.07300382
8	0xbe809f1a	-0.25121385
9	0xbe6bd076	-0.2302874
10	0xbe1c536c	-0.15266198
11	0xbdd1d2fc	-0.1024532
12	0xbe548984	-0.20755583
13	0xbe014aec	-0.12626237
14	0xbe37522f	-0.17902444
15	0xbe848e42	-0.25889784
16	0xbe8eea0a	-0.27912933
17	0xbedbe8a7	-0.42950937
18	0xbe57f505	-0.21089561
19	0xbe16bd53	-0.14720659
20	0xbe00f95e	-0.12595126
21	0xbe84342f	-0.25821063
22	0xbe3fe930	-0.18741298
23	0x3d5a40b7	0.053284373
24	0xbdb556d1	-0.088544495
25	0xbe121377	-0.14265238
26	0xbe3e680a	-0.18594375
27	0xbe637be2	-0.22215226
28	0xbdec892a	-0.115495995
29	0xbe82ce36	-0.2554795
30	0xbde35963	-0.111010335
31	0xbe844864	-0.2583648

conv.1.running_mean f4 [32]
0	0xbd26a722	-0.040686734
1	0xbc0f2d9e	-0.008738903
2	0x3d7cef3e	0.061751597
3	0x3e02c3c0	0.12769985
4	0x3ddb985b	0.10722419
5	0x3e057093	0.13031225
6	0xbdc38122	-0.095461145
7	0x3d31328a	0.04326109
8	0x3d648bba	0.055797316
9	0x3dcab600	0.09897995
10	0x3c0338df	0.008009165
11	0x3d8b66e0	0.06806731
12	0xbe1443e3	-0.14479022
13	0xbd07a99d	-0.03312074
14	0x3d23bc01	0.039974216
15	0xbe3e71ad	-0.18598051
16	0xbdcf4e04	-0.10122302
17	0x3d06c6e9	0.03290454
18	0x3e081d50	0.13292432
19	0x3dd5fb3a	0.10448308
20	0x3dab9c8e	0.0837947
21	0x3df594f6	0.11991303
22	0x3da61af0	0.08110607
23	0xbdda8cc5	-0.10671381
24	0x3e0d20ea	0.13782087
25	0x3e26f03c	0.1630258
26	0x3c7f3703	0.015577081
27	0x3e0a2260	0.13489676
28	0xbe28e3fa	-0.16493216
29	0xbd45a77d	-0.048255432
30	0x3e0ed702	0.13949206
31	0x3dfb34c4	0.122659236

conv.1.running_var f4 [32]
0	0x401fb725	2.4955533
1	0x3f53698c	0.82582927
2	0x3ff95ddb	1.9481767
3	0x3fe61410	1.7974873
4	0x3fc7ec8e	1.5619066
5	0x3f44264c	0.76620936
6	0x3fd27221	1.6441079
7	0x3ff17bcc	1.8865905
8	0x400c5708	2.192812
9	0x3fe7a8ed	1.8098427
10	0x4003b969	2.0581915
11	0x403805a0	2.8753433
12	0x40955603	4.6667495
13	0x3ff53eb0	1.9159756
14	0x3fc75aa8	1.5574541
15	0x409bc31e	4.867568
16	0x3f9ebeb5	1.2401949
17	0x401db022	2.4638753
18	0x40363c0c	2.847415
19	0x406b2c67	3.674585
20	0x40642bd2	3.5651746
21	0x3fb98223	1.449284
22	0x3f2d3bed	0.67669564
23	0x40b226e0	5.5672455
24	0x3fbe4241	1.4863969
25	0x4020978d	2.50925
26	0x4063e889	3.5610678
27	0x3fa8c2b9	1.3184425
28	0x40484c40	3.129654
29	0x3f836289	1.0264446
30	0x3fbcb2d1	1.474207
31	0x3fcc15f5	1.5944201

conv.5.weight f4 [64, 32, 3]
0	0x3dcf885b	0.101334296
1	0x3e015055	0.126283
2	0xbc1d9ac3	-0.009619418
3	0xbd9bb51a	-0.07602902
4	0xbdb58c81	-0.088646896
5	0xbd87c512	-0.06629385
6	0xbdb797be	-0.089644894
7	0xbdc83558	-0.097757995
8	0xbc547e28	-0.012969531
9	0x3ca20ab2	0.01978049
10	0xbc86fc6b	-0.016477784
11	0x3df9acca	0.1219116
12	0xbd397f45	-0.04528739
13	0x3c7bdfb7	0.015373162
14	0xbde2d135	-0.11075059
15	0xbd96b3fe	-0.073585495
16	0x3dc0d1c0	0.09415007
17	0xbd75937e	-0.059955113
18	0x3d050d63	0.03248347
19	0x3e1b21fd	0.15149684
20	0xbcb1eb31	-0.021718593
21	0x3dc305b1	0.0952257
22	0xbbbc00ab	-0.0057373843
23	0xbe234c6f	-0.15947126
24	0xbd4af201	-0.0495472
25	0xbcd61c12	-0.026136432
26	0x3e2593e3	0.16169696
27	0xbc808921	-0.015690388
28	0x3caf68fd	0.021412367
29	0x3daaf6a7	0.083478265
30	0xbcab92a7	-0.020943953
31	0xbc892d72	-0.016745303
32	0x3cc61aac	0.02418264
33	0xbd6bdaf8	-0.05758187
34	0x3d06935f	0.032855388
35	0x3db07a6b	0.086170994
36	0xbba10592	-0.004913994
37	0x3a80e3f5	0.0009833561
38	0x3cde2dc7	0.027121438
39	0xbc1e2bdf	-0.009654014
40	0x3d89d826	0.0673068
41	0x3d787553	0.060658764
42	0xbd695385	-0.056964416
43	0xbdf4caac	-0.11952719
44	0xbd807b67	-0.06273537
45	0x3dde055d	0.10840867
46	0x3e11cd00	0.14238358
47	0x3e2f2c71	0.17106797
48	0x3d228b88	0.03968385
49	0xbdac4f64	-0.0841358
50	0x3c47b38a	0.012188802
51	0x3e245b29	0.160504
52	0x3de729c0	0.1128726
53	0x3a24ad59	0.00062819343
54	0xbbd83697	-0.0065983045
55	0xbd717a1c	-0.058954343
56	0xbd17544f	-0.036945637
57	0x3cdaac1d	0.026693398
58	0x3d9e8d59	0.07741804
59	0xbde67c31	-0.112541564
60	0x3e2c3118	0.16815603
61	0x3de82ba7	0.11336451
62	0x3e15eefc	0.14641947
63	0xbe3d57bc	-0.184905
64	0xbe215406	-0.15754709
65	0xbe631eaf	-0.22179674
66	0x3cd31ac3	0.025769597
67	0x3e27aea8	0.1637522
68	0x3c9c69ad	0.019093359
69	0xbbe7172c	-0.007052323
70	0x3cf2a2c5	0.02961863
71	0x3cc399a4	0.023876972
72	0xbe2a7760	-0.166471
73	0xbbc841f2	-0.006111377
74	0xbe10ed29	-0.1415297
75	0xbda96936	-0.082720205
76	0xbd473d80	-0.048642635
77	0xbe282d73	-0.16423588
78	0x3dad39c8	0.084582865
79	0x3e86e562	0.2634688
80	0xbe34f4d1	-0.17671515
81	0xbcd1a83e	-0.02559292
82	0x3d2b0b6b	0.041758936
83	0xbc9c884f	-0.019107966
84	0x3e54f443	0.20796303
85	0x3dad3880	0.08458042
86	0x3e156060	0.14587545
87	0xbe095b15	-0.13413651
88	0xbe0729f2	-0.13199595
89	0x3dc8921c	0.09793493
90	0xbc68de42	-0.014213147
91	0x3dcd8f39	0.10037083
92	0xbdf4381f	-0.11924767
93	0xbdcb6ecf	-0.099332444
94	0xbe2821a9	-0.1641909
95	0xbe5cbe2b	-0.21556918
96	0xbe22856e	-0.15871212
97	0xbde59907	-0.11210828
98	0xbe39b292	-0.18134525
99	0x3de07456	0.10959689
100	0x3dc5a018	0.09649676
101	0x3d26fcda	0.04076848
102	0x3dee8324	0.11646107
103	0x3e40ef86	0.18841371
104	0x3dbc146a	0.09183581
105	0x3d4d7e98	0.050169557
106	0x3ca5fbea	0.020261724
107	0x3dc3de9b	0.09563943
108	0x3c9f0b38	0.01941453
109	0xbd9728ba	-0.07380815
110	0xbe0a11a7	-0.13483296
111	0x3cc1bff5	0.023651103
112	0xbcd1e8fe	-0.025623795
113	0x3d8cccbd	0.06874988
114	0xbd83c5d9	-0.06434221
115	0x3de4712e	0.111544
116	0x3e441d63	0.19151835
117	0x3e20b5ea	0.15694395
118	0xbc7dcb6d	-0.015490395
119	0x3dce2362	0.100653425
120	0x3cbf1569	0.023325639
121	0xbca279ed	-0.01983353
122	0x3d5ff56e	0.05467742
123	0xbd3912b8	-0.045183867
124	0x3a92fec5	0.0011214843
125	0x3c8dbd09	0.017302053
126	0xbd6bd0b6	-0.05757209
127	0xbbff12b9	-0.0077842143
128	0x3c6dcade	0.014513699
129	0x3ce98532	0.028505895
130	0xbbaf3801	-0.0053472524
131	0xbcda85bb	-0.026675096
132	0x3d284af0	0.04108709
133	0xbc99c776	-0.018771868
134	0x3d042448	0.032261163
135	0xbc61dc55	-0.013785441
136	0xbdae844b	-0.08521327
137	0x3da18e9f	0.07888531
138	0x3d86f69e	0.06590007
139	0x3de09d6d	0.109675266
140	0x3d41b044	0.04728724
141	0xbdf04237	-0.117313795
142	0xbdb32227	-0.087467484
143	0xbdd9db66	-0.1063755
144	0xbe03961f	-0.12850235
145	0xbd437911	-0.04772288
146	0xbb277dbf	-0.0025557128
147	0xbe13c388	-0.14430058
148	0xbe10937b	-0.1411876
149	0xbdeb8ee5	-0.11501864
150	0x3d3caae8	0.046061426
151	0x3e321f64	0.17394787
152	0x3e1bb39c	0.15205234
153	0x3d846f16	0.064665005
154	0x3e0cdec1	0.13756849
155	0x3deb68e1	0.114946134
156	0x3ca86706	0.020556938
157	0xbd162a03	-0.03666116
158	0x3bfbfbdc	0.007689936
159	0xbd39eb36	-0.04539033
160	0xbc098749	-0.008394071
161	0xbdbcff25	-0.092283525
162	0xbde44fe8	-0.111480534
163	0xbe0ab65c	-0.13546127
164	0x3e45ec4a	0.19328418
165	0x3db36b0a	0.087606505
166	0x3e0c5eb1	0.13707997
167	0x3c968f81	0.018378975
168	0xbc12a114	-0.008949537
169	0xbbd9c8b9	-0.0066462425
170	0x3de28d35	0.11062089
171	0x3e1148bd	0.14187904
172	0x3e864276	0.2622258
173	0x3eb93c4d	0.36178818
174	0xbd9f4d9d	-0.077784754
175	0x3e319685	0.17342575
176	0xbbdb321e	-0.006689324
177	0xbe0775e6	-0.13228568
178	0xbd7676da	-0.06017194
179	0x3d59846c	0.053104803
180	0xbd1593e0	-0.036517978
181	0x3d281044	0.041031137
182	0x3d95d6c8	0.07316357
183	0x3ce0b78c	0.027431272
184	0xbc224290	-0.009903565
185	0x3d08f139	0.033433173
186	0xbd1e0845	-0.038582105
187	0x3e17ebee	0.14836094
188	0x3e215901	0.15756609
189	0xbd2e8fbc	-0.042617545
190	0xbd7f01a8	-0.06225744
191	0xbd05b28e	-0.032640986
192	0xbd5b31a8	-0.053514153
193	0xbd0b645d	-0.03403126
194	0x3e390548	0.18068421
195	0x3d44e645	0.048071165
196	0xbc0a08bf	-0.008424937
197	0x3ca68885	0.02032877
198	0x3c7690cb	0.01504917
199	0x3da69af0	0.08135021
200	0x3e922628	0.28544736
201	0x3d1a14e7	0.03761759
202	0xbd7d7d02	-0.061886795
203	0xbd8d226f	-0.06891333
204	0xbdc10c30	-0.09426153
205	0xbdbbdf24	-0.0917342
206	0xbd0d9d7c	-0.034574017
207	0xbd9b83c3	-0.07593491
208	0xbd165fda	-0.036712505
209	0x3ca1d7f8	0.019756302
210	0xbe836b08	-0.25667596
211	0xbe5bf658	-0.21480691
212	0xbdc1967e	-0.09452532
213	0xbdd985f8	-0.10621256
214	0xbe700e87	-0.23443042
215	0xbe5db423	-0.21650748
216	0xbcfd5fda	-0.030929495
217	0xbda80da0	-0.08205724
218	0xbb7e9aa4	-0.0038849497
219	0x3cada008	0.021194473
220	0xbddf4116	-0.10901086
221	0x3e015e59	0.12633647
222	0xbe0c5e3c	-0.13707823
223	0x3d2d4306	0.042300247
224	0xbda5fc4a	-0.08104761
225	0x3da210e2	0.079133764
226	0xbe29a8a0	-0.16568232
227	0x3d0ff2bf	0.03514361
228	0x3ba82fc5	0.0051326477
229	0xbbeccc03	-0.0072264685
230	0xbd1ec920	-0.038766026
231	0x3d38ec1d	0.04514705
232	0xbd8d3f50	-0.068968415
233	0xbdd7f2d6	-0.10544364
234	0xbd9735f8	-0.073833406
235	0xbd959317	-0.07303446
236	0xbd92f3f2	-0.07175435
237	0xbe1bd9b1	-0.15219761
238	0xbe31dc95	-0.17369302
239	0xbc90a659	-0.017657446
240	0xbe061f28	-0.13097823
241	0x3d9ab08a	0.075532034
242	0x3dc25038	0.09487957
243	0xbd6859f2	-0.056726404
244	0x3c624bd7	0.013812027
245	0x3d5cceee	0.05390828
246	0x3da7f4d9	0.08200998
247	0x3d4a8c09	0.049449954
248	0x3df60988	0.12013537
249	0xbe7931ec	-0.2433545
250	0xbeac81c1	-0.33692744
251	0xbe75dabe	-0.24009225
252	0xbd5c0365	-0.053714175
253	0xbb2684fa	-0.002540885
254	0xbdd6e767	-0.10493355
255	0x3e1bed2a	0.1522719

conv.5.bias f4 [64]
0	0xbcab997c	-0.02094721
1	0x3db1774e	0.08665334
2	0xbdad7fd3	-0.08471646
3	0x3dacd300	0.084386826
4	0xbdc8db78	-0.09807485
5	0x3d87eece	0.06637345
6	0x3cfa46ac	0.030551277
7	0xbd3e011d	-0.04638778
8	0x3d7f017b	0.06225727
9	0xbd2f2702	-0.04276181
10	0xbcfd63e0	-0.030931413
11	0xbd25d556	-0.040486656
12	0xbce1f72c	-0.027583681
13	0xbd334c20	-0.04377377
14	0xbd0b5181	-0.034013275
15	0x3da0e2ab	0.078557335
16	0x3db055c1	0.08610106
17	0xbcdb1ed4	-0.026748098
18	0xbcada7bb	-0.021198144
19	0x3cd8ce10	0.026465446
20	0x3d90d66e	0.07072149
21	0xbcfd83b8	-0.030946597
22	0x3cf23c33	0.02956972
23	0xbd90ea90	-0.07075989
24	0x3d11ee4b	0.035627645
25	0xbdbd8deb	-0.09255584
26	0xbc319385	-0.010838394
27	0x3dc901fd	0.09814832
28	0xbd087157	-0.033311214
29	0x3b3a0eb5	0.0028390114
30	0x3dba364c	0.090923876
31	0x3de11bd6	0.109916374
32	0x3d05b07f	0.032639023
33	0x3d5ec9b9	0.054391596
34	0xbca96b03	-0.02068091
35	0xbb7fcb8f	-0.0039031242
36	0xbd8db10e	-0.06918536
37	0xbd5b162f	-0.053487953
38	0x3db01839	0.0859837
39	0x3d963bf8	0.07335657
40	0xbd808ad8	-0.06276482
41	0xbd8ac5ea	-0.0677603
42	0xbcc08110	-0.023499042
43	0x3d42b003	0.04753114
44	0xbdb8e8fc	-0.09028813
45	0x3da8f59f	0.082499735
46	0xbd5a38c6	-0.0532768
47	0xbd992fe8	-0.074798405
48	0xbc230db7	-0.009952
49	0xbba38e4c	-0.0049913283
50	0xbd534be9	-0.051586065
51	0x3d89afcf	0.06722986
52	0xbd9c141b	-0.07621022
53	0xbc7edc4c	-0.015555453
54	0x3de2b6c7	0.11070018
55	0x3ca7e00d	0.020492578
56	0x3bbfe066	0.005855608
57	0xbd7e6b25	-0.0621139
58	0x3d3ff153	0.046861004
59	0x3d41686e	0.047218733
60	0xbd72bbe9	-0.059261236
61	0x3c86b9cd	0.016446019
62	0xbc17c823	-0.009264025
63	0x3d27177b	0.040793877

conv.6.weight f4 [64]
0	0x3f8eb0cc	1.1147704
1	0x3f869243	1.0513386
2	0x3f8154f3	1.010405
3	0x3f63f6b0	0.8904829
4	0x3f6b4d30	0.91914654
5	0x3f647d73	0.8925392
6	0x3f50574c	0.81383204
7	0x3f932376	1.1495197
8	0x3f70e739	0.9410282
9	0x3f6cf3f0	0.9255972
10	0x3f87f4b4	1.0621552
11	0x3f7b7712	0.9822856
12	0x3f6246ea	0.88389456
13	0x3f716d4f	0.94307417
14	0x3f8b6bd1	1.0892278
15	0x3f6ba40e	0.920472
16	0x3f8d726a	1.1050541
17	0x3f99c7e8	1.2014132
18	0x3f7ca238	0.98685026
19	0x3f7c4832	0.9854766
20	0x3f8ad28e	1.0845506
21	0x3f6069f8	0.87661695
22	0x3f691504	0.9104769
23	0x3f8c4e01	1.0961305
24	0x3f86b41f	1.0523719
25	0x3f6f9837	0.93591636
26	0x3f74d216	0.95633066
27	0x3f7e1b27	0.9926018
28	0x3f82759b	1.019214
29	0x3f724578	0.9463725
30	0x3f93cd63	1.1547054
31	0x3f915dcb	1.1356748
32	0x3f8cd1bf	1.100151
33	0x3f8148a5	1.0100294
34	0x3f884326	1.0645492
35	0x3f88f424	1.0699506
36	0x3f734311	0.9502421
37	0x3f5b7016	0.85717905
38	0x3f75a7b3	0.95959014
39	0x3f7e137a	0.9924847
40	0x3f896c89	1.0736247
41	0x3f85525e	1.0415761
42	0x3f7f75d0	0.9978914
43	0x3f667919	0.9002853
44	0x3f699337	0.9124026
45	0x3f56d03c	0.8391149
46	0x3f690ef6	0.91038454
47	0x3fa4f53e	1.2887342
48	0x3f71aea6	0.9440712
49	0x3f7401b1	0.9531508
50	0x3f86d7cd	1.0534607
51	0x3f716653	0.9429676
52	0x3f71e564	0.9449065
53	0x3f642d67	0.8913178
54	0x3f79b8a0	0.9754734
55	0x3f6334ae	0.8875226
56	0x3f777ff5	0.9667962
57	0x3f786170	0.9702368
58	0x3f912ad9	1.1341201
59	0x3f7f8e4b	0.99826497
60	0x3f678e3c	0.9045141
61	0x3f75ffce	0.9609345
62	0x3f6b1975	0.9183572
63	0x3f855c50	1.0418797

conv.6.bias f4 [64]
0	0xbcd9a21b	-0.026566556
1	0xbc48e936	-0.012262633
2	0xbe0b4b35	-0.13602908
3	0xbe0afb02	-0.13572314
4	0xbd4d8eba	-0.050184943
5	0xbe09683e	-0.13418671
6	0xbe7b59a7	-0.24545918
7	0xbd7ecdea	-0.062208094
8	0xbe4cd228	-0.20002043
9	0xbe0b23b2	-0.13587835
10	0xbe237468	-0.15962374
11	0xbe27c5ba	-0.1638402
12	0xbe45a5b0	-0.19301486
13	0xbd7c476d	-0.061591554
14	0xbd9d8026	-0.07690458
15	0xbe521fe6	-0.20519981
16	0xbd1b4438	-0.037906855
17	0xbcc2a273	-0.023759102
18	0xbe261df1	-0.16222359
19	0xbdc89978	-0.09794897
20	0xbd9cdfe7	-0.076598935
21	0xbe1543ff	-0.1457672
22	0xbdf45166	-0.11929588
23	0xbdf96720	-0.12177873
24	0x3ca50541	0.020144107
25	0xbdf8363b	-0.12119719
26	0xbe557f0f	-0.2084925
27	0xbe312eb1	-0.17302968
28	0xbddb95c9	-0.107219286
29	0xbe3b70c0	-0.1830473
30	0xbc4dc066	-0.012558078
31	0xbc8c6bf8	-0.017141327
32	0xbe171d4a	-0.14757267
33	0xbd88d9dd	-0.06682179
34	0x3c0be070	0.008537397
35	0xbe06a22c	-0.13147801
36	0xbe3aeb5c	-0.18253845
37	0xbcc66d2e	-0.024221983
38	0xbd9efae7	-0.077626996
39	0xbe757ff7	-0.23974596
40	0xbdc18caa	-0.09450658
41	0xbd4a7bc5	-0.049434442
42	0xbe205090	-0.15655732
43	0xbe832afc	-0.25618732
44	0xbe2b59e2	-0.16733506
45	0xbd85de69	-0.06536562
46	0xbe4ef6a3	-0.20211272
47	0xbcbb7ccf	-0.022886662
48	0xbe6c005c	-0.23047012
49	0xbe019d66	-0.12657699
50	0xbd7ff347	-0.062487867
51	0xbe0e9fa8	-0.13928092
52	0xbd90faf6	-0.07079117
53	0xbe8db871	-0.2767978
54	0xbebc027e	-0.3672065
55	0xbe333906	-0.17502221
56	0xbd9edbbc	-0.07756755
57	0xbe1e90ae	-0.15484878
58	0xbb99f826	-0.004698771
59	0xbe6a111c	-0.22858089
60	0xbde57281	-0.112034805
61	0xbdb43a63	-0.08800199
62	0xbe46c47e	-0.19410893
63	0xbd8e01ab	-0.06933912

conv.6.running_mean f4 [64]
0	0xbd7e19ac	-0.0620362
1	0x3f463625	0.7742637
2	0xbf565ad5	-0.8373235
3	0x3ec5b972	0.38618046
4	0xbfb1da0c	-1.3894668
5	0xbf1512fa	-0.5823208
6	0xbf44d8ae	-0.76893127
7	0xbdeec75d	-0.11659119
8	0xbef966de	-0.48711294
9	0xbef204ad	-0.47269192
10	0xbe88dcf9	-0.2673109
11	0xbfce57fc	-1.6120601
12	0x3daae9af	0.08345353
13	0x3f1ccdd2	0.61251557
14	0xbe856e3c	-0.26060665
15	0xbdf486f3	-0.11939802
16	0xbe178853	-0.14798097
17	0xbe442ecd	-0.19158478
18	0xbf2a332f	-0.6648435
19	0x3ed047ed	0.40679875
20	0xbf2a98f5	-0.66639644
21	0xbf0029c9	-0.5006376
22	0xbf5eea4d	-0.87076265
23	0xbe66d45b	-0.22541945
24	0xbf079ed2	-0.52976716
25	0xbf362fd7	-0.7116675
26	0xbf9e5a68	-1.237134
27	0xbee6b633	-0.45060882
28	0xbf507d95	-0.8144162
29	0xbedb726f	-0.42860743
30	0xbeb50038	-0.3535173
31	0x3ead76d7	0.3387973
32	0xbf827986	-1.0193336
33	0xbe0c234c	-0.1368534
34	0x3e56399e	0.20920417
35	0xbe97c358	-0.29641223
36	0xbff77615	-1.9332911
37	0x3e469790	0.19393754
38	0xbfb9fce3	-1.45303
39	0xbf4493fb	-0.767883
40	0x3f3fe396	0.74956644
41	0x3ef2bf67	0.47411653
42	0xbe9e978a	-0.3097499
43	0xbeb30c3f	-0.3497028
44	0xbf876872	-1.0578749
45	0xbf8fcdd3	-1.1234688
46	0xbfa89a42	-1.3172076
47	0xbf0d7faf	-0.55272955
48	0xbf829a5b	-1.0203356
49	0xbf4e561e	-0.80600154
50	0xbe59b58c	-0.21260661
51	0xbf295550	-0.661458
52	0xbdc04a53	-0.09389176
53	0xbf06369b	-0.5242707
54	0xbe8555d8	-0.26042056
55	0x3f04ef5e	0.51927745
56	0xbe2dfd3d	-0.16991134
57	0xbe754ecc	-0.2395584
58	0x3f139e76	0.5766367
59	0x3f401d17	0.7504439
60	0xbee575be	-0.44816393
61	0x3d4c409c	0.049866304
62	0x3ee72f9c	0.4515351
63	0x3f50308d	0.8132408

conv.6.running_var f4 [64]
0	0x3f5321a2	0.82473195
1	0x3f4afd65	0.792929
2	0x3f2a579b	0.66539925
3	0x3f09a959	0.5377403
4	0x3f2299f3	0.6351616
5	0x3f264aa9	0.6495767
6	0x3f83b7f4	1.0290513
7	0x3f766de3	0.96261424
8	0x3ead21f2	0.3381496
9	0x3f2e4934	0.6808045
10	0x3fe3dd7a	1.7801964
11	0x3fbc1f02	1.4696963
12	0x3fa7e7b2	1.3117583
13	0x3f7f9dd5	0.9985021
14	0x3f04bc30	0.5184965
15	0x3f10cf03	0.56565875
16	0x3f7113af	0.9417066
17	0x3f26fcf5	0.6522973
18	0x3fe7a21c	1.8096347
19	0x3f90d96e	1.1316354
20	0x3f4b2215	0.7934888
21	0x3efd4d80	0.4947319
22	0x40674036	3.6132941
23	0x3f82f23a	1.0230172
24	0x3f01cd2f	0.5070371
25	0x3f98ebd0	1.1946964
26	0x3ff47926	1.9099472
27	0x3f59d2b0	0.8508711
28	0x3f13a7fe	0.5767821
29	0x3fc12a4a	1.5091031
30	0x3fa68025	1.3007857
31	0x3fbbe04c	1.4677825
32	0x3f80a917	1.0051602
33	0x3f33d5c0	0.7024803
34	0x3facf4a7	1.3512162
35	0x4000a9fa	2.0103745
36	0x3fa505d3	1.2892402
37	0x400afd3a	2.1717057
38	0x3f6761f0	0.90383816
39	0x4014401a	2.3164124
40	0x3f64e2b7	0.8940844
41	0x3f0c81c6	0.5488552
42	0x3f4830d5	0.7819951
43	0x3ef1f75a	0.47259027
44	0x400bf3ea	2.1867623
45	0x3f813107	1.0093087
46	0x3fb71b83	1.4305271
47	0x3fa0c9d1	1.256159
48	0x4029ef07	2.655214
49	0x3f4f5e83	0.8100359
50	0x3fb26331	1.3936521
51	0x3f59fd9c	0.851526
52	0x3f02bbfc	0.5106809
53	0x3fb1b4d2	1.3883307
54	0x3fb65541	1.4244767
55	0x3f1af3f2	0.6052848
56	0x3f9fec7b	1.2494043
57	0x3f18072b	0.5938594
58	0x3ffd3fe0	1.9785118
59	0x3f85fc47	1.0467614
60	0x3f244b76	0.64177644
61	0x3ee7c6e7	0.45268938
62	0x3f3cf98b	0.7381827
63	0x3f9fb9eb	1.2478613

conv.10.weight f4 [128, 64, 3]
0	0x3e43df93	0.19128256
1	0xbcea2608	-0.028582588
2	0x3db31d27	0.08745795
3	0xbc861af2	-0.01637027
4	0xbb7135c5	-0.003680573
5	0x3d83bd7f	0.06432628
6	0x3da743ef	0.08167254
7	0x3d25304a	0.040329255
8	0x3d25070d	0.040289927
9	0xbcfa9b1f	-0.030591546
10	0xbc1d968c	-0.009618413
11	0x3d9f52e1	0.0777948
12	0x3c4bccf8	0.012439005
13	0x3cf50034	0.029907323
14	0x3c11983d	0.008886394
15	0xbe004fdd	-0.12530465
16	0x3e24d1e7	0.16095696
17	0x39d25674	0.00040118734
18	0x3cdbb71a	0.026820708
19	0xbdc9e7ff	-0.09858703
20	0xbc701297	-0.01465287
21	0x3d039ee8	0.032133967
22	0x3da57d03	0.08080485
23	0xbd9bd93d	-0.07609794
24	0x3d4e2d7c	0.050336346
25	0x3d7bce66	0.061476134
26	0x3da652f4	0.08121291
27	0xbd2f7563	-0.042836558
28	0x3d931751	0.071821816
29	0x3a6158d0	0.0008596303
30	0xbd89afa3	-0.06722953
31	0xbde2ec45	-0.11080221
32	0x3d30d451	0.04317123
33	0x3d45a8fb	0.048256855
34	0xbe663a7f	-0.22483252
35	0xbd0c5c0c	-0.03426747
36	0x3d9fe46d	0.07807241
37	0xbcb07129	-0.021538334
38	0xbdacfa85	-0.0844622
39	0x3c32daae	0.010916395
40	0xbcd076c1	-0.025447251
41	0xbd56643c	-0.052341685
42	0x3c92e726	0.017932486
43	0x3db20fbc	0.08694407
44	0xbc467355	-0.012112458
45	0x3c9ce4f9	0.019152151
46	0x3b6cf261	0.0036155211
47	0x3cf71aad	0.030164087
48	0x3b47dad0	0.0030495413
49	0x3d1652cc	0.036700055
50	0xbe5afe9c	-0.21386188
51	0x3dd050b0	0.1017164
52	0xbdbfc23a	-0.09363218
53	0x3b018637	0.0019763836
54	0xbd1dfa02	-0.038568504
55	0x3d8c7b16	0.06859414
56	0xbcff550d	-0.031168485
57	0x3d004f4c	0.031325623
58	0xbd1766c6	-0.036963247
59	0xbcbe8546	-0.02325691
60	0x3da6a9e7	0.08137875
61	0x3d8f8062	0.07006909
62	0xbc175d52	-0.009238558
63	0x3d5aba57	0.053400364
64	0x3da6fc47	0.08153587
65	0x3dd61a05	0.104541816
66	0x3d2af0fb	0.041733723
67	0xbd76b70d	-0.060233165
68	0xbd59b21e	-0.05314838
69	0xbc833abd	-0.01601922
70	0x3e19ebee	0.15031406
71	0xbd5072b5	-0.050890643
72	0x3c7b921a	0.015354658
73	0xbce690ff	-0.028145311
74	0xbd030eed	-0.031996656
75	0x3e2fe09a	0.17175522
76	0xbd295c4f	-0.041347798
77	0x3d848dc4	0.06472352
78	0xbd165f55	-0.03671201
79	0xbe49cd03	-0.19707112
80	0xbc5b13d5	-0.013371428
81	0x3d746e1e	0.05967533
82	0xbd97ebe5	-0.0741804
83	0x3d564a4c	0.05231695
84	0x3b2cc5fa	0.002636312
85	0x3dee5ae8	0.11638433
86	0xbb19172d	-0.002335976
87	0xbdaa22a9	-0.08307392
88	0xbe1f84eb	-0.15578048
89	0xbd71899f	-0.058969136
90	0x3d896643	0.06708958
91	0x3d6c4603	0.057683956
92	0x3db7fd2e	0.08983837
93	0x3dc7b137	0.09750598
94	0x3d9add03	0.07561686
95	0x3ce5ce16	0.028052371
96	0x3d196e5a	0.037458755
97	0x3beecbd1	0.0072874804
98	0x3d1aa74d	0.037757207
99	0x3dc408e2	0.09572007
100	0xbd0caf19	-0.034346674
101	0xbe2dc9c6	-0.16971502
102	0x3d82a59c	0.06379244
103	0xbc819b49	-0.015821116
104	0xbd961dd1	-0.07329906
105	0x3a16da42	0.0005754569
106	0xbe3a95a8	-0.18221152
107	0xbdb4e9f7	-0.08833688
108	0x3c9e9c95	0.019361774
109	0xbe440354	-0.19141895
110	0x3cc327b9	0.023822652
111	0x3d98b67a	0.0745668
112	0xbd504a1a	-0.05085192
113	0x3d7eef6b	0.062240046
114	0x3d8af809	0.0678559
115	0xbc1ad4f2	-0.009450184
116	0xbce80398	-0.028322026
117	0xbcff500c	-0.031166099
118	0xbe145e05	-0.1448899
119	0xbe1042bc	-0.14087957
120	0xbc6e57c0	-0.014547288
121	0xbd95d3d6	-0.07315795
122	0xbd423705	-0.047415752
123	0x3cbde83f	0.023182033
124	0xbe0b5e24	-0.1361013
125	0xbda43d9c	-0.080195636
126	0x3ce76c67	0.028249932
127	0x3e2934f4	0.16524106
128	0x3cfce954	0.030872978
129	0xbd6da3aa	-0.05801741
130	0x3e184a79	0.14872159
131	0x3d46aaf2	0.04850287
132	0xbbb1fdb2	-0.005431854
133	0xbe38df80	-0.18054008
134	0xbd1a1e41	-0.03762651
135	0x3cbbcae6	0.022923898
136	0xbdc166f1	-0.09443463
137	0xbca8b8bb	-0.020595899
138	0xbdad9a21	-0.084766634
139	0xbe54f10f	-0.20795082
140	0xbe439396	-0.19099268
141	0x3e7205ce	0.23635027
142	0x3dbb4f2e	0.09145962
143	0x3e660782	0.22463802
144	0x3c22070a	0.009889374
145	0xbe51fd12	-0.20506695
146	0xbd5ca3e2	-0.05386723
147	0xbd43e32b	-0.047824066
148	0xbd6a2321	-0.057162408
149	0x3dbc6ceb	0.09200462
150	0x36973056	4.5057777e-06
151	0xbd1dcabe	-0.03852343
152	0x3d59c129	0.053162728
153	0xbd322c92	-0.043499537
154	0xbb87b5ae	-0.004141531
155	0x3dfc6b13	0.1232511
156	0xbd9407ad	-0.072280265
157	0xbe1289d5	-0.14310391
158	0xbcbcd5a2	-0.023051087
159	0xbdc44171	-0.095827945
160	0xbe190d0b	-0.14946382
161	0xbda5946f	-0.08084952
162	0x3c207a2c	0.009794753
163	0xbd7edc1d	-0.062221635
164	0xbdf3ee11	-0.11910642
165	0xbc0402d7	-0.008057318
166	0x3ddfce9a	0.10928078
167	0x3d608f14	0.05482395
168	0xbdc95052	-0.09829773
169	0x3d87c8a0	0.06630063
170	0x3c069ef1	0.0082166055
171	0xbdf0beb2	-0.11755122
172	0x3d0b327e	0.0339837
173	0x3e2443cf	0.16041492
174	0x3d5a38b0	0.053276718
175	0x3e1519c9	0.14560618
176	0x3d203078	0.039108723
177	0x3d6168df	0.055031653
178	0x3e300b95	0.17191918
179	0x3e435884	0.19076735
180	0xbc36feea	-0.011169175
181	0x3d8513e0	0.064979315
182	0x3d113f4e	0.035460763
183	0x3d7770d0	0.06041032
184	0xbc85fec8	-0.01635684
185	0x3d0eb861	0.034843806
186	0xbc94bf62	-0.018157665
187	0x3e6414c3	0.22273545
188	0xbbd5c443	-0.0065236404
189	0x3d98574c	0.074385256
190	0x3e08faaa	0.13376871
191	0x3d443452	0.04790146
192	0x3c4bcfab	0.012439649
193	0xbe198e0d	-0.14995594
194	0xbe80186f	-0.2501864
195	0xbb2d5074	-0.002644566
196	0xbc6e8240	-0.014557421
197	0xbe027082	-0.12738231
198	0xbdc7ac5d	-0.097496726
199	0xbdb5aea3	-0.088712
200	0xbdbe12cb	-0.09280928
201	0xbd8c7b2c	-0.06859431
202	0xbc7c7b22	-0.0154102165
203	0xbd30b104	-0.043137565
204	0xbcb0facf	-0.02160397
205	0xbd5b0a99	-0.053476904
206	0xbdc8d963	-0.09807088
207	0xbdd7739f	-0.105201
208	0xbd5ac273	-0.053408097
209	0xbdc73ef9	-0.09728808
210	0x3dbbaa14	0.09163299
211	0x3de20560	0.110361814
212	0x3ce0c31b	0.027436784
213	0xbdf4b234	-0.11948052
214	0xbe54966f	-0.20760511
215	0xbe25c530	-0.16188502
216	0x3d0da7c0	0.034583807
217	0x3bbbc467	0.0057302
218	0xba203818	-0.0006111874
219	0x3d09aba3	0.03361095
220	0xbddf3a4d	-0.10899792
221	0xbde68b29	-0.112570114
222	0x3da8fd85	0.0825148
223	0x3cbbf747	0.02294506
224	0x3c9fcfd2	0.019508276
225	0x3d8079a5	0.06273202
226	0x3defe502	0.11713602
227	0x3c55c6bd	0.013047871
228	0x3cd9d277	0.026589615
229	0xbd864a47	-0.06557136
230	0xbd2cb9d6	-0.042169414
231	0xbd4b14d2	-0.049580403
232	0x3d1fcb11	0.03901202
233	0x3cc39bf0	0.023878068
234	0xbc853cbf	-0.016264318
235	0xbc190ef2	-0.009341942
236	0xbdbc0777	-0.09181111
237	0x3c34f6c1	0.011045159
238	0xbc9ca87a	-0.019123305
239	0xbd7d58bd	-0.061852206
240	0xbb338bb4	-0.0027396502
241	0xbb99ffd5	-0.004699687
242	0x3d2eb2a5	0.042650837
243	0xbd162de7	-0.03666487
244	0xbda9411b	-0.08264371
245	0xbd0045fc	-0.031316742
246	0x3be0aa53	0.0068562417
247	0xbd710a7d	-0.058847893
248	0x3df41bce	0.11919366
249	0xbd978f35	-0.074003614
250	0xbdacf3bc	-0.08444926
251	0xbc9cd9bc	-0.019146793
252	0xbd399308	-0.045306236
253	0xbd84f71d	-0.064924456
254	0xbdfce6e1	-0.12348724
255	0xbd67f4a9	-0.05662981

conv.10.bias f4 [128]
0	0x3d8efa76	0.069813654
1	0x3cf4d5ea	0.029887158
2	0xbc42a373	-0.01187979
3	0x3c5600df	0.013061731
4	0x3d04d387	0.03242829
5	0x3d17d365	0.037066836
6	0xbd8b47d0	-0.068008065
7	0x3d1944f4	0.037419274
8	0x3c8740ce	0.016510393
9	0xbd4f69b7	-0.050637927
10	0xbd41490a	-0.047188796
11	0x3ca510f3	0.020149684
12	0x3d606cd5	0.05479129
13	0xbd4847ef	-0.048896726
14	0xbd0e7cca	-0.034786977
15	0x3cab4095	0.020904819
16	0x3bd5ea6c	0.0065281894
17	0xbceb48fc	-0.028721325
18	0xbcd18bf1	-0.025579425
19	0xbd339e4e	-0.043852143
20	0x3cad54b9	0.021158563
21	0xbcc8c9dc	-0.024510317
22	0x3d36148c	0.04445319
23	0x3d79474e	0.060859017
24	0x3d471b96	0.048610292
25	0x3d28c7f7	0.041206326
26	0xbcdd83c8	-0.027040377
27	0x3d42c04e	0.047546677
28	0x3d5f4609	0.05451015
29	0xbd1bc6cd	-0.038031388
30	0xbd80acdb	-0.062829696
31	0xbcde3e98	-0.027129456
32	0xbc87bf9d	-0.01657086
33	0xbd18460d	-0.03717618
34	0xbd6eba72	-0.058283277
35	0xbd6eac81	-0.05826998
36	0xbd8fcfd8	-0.07022065
37	0x3d069a77	0.032862153
38	0xbbc7be8d	-0.0060957135
39	0x3d29e032	0.041473575
40	0xbd1fec17	-0.039043512
41	0x3d64c87c	0.05585526
42	0x3a677ef2	0.0008830867
43	0xbb21f2d5	-0.002471139
44	0xbd179353	-0.037005734
45	0x3d708016	0.058715902
46	0xbd8b209d	-0.0679333
47	0xbd446046	-0.047943376
48	0x3d8308ec	0.06398186
49	0x3d8910df	0.06692671
50	0xbd1c0ae6	-0.03809633
51	0xbd4ff70c	-0.05077271
52	0xbd84bd7e	-0.06481455
53	0x3c1aa460	0.009438604
54	0xbd10fc86	-0.035397075
55	0x3c77716e	0.015102727
56	0xbc10c4c3	-0.008835974
57	0x3b2d2fc7	0.0026426183
58	0x3ce93c6b	0.028471192
59	0x3cbcd464	0.023050494
60	0xbce0068b	-0.02734687
61	0xbd1e89f6	-0.03870579
62	0xbd9919bc	-0.074756116
63	0xbd3d2a1c	-0.046182737
64	0xbd7aaa13	-0.06119735
65	0xbcb8150e	-0.022470977
66	0x3d03d67a	0.032186963
67	0x3d930940	0.07179499
68	0xbd327302	-0.04356671
69	0x3d298c6e	0.04139369
70	0xbd8a3998	-0.067492664
71	0xbc709f1e	-0.014686374
72	0x3d6d20c1	0.057892565
73	0x3bfd5440	0.0077309906
74	0xbce766a4	-0.028247185
75	0x3d3eb0ac	0.046555206
76	0x3d86c6e1	0.06580902
77	0xbacde211	-0.0015707632
78	0x3d9f1163	0.07766988
79	0x3d743932	0.05962486
80	0xbd1eacee	-0.038739137
81	0x3ce73ad2	0.02822629
82	0xbd36ce00	-0.04463005
83	0xbd29814f	-0.041383084
84	0x3d85f230	0.06540334
85	0xbcee543d	-0.029092902
86	0xbbac31fa	-0.005254981
87	0xbd86c768	-0.065810025
88	0x3bb474ce	0.0055070883
89	0x3cb2b0d1	0.021812828
90	0xbd3679e6	-0.044549845
91	0x3cb7531f	0.022378502
92	0x3d732cec	0.059369013
93	0x3d322036	0.04348775
94	0xbbb58860	-0.005539939
95	0x3d836f93	0.064177655
96	0x3ce8deca	0.028426547
97	0x3b37ae90	0.0028027631
98	0x3c39942f	0.011326834
99	0x3d95493c	0.07289359
100	0xbc0d37bd	-0.008619246
101	0x3c4eb3e4	0.012616131
102	0xbbbf7cc7	-0.005843732
103	0x3b95f17e	0.0045759073
104	0x3cf3e6d5	0.029773155
105	0x3d9611f1	0.07327641
106	0xbd584bdc	-0.05280672
107	0xbcbfc10f	-0.023407487
108	0xbcb4e951	-0.02208391
109	0xbd75f5ab	-0.06004874
110	0xbbc42959	-0.0059863743
111	0x3ce22eb7	0.027610166
112	0x3ce42de9	0.027853923
113	0xbb87cbd7	-0.0041441726
114	0xb9422b14	-0.0001851733
115	0x3d32167b	0.04347847
116	0xbd1390dc	-0.03602682
117	0xbd0e2dda	-0.034711696
118	0xbc9acb53	-0.01889578
119	0x3ca3822d	0.019959534
120	0x3d8055cc	0.062663645
121	0xbd206f90	-0.039168894
122	0x3cd96187	0.026535762
123	0xbbbe1b85	-0.0058016204
124	0xbc0248cc	-0.007951926
125	0xbd274187	-0.040833976
126	0xbd0d45ce	-0.0344904
127	0xbcc0376b	-0.023463925

conv.11.weight f4 [128]
0	0x3f91a067	1.1377076
1	0x3f76d821	0.96423537
2	0x3f7ad726	0.9798454
3	0x3f921ec2	1.1415637
4	0x3f996cff	1.1986388
5	0x3f9ab546	1.208657
6	0x3f6e76d4	0.9315007
7	0x3f757cc5	0.9589351
8	0x3fba6798	1.4562864
9	0x3f9691d2	1.1763251
10	0x3f90a453	1.1300148
11	0x3f8b5837	1.0886296
12	0x3f791666	0.972998
13	0x3f808a02	1.0042117
14	0x3f92e230	1.1475277
15	0x3f92dcdc	1.1473651
16	0x3fad2594	1.3527093
17	0x3f9e55e4	1.2369962
18	0x3f9ab952	1.2087805
19	0x3f7e1cbf	0.99262613
20	0x3f7168ba	0.94300425
21	0x3f93d440	1.1549149
22	0x3f825060	1.0180779
23	0x3f8bf12b	1.0932974
24	0x3fa10888	1.2580729
25	0x3f821582	1.0162814
26	0x3f9af10e	1.2104814
27	0x3fbc9e8b	1.4735883
28	0x3f9e8d96	1.2386959
29	0x3f7337a8	0.950068
30	0x3f9e2130	1.2353878
31	0x3f9d106c	1.2270637
32	0x3fa08ff0	1.2543926
33	0x3f95ff2a	1.1718495
34	0x3f86f84c	1.0544524
35	0x3fa8fbc6	1.3201835
36	0x3f919b58	1.1375532
37	0x3fa0bc74	1.2557511
38	0x3f804181	1.001999
39	0x3fc9ce2f	1.5766047
40	0x3fc0a111	1.5049154
41	0x3f985a40	1.1902542
42	0x3f95d26c	1.1704841
43	0x3f970507	1.1798409
44	0x3f7543cb	0.9580657
45	0x3f76204a	0.9614302
46	0x3f95d191	1.170458
47	0x3f9a5c74	1.2059464
48	0x3f95e2c2	1.1709826
49	0x3f84c62e	1.037298
50	0x3fce5b6b	1.6121649
51	0x3fa1dce2	1.2645533
52	0x3f9df308	1.2339792
53	0x3f9ef3cf	1.2418154
54	0x3f791be7	0.973082
55	0x3f9a1919	1.2038909
56	0x3fab2626	1.3371017
57	0x3f807be8	1.0037813
58	0x3f74a86b	0.95569485
59	0x3f740888	0.9532552
60	0x3fa63cef	1.2987345
61	0x3f9c9204	1.223206
62	0x3f900ba1	1.1253549
63	0x3fbd17a1	1.4772836
64	0x3f8086aa	1.0041096
65	0x3f644098	0.8916106
66	0x3f7c86b8	0.98643064
67	0x3f7b0771	0.9805823
68	0x3f78c2be	0.97172153
69	0x3f8610c5	1.0473868
70	0x3f9efd14	1.2420983
71	0x3f983ce8	1.1893587
72	0x3f755efc	0.9584806
73	0x3fa06c97	1.2533139
74	0x3fac79ab	1.347463
75	0x3f955f69	1.1669742
76	0x3fa7bc6d	1.3104378
77	0x3f92505b	1.1430773
78	0x3f934692	1.1505911
79	0x3f8f7e14	1.1210351
80	0x3f906052	1.1279395
81	0x3f80918f	1.0044421
82	0x3f9eb075	1.23976
83	0x3fb55b40	1.4168472
84	0x3f8cf0fd	1.1011044
85	0x3f97ff60	1.1874809
86	0x3f961b74	1.1727128
87	0x3f6fc990	0.93666935
88	0x3f9703f3	1.179808
89	0x3f7de692	0.9917995
90	0x3f808b10	1.0042439
91	0x3f8db632	1.1071227
92	0x3f956416	1.1671169
93	0x3f94b67e	1.1618192
94	0x3f7a9586	0.97884405
95	0x3f7eab7a	0.994804
96	0x3f91c78e	1.1389024
97	0x3f7844c2	0.96979916
98	0x3fa651a6	1.2993667
99	0x3f7902f3	0.97270125
100	0x3f905f26	1.1279037
101	0x3f8dd79f	1.1081427
102	0x3f8110a7	1.0083207
103	0x3f9cfed9	1.2265273
104	0x3f94e288	1.1631632
105	0x3fb4be9a	1.4120667
106	0x3f919474	1.1373429
107	0x3fa3d523	1.2799419
108	0x3f99434a	1.197366
109	0x3faf6ddf	1.3705405
110	0x3f97e5ad	1.1866966
111	0x3f927d89	1.144456
112	0x3f7cb647	0.98715633
113	0x3f99c1be	1.201225
114	0x3f741fae	0.9536084
115	0x3f8071da	1.0034745
116	0x3f99380e	1.1970232
117	0x3f7667bc	0.96252036
118	0x3f95e68a	1.171098
119	0x3f7d676d	0.9898594
120	0x3f77f263	0.9685423
121	0x3faffcf9	1.3749076
122	0x3f997264	1.1988034
123	0x3f922b92	1.1419547
124	0x3faa21f4	1.3291612
125	0x3f705122	0.938738
126	0x3f78480e	0.96984947
127	0x3f79f0d3	0.97633094

conv.11.bias f4 [128]
0	0x3dca2a0d	0.09871302
1	0xbe3a5cee	-0.18199512
2	0xbe13d1a7	-0.14435445
3	0x3ca2e178	0.019882903
4	0x3e0978ad	0.1342494
5	0x3e1f9f51	0.15588118
6	0xbe4f0c66	-0.20219573
7	0xbe103b2f	-0.14085077
8	0x3d99b9ca	0.075061396
9	0x3e116e68	0.14202273
10	0x3d7bf667	0.061514284
11	0x3da16da5	0.07882241
12	0xbe3d4451	-0.18483092
13	0xbe15071f	-0.14553498
14	0xbef8f9f3	-0.48628196
15	0x3e0a698f	0.1351683
16	0x3d9ff090	0.078095555
17	0x3ddf4375	0.10901538
18	0x3e4040b8	0.18774688
19	0xbe2c1934	-0.16806489
20	0xbe333e8c	-0.17504328
21	0x3e0cfd00	0.13768387
22	0xbe622ae3	-0.22086672
23	0x3df2a214	0.1184732
24	0x3e1624c3	0.14662461
25	0xbdca909c	-0.09890863
26	0xbe3e1400	-0.18562317
27	0x3e0651cf	0.13117145
28	0x3d9e802a	0.07739289
29	0xbe322424	-0.17396599
30	0x3e13a1bd	0.14417167
31	0x3dd5ab10	0.10433018
32	0x3d7f9e03	0.06240655
33	0x3df3a309	0.11896331
34	0x3d84b181	0.06479169
35	0x3dcfd8ea	0.10148795
36	0x3dc751cc	0.097323984
37	0x3cf007eb	0.02930065
38	0xbe1ae1c3	-0.15125184
39	0x3e2b00c3	0.1669951
40	0x3df35cfa	0.11882968
41	0x3dddafe3	0.10824563
42	0x3db9ab73	0.090659045
43	0x3d8b395e	0.06798051
44	0xbe388844	-0.18020731
45	0xbe5e436f	-0.21705411
46	0x3d4f2775	0.05057474
47	0x3de699b4	0.11259785
48	0x3e3bf5af	0.1835544
49	0xbdcc3d27	-0.099726014
50	0x3dc2bbc2	0.09508468
51	0x3d852f22	0.065031305
52	0x3da6d3b3	0.08145847
53	0x3d922d2a	0.071375206
54	0xbe1e3a27	-0.15451871
55	0x3e04668d	0.12929745
56	0x3db635dd	0.08896992
57	0xbde0edde	-0.109828696
58	0xbe05f935	-0.13083346
59	0xbe0f249d	-0.1397881
60	0x3dd97644	0.106182605
61	0x3e0fc106	0.14038476
62	0x3d938d3c	0.07204673
63	0xbdecbda4	-0.115596086
64	0xbe32c833	-0.17459182
65	0xbe86b517	-0.26310036
66	0xbe1dd31c	-0.15412563
67	0xbe476826	-0.19473323
68	0xbe59ef12	-0.21282604
69	0x3d0bb0a2	0.034103997
70	0x3d389097	0.045059767
71	0x3d98a337	0.07453006
72	0xbe06b3f2	-0.13154581
73	0x3e0e8930	0.1391952
74	0x3daf82ff	0.085699074
75	0x3d9daac6	0.07698588
76	0x3def0d1c	0.11672422
77	0x3d72b6b4	0.05925627
78	0x3d58e7b3	0.05295534
79	0x3dde9e01	0.108699806
80	0x3e05ad47	0.13054381
81	0xbe1e0612	-0.15432003
82	0x3e123fd8	0.14282167
83	0xbced2c88	-0.028951898
84	0x3e08bd36	0.13353428
85	0x3e251174	0.16119939
86	0x3d066959	0.03281531
87	0xbe3361a1	-0.17517711
88	0x3e0f6c95	0.14006265
89	0xbe20931d	-0.1568112
90	0xbe0302f2	-0.12794092
91	0x3e0c71aa	0.13715234
92	0x3e1a7c1d	0.15086408
93	0x3e0ef4f0	0.13960624
94	0xbdd4ea88	-0.10396296
95	0xbe26f047	-0.16302596
96	0x3da5eb74	0.0810155
97	0xbe34347d	-0.17598148
98	0x3da572ac	0.080785125
99	0xbe007754	-0.1254552
100	0x3e029994	0.12753898
101	0xbe927b53	-0.28609714
102	0xbe11f260	-0.14252615
103	0x3e08208c	0.13293666
104	0x3de1ae3a	0.11019559
105	0x3e15f535	0.1464432
106	0x3dd38e4e	0.10329877
107	0x3d7f67dd	0.06235491
108	0x3dd79429	0.10526306
109	0x3dffe81d	0.12495444
110	0x3e247270	0.1605928
111	0x3dced1fe	0.100986466
112	0xbe26371e	-0.16231963
113	0x3dca8f79	0.098906465
114	0xbe484914	-0.19559127
115	0xbe05c20f	-0.13062309
116	0x3d1cb3c8	0.03825739
117	0xbe3f54e6	-0.1868473
118	0xbd82b639	-0.063824125
119	0xbe35eb8d	-0.17765637
120	0xbe592a49	-0.21207537
121	0x3db9c2f7	0.0907039
122	0x3db511e2	0.088413015
123	0x3dab1c7a	0.08355041
124	0xbd7525f3	-0.059850644
125	0xbe2a8ff5	-0.16656478
126	0xbe131fd9	-0.14367618
127	0xbe1dbbbe	-0.15403649

conv.11.running_mean f4 [128]
0	0x3f0da949	0.55336434
1	0xc03c5d3f	-2.9431913
2	0xc0501d7d	-3.2517998
3	0xbecebdb7	-0.40379116
4	0xbe824d77	-0.25449726
5	0x3d82da2d	0.0638927
6	0xc02e578c	-2.7240934
7	0xc00f0293	-2.234532
8	0x400287ae	2.0395312
9	0x3f435acc	0.7631042
10	0x3eccd4cc	0.400061
11	0x3f0762d8	0.528852
12	0xc01f96c8	-2.493578
13	0xc00ecdc1	-2.2313082
14	0xbf8f8989	-1.1213847
15	0x3e76d48b	0.24104516
16	0x3f9bdcaf	1.2176722
17	0x3f83b3c3	1.0289234
18	0xbf4fd196	-0.8117918
19	0xc01ba4b3	-2.4319274
20	0xc023bdf2	-2.5584683
21	0x3e9e66f6	0.30937928
22	0xbfc9a6bf	-1.5754012
23	0x3f66a719	0.9009872
24	0x3f1a57a1	0.6028996
25	0xc00917e9	-2.1420844
26	0xbeb6be31	-0.3569198
27	0x3fcc017e	1.5937955
28	0x3fe8029d	1.8125798
29	0xc01f018e	-2.48447
30	0x3e3b607c	0.18298525
31	0x3fe241d1	1.7676336
32	0x3e92c1c9	0.2866347
33	0x3f2e798a	0.68154204
34	0xbd20ae4d	-0.039228726
35	0x3d3ce3da	0.046115734
36	0x3ea2d5cb	0.31803736
37	0xbd708496	-0.058720194
38	0xc022e74d	-2.5453675
39	0x40254a3d	2.5826561
40	0x4002d25f	2.04409
41	0x3ec4ad03	0.38413247
42	0xbe012b88	-0.12614262
43	0x3ee2f238	0.44325423
44	0xc02da0e7	-2.7129457
45	0xc0104016	-2.2539115
46	0xbee81cbc	-0.45334423
47	0xbe8da097	-0.27661583
48	0x3f410e70	0.75412655
49	0x3eebc17c	0.46046054
50	0x40313c8b	2.7693202
51	0x40040889	2.063021
52	0x3f1a0798	0.6016784
53	0xbebb92e8	-0.36635518
54	0xc03297d6	-2.7905173
55	0x3e21396c	0.15744561
56	0x3f65bebb	0.89744157
57	0xbfb4e5a8	-1.4132586
58	0xc04daf86	-3.213838
59	0xc045d66b	-3.091212
60	0x3ea36ea3	0.31920347
61	0x3f53f1be	0.82790744
62	0xbeebab72	-0.4602924
63	0x3fc4113e	1.5317762
64	0xc024b795	-2.573705
65	0xc03168fb	-2.7720325
66	0xc003228a	-2.048983
67	0xc000b856	-2.011251
68	0xc04cd2dd	-3.20037
69	0x400b599a	2.1773438
70	0x3e95e7c8	0.29278398
71	0x3f614fa9	0.88012177
72	0xc02e18fc	-2.720275
73	0x3f31c659	0.6944328
74	0x40502587	3.2522905
75	0x3f2a14cd	0.6643799
76	0x3ff301e7	1.8984956
77	0x3f47de52	0.7807361
78	0xbefab8c3	-0.48969087
79	0xbd42ea20	-0.04758656
80	0x3f189a17	0.5961012
81	0xc015d636	-2.3411994
82	0xbb9fcd0f	-0.00487674
83	0x3f18c5ff	0.5967712
84	0x3e564e96	0.20928416
85	0xbebb0375	-0.36526075
86	0x3f5ee8d7	0.87074035
87	0xc00982cc	-2.1486082
88	0x3f6e6fbb	0.9313924
89	0xc03bb462	-2.9328847
90	0xc065139b	-3.5793216
91	0x3e14db08	0.14536679
92	0x3e079ce4	0.13243443
93	0x3ed202cb	0.41017756
94	0xbf1771f1	-0.59158236
95	0xc02af7df	-2.6713789
96	0x3f6a306a	0.91480124
97	0xc0323790	-2.7846413
98	0x3f31fd06	0.6952671
99	0xc02aa5ba	-2.6663651
100	0x3ea77942	0.327097
101	0xbfc30dee	-1.5238626
102	0xbf991cfb	-1.1961969
103	0xbea1f3cc	-0.31631315
104	0xbb99a1d0	-0.004688479
105	0x3fbfcdd7	1.4984692
106	0xbec86c69	-0.3914521
107	0x3fd2702b	1.6440481
108	0x3f9d8971	1.2307569
109	0x401fa3c7	2.4943712
110	0x3ef11d20	0.47092533
111	0xbd1b6f2e	-0.037947826
112	0xbf879718	-1.0592985
113	0xbe6adf7c	-0.22936815
114	0xc052e311	-3.295109
115	0xc0058282	-2.0860906
116	0x3f1e1589	0.6175161
117	0xc00d251b	-2.2053897
118	0x3f64324c	0.89139247
119	0xc0312bd1	-2.7682993
120	0xc00058e7	-2.0054262
121	0x4038972e	2.8842273
122	0x3f72d101	0.94850165
123	0xbf114229	-0.5674158
124	0x3f1b632f	0.6069822
125	0xc05a7447	-3.413347
126	0xbfded6b9	-1.7409278
127	0xc0237cc5	-2.5544903

conv.11.running_var f4 [128]
0	0x40314a19	2.7701476
1	0x406ff1f8	3.7491436
2	0x406a6ac6	3.662767
3	0x40626ca7	3.5378816
4	0x4000e85b	2.0141819
5	0x40488322	3.1330037
6	0x40335f57	2.802694
7	0x40821bf2	4.0659113
8	0x412a7224	10.652866
9	0x40096861	2.1469958
10	0x40363954	2.847249
11	0x405615c3	3.3450782
12	0x403bee0f	2.936405
13	0x40317925	2.773019
14	0x3fbbeee1	1.4682275
15	0x3ffda040	1.981453
16	0x410f29e8	8.947731
17	0x40700be9	3.750727
18	0x401391a7	2.305765
19	0x4030ad30	2.7605705
20	0x405eb6ef	3.4799154
21	0x40454c6b	3.0827892
22	0x4077fa93	3.8746688
23	0x40511a4f	3.2672307
24	0x40045ade	2.068046
25	0x4080cdd6	4.0251265
26	0x4057a2d8	3.3693142
27	0x4110f223	9.059115
28	0x4025f473	2.593045
29	0x405ff360	3.4992294
30	0x4056bafa	3.3551621
31	0x4032314b	2.7842586
32	0x40837964	4.108568
33	0x3fec95f2	1.848326
34	0x4034ebe5	2.8268979
35	0x3fcf3e7b	1.6190943
36	0x400db6d8	2.214285
37	0x4010b71d	2.2611763
38	0x402b7d60	2.6795273
39	0x4126bcfa	10.421137
40	0x413671c2	11.402773
41	0x4021a20e	2.525516
42	0x4002c9fc	2.0435781
43	0x409c5807	4.8857455
44	0x40392067	2.8926027
45	0x4081ac67	4.052295
46	0x405c396a	3.4410043
47	0x400d60c0	2.2090302
48	0x409a1cbb	4.816007
49	0x3fd772db	1.6831926
50	0x4147fcb9	12.4992
51	0x40cf42c1	6.4768987
52	0x401fdd62	2.4978871
53	0x4065e38f	3.592014
54	0x405198c9	3.2749503
55	0x4080805b	4.0156684
56	0x40e11413	7.0337005
57	0x401a4509	2.4104636
58	0x40862072	4.1914606
59	0x403e9e58	2.9784145
60	0x408cd7ab	4.4013267
61	0x402cfeb2	2.7030454
62	0x402f2233	2.7364624
63	0x4093f3d8	4.623516
64	0x40d3670e	6.60633
65	0x40951760	4.6591034
66	0x409b0b53	4.8451324
67	0x40c708b2	6.2198114
68	0x40b26a06	5.5754423
69	0x4076d5b3	3.8567932
70	0x40848879	4.1416593
71	0x40c02fc6	6.0058317
72	0x4004d360	2.0754013
73	0x407a0bfe	3.906982
74	0x411d0d19	9.815698
75	0x40360177	2.8438394
76	0x411e14e1	9.880097
77	0x3fcbae58	1.591258
78	0x40070337	2.1095712
79	0x40447539	3.0696547
80	0x402e9ae0	2.7282028
81	0x40466a4d	3.100238
82	0x40410872	3.0161405
83	0x40cfd5ff	6.4948726
84	0x4016cee4	2.3563776
85	0x4009bb1f	2.152046
86	0x408af4e8	4.342396
87	0x40483bab	3.1286418
88	0x402f02d1	2.734547
89	0x40533026	3.2998137
90	0x40757306	3.8351455
91	0x405c545b	3.4426486
92	0x403a91e2	2.915154
93	0x40209ff8	2.5097637
94	0x40796fb8	3.8974438
95	0x40170338	2.3595715
96	0x40939c82	4.612855
97	0x404f3bc5	3.238023
98	0x40a8f188	5.279484
99	0x4069e024	3.6543055
100	0x401f06bd	2.4847863
101	0x40a36ef6	5.107295
102	0x40234770	2.5512352
103	0x3fd0b86d	1.6306282
104	0x40295f5c	2.6464453
105	0x403b8f2b	2.9306133
106	0x40208dfc	2.508666
107	0x4116eaf6	9.4323635
108	0x4102d3c9	8.176705
109	0x4112f921	9.1858225
110	0x4042945f	3.0403059
111	0x403d2b0f	2.955753
112	0x40295362	2.6457143
113	0x40a0893e	5.016753
114	0x40c26e3a	6.0759554
115	0x404d8c3e	3.2116847
116	0x4036466b	2.848048
117	0x404062d0	3.006031
118	0x409230c3	4.5684524
119	0x404f43d2	3.2385144
120	0x4086a989	4.208195
121	0x40d81a19	6.7531857
122	0x4035de2a	2.8416848
123	0x40423cf0	3.0349693
124	0x4084ea2c	4.1535854
125	0x4081ce08	4.0564003
126	0x402364e3	2.5530326
127	0x40a15468	5.0415535
