output/energy_cnn_20260221_204822/checkpoints/epoch_25.pt (torch, 174824 bytes, 21 tensors)

conv.0.weight f4 [32, 14, 3]
000000 c0 e7 fd bd e5 2b f5 bc b6 f5 f4 3b 74 b8 17 bc
       -0.123977184 -0.029928157 0.00747558 -0.009260286
000010 a1 f2 c8 3d 72 65 a3 bd 4b 5f b0 bd 66 f0 e6 3d
       0.09811903 -0.079783335 -0.08611926 0.11276321
000020 e0 e8 a5 bd 73 e7 fe 3c fc 34 9d bd 94 ea 01 3d
       -0.08101058 0.031116223 -0.076761216 0.03171785
000030 5f a1 d3 3c 80 a8 69 3b 0a 33 b8 bc 3a ef bf 3c
       0.025833784 0.0035653412 -0.022485275 0.023429502
000040 14 f8 23 3d 01 c9 93 bd 37 99 c4 3c e5 29 11 3e
       0.040031508 -0.07216073 0.02399884 0.14176138
000050 8a e7 da 3b fc b6 ed 3a ff 84 0a bd d3 c9 eb 3b
       0.0066804336 0.0018136199 -0.03381824 0.00719569
000060 8c 37 cc 3e 3e 9c a1 3e 92 77 f7 3e 10 c9 33 bf
       0.3988613 0.31564516 0.48333412 -0.7022867
000070 b4 bd 43 bf 0c a3 50 bf 35 3f 63 be 25 c3 7e be
       -0.7646134 -0.8149879 -0.2219208 -0.24879129
000080 7a 90 31 be 69 f7 60 bd fb a0 27 3d 8c 01 e8 bc
       -0.1734027 -0.05492345 0.040925007 -0.02832105
000090 8d b0 e5 bd 54 f1 df 3d 65 8b 3c bc 74 4b 65 bd
       -0.11215315 0.109347016 -0.011507844 -0.05598016
0000a0 ab 29 ff b9 92 59 4c 3d 5f d7 4b be 69 68 aa 3d
       -0.00048668435 0.04989011 -0.19906376 0.08320696
0000b0 fe a0 3b 3d 6f d6 b1 3d 9c 15 42 3d ea d4 1a 3d
       0.04580783 0.08683478 0.04738389 0.037800707
0000c0 fa ac 1d be fa e6 1a bd 04 03 20 bd 0f b5 48 3e
       -0.15398017 -0.037817933 -0.039065376 0.19600318
0000d0 8c 76 19 3e d8 79 7d be 97 5d b2 3c e4 d0 1e 3c
       0.14986628 -0.24753511 0.021773143 0.009693358
0000e0 92 19 1c 3e 42 b7 88 3d 5a 92 87 3d dd af 82 bd
       0.1524413 0.06675579 0.06619711 -0.063811995
0000f0 04 1b c8 3b 06 85 de 3c 39 c0 0e 3e 7b 0e 60 be
       0.006106736 0.02716304 0.13940515 -0.21880524
000100 f9 76 8d be 80 ca 1a 3e a8 b1 2d be 67 03 8f bb
       -0.2762983 0.1511631 -0.16962302 -0.0043644193
000110 22 78 7e 3b 85 dc 41 3e 61 de 5d 3e cf ce b7 3e
       0.003882893 0.18931778 0.21666862 0.3589997
000120 72 2f 8f be 9a 9e bd be 75 18 9f be ab 97 7e 3d
       -0.27965885 -0.37035066 -0.31073347 0.06215636
000130 d2 65 24 3e 90 15 45 be 4e 2f 81 3d 71 16 88 bd
       0.16054466 -0.19246507 0.06307851 -0.06644905
000140 83 3a 8e 3b b2 d2 d4 3c 6c a7 aa bd 78 55 ca 3d
       0.0043404712 0.025979374 -0.083327144 0.09879583
000150 01 5d f4 3d 03 c0 2a 3e d9 74 75 be c6 3c 2a 3d
       0.119318016 0.16674809 -0.23970355 0.041561864
000160 af 78 72 3d 91 f7 96 3d 14 ec c7 bc 08 cb ec 3c
       0.059197124 0.07371438 -0.024404563 0.028905407
000170 90 ab 5d be dc 47 9d bd 83 f6 1d 3e 36 83 44 bd
       -0.21647477 -0.07679722 0.15426068 -0.047976695
000180 71 4e 09 3e e0 af 46 bd 23 fd 54 bd 5e 69 a0 3c
       0.1340883 -0.04850757 -0.051999222 0.019581493
000190 5d c2 c4 3c 70 46 45 bd 60 d2 c0 3d f4 85 03 3e
       0.02401846 -0.048162878 0.09415126 0.12844068
0001a0 46 ca 68 bd 32 78 32 bd e4 5d aa 3d ec e2 51 be
       -0.056833528 -0.04357166 0.083186895 -0.2049672
0001b0 29 f4 44 bf c1 23 08 bf 91 04 36 bf 1a 72 1a bc
       -0.7693506 -0.53179556 -0.7110072 -0.009426618
0001c0 78 a8 50 3e 0e fa 93 3e e5 9e 11 3e 1f 14 71 3c
       0.20376766 0.28901714 0.1422077 0.01471427
0001d0 b1 88 7c 3e 11 a0 15 ba aa 73 6c 3d 1b 0a 2a bb
       0.24661519 -0.00057077507 0.057727493 -0.0025945965
0001e0 66 04 1c bd 02 13 1f 3e 06 b3 cb bd 68 33 c5 bd
       -0.038090132 0.15534595 -0.099462554 -0.096289456
0001f0 d3 1f e4 bc db 2d fa 3d cb 4b 61 3e eb a2 4d 3c
       -0.027847206 0.122157775 0.22001569 0.01255105
000200 64 16 cd bd 7b dd e1 bd 9f d8 02 3d b6 8a 1e ba
       -0.10014036 -0.11028572 0.031944867 -0.0006047891
000210 4e 11 85 bc 5c 19 28 3d 19 34 d7 bd d3 99 13 3e
       -0.016243603 0.04103981 -0.10507984 0.14414148
000220 2d e6 5a 3d 17 34 98 3c 79 c8 93 3d 04 74 1b 3d
       0.05344217 0.018579526 0.072159715 0.037952438
000230 4a fb 48 bd fd 8e 5c 3d 20 cb a9 3d 00 9a a4 3c
       -0.049067773 0.0538473 0.08290696 0.020092964
000240 ed 18 a5 bc 6f 9c d2 3d fb 09 62 be fc 1e 12 3d
       -0.020153487 0.102837436 -0.2207412 0.03567408
000250 42 69 a1 be e6 c3 58 bd c7 cd 51 3e 43 0e 90 3e
       -0.31525618 -0.0529212 0.20488654 0.2813588
000260 84 f1 a0 3e ba 1d 01 3d 39 20 ea 3d 91 24 6b 3e
       0.31434262 0.03152249 0.11431927 0.22963168
000270 45 65 81 3e 7b 51 93 3e 1e 7a 8f 3e 32 03 b7 3e
       0.25272575 0.28773102 0.28022856 0.35744625
000280 0e f4 c5 3d 25 f9 7f 3d 55 75 a4 3d 19 95 bc bd
       0.0966569 0.062493462 0.08030192 -0.092081256
000290 d6 4e 96 bd e2 82 22 3d f1 70 d4 3d dd 45 fd 3d
       -0.073392555 0.0396756 0.10373104 0.12366841
0002a0 0f 93 0d 3e ad 03 44 bd 56 85 72 bd a2 a5 27 3c
       0.1382563 -0.047855068 -0.05920919 0.010232361
0002b0 82 b3 90 bd 11 59 ea bc 1b 94 99 3d 90 19 1e 3d
       -0.070654884 -0.028606923 0.07498952 0.038598597
0002c0 4c fc 0c 3c 11 46 4e 3d 7a 57 27 3d 18 dc 5b bd
       0.008605074 0.05035979 0.04085491 -0.053676695
0002d0 60 0b b6 bc 4e 73 71 bc 54 2b 9e bd 19 36 0e 3b
       -0.02222222 -0.014736963 -0.07723108 0.0021699725
0002e0 b7 e7 56 bc 71 8b 73 bc e6 e8 2e 3c cf c1 a6 3b
       -0.013116769 -0.014864788 0.0106756445 0.0050890218
0002f0 c8 99 14 bd 36 e1 a9 3d 47 1a 99 3d 22 ae 62 3d
       -0.03627947 0.08294909 0.07475715 0.055341847
000300 93 b2 f7 3e 28 4b 0a 3f 16 44 17 3f 0f 5d dc bd
       0.4837843 0.5402093 0.59088266 -0.10759937
000310 1f b2 d3 3d 19 6e 14 3e c7 a9 41 3e 8f 99 96 3e
       0.10336708 0.14495124 0.18912421 0.2941403
000320 34 15 9f 3e b7 1b ad 3d 9b 8f c8 3d 8a 3e f1 bb
       0.31070864 0.08452552 0.097930156 -0.0073621916
000330 7c 3d 95 3c 3b 0a 33 bc 98 04 0b bd 74 dd 5f bd
       0.018217795 -0.010927732 -0.033939928 -0.054654554
000340 be 13 00 3d 72 81 2a 3d e5 3b 0b bc fc c5 c2 3d
       0.031268828 0.041627355 -0.008498167 0.09510419
000350 71 58 9a bd 74 48 11 3e d8 43 eb bd e4 97 c4 3d
       -0.075364 0.14187795 -0.114875495 0.09599283
000360 7a fa 18 bd 80 a9 a1 bd 00 8d c7 bd 5d 82 0b be
       -0.037348248 -0.07893658 -0.097436905 -0.13623948
000370 fa 9d 73 3d 37 83 aa bd 78 2f 04 bd 3a 99 50 bc
       0.05947683 -0.083258085 -0.032271832 -0.012731845
000380 e8 1c 5b 3c c3 ef 64 3c cd a7 2e 3d 67 55 a6 3d
       0.013373591 0.013973179 0.042640496 0.08121758
000390 61 34 de bb 3a 92 6a 3e e1 8f 16 be 60 08 3c 3e
       -0.0067811464 0.22907344 -0.14703323 0.1836257
0003a0 c2 b1 98 bd 56 52 ed be 97 bd 1e 3e 0b ef a1 3e
       -0.074557796 -0.4635188 0.1550201 0.31627688
0003b0 3d ba 32 3e 82 89 b4 be 7b e5 eb be ba 56 e2 be
       0.17453857 -0.3526116 -0.46073517 -0.44206792
0003c0 98 cb b4 3e f4 d7 f5 3d 2f 6d a4 3e f3 ed 46 3e
       0.3531158 0.120040804 0.3211455 0.19426708
0003d0 9a e8 3e 3e ac 26 82 3d ce 3a 82 bb 54 18 40 3d
       0.18643418 0.06355032 -0.003974295 0.0468982
0003e0 9d 58 81 3d 50 7d bb 3d 0e 23 92 3c b4 e7 30 be
       0.0631573 0.09154761 0.017838981 -0.17275888
0003f0 93 bb 3f be 5d 9f 36 be fb db 56 3e 1f 48 41 3d
       -0.18723898 -0.1783423 0.20982353 0.04718792

conv.0.bias f4 [32]
000000 c4 fb e7 3d 84 7f b0 3c 9b 03 4c 3d cb e9 fb 3d
       0.11327317 0.02154518 0.049808126 0.12300452
000010 db 41 12 3e 48 95 21 3e ba fe cc bd 96 c5 2e 3d
       0.14282934 0.15779603 -0.10009523 0.0426689
000020 f2 18 46 3d c5 e5 dd 3d 23 1b 25 3c d5 f3 be 3d
       0.048363633 0.10834841 0.010077271 0.09323851
000030 e1 3d 03 be 4b 69 aa bb 7b 8e 12 bb dd 59 00 be
       -0.12816574 -0.00520054 -0.0022362757 -0.1253428
000040 73 11 4a bd 59 97 fd 3c ce 6f 39 3e 9a cc e0 3d
       -0.049333047 0.030955957 0.18109056 0.10976525
000050 68 6d ce 3d b8 da 2b 3e 78 cf 57 3e 27 31 ed bd
       0.10079461 0.16782653 0.21075237 -0.11581641
000060 28 dc 16 3e ec 13 45 3d 81 8d 57 3d 55 5d 2b 3e
       0.1473242 0.048114702 0.052625183 0.16734822
000070 9a 5a 4c bd 9f 67 1e bd 4b e0 0c 3e 6a 77 03 3e
       -0.049891092 -0.03867304 0.13757436 0.12838522

conv.1.weight f4 [32]
000000 8e 76 93 3f fd 0f 38 3f 7a 69 89 3f 87 02 47 3f
       1.1520555 0.71899396 1.0735314 0.7773823
000010 ce 68 62 3f 45 36 1f 3f 28 c2 82 3f 93 50 73 3f
       0.8844117 0.62192184 1.0215502 0.9504482
000020 3f b2 e1 3e 41 c2 31 3f c3 e5 73 3f bf 17 05 3f
       0.44081303 0.6943703 0.95272464 0.5198936
000030 d1 a1 48 3f ee e9 25 3f 38 4c 3a 3f f1 25 83 3f
       0.7837191 0.64810073 0.7277255 1.0245954
000040 48 b1 40 3f 45 d7 95 3f 95 4d 55 3f 2e ce 8d 3f
       0.7527051 1.170632 0.83321506 1.1078546
000050 05 4c 6e 3f 2a 18 5d 3f f7 7d 4c 3f 72 95 94 3f
       0.93084747 0.86364996 0.7987971 1.1608107
000060 3c 55 68 3f 48 e1 a7 3f 0a cd 6a 3f 62 92 1c 3f
       0.9075506 1.3115625 0.91719115 0.6116086
000070 2a 64 73 3f 84 bf 51 3f 13 0c 43 3f 05 0a 69 3f
       0.95074713 0.81932855 0.761903 0.91030914

conv.1.bias f4 [32]
000000 27 3b b6 be c1 0a a7 be 13 df 84 be 89 39 68 be
       -0.35592005 -0.32625392 -0.25951442 -0.22678198
000010 f2 fc c4 be 8d c6 f2 be d5 64 a8 be 59 71 94 be
       -0.38474232 -0.47417107 -0.3288943 -0.28992727
000020 70 54 bb be b3 05 d2 be c7 2e 66 be 64 d0 98 be
       -0.36587858 -0.41019973 -0.22478782 -0.2984649
000030 5d 44 c5 be a5 a8 96 be 92 cb 90 be 01 10 8c be
       -0.3852872 -0.2942554 -0.28280312 -0.2735596
000040 2c 4a e5 be e1 88 02 bf 81 49 b1 be 75 a7 83 be
       -0.4478315 -0.5099011 -0.34626392 -0.25713697
000050 b1 99 b5 be 1e 0f 15 bf 84 f8 22 bf 28 77 b0 3d
       -0.3546882 -0.5822619 -0.63660455 0.08616477
000060 47 ab 16 bd 05 07 37 be fb 98 81 be 8c 6f f3 be
       -0.036784437 -0.17873771 -0.25312027 -0.4754604
000070 f6 be 98 be 33 40 7c be 0c 5d a9 be 46 cc c5 be
       -0.29833192 -0.24633865 -0.33078802 -0.3863241

conv.1.running_mean f4 [32]
000000 54 83 06 3e ef 8d cb 3c 77 e9 7e 3d 06 b5 e9 3d
       0.13136035 0.024847953 0.06223437 0.114114806
000010 2e 14 f0 3d 9a e7 29 3e 77 c7 9b bd a1 18 5f 3d
       0.11722599 0.16592255 -0.07606404 0.054466847
000020 11 ad 65 3d 69 38 f8 3d 7a 63 e7 3c 17 0c 81 3d
       0.056073252 0.121201344 0.028245676 0.06301134
000030 67 a2 d7 bd 39 7e 90 3c 7f 8e 8a 3c 11 91 b9 bd
       -0.10529023 0.017638313 0.01691365 -0.09060872
000040 2e 0c 5f bd af 23 43 3d 9c 7c 4b 3e 71 20 0e 3e
       -0.054454975 0.047641452 0.19871753 0.13879563
000050 ca 39 ff 3d d9 c1 2e 3e 58 86 5d 3e 1d 62 1a be
       0.12462194 0.17066135 0.2163328 -0.1507649
000060 56 ca 22 3e 42 71 6e 3d 20 60 bf 3d 09 be 2c 3e
       0.15897498 0.05821348 0.09344506 0.16869368
000070 0e 5d d6 bc 60 d6 2f bd 11 65 09 3e 7b df 13 3e
       -0.026167419 -0.042929053 0.1341746 0.1444072

conv.1.running_var f4 [32]
000000 b4 10 4f 40 9e d8 c9 3f fd 96 4e 40 e9 7b 0b 40
       3.2353945 1.5769231 3.2279656 2.1794379
000010 a0 c8 45 40 6b a2 dc 3f 70 c7 66 40 e1 d3 56 40
       3.0903702 1.7237066 3.6059227 3.356682
000020 44 98 ad 3f b6 f9 ab 40 4e 1d 8c 40 21 fd 8b 40
       1.3562093 5.3742323 4.378577 4.3746495
000030 60 9e 12 41 f4 16 84 40 6f 17 59 40 bb f0 ff 40
       9.163666 4.127802 3.3920553 7.998136
000040 6a 88 38 40 bd fd 4a 40 5f 36 f2 40 f9 0f e7 40
       2.883326 3.171737 7.569137 7.2207
000050 b0 24 92 40 25 61 54 40 dd 96 6c 3f 8e f1 1f 41
       4.5669785 3.3184292 0.924177 9.996473
000060 f0 e8 a2 40 8f a4 73 40 af c6 e3 40 4a 36 e0 3f
       5.0909348 3.8069189 7.1180034 1.7516568
000070 c5 a0 9d 40 52 e8 df 3f b0 9b 42 3f 09 7c 42 40
       4.925875 1.7492774 0.7601881 3.0388205

conv.5.weight f4 [64, 32, 3]
000000 aa 48 99 3d 25 bc 02 3e 0c f2 64 bd 84 79 04 be
       0.07484563 0.12767084 -0.055894896 -0.1293698
000010 0d 42 e7 bd 3c b2 9a bb fe b5 32 be e9 1d 38 be
       -0.11291895 -0.004720954 -0.17452237 -0.1798016
000020 9b 84 c1 bd 6b 44 07 bd 5f 28 32 bd 28 ab c1 3c
       -0.094491206 -0.033024233 -0.043495532 0.023641184
000030 c6 f7 55 bc 9b 66 06 3e 67 66 1e be bb ab 31 3b
       -0.013059562 0.13125078 -0.15468751 0.0027110416
000040 68 45 3e 3e 02 cf 83 bc 6c 0b b6 3c ef 33 30 3e
       0.18581164 -0.01608992 0.022222243 0.17207311
000050 b8 ee 65 3c c5 cc cc 3d 7b 78 75 bd 0b ab 30 bd
       0.014033966 0.09999994 -0.059929352 -0.04313187
000060 61 55 ad bd b9 51 e9 bb c1 43 8f 3d b9 a7 9d 3b
       -0.0846355 -0.007120338 0.06995345 0.004811254
000070 83 ee a7 39 e7 46 6a 3d 20 2e 17 be b8 96 4a bd
       0.00032030427 0.057196524 -0.14763689 -0.049460143
000080 3c 9a 9c bc 12 c6 96 bd 1d b2 3b bc da 01 68 bc
       -0.019116513 -0.07361998 -0.01145604 -0.014160598
000090 23 5e 26 3c 71 39 19 3d 08 79 fa 3d 96 d9 3b bb
       0.01015428 0.037408296 0.12230116 -0.0028663627
0000a0 7f f7 0b 3d 7c 23 9f 3c e2 c2 f2 3c 55 13 0f 3c
       0.034171578 0.0194261 0.029633943 0.008732636
0000b0 6a 2f 7a bd 0d 09 10 3e 46 ce 18 3e 84 57 6f 3e
       -0.061080374 0.14065953 0.14922437 0.23373228
0000c0 e8 7a 7f bd b8 fc de bd 20 93 33 bb af bf 08 3e
       -0.062373072 -0.10888046 -0.0027400926 0.13354371
0000d0 d6 b7 b9 3d 31 cf 80 bd 5a 9b 92 3d 0a dd 25 bd
       0.09068267 -0.062895186 0.07158537 -0.040494002
0000e0 ff cd 69 bd 32 0c 14 3d 3d 5f 70 3d d8 51 15 be
       -0.05708122 0.036144443 0.058684576 -0.14582002
0000f0 24 5f a8 3e 42 55 7c 3e b4 ec 99 3e c2 47 38 be
       0.32885087 0.24641898 0.30063403 -0.17996123
000100 ab 79 87 be 4c 0a d4 be 45 88 6d 3b 06 89 d0 3e
       -0.26460013 -0.41414106 0.0036244553 0.4072954
000110 d3 b6 cb bd 40 c3 e6 bc 9e a3 7f 3c 2f c7 f9 ba
       -0.0994698 -0.028169274 0.015602974 -0.0019056554
000120 59 de 02 bc 02 9f d3 bc e6 c4 31 be 84 11 99 be
       -0.007987582 -0.025832657 -0.17360267 -0.29896176
000130 9c fa 34 be e7 c3 a9 be d0 52 96 3d 69 33 97 3e
       -0.17673725 -0.33157274 0.07340014 0.2953141
000140 0a db 79 be 01 a5 98 3d e0 27 24 3e 24 2f 86 3d
       -0.24399963 0.07453347 0.16030836 0.0655196
000150 76 e5 5b 3e 03 18 f4 3d a7 85 14 3e 20 8a 64 be
       0.21474251 0.11918642 0.1450411 -0.22318316
000160 0a c8 55 be 68 e8 84 3d 3a 47 d0 3c ed a0 42 3e
       -0.2087709 0.064896405 0.025424588 0.19006701
000170 a8 b7 61 be 25 c7 b0 bd ac 76 0a be 7d dd 22 be
       -0.22042716 -0.08631734 -0.13521832 -0.15904804
000180 66 64 94 bd e2 b1 87 bc 6a a5 a9 bd 3c b8 b2 3d
       -0.07245712 -0.016564313 -0.08283503 0.08726546
000190 37 ae 9c 3d ae e0 cd 3c 63 92 92 3e f3 ed 5e 3e
       0.07650416 0.02513155 0.2862731 0.21770458
0001a0 f6 ce b0 3e db 7c a5 3d b3 20 09 3c a3 0e 54 3e
       0.345329 0.08080455 0.0083696125 0.20708708
0001b0 c3 22 8b 3e b3 25 9c 3d 2e 71 45 3e 4c 04 eb 3c
       0.2717496 0.07624378 0.19281456 0.028688572
0001c0 a2 ee bd 39 9c ca 1a 3e 05 70 e9 bc 7d bc 11 3e
       0.00036226684 0.15116352 -0.028495798 0.14232059
0001d0 3f fe 22 3e 72 b8 29 3e 32 f0 0a 3d 66 4a 41 3e
       0.159173 0.16574267 0.033920474 0.18876037
0001e0 50 41 cf bd 23 eb 6d bd 43 3f af 3d 4f a4 81 bd
       -0.10119879 -0.058085572 0.08556988 -0.063301675
0001f0 42 3c b5 3c 05 b5 09 3d 15 1e ae bd e0 fc c5 bd
       0.02212346 0.0336199 -0.085018314 -0.09667373
000200 93 b0 48 bd 66 d8 25 bd d4 df 9a 3d 11 76 8e 3c
       -0.04899652 -0.040489577 0.07562223 0.017390283
000210 03 a8 1e be 91 b0 2e be 95 13 01 bd 9f 76 24 3b
       -0.15493779 -0.17059542 -0.031512816 0.0025095118
000220 9a 90 17 bd 63 b2 92 3d 4e 8d b2 3c 30 62 e0 3d
       -0.037003137 0.07162931 0.021795895 0.10956228
000230 d0 4b 19 3d d7 0e 05 be 7b 83 74 bd 7c 1f b3 bd
       0.037425816 -0.12993942 -0.059695702 -0.087462395
000240 fa 17 23 be d9 99 bd bd 05 e8 aa bd 42 74 14 bd
       -0.15927115 -0.0925786 -0.083450355 -0.036243685
000250 7a 19 76 3b d8 73 b7 3c e2 64 b9 3c e7 70 42 3e
       0.0037551806 0.022394106 0.022631112 0.18988381
000260 fc c8 e4 3d b0 4a 65 3d 62 6c fd 3d 1f d4 c1 3d
       0.11171147 0.05597943 0.12374188 0.09464287
000270 af 87 81 3d cf f3 ed 3d 5e cd b9 3d a0 43 a1 bd
       0.06324708 0.116187684 0.09072374 -0.078742266
000280 c7 95 54 bb ac 22 bc bd 46 f9 56 bc 43 75 a3 3d
       -0.0032437907 -0.09186301 -0.013120955 0.0798135
000290 e1 70 64 3e 83 62 51 3d 64 1f de 3d 97 64 bb b8
       0.22308685 0.05111934 0.10845831 -8.935591e-05
0002a0 9c de 6e bc 9d b1 0d 3d 85 97 fa 3d 7c b9 cf 3e
       -0.014579441 0.034593213 0.12235931 0.405712
0002b0 d4 12 9e 3e 42 64 78 3f 36 04 13 be 1d 52 11 3e
       0.3087374 0.9702798 -0.14357075 0.1419148
0002c0 9a 6d 1d bd 33 fa 5d bc 8d e6 7d 3d 88 43 a7 3d
       -0.038434602 -0.013548422 0.06198745 0.081671774
0002d0 7f d3 05 bd 74 ad 11 3e ff 44 ff 3d 6b 83 53 bd
       -0.0326724 0.14226323 0.12464332 -0.051639
0002e0 51 df 85 bb 2a e2 1a 39 fd 48 3f bd 23 d4 22 3e
       -0.0040854593 0.00014770837 -0.046700466 0.15901236
0002f0 7e 57 26 3e 7f 89 58 3d 04 6e 4e 3d df e4 a2 3d
       0.16244313 0.0528655 0.050397888 0.0795381
000300 d7 87 ab bd 0b f7 87 bd bb a3 14 3e 0c 52 35 3d
       -0.08375519 -0.066389166 0.14515583 0.0442677
000310 b7 48 28 bc 1c 8b 24 bd b0 34 e2 3d 68 e5 26 3e
       -0.010271243 -0.040171728 0.110452056 0.16298449
000320 ed 14 c9 3e 4a 37 7b 3d 92 08 76 bd 35 e6 a5 bd
       0.39273778 0.061332025 -0.060066767 -0.08100549
000330 cd bf be bd 0f 71 d7 bd 4d 13 c7 bd 01 e0 8c bd
       -0.09313927 -0.10519611 -0.09720478 -0.06878663
000340 85 f5 46 bd 67 10 0c bd 2f af 02 bf 97 19 bd be
       -0.04857399 -0.03419533 -0.5104856 -0.36933586
000350 06 9c 98 be 45 cb ef 3c 33 b0 cc bd 01 ca 6a bd
       -0.29806536 0.029271731 -0.09994545 -0.057321552
000360 d0 27 01 bb c9 95 38 be 5a 43 7b bd 81 07 87 3d
       -0.0019707568 -0.18025889 -0.06134353 0.06593228
000370 f8 46 7c bd 83 2d 1c 3e 92 b4 2d be 27 97 fd bc
       -0.06159112 0.15251736 -0.16963413 -0.030955864
000380 69 16 db bd 01 50 91 3d 2b ff 16 be 94 d6 8b 3d
       -0.10697634 0.07095338 -0.14745776 0.06828037
000390 49 0d 0b 3c a1 4f 8f bd 85 f1 df bd ee f5 f5 3d
       0.008487054 -0.0699761 -0.10934738 0.12009798
0003a0 65 21 ac bd 19 84 13 be 95 96 ca bd 17 15 1b be
       -0.08404807 -0.1440586 -0.098920025 -0.15144764
0003b0 81 e0 19 be 26 12 7c be 6a ba 76 be ee ae a8 bd
       -0.15027048 -0.24616298 -0.24094549 -0.0823649
0003c0 2b 99 11 be 22 13 ae 3c 50 3b e4 3d 9d a0 14 be
       -0.14218585 0.021249358 0.111441255 -0.14514394
0003d0 b7 b6 82 3d 1b c1 6c 3c f7 74 0a 3e 8c d0 09 3e
       0.06382506 0.014450337 0.13521181 0.1345846
0003e0 28 e3 4b 3e 03 08 04 bf 51 cc 0c bf 5f 6a f8 be
       0.19910872 -0.51574725 -0.5499926 -0.48518655
0003f0 ec 56 09 3d ea 02 76 3d fc 7b 32 3b c8 fc 54 3e
       0.03353016 0.060061373 0.0027234545 0.20799553

conv.5.bias f4 [64]
000000 f6 2d a7 bc 9f 5b ee 3d 0f 57 8b bd 17 c8 8c 3d
       -0.020407658 0.11638569 -0.068037145 0.068741016
000010 4c 2e 02 be bf d4 97 3d 52 18 d9 3c 8e 65 f6 bc
       -0.12712973 0.07413625 0.026500855 -0.030077722
000020 df 90 6e 3d 78 11 04 bd 97 6e 92 bd a0 d9 96 bc
       0.05824363 -0.032243222 -0.071499996 -0.018414319
000030 91 2c d5 bc 77 e2 0b bd 2f c7 59 bd 18 e8 c3 3d
       -0.026022227 -0.03415152 -0.053168472 0.09565753
000040 fc aa 00 3e 05 02 cc bb be 96 d1 bc 83 2b 0e 3d
       0.12565225 -0.0062258267 -0.025584575 0.034709465
000050 6f 02 79 3c b6 f0 8f bc f5 c5 4b 3d 47 b5 b2 bd
       0.015198334 -0.017570835 0.049749333 -0.08725982
000060 91 e3 e7 3c b8 0e 76 bd a0 9c 3b bb b4 8f cf 3d
       0.028306754 -0.06007263 -0.0028627291 0.10134831
000070 26 24 0c bd 6b 9e d9 3b 6d e6 81 3d 8d 28 c4 3d
       -0.03421416 0.0066411993 0.06342778 0.09578047
000080 29 ed 32 3d 8f c9 7d 3d 86 bc 11 bc cf e6 fd ba
       0.043683205 0.0619598 -0.008895045 -0.0019371154
000090 5e 33 40 bd 47 d4 61 bd b7 f3 c3 3d e8 b2 8e 3d
       -0.046923988 -0.055134084 0.09567969 0.069677174
0000a0 d1 51 0b bd e8 9d 84 bd 94 0c 14 3c 26 cc a0 3d
       -0.034013573 -0.06475431 0.009036202 0.07851438
0000b0 49 2c b2 bd 63 9d ba 3d 27 cf 86 bd e2 e2 71 bd
       -0.08699853 0.091120504 -0.0658248 -0.059054263
0000c0 fa 06 78 bc 3c 93 37 3d 87 f2 63 bd 4a 21 98 3d
       -0.015138382 0.044818148 -0.055651214 0.074282244
0000d0 cf f3 a4 bd ae cb 8b 3a 47 bf 8d 3d d8 ff 58 3d
       -0.08054315 0.001066556 0.06921249 0.052978367
0000e0 4b 1b a7 3c c4 e7 fc bc 09 4b 33 3d 43 78 65 3d
       0.020398756 -0.030872233 0.04377273 0.056022894
0000f0 dc 81 3c bd ef 09 6e 3c 45 5d 20 bc ba f3 05 3d
       -0.04602228 0.014528736 -0.009787862 0.03270314

conv.6.weight f4 [64]
000000 25 a6 83 3f d0 5e 8b 3f 4f 6b 86 3f ff 37 60 3f
       1.0285078 1.088831 1.0501498 0.87585443
000010 7e fb 62 3f 0b 08 54 3f 4d b1 53 3f 66 e5 90 3f
       0.88664997 0.8282477 0.82692415 1.1320007
000020 d4 41 8c 3f 86 45 76 3f e3 e5 81 3f ed 68 66 3f
       1.0957589 0.96199834 1.0148281 0.90003854
000030 5e 99 41 3f b9 f5 74 3f 3f 76 83 3f 02 bd 5b 3f
       0.75624645 0.95687443 1.0270461 0.8583528
000040 2a fb 8e 3f 83 9a 8a 3f 64 12 7f 3f 42 98 7a 3f
       1.1170399 1.0828403 0.99637437 0.97888577
000050 1a e8 82 3f 23 0e 6c 3f 7b cd 80 3f 24 14 8d 3f
       1.0227082 0.9220907 1.0062708 1.1021771
000060 74 c8 7c 3f 0b 9e 78 3f 6b ff 8b 3f e6 90 8e 3f
       0.9874337 0.97116154 1.0937322 1.113797
000070 8e 5c 62 3f 38 f9 70 3f b7 8d 92 3f 01 1d 97 3f
       0.8842248 0.9413028 1.1449498 1.1805726
000080 43 07 88 3f 22 25 7e 3f e0 72 64 3f 7f 79 77 3f
       1.0627216 0.9927541 0.89237785 0.96669763
000090 74 87 77 3f d6 1f 46 3f b9 c0 7a 3f ba d1 6d 3f
       0.9669106 0.7739233 0.9795032 0.9289814
0000a0 83 7b 82 3f 3c 71 80 3f cc 32 77 3f a6 5e 57 3f
       1.0193943 1.0034556 0.96561885 0.841288
0000b0 6a c5 5e 3f 94 c3 4e 3f 1a 4b 5b 3f 99 80 9e 3f
       0.8701998 0.8076718 0.8566147 1.2382995
0000c0 e6 7f 67 3f 01 cf 7e 3f 50 6e 7c 3f b9 53 60 3f
       0.9042953 0.9953461 0.98605824 0.8762775
0000d0 db 4e 67 3f 98 23 74 3f d1 bd 73 3f a8 5a 5a 3f
       0.903547 0.9536681 0.9521151 0.8529458
0000e0 10 b0 6a 3f 77 cb 5c 3f 78 4b 8a 3f 33 70 7a 3f
       0.916749 0.8624796 1.0804281 0.9782745
0000f0 8d bc 64 3f 19 d0 81 3f 32 16 64 3f 57 c2 7f 3f
       0.89350206 1.0141631 0.8909637 0.99905914

conv.6.bias f4 [64]
000000 8c 4f 35 be 55 4a e1 bd c4 08 9d be e7 15 89 be
       -0.17706126 -0.11000506 -0.3067075 -0.26774523
000010 06 b7 24 be 9b 32 90 be 17 bf ab be a1 63 07 be
       -0.16085443 -0.2816361 -0.33544227 -0.13221599
000020 09 97 46 be 67 94 66 be 81 c8 a7 be d8 17 63 be
       -0.19393553 -0.22517549 -0.3277016 -0.22177064
000030 ec 58 eb be f8 53 ec bc 18 3a 47 be 56 b6 91 be
       -0.4596628 -0.028848633 -0.19455755 -0.28459424
000040 1f 6f 6e be 6c a0 f1 bd 58 16 91 be 4f 50 f8 bd
       -0.23284577 -0.11798176 -0.2833736 -0.12124693
000050 9e 9f 43 be 24 4d 8e be e8 2e 91 bd ba 74 84 be
       -0.19103858 -0.2779323 -0.07089025 -0.25870305
000060 f9 8f 4a bd a9 d6 70 be 73 03 89 be 39 cb 5b be
       -0.04945371 -0.23519386 -0.26760444 -0.21464242
000070 61 3f a2 be fa 9a 21 be fe e2 87 bc 5f 77 bb bd
       -0.3168898 -0.15781775 -0.01658773 -0.091536276
000080 13 e0 e9 be 14 20 8a be ae 6c 51 bd 46 68 28 be
       -0.45678768 -0.269776 -0.051129036 -0.16446027
000090 d8 75 41 be 49 40 2f be 5b ca a5 be a0 dc af be
       -0.1889261 -0.17114367 -0.32380947 -0.3434801
0000a0 4f 3f 88 be fe d0 29 be c1 49 59 be f8 44 2a bf
       -0.266108 -0.1658363 -0.21219541 -0.6651149
0000b0 45 88 5d be f2 fe 35 be c0 49 b1 be 66 d1 1f be
       -0.21634014 -0.17773035 -0.3462658 -0.15607223
0000c0 b9 b4 9e be 31 d7 db be 85 45 0a be 58 0d 81 be
       -0.30997255 -0.42937616 -0.13503082 -0.25205493
0000d0 a3 3d 09 be a0 e4 80 be 36 f4 f9 be 69 49 9f be
       -0.13402419 -0.25174427 -0.4881913 -0.31110695
0000e0 05 92 82 be 18 ba b4 be a6 f4 13 be 0a 3c f0 be
       -0.2550203 -0.35298228 -0.14448795 -0.46920806
0000f0 d3 c2 49 be 94 d9 b1 be e3 d0 a4 be d3 a3 47 be
       -0.19703226 -0.3473631 -0.32190618 -0.19496088

conv.6.running_mean f4 [64]
000000 e6 a0 49 be 08 31 a7 3f 6d 14 55 bf 67 06 09 3f
       -0.19690284 1.3061838 -0.8323429 0.53525394
000010 fa 5a 8d bf ee 86 0d bf 73 36 a3 bf fc 39 80 be
       -1.1043389 -0.5528401 -1.2750992 -0.2504424
000020 2a 1c 48 bf da df 76 bf f7 7a 0b bf e7 0a c5 bf
       -0.78167975 -0.9643532 -0.54484504 -1.5393952
000030 3d 5a fe 3e 85 60 39 3f d1 d6 d1 be c6 5b 29 bf
       0.4967822 0.724129 -0.40984204 -0.6615566
000040 b6 db d6 bd 7b fe df bd ce ee 94 bf 0d a3 ef 3e
       -0.10491125 -0.1093721 -1.1635377 0.46804085
000050 3f 1a 85 bf 3d 8d 30 bf 7b 5f b0 bf a9 08 cb be
       -1.0398635 -0.6896551 -1.3779138 -0.39655045
000060 6e 5c 9e be 15 5a 08 bf 9b e1 b8 bf 57 a7 6f be
       -0.30929893 -0.53262454 -1.4443849 -0.23403679
000070 10 2d 66 bf e9 20 58 bf a4 90 d2 be 8b dc bb 3e
       -0.8991251 -0.84425217 -0.41125977 0.36691698
000080 26 65 bf bf 52 07 14 be c2 7f f5 be 17 fb 77 bf
       -1.4952743 -0.14455917 -0.47949034 -0.9686751
000090 5c b5 d2 bf 30 cf c2 3e d1 ec e1 bf 49 58 3e bf
       -1.6461596 0.38048697 -1.7650396 -0.7435346
0000a0 9d 0c 24 3f e8 71 07 3f 3e fc 32 bf 6a 22 03 3b
       0.64081746 0.5290818 -0.6991614 0.0020009526
0000b0 56 9c b9 bf 31 45 a4 bf ce 13 76 bf 5f da 60 bf
       -1.4500835 -1.2833616 -0.9612397 -0.8783321
0000c0 7d 97 a1 bf 12 b1 ca bf 03 c1 5d bf 15 a7 36 bf
       -1.2624356 -1.5835288 -0.8662264 -0.71348697
0000d0 94 a1 0e bf e4 7b 7d bf 84 c8 0e be 15 17 2f 3e
       -0.557153 -0.9901717 -0.13943678 0.17098649
0000e0 0b 9f 8d bd 18 13 88 be 4e a9 7f 3e 68 d7 45 3f
       -0.06915101 -0.26577067 0.24966928 0.7728181
0000f0 4a 37 15 bf 6d fb ed 3e ab f8 02 3e e9 c2 87 3f
       -0.5828749 0.46480885 0.12790172 1.0606357

conv.6.running_var f4 [64]
000000 44 83 56 3f 7f 03 bf 3f 3b 55 88 3f e6 54 17 3f
       0.83794045 1.4922942 1.065101 0.5911392
000010 04 72 60 3f 1b 59 67 3f 6d d7 b8 3f f7 8d 9f 3f
       0.87673974 0.9037034 1.4440743 1.2465199
000020 f3 4c 12 3f fe da 74 3f 14 1a cc 3f 96 8a fe 3f
       0.57148665 0.95646656 1.5945458 1.9886043
000030 35 ca 6a 3f ef d7 d2 3f d9 f5 26 3f 62 a6 99 3f
       0.91714793 1.6472148 0.65218884 1.2003901
000040 45 d2 c0 3f 37 b0 60 3f ba 82 d1 3f e7 84 d1 3f
       1.5064169 0.8776888 1.636802 1.6368684
000050 a3 7c c2 3f f4 49 71 3f 73 a9 be 40 9d 8c ad 3f
       1.5194286 0.9425347 5.9581847 1.3558537
000060 db 34 ae 3e 5f e2 2d 3f 0e c1 2a 40 cd 9c 06 3f
       0.340247 0.6792354 2.6680331 0.5258301
000070 5b d9 18 3f 76 07 07 40 15 d1 41 40 68 f8 dc 3f
       0.5970666 2.1098304 3.0283864 1.7263308
000080 e7 44 13 40 ee 30 ea 3e b9 8c 1b 40 aa 52 7a 40
       2.3010805 0.45740455 2.430464 3.9112954
000090 ec 71 f9 3f b0 63 b1 3f 83 a6 15 40 c6 36 fa 3f
       1.9487891 1.3858547 2.338288 1.9547966
0000a0 88 08 53 3f 06 2d 31 3f 31 df db 3f c7 a3 06 3f
       0.8243489 0.69209325 1.7177488 0.52593654
0000b0 da fe 83 40 dc 61 95 3f 19 16 81 3f dd 88 2b 40
       4.12486 1.1670489 1.0084869 2.6802285
0000c0 86 d1 3a 40 e4 69 0a 40 6e 4d 08 40 1b 03 64 3f
       2.9190383 2.162713 2.129726 0.8906724
0000d0 0a 6f a7 3f dd ea 00 40 cc 33 b8 3f 9d f7 2b 3f
       1.3080761 2.014335 1.4390807 0.671747
0000e0 ff a0 c9 3f a7 23 34 3f e6 d7 03 40 28 2d 7f 3f
       1.5752257 0.703669 2.0600524 0.9967828
0000f0 6d 95 23 3f 14 14 15 3f 70 d4 96 3f 81 c2 bc 3f
       0.6389988 0.5823376 1.1783581 1.4746858

conv.10.weight f4 [128, 64, 3]
000000 0a c5 11 3e b0 0a 9c bd 93 49 0f 3e b4 61 38 3e
       0.1423532 -0.07619226 0.1399291 0.18006021
000010 ea 82 dc 3d 89 24 8c 3e ce 2b 9a bd 61 e9 05 3e
       0.107671574 0.27371624 -0.07527886 0.13077308
000020 e8 b2 81 bd e9 34 a8 bc 6c da f8 bc 15 20 94 3d
       -0.06332952 -0.020533042 -0.03037759 0.07232682
000030 9d ce cc be b3 94 3b be e9 85 58 be ee e3 91 bd
       -0.40001383 -0.18318443 -0.21144833 -0.07123552
000040 f1 ac 14 3e 86 03 55 3c b5 b6 49 3e c6 5c 94 3e
       0.14519097 0.013001328 0.19698603 0.2897703
000050 4e b5 c8 3e 5e 8a 7a bc 2e f3 e8 3d fb 8b e3 3c
       0.39200824 -0.015291778 0.11374508 0.027776709
000060 56 cb b1 3d 72 e0 e9 3d 3a af 1f be d7 bc 81 be
       0.086813614 0.11419763 -0.15594187 -0.25339386
000070 ff b7 00 3d 8a 88 3c be 32 e0 f0 3c 79 27 97 3d
       0.031425472 -0.1841146 0.02940378 0.07380576
000080 24 fe b9 3d 68 1e 3a 3e b5 7c 4f 3e a0 d3 25 3e
       0.090816766 0.18175662 0.20262416 0.1619401
000090 11 2e ae 3e 53 c6 a6 3d 5f fb d5 3b 38 12 fc 3c
       0.3401952 0.08143296 0.00653021 0.030770406
0000a0 9c 6f af bc 01 b1 d3 3b e4 1d 01 3e 4e 0a 3d 3d
       -0.021415524 0.0064603095 0.12609059 0.046152405
0000b0 0a 0e e7 3c 9a 1c 75 3c 1e 55 a6 3d 72 3f f8 3c
       0.028204937 0.014960432 0.081217036 0.03030369
0000c0 25 e3 8b 3c 15 80 e5 3d cf 10 64 be 65 e7 ce 3d
       0.017076084 0.1120607 -0.22272037 0.10102729
0000d0 e4 4a 7d 3d 0c 4a bd 3d 25 80 8b 3d 14 45 22 3e
       0.061839 0.09242639 0.06811551 0.15846664
0000e0 09 02 d8 bc 0b 77 52 3e d7 a3 0f 3d 8c 17 5d 3e
       -0.026368158 0.20553224 0.03506836 0.21591014
0000f0 6d 3e 94 3d a4 2f c9 bc 0c 50 78 bd 79 b7 97 3d
       0.07238469 -0.02455885 -0.060623214 0.074080415
000100 9e c4 96 3e f9 a0 1f 3d e7 59 c3 bd 4b d4 be bd
       0.29446882 0.038971875 -0.09538632 -0.093178354
000110 85 cc ca bd 1e 70 40 3d 60 0f 76 3e 1f 46 95 3c
       -0.0990229 0.046981923 0.24029303 0.018221913
000120 b4 1f 5a be 8c 1d 84 be cb 29 35 be 3a cf d6 3c
       -0.21301156 -0.25803792 -0.17691724 0.02622186
000130 8e ab ed 3c e5 f8 bf bd 82 b7 cb be 66 38 e0 be
       0.029012468 -0.09373645 -0.39788443 -0.4379303
000140 35 2d bf be 40 bc ef bd d8 fd 49 bd 2a 8c 01 3d
       -0.37339178 -0.11705828 -0.04931435 0.03162781
000150 53 c9 52 be d6 03 6c bd a0 d4 31 be 21 a8 0c be
       -0.20584612 -0.057620846 -0.17366266 -0.13736011
000160 a5 d9 55 be 61 58 21 be ab d2 7b 3d 43 73 1a 3d
       -0.20883806 -0.1575637 0.061480206 0.03770758
000170 61 ce 2a 3e 3e 92 75 3d 48 14 3a 3d 58 5b 20 3d
       0.1668029 0.05995392 0.045429498 0.039149612
000180 14 61 a3 3d 69 82 2b 3e ad 61 81 3d 24 50 80 3e
       0.079775006 0.16748966 0.06317458 0.25061142
000190 79 33 5e 3c 86 26 d0 bd 12 99 f4 3d 90 46 fd bb
       0.013562077 -0.10163598 0.11943258 -0.007729359
0001a0 a9 1e 23 bc d0 51 ef 3c 7d ea af bd 0d 2c c1 bd
       -0.00995604 0.029213816 -0.08589647 -0.0943223
0001b0 15 37 89 3d 00 4f 51 3e 1d ca fd 3d fa 32 55 3e
       0.06699959 0.20440292 0.12392066 0.20820227
0001c0 8c cc 0a 3e 74 14 f6 3d 8a 43 81 3e b7 bb 70 3e
       0.13554591 0.1201562 0.2524684 0.23509108
0001d0 d8 44 01 3e 10 16 8a 3d a2 be d4 3d 15 bc bb 3d
       0.12623918 0.06742489 0.10387923 0.09166733
0001e0 4b 90 df bc b3 69 ca bd c2 69 96 bd 8c d2 18 3e
       -0.027290484 -0.09883442 -0.073443905 0.14924067
0001f0 c5 23 a8 3d 4d ac 12 3d c8 2d 6b bd aa 8b 81 3d
       0.082099475 0.03580885 -0.057416707 0.06325467
000200 f0 4d 10 be 08 65 db bd e4 c2 7a 3b ec 7b b6 bc
       -0.14092231 -0.107126296 0.0038263137 -0.022275887
000210 02 04 7a bc 19 db 0e be 0f da 45 be 79 a8 93 bd
       -0.015259745 -0.13950767 -0.19321464 -0.07209868
000220 9c c3 16 3e 18 e4 bb 3d 7b ca 18 bd 38 f3 1e 3d
       0.14723057 0.09174365 -0.037302475 0.03880617
000230 ec 30 ae bd 82 19 39 3e 05 3e 03 3e 04 33 45 3e
       -0.08505425 0.18076137 0.12816627 0.19257742
000240 82 db 99 bb b6 94 94 bc 3b 4e 3e bd 1b 19 c4 3d
       -0.004695357 -0.018137317 -0.046461325 0.09575101
000250 53 ec 15 3e 48 eb f7 3d 8c d5 88 bd 72 23 87 bd
       0.14640932 0.12105423 -0.06681356 -0.065985575
000260 d6 00 29 3d f9 ce 2d 3c 9f 80 8e 3c b4 97 6d be
       0.041260563 0.010608428 0.017395316 -0.23202401
000270 ff 1c 85 bd 52 c6 fd bd a0 6f d3 bb f3 f5 f1 bd
       -0.06499671 -0.12391342 -0.0064525157 -0.11814489
000280 bf 23 25 3d a5 62 f2 bd 93 14 41 bd 28 d7 14 3d
       0.040317293 -0.11835221 -0.04713876 0.036338
000290 e2 0d cd bd e7 69 72 3c 19 5b 01 3e 9f fe e3 3b
       -0.100124136 0.014795757 0.12632407 0.0069578434
0002a0 1b 52 b6 bd e8 28 f6 3d 54 ac fa bc a8 33 6c be
       -0.08902379 0.12019521 -0.03059975 -0.2306658
0002b0 45 45 90 bd 0f ea 8a 3d 3b 20 61 3d 98 a5 55 3e
       -0.07044462 0.067829244 0.054962378 0.2086395
0002c0 e4 11 cb 3d 26 e5 59 3e 00 ca 34 3e 8d 9a a8 3e
       0.09915522 0.2127882 0.17655182 0.32930413
0002d0 14 53 94 bd 4f 00 3f 3c c0 27 2b be e3 a8 9a 3e
       -0.072424084 0.011657788 -0.16714382 0.30206975
0002e0 44 f7 18 3e 97 e0 2e 3e 81 9d 3e 3e a8 3f 54 3e
       0.14938074 0.17077862 0.1861477 0.20727408
0002f0 93 1c a2 3a 46 c8 3e 3e 11 d7 2c 3e 67 fc e4 3d
       0.0012368135 0.18631086 0.16878916 0.111809544
000300 d2 59 43 bc 97 8c 6e be c0 3e b6 be f1 95 92 be
       -0.01192327 -0.23295818 -0.3559475 -0.2863002
000310 01 b6 ac be 6b ff a7 be 2b 8a fb bd 91 58 61 3c
       -0.33732608 -0.32812056 -0.12282213 0.013754026
000320 c8 ca a7 bd 01 3a 23 3d e0 c5 80 bd cf ad 8b bd
       -0.08192974 0.03985024 -0.06287742 -0.06820261
000330 96 1f a0 3c cf 32 96 bd a3 bf 92 3d 77 eb d3 bd
       0.019546311 -0.0733391 0.07165458 -0.10347646
000340 a3 d7 8b bd 32 a1 83 bc 9c 1b ae bb 04 94 89 ba
       -0.06828239 -0.016068075 -0.00531335 -0.0010496383
000350 b8 f6 e2 3b ba d3 27 be 76 13 3e be 95 da 04 be
       0.006926384 -0.16389361 -0.18562111 -0.12974007
000360 f1 f5 50 3d e5 a6 08 3e eb 0f 24 3e 0e ff e1 3d
       0.051015798 0.13344915 0.16021697 0.11034976
000370 be f6 87 3d 8b 33 23 bc f5 8f 4a 3d f7 7a d2 bd
       0.06638859 -0.009961019 0.049453694 -0.1027736
000380 cd 16 02 bd 96 d8 57 bd 77 c8 21 3e d6 9a 90 bb
       -0.031760026 -0.052696787 0.15799128 -0.004412989
000390 7a 52 db 3b e1 75 cb bd fd 26 2c be 70 c8 3b bd
       0.0066931816 -0.09934593 -0.16811748 -0.04584545
0003a0 2a a7 de bd 41 0a 0a 3d b9 c7 a8 3d bf 5b 20 bd
       -0.10871728 0.033701185 0.08241219 -0.039149996
0003b0 d3 c0 fe bd 18 68 ba ba e4 43 4d bc 11 90 63 bd
       -0.12439122 -0.0014221696 -0.012528393 -0.055557314
0003c0 82 ee a1 bd b9 56 a9 bc 37 2e 85 3d 18 10 c2 3c
       -0.0790682 -0.020671235 0.065029554 0.023689315
0003d0 d2 9d 9b bd 71 18 83 3d 86 93 0e bc f5 2f c5 bd
       -0.07598461 0.06401146 -0.0087021645 -0.09628288
0003e0 ef 75 40 3e 35 53 0a be c1 26 57 be 4d cf 28 bd
       0.18794988 -0.13508303 -0.21010877 -0.041213322
0003f0 68 85 79 3d d2 50 ff bd 42 22 81 bd 7a 80 5b be
       0.06091824 -0.12466587 -0.06305362 -0.21435729

conv.10.bias f4 [128]
000000 d5 16 99 3d e9 e1 f4 3c b3 01 9a bb 7d 0d 88 3c
       0.07475058 0.029892879 -0.0046999096 0.016607994
000010 8a d4 0e 3d 73 c5 2c 3d 14 97 78 bd e8 1b 01 3d
       0.03487066 0.04218049 -0.060690954 0.031520754
000020 ec 57 e4 3b 8a 2f 44 bd 21 58 3d bd 0a 80 bf 3c
       0.006968489 -0.0478969 -0.046226624 0.023376483
000030 8b 8f 3d 3d be 36 51 bd 17 a6 df bc 3a be b4 3c
       0.04627947 -0.051077597 -0.027300877 0.022063363
000040 5c 73 9e 3c 76 7b 06 bd 43 06 c2 bc fa 1e 30 bd
       0.019342117 -0.032832585 -0.023684626 -0.04299829
000050 af 11 ba 3c 0e f3 c2 bc 66 4a 4a 3d 5e 7d 86 3d
       0.02271351 -0.023797538 0.049387358 0.06566881
000060 c0 0f 3a 3d 62 c3 2f 3d 76 81 ca bc db d3 34 3d
       0.045425177 0.04291094 -0.024719935 0.044147354
000070 af a3 82 3d 62 f5 1f bd 11 48 7b bd c3 cf bd bc
       0.063788764 -0.039052375 -0.061348025 -0.023170358
000080 7c a7 8c bc 63 85 25 bd 3f 10 69 bd 4c 9a 3c bd
       -0.017169707 -0.04041041 -0.05690026 -0.046045586
000090 d8 9e 8c bd 57 ba 30 3d 83 1e fd ba 6d 7e 1a 3d
       -0.068662345 0.043146458 -0.0019311461 0.037718225
0000a0 79 f4 1a bd a4 96 7d 3d c4 1d 50 ba 15 4e c2 bb
       -0.037830804 0.06191124 -0.0007939006 -0.0059297183
0000b0 1c e8 1c bd d2 71 88 3d 82 11 84 bd e3 6e 3b bd
       -0.038307294 0.066623345 -0.06448652 -0.045760047
0000c0 15 ef 7d 3d 88 4a 8e 3d e5 40 12 bd d1 f0 3f bd
       0.061995585 0.069478095 -0.03570642 -0.04686052
0000d0 d1 01 58 bd f3 29 83 3c 9e 7e 1e bd 0d 45 a3 3c
       -0.052736107 0.016011214 -0.03869497 0.019930387
0000e0 b5 89 a5 bb 6a 28 83 3b 76 3d e9 3c 6d 1e 70 3c
       -0.0050518163 0.0040026205 0.02847169 0.014655692
0000f0 35 86 c0 bc c6 13 14 bd 7e f3 a9 bd 52 82 27 bd
       -0.023501495 -0.03615167 -0.082983956 -0.040895768
000100 09 9f 57 bd fa e9 c3 bc 89 4b 15 3d 9e c7 9c 3d
       -0.052641902 -0.02391528 0.03644899 0.076552615
000110 5e c7 27 bd 10 ff 27 3d 23 26 5f bd c8 8d 91 bc
       -0.040961616 0.04101473 -0.05447973 -0.017767802
000120 ef 38 5e 3d 0a bf 59 3c bb d8 e2 bc 28 6c 68 3d
       0.054253515 0.013290176 -0.027691236 0.05674377
000130 0e 1a 8d 3d 8d 4f b1 3a cd 88 9f 3d e5 2d 69 3d
       0.06889735 0.0013527736 0.077897646 0.056928534
000140 7a 36 1b bd d3 c5 01 3d 66 c8 2e bd 9a 4c 3f bd
       -0.03789375 0.0316828 -0.042671584 -0.046703912
000150 b2 fa 91 3d b0 54 d9 bc aa 1c ea ba ff 90 72 bd
       0.071278945 -0.02652964 -0.0017861326 -0.05922031
000160 b3 b8 19 3c 63 9d ba 3c e8 0a 39 bd 6e 20 a0 3c
       0.009382415 0.022780126 -0.045176417 0.019546714
000170 1e fe 83 3d 31 9b 37 3d cd 9b 37 ba a0 39 7c 3d
       0.064449534 0.044825736 -0.0007004112 0.061578393
000180 e0 ec 02 3d 70 79 33 3b d2 18 a6 3c 7e fa a9 3d
       0.031964183 0.0027385615 0.020275507 0.08299731
000190 b1 01 75 bc b2 25 dd 3c 9d 07 22 3b a1 03 11 3b
       -0.014954017 0.026995514 0.0024723776 0.0022127407
0001a0 fb a7 0c 3d 6a 36 80 3d 27 38 4b bd f6 c6 c5 bc
       0.034339886 0.06260379 -0.049614098 -0.024142724
0001b0 b0 63 cb bc 2c c6 80 bd 52 80 6b 3b 27 52 c1 3c
       -0.024827808 -0.06287798 0.003593464 0.023598744
0001c0 9a 52 dc 3c 73 33 2d bc 9e d6 7d 3b 85 48 76 3d
       0.026894856 -0.0105713485 0.0038732658 0.060127754
0001d0 ac d7 1d bd 52 4d 09 bd df 74 b3 bc b4 3a 14 3d
       -0.03853576 -0.033521004 -0.021906314 0.036188796
0001e0 a8 04 8e 3d 30 8c 28 bd 63 cb dd 3c 4c d3 c5 bb
       0.06934482 -0.04114932 0.027074521 -0.0060371514
0001f0 96 f9 78 bc b8 7e 29 bd 17 1f 1f bd a0 5c 7d bb
       -0.015196225 -0.041380614 -0.03884801 -0.0038659945

conv.11.weight f4 [128]
000000 70 6e a0 3f 75 f2 82 3f d4 98 6d 3f 59 5b a5 3f
       1.2533703 1.0230242 0.9281132 1.2918502
000010 f0 cd 9b 3f 55 4b a6 3f 4c 45 65 3f c8 87 7a 3f
       1.2172222 1.299174 0.89558864 0.97863436
000020 da a5 c3 3f 40 03 96 3f 61 54 93 3f 48 33 9b 3f
       1.5284989 1.1719742 1.1510125 1.2125025
000030 27 b1 7d 3f 48 7a 78 3f 6d 9d a3 3f d2 a4 8e 3f
       0.9909844 0.97061586 1.2782418 1.1144049
000040 80 24 bc 3f 39 9b a2 3f 32 a9 8c 3f 51 12 6f 3f
       1.4698639 1.270362 1.0989134 0.93387324
000050 c3 4b 6a 3f d3 4c 8f 3f 0f ca 92 3f d2 1f 72 3f
       0.91521853 1.119532 1.1467913 0.94579804
000060 64 9b b1 3f f5 1f 87 3f e8 ea a0 3f 08 67 e2 3f
       1.3875546 1.0556628 1.2571688 1.7687693
000070 11 8f 99 3f cb d2 6f 3f d4 ee 9f 3f 6a bb 96 3f
       1.1996785 0.9368102 1.249476 1.1775944
000080 da 65 c8 3f b2 19 a7 3f 6d 83 7d 3f 3e dc b5 3f
       1.5656083 1.3054717 0.99028665 1.4207838
000090 a7 ea 9e 3f a5 db c2 3f 03 64 74 3f 2e 33 e8 3f
       1.241536 1.522328 0.95465106 1.8140619
0000a0 2a 1a f0 3f a9 95 a8 3f 5b f9 85 3f f6 63 dc 3f
       1.8757985 1.3170673 1.0466722 1.7218006
0000b0 e6 44 6d 3f c6 94 6e 3f 75 a9 a3 3f cb a3 9d 3f
       0.92683256 0.9319576 1.2786089 1.2315611
0000c0 6d 98 9f 3f 1f c0 87 3f a5 e6 f7 3f 1a af bd 3f
       1.2468392 1.0605506 1.9367262 1.4819062
0000d0 80 02 b7 3f 75 86 b0 3f 41 7f 83 3f 4c df b3 3f
       1.4297638 1.3791033 1.027321 1.405252
0000e0 f8 e2 e3 3f fc 76 7d 3f f8 04 7d 3f 17 24 67 3f
       1.780364 0.9900968 0.98835707 0.90289444
0000f0 28 f8 bd 3f e2 7f ab 3f 88 b3 a3 3f b6 16 f6 3f
       1.4841356 1.3398402 1.2789164 1.9225681
000100 5e 93 8a 3f 02 ee 67 3f c0 90 83 3f 8f a4 8f 3f
       1.0826223 0.90597546 1.0278549 1.1222094
000110 2a 2c 74 3f f2 1f 88 3f e3 34 cf 3f 09 bf 96 3f
       0.9537989 1.0634749 1.6188015 1.1777049
000120 8a 17 85 3f 85 52 af 3f d6 0e b0 3f 8d 35 e2 3f
       1.0397809 1.3697058 1.3754528 1.7672592
000130 a5 45 b3 3f ab 73 a0 3f 02 7b 91 3f 7b a5 92 3f
       1.4005629 1.2535299 1.1365664 1.1456751
000140 ad c6 93 3f 79 c6 6f 3f e6 cc b9 3f f8 0b f7 3f
       1.1545006 0.9366222 1.4515655 1.9300528
000150 fe ff a9 3f fa 2c 9a 3f 05 62 8f 3f ba fc 9f 3f
       1.3281248 1.2044976 1.1201788 1.2499001
000160 5c e2 9f 3f 67 fe 70 3f 03 72 78 3f de c3 8b 3f
       1.2490954 0.9413819 0.9704897 1.0919149
000170 a8 72 8c 3f ea a8 84 3f a9 79 81 3f ce 2c 83 3f
       1.097249 1.0364048 1.0115253 1.0248048
000180 03 d9 9a 3f fb 64 6a 3f 11 53 ed 3f b4 57 79 3f
       1.2097477 0.91560334 1.8540975 0.9739945
000190 7a 7e 98 3f ac d9 8d 3f aa 2d 80 3f 0d b5 ab 3f
       1.1913598 1.1082053 1.0013936 1.3414627
0001a0 6c 78 a6 3f a6 7f b1 3f 66 3d a8 3f a8 26 b4 3f
       1.30055 1.386708 1.3143737 1.4074297
0001b0 f9 c4 9f 3f 63 0a b1 3f 41 26 a1 3f b1 f3 a0 3f
       1.2481986 1.3831295 1.2589799 1.2574369
0001c0 07 c4 7c 3f 1a 72 e1 3f b1 04 72 3f 43 a6 78 3f
       0.98736614 1.7612946 0.9453841 0.97128695
0001d0 72 26 97 3f 95 89 6d 3f 5a aa a4 3f d1 24 6d 3f
       1.1808608 0.9278806 1.2864487 0.926343
0001e0 48 21 71 3f 37 fb bc 3f 53 ea 94 3f c5 92 93 3f
       0.9419141 1.4764165 1.163401 1.1529166
0001f0 42 ca af 3f 75 7c 6f 3f 1e 6c 94 3f 19 9a 79 3f
       1.3733599 0.9354928 1.1595495 0.9750076

conv.11.bias f4 [128]
000000 4e 74 67 be 1f 85 d3 bd 48 ca 62 be 6e 3d fe bc
       -0.2260296 -0.10328125 -0.22147477 -0.031035151
000010 f9 77 e9 3d 6c ee 9d 3d 72 62 4b be e0 6f ea bd
       0.11399836 0.07711491 -0.19861773 -0.1144712
000020 bf 80 c5 bb 0b 40 a8 3d 68 f5 05 3d cc 07 15 3d
       -0.0060273106 0.0821534 0.03270474 0.03638439
000030 ba ea 1e be ca 9d 33 be 57 c3 45 bf e0 53 15 3e
       -0.15519229 -0.1754066 -0.7725119 0.14582777
000040 e6 e0 4a bd 9d 9c 05 3e f3 22 b5 3d bb a6 87 be
       -0.049530886 0.13048024 0.08844557 -0.26494393
000050 56 45 8a be 3f 83 82 3d 4f e5 d1 be f7 72 16 bc
       -0.27006024 0.063726895 -0.4099526 -0.009182683
000060 90 fa 79 3e a5 53 1d be 94 ac da be 31 7b 48 3d
       0.24411988 -0.15363939 -0.42709792 0.04894561
000070 6c b9 d0 3c 67 a6 49 be 20 5e a4 3d c7 f4 1c 3d
       0.025479041 -0.19692384 0.080257654 0.038319375
000080 00 f7 0d 3d 89 eb 50 3d d0 ea 92 3b 5a 19 c2 bc
       0.034659386 0.051005874 0.0044835582 -0.02369373
000090 7e 28 47 3d bc 78 c5 3d 8f a9 50 be 56 d0 60 3e
       0.0486226 0.09642169 -0.20377181 0.21954474
0000a0 b3 90 e9 3d 34 24 6b 3d b7 b1 8c 3d 61 12 83 3d
       0.11404552 0.057407573 0.06869834 0.0639999
0000b0 9f 37 88 be 75 05 b1 be e3 77 97 3d ea 6c b5 3d
       -0.26604936 -0.34574476 0.073959135 0.08858664
0000c0 b0 d9 42 3e ec 35 27 be b8 4e dd 3a 53 b3 85 be
       0.19028354 -0.16329163 0.0016884422 -0.26113376
0000d0 1f 5d 78 3c eb 32 e9 3c 63 5e cd bd 9c 93 a1 3d
       0.015158921 0.028466662 -0.100277685 0.078894824
0000e0 5b 7c b1 3d ab 34 ee bd 2c 1b 4d be 9a 63 47 be
       0.08666297 -0.11631139 -0.20029896 -0.19471589
0000f0 ef ca 13 3e d4 d0 84 3d d5 e1 26 bb d9 26 82 be
       0.14432882 0.06485143 -0.0025464196 -0.25420263
000100 93 22 a0 be 04 5f c0 be e7 bf 51 be 8d a3 cf be
       -0.31276378 -0.3757249 -0.20483361 -0.40554467
000110 28 97 a6 be b1 a5 34 bd 0c b8 43 3d ed 74 57 3d
       -0.32537198 -0.04410333 0.047782943 0.052601743
000120 08 cc 12 be 22 ce 71 3d 98 f2 31 3d c5 b7 08 3b
       -0.14335644 0.059034474 0.043444246 0.0020861488
000130 08 66 50 3d 4e ec cf bd 83 e8 a4 bc f5 5a bf 3c
       0.050878555 -0.101524934 -0.020130401 0.023358801
000140 60 35 1c 3e 8b c5 55 be 24 73 bd 3d 7a 66 83 bd
       0.15254736 -0.20876138 0.09250477 -0.0641603
000150 e1 67 f4 3d 01 5b 29 3e dc cc 13 3c 1e 9c 98 be
       0.11933876 0.16538621 0.00902101 -0.29806608
000160 19 87 a5 3d 4f d2 86 be 6d 23 0b be 58 16 83 3d
       0.080824085 -0.26332328 -0.13587733 0.06400746
000170 cf 5a bc 3d 15 3a ce 3d b8 13 3c be fd f0 2e be
       0.09197008 0.10069672 -0.18366897 -0.17084117
000180 08 c8 c6 3d 41 ee 6e be 41 f2 8f 3d a7 86 60 be
       0.09706122 -0.23333074 0.07028628 -0.21926366
000190 53 db aa 3d 28 49 e7 be 52 1e 95 be a7 b7 04 3e
       0.08342614 -0.45173 -0.29124695 0.12960683
0001a0 a8 0c c1 3c e1 6e 0b 3e d6 ba 9d 3d 5a fb 28 bd
       0.023565605 0.13616516 0.07701652 -0.041255333
0001b0 8a 85 10 3d 91 e6 87 3d 33 2b 02 3e 52 78 1e 3d
       0.035283603 0.06635774 0.12711792 0.038688965
0001c0 17 c7 85 be ca 41 da 3d a8 91 82 be d4 b0 28 be
       -0.26128456 0.106570795 -0.25501752 -0.16473705
0001d0 81 0d 31 3c 2f e6 a3 be 51 ff 3d be 4d 1a 86 be
       0.010806442 -0.32011554 -0.18554427 -0.2619194
0001e0 3b 47 9d be 50 d8 fa bc 47 87 85 3d 8f e8 8a 3d
       -0.30718407 -0.030620724 0.06519943 0.06782638
0001f0 38 02 34 be 55 30 18 be 66 4c 01 be 71 6e bb be
       -0.17578971 -0.14862187 -0.126268 -0.36607698

conv.11.running_mean f4 [128]
000000 42 68 d3 3f 18 19 2e c0 ca 87 c9 bf b1 2c f5 be
       1.6516192 -2.7202816 -1.5744565 -0.4788566
000010 2c 4c 25 3b f9 60 b2 3e 8b 8e 67 c0 95 50 0a bf
       0.0025222404 0.3483961 -3.6180751 -0.5402921
000020 6c 91 35 40 03 f9 0c 3f 0c 04 1f 3f a0 1f 8f 3f
       2.8370008 0.5506746 0.6211555 1.1181526
000030 e3 d7 35 c0 8c ef b1 bf 41 84 bd bf 4b ab 30 be
       -2.8413017 -1.3901229 -1.4805986 -0.17252843
000040 1d 1a 0e 40 90 91 43 3f c2 cf 4e bd fb ec 19 c0
       2.2203438 0.76393986 -0.050491102 -2.4050891
000050 9b da 0c bf af c2 43 3f 4f b9 20 c0 d4 47 e9 3f
       -0.55021065 0.7646894 -2.5113103 1.8225045
000060 3d 2c 71 3e 9e a5 df bf 75 24 06 c0 f8 54 0e 40
       0.23552032 -1.7472417 -2.0959752 2.223936
000070 cb d7 15 3f 00 e8 1b c0 4b 8e a6 3f 69 0c 8e 3f
       0.585324 -2.4360352 1.3012174 1.1097537
000080 95 ee 64 be 3f cb 0b 3f c3 f1 c3 3e 37 ed 5c 3f
       -0.22356637 0.54607004 0.38270387 0.8629946
000090 6c 0e b9 3f 56 ce 0b bf 14 95 c1 bf ed a1 55 40
       1.4457526 -0.5461172 -1.512362 3.3380082
0000a0 56 cf 4a 40 d7 5a d6 bd ae 2d 09 bf 6a 7e ff 3e
       3.1689048 -0.10466545 -0.53585327 0.49901134
0000b0 90 c1 27 c0 92 cf 9b bf 81 93 85 bf 26 9d 40 bd
       -2.621189 -1.217272 -1.043564 -0.04702487
0000c0 9a 9a 3d 40 a0 35 54 3d c1 74 30 40 aa b1 2d 40
       2.9625611 0.051808953 2.757126 2.7139688
0000d0 86 92 14 3f cd f8 9a 3f 0f 94 cc bf 38 be 8c 3f
       0.5803608 1.2107178 -1.5982684 1.099555
0000e0 0c ce 83 3e 29 a9 0a c0 43 b3 bc bf 74 6a 4e c0
       0.2574314 -2.1665747 -1.4742206 -3.2252474
0000f0 ab e5 1d be 2f 9f 01 40 0f c5 a0 3d a2 85 bf 3f
       -0.15419643 2.0253408 0.07850086 1.4962656
000100 dc e1 80 bf 4e 02 0e c0 61 ed 3a c0 e8 e0 0e bf
       -1.0068927 -2.2188907 -2.9207385 -0.5581193
000110 e2 09 0b c0 2a ee e0 3f af 97 b9 bd ba a5 9d 3e
       -2.1724782 1.7572682 -0.090621345 0.30790502
000120 ac 0e 14 c0 a4 4b 20 40 7a 67 2c 40 43 a7 9e 3f
       -2.3133955 2.5046167 2.6938157 1.2394794
000130 70 66 1d 40 f4 c1 08 40 d6 1d 71 be 81 e5 6f 3f
       2.4593773 2.136838 -0.23546538 0.9370957
000140 1a 11 89 3f 59 e2 4b c0 8f 2e 19 3e 0d ce 31 3e
       1.0708344 -3.1856902 0.14959167 0.17363758
000150 11 9c 16 3e b8 4d a3 be 6a 12 82 3f cd 42 23 bf
       0.14707972 -0.31895232 1.016187 -0.63773805
000160 10 65 bf 3f 39 8a 11 c0 43 49 90 c0 47 70 6b 3e
       1.4952717 -2.2740614 -4.508943 0.22992049
000170 89 87 03 bf f9 3d e7 3d c5 4f f0 be f1 09 2c c0
       -0.51378685 0.11291117 -0.4693586 -2.6881068
000180 6a 4e 1d 40 9c 12 11 c0 49 1d 18 3f 7e a3 83 bf
       2.457911 -2.2667608 0.59419686 -1.0284269
000190 a2 c4 e5 3e 3e 69 fe 3d 22 05 97 be 98 9b 4d be
       0.4487658 0.12422417 -0.29496104 -0.20078886
0001a0 b0 a0 b3 3f a7 22 f5 3e a1 d5 35 bf 1f 56 3a 40
       1.4033413 0.47878 -0.71029097 2.9115064
0001b0 e0 7b 23 3f 9b a1 6b 40 5b 35 67 3f f2 e3 9c ba
       0.63860893 3.6817386 0.9031579 -0.0011969788
0001c0 02 75 e1 bf 1c db 73 3d 15 0d 03 c0 84 56 98 bf
       -1.7613833 0.05953513 -2.0476735 -1.1901402
0001d0 97 cb c4 3d 33 a8 ba be ce d1 2b be b9 36 ac bf
       0.09609144 -0.3645645 -0.16779253 -1.34542
0001e0 f1 f3 12 c0 cf f0 a6 3f 52 41 b5 3e 9a 24 e1 be
       -2.296139 1.3042239 0.35401398 -0.43973237
0001f0 1b 66 bd 3e e4 57 79 c0 7f 55 32 bf 9d 8b e7 be
       0.36991963 -3.8959894 -0.69661707 -0.45223704
