output/energy_cnn_20260221_204822/checkpoints/epoch_100.pt (torch, 174853 bytes, 21 tensors)

conv.0.weight f4 [32, 14, 3]
00000000: f0c5 ecbd 72fa 9bbc 89ef ba3c 77e1 fabb
00000010: 1285 ca3d 0393 abbd 1acd c0bd f0bc d73d
00000020: 06fa bdbd 9ec0 203c 4c48 b5bd cfa7 29bc
00000030: 47eb 003c b55d c7ba 98e9 22bb a867 b73c
00000040: bee3 443d 54da 7abd a12e c63c 5d24 133e
00000050: bdd8 e03b 9dd5 aa3c 9569 c1bd 69a6 ad3c
00000060: e4cd fa3e 6a2d da3e 33a2 123f 172d 59bf
00000070: 5f3e 62bf 2fe1 77bf ee84 6bbe 8b73 7bbe
00000080: f1ba 33be d06d 7dbb f730 363d 399f 07bd
00000090: 9b76 f0bd f5e2 db3d f1d8 963b e00f 8cbd
000000a0: 87aa aa3b 1881 9d3d cfcb 54be 7bc6 c23d
000000b0: 5873 a83d e86b 323e 1efc c03d f6f3 be3c
000000c0: ded3 f0bd f315 68bc b739 bfbc f8f4 3d3e
000000d0: 4051 243e d171 52be 093f 373d 4dd7 14bd
000000e0: de69 9b3d 5ca6 4c3d d6f0 863c c816 8dbd
000000f0: 58a6 063c 4083 3c3d d84d 373e d545 bfbc
00000100: 9310 bebc deed 453d d34e 44be 3782 cfbc
00000110: 02e2 91bc 722d 5f3e 1289 793e e4d5 c83e
00000120: ea9c 07bf acce 1bbf e4b6 07bf 22ea fd3c
00000130: 748c cd3d aac1 58be bfb2 703d e8e0 acbd
00000140: 0381 11bd 31b8 123d 3769 8bbd 6d76 e23d
00000150: 1ba1 ae3d 3eb8 173e 8b73 7abe a2cf 153d
00000160: 3ae9 443d 2b9a 893d 3f7d 85bc 4e42 483d
00000170: ed5c 33be 58c2 d8bd 0900 073e 0cb8 1bba
00000180: b5c2 8d3d bad7 6dbd b0be 163a 84cb ae39
00000190: fdd2 ce3c 52e7 adbc e656 8f3d 4ae1 e83d
000001a0: 117d 57bd 6d44 7abc b437 243d dd72 cabd
000001b0: cb0e 78bf 7e05 36bf ec91 68bf a4f2 223d
000001c0: 1a14 863e 1cf7 a43e 5f5a 313e 2105 2e3d
000001d0: 2ba7 8e3e bf94 06bb b759 49bc e08b 2d3d
000001e0: 82d4 34bd 8291 123e fc6a c9bd 26b2 97bd
000001f0: f80a cfbc a23e eb3d ec0b 713e b2b8 bc3c
00000200: 062d d4bd 8a3a bebd 449a ff3c 917f 733a
00000210: 39f0 d63c 0756 533d dcff dabd 4047 3d3e
00000220: ff1a cb3d 4e5a 823d 6be6 963c 3af4 a53b
00000230: f042 8bbd 7b7b 863d 5133 883d 32a7 49bc
00000240: e6e8 bc3c 09eb 033e dd62 59be 43fd 533d
00000250: 894d 3cbe 95a1 543d 00c9 963a 196e 773d
00000260: 9178 0b3e 2182 bd3d 8205 3a3e 762d 9e3e
00000270: a9dc cf3e 7dcd d63e a205 d73e 3a26 b03e
00000280: 4bc0 113e 5a25 013e 19b9 a43d 5957 9cbd
00000290: e72e 6cbd 95fa 28bc ca79 5b3d a55b 923d
000002a0: eb12 f33d 6abd 73bd 7f27 afbd fd0e 963c
000002b0: c6e4 97bd 08c9 00bd 35e2 8b3d 4111 ba3c
000002c0: 18c0 2cbc a24c 903d deca 3b3d 3fc5 94bd
000002d0: ade6 743c 3650 55ba 5199 0ebd a6fb 93bb
000002e0: 2494 32bc e482 d8bb 3aee 68bc 166d 4ebc
000002f0: 46d3 98bd 9c0b 363d b74c a93c ae6b 5d3c
00000300: 767c 003f 4fba 083f 7441 1c3f 5e5f 4f3d
00000310: cd3e 853e e91c 9d3e 29e9 863e d0d6 b93e
00000320: ea21 c33e dc73 013d 5772 843d 9d2c e5bb
00000330: c6c5 e13c 1668 0b3c 32d6 c3bc ef43 81bd
00000340: 91ea da3c 8dc2 093d 1c45 ee3b a475 c83d
00000350: 196c abbd 1503 233e 9561 dfbd 929a b23d
00000360: ab37 60bc bf0f 96bd fb78 dfbd a503 09be
00000370: e528 853d 8d09 93bd cb3a 223c 9ecd b73b
00000380: 78b4 c53c dc56 43bc d4ae edbb c7d7 15ba
00000390: 3520 393c ec5d 6c3e c184 22be 708b cf3d
000003a0: 7554 d5bd 993d 22bf 29be e23d b340 783e
000003b0: 6fa2 063e b09e edbe 24a3 12bf 6f4d 0dbf
000003c0: d481 d63e 02b5 363e f2ac c53e 810f c73d
000003d0: c109 a53d 13de c73c b525 80bc 39cf 1d3d
000003e0: 9afc 683d 8e36 ae3d 635f f93b 0edd 26be
000003f0: b46e 11be f8be 2abe 9483 753e 5a10 05bc
-0.11561191 -0.01904032 0.022819297 -0.007656272 0.098886624 -0.0837765 -0.0941412 0.10534084
-0.09276204 0.0098115485 -0.0885168 -0.01035495 0.0078685945 -0.0015210422 -0.002485847 0.022388294
0.048068754 -0.06124337 0.024192156 0.1436934 0.0068617747 0.020853812 -0.09443966 0.021197515
0.48985207 0.42612773 0.57278746 -0.84834427 -0.8837642 -0.9682798 -0.22999927 -0.24555795
-0.17551781 -0.003867019 0.04448029 -0.03311083 -0.11741372 0.10736648 0.004603498 -0.068389654
0.0052083167 0.07690638 -0.20780872 0.095105134 0.08225125 0.17423975 0.094230875 0.023309689
-0.117591605 -0.014165389 -0.02334295 0.1855048 0.1604662 -0.2055123 0.04473785 -0.03633814
0.07588552 0.04996334 0.016472261 -0.06889111 0.00821837 0.046023607 0.17900789 -0.023348728
-0.023201263 0.04832255 -0.19170694 -0.025330646 -0.017807964 0.2179468 0.24368694 0.39225686
-0.52973807 -0.6086223 -0.53013444 0.030995432 0.10036555 -0.21167627 0.058764216 -0.08441335
-0.035523426 0.03582019 -0.068071775 0.11057744 0.08526822 0.14816377 -0.24458139 0.036574967
0.048073985 0.06718858 -0.016295074 0.048891358 -0.17515917 -0.10583943 0.13183607 -0.0005940206
0.06921903 -0.05806706 0.00057504606 0.00033339497 0.025247091 -0.021228466 0.069989964 0.113710955
-0.052609507 -0.015275103 0.040092185 -0.0988519 -0.9689757 -0.7110213 -0.9084766 0.03978218
0.2618721 0.3221978 0.1731963 0.04248536 0.27861914 -0.0020535437 -0.012289456 0.042369723
-0.044147976 0.1431332 -0.09834859 -0.07407026 -0.025273785 0.11486556 0.23539704 0.023037288
-0.1036015 -0.09288509 0.03120149 0.0009288723 0.026237594 0.051595714 -0.106933326 0.18484211
0.099172585 0.063648805 0.018420419 0.0050645145 -0.06799877 0.06566521 0.06650413 -0.012307929
0.023060273 0.12882628 -0.2122912 0.0517552 -0.18388952 0.05191191 0.0011503994 0.06040773
0.13620211 0.09253336 0.18166164 0.3089406 0.40598038 0.4195365 0.41996485 0.34404165
0.1423351 0.12611905 0.08043117 -0.07633848 -0.057661917 -0.01031365 0.053582944 0.07146386
0.11868843 -0.05950681 -0.08552455 0.018317694 -0.07416682 -0.03144172 0.06830255 0.022713305
-0.010543846 0.070458665 0.045847766 -0.07264184 0.0149475755 -0.00081372575 -0.034814183 -0.004516083
-0.010899577 -0.0066074003 -0.014216954 -0.01259925 -0.07462172 0.044444665 0.020666463 0.013514442
0.5018991 0.53409284 0.61037374 0.05062806 0.26024476 0.3068612 0.26349762 0.362967
0.38111812 0.031604633 0.06467121 -0.0069938437 0.027560126 0.008508703 -0.023905847 -0.063117854
0.026723178 0.033632804 0.007271422 0.09788063 -0.08370227 0.15919144 -0.10907284 0.08720888
-0.013685147 -0.07327222 -0.10911747 -0.13380297 0.06501941 -0.07179556 0.009901713 0.0056092283
0.024133906 -0.011922564 -0.007253507 -0.0005716052 0.011299183 0.23082703 -0.15870954 0.101340175
-0.104164995 -0.6337524 0.110714264 0.24243431 0.13147901 -0.4641013 -0.5728018 -0.5519628
0.41895926 0.17842487 0.3860851 0.09719754 0.08058501 0.024397885 -0.01564298 0.0385277
0.056881525 0.08506499 0.007610248 -0.16295263 -0.14202386 -0.16674411 0.23975974 -0.008121574

conv.0.bias f4 [32]
00000000: 3162 083e b704 eb3c da85 8b3d a51a 3d3e
00000010: 9921 893e 4344 613e 9f15 f7bd 564d af3c
00000020: e7d5 273d 911c 003e a557 d73c 5c49 c23d
00000030: f140 00be 64f7 eab9 6b4e cebc 1411 dbbd
00000040: e3a4 12bd 1ee5 7a3d 160f 423e 616b 703d
00000050: 509b dc3c 860f 983e 49a8 8b3e 01ff 01be
00000060: 4abf d83d 2cfd ca3d 9279 293d d268 313e
00000070: f273 80bd 9e87 c4bb e839 173e 6142 0a3e
0.13318707 0.028688772 0.068126395 0.18467195 0.26783445 0.21998696 -0.12064671 0.021399181
0.040975478 0.12510897 0.02628691 0.094866484 -0.12524773 -0.00044816278 -0.025183877 -0.10696617
-0.03580178 0.06125366 0.18951067 0.058696155 0.026929528 0.29699343 0.2727683 -0.12694933
0.105833605 0.0991157 0.041375704 0.17325142 -0.06272115 -0.005997612 0.14768183 0.13501884

conv.1.weight f4 [32]
00000000: ab09 903f 51a5 2c3f d750 883f bc89 2d3f
00000010: f5ce 5c3f c9f2 0f3f 092a 7c3f fb66 3e3f
00000020: 04c4 e03e 170a 343f 4d65 793f 791a e63e
00000030: 4717 3d3f a33e 1c3f c0c7 273f ade4 823f
00000040: dd64 3b3f cf34 903f eba8 423f 3816 863f
00000050: 08a6 5b3f 2dba 573f 0900 493f a571 833f
00000060: 5d71 633f b09d a73f 39cb 463f 8012 163f
00000070: c4b2 593f c9b1 393f a755 3f3f 7fe9 643f
1.125295 0.6743975 1.064967 0.6778829 0.8625329 0.56229836 0.9850164 0.74375886
0.43899548 0.70327896 0.974202 0.44942072 0.73863643 0.61033076 0.6553917 1.0226036
0.7320078 1.1266116 0.76039 1.0475531 0.8580022 0.84268457 0.7851568 1.0269057
0.88844854 1.3094997 0.77653843 0.5862198 0.850384 0.72536904 0.7474007 0.89418787

conv.1.bias f4 [32]
00000000: b077 c0be f97b e6be 8b7f aebe d479 ccbe
00000010: 10d1 bdbe fb58 1fbf b710 b2be 6778 a5be
00000020: b090 78be 078c f7be 8a44 80be feb7 88be
00000030: df09 0dbf b274 a0be b263 38be 9490 aebe
00000040: 1258 ecbe f79b 14bf 2adc dcbe 928b 96be
00000050: 6b0e eebe 6222 35bf b090 31bf 1cdb 083e
00000060: c090 bdbd 8e3b 9bbe 46a2 cabe 7664 19bf
00000070: f6ff a5be 55ad 7abe 1a72 dbbe b1f2 e9be
-0.37591314 -0.4501646 -0.34081683 -0.39936697 -0.37073565 -0.6224515 -0.34778377 -0.32318422
-0.24273944 -0.4834902 -0.2505229 -0.26702875 -0.5509319 -0.3133903 -0.1800678 -0.3409468
-0.46160942 -0.58050483 -0.43136722 -0.2940336 -0.46495375 -0.7075559 -0.693614 0.13364834
-0.092561245 -0.30318874 -0.3957693 -0.59918916 -0.32421845 -0.24480183 -0.4286049 -0.4569297

conv.1.running_mean f4 [32]
00000000: 9e5b 3d3d e949 193e 540e 4abd a1b6 3c3e
00000010: 2ff7 b83e ee27 b53d dc81 6bbe 0f30 21be
00000020: ea61 a43d de61 5cbd f7c1 abbd 5aa7 5a3e
00000030: 4ea4 a6be 6480 51be 5d1d 08be a910 a6be
00000040: 53c6 3abe 528c 17bd d227 7fbd 4a27 c0bd
00000050: 583a 21be fbdd e13e d54e 3a3e 77a9 2c3e
00000060: ac74 d63c 37a3 7c3b 1804 43be 327c 043d
00000070: 369b 85be 1c31 f6bc 74eb 4f3e 6280 bb3d
0.04622995 0.149696 -0.04933007 0.18429042 0.36126086 0.088455066 -0.22998756 -0.15740989
0.08026488 -0.05380427 -0.08386605 0.21352902 -0.3254723 -0.20459133 -0.13292451 -0.32434586
-0.18239717 -0.036999054 -0.062293835 -0.09382494 -0.15744913 0.4411467 0.18194135 0.1686152
0.02617868 0.0038549432 -0.1904453 0.032345004 -0.2609498 -0.030052714 0.20304662 0.091553465

conv.1.running_var f4 [32]
00000000: 1375 c240 b8bb 4d40 8420 bd40 f009 3140
00000010: 2c7e ab40 0fa6 5e40 0971 d340 a5cc b640
00000020: 68bc 0040 0b0e fc40 df00 ec40 4f27 ce40
00000030: 735c 2141 fddb 1e41 4fec be40 1620 7041
00000040: 31dc c540 bcb0 dd40 2308 5e41 278b 3441
00000050: 7de9 0041 5c67 f040 aac8 df3f e8bd 9541
00000060: c624 0741 cac9 d840 7aaa 6241 c595 6d40
00000070: 0726 0741 8bfa 4640 2976 943f 7cae 9540
6.0767913 3.2145824 5.910219 2.7662315 5.359152 3.4788854 6.607548 5.712481
2.0114994 7.876714 7.3751063 6.4422984 10.085071 9.928708 5.9663463 15.0078335
6.183129 6.927824 13.8769865 11.283973 8.057004 7.512617 1.7483113 18.717728
8.446478 6.7746325 14.16662 3.7122662 8.446784 3.109042 1.159856 4.6775494

conv.5.weight f4 [64, 32, 3]
00000000: c7a4 953c ee23 e53d bf65 b1bd 7135 d6bd
00000010: 4514 fcbd 2868 09be 256f a3be 6bbd 90be
00000020: baa9 81be 63d0 e83c 3813 5dbd 9554 00bd
00000030: 0fd2 5cbb a15d 333e 7f7f 09be 90f2 823b
00000040: 7825 813e cbcc bbbd e10b 16bd cc91 343e
00000050: 6733 eebc 85e6 043e 64eb 03bd dfbf c63d
00000060: 9986 bb3c e67c 053d 3a2a 95bd 8b0f cd3d
00000070: a911 f13d 5cde 4e3e 35b2 37bd da7e 18bd
00000080: 939c fe39 3511 a2bb 8278 173d 00ab 073c
00000090: b1eb b23c 11af fc3d b455 6f3e c3c3 b13d
000000a0: 6b9f 383d ab39 a73d 1830 093b 92ca b53d
000000b0: 0219 60bd 63eb 223e a8f5 e43d 3c40 603e
000000c0: 3500 a33c f4ef 6abd 723c 2c3d 25fb a83d
000000d0: a727 803d 1c7d dbbd 77da 433e 51d8 9f3d
000000e0: 2825 8f3d 1d0e 78bc db62 1a3d 6084 09be
000000f0: 2b39 da3e 7f23 983e d9d3 e13e 7d20 dfbd
00000100: bcc9 1abe fd0e 14bf 2428 35be 784a e83e
00000110: e49e a5be 7b47 c5bd 09c3 b9bd 40db 91bd
00000120: 0041 2fbe e415 58be 19b6 a4be 44cc e7be
00000130: 8e98 bebe 134c 05bf f8ea b63d 2918 933e
00000140: bb6f 73be a4e5 5a3d af29 6e3e d7c5 a83d
00000150: 5231 513e 579a 143e a08a 863d f3fc 19be
00000160: 7fc3 49be 842b b33d 4335 953c eb5f ba3e
00000170: d344 bebd 9845 b4bd bb23 debd 8f54 1bbe
00000180: 8bd6 44bd b47a f43b 4b70 61bd 5b0c bb3c
00000190: 3cde ed3c 2677 9dbc 5034 c63e c421 fa3e
000001a0: 24ee 163f c878 143e 0e55 f1bc 7970 923e
000001b0: 6bf3 c53e 7af8 9e3c 7e61 2d3e 6eff 97bb
000001c0: 6e36 4cbd 2b69 9b3d 64fc 54bd 93d2 663d
000001d0: 4d10 073d e76d 003e c91e da3d e332 643e
000001e0: e96b c9bd 6cf6 d1bd c18f 573d 34cb 3e3c
000001f0: c262 aebd f8c0 5cbd fc86 0dbe b7d2 b1bd
00000200: 85d3 9dbd 4911 8dbd 306a d2bc d3ed 8dbd
00000210: e7ce f7bd d242 96be 9757 74bd e426 e9bd
00000220: 0003 6bbe d2e6 21be c1cd 08be 3341 04bd
00000230: 4d45 ccbd 4c58 38be e765 c1bd 811d d1bd
00000240: 6c71 e9bd 422a 21be fe10 59be b2e9 87bb
00000250: 5f6d f73c aafa 243d bc95 153d 7766 d33d
00000260: 8859 253e e0cb aabc 007e 603d 9853 a8bc
00000270: 0eac 9dbd 2805 203d 9132 82bd 16de 373d
00000280: ab57 d93d 8d5b ca3c ae2d 64bd a674 f03c
00000290: d27f 143e 4ff8 ff3c c833 a53d 1ff1 fb3b
000002a0: 65a6 85bd e7ac 89bb a639 693d 3d14 563e
000002b0: 9406 ef3d 1d40 a23f e793 bd3d 757a 4e3e
000002c0: c43b 093d 07d7 d2bd a931 59bd a55c 0c3d
000002d0: 7d62 5abd 1f15 d33d b559 c83b 7bbb 05be
000002e0: 37d8 91bd d0cc 6ebd 89b7 ef3c 4825 493e
000002f0: c4d3 0e3e 25c0 3e3d a946 973d cee6 de3d
00000300: fa9f 9dbd ca73 a4bd 1f85 e03c 3187 c43d
00000310: a0e9 c1bc ea51 3ebd 00d2 933e ce84 953e
00000320: 28d9 ea3e 9140 133e c77e bdbc 8f44 23be
00000330: 4800 4dbc 02e9 56bd 6188 e4bc 3be7 88bd
00000340: 1d7c c6bd 72bb 07be b610 0fbf 1353 0fbf
00000350: 304d ffbe 81bd f03d b07d 91bd cf1f 49bd
00000360: 171a 53bd bdb8 d2bd b7c9 0dbd 2627 453d
00000370: 7d07 e5bd 0232 ac3d dbeb 8fbe d314 6fbe
00000380: 2219 8cbe abf2 083d 92fe 0ebe ffb2 853d
00000390: b5de 1ebe 1f89 36be 32f2 75be 11b4 b1bc
000003a0: 3352 5ebe 10db 58be 1896 00bc 9f71 f0bd
000003b0: 5aaa 26be 0350 ddbd ace0 17be 4ec7 11bd
000003c0: 3d35 75bd a74d a9bd 8f3d 5dbd 6452 88bd
000003d0: cdff 393c d480 d6bc 4375 08bc 96a0 5e3d
000003e0: 9bb8 ae3d a4cd 27bf 7bc6 39bf df25 22bf
000003f0: 09d0 cdbd d082 adbc 2208 febd 609b 953e
0.018267049 0.11188494 -0.08661985 -0.10459412 -0.123085536 -0.13418639 -0.31920734 -0.28269514
-0.25324804 0.028419679 -0.053973407 -0.031330664 -0.003369454 0.17516185 -0.13427542 0.003996201
0.252239 -0.091699205 -0.036632422 0.17633742 -0.029077245 0.12978561 -0.032206908 0.09704565
0.02289133 0.032589816 -0.07283445 0.1001273 0.117709465 0.20202011 -0.044847686 -0.03723035
0.00048563312 -0.004945899 0.03698016 0.008280516 0.021840902 0.12338079 0.23372537 0.08679917
0.045073908 0.08165296 0.0020933207 0.08876528 -0.05471135 0.15910105 0.11179668 0.21899503
0.01989756 -0.057357743 0.042049833 0.08251027 0.06257563 -0.10717222 0.19126306 0.07804931
0.06989509 -0.015140084 0.037691932 -0.13429403 0.4262174 0.2971458 0.4410694 -0.108948685
-0.15116018 -0.5783537 -0.17691094 0.45369315 -0.32347786 -0.096327744 -0.09070403 -0.07121897
-0.1711464 -0.211021 -0.3217018 -0.4527303 -0.37225765 -0.52069205 0.089315355 0.2872937
-0.2377309 0.05344166 0.23258089 0.0824086 0.2042897 0.14512001 0.06569409 -0.15037899
-0.19703482 0.08748534 0.018213874 0.36401305 -0.09290471 -0.088023365 -0.10846659 -0.15168975
-0.048056167 0.0074609164 -0.05503873 0.02283304 0.029036634 -0.019221853 0.38711786 0.48853886
0.58957124 0.144992 -0.029459503 0.28601435 0.38662276 0.019405592 0.16931722 -0.004638604
-0.049856596 0.075884186 -0.05199851 0.056353163 0.03297453 0.12541924 0.10650403 0.22285037
-0.09835035 -0.10252079 0.05262733 0.011645127 -0.0851493 -0.053894967 -0.13821024 -0.08682769
-0.0770636 -0.068880625 -0.0256854 -0.06930127 -0.1210001 -0.29347855 -0.059653845 -0.11384371
-0.22950363 -0.15810707 -0.13359739 -0.03228874 -0.099741556 -0.18002433 -0.094432645 -0.102107055
-0.11398587 -0.15738776 -0.21197888 -0.0041477317 0.03020352 0.040278114 0.03651975 0.10322278
0.16147435 -0.020849168 0.054807663 -0.020547673 -0.076988325 0.039067417 -0.06357301 0.044889532
0.106124245 0.024701858 -0.055707626 0.029352497 0.14501885 0.031246332 0.08066517 0.007688656
-0.06525878 -0.00420152 0.056939743 0.20906158 0.116711766 1.2675816 0.09256726 0.20163901
0.033504263 -0.102949195 -0.053025875 0.03426804 -0.053316582 0.10306763 0.0061142095 -0.130598
-0.07121318 -0.058300793 0.029262321 0.19643128 0.1394797 0.046569962 0.07386524 0.10883866
-0.07696529 -0.080298975 0.027407227 0.09596098 -0.023670971 -0.046464838 0.28871155 0.29202884
0.45868802 0.14380099 -0.023131741 -0.15944122 -0.012512274 -0.052468307 -0.027897062 -0.06684729
-0.096916415 -0.13255098 -0.55884874 -0.55986136 -0.49863577 0.11754895 -0.07104051 -0.0491026
-0.051538553 -0.10289142 -0.0346162 0.048133038 -0.11183069 0.08407976 -0.2810963 -0.23347788
-0.27362925 0.03343455 -0.13964298 0.065282814 -0.15514643 -0.17825745 -0.24018171 -0.021692308
-0.21711044 -0.21177316 -0.007848285 -0.117404215 -0.16275921 -0.10806277 -0.148318 -0.035590462
-0.059865225 -0.08266764 -0.054013785 -0.0665634 0.011352492 -0.026184477 -0.008328739 0.054352365
0.085313044 -0.6554816 -0.7256848 -0.63339037 -0.10049445 -0.02118054 -0.12403895 0.29220104

conv.5.bias f4 [64]
00000000: 0804 5ebc b94d 113e 91bb 13bd 0579 b03d
00000010: 6bdd 1fbe 2821 bc3d 061a f03c 7ff2 f6bc
00000020: 8be4 413d 0ec8 4abd e055 50bd edc5 01bd
00000030: 5cab d3bc 3688 49bd 758e adbc 9e0d d53d
00000040: ff7a 103e c523 043d 6c9b de3c c19f 813c
00000050: 5e6b 2c3b c821 603c 34c1 3e3d 4c04 96bd
00000060: 562a 873d f06f 49bd 0e0a 99bd 64e0 a93d
00000070: 4b39 7ebd 8208 d23a 8d41 873d dda3 b53d
00000080: 75a1 133e 8bab 533d 9d6a 51bc babf d83b
00000090: d0d3 6ebc 69c5 2ebd 4542 663d 7f4e 983d
000000a0: 7fbf 3abd 80a6 34bd 0965 ec3c 91d6 45bd
000000b0: ca2e a2bd e016 d43d 71d8 61bd 36b8 02bb
000000c0: 4b7b c0bc 556f e43c c015 c2bc 83f0 9d3d
000000d0: 2592 adbd 2346 0abc b836 c03d 8b4a 063d
000000e0: d9bc 38bc 83fd 81bc 64e6 a03d 74af 9a3d
000000f0: b3d3 5dbd e60c e93c 64be f3ba e36f ff3c
-0.013550766 0.14189805 -0.03606755 0.08616833 -0.15611808 0.091860116 0.029309284 -0.030144928
0.047337096 -0.049507193 -0.050863147 -0.031682897 -0.025838546 -0.049202166 -0.021186093 0.10402988
0.1410942 0.032260675 0.02717372 0.015823247 0.0026309113 0.013679929 0.04657097 -0.07325038
0.06599872 -0.049179018 -0.07472621 0.08294752 -0.062066358 0.0016024264 0.066043 0.08869145
0.1441706 0.051677268 -0.012781766 0.0066146525 -0.014576867 -0.042668734 0.056215543 0.07436847
-0.04559278 -0.0441041 0.028856771 -0.04830033 -0.079190806 0.103559256 -0.055138055 -0.0019946224
-0.02349629 0.027885118 -0.023692012 0.077118896 -0.084751405 -0.008439573 0.09385437 0.032785933
-0.011275494 -0.015867954 0.078564435 0.07552996 -0.05415697 0.028448533 -0.001859617 0.031181281

conv.6.weight f4 [64]
00000000: 0f67 763f 7a75 7d3f e3c2 863f 6988 553f
00000010: 3a12 753f 3ce7 4f3f cf5b 623f aa06 6f3f
00000020: 07bf 803f 9d4d 703f 9542 703f 7fa3 583f
00000030: 684e 483f 364e 343f e630 6a3f f1ef 5a3f
00000040: a599 8c3f 766e 6f3f 1645 7f3f 0bd1 573f
00000050: b019 723f cb9f 673f 4e32 773f 36ff 823f
00000060: c529 6e3f de4a 663f a44b 843f 7bfd 893f
00000070: d92e 4e3f c26d 5e3f f21d 853f 2588 863f
00000080: 26cc 813f bab1 663f 7724 483f c9c5 753f
00000090: 959a 5d3f 048c 283f d857 803f 0332 6a3f
000000a0: bf9a 643f 674d 5d3f c810 623f 9c6c 483f
000000b0: 6ec3 713f 663a 423f a59c 4b3f 2421 973f
000000c0: 95dc 6e3f f72a 753f 13da 623f 69a0 6c3f
000000d0: bbf6 663f cd94 723f 719c 733f 013f 523f
000000e0: 8f5d 623f 6ba4 3d3f 3ed3 803f f8e2 673f
000000f0: c6cf 573f 577f 743f 3c35 653f eba5 6c3f
0.96251005 0.9900738 1.0528225 0.8341127 0.95730937 0.8121221 0.8842134 0.93369544
1.0058297 0.9386843 0.93851596 0.84624475 0.7824464 0.7043184 0.91480863 0.8552237
1.0984389 0.93527925 0.9971479 0.8430335 0.94570446 0.904782 0.96561134 1.0234134
0.93032485 0.8995799 1.0335584 1.0780481 0.80540234 0.8688623 1.0399764 1.0510298
1.0140426 0.9011494 0.7818064 0.9600492 0.86564 0.65838647 1.0026808 0.9148256
0.89298624 0.8644623 0.88306856 0.78290725 0.9443883 0.7587036 0.79535896 1.1806989
0.9330533 0.95768684 0.88614005 0.92432266 0.9022023 0.947583 0.95160586 0.82127386
0.8842401 0.74079007 1.0064466 0.905807 0.8430141 0.95506805 0.89534354 0.9244067

conv.6.bias f4 [64]
00000000: 6ee0 b7be c1c8 2abe 335f fbbe 75ef fbbe
00000010: 94ac a8be f1bb b9be dfd3 cdbe fd93 84be
00000020: 2492 c0be e8a9 babe 3649 04bf d754 8fbe
00000030: f1f3 3cbf 8082 ccbd 8d56 b3be 07d5 bdbe
00000040: 0f64 94be 5a10 aabe e31b e8be 9ecf debd
00000050: 7754 b4be 6bd1 ffbe 29c2 12be 32ca debe
00000060: 7177 09be 6f5e c2be 0ebb d3be 8bcf b1be
00000070: 6874 0abf c1cc 7ebe e693 04be ccdc 80be
00000080: 170b 1ebf 0178 efbe 868a 11be a6fa 9abe
00000090: 3bf8 89be 1aec c8be 546d e8be fc1b 01bf
000000a0: 1922 9cbe 3765 76be de46 a9be 2ab3 67bf
000000b0: 1819 84be d309 b3be 94b6 01bf 5713 8bbe
000000c0: 6ba8 bbbe 1f48 19bf 4445 93be 7abb aabe
000000d0: 53ee 85be 8942 b1be 9f7b 0bbf 0fd0 c2be
000000e0: 4b6b bfbe 9123 03bf 7f7a 93be e9dd 3abf
000000f0: 7cbd 85be e060 1ebf 994e f8be 3654 ccbe
-0.35913414 -0.16678144 -0.4909607 -0.4920613 -0.32944167 -0.362762 -0.40200707 -0.25894156
-0.37611496 -0.36457753 -0.5167421 -0.27994415 -0.73809725 -0.099858284 -0.3502697 -0.3707659
-0.2898259 -0.332156 -0.45333776 -0.108794436 -0.35220692 -0.4996446 -0.14331879 -0.43513638
-0.1342447 -0.37962672 -0.4135365 -0.34728655 -0.5408387 -0.24882795 -0.12947044 -0.25168455
-0.6173567 -0.46771243 -0.14212999 -0.30269355 -0.26947197 -0.3924263 -0.4539591 -0.50433326
-0.30494764 -0.24062048 -0.3306188 -0.9050776 -0.25800395 -0.34968433 -0.5066922 -0.27163193
-0.3665193 -0.59875673 -0.28763783 -0.33346158 -0.2615839 -0.34621075 -0.54485506 -0.3804936
-0.37386546 -0.51226145 -0.28804395 -0.7299486 -0.26121128 -0.6186657 -0.48497465 -0.39907998

conv.6.running_mean f4 [64]
00000000: ff88 e1be 8d21 413f 7179 51bf 3005 733f
00000010: 85fe 8bbf 8c29 10bf a149 80bf 15ce f8be
00000020: fffc 22bf bfdc 47bf 31c7 64bf cd5b c2bf
00000030: 6cff 443f 807b 9a3d b323 00bf 052f 15bf
00000040: cdd6 87be 0ff6 56be 7d77 80bf 2c07 f23d
00000050: cd5f 1fbf c26e 6abf 8984 acbf af11 16bf
00000060: f0da 9abe a018 22bf 0ebc a8bf 6132 0abe
00000070: ff3e 50bf ecc1 89bf 5418 87be 0748 eabd
00000080: 5e4b d8bf 3900 cbbe 9c05 ebbe a8d2 7abf
00000090: 505f 9abf d7bd 543d 2647 c0bf cb92 6bbf
000000a0: c8c2 0ebd 0348 193f 22cd 4abf 167b dbbd
000000b0: b34f c4bf 55fb 6cbf f16e 75bf d3f4 31bf
000000c0: 4129 84bf f169 e9bf 9442 46bf cf4d 3ebf
000000d0: 1fe4 35bf 3116 3dbf 2969 28bf 2231 b2be
000000e0: 5fb2 9dbe 3a2a 13bf 3257 76be 6112 173f
000000f0: 3cb0 5abf 153a 103f 6ddc 613e c6b2 483f
-0.44049832 0.7544182 -0.8182593 0.9492979 -1.0937048 -0.56313396 -1.002247 -0.48594728
-0.6366729 -0.78071207 -0.8936644 -1.5184265 0.7695224 0.07543087 -0.5005447 -0.5827487
-0.26531067 -0.20992301 -1.0036465 0.11817774 -0.62255555 -0.91575253 -1.3477947 -0.58620733
-0.3024516 -0.63318825 -1.318239 -0.1349578 -0.81346124 -1.0762305 -0.26385748 -0.114395194
-1.6898 -0.39648607 -0.45902717 -0.97977686 -1.2060337 0.051938858 -1.5021713 -0.92020863
-0.034853727 0.59875506 -0.7921926 -0.10716836 -1.5336822 -0.92571 -0.9587241 -0.695142
-1.032509 -1.8235456 -0.7744534 -0.74337476 -0.7105121 -0.73861986 -0.6578546 -0.3480311
-0.3080015 -0.5748631 -0.240567 0.5901242 -0.8542516 0.56338626 0.22056742 0.78397787

conv.6.running_var f4 [64]
00000000: 0c8f 5c3f a198 963f b6fa 893f 5499 313f
00000010: c5b9 943f 1e18 7f3f f7e9 be3f b31f a33f
00000020: c8a6 1a3f 582d 233f 5bc6 0640 ca87 3240
00000030: 622d 3d3f 7d50 b63f 7194 003f 170e bf3f
00000040: a425 ad3f 760f 9c3f 71e9 e73f 2aac c83f
00000050: 1c7a 773f 6f3d 923f 1967 d240 b7dc a13f
00000060: 8a3e c03e 3c51 483f 74d5 2440 bf65 e63e
00000070: d27c fd3e e533 7e40 d02f 2e40 e9dd a83f
00000080: db0a 3b40 a85e 0b3f 7c78 1440 f57d 7240
00000090: b8a7 d03f 3d9d 203f f4f5 1040 28d9 1640
000000a0: 3a95 df3e 7526 313f 186c 2340 97d4 743e
000000b0: 541f 9940 621e 8d3f afde 8b3f 16bc 2440
000000c0: 6c5f 2a40 3678 3340 4bf0 2c40 973b a33f
000000d0: 7f4f b93f 5943 c03f a4dd dc3f d734 6d3f
000000e0: 2267 8a3f 3542 ff3e 1825 ea3f bd58 523f
000000f0: e151 843f 34db 8e3e 5325 683f 7091 bc3f
0.8615577 1.1765329 1.0779636 0.69374585 1.1619192 0.99646175 1.491515 1.2744049
0.6041074 0.63741064 2.1058567 2.789538 0.73897374 1.4243313 0.50226504 1.4926175
1.3527112 1.2192218 1.8118116 1.567754 0.966707 1.1424998 6.575085 1.2645482
0.37547714 0.78248954 2.5755281 0.449995 0.49509293 3.9719174 2.7216682 1.3192722
2.9225376 0.5444131 2.3198538 3.7889378 1.6301184 0.62739927 2.2650118 2.3570042
0.43668538 0.69199306 2.5534725 0.23909222 4.785074 1.1024897 1.0927333 2.5739799
2.662074 2.804212 2.7021663 1.275256 1.4477385 1.5020553 1.7255139 0.9265875
1.0812724 0.498552 1.829257 0.82166654 1.0337487 0.27901614 0.9068195 1.4731884

conv.10.weight f4 [128, 64, 3]
00000000: ab23 f33c bc4e 023d ffcd f03d a563 a93d
00000010: 72ca 833d 851c 603e 74b0 053e 468b aa3e
00000020: 80f4 e03d 4d36 823e b380 ac3d c1d2 a83d
00000030: 89b8 4ebe d162 afbc 658d 9ebd 84c2 a83c
00000040: 77e9 963d 65e5 483e 9f00 abbd 413e 333d
00000050: 90c4 823d a6e3 a23d ad8c e03d b98b d33c
00000060: f7eb f2bd 2760 3cbe a93b 8a3d 3a74 99be
00000070: a6db b73d fb21 78be 2ff0 923d c159 023e
00000080: 8120 e13d 1458 8fbc dd33 533e 9352 6f3b
00000090: 3222 c63e fc04 2b3e 8e02 643c 3670 8ebc
000000a0: 21e7 243d d4c9 aa3c 82ce bd3d 1663 64bb
000000b0: 14f3 64bb 00c8 eebb affb fbbc 998a 163d
000000c0: 19d0 ff3d a25e 8c3e bb69 6c3d b305 b53d
000000d0: 39a8 a63c be19 e43d 24d2 333d 9e53 9a3d
000000e0: f497 4e3d 55e0 9f3d 9f3e ec3c 11b3 e83d
000000f0: 3c25 133e d30d 293e 00e5 333e 919f ee3d
00000100: c7db 823e 1e84 a0bd bdaa 9cbd fbe6 b8bd
00000110: dc42 82bd 1097 c83c b76c 1f3e 4aef a23d
00000120: 22ab a6be 0125 8cbe 45e0 21be e47d ad3d
00000130: 2ed1 d0bc 688e 56be 1c17 ecbe 7624 c7be
00000140: be58 adbe bfc9 323e 8051 c63d 9446 343e
00000150: 1629 d2bc 1d0f 0cbc 155f d4bd 8fe7 96bd
00000160: b433 b1bd cd19 dabe 7499 b03d 9b43 023e
00000170: 7657 1a3e 2a81 01bd f499 55bd f9d5 9d3d
00000180: c990 523e c856 7a3e e35c 4b3e 1287 4e3e
00000190: c8de 243e 4b2b 21bd 67e7 2d3d 63f4 23bd
000001a0: 6215 25be d944 bd3b e9b4 17bd a6d0 a8be
000001b0: 729f 783d 413f 8d3e 4c97 2f3e a175 903e
000001c0: dedd 663e ebf0 403e 242c 183e 3afe 49bd
000001d0: ff35 5d3d 2c7f 3e3d 5f91 d73d ac30 233e
000001e0: 4dd8 45bc b7f0 ccbc 2132 343d f9ef 7d3d
000001f0: d9e9 ad3d 73d9 ee3d 24d0 13be 1419 2ebc
00000200: 63f8 27be e89f c23d 69c0 113e 5398 0f3e
00000210: b6ce 073d 0af0 a93d 6faf c2be 2335 753d
00000220: d52c a43e 3bb2 f23e 26e3 8abe 2cfe 42be
00000230: 8943 84be e6ee f0bc f8d8 dfbb c20a a23d
00000240: d0aa c2be d915 c5bd f3e3 e5be b6aa 2b3e
00000250: 3181 323e e0cb 2e3e b0b8 e7bd d369 0abe
00000260: e084 e5bc 5586 b0bd 3b85 babd 8851 56be
00000270: 2c0c a03d ecee 153e 906d 2f3e ca68 87be
00000280: 084c 34be 1071 aabe 091c c0bd 2ec7 103d
00000290: 2258 a8bd e82e abbd 46c5 ab3d 599d 423e
000002a0: 0901 9fbd 09cf 4c3e 29ac e53d c1cd 6fbd
000002b0: 2986 e03c 404e c33d 1ae3 133d 95dd 573e
000002c0: 32cb 103e 1338 9f3e 0ccc da3e 1f11 293f
000002d0: 7145 71be 77e1 55be 47e5 a9be 4c22 c73e
000002e0: 6893 8a3e 38c0 de3e 1dda 833e 28b1 123e
000002f0: 5ca2 983d bf31 3d3e 711b 253e 2063 923e
00000300: b19f 60bd 701d d9be d6a7 cfbe 4979 4bbe
00000310: 81a6 8ebe df1f 94be f1b6 51be 9723 0cbd
00000320: 4d47 0cbe 605e b7bc 14be 09be fbc8 98bd
00000330: b126 a13d 2fcf 463c a4df c13d 23b1 7fbe
00000340: 93b6 e2bd be69 a13d 83d6 0b3d 6043 3c3d
00000350: f9bd cf3d d76f 0bbe 8cff 1abd f44d 7e3c
00000360: 6eed ffbb 90c5 5f3e 01e3 833e 2d5a 553d
00000370: 76f9 003e 290c d5bd c1ba 533c 15fb 2abe
00000380: 584e 7fbd 1b80 2abe 80e7 1fbc 8a52 3ebe
00000390: 289b c4bc e38b 3fbe ecbd 19be 3646 313d
000003a0: 63db 2ebd d4a2 0a3d d092 303e 864b dcbd
000003b0: 4fc7 30be 3381 30bb f0f6 febc 8136 593c
000003c0: 0507 36be 737b 0abd da10 433d 3587 9d3d
000003d0: d0d2 aabc 2677 7c3d c43f 13bd 2249 75be
000003e0: 8676 033e 4fab aabd 4a2a 1fbe 1314 443c
000003f0: 4308 233e 297e 04bd df84 1ebb 38a1 08bf
0.029680094 0.03181337 0.11758041 0.08270959 0.06435098 0.2188588 0.13055593 0.33309382
0.10984135 0.25432053 0.08422985 0.08243323 -0.20187582 -0.021409424 -0.077418126 0.020600565
0.07368749 0.19618757 -0.08349728 0.04376054 0.063851476 0.07953577 0.10964332 0.02582346
-0.11861413 -0.18396054 0.067496605 -0.29971486 0.089774415 -0.24231713 0.07174718 0.12729551
0.10992528 -0.017498054 0.20625253 0.0036517724 0.38697964 0.1670112 0.013916625 -0.01738749
0.040259484 0.020848192 0.09267904 -0.00348491 -0.0034934925 -0.0072870255 -0.03075966 0.03675327
0.12490863 0.2741595 0.05771802 0.08838978 0.020343887 0.111377224 0.043901578 0.0753548
0.050437883 0.0780646 0.028838454 0.11362279 0.14369673 0.1650918 0.17567825 0.116515286
0.25558302 -0.07837699 -0.07649753 -0.09028431 -0.06360409 0.024486095 0.15568815 0.07955797
-0.3255244 -0.27371982 -0.15808208 0.08471277 -0.02549037 -0.20952761 -0.4611138 -0.38895005
-0.33856767 0.17459773 0.09683514 0.17605048 -0.025654357 -0.008548525 -0.10369698 -0.07368385
-0.0865244 -0.4259781 0.08623019 0.12721102 0.15072426 -0.03161732 -0.052148774 0.07706828
0.20563044 0.24447167 0.19859652 0.20168713 0.1610061 -0.039347928 0.04245701 -0.040027987
-0.16121438 0.0057760295 -0.037037764 -0.32971686 0.060698934 0.2758732 0.17147559 0.28214744
0.22545573 0.18841903 0.14860588 -0.049314715 0.054006573 0.046508 0.10525774 0.15936536
-0.012075496 -0.025017126 0.04399312 0.061996434 0.084918685 0.11662569 -0.14434868 -0.010626096
-0.16403346 0.09503156 0.14233555 0.14022951 0.03315612 0.08297737 -0.3802447 0.05986513
0.32065454 0.47401604 -0.27126426 -0.19042271 -0.25832775 -0.02941079 -0.0068312846 0.07912208
-0.38020945 -0.09623308 -0.44900474 0.1676434 0.17432095 0.1706996 -0.11314523 -0.13516931
-0.028017461 -0.08619372 -0.09107443 -0.20929539 0.078148216 0.14641923 0.17131639 -0.26447135
-0.17607129 -0.33289385 -0.09380347 0.035346203 -0.08219935 -0.08358556 0.08387236 0.19005336
-0.07763869 0.20000853 0.112144776 -0.05854583 0.027407723 0.095364094 0.036105253 0.2108062
0.14140013 0.3109747 0.427338 0.6604175 -0.23561646 -0.2088679 -0.33182737 0.38893354
0.27065587 0.43506026 0.25752345 0.14325392 0.074528426 0.18476008 0.1612375 0.2859125
-0.054839794 -0.42405272 -0.40557736 -0.19870485 -0.27861407 -0.28930566 -0.20479943 -0.03421363
-0.13699074 -0.022383869 -0.13451415 -0.07460209 0.07868708 0.012134357 0.09466484 -0.24969916
-0.110699795 0.07881497 0.03414012 0.04596269 0.10143656 -0.13616882 -0.037841365 0.015521515
-0.0078102862 0.21852708 0.25759128 0.05208795 0.12595162 -0.1040271 0.012922944 -0.16697343
-0.062330574 -0.16650431 -0.009759784 -0.18586174 -0.023999766 -0.18705706 -0.15013856 0.04327985
-0.042689692 0.03384669 0.17243505 -0.107565925 -0.1726353 -0.0026932477 -0.031123608 0.013257624
-0.17776115 -0.033809137 0.047623493 0.07691804 -0.020852476 0.061637066 -0.035949484 -0.23953679
0.12838182 -0.08333456 -0.15543476 0.011967677 0.1592112 -0.03234688 -0.0024188084 -0.53371

conv.10.bias f4 [128]
00000000: d905 9a3d f811 ed3c acfa 683b 9440 c13c
00000010: b24a 133d 47ee 2c3d a877 7cbd a5ec d03c
00000020: 24dc 693c 5143 34bd 1a72 30bd 79e3 b63c
00000030: 4a58 6e3d 64c0 89bd 4a1f b3bc c9ea a13c
00000040: a691 473c a5a1 0bbd 8136 c1bc a485 18bd
00000050: a46e ff3c bca7 c3bc a323 513d 4efb 843d
00000060: d1b2 413d b672 2d3d 9850 c8bc 1ccc 333d
00000070: 414c 8a3d 368e 24bd 1933 7bbd 4b7a a0bc
00000080: 8243 67bc d963 24bd 9dd9 65bd 5d5f 1bbd
00000090: cd11 8ebd ef9d 473d 543d 5a38 b7ef 333d
000000a0: 7140 fabc ef8d 863d 84f1 813b 346f 903c
000000b0: 1a67 fbbc c412 823d a7f6 8bbd e8fb 31bd
000000c0: 2af2 823d a2d3 903d 13e4 3fbc 352e 1dbd
000000d0: 5ce7 4cbd a7da ca3c f209 13bd 5328 ba3c
000000e0: 3356 d53b 885a d83b 8a06 013d 0561 84bb
000000f0: b487 26bd 1507 03bd 8c74 b1bd 6c58 29bd
00000100: c54d 53bd 3b5c b7bc 37bc 1c3d 8747 9f3d
00000110: 5e51 16bd 6200 363d 90fc 2ebd b0cf 77bc
00000120: cc36 773d 3f15 da3b 3528 eabc b442 943d
00000130: a560 923d e474 2a3b 6317 a03d f59d 563d
00000140: d53a 0ebd d7f3 253d 3b14 38bd f161 43bd
00000150: 3255 9f3d 75d3 d8bc 35d2 beba c88d 62bd
00000160: d656 8e3c 546e ad3c 154d 39bd d125 863c
00000170: 3f57 803d f2cd 3f3d a845 1ebc fbd4 7d3d
00000180: a89f 063d f44c 063c f4e1 f13c ccf1 ae3d
00000190: 8884 2bbc 75a7 133c b1df 033c 134d 0d3c
000001a0: bbee 1f3d 7ee1 633d 2a89 37bd a8ea c0bc
000001b0: cddb babc 51a4 80bd 19cd 29ba ce00 cf3c
000001c0: 5fc5 053d 8cfa b7bc 6a91 1a3c dffa 8a3d
000001d0: 0e70 21bd 1c74 06bd 6be0 80bc f15a fb3c
000001e0: fd09 723d 1971 01bd 6892 d03c 6c93 4fbb
000001f0: 5d8f b5bc 32b1 2dbd 5f3c 14bd 635f de3b
0.075206466 0.028939232 0.0035549803 0.023590364 0.035959907 0.042219426 -0.06163755 0.025503466
0.014273677 -0.04400951 -0.043077566 0.022325264 0.058189668 -0.06726149 -0.021865506 0.019765275
0.012180721 -0.034089703 -0.02358556 -0.037236825 0.031180687 -0.023883693 0.051059376 0.06493245
0.047289673 0.042345725 -0.024452493 0.043895826 0.067528255 -0.040174685 -0.061328027 -0.019589564
-0.014115216 -0.040134285 -0.056115735 -0.037932742 -0.06936989 0.0487346 5.2032367e-05 0.04392978
-0.030548306 0.065700404 0.0039655585 0.01763115 -0.030688811 0.063512355 -0.068341546 -0.043453127
0.063938454 0.07071616 -0.011712092 -0.038374145 -0.05002533 0.024762465 -0.035898156 0.022724306
0.00651052 0.006602589 0.031500377 -0.004039886 -0.04065676 -0.031989176 -0.08664808 -0.04134409
-0.05158784 -0.022382846 0.038265433 0.07777315 -0.03669869 0.04443396 -0.04272133 -0.0151252
0.060354993 0.0066553648 -0.028583625 0.07239285 0.0714734 0.0026009614 0.07816961 0.052396733
-0.034724075 0.040515747 -0.04494117 -0.047700826 0.077799216 -0.026468018 -0.0014558496 -0.055310994
0.017375391 0.021170773 -0.045239527 0.016375454 0.06266641 0.046827264 -0.009660162 0.061970692
0.032867104 0.008197058 0.029526688 0.08542213 -0.01046861 0.009012093 0.008048938 0.008624333
0.03904603 0.055634968 -0.044808544 -0.023549393 -0.022809887 -0.06281341 -0.00064774003 0.025268938
0.03265893 -0.022458337 0.0094340835 0.06786131 -0.039413504 -0.032825574 -0.01573201 0.030683013
0.059091557 -0.031602 0.025460437 -0.0031673564 -0.022163088 -0.042405315 -0.036190387 0.0067862733

conv.11.weight f4 [128]
00000000: c0b5 9c3f b7fb 8a3f e35c 623f cc3c a33f
00000010: 35ff 8e3f 7b04 b43f 5abf 6d3f 2f73 6b3f
00000020: a990 b63f 8b4b 8c3f 3b45 8d3f 5920 b03f
00000030: 0b96 803f 17a2 7e3f 5f15 ae3f ec49 883f
00000040: 452b bf3f 3dfd be3f c6d7 903f 71ba 6d3f
00000050: a0a9 713f 76d1 863f 514d 913f 93d5 6d3f
00000060: c5f7 af3f b319 823f c71f 9c3f 2da2 da3f
00000070: 6158 943f ed53 6a3f bb45 923f bfe3 913f
00000080: 2111 ee3f a31c ba3f 0a2a 5f3f 731e b03f
00000090: 797c 993f 99ba c53f 9752 703f 4c88 ef3f
000000a0: caf0 f93f af69 a83f 7e6e 873f 929d ef3f
000000b0: 27b1 643f 3a09 693f 519f ae3f 20ed 983f
000000c0: adab a23f fb21 7a3f 88e6 f73f f1d0 ad3f
000000d0: 5c73 bd3f 5e37 ab3f 4ec8 863f 4a86 af3f
000000e0: de2c 0440 01ac 6c3f 1d61 7c3f d4b3 6c3f
000000f0: b910 c73f dce3 a53f 7272 a93f 88e7 f53f
00000100: 92a6 8a3f 9317 5f3f cedd 7d3f cf54 9a3f
00000110: fb62 763f 13b5 7c3f b592 0040 bd00 923f
00000120: b375 943f f94f b73f 80c9 c63f bbc6 f93f
00000130: ad23 a43f 6983 9d3f d6c9 893f 88dc 8a3f
00000140: b9f8 8c3f 53d0 683f f9bd d13f efaf 0740
00000150: 59b2 ba3f 7551 a33f 6729 983f b5d4 a13f
00000160: 6216 973f 4ae2 683f ff5f 7d3f a54e 863f
00000170: 5e9c 8b3f 739e 773f 77f8 7f3f 834c 7b3f
00000180: 0297 ad3f a4b8 593f 8014 1240 ca81 883f
00000190: 93fd 893f ed8c 893f 74f0 813f 0459 ae3f
000001a0: b54e ae3f 7893 b53f 618c bf3f 4232 b33f
000001b0: 88a5 a83f 22fe a83f fd70 973f c327 9e3f
000001c0: cd47 7c3f 9d81 fc3f 2219 683f b53d 6f3f
000001d0: b4d7 8e3f b932 6b3f 49f7 a43f fca8 5d3f
000001e0: 5c05 623f 2524 be3f 759f 943f e2ec 893f
000001f0: 894f aa3f 4ef0 7d3f 2cac 9b3f e56a 6c3f
1.2242966 1.0858067 0.88422984 1.2752929 1.1171633 1.4063867 0.92870104 0.9197263
1.4262897 1.0960554 1.1036752 1.3759872 1.004579 0.9946608 1.3600272 1.0647559
1.493508 1.4921032 1.1315849 0.9286261 0.9439945 1.0532672 1.135172 0.92904013
1.3747488 1.0164093 1.2197198 1.7080742 1.1589471 0.9153431 1.142753 1.1397628
1.8598977 1.4539989 0.8717352 1.3759292 1.1991111 1.544757 0.9387602 1.871347
1.9526608 1.3157252 1.0580595 1.8719962 0.89332813 0.91029704 1.364237 1.1947365
1.2708641 0.977081 1.9367228 1.3579389 1.480083 1.3376272 1.0529878 1.3712857
2.0652385 0.9244996 0.98585683 0.92461896 1.5551978 1.2960162 1.3238051 1.9211283
1.0832083 0.87145346 0.9916657 1.2057132 0.9624478 0.987138 2.0089543 1.1406475
1.1598419 1.4321281 1.5530243 1.9513773 1.2823387 1.2305728 1.076472 1.0848551
1.1013404 0.9094288 1.63861 2.1201131 1.4585677 1.2759234 1.1887635 1.2643038
1.1803706 0.9097029 0.98974603 1.049275 1.0907094 0.9672615 0.999885 0.9816362
1.3561709 0.85047364 2.2825012 1.0664608 1.078051 1.0746132 1.0151505 1.3620915
1.361777 1.4185629 1.4964715 1.3999712 1.3175516 1.3202555 1.1831356 1.2355884
0.9854706 1.9727055 0.9066335 0.9345353 1.1159577 0.9187427 1.2887965 0.86585975
0.8828943 1.485478 1.1611162 1.0775416 1.3305522 0.991948 1.2161918 0.9235061

conv.11.bias f4 [128]
00000000: 6fb2 bfbe 4766 4abd 876c 9fbe 6328 02be
00000010: d0c9 513d 482a a0bc 8a22 efbd 61e6 04be
00000020: cf47 83bd 9c09 d3bd 3ec0 15bc 7b0c 0bbd
00000030: 501f 17be 70d4 d9bd f0d7 72bf e79f 9c3d
00000040: f062 c9bd ebe9 8d3d f5b2 debb 8de3 a4be
00000050: 959e 09bf 87ef 3bbd b19c 22bf 86e2 d7be
00000060: 1166 6f3e 8343 7bbe 6945 22bf a4f2 6d3b
00000070: bc81 14be 652f 49be c485 18ba 38d4 e6bd
00000080: 9554 723a d91f bebc a279 6ebe f1be 84be
00000090: 6d8b 48be 205c cb3c 4f5e 84be 6906 743e
000000a0: ac22 8e3d d35a 7d3d 3814 68bf acb2 c8bc
000000b0: 1f96 a2be 7b88 dfbe 940f 163d 8072 f7bc
000000c0: a3f3 593d bdb7 2dbf 630b 76bd ade8 d4be
000000d0: bf23 97bd f75c 98bd c534 fcbd afba bf3c
000000e0: 425f 203d dd42 46be 96c2 3bbe d4e9 56be
000000f0: da73 223e 865c 0cbe 1901 35be 25a7 15bf
00000100: fd42 d1be b249 20bf 3fcb 89be ebdc f4be
00000110: 194f c5be f15f 11be a170 cb3c 14d0 84bd
00000120: aaa9 7ebe b1fb 45bd 57de 2ebe 07df a1be
00000130: f120 84ba 4152 d8be c752 d7be 97a2 95bd
00000140: 391e c03d 14b9 64be 5bc7 613c fcce 2bbe
00000150: ec35 0ebe 1139 353e 88ad 14be c198 d5be
00000160: a69d 55ba 1ffd bfbe 9433 a3bd 6a44 053c
00000170: 336c d0bd c079 8bbe 738b 7ebe 681b 4ebe
00000180: 2b13 e6bc a03a a3be 9328 7a3d dfa2 8ebe
00000190: dcfd 0dbb 14fc 01bf 448b d9be 8dad 933d
000001a0: 4a09 3dbe 9e68 8f3d c001 94bd 81fc bfbd
000001b0: 4e33 68bc d694 febc 8c40 2d3d ee5d 1cbe
000001c0: d99a 87be d612 66bd 5ac8 b9be 5bc9 99be
000001d0: 518c c8bd c2e8 e8be 5de5 f8be 9b9e c6be
000001e0: d99b cabe f9a1 b5be b873 2cbc a608 d737
000001f0: a957 82be 2cc1 b2bd 9d5b 0ebe ea33 06bf
-0.37440822 -0.049413946 -0.31137487 -0.12710719 0.051217854 -0.019551411 -0.1167651 -0.12978508
-0.06410181 -0.10304567 -0.009140072 -0.03394745 -0.14758039 -0.10636222 -0.94860744 0.076476865
-0.09833324 0.06929382 -0.0067962357 -0.32204857 -0.537576 -0.045882728 -0.6352034 -0.4216501
0.23378779 -0.24537472 -0.6338716 0.0036307955 -0.14502615 -0.19646986 -0.00058182725 -0.11270946
0.0009244171 -0.023208546 -0.23288587 -0.25926927 -0.19584437 0.024824202 -0.25853202 0.2383057
0.06940207 0.061854195 -0.9065585 -0.02449926 -0.31755158 -0.43658814 0.03663595 -0.030205965
0.053210866 -0.6785849 -0.060069453 -0.41583768 -0.07379865 -0.07439607 -0.123147525 0.023404447
0.039153345 -0.19361444 -0.18335947 -0.20987636 0.15864506 -0.1370717 -0.176762 -0.5845817
-0.4087142 -0.6261245 -0.26912877 -0.47824797 -0.3853691 -0.14196755 0.02483398 -0.06485
-0.24869409 -0.048335735 -0.17077003 -0.3161547 -0.0010080618 -0.42250255 -0.42055342 -0.07306402
0.093807645 -0.22336227 0.01378044 -0.16778177 -0.13887757 0.1769755 -0.14519322 -0.41718104
-0.00081487966 -0.37497804 -0.07968822 0.008133987 -0.10176887 -0.27241325 -0.24857883 -0.20127642
-0.028085312 -0.31880665 0.06107385 -0.27858636 -0.0021666205 -0.50775266 -0.42489064 0.072108366
-0.18460575 0.07002376 -0.07226896 -0.09374333 -0.014172388 -0.03107683 0.042297885 -0.15270206
-0.26485327 -0.056170307 -0.3628567 -0.30036435 -0.09792388 -0.4549008 -0.4861249 -0.3879288
-0.39572027 -0.35475138 -0.010525636 2.5634024e-05 -0.25457504 -0.08728251 -0.13902135 -0.52422965

conv.11.running_mean f4 [128]
00000000: 4e3a b93f 5343 f4bf be93 c4bf fa8a c8be
00000010: 5dbe 2a3e b1f0 4f3f 520a 32c0 2911 24be
00000020: 4c49 3540 24cb 133e 6d40 bc3e bd90 a43e
00000030: 55eb dabf e638 b8bf cb38 d3bf a669 653d
00000040: 15fa b93f 9534 7abe 09e7 e0be 4a60 9cbf
00000050: a315 97bf 9b7a f03d 6025 11c0 0cd5 6d3f
00000060: 0189 88be cb60 08bf 0fe6 f7bf b635 b63f
00000070: 99d2 c23e afe4 b7bf 023b a83f 5756 f03f
00000080: 4e44 06bf 9c59 533f 0d89 c1be f77d f73e
00000090: eef1 f53f fe21 0fbf 466d fdbf fe12 f33f
000000a0: 0028 e13f 38d1 1dbf 9174 88bf 34da 97be
000000b0: 8d19 c2bf 29e9 35bf 47e0 1dbf f12f 9c3e
000000c0: a578 b03f d6b3 8ebf 85e9 1240 bf24 c83f
000000d0: 7783 c33e a0e2 993f 4005 d7bf d60c cf3e
000000e0: e53c 1e3c 9b72 12c0 bb82 cbbf 0c2f 12c0
000000f0: 0c74 26bf 8027 da3f 7e6e 0b3e 0aea 26bd
00000100: 74df 97bf 1bc3 eebf 63f2 33c0 b5f5 07bf
00000110: 72ec bdbf e7dc 853f 76f0 e6be 865e 40be
00000120: a958 b0bf 0a5b e93f b7a2 f93e 9992 bb3e
00000130: 5850 1b40 dbee 1d40 4a27 f8bd de68 b73e
00000140: bc38 f73e 3c44 4ac0 ee86 da3d bd5d fabd
00000150: 42db c4be 6254 febe af08 223f 2bcd c3bf
00000160: 3995 653f 4511 e2bf f3c7 4ac0 478d 3fbf
00000170: 39f0 3ebf d340 3e3f 1f25 81bf e9e1 01c0
00000180: ad80 883f 267a fdbf 0b9f 1dbf 93dd 2fbf
00000190: 4d80 b6be 4433 59bd 6ff1 80be f7d9 5fbe
000001a0: 0c23 b13f f79f 7e3e ae92 03bf 7cbc e53f
000001b0: a393 873f 598c 2440 2056 253f 592a 2bbf
000001c0: 12ec acbf 8063 e3be 6f2c bcbf d825 02bf
000001d0: ac0c 99be 7f84 ebbe d069 42bf 51e2 12be
000001e0: 9b15 0fc0 58f5 5fbe bacc d73e b52d dbbe
000001f0: 14f0 14bc fd8e 2ec0 de64 88bf 5a93 d0be
1.4470918 -1.9083046 -1.5357587 -0.3916853 0.1667418 0.8122664 -2.78188 -0.16022171
2.8325987 0.14432961 0.36767903 0.32141677 -1.7103068 -1.4392364 -1.6501707 0.056008957
1.4529444 -0.24434121 -0.43926266 -1.2216885 -1.1803478 0.11742135 -2.2679062 0.9290321
-0.26667026 -0.53272694 -1.9367083 1.4235141 0.38051298 -1.4366664 1.3143008 1.8776349
-0.52447975 0.8255861 -0.37799874 0.4833829 1.9214456 -0.5591124 -1.9798973 1.8990171
1.7590332 -0.6164737 -1.0660573 -0.29658663 -1.5164047 -0.710589 -0.61670345 0.30505326
1.3786818 -1.1148632 2.295503 1.5636214 0.38186237 1.2022285 -1.6798477 0.4043948
0.009658073 -2.288245 -1.5899271 -2.2841215 -0.65020823 1.7043304 0.13616368 -0.04075054
-1.1865067 -1.8653291 -2.811669 -0.53109294 -1.4837782 1.0458039 -0.45105332 -0.18786058
-1.3777057 1.8230908 0.48756954 0.36635283 2.4267788 2.4677036 -0.12116869 0.35822195
0.48285472 -3.1604147 0.10670267 -0.122249104 -0.3844853 -0.49673754 0.632945 -1.5296987
0.8968082 -1.766152 -3.168454 -0.7482495 -0.745853 0.74317664 -1.0089453 -2.0294135
1.0664269 -1.9802902 -0.61570805 -0.6869747 -0.3564476 -0.053027406 -0.251842 -0.2186049
1.383882 0.24865709 -0.5139569 1.7948146 1.059193 2.5710661 0.6458454 -0.6686149
-1.3509543 -0.4441185 -1.470106 -0.50838995 -0.2989248 -0.45999524 -0.7594271 -0.14344145
-2.2356937 -0.21870935 0.4214838 -0.4280831 -0.009090442 -2.7274773 -1.0655782 -0.4073742

conv.11.running_var f4 [128]
00000000: f88d 5940 08a4 bc40 8275 f63f 6e51 1340
00000010: 64bb 1340 e3e7 2840 edd7 ba40 0768 7240
00000020: 5736 1041 8c08 0540 ef6e 6d40 8d64 4940
00000030: ba2e 3040 2c0b 2240 25c1 7540 fd79 2e40
00000040: fb2b 8840 910e 8c40 4b75 de3f 2203 b940
00000050: c947 5640 5e6d 6540 b3c7 dc40 78b6 cb3f
00000060: 84fa 5d40 7e16 3240 4018 c540 565b 0641
00000070: a5c6 f93f ecdc 7940 d7e7 f43f c9d6 1740
00000080: f836 2d40 61ba 5340 6007 fb3f f918 2340
00000090: a488 3e40 a5c7 a240 2a3c 8240 4719 1641
000000a0: 84aa 4341 2543 1340 3667 663f 2203 2740
000000b0: 85a5 8c40 5db7 d33f d906 6140 dbed e33f
000000c0: f54e e040 e2b5 7440 5fe8 b840 3ca2 bc40
000000d0: 34e6 5740 11cf e63f 69b9 8140 6e87 9640
000000e0: 671b b640 37eb e740 cb51 e240 ac52 a43f
000000f0: d6f1 7440 d4fd 3a40 d567 d73f 441e 8940
00000100: a4b9 aa40 2643 fa3f a820 1941 b77a d240
00000110: d88e 7440 a81c 0f40 096c d740 570e a140
00000120: 8dca 4640 9634 2540 cd6b b440 d113 ca40
00000130: a04d e640 5532 4940 996c bb3f cedb 7e40
00000140: 3621 6140 b232 e540 0af7 0740 246d 2b40
00000150: 47f4 5740 64a1 7340 c6da 7540 dd6e 0f41
00000160: ffec 3640 797f 8040 3d38 0841 de87 2c40
00000170: d5c5 ad3f b76d ce3f 15c0 e040 f3e1 5d40
00000180: d9ec 8d40 cd35 4940 0575 0041 a5fc bb40
00000190: 5728 d63f ab11 7e40 42a7 2b40 e9a3 1440
000001a0: 12e5 fb3f ada9 1540 326e 3140 3045 be40
000001b0: 5a15 8340 2b1d b340 1973 3b40 2c9c 6940
000001c0: a5c4 8040 da76 a840 ce4a 1840 d386 f23f
000001d0: 4949 fc3f 7181 1840 08f8 1540 0f65 0140
000001e0: 30c3 db40 5328 4940 6fc1 fb3f f3e8 2840
000001f0: 5399 8d40 b77b 8040 4cc4 db40 3ede 2540
3.39929 5.8950233 1.925461 2.301845 2.3083124 2.6391532 5.838858 3.7875993
9.013267 2.0786467 3.7098958 3.1467621 2.752852 2.5319319 3.8399136 2.7261956
4.2553687 4.376778 1.7379545 5.7816324 3.3481314 3.5848002 6.8993773 1.591506
3.4684153 2.7826228 6.15921 8.397299 1.9513747 3.904109 1.9133252 2.3724844
2.70648 3.3082507 1.9611626 2.5483992 2.97709 5.0868707 4.0698442 9.381171
12.22913 2.3009732 0.9000124 2.6095662 4.395205 1.6540333 3.516043 1.7806963
7.0096383 3.8236012 5.7783656 5.894804 3.3734255 1.8031942 4.053883 4.704032
5.690845 7.2474627 7.0724845 1.283773 3.8272605 2.9217424 1.6828562 4.2849445
5.335161 1.9551742 9.570473 6.57748 3.8212185 2.236124 6.731938 5.0330005
3.1061127 2.5813346 5.6381593 6.314919 7.1969757 3.143697 1.4642516 3.9821658
3.517652 7.1624384 2.124453 2.6785364 3.3742845 3.8067255 3.8414779 8.964566
2.858215 4.0155606 8.51373 2.6957927 1.3575999 1.6127232 7.0234475 3.4669158
4.435162 3.1439087 8.028569 5.8745904 1.6731061 3.9698284 2.6820836 2.3225043
1.9679282 2.3384812 2.7723508 5.9459457 4.0963564 5.5973105 2.9289 3.650157
4.0240045 5.2645082 2.3795657 1.8947395 1.9709865 2.3829005 2.3432636 2.0217931
6.8675766 3.1430862 1.9668406 2.639218 4.4249663 4.015102 6.867712 2.5916896
