output/energy_cnn_20260221_204822/checkpoints/epoch_80.pt (torch, 174824 bytes, 21 tensors)

conv.0.weight f4 [32, 14, 3]
00000000: 74ad ebbd 436d 91bc d127 c83c 0e09 17bc
00000010: bb27 c43d 960f b4bd a929 c1bd 6a78 d73d
00000020: b336 bfbd a52f 1f3c 6910 b1bd e135 b6bb
00000030: 5ed6 a83b bf69 a2bb b6d2 0cbc 1a18 c63c
00000040: 0dd2 463d ca68 7abd 5c74 cb3c f9ae 143e
00000050: 4183 103c 9240 6f3c ba05 c3bd 1daa 913c
00000060: 125c fb3e c566 da3e bee7 123f 46d2 58bf
00000070: e514 62bf aa90 77bf d817 68be 8458 78be
00000080: bc26 30be 2360 1bbc 2c95 2c3d efbd 07bd
00000090: cf3a f0bd dfd6 db3d 9153 853b 85fa 89bd
000000a0: 03cc 913b cb29 993d 7794 55be 5600 c13d
000000b0: 1ccd a53d cb59 2e3e 9101 b93d 3c2a 9d3c
000000c0: a517 f5bd a247 87bc 5592 d7bc f372 423e
000000d0: 1025 2a3e 3fcd 4ebe d99c 313d 7b0f 10bd
000000e0: 0f8a 9d3d 5ee6 583d a484 a73c 6cc6 88bd
000000f0: 0c1c ee3b 33e3 383d 24e9 353e 5b54 fbbc
00000100: fb53 e9bc 29a8 543d acba 47be 317c eabc
00000110: 3f43 b0bc b61d 5c3e 6a84 763e 0e1f c73e
00000120: 44b6 07bf c1e4 1bbf 6efb 07bf 07ac f73c
00000130: b5f1 c93d e786 59be ef1f 673d 06f5 b1bd
00000140: a299 14bd e354 153d 1c48 8cbd 3925 e53d
00000150: 8648 b13d 2801 193e 2c7f 79be 2c1f 153d
00000160: 8200 443d 40ec 873d 24e0 87bc 6624 463d
00000170: ecc9 34be efae d3bd 7ce6 093e 32b3 e139
00000180: 4bd5 913d 6197 68bd 7041 003b 547c df3a
00000190: 998a d13c 5d17 a8bc 5d80 913d fede ea3d
000001a0: bef6 56bd 500b 34bc 4f02 403d 4ccd d1bd
000001b0: 56cf 77bf 14e2 35bf 6948 68bf b75d 0f3d
000001c0: f99a 833e 7adb a23e 24d8 313e cba7 2f3d
000001d0: 8fd3 8e3e 3b6c 17bb 9c29 3ebc 3af5 433d
000001e0: 875f 34bd 3e12 123e fa66 c9bd e9d0 98bd
000001f0: 4ae1 d1bc 5b75 ec3d 70a8 713e bd09 bb3c
00000200: 5705 d4bd c9ae bcbd 583a 043d 0815 013b
00000210: e418 dd3c 1907 563d 7558 d9bd b653 3c3e
00000220: 333f c73d 54ad 7a3d 7854 7e3c 0c2a da3a
00000230: 49eb 8fbd 3ad9 8c3d 15ce 903d cf62 10bc
00000240: 1e43 c83c 0957 043e 35df 58be ee4c 513d
00000250: e777 3cbe 44c5 563d f46d 303b f596 803d
00000260: 1278 0c3e d224 b73d 85ba 363e d478 9c3e
00000270: 48ee cf3e bf46 d73e f93b d73e e191 b03e
00000280: df05 123e d5d6 fd3d 7608 a63d 2e02 9bbd
00000290: 6bd2 68bd 5609 42bc 4ba7 5a3d c656 913d
000002a0: 3c0c f53d ebfa 6cbd 171b abbd 34c7 6a3c
000002b0: 96cf 9fbd a5b6 10bd 0f33 833d 8d8d 9a3c
000002c0: 8c5c 68bc d770 9e3d 9ff1 543d dff4 88bd
000002d0: 1c0a 2d3c e5d0 b8bb d6b0 22bd 8b1a 94bb
000002e0: 27f5 2cbc 90e5 ddbb 2b8c 66bc c865 3dbc
000002f0: 7efa 95bd fcca 3c3d e8f4 b93c b2c7 503c
00000300: 098e 013f 24f7 093f 7b4f 1d3f 0066 483d
00000310: d06b 843e cc38 9c3e 0b47 853e c93a b83e
00000320: fc87 c13e 0d81 1c3d 8345 933d e2da 84bb
00000330: 3ded 003d 0867 4f3c b52a 99bc 54c4 84bd
00000340: 774d d33c 8536 0b3d d97b e83b 0489 c83d
00000350: 15c3 aabd 12fb 213e 4e95 e1bd c233 b03d
00000360: f54f 7dbc d0cf 99bd 6cc0 e2bd d372 08be
00000370: 8ca1 853d 1a99 93bd 9ad3 063c 6ce0 913b
00000380: 8d56 ba3c c116 59bc 2f87 06bc fb96 d7ba
00000390: e3a0 2d3c 77d3 6b3e beb3 22be 76a1 d63d
000003a0: 5d65 c5bd 411a 20bf fb0e e23d 7a80 783e
000003b0: 924b 063e d981 ecbe 7019 12bf bdc1 0cbf
000003c0: 889c d73e 8949 393e 06d1 c63e 82f4 cd3d
000003d0: 4672 b53d a360 003d 4bb5 55bc 2b74 253d
000003e0: 38ad 6c3d a6cf b03d 67de 0d3c 0503 27be
000003f0: 68fc 12be 86d7 2bbe c5c4 753e b836 a9bb
-0.11507693 -0.017752295 0.024433048 -0.009218467 0.095778905 -0.08792035 -0.09431774 0.10521014
-0.09336605 0.009715949 -0.08645708 -0.005560622 0.0051525077 -0.0049564536 -0.008595159 0.024181414
0.048540164 -0.06113509 0.024835758 0.14519872 0.008820356 0.014602797 -0.09522577 0.017781312
0.49093682 0.42656532 0.5738486 -0.8469585 -0.8831313 -0.96705115 -0.22665346 -0.24252516
-0.17202276 -0.00948337 0.04213445 -0.03314012 -0.11729967 0.10734343 0.0040688 -0.06737236
0.004449369 0.074786745 -0.20857416 0.09423892 0.08095762 0.17026441 0.09033502 0.019185178
-0.119674005 -0.01651365 -0.026314894 0.18989162 0.166157 -0.20195483 0.043362472 -0.035171013
0.07692348 0.05295407 0.02044899 -0.06678471 0.007266527 0.04513855 0.17764717 -0.030679872
-0.028482428 0.051918183 -0.19504803 -0.028623672 -0.02151644 0.21495709 0.2407395 0.3889088
-0.5301249 -0.60895926 -0.53118026 0.030233396 0.09860555 -0.21242867 0.05642694 -0.08689313
-0.03627933 0.036457907 -0.06849691 0.1118874 0.08656411 0.14941847 -0.24364918 0.03640668
0.047852047 0.06636858 -0.01658637 0.048374556 -0.17655152 -0.103361 0.13466829 0.00043048855
0.071207605 -0.05678499 0.0019570254 0.0017050602 0.025578784 -0.020518953 0.071045615 0.11468314
-0.052481405 -0.010989025 0.0468772 -0.102442354 -0.96800745 -0.7104809 -0.9073549 0.035001483
0.25704172 0.31808072 0.17367607 0.04288463 0.2789578 -0.0023105282 -0.0116066 0.04784129
-0.044036414 0.14264771 -0.09834094 -0.074617215 -0.025620122 0.11545821 0.2359941 0.022831792
-0.10352581 -0.09213025 0.032282203 0.0019696373 0.026989408 0.052252863 -0.10612575 0.18391308
0.09728851 0.061200455 0.015523069 0.0016644611 -0.07027299 0.0687737 0.07070557 -0.00881262
0.024446066 0.12923826 -0.21178897 0.051098756 -0.18405114 0.05243422 0.0026921006 0.06278793
0.13717678 0.0894257 0.17844589 0.30560935 0.40611482 0.42046162 0.42037943 0.34486297
0.14260052 0.123944916 0.081070825 -0.07568775 -0.056841295 -0.011843046 0.0533822 0.07096629
0.11965224 -0.05785648 -0.08354776 0.01432972 -0.07803266 -0.035330433 0.06406223 0.018866325
-0.014182221 0.07736366 0.05198824 -0.066873305 0.010561492 -0.0056401365 -0.039719425 -0.0045197657
-0.010556496 -0.0067717507 -0.014071505 -0.011559911 -0.07323168 0.04609202 0.022699788 0.012742924
0.50607353 0.5389273 0.614494 0.0489254 0.25863504 0.30512083 0.26030764 0.3598235
0.3779906 0.03820901 0.07190993 -0.004054413 0.031476248 0.012658842 -0.018697122 -0.06482759
0.025793774 0.03398754 0.007094842 0.09791759 -0.0833799 0.15818432 -0.11014806 0.08603622
-0.015460958 -0.0751034 -0.11071858 -0.13325052 0.06524953 -0.07206936 0.008229161 0.004451802
0.022746349 -0.013250054 -0.008210941 -0.0016448194 0.01059744 0.23029886 -0.15888879 0.10480015
-0.09638474 -0.6254006 0.110380135 0.2426776 0.13114765 -0.46192816 -0.57070065 -0.5498312
0.4211161 0.18094458 0.38831347 0.10056402 0.088596866 0.03134216 -0.013043712 0.04039399
0.05778238 0.08633356 0.008658982 -0.16309746 -0.14354098 -0.16781434 0.24000843 -0.0051639937

conv.0.bias f4 [32]
00000000: 0967 0b3e 013a f33c 3561 893d 55d7 383e
00000010: 1c4e 883e 70fc 613e b7d6 f5bd c831 a83c
00000020: 0018 2c3d 7db3 ff3d c93e ca3c dc1e c23d
00000030: 35a5 00be 0481 a2ba 36ca d0bc 3740 dabd
00000040: 45a3 13bd 1cf4 703d bbc1 423e 40db 613d
00000050: 3c1a f13c fe70 983e dc46 8c3e e1b5 01be
00000060: 81ff d43d 6e0d cb3d 250c 293d 6878 303e
00000070: f80c 86bd 6d7e e4bb 5d77 183e 8b2f 093e
0.13613524 0.029690744 0.06707994 0.18050893 0.26622093 0.22068954 -0.12003844 0.02053155
0.042015076 0.124854065 0.024688141 0.09478542 -0.12563021 -0.0012398069 -0.025487047 -0.10656779
-0.036044378 0.05882655 0.19019215 0.055140734 0.029431455 0.29773706 0.2739781 -0.12667038
0.10400296 0.09914671 0.041271348 0.17233431 -0.06545442 -0.006973079 0.14889283 0.13397042

conv.1.weight f4 [32]
00000000: a712 903f ff7b 2d3f 74dd 883f d713 2e3f
00000010: 1cf7 5c3f c7a3 0f3f 2df4 7c3f 6582 3e3f
00000020: 0e66 df3e 97e7 333f e291 7a3f d381 e63e
00000030: 908e 3d3f 40e0 1b3f 5a96 263f 47cd 823f
00000040: e1c4 3b3f 1859 903f ec9c 423f 4cde 863f
00000050: 5395 5b3f 8371 573f dea8 483f 11b8 833f
00000060: 516a 633f ac92 a73f 76a8 463f d08d 163f
00000070: 4e40 5b3f 6081 3a3f c621 3e3f 1606 653f
1.1255692 0.6776733 1.0692582 0.67999023 0.8631456 0.5610928 0.9881008 0.74417716
0.4363255 0.70275253 0.9787885 0.45020923 0.7404566 0.60889053 0.6507317 1.0218896
0.7334729 1.1277189 0.76020694 1.053659 0.85774726 0.8415758 0.7838267 1.0290548
0.888341 1.3091636 0.776008 0.5881014 0.85644996 0.7285366 0.74270284 0.8946241

conv.1.bias f4 [32]
00000000: 8675 c0be fd64 e3be 1799 acbe a0dc cabe
00000010: 74b2 bebe 5dc6 1fbf 32c3 b0be b11b a6be
00000020: f6b5 7abe 3d76 f6be 237b 7abe 006b 89be
00000030: e2cc 0bbf 8ca7 a0be 914e 3fbe 01f3 adbe
00000040: b4f5 eabe 0beb 13bf 68e8 dcbe e418 95be
00000050: 9ae3 edbe f36f 35bf dbb9 31bf 892d 083e
00000060: 2cb7 b6bd b496 99be 0c8e cabe ddde 18bf
00000070: c675 a5be 6d7e 77be e01a ddbe ed5c eabe
-0.37589663 -0.44412985 -0.33710548 -0.3962145 -0.37245524 -0.62412053 -0.34523922 -0.32443002
-0.24483475 -0.48137084 -0.24461035 -0.26839447 -0.546095 -0.31377828 -0.18682314 -0.3397446
-0.45890582 -0.5778052 -0.43146062 -0.29120553 -0.4646271 -0.70873946 -0.6942422 0.1329862
-0.08921656 -0.2999779 -0.39561498 -0.5971506 -0.32316417 -0.24169321 -0.43184566 -0.45774022

conv.1.running_mean f4 [32]
00000000: 2253 383e 90fd 093d b5e0 533d c8a0 223e
00000010: d171 7e3e cd5e 6c3e 56e6 04be e2d7 063d
00000020: c19e 603d f46f 0a3e 8a52 473c 52f9 963d
00000030: 2307 afbd 67af c53c c8b8 f5bc cac0 97bd
00000040: 5367 9fbc 19e3 d83d 280c 4f3e 5fe7 243d
00000050: 67c5 873d 1305 a13e 930e 943e 6faa 2abe
00000060: 14a7 a33d 13d8 a03d 9c3c 8a3d 609c 423e
00000070: 8548 dcbc 2c52 12bc ae5e 0a3e abe4 073e
0.18000463 0.03368908 0.05172797 0.15881646 0.24848105 0.23083039 -0.12978491 0.032920726
0.0548389 0.13519269 0.012165675 0.07371773 -0.08546283 0.02413149 -0.029995337 -0.074098185
-0.019458449 0.105901904 0.20219481 0.040259715 0.066294484 0.31449184 0.2891737 -0.16666578
0.07990852 0.07853713 0.067498416 0.19004965 -0.026890049 -0.008930724 0.1351268 0.13270824

conv.1.running_var f4 [32]
00000000: e5c6 9340 9634 4440 631e af40 07eb 2540
00000010: f0e9 9540 0f72 3d40 6291 c440 ad97 9540
00000020: b82b f63f ec88 de40 bf1d db40 6037 c240
00000030: ecc7 0d41 97d3 fd40 026b af40 28fb 4741
00000040: d512 a340 099c a940 785f 3a41 4d1a 2641
00000050: 89ff c040 8d43 ec40 c415 b13f b0b1 6d41
00000060: 017b f940 5dba c840 4f57 3e41 4597 3b40
00000070: 3fac c940 ab5c 4140 2d4c 683f fb35 8b40
4.618029 3.0657096 5.4724593 2.59247 4.684807 2.9600866 6.142747 4.674765
1.9232092 6.954214 6.847381 6.0692596 8.861309 7.932079 5.4818125 12.498817
5.096049 5.3002973 11.648308 10.381421 6.0311933 7.383246 1.3834767 14.855881
7.796265 6.2727494 11.896316 2.9311078 6.302276 3.021281 0.90741235 4.3503394

conv.5.weight f4 [64, 32, 3]
00000000: 33bd 973c 0560 e63d 31f4 b3bd 0c68 d7bd
00000010: a167 fbbd 3393 0abe bdea a1be 3e45 90be
00000020: 970a 83be d186 ea3c 1f91 6abd 405c 08bd
00000030: dfac 27bb 414d 323e 4513 0abe accb d23b
00000040: 553c 833e 147a afbd a767 1ebd b92d 3a3e
00000050: 5c5d ebbc 6ca2 033e cb91 1ebd 09ec cb3d
00000060: 050a f03c 790b 0c3d 8815 94bd 61d8 c83d
00000070: dc06 ed3d 9c44 4b3e 403c 2fbd 5a29 19bd
00000080: d121 75bb 8810 dfbb ae71 213d b23c d13a
00000090: 0f13 af3c 5c0b 013e 4538 6e3e 71f7 b63d
000000a0: 8802 3c3d 8f19 a33d 9895 a13b 5ebe b73d
000000b0: 5bb5 60bd e757 243e f048 e63d 215d 613e
000000c0: 3ac4 9c3c 1bec 71bd 97e9 203d 82d5 a93d
000000d0: 68d5 7f3d 2477 dcbd e8b6 423e 065a 9a3d
000000e0: d695 843d 4722 70bc b438 213d eb40 09be
000000f0: dc5f d93e 357b 963e 4060 e03e c22c ddbd
00000100: 598c 1bbe 0608 14bf a3d4 32be dd11 e93e
00000110: 7b38 a5be 78ac c3bd fd83 b5bd 5428 91bd
00000120: 10ed 2abe 475b 52be ccf4 a2be 2863 e4be
00000130: 6409 bbbe 8fde 03bf a7ae b83d 59dd 933e
00000140: 304e 74be b369 723d 1c1e 723e 4d5a b53d
00000150: 0165 523e ca4d 163e f749 853d b993 1ebe
00000160: 8dc9 4dbe 4e6f ad3d 4f17 6e3c 3f61 bb3e
00000170: 5696 cdbd 0609 b9bd af5e debd 4d62 1abe
00000180: 8551 4abd 0dd4 f03b 30e2 67bd 5ce9 be3c
00000190: 3c37 f23c 50a9 9bbc a77f c53e 7ed9 fa3e
000001a0: 20cc 163f 8c52 163e 2e95 f8bc 7db5 913e
000001b0: 0337 c53e ed07 b43c 6ae6 323e 397f 8639
000001c0: b40c 28bd a40f ac3d 2230 5abd d156 6e3d
000001d0: bea4 0e3d d155 fd3d fd15 c63d 9ffb 5f3e
000001e0: de1e c2bd 7138 d0bd c03a 693d 89f5 423c
000001f0: b5c2 a0bd d3a3 3abd 6e4f 0bbe 1fd7 afbd
00000200: f95c 9bbd 446e 88bd 1b7b b1bc e824 95bd
00000210: 3706 f3bd 1e5b 91be 6988 67bd d4e0 e0bd
00000220: 8b20 65be db23 19be 2d51 02be 7ce2 d8bc
00000230: 4977 c1bd 1e12 36be 892c c0bd 891f cfbd
00000240: 0958 eabd 949e 1bbe c1c8 54be b379 98bb
00000250: 9622 f03c efe6 233d adb1 203d f0a1 d63d
00000260: cb61 1d3e c30a a2bc b969 6b3d 4937 97bc
00000270: 5353 9ebd c736 183d 379b 85bd d92e 313d
00000280: 3d5b d53d 2573 bc3c 07d1 6ebd 0c06 ca3c
00000290: af70 113e 6633 0a3d 5f35 aa3d 072a 213c
000002a0: 60e7 62bd a7a1 453b c84a 7e3d 93c7 603e
000002b0: a982 fe3d d25d a23f 39d6 c13d d54d 563e
000002c0: 0ba4 303d 7b39 c6bd 62c7 37bd 813d 223d
000002d0: e384 43bd 878f d93d b91a 353c b0ce 04be
000002e0: 5b0b 8dbd 7a77 64bd 811a f83c cc3e 4d3e
000002f0: 7719 163e 106a 353d 1350 933d 5df1 d93d
00000300: a136 96bd 05df 9cbd bda9 073d 42a3 c93d
00000310: a870 babc 4849 31bd 0fa0 903e ecae 923e
00000320: ef3d e83e 383a 113e b721 bfbc face 29be
00000330: 6733 28bc afb1 5fbd fe92 eabc 5c51 81bd
00000340: e697 c6bd 0b58 07be d227 0fbf 99eb 0dbf
00000350: a0ed fdbe b8d1 ef3d 9242 8fbd 9af7 5bbd
00000360: 25e7 44bd e801 cebd 7721 0cbd 1999 403d
00000370: a699 e3bd 3d51 ab3d 5fdd 8ebe 616c 6fbe
00000380: d3f4 8bbe 0460 133d 5ba6 0cbe ffac 903d
00000390: 9166 21be a16e 35be 3575 78be 75a4 a7bc
000003a0: 29a9 5bbe 3730 56be acb1 95bb 778b e5bd
000003b0: 689f 23be fd6e e2bd 1df6 1cbe 21f8 1bbd
000003c0: 0f95 66bd eeb9 adbd db41 51bd fe95 81bd
000003d0: 6d16 7e3c 90f4 a9bc f8c4 3abc 9429 6e3d
000003e0: c3f8 ac3d bdce 27bf 564e 3abf bc0a 23bf
000003f0: 404d cbbd e221 99bc 85f6 f2bd 6957 963e
0.018522834 0.11248783 -0.0878681 -0.10517892 -0.12275625 -0.13532715 -0.31624404 -0.28177828
-0.25594017 0.028628739 -0.057267305 -0.0332911 -0.0025585217 0.17412283 -0.13483913 0.006432971
0.25631967 -0.085682064 -0.03867307 0.18181504 -0.02873104 0.12854928 -0.038713258 0.099571295
0.029301653 0.03419063 -0.07230669 0.09806896 0.11573574 0.19850391 -0.04278207 -0.03739295
-0.003740419 -0.0068073906 0.039415054 0.0015963523 0.021371393 0.1260199 0.23263653 0.089339145
0.04590085 0.07963859 0.004931163 0.089718565 -0.054860454 0.16049157 0.112443805 0.22008182
0.019136537 -0.05906306 0.03928527 0.082926765 0.06245938 -0.10764912 0.19015086 0.07536702
0.064738914 -0.01465661 0.039360717 -0.1340367 0.42455947 0.29390875 0.43823433 -0.107995525
-0.15190257 -0.5782474 -0.17463927 0.4552144 -0.32269654 -0.0955438 -0.088630654 -0.0708777
-0.16691995 -0.20542632 -0.3182739 -0.446069 -0.36530602 -0.5151147 0.09017687 0.28879812
-0.23857951 0.059182834 0.23644298 0.08855114 0.20546342 0.14678112 0.06508248 -0.15486039
-0.20096417 0.08468495 0.014531924 0.3659763 -0.1003844 -0.09034924 -0.10857903 -0.15076561
-0.04939415 0.007349497 -0.056612194 0.023304634 0.029567353 -0.019001633 0.38573954 0.48994058
0.5890522 0.14679927 -0.030344572 0.28458777 0.38518533 0.021976436 0.17470708 0.0002565326
-0.04102774 0.08401421 -0.05326856 0.058188263 0.03482508 0.12369884 0.09672163 0.2187333
-0.09478544 -0.10167015 0.056940794 0.01189936 -0.078496374 -0.04556639 -0.13604519 -0.08585953
-0.075860925 -0.066616565 -0.021665147 -0.0728243 -0.1186642 -0.2838983 -0.056526575 -0.109803826
-0.22375695 -0.14955084 -0.12726279 -0.026475184 -0.0944658 -0.17780349 -0.093834944 -0.10113437
-0.114425726 -0.15197212 -0.20779707 -0.0046531796 0.029313367 0.040015157 0.039231945 0.10480106
0.15369336 -0.019780522 0.05747387 -0.01845898 -0.077307366 0.037161615 -0.065237455 0.043257568
0.10417793 0.023004124 -0.058304813 0.024661086 0.14203142 0.033740424 0.08310961 0.00983668
-0.055396438 0.0030156167 0.062083036 0.21951132 0.12427265 1.2684882 0.09464688 0.20928128
0.043125194 -0.09678932 -0.04486788 0.039609436 -0.047734153 0.10623079 0.011053734 -0.1296947
-0.068869315 -0.055778004 0.030286076 0.20043486 0.14658152 0.044290602 0.07193007 0.106417395
-0.073346384 -0.07659725 0.03312086 0.09845592 -0.022758797 -0.043282777 0.28247115 0.2864908
0.45359752 0.14182365 -0.023331506 -0.16582862 -0.0102661615 -0.05461281 -0.028634544 -0.06314346
-0.09696941 -0.1321718 -0.55920136 -0.5543762 -0.49595356 0.117099226 -0.06995119 -0.053702928
-0.048072 -0.10058957 -0.034211602 0.047021005 -0.111132905 0.08365104 -0.27903268 -0.23381187
-0.27335224 0.03598024 -0.13735335 0.070642464 -0.15761782 -0.17717983 -0.24263461 -0.020464161
-0.21451248 -0.2091683 -0.0045682993 -0.112082414 -0.15978777 -0.110563256 -0.1532826 -0.03807843
-0.056294497 -0.08482729 -0.051088195 -0.06327437 0.015508276 -0.0207465 -0.0113995 0.05814512
0.08445885 -0.6554983 -0.7277578 -0.63688254 -0.09926844 -0.018692914 -0.11863426 0.29363564

conv.5.bias f4 [64]
00000000: 13bc 35bc e93c 113e da78 19bd d5ac af3d
00000010: abec 1fbe adcb be3d 633f e73c 4c4c f4bc
00000020: b322 3f3d 3276 46bd ef64 59bd 0ed1 03bd
00000030: 29d9 d3bc 644f 4abd 2fb1 b0bc 7ed8 d43d
00000040: bfe0 0e3e 40d4 023d 1ec6 e03c 31ad 823c
00000050: 0367 963b 8548 603c eb38 3b3d 2205 97bd
00000060: 2753 803d 6c31 49bd b320 99bd f952 a93d
00000070: b9aa 83bd a571 203b 4471 893d eabc b53d
00000080: 41db 123e 3715 4f3d eb08 61bc 52eb dd3b
00000090: 54cc 66bc 6a9c 1ebd 0959 673d 160b 9e3d
000000a0: 2c1c 36bd 7ad4 36bd 2b59 ed3c d19d 43bd
000000b0: 18db a2bd 158c d33d e162 5cbd bc7c e5ba
000000c0: 2c77 ccbc 5134 eb3c 67fc c3bc 0054 9a3d
000000d0: 418f aebd f0c3 e6bb b5b7 c03d 5796 033d
000000e0: f18d 3fbc 672b 7ebc a573 9d3d 9b8d 9c3d
000000f0: b9db 67bd 1b09 d53c a1f1 ffba 32b8 f73c
-0.011092204 0.14183392 -0.03746877 0.08577887 -0.15617625 0.09316192 0.028228467 -0.029821537
0.04666395 -0.048452564 -0.053074773 -0.032181792 -0.025860386 -0.04939212 -0.021568863 0.10392855
0.13952921 0.0319407 0.02743822 0.015951725 0.0045899167 0.013689165 0.045708578 -0.07374026
0.0626586 -0.049119398 -0.0747694 0.08267779 -0.06429047 0.00244818 0.06711057 0.08873923
0.14341451 0.05055734 -0.013735036 0.006772437 -0.014086802 -0.038723387 0.056481395 0.07716958
-0.04446046 -0.044636227 0.028973183 -0.047757927 -0.07951945 0.10329453 -0.053805236 -0.0017508487
-0.02495917 0.02871147 -0.023924066 0.07535553 -0.08523417 -0.0070424005 0.09410039 0.032125797
-0.011691556 -0.015513278 0.07688073 0.076441966 -0.05660603 0.026005318 -0.0019526967 0.030239198

conv.6.weight f4 [64]
00000000: 3fff 773f 37ae 7e3f 14b8 863f ab15 563f
00000010: 2472 743f 61b3 4f3f a719 623f 7179 6f3f
00000020: eadd 803f 2a3c 703f 1301 713f 77a4 583f
00000030: 46f4 483f 951c 353f b030 6d3f a376 5a3f
00000040: 33d2 8c3f 2234 6f3f f831 803f 400b 593f
00000050: 0719 733f 838a 683f e5da 773f f305 833f
00000060: 68f2 6e3f 46ee 663f 656b 843f 4764 8a3f
00000070: c3d1 4f3f 0ef1 5f3f c1e8 843f e234 873f
00000080: 504f 823f 7292 673f a811 483f 0dff 753f
00000090: 2b31 5c3f dec7 293f 6ba9 803f bb78 6a3f
000000a0: 60a5 643f 59d4 5e3f 4c23 623f 7ba1 483f
000000b0: fced 713f 0088 413f 3330 4c3f 4643 973f
000000c0: 010f 703f 6e68 763f b036 643f 7fdd 6b3f
000000d0: fe20 673f fb7d 743f 67ea 733f 6119 533f
000000e0: 3d95 623f 6df2 3e3f 46b2 813f 63a8 693f
000000f0: 6e06 593f b2e0 743f 8f99 653f f028 6d3f
0.9687385 0.9948458 1.0524926 0.8362681 0.95486665 0.81133085 0.8832039 0.9354468
1.0067723 0.93841803 0.94142264 0.84625953 0.7849773 0.7074674 0.92652416 0.85337275
1.1001648 0.93438923 1.0015249 0.8478279 0.94960064 0.9083635 0.9681838 1.023619
0.9333863 0.90207326 1.0345274 1.0811852 0.81179446 0.87477195 1.0383531 1.0563014
1.0180454 0.9045783 0.7815194 0.960923 0.86012524 0.663206 1.0051702 0.9159047
0.8931484 0.87042767 0.8833511 0.783714 0.9450376 0.75598145 0.79761046 1.1817405
0.93772894 0.962531 0.89145947 0.9213485 0.9028472 0.9550473 0.95279545 0.824606
0.8850897 0.7458866 1.013253 0.9127256 0.84775436 0.9565536 0.89687437 0.9264059

conv.6.bias f4 [64]
00000000: cb7a b3be 7bc5 28be 9b6b fabe d59d f9be
00000010: 04fe a8be 8793 b9be 5f01 cbbe f1ad 83be
00000020: 77a2 bfbe 2df8 b8be ed3e 03bf ecc7 8ebe
00000030: 906f 3bbf c62c cbbd b8fb adbe 795b bebe
00000040: f0e3 92be 3c5b a8be fb9c e3be 7d22 d9bd
00000050: f281 b0be 5837 fdbe ccb9 0ebe 3cba dcbe
00000060: bd15 07be b7e3 bfbe a338 d3be 9618 b0be
00000070: 4ded 08bf c6de 79be ec5e 03be 3d74 7dbe
00000080: 5a1c 1dbf 4652 edbe 90a8 0ebe bf4f 99be
00000090: 6f45 8cbe 3fbd c5be 79b3 e5be ec69 00bf
000000a0: 1549 9cbe 1851 6fbe 5e69 a7be 2cdc 66bf
000000b0: 309d 83be 4dde b1be be1b 01bf 3948 89be
000000c0: 9d2e b9be 1c14 18bf d28d 90be 89a2 a9be
000000d0: acc7 83be f4ac acbe d316 0bbf da73 c1be
000000e0: ad92 bebe d45e 01bf 5e38 90be 45a4 38bf
000000f0: b462 82be 8e0b 1dbf 4515 f7be a287 c9be
-0.3505462 -0.16481583 -0.4891022 -0.4875323 -0.330063 -0.36245367 -0.39649484 -0.25718644
-0.37428638 -0.36126843 -0.5126789 -0.27886903 -0.73217106 -0.09920649 -0.3398111 -0.37179163
-0.28689528 -0.32882106 -0.44455704 -0.10602281 -0.3447414 -0.49456286 -0.13938063 -0.43110836
-0.13191886 -0.3747842 -0.41254148 -0.34393758 -0.5348709 -0.24401388 -0.12829179 -0.24751373
-0.61371386 -0.46351832 -0.13931489 -0.29943654 -0.27396724 -0.38620946 -0.4486349 -0.50161624
-0.30524507 -0.23370779 -0.32697576 -0.90179706 -0.25705862 -0.34739915 -0.50432956 -0.26812914
-0.36168376 -0.59405684 -0.282332 -0.33131817 -0.25738275 -0.33725703 -0.543317 -0.377837
-0.3722128 -0.5053532 -0.28168005 -0.72125655 -0.2546593 -0.61345756 -0.48258415 -0.39361292

conv.6.running_mean f4 [64]
00000000: c6dc cbbe 3bda 473f 5d40 56bf dcc1 7d3f
00000010: c640 8dbf d170 0ebf 5f61 92bf 184a d1be
00000020: 4431 2dbf 7ced 4ebf f44d 64bf 9dda c8bf
00000030: 3baf 513f 4942 253e c2cc 07bf 9361 21bf
00000040: 88eb 98be 8be8 01be 2cf0 81bf 2f09 9e3d
00000050: 2883 2bbf ec92 68bf a502 adbf eb5d 1fbf
00000060: 3995 9ebe c21b 24bf 51a8 afbf 0f42 e3bd
00000070: 2b55 54bf 108e 8dbf ee94 b4be 8124 87bc
00000080: b8a9 ddbf 7c3f d8be 2f2b 09bf 6d42 81bf
00000090: 1755 a0bf 8729 da3d 7d6c d0bf b959 6cbf
000000a0: 82f1 f53c 3d61 223f 3b29 55bf b24d 79bd
000000b0: 7c9b c6bf 082e 79bf e2ee 84bf 7261 4dbf
000000c0: 2e70 8abf cb69 f1bf 70ee 57bf 2d8a 38bf
000000d0: 5670 3fbf 82b6 52bf 2cb5 2abf a958 98be
000000e0: a0b7 9fbe a318 08bf 913d 39be 8f4f 223f
000000f0: 829f 64bf 5152 173f 6184 663e d737 5c3f
-0.39816874 0.7806737 -0.8369196 0.9912393 -1.1035392 -0.55640894 -1.1435965 -0.40876842
-0.676533 -0.8083112 -0.8918145 -1.5691715 0.81908005 0.16138567 -0.5304681 -0.6303951
-0.29867196 -0.12686364 -1.015142 0.077165954 -0.66997004 -0.90849185 -1.3516432 -0.6225268
-0.30973223 -0.64104855 -1.3723241 -0.11096584 -0.82942456 -1.1058979 -0.35269874 -0.016496899
-1.7317419 -0.42235935 -0.5358152 -1.0098397 -1.2525967 0.10652452 -1.6283108 -0.92324406
0.030022386 0.63429624 -0.8326604 -0.06086511 -1.55162 -0.97335863 -1.0385401 -0.80226815
-1.0815485 -1.886041 -0.843482 -0.7208584 -0.74780786 -0.82309735 -0.66682696 -0.29755142
-0.31194782 -0.5316259 -0.18089892 0.63402647 -0.8930589 0.5910998 0.22511436 0.86022705

conv.6.running_var f4 [64]
00000000: 4ecd 643f 3510 963f 94da 813f 375f 393f
00000010: 2f72 8a3f 6f1d 743f dd6a e93f 74da ab3f
00000020: 3d8f 2b3f 52af 0b3f 22e8 0240 f251 1940
00000030: 4b29 413f bf7b c93f 8400 073f dd09 d03f
00000040: 6e49 ab3f 93e7 973f 8fc1 d63f 78c5 d53f
00000050: b186 843f b907 863f 5245 be40 660f b93f
00000060: 648e ca3e 8330 3b3f b511 2240 f399 e93e
00000070: 5f0f f93e 2c67 6840 b942 4740 9996 ba3f
00000080: 21dd 3140 cb45 1a3f f84f 2040 b535 6440
00000090: 1860 cc3f aabb 483f 0951 1b40 47a2 0f40
000000a0: 507d 123f 889d 3b3f 961e 2540 6c54 ad3e
000000b0: 9182 8b40 b509 8d3f 4e65 8d3f a594 4240
000000c0: b569 1e40 b5b9 2a40 f8d5 2f40 4328 a33f
000000d0: fbd0 cd3f 943e c73f 426e e03f 0fbf 573f
000000e0: 239e 883f b69d fa3e 2986 f93f 6027 6c3f
000000f0: b421 803f 5fa6 953e e797 813f a298 c33f
0.8937577 1.1723696 1.014483 0.7241091 1.0816096 0.9535741 1.8235737 1.3426042
0.6701544 0.5456439 2.0454183 2.3956265 0.75453633 1.5740889 0.5273516 1.625301
1.3381784 1.1867546 1.6777819 1.6700888 1.0353605 1.0471107 5.945962 1.4457824
0.3956176 0.731209 2.5323308 0.45625266 0.4864454 3.631297 3.1134474 1.4577209
2.7791216 0.60262746 2.504881 3.565778 1.5966825 0.7841135 2.426821 2.2442796
0.5722246 0.7328725 2.5799918 0.3385347 4.3596883 1.1018587 1.1046541 3.0403225
2.4752018 2.6675847 2.7474346 1.2746662 1.6079401 1.5565972 1.7533648 0.8427591
1.067326 0.4894845 1.9494067 0.9224758 1.0010285 0.29228494 1.0124482 1.5280955

conv.10.weight f4 [128, 64, 3]
00000000: 23f4 fe3c 2917 013d eede ff3d 6e8e c43d
00000010: 5f38 8c3d 9cd8 623e 7612 013e 9fc4 ac3e
00000020: a688 de3d 1067 7f3e a3e5 b63d 1af6 b23d
00000030: 1ab2 5cbe a01f 03bd 26e8 b1bd 415d 8a3c
00000040: 97ce 933d f203 443e acdd 92bd 0c3f 603d
00000050: 3245 a53d 8076 a03d 1a78 e63d c714 d13c
00000060: f9d8 eebd b08c 32be 23ef 993d c9ba 9abe
00000070: fff9 c13d 0a85 72be 4692 893d c41c f93d
00000080: 40c0 d93d 7391 44bc 4670 5c3e 8f45 b53c
00000090: e17b c83e dba5 303e 6de0 8f3c 6628 15bc
000000a0: 977b 3b3d f78a cd3c f154 d23d f325 9cbb
000000b0: 222e 0fb9 98b3 82bc 959d 01bd 1827 0d3d
000000c0: 9077 e93d 4565 863e 2385 2f3d 12d4 b33d
000000d0: e331 a43c d983 e03d 287b 1d3d d36b 963d
000000e0: 4fcf 353d 223a b03d 0e88 083d 063a ef3d
000000f0: 8a36 143e 8b6b 233e a91d 2f3e ec94 d53d
00000100: 6d4f 823e c1dd aabd 777d 9dbd 07e1 b2bd
00000110: acc4 62bd 3d50 dc3c 5566 243e 0c22 a13d
00000120: 07a1 a1be cd9d 8dbe 508f 25be 538c b53d
00000130: 274a d3bc 0677 59be 1ea4 f0be 6263 c9be
00000140: 153e afbe dd69 2d3e 403a c53d 9eb0 363e
00000150: 2acd 10bd 1e89 86bc 2df6 e1bd c1b2 94bd
00000160: 2a8f babd fffe d8be 0565 af3d c2a4 013e
00000170: 827d 173e 275f f7bc 010c 5bbd 39b2 9b3d
00000180: b100 523e 987c 7a3e 31a6 4b3e d927 543e
00000190: 8f07 2b3e 7525 1abd d3a0 333d 1c2f 08bd
000001a0: c94a 24be 8c2f 573a 9a34 2ebd ceb7 acbe
000001b0: 79bc 7b3d a061 8d3e a1ed 2f3e 198f 903e
000001c0: f643 6a3e b34b 403e 8c9a 1a3e cb16 50bd
000001d0: e42f 623d e76c 233d 5d0a cc3d d7e8 1a3e
000001e0: bbd4 26bc 8853 b7bc c50b 393d dd61 723d
000001f0: bae3 b63d 39b9 ef3d e700 0fbe 8f88 54ba
00000200: aabf 22be f714 c03d c29e 0f3e fc56 0a3e
00000210: 43d6 093d 35df a43d b88a c1be 1838 813d
00000220: 0c03 a93e 8688 f33e 3aee 85be 85dc 37be
00000230: 184c 80be 8145 a7bc 86f5 c4ba 125c b23d
00000240: 8000 c3be 3afd d4bd b13b e6be a9d0 2c3e
00000250: 5b54 333e 6928 2d3e 0bea e0bd 6b9c 09be
00000260: 0718 b1bc d482 aabd 0afd a8bd 2133 5bbe
00000270: 8292 a53d fa53 1a3e 425c 3c3e a82a 89be
00000280: 49a3 39be b1c2 b0be d75e c2bd 4eca e73c
00000290: 81cb babd fdc8 8fbd ad67 cf3d f0d2 4a3e
000002a0: c950 a2bd 0270 493e 6e8b dd3d 296c 84bd
000002b0: 99a0 083d fa59 d13d 40d9 0e3d 32bc 563e
000002c0: 5411 133e 5e01 9b3e 386e db3e c2f4 273f
000002d0: 95fb 66be 7423 49be 93c8 a8be 6f53 c33e
000002e0: 2dca 8b3e ae6a da3e 8e18 853e 86fd 193e
000002f0: 1771 a13d f8f1 413e 7a9c 293e d29a 933e
00000300: f254 64bd 77d3 d4be 4b0d d0be 9a97 4ebe
00000310: 337f 90be 7724 96be 3d9c 4fbe db40 04bd
00000320: efbc 0ebe 72e2 b4bc fc45 09be 2fd8 97bd
00000330: b7ca 9a3d 60c5 7d3c a56f be3d 2d83 7ebe
00000340: 7673 e3bd 0729 a43d 7062 0a3d d0e1 433d
00000350: 9005 c83d 46a0 10be f04d 30bd 1da6 ec3b
00000360: 0675 35bc d1c6 5e3e 16b7 843e 557d 4e3d
00000370: 2cb8 033e e0ec d0bd 8541 623c 24f1 28be
00000380: e2d1 79bd bdb7 27be db46 edba 0d1c 40be
00000390: a81b adbc bfd7 3fbe e520 1cbe 0352 073d
000003a0: d00e 5abd 5746 c23c 03aa 2f3e 7eb1 d8bd
000003b0: c3d5 30be 69d9 4dbb 5f4b f7bc 61f4 713c
000003c0: b6fd 34be dc79 f9bc c795 493d 3b43 9a3d
000003d0: 2eac b8bc 0f07 763d 3a4f 2dbd ade7 77be
000003e0: c558 053e da65 abbd 4333 20be 92eb 2e3c
000003f0: ab26 223e 06ee 02bd f910 9abb d4e0 08bf
0.031122273 0.031516228 0.12493692 0.09597479 0.068466894 0.22152942 0.12604699 0.3374376
0.10865907 0.24941659 0.089305185 0.087383464 -0.21552315 -0.03201258 -0.08686857 0.01689017
0.07217138 0.1914213 -0.07171187 0.054747626 0.080698386 0.07835102 0.11253376 0.025522603
-0.11662478 -0.1743648 0.07516315 -0.3022063 0.09471511 -0.23683563 0.067173526 0.1216369
0.10632372 -0.011997568 0.21527204 0.022127895 0.39157012 0.17250769 0.01756307 -0.00910387
0.04577216 0.025090678 0.102701075 -0.004765266 -0.00013654729 -0.015954778 -0.031644423 0.03446111
0.11399758 0.26249138 0.04285158 0.087806836 0.02004332 0.10962648 0.03844753 0.073447846
0.044387158 0.08604838 0.033332877 0.11680989 0.1447393 0.15958993 0.17101158 0.10428795
0.25451222 -0.083430775 -0.07689946 -0.08734327 -0.055363342 0.02689373 0.16054662 0.07867822
-0.31568167 -0.27659455 -0.1616795 0.08864655 -0.025792195 -0.2123681 -0.4700021 -0.39333636
-0.34227052 0.16934915 0.09630251 0.17840812 -0.03535191 -0.016422804 -0.110332824 -0.07260657
-0.09109338 -0.42382047 0.0856419 0.12660506 0.14793971 -0.03019674 -0.053478245 0.07602353
0.20508076 0.24461591 0.19887616 0.20718326 0.16702102 -0.037633378 0.043854546 -0.033248052
-0.16044153 0.0008208684 -0.042530634 -0.33733982 0.06145904 0.27613544 0.17180492 0.28234175
0.22877488 0.18778877 0.15098017 -0.050802987 0.055221453 0.03989878 0.09962914 0.15127884
-0.010182555 -0.022378698 0.04517724 0.05917536 0.08930154 0.1170525 -0.13965188 -0.0008107507
-0.15893427 0.09378999 0.14025405 0.13509744 0.0336516 0.08050386 -0.37801147 0.06309527
0.33010137 0.47565097 -0.26158315 -0.17955215 -0.25058055 -0.020418884 -0.0015026785 0.08708967
-0.3808632 -0.10399862 -0.44967416 0.16876473 0.17512648 0.16909947 -0.1098214 -0.13438575
-0.021617902 -0.08325735 -0.08251388 -0.21406223 0.08084585 0.15071097 0.18394569 -0.26790357
-0.18128695 -0.34523538 -0.094907455 0.028294709 -0.091208465 -0.07020757 0.101271965 0.19807029
-0.07925565 0.19671634 0.1081761 -0.064659424 0.033356283 0.1022224 0.034875154 0.20970228
0.14362079 0.3027448 0.42857528 0.65607846 -0.22556908 -0.1964243 -0.32965526 0.38149592
0.27302685 0.42659515 0.25995296 0.15038118 0.07882898 0.1893996 0.16563597 0.28829056
-0.055745073 -0.41567585 -0.40635142 -0.20175019 -0.28222045 -0.29324695 -0.20274444 -0.032288413
-0.1393926 -0.022080634 -0.13405603 -0.074142806 0.07558196 0.015488952 0.09298638 -0.24854727
-0.11106007 0.08015638 0.033785284 0.047822773 0.09766686 -0.1412364 -0.043043077 0.0072219507
-0.011075264 0.2175553 0.25920933 0.050412495 0.12863225 -0.1020143 0.013809566 -0.16498238
-0.060991175 -0.16378684 -0.0018102782 -0.187607 -0.021131352 -0.18734644 -0.15246923 0.033037197
-0.053236783 0.023715181 0.17154698 -0.10580729 -0.17269044 -0.0031410104 -0.030187307 0.014767737
-0.17674908 -0.030453615 0.049215104 0.075323544 -0.02254304 0.060065325 -0.042311884 -0.24209471
0.13022144 -0.08369036 -0.15644555 0.0106762815 0.15835063 -0.031965278 -0.0047017303 -0.5346806

conv.10.bias f4 [128]
00000000: 12a7 9a3d 5bb4 e73c b3b6 4f3b 1768 c23c
00000010: 5ca1 133d 19ac 2c3d f82f 7fbd 0217 d03c
00000020: 847d 623c d51b 35bd 6c0a 30bd 6f17 b73c
00000030: 9c8a 6e3d b127 89bd d0ba b5bc ed3b 9e3c
00000040: 7a1c 493c bf25 0bbd 784a c2bc 425a 19bd
00000050: 1092 003d b437 c3bc 96f6 503d cc16 853d
00000060: 40c6 423d 91cb 2b3d bfe9 c6bc 1e1b 333d
00000070: d6bf 8a3d 0058 26bd 61df 7abd df59 a0bc
00000080: a402 62bc a080 24bd 4514 66bd 7e95 1cbd
00000090: 5301 8ebd 8ef5 473d fcd2 2bb9 ed89 343d
000000a0: e698 f5bc 0477 863d 0d10 7a3b c8b9 8c3c
000000b0: bc97 fcbc 63d1 813d f0b2 8bbd 025e 31bd
000000c0: 8deb 823d beb9 903d d43f 33bc 449a 1dbd
000000d0: e9b6 4ebd 065a ca3c 7621 13bd 57d4 bb3c
000000e0: c595 dd3b 2d65 e43b f61a 013d 1171 22bb
000000f0: 4cf2 25bd c4b2 02bd 2ef7 b0bd 4577 26bd
00000100: 02e4 55bd 42ae b8bc a1c0 1c3d a454 9f3d
00000110: b1fd 16bd 8870 363d bb5b 2fbd 7284 7bbc
00000120: e41e 763d fba5 d33b 69d1 e8bc 28f7 933d
00000130: 31de 913d f9b8 1a3b 09e3 9f3d ac02 573d
00000140: 7eae 0ebd a0cc 263d 49a7 35bd 7531 46bd
00000150: fe04 9f3d 3a8b d9bc ec6f a7ba 946f 61bd
00000160: ae9d 8b3c e282 ae3c 8878 39bd e05e 843c
00000170: c5bc 803d 2c11 3f3d 3695 12bc c140 7d3d
00000180: 195f 063d e071 033c 99fb f53c 2d02 af3d
00000190: 9a4c 2ebc f5d1 0d3c eb93 013c 102b 0b3c
000001a0: 65be 1e3d 7166 623d f714 38bd 491e c3bc
000001b0: 2241 bdbc aeb8 80bd e396 39ba 479f cc3c
000001c0: b467 093d 2b67 bbbc dac6 153c e3fb 8a3d
000001d0: 944f 21bd 00ca 06bd 0ccc 80bc a8c2 fa3c
000001e0: dbb3 713d b311 02bd 8fef cc3c 05ee 5dbb
000001f0: 827d b6bc 384a 2ebd 0603 13bd e791 d73b
0.075513974 0.028284242 0.003169459 0.023731275 0.036042556 0.042156313 -0.062301606 0.025401596
0.013823871 -0.044215996 -0.04297869 0.022350041 0.058237657 -0.06697024 -0.022183806 0.019315684
0.012274856 -0.033971544 -0.02371715 -0.037439592 0.031389296 -0.023830272 0.051016413 0.06498489
0.047552347 0.041942183 -0.02428138 0.043727033 0.06774871 -0.040611267 -0.061248187 -0.019574104
-0.013794575 -0.04016173 -0.056171674 -0.038228504 -0.06933846 0.048818164 -0.00016386429 0.04407685
-0.029980134 0.06565669 0.003815654 0.017178431 -0.030834071 0.063387655 -0.06821239 -0.043302543
0.06392584 0.070666775 -0.010940511 -0.038477197 -0.050467405 0.02470113 -0.035920583 0.0229284
0.0067622387 0.006970069 0.031519853 -0.002478663 -0.040514275 -0.031908765 -0.08640896 -0.040641088
-0.0522194 -0.02254403 0.038269643 0.07779816 -0.036863033 0.044540912 -0.04281209 -0.015351402
0.060088053 0.0064589954 -0.028420167 0.07224876 0.07122458 0.0023608787 0.078069754 0.052492782
-0.034834377 0.04072249 -0.04434899 -0.04838701 0.07764624 -0.026555646 -0.0012774444 -0.05503805
0.017042961 0.021302644 -0.045280963 0.016158521 0.06286005 0.046647236 -0.0089467075 0.061829332
0.032805536 0.008022755 0.030027198 0.08545337 -0.01063838 0.008656015 0.007908802 0.008494154
0.038755793 0.055273477 -0.04494187 -0.023818152 -0.023102347 -0.06285225 -0.0007079674 0.024978293
0.033546165 -0.022876343 0.009141648 0.06786325 -0.039382532 -0.032907486 -0.015722297 0.030610397
0.059009414 -0.03175516 0.025016574 -0.0033863795 -0.022276644 -0.04255125 -0.035891555 0.006578672

conv.11.weight f4 [128]
00000000: 071f 9d3f 11d0 8a3f c7c1 623f 6e87 a33f
00000010: 449f 8e3f c5aa b33f be08 6e3f 67bc 6a3f
00000020: e28d b63f fab4 8c3f 4239 8d3f 3978 af3f
00000030: 48a5 803f 5e1c 7e3f 526a ae3f d5db 883f
00000040: c4b8 be3f 71be bd3f 14a6 903f 7fbe 6c3f
00000050: 0eab 703f d951 863f cf7d 913f b7cd 6d3f
00000060: b40c b03f d45a 823f 5e6b 9c3f 2079 da3f
00000070: 8c77 943f 5ee8 6a3f 22a3 923f a60f 923f
00000080: 159f ed3f 8d3d b93f dec2 5f3f 953b b03f
00000090: 651a 9a3f a3eb c43f 38bb 703f f7fa ef3f
000000a0: 0a43 f93f 3262 a83f f385 873f acb9 ee3f
000000b0: 9b19 643f d9f3 673f c658 ae3f e37b 983f
000000c0: 4cf0 a13f cfb9 783f f17a f73f 4bfd ad3f
000000d0: 708c bd3f da28 ab3f c92a 873f 347c ae3f
000000e0: 3795 0340 afd7 6c3f 8f48 7c3f 11e5 6c3f
000000f0: 22a8 c63f 04a3 a53f cc8d a93f 011a f53f
00000100: 77cc 8a3f 5b8d 5f3f 9d66 7e3f 9943 993f
00000110: 6516 773f e673 7c3f 2346 ff3f 5887 923f
00000120: 2a62 943f 6785 b73f e2c9 c63f 18bb f93f
00000130: 4805 a43f c7a3 9d3f 6a04 8a3f faea 8a3f
00000140: 9fdd 8c3f 9085 683f 86ee d13f d1a2 0740
00000150: 414a bb3f b3b5 a23f 5c1d 983f 6e44 a13f
00000160: 26a3 963f 9b26 693f 4187 7d3f c2fc 853f
00000170: 1a39 8b3f 5343 783f 891d 803f 3061 7c3f
00000180: 7227 ac3f d372 593f 6a99 1140 2f3f 883f
00000190: 9f5d 8a3f a12a 893f 34e5 813f 6d5e ae3f
000001a0: b573 ad3f b49a b53f 3227 bf3f a9a8 b23f
000001b0: 115f a83f f19b a93f 0e0c 973f 504a 9e3f
000001c0: 7a22 7c3f f729 fc3f cac8 683f 3e54 703f
000001d0: 6152 8e3f 393f 6b3f 870c a53f c68a 5e3f
000001e0: 4c32 623f 0ba7 be3f 54fe 933f 4c5a 893f
000001f0: 6439 aa3f 93b2 7d3f adfc 9a3f 30f4 6c3f
1.2275094 1.0844747 0.8857693 1.2775705 1.1142354 1.403649 0.9298209 0.9169373
1.4262049 1.099273 1.1033099 1.3708564 1.005044 0.99262035 1.3626196 1.0692087
1.4900136 1.4823743 1.1300683 0.92478174 0.9401101 1.0493728 1.1366519 0.9289202
1.3753877 1.0183969 1.2220266 1.7068214 1.1598983 0.91760814 1.1456034 1.1411026
1.8564173 1.4471909 0.8740672 1.3768183 1.2039305 1.5384411 0.94035673 1.8748463
1.9473584 1.3154967 1.0587753 1.8650413 0.8910157 0.90606457 1.3620842 1.1912807
1.2651458 0.9715852 1.9334394 1.3592924 1.4808483 1.3371842 1.0559932 1.3631654
2.0559824 0.9251661 0.98548216 0.9253703 1.552006 1.2940373 1.3246398 1.9148561
1.0843648 0.87325066 0.99375325 1.1973754 0.96518546 0.98614347 1.9943279 1.1447554
1.1592457 1.4337586 1.553036 1.9510221 1.2814112 1.2315606 1.0782597 1.0852959
1.1005133 0.908288 1.6400917 2.1193125 1.4632035 1.27117 1.188396 1.2599008
1.1768539 0.9107453 0.99034506 1.046776 1.0876801 0.9697773 1.0009013 0.98585796
1.3449538 0.8494083 2.2749887 1.0644282 1.0809821 1.0716134 1.0148072 1.3622566
1.3550936 1.4187837 1.4933836 1.3957721 1.3154012 1.3250715 1.1800554 1.2366428
0.9849011 1.9700307 0.9093138 0.93878543 1.111889 0.91893345 1.2894448 0.869305
0.88357997 1.4894727 1.156199 1.0730681 1.3298764 0.9910061 1.210836 0.925601

conv.11.bias f4 [128]
00000000: b978 bfbe b746 51bd d127 9ebe 2d4f fabd
00000010: 545a 4c3d f03c 8fbc a37a f1bd dbda 08be
00000020: db78 82bd 7698 c8bd 42c8 d3bb 98cf febc
00000030: d833 14be 381d d8bd 15ff 70bf 6111 ac3d
00000040: ccf9 c9bd 2aa7 933d 10fb 2fbb 47b3 a5be
00000050: 5911 09bf d46a 3cbd a41f 21bf 092e d3be
00000060: 8530 6d3e 6521 78be 8d6a 20bf ad90 8a3b
00000070: 1297 0fbe 1d9e 45be 718e ba3b 001f eabd
00000080: 21c7 593b 50d2 c1bc 6e70 61be 6812 81be
00000090: c79e 3fbe 69d0 ca3c 6559 82be b346 703e
000000a0: 72ad 8f3d c6e8 793d 45f8 5fbf 86cd e0bc
000000b0: 5b41 a4be a740 e0be 2632 263d b87f b3bc
000000c0: 619e 543d 345a 2cbf 5619 81bd 03c5 d3be
000000d0: 2b60 92bd a6f1 8dbd 4445 f5bd 966c b53c
000000e0: c614 293d 6d13 43be b50f 3dbe bb9b 56be
000000f0: faef 1f3e efa2 05be 2a57 32be 10f0 14bf
00000100: 27a7 cfbe 9cee 1ebf 2bf7 87be 5523 f6be
00000110: 552e c3be 0d4c 12be f0a6 e43c cc3e 7fbd
00000120: 3706 79be 7f38 23bd c03e 2ebe e1f0 9dbe
00000130: fd82 7aba 3100 d3be 2825 cdbe 1ee5 91bd
00000140: 8a8b c93d ed6a 64be 37c1 a43c c252 26be
00000150: 75b3 ffbd cf82 353e 923b 16be d4ed d5be
00000160: 585f f039 6654 c0be 57dd 9fbd 24d9 293c
00000170: eabd cfbd 6218 86be 2b47 7bbe 9749 4bbe
00000180: 386b d0bc 8d55 a3be 87a9 8f3d cc03 8dbe
00000190: 0c27 e5ba c858 02bf 8b94 d7be dd37 963d
000001a0: 0df7 3abe 32a1 943d 6af4 76bd 71ab c0bd
000001b0: 1be8 4bbc 1556 dabc 88c5 293d 1a17 18be
000001c0: 28dc 87be 51e1 5cbd bfb0 b7be 592f 97be
000001d0: e547 c7bd 73e4 e7be 0c5a f7be c217 c3be
000001e0: 122e cabe 2a27 b1be b774 08bc 43de dfbb
000001f0: 66e4 80be 3948 b0bd 860f 12be 5f17 06bf
-0.37396792 -0.05109283 -0.30889753 -0.12222133 0.04989083 -0.017485112 -0.11790969 -0.13364737
-0.063707076 -0.097947046 -0.0064630816 -0.031104848 -0.14472902 -0.10552448 -0.94139224 0.08401752
-0.09862098 0.072096184 -0.0026852526 -0.3236334 -0.53542095 -0.046000317 -0.62938905 -0.4124606
0.2316304 -0.24231489 -0.62662584 0.0042286725 -0.14022473 -0.19298597 0.00569325 -0.11431694
0.0033230262 -0.023659855 -0.22015545 -0.25209355 -0.18712912 0.02475758 -0.25458828 0.2346447
0.07015504 0.061013006 -0.87488204 -0.027441751 -0.32081112 -0.43799326 0.04057517 -0.021911487
0.051908854 -0.6732514 -0.063036606 -0.41361246 -0.07147249 -0.069308564 -0.11976102 0.022146504
0.041279577 -0.19050379 -0.18463023 -0.20957844 0.15618888 -0.13050435 -0.17416063 -0.58178806
-0.40557215 -0.6208284 -0.26555762 -0.4807383 -0.38121286 -0.14286824 0.027911633 -0.062315747
-0.24318777 -0.0398488 -0.17016125 -0.3084784 -0.0009556262 -0.41211084 -0.4006741 -0.07123779
0.09841068 -0.22306414 0.020111663 -0.16242507 -0.124854006 0.17725681 -0.14671162 -0.4178301
0.00045847404 -0.3756439 -0.07805889 0.010366712 -0.10143645 -0.26190478 -0.24538867 -0.19852291
-0.02544175 -0.31901208 0.07014757 -0.2754196 -0.001748295 -0.5091672 -0.42105517 0.07334874
-0.18258305 0.07257308 -0.060291685 -0.094077 -0.012445475 -0.026652375 0.041448146 -0.14852563
-0.26535153 -0.053925816 -0.35877034 -0.2952831 -0.0973051 -0.4529148 -0.48310888 -0.38104063
-0.39488274 -0.34600192 -0.008328608 -0.0068319156 -0.25174254 -0.086075254 -0.14263734 -0.5237941

conv.11.running_mean f4 [128]
00000000: d656 be3f ef8d 01c0 d897 c5bf e4fa 03bf
00000010: 6deb 403e 323e 263f a125 39c0 06c0 afbd
00000020: 23c7 4640 a2af 813d 0bb8 903e 964a b13e
00000030: 9875 ebbf 590d bdbf 9f10 dabf b900 30bd
00000040: 1c49 c83f 7a8b 9bbe 1786 fdbe cde7 a7bf
00000050: 5be3 a2bf fda6 c93d 7f15 18c0 2ddd 783f
00000060: 16a0 5dbe ef89 13bf 898f 05c0 4735 c73f
00000070: 6e51 a63e 2d82 c7bf d32c a63f 2aa4 0040
00000080: 9c1b 10bf ee1e 3f3f cb99 fabe 4134 c63e
00000090: 4697 f93f 349b 1cbf d295 01c0 7aba 0840
000000a0: 3251 fb3f 5195 30bf 7570 94bf 1bdf a0be
000000b0: 0a8a cfbf 259f 35bf d704 3abf 7f5f 9a3e
000000c0: 7747 c33f a3a0 91bf 5956 2240 4cf4 d83f
000000d0: d9eb 973e b3a8 9a3f 7d03 dcbf 0148 c43e
000000e0: 24f0 1ebe cb1b 13c0 080b dcbf ca20 1bc0
000000f0: 8cc8 2cbf 4b5f d43f 446f 8e3d 3c7a cbbc
00000100: f7ae a7bf 4a47 01c0 1f72 3ac0 5bfc 17bf
00000110: faeb d2bf 9905 923f 8794 13bf 5c6e 4dbe
00000120: 87ed c5bf af99 ea3f 9d44 173f d594 a43e
00000130: dd23 2b40 76ee 2140 8799 aebd 4311 b93e
00000140: 6fc4 033f a9de 50c0 8fc9 a2bc b409 6dbe
00000150: d558 e6be 6c5d 0ebf 7d83 3b3f ab6b c7bf
00000160: 365c 7f3f c0b5 efbf a6aa 58c0 de35 5ebf
00000170: 199a 55bf 9261 3b3f 4f0e 6cbf 63ce 0cc0
00000180: f21d 9b3f 7f17 03c0 8e1c 52bf 4e07 49bf
00000190: cb70 f1be 674f 63bd c215 a0be 0f05 8bbe
000001a0: 3beb ae3f 4302 8a3e 1c55 15bf 13e9 f73f
000001b0: 20fb 943f 2513 3240 2636 273f 0104 2fbf
000001c0: 793b aebf b275 05bf 8d09 cebf bbb9 01bf
000001d0: b0d2 94be bfa1 fbbe 4c80 5bbf 5004 48be
000001e0: eb64 12c0 e940 3dbe ec49 c53e d1fc eebe
000001f0: 9063 c0bc 91c4 38c0 e47e 87bf 955b e6be
1.487025 -2.024288 -1.5436964 -0.51554704 0.18839808 0.6493865 -2.8929217 -0.085815474
3.1059043 0.063323274 0.28265414 0.34627217 -1.8395262 -1.4769698 -1.7036322 -0.04296944
1.5647311 -0.3037985 -0.49516365 -1.3117615 -1.2725633 0.098463036 -2.376312 0.9721249
-0.21643099 -0.57632345 -2.0868857 1.5563134 0.32484 -1.5586601 1.2982429 2.0100198
-0.5629213 0.7465657 -0.4894546 0.38711742 1.949929 -0.6117432 -2.0247693 2.1363816
1.9634154 -0.6897784 -1.1596819 -0.31420216 -1.6214001 -0.7094596 -0.72663635 0.30150983
1.5256184 -1.1377147 2.5365202 1.6949553 0.29672125 1.2082733 -1.7188565 0.38336185
-0.15521294 -2.2985713 -1.7190866 -2.4238763 -0.6749351 1.6591581 0.06954816 -0.02483856
-1.310027 -2.0199761 -2.9132154 -0.5936944 -1.6478264 1.1407958 -0.5764851 -0.2006163
-1.5463113 1.832815 0.5908907 0.321448 2.674064 2.5301795 -0.08525377 0.36145982
0.5147161 -3.26359 -0.019871501 -0.23148233 -0.44989648 -0.556113 0.7324751 -1.5579733
0.9975008 -1.8727341 -3.3854156 -0.86800945 -0.8343826 0.73195755 -0.92209333 -2.2000968
1.2118514 -2.048309 -0.8207482 -0.7852677 -0.47156367 -0.055495646 -0.312666 -0.27152297
1.3665537 0.2695485 -0.5833299 1.9368004 1.1639137 2.7824185 0.65317 -0.68365484
-1.36119 -0.52132714 -1.6096665 -0.5067403 -0.29066992 -0.4914684 -0.8574264 -0.19532895
-2.2874095 -0.18481793 0.3853296 -0.4667726 -0.023484975 -2.8869975 -1.0585599 -0.44991747

conv.11.running_var f4 [128]
00000000: 7009 6940 4229 d140 db83 1340 ca5f 2e40
00000010: 8955 2e40 96ae 3a40 aba1 cd40 c3e6 8b40
00000020: 03e3 2241 dce0 1140 829b 7b40 4bbd 6140
00000030: f694 4640 df7d 3740 ae43 8940 9f4d 4340
00000040: eb61 9d40 c04b 9f40 e936 f53f 614d dc40
00000050: 1eed 6340 fbdb 8340 91e9 d240 decc e23f
00000060: 7c14 7740 08f9 3740 7119 d240 5c5a 1741
00000070: ea71 0a40 ae74 9240 44c6 0440 d5a5 2340
00000080: c44b 5140 df50 6a40 c70e 1040 749e 2a40
00000090: 0a34 4240 9aac b240 ebc6 8940 3f26 2341
000000a0: 36e5 5a41 0d90 2640 a1bc 8a3f f8e6 3d40
000000b0: 261f 9240 836b f53f 7738 6f40 4aa0 0540
000000c0: fe6e fb40 e950 6d40 7101 d040 7ecc d040
000000d0: 1f40 6740 7d9a fb3f b7c5 9240 3362 a940
000000e0: 0e12 cb40 239d e540 92d7 0341 3ce6 c03f
000000f0: d7d2 8840 370f 4840 44b0 fb3f 12d3 9840
00000100: 9423 ba40 476f 0740 2b12 1441 06e2 e840
00000110: cae5 8f40 dcfa 2340 0eb9 f540 1aca b040
00000120: 95ec 4d40 180c 3640 5bff c540 32b5 de40
00000130: de29 0241 ac52 5140 501e cc3f d032 9040
00000140: d7c8 6740 5a7a e640 e0bc 1340 fd36 3e40
00000150: bb5c 7940 8838 8640 f60f 9040 1f11 1e41
00000160: c451 5b40 d8be 8f40 caaf 1541 8199 3a40
00000170: fa3c dc3f 82f1 e93f d96c e840 891b 6f40
00000180: 99ac a440 1b46 3d40 25f7 1141 5dcf ce40
00000190: c2be f93f 2d44 8a40 ffbe 3b40 e9b2 2d40
000001a0: 64fb 0340 285b 2d40 4b31 3c40 653b dd40
000001b0: 4550 8f40 9d5f c240 1200 4040 24dc 6640
000001c0: 1b47 6940 4f3a c340 21cf 3740 707e 0640
000001d0: 9804 1a40 6b43 1e40 1d71 3040 36f3 1a40
000001e0: ca5e dc40 847c 6340 9718 1a40 92d4 4740
000001f0: 963d 9340 8e4d 8c40 3198 0241 37c9 3240
3.641201 6.5362864 2.3049228 2.7245965 2.7239707 2.9169059 6.425985 4.371919
10.180423 2.2793493 3.9313664 3.5271785 3.1028419 2.8670576 4.2895117 3.0516126
4.918203 4.977997 1.9157382 6.8844457 3.5613475 4.120603 6.5910115 1.771877
3.8606253 2.8745747 6.5656056 9.45956 2.1632028 4.576743 2.0746012 2.5569966
3.2702494 3.661186 2.250902 2.6659212 3.0344262 5.5835695 4.305532 10.196837
13.68096 2.6025422 1.0838815 2.9672222 4.5663023 1.9173435 3.7378213 2.0879083
7.857299 3.7080634 6.500176 6.5249624 3.6132886 1.9656521 4.586635 5.293237
6.345954 7.1754317 8.240129 1.5070262 4.2757373 3.1259286 1.9663167 4.7757654
5.816843 2.1161668 9.254436 7.2775908 4.4968004 2.5621862 7.6788397 5.5246706
3.2175648 2.8444881 6.1874213 6.9596186 8.1352215 3.270671 1.5946751 4.5062027
3.6216333 7.2024355 2.308403 2.9721062 3.8962848 4.194401 4.5019484 9.87918
3.4268656 4.4920464 9.355417 2.9156191 1.7206109 1.8276827 7.263287 3.7360556
5.146069 2.957404 9.122838 6.462813 1.951134 4.3208222 2.9335325 2.7140448
2.0622187 2.7086887 2.9405086 6.9135003 4.4785485 6.0741715 3.0000043 3.6071863
3.644965 6.1008677 2.8720171 2.1014671 2.4065304 2.4728649 2.756904 2.4210944
6.886571 3.5544748 2.4077508 3.1223493 4.601268 4.384467 8.162156 2.7935312
