output/energy_cnn_20260221_204822/checkpoints/epoch_20.pt (torch, 174824 bytes, 21 tensors)

conv.0.weight f4 [32, 14, 3]
00000000: 4125 eebd 2789 f2bc 7bba 903b 83c6 8ebb
00000010: 0fa8 f53d ba29 4ebd 09b6 a1bd bba3 fe3d
00000020: 7ec1 88bd f322 c43c c8ef b6bd 914d 7b3c
00000030: 1f68 053d ad93 6b3c 00c8 abbc 2c1b 483c
00000040: 0f02 143d a069 b7bd 6ce1 013d f440 143e
00000050: 4345 f83b 3d70 c53a 8769 afbc 7e62 9bbc
00000060: 61bb c33e a8de 983e 1698 ef3e e1a3 2bbf
00000070: df6e 3cbf 3f52 47bf 5f95 50be 0f27 6dbe
00000080: 4ad8 1ebe 5d0f ffbc e9fd f43c f9d1 39bd
00000090: 921b d5bd f278 ee3d bc3f 6bbb cbb2 5dbd
000000a0: a5a6 4fbb 375e 2a3d c570 4dbe ae3b a33d
000000b0: 198d 143d 0216 e83d d439 9d3d 7f25 9b3d
000000c0: 0319 06be bace 96bc ee3d bbbc fc09 373e
000000d0: 722b f93d 9aa1 88be 37a4 7fbc 3ee0 323b
000000e0: c2c0 073e 5d99 553d c742 313d f197 bfbd
000000f0: 4fa9 2e3c 42a7 e43c 8e4c 0a3e a0fc 87be
00000100: 5311 9fbe 3ebd ec3d 16c6 15be a793 a13c
00000110: 0498 c23c 13e6 3f3e 0029 5c3e a090 b43e
00000120: 5fe5 5fbe 819d 9ebe a4bf 8abe 5a40 0f3d
00000130: 0a91 093e 9f4d 66be 4cb2 743d cd37 82bd
00000140: 8c82 9e3b df37 253c fcd8 bebd 5671 a33d
00000150: 5486 e23d 44c6 173e 69a9 82be 29fa c33c
00000160: d422 453d 397b 5b3d 9ea4 15bd c71c 5b3c
00000170: d923 77be 496d 88bd 05b8 273e b2f2 2bbd
00000180: c185 023e 0861 5abd 8449 4bbd e145 a23c
00000190: 431b 0c3d 8aac 5fbd 0d0b b13d 1b2a e53d
000001a0: eafb 9bbd 6d06 89bd 9e36 bf3d 4ab0 70be
000001b0: ee8f 37bf a6ae f7be a50e 2cbf a0b1 69bd
000001c0: 174b 1e3e 8f20 6d3e ff09 fd3d 247b 87bb
000001d0: c12d 653e 79b1 a0bc 47c2 373d b8ba 09b9
000001e0: 4e32 53bd 0b04 0f3e 4836 e1bd e016 d1bd
000001f0: d8e9 0cbd 008f f43d e3f5 5e3e 1d4b 5d3c
00000200: d2fd d0bd fbca 10be ed63 2f3c 301e 5bbc
00000210: 145d 51bd 0bc7 b13c 0955 ebbd a6e0 fd3d
00000220: 5ca7 223d cf8d 7f3b 463d bf3d 98b0 453d
00000230: 277a 18bd c2a2 933b 9e83 3f3d 1455 593b
00000240: d3bc 24bd 9249 bd3d 25b7 6cbe 3f3e 903b
00000250: 3ec9 98be 46f8 47be 7545 5a3e 6ce5 933e
00000260: 6212 a13e c6c6 223d 9730 fa3d 5879 6f3e
00000270: a308 563e 6717 773e ea1f 713e ae4e b63e
00000280: 8c42 b23d 4c60 223d 5a55 c03d bdf9 a7bd
00000290: 1c08 89bd e4ec 213d eef6 c83d 1361 f93d
000002a0: fb8a 013e bd2c 6cbd a5b3 79bd 5592 ac3a
000002b0: 5386 9dbd 3aa8 1ebd 89a2 753d da25 ec3c
000002c0: 83cf dd38 c1a1 db3c 1238 b93c f030 6bbd
000002d0: 91ee ae3a aee5 cbba 5846 9abd 57d8 633b
000002e0: 2934 a6bc 51a0 37bc 8467 2ebc 7cba 37bc
000002f0: 6425 2cbd 05be 7b3d dc90 3a3d 3874 fdba
00000300: 1d09 f43e 8a65 093f 636a 153f 975a f9bd
00000310: 5a7d b63d 5610 053e 0ac5 293e 7d44 8b3e
00000320: ae9a 933e 0a24 973d b923 d63d 2503 99bc
00000330: 0fc1 103d 87a6 fdbb e164 0ebd d51a 59bd
00000340: 6e7d bc3c 99f9 0f3d 2599 febc 7395 9a3d
00000350: 7ce8 b8bd 9817 0a3e cf98 edbd 3ba7 ca3d
00000360: d6d5 5bbd 538d b2bd 1341 c6bd 8837 38be
00000370: ca9c ba3c 0d55 ddbd 5cac 4abd 8597 05bd
00000380: abb6 8f3c 7804 c93b c16d 193d 8283 c03d
00000390: c723 0cbd a4fe 543e 2305 28be c21d 2d3e
000003a0: 309b a2bd 3625 ebbe 5ac0 173e ef89 a33e
000003b0: 3eed 2a3e c0e7 a7be 458e debe 9f13 d6be
000003c0: 4eff 9c3e 122f 983d 68d7 8c3e 9a76 4a3e
000003d0: f6dc 4e3e 2360 4e3d d5d3 0e3d 87c5 9a3d
000003e0: cab5 b43d f6e2 bd3d 27ef 4e3c 3b32 35be
000003f0: 1586 30be b282 1dbe ebcf 573e 6b23 003d
-0.11628199 -0.029606415 0.0044167615 -0.0043571605 0.11994945 -0.050332762 -0.078960486 0.12433573
-0.06677531 0.023942446 -0.089324534 0.0153383175 0.03257 0.01437847 -0.02096939 0.0122135095
0.036134776 -0.08955693 0.03170912 0.14477903 0.007576616 0.0015063357 -0.021412624 -0.018967863
0.38228896 0.29857373 0.4679572 -0.67046934 -0.73606676 -0.7785987 -0.2036948 -0.23159431
-0.15512195 -0.031135255 0.02990623 -0.04536626 -0.10405649 0.11644162 -0.0035896143 -0.05412559
-0.0031685021 0.041593757 -0.2006255 0.07970367 0.036267374 0.11332323 0.076770455 0.07575511
-0.13095479 -0.018409122 -0.022856679 0.17874902 0.1216649 -0.26685792 -0.015603117 0.0027294303
0.13257125 0.05214821 0.043276574 -0.093551524 0.0106604835 0.027911786 0.13505766 -0.26559925
-0.31067905 0.115595326 -0.14626345 0.019723726 0.023754127 0.1874011 0.21500015 0.3526659
-0.21864842 -0.3097954 -0.27099335 0.03497348 0.13434234 -0.22490548 0.05974035 -0.063582994
0.0048373397 0.0100841215 -0.0931873 0.079806015 0.11060777 0.14821726 -0.25519875 0.023922997
0.048128918 0.05358431 -0.036533944 0.01337356 -0.24134769 -0.066614695 0.16378792 -0.0419795
0.12746336 -0.053315192 -0.049630657 0.019808711 0.034205686 -0.054607905 0.08644686 0.111896716
-0.07616408 -0.06690679 0.09336589 -0.23504749 -0.71703994 -0.48375434 -0.67209846 -0.057054162
0.15458332 0.23156951 0.12355422 -0.0041345526 0.22380735 -0.019615876 0.04486301 -0.00013134896
-0.051561646 0.13966386 -0.109966815 -0.10209441 -0.0344027 0.119413376 0.21773486 0.013506678
-0.102046624 -0.14139931 0.0107049765 -0.0133738965 -0.051114157 0.021701356 -0.114908285 0.12396364
0.039710388 0.0038994437 0.09337859 0.048264116 -0.03722587 0.004505486 0.04675638 0.0033162283
-0.04021914 0.09242548 -0.23116739 0.0044019516 -0.29841036 -0.19528303 0.21315558 0.28885972
0.31459337 0.039740346 0.12216299 0.23386133 0.20901732 0.24130021 0.2354733 0.35606903
0.08704099 0.039642617 0.093912795 -0.08201931 -0.06691 0.039532557 0.09812723 0.121767186
0.12650673 -0.057659853 -0.060962338 0.0013166169 -0.07691636 -0.038734652 0.05996946 0.028826643
0.00010576753 0.026810529 0.022609744 -0.057419717 0.0013346245 -0.0015556121 -0.07532948 0.00347664
-0.020288544 -0.011207656 -0.010644797 -0.011213895 -0.042027846 0.061460514 0.045548305 -0.0019337004
0.47663203 0.5367056 0.5836546 -0.12175482 0.08910628 0.12994513 0.1657907 0.2720069
0.2882895 0.07379921 0.10456032 -0.018678257 0.035340365 -0.007740799 -0.034764174 -0.053004105
0.023009028 0.035150144 -0.031078884 0.075480364 -0.09028718 0.13485563 -0.116014116 0.09895178
-0.053670727 -0.08718362 -0.09680381 -0.17989933 0.022779841 -0.10807238 -0.04948078 -0.032615203
0.017543158 0.006134566 0.037458185 0.09400083 -0.034213807 0.20800263 -0.1640821 0.16905883
-0.07939756 -0.45926827 0.1481947 0.31941172 0.16692063 -0.32794 -0.43467918 -0.41811845
0.30663532 0.07430853 0.27508092 0.19771805 0.20201477 0.050384652 0.034869988 0.075572066
0.08823736 0.09271805 0.012630261 -0.17694943 -0.17238648 -0.15381888 0.21075408 0.031283777

conv.0.bias f4 [32]
00000000: 3bc3 9e3d 86da a83b bcde 203d f35c 103e
00000010: 395b 0e3e 60a5 1c3e de81 bebd c23f 583d
00000020: dd71 313d db56 ca3d f755 f93b e7d4 b73d
00000030: ce77 febd 91cc 67bc 4afa b1bb 3d56 e1bd
00000040: 6c84 53bd d95f 923c 837d 313e 0e4d d73d
00000050: ca59 0f3e c382 403e ecc5 3a3e 6465 edbd
00000060: 8c4a 153e 456b 8e3d 1257 263d 0402 2d3e
00000070: 4098 73bd d228 25bd 942e 213e 648a 0b3e
0.07752081 0.005153003 0.039274916 0.14097957 0.13901986 0.1529746 -0.09302114 0.05279518
0.04332148 0.098798476 0.0076091248 0.08976155 -0.12425195 -0.0141478935 -0.005431448 -0.11002777
-0.05163996 0.01786797 0.17333035 0.10512744 0.13999096 0.18799882 0.18239564 -0.11591604
0.14579219 0.06954054 0.04061038 0.168953 -0.05947137 -0.040322132 0.15740424 0.1362701

conv.1.weight f4 [32]
00000000: b044 913f 085b 413f bc97 8b3f d989 483f
00000010: 6af0 603f cdc0 263f 3efd 823f c038 843f
00000020: 147c de3e 39b3 313f e5a3 6f3f e780 203f
00000030: 8817 453f 6b86 343f 4d22 493f dac6 833f
00000040: 589a 493f abb4 953f 0af8 583f dcea 8b3f
00000050: 1e50 6c3f cd1d 5f3f 72aa 503f 888e 983f
00000060: 356d 6e3f 7aec a83f 7b37 7a3f 2e5e 253f
00000070: 7be1 793f 04ce 593f a30b 4e3f 09bd 743f
1.1349087 0.7552953 1.0905681 0.7833534 0.8786684 0.6513794 1.0233533 1.0329819
0.4345404 0.694141 0.9360946 0.6269669 0.7698903 0.70517606 0.78567964 1.029506
0.78751135 1.169576 0.8475348 1.0931048 0.9230975 0.8715485 0.8151008 1.1918497
0.93135387 1.3197167 0.97740906 0.6459683 0.9760968 0.8507998 0.80486506 0.95600945

conv.1.bias f4 [32]
00000000: 2eb6 babe 517c 8bbe 79f1 59be 43c9 62be
00000010: af21 c5be b8df c3be a9a3 a5be b034 67be
00000020: 95a1 c8be 830a c4be 763e 5fbe c32d 5bbe
00000030: 2bd2 b5be c81a 80be ba65 7abe 23d2 90be
00000040: cae1 cbbe 030e 02bf de9b a8be 1eef 85be
00000050: 74cc a1be 2cd1 06bf 28f3 13bf f349 653d
00000060: da84 c5bc f01f 0ebe e833 54be 853b c2be
00000070: 8230 83be 6f22 8fbe f1f2 6ebe 8251 b0be
-0.36467117 -0.27243283 -0.21283521 -0.22147088 -0.3850226 -0.3825662 -0.32351425 -0.22578692
-0.39185777 -0.3828927 -0.2180117 -0.21404175 -0.35511908 -0.25020432 -0.24452868 -0.28285322
-0.398207 -0.5080263 -0.32931417 -0.26158994 -0.31601298 -0.5266292 -0.577929 0.055978727
-0.0241112 -0.1387937 -0.20722926 -0.37936035 -0.25622946 -0.27955958 -0.23334862 -0.34437186

conv.1.running_mean f4 [32]
00000000: 8735 a43d b595 c9bc 395f 383d 2f5a 2e3e
00000010: 3b66 2d3e 5488 3c3e 8331 d9bd 8a2a 9f3d
00000020: 3c17 6e3d dc84 da3d 9494 c13a e9ff a73d
00000030: 717b bebd 8585 0bbc 9bc5 b6bc 2492 eebd
00000040: 139e 2abd 2a9b 833c 2f82 3f3e f2e5 b93d
00000050: e8fb 363e a975 033e bb86 523e b24a 09be
00000060: 87b3 0c3e 3a76 843d 02c5 103d 330c 473e
00000070: c8d3 a6bc fc38 8bbd f290 113e aa2b e33d
0.08018022 -0.024607519 0.045012686 0.1702659 0.16933529 0.1841138 -0.10605147 0.077717856
0.058127627 0.10669872 0.0014769011 0.08203108 -0.09300888 -0.00851572 -0.022311023 -0.11648968
-0.041654658 0.016065199 0.18702005 0.09077062 0.17869532 0.12837853 0.20559208 -0.134074
0.13740359 0.064678624 0.03534413 0.19438247 -0.020364657 -0.06797978 0.14215448 0.11092313

conv.1.running_var f4 [32]
00000000: 9767 4a40 0496 aa3f 7998 4940 6a5f 0e40
00000010: 585b 3e40 d568 c33f 4a1d 4540 c55c 4940
00000020: 3a90 e13f 4a2b 8d40 8d18 8240 3abc 8440
00000030: a0f7 0c41 ab08 4940 52b8 3b40 41d7 e540
00000040: 5752 2640 5f43 3c40 36ad c540 bbad ce40
00000050: 499b 9240 8ba0 2d40 65e5 6f3f 46ec 0b41
00000060: b3ec 9740 dd74 7140 06ea c840 524f db3f
00000070: 052d 9c40 f3ae cf3f c608 733f 33a3 3c40
3.1625726 1.3327031 3.1499312 2.2245736 2.9743252 1.5266367 3.0799127 3.1462872
1.762214 4.4115343 4.065497 4.147977 8.810455 3.141154 2.933125 7.182526
2.5987756 2.941612 6.177394 6.4587073 4.5814557 2.7129238 0.93709403 8.745184
4.747644 3.7727578 6.2785673 1.7133582 4.8804955 1.6225265 0.9493526 2.947461

conv.5.weight f4 [64, 32, 3]
00000000: ced7 b23d 2bc9 d83d c7e5 90bd d4f2 14be
00000010: 0e49 d9bd 8bd5 7e3c 7ec3 43be dc7a 2fbe
00000020: 7516 babd b99a f7bc c0c3 82bd 0915 273d
00000030: cdb4 07bd 71b2 df3d 3a92 16be 8f34 60bc
00000040: 7a85 163e 0045 11bd 1730 3f3c c9ac 2e3e
00000050: 23cf 2b3c 491b d63d 9474 66bd 6d58 a9bd
00000060: b48b 98bd d2e0 20bd 0025 8a3d 0084 aa3c
00000070: 00c9 c73c cdad c13d 04fe cbbd ba44 22bd
00000080: 3d73 cdbb c67f 90bd 4c83 833c 5441 983c
00000090: 49e2 5aba 187e 683d 7acb de3d 84ca 7d3c
000000a0: 3e50 553d cb75 363d db58 463c 093d 8dbd
000000b0: fbce 82bd 10ef 373e c0a7 263e cdb2 613e
000000c0: 59a5 ffbc 3c6c 8abd dd3b 883c f99f 0f3e
000000d0: 24e8 963d fa8e 7ebd 335d 733c 2009 93bd
000000e0: 5a29 4cbd 6766 523d ccf6 553d 159e fabd
000000f0: 84a5 943e c43f 473e 56e4 7d3e 5cf7 39be
00000100: b0bf 83be 6387 c5be bb0c 5cbc fcc8 a23e
00000110: 0e51 4abd 0b37 18bb 136f 213d 0ef7 ef3c
00000120: 7823 c4bb f76a 7239 2397 15be cca5 9bbe
00000130: 96dd 25be 4bf8 a9be 6117 aa3d 2980 983e
00000140: 2bcd 38be cf66 4c3d d3e4 eb3d 7cc6 da3c
00000150: 1ed7 643e a9a1 e03d fb68 fe3d e530 52be
00000160: fec4 4ebe 49b4 933d 286d ff3c 6c7c 1e3e
00000170: 5d6c 2ebe 6f2c b8bd 22c9 16be 2b41 30be
00000180: f0ec 90bd 169a 9dbc e265 aabd 989d ee3d
00000190: 1202 df3d 6c94 423d afb9 743e 6d5e 613e
000001a0: 3098 8f3e c52e d63c 99cc 203d 44ee 313e
000001b0: 672d 643e 49d5 653d 87e1 3b3e cd19 c73b
000001c0: 2bd0 a33b 1721 eb3d 645f 99bc b8dd 293e
000001d0: e73e 423e d768 153e e5f5 b93c 4b00 223e
000001e0: e7f8 b1bd 2f7a 4ebd e6e4 ac3d c30d 7abd
000001f0: d948 b83c b907 c8bb c8e1 88bd 1a72 0abd
00000200: d8f0 15bd be69 0ebd ac27 8a3d f6bc a23b
00000210: 853b fdbd ca72 cfbd 6907 91bb a427 68bc
00000220: 956f 42bd 362c 7b3d 1b6f 293d 04df e63d
00000230: c337 1d3d b415 f9bd 968a 43bd 2656 aabd
00000240: 2f73 2abe 0492 a9bd 6984 d4bd 3b77 3abd
00000250: 697e 3ebc 6c4a 283c 5875 b13c f208 4c3e
00000260: 12be f23d 6a28 9c3d bef1 1d3e f057 003e
00000270: f38c 2d3d 7c4f 9f3d 5af9 7f3d 57d2 87bd
00000280: 1c93 e639 a94a b8bd 3bfe d0bc 94d6 0f3d
00000290: dace 693e 7b06 843d 8025 f03d b792 9b3b
000002a0: fdbd 8ebc eb32 383d ef2d 003e 132d b43e
000002b0: 8ef9 a93e 8fff 583f 641d f6bd b043 333e
000002c0: edb8 07bd d07d 7cbd ba9e f43c c0a6 933d
000002d0: 1fd6 bebc 46b1 063e 7a35 053e 06ed 99bc
000002e0: 10fc e8bb f90b 7e3c 4edd 0bbd 6f38 2d3e
000002f0: abb8 423e 2d71 2c3d 1867 203d 26c3 6c3d
00000300: 8981 b2bd ef18 47bd 4220 2d3e 7f1d 583d
00000310: 3e29 e93c a956 573c e15e a83d 0e7b f83d
00000320: 62f5 be3e 89d7 203d 83bb 6fbd 664d a9bd
00000330: 5701 ddbd 103f dabd 161b a3bd f6da 7dbd
00000340: 7c1b 39bd 0f4a 40bd 2b03 eabe e4f2 9ebe
00000350: 7db7 7abe 68bb 40bd bad0 0ebe 33f9 f2bd
00000360: d75d b0ba c150 0fbe eb97 4dbc ff98 263d
00000370: 84d8 a0bd b8ff 023e 483c 16be 0558 063b
00000380: 584e 9dbd fec3 553d 3709 2cbe 1e87 633d
00000390: ea7d 953c f0c6 21bd a80e c6bd abba e13d
000003a0: cd62 80bd fe23 f1bd 942e e0bd c299 18be
000003b0: dc43 0bbe ce15 4abe 0d57 49be bfb3 28bd
000003c0: 63e0 2abe 1e01 473c c03e d73d 3878 aebd
000003d0: 5120 883d cb69 8b3d a72e f03d 0aaf ee3d
000003e0: 2e56 363e e9cd edbe f772 01bf 187d d6be
000003f0: 7c77 8f3b 666e c33c 9c86 dfbc 39bc 543e
0.08732568 0.10585245 -0.070750766 -0.14545757 -0.10609637 0.015553842 -0.19117543 -0.17136711
-0.090863146 -0.030225145 -0.063849926 0.040791545 -0.03313141 0.10922707 -0.14704219 -0.013684406
0.14699355 -0.035466194 0.01166918 0.170581 0.010486397 0.10454423 -0.05626352 -0.08268819
-0.07448521 -0.039276905 0.067453384 0.020814896 0.024387836 0.09456978 -0.09960559 -0.039616324
-0.006269841 -0.07055621 0.016053818 0.018585838 -0.0008349759 0.056760877 0.10878654 0.015490178
0.052078478 0.04454593 0.012106146 -0.06896407 -0.06387135 0.17962289 0.16274929 0.22040863
-0.031206774 -0.06758925 0.016630108 0.14025868 0.07368496 -0.06214807 0.014853763 -0.07179475
-0.049844123 0.05136719 0.052237317 -0.12237183 0.29032528 0.19457918 0.24794134 -0.18160766
-0.25732183 -0.38579854 -0.01343077 0.31793964 -0.049393706 -0.0023226168 0.03941257 0.02929261
-0.0059856735 0.00023118766 -0.14608435 -0.3039993 -0.1619781 -0.33197245 0.083052404 0.29785278
-0.18047015 0.049902733 0.11518254 0.026705973 0.22347686 0.10968334 0.12422367 -0.20526464
-0.20192334 0.07212121 0.03117998 0.1547715 -0.17033525 -0.0899285 -0.14725164 -0.1721236
-0.07076442 -0.019238513 -0.08320214 0.11651152 0.10889067 0.047504827 0.23898958 0.22008677
0.28045797 0.026145348 0.03925762 0.17376047 0.22282945 0.056111608 0.1834775 0.0060760737
0.004999181 0.11480921 -0.018722244 0.16588485 0.18969308 0.14590774 0.02270026 0.15820424
-0.086900525 -0.050409492 0.084420964 -0.06104828 0.022495674 -0.0061044362 -0.06683689 -0.033800222
-0.03660664 -0.034768812 0.06745848 0.0049663736 -0.12364868 -0.10129316 -0.004425932 -0.014169607
-0.047469694 0.06132146 0.041365724 0.112730056 0.038383257 -0.12162343 -0.047739588 -0.08317213
-0.16645502 -0.082798034 -0.10376818 -0.045523863 -0.011626818 0.01027165 0.0216624 0.19925287
0.11852659 0.07624896 0.15424249 0.12533545 0.042370748 0.07778832 0.06249366 -0.06631916
0.00043978624 -0.08998615 -0.025511852 0.035116747 0.22832814 0.064465486 0.117259026 0.0047477144
-0.017424578 0.044970434 0.12517522 0.3519064 0.33198208 0.8476495 -0.120173246 0.1750629
-0.033135343 -0.06164342 0.029860843 0.072095394 -0.02329546 0.13153562 0.13008681 -0.01878978
-0.0071101263 0.015505784 -0.0341466 0.16916059 0.19015758 0.04210012 0.039160818 0.057803296
-0.08716113 -0.048607763 0.16906837 0.052762505 0.028462049 0.01314322 0.08221222 0.12132846
0.37296587 0.03926805 -0.058528434 -0.08266716 -0.10791271 -0.106565595 -0.079641506 -0.061976396
-0.045192227 -0.046945628 -0.45705542 -0.31044686 -0.24484058 -0.047053725 -0.1394681 -0.11863937
-0.0013455701 -0.13995649 -0.012548427 0.040673252 -0.07853797 0.12792861 -0.14671433 0.002049924
-0.076809585 0.052188866 -0.1680039 0.05554878 0.018248517 -0.039496362 -0.09670764 0.11021932
-0.06268845 -0.11774443 -0.10946384 -0.14902404 -0.13600105 -0.1973488 -0.19662113 -0.041187044
-0.16687159 0.012146262 0.105100155 -0.08519024 0.06646789 0.06807288 0.11727648 0.1165448
0.17806312 -0.4644616 -0.5056605 -0.41892314 0.0043782573 0.023856353 -0.027285866 0.20774926

conv.5.bias f4 [64]
00000000: 28de 28bd f38d c93d c8ae 9cbd e3db 943d
00000010: 7ec1 e1bd 0e5f ab3d 3697 bd3c 4b2c 12bd
00000020: 8cb3 813d af38 0bbd 2fae 73bd 407e a0bc
00000030: 6176 fabc 11c1 dabc 3810 32bd fe7d b73d
00000040: fcdd b53d bd83 a0bc c74c aebc a363 1e3d
00000050: b194 513d 3013 c1bc 6103 273d 1e93 ccbd
00000060: a94e 163d 8aeb a1bd 4b13 403b 492d d83d
00000070: 88fd 09bd fb7d 723a 59dc 7d3d 6221 ab3d
00000080: 96ee 2f3d 47bb 943d 3379 97bb f314 0f38
00000090: 4c13 6cbd 7a1c 79bd 42d7 cf3d 4fa0 813d
000000a0: 15f1 1fbd 5de2 babd 4770 81bc 0a1a 573d
000000b0: dba5 d1bd 80e0 b23d 2a4d 68bd b6c8 85bd
000000c0: c1d4 debb 5768 953c 5aba 90bd ea3d 8f3d
000000d0: f8ec 9cbd e5b5 c03b fd53 b23d fa5c 713d
000000e0: 5427 3f3c 46b5 27bd 10e4 5d3d 3aa6 873d
000000f0: 9760 34bd a7bd 393c 8333 b7b9 b09f 0d3d
-0.04122749 0.09841528 -0.076505244 0.072685026 -0.11023234 0.083677396 0.023143392 -0.035686772
0.06333074 -0.033989605 -0.059492286 -0.01959145 -0.030574026 -0.02670339 -0.0434725 0.08959578
0.08880231 -0.019594068 -0.021276845 0.03866924 0.051167194 -0.02356872 0.040774707 -0.09988998
0.03669611 -0.07906254 0.0029308375 0.105555125 -0.033689052 0.000925034 0.061977718 0.08355977
0.042952143 0.07262283 -0.0046226024 3.4113367e-05 -0.05763559 -0.060818173 0.10148479 0.063294046
-0.039048273 -0.091252066 -0.015800608 0.052515067 -0.102367125 0.08734226 -0.056714214 -0.06532423
-0.0068002646 0.01823823 -0.07066794 0.06994231 -0.07662386 0.0058810585 0.08707426 0.05892656
0.011667091 -0.04094436 0.054172575 0.06623502 -0.044037428 0.011336721 -0.0003494286 0.034576118

conv.6.weight f4 [64]
00000000: 4d70 8b3f dbd9 8a3f e890 863f 1d45 5e3f
00000010: 81c7 643f d3fb 553f ee08 543f 1d19 8c3f
00000020: 5073 863f 7c21 753f a6da 863f 9c13 683f
00000030: 3a23 4b3f 7bfa 7a3f 14f6 853f f740 5e3f
00000040: f6d4 8f3f 7790 913f 0c2e 7f3f 6d6d 7b3f
00000050: ce6e 853f 34fd 6f3f 04fe 7a3f fe8a 8b3f
00000060: 200b 833f 7e75 733f c02c 843f f1d8 8c3f
00000070: 3376 693f 3d0b 6e3f aad4 923f 03bc 943f
00000080: 3448 8b3f a9ae 7b3f 0494 6f3f fc74 813f
00000090: 59f0 773f 47b3 4b3f bf95 713f 5a5b 723f
000000a0: a9a4 873f c18d 843f 9ae4 7c3f 13ab 593f
000000b0: c421 683f dd4a 4d3f 7656 563f c7d4 a13f
000000c0: 077c 6d3f 4033 803f babe 823f 002f 603f
000000d0: 5aa7 633f faa4 6e3f acc7 723f 8cdb 5d3f
000000e0: d9a9 6e3f 24a5 653f 677f 8c3f ca6f 813f
000000f0: d412 6e3f 1e3c 823f 3188 653f b30b 843f
1.0893646 1.0847734 1.0512972 0.8682421 0.8936692 0.8358738 0.82826126 1.0945164
1.050394 0.9575422 1.0535476 0.9065492 0.79350626 0.9803845 1.0465722 0.8681788
1.1236866 1.1372212 0.99679637 0.98213845 1.042444 0.9374573 0.9804385 1.0901792
1.023777 0.95101154 1.0326157 1.1003705 0.9119598 0.929859 1.147115 1.1619877
1.088141 0.98313385 0.9358523 1.0113826 0.96851116 0.7957043 0.9436912 0.9467064
1.0597125 1.035576 0.9878632 0.85026664 0.9067652 0.8019236 0.8372568 1.264306
0.92767376 1.001564 1.0214455 0.87571716 0.88927233 0.93220484 0.94835925 0.86663127
0.93227917 0.8970511 1.097638 1.011224 0.9299748 1.0174596 0.89660937 1.031607

conv.6.bias f4 [64]
00000000: fe05 10be 9eac febd 5832 84be b093 66be
00000010: 7137 e9bd b4ae 87be ce61 93be cee2 03be
00000020: 7d8d 30be 038b 3abe 7cb9 85be a20f 54be
00000030: 59d4 9ebe eb07 04bd 102a 27be 01e0 8abe
00000040: 6c39 32be 76f8 95bd 6ac6 6ebe 4dd5 ebbd
00000050: 824c 2dbe 4903 4cbe f09a adbd a3c8 61be
00000060: a3de 3ebc 3d8c 69be 0307 87be 57a1 37be
00000070: c92e 81be 3af2 14be 483d 96ba 132d 8abd
00000080: f4bc c2be 825c 6dbe d195 5ebd 3474 13be
00000090: e902 1ebe 80d2 ffbd cf40 99be f7e9 9abe
000000a0: cb02 54be 3689 0fbe ca4c 3abe e953 12bf
000000b0: 20f9 35be d42a 17be a331 b0be 0499 efbd
000000c0: 8e4c 90be 83b3 adbe b935 bfbd 24b3 74be
000000d0: 7ef1 03be aa1b 86be 0cf2 ecbe e7b3 8bbe
000000e0: 92fe 42be df7b 94be 8027 bdbd 43c2 bbbe
000000f0: 854b 18be a867 8abe b963 98be 545d f6bd
-0.14064786 -0.12435268 -0.2581966 -0.22517276 -0.11387528 -0.26500475 -0.28785557 -0.12879488
-0.17241473 -0.18217091 -0.26118076 -0.20709088 -0.31021383 -0.032234114 -0.1632464 -0.27124026
-0.17404717 -0.07322781 -0.23317876 -0.11515293 -0.16923717 -0.19923128 -0.084768176 -0.22049193
-0.01164976 -0.22807403 -0.26372537 -0.1793264 -0.25231007 -0.14545527 -0.0011462355 -0.067468785
-0.38034785 -0.2317982 -0.054342095 -0.14399797 -0.15430798 -0.124913216 -0.29932258 -0.30256626
-0.2070419 -0.14017186 -0.18193355 -0.57159287 -0.17770815 -0.14762431 -0.3441287 -0.11699107
-0.28183407 -0.3392602 -0.09336419 -0.23896462 -0.1288509 -0.2619298 -0.46278417 -0.27285692
-0.19042423 -0.29000756 -0.0923605 -0.36671647 -0.14872558 -0.27032208 -0.29763582 -0.1202952

conv.6.running_mean f4 [64]
00000000: ce32 61be 0edd ab3f 7809 53bf 8d2c ec3e
00000010: 506f 91bf fd30 b7be 5e7f 8cbf ac03 b4bd
00000020: 1f15 2fbf 6d08 62bf ac7c eabe b3a1 ccbf
00000030: 86fb a83e 1427 543f 7dd6 dbbe 494e e1be
00000040: 1c0d 09be c16d 19be d86b 81bf 5621 953e
00000050: 1694 54bf 3607 1dbf ab1f a8bf 6e32 91be
00000060: ad7d f0be 9b1f fabe 9239 b1bf 1df8 fbbd
00000070: 6c78 4cbf 39ee 29bf 4680 9abe 2179 333e
00000080: 33cc a9bf 3461 21bc 58bb 47be d7f0 42bf
00000090: 8888 d5bf 5fe7 cd3e 639b c2bf 3a22 42bf
000000a0: dde3 4b3f 7271 ed3e a559 24bf 480a c9bd
000000b0: 4d98 99bf f1f8 a3bf fc21 90bf 1ddf 2cbf
000000c0: 63c0 82bf 66cf aebf fa72 43bf 0310 1fbf
000000d0: d6b8 89be 4482 6bbf fe90 d2bd 6592 7a3e
000000e0: cb32 c4bd 743a 0abe f1c3 903e bfee 1f3f
000000f0: 8659 e7be 6841 a93e 6368 433e 9091 803f
-0.21992037 1.3426836 -0.82436323 0.4612774 -1.1362095 -0.35779563 -1.0976369 -0.08789763
-0.68391603 -0.88294107 -0.45798242 -1.5986847 0.33004397 0.8287213 -0.4293708 -0.4400504
-0.13383907 -0.14983274 -1.0111036 0.29126996 -0.8303846 -0.6133913 -1.3134664 -0.28358787
-0.46970883 -0.48852238 -1.3845694 -0.12303183 -0.7987125 -0.66379124 -0.3017599 0.17526676
-1.3265442 -0.009849835 -0.1950506 -0.7614874 -1.6682291 0.40215585 -1.520367 -0.75833476
0.79644567 0.46375614 -0.64199287 -0.09816414 -1.1999604 -1.2810346 -1.1260371 -0.67527944
-1.0214962 -1.3657043 -0.76347315 -0.62133807 -0.2689883 -0.91995645 -0.10281561 0.24469908
-0.095800005 -0.1349886 0.2827449 0.6247367 -0.45185488 0.33057714 0.19082789 1.0044422

conv.6.running_var f4 [64]
00000000: f904 463f c5cc a43f 01d7 5d3f 94fd 2b3f
00000010: a911 393f 5568 543f 4ff2 a63f f749 8d3f
00000020: 71c4 043f 3b7a 933f 967d a73f cc22 f23f
00000030: c86a b13f 57b9 bf3f 400e 1e3f f7f6 6e3f
00000040: 1ca7 b13f 4ced 443f 76de c63f 6895 bb3f
00000050: 0528 a33f b934 443f d95f b640 d1a5 8d3f
00000060: 1314 ab3e a3ad 2d3f 9eed 2b40 99f3 0a3f
00000070: b11b 153f c800 fe3f 968d 0a40 33a7 bf3f
00000080: cf41 e23f 0cf8 0d3f d51e f33f 399c 3f40
00000090: ab70 e53f b1ed d53f cba9 ce3f aed5 f93f
000000a0: 3b9c 593f 5d57 233f f498 b33f 31ec ec3e
000000b0: 49b5 6040 b1ea 8a3f 47ef 9d3f 5b30 f73f
000000c0: d96f 1e40 c282 bc3f 7475 0840 2528 423f
000000d0: bb8e 573f 3f53 f33f d551 8a3f f823 3a3f
000000e0: f12b c13f 8b02 3a3f 75a6 0340 6c8e 6c3f
000000f0: 418c 0e3f ec8f 303f b30e 9c3f df83 a53f
0.7735134 1.2874991 0.86656195 0.67183805 0.7229257 0.829717 1.3042697 1.1038197
0.51862246 1.1521677 1.3085201 1.8916869 1.3860712 1.4978436 0.61740494 0.9334559
1.3879123 0.76924586 1.553664 1.465497 1.2746588 0.7664295 5.6992 1.1066228
0.33413753 0.67843074 2.686378 0.5427795 0.5824538 1.9843988 2.1648917 1.49729
1.7676333 0.55456614 1.8993784 2.99391 1.7925009 1.6713163 1.6145567 1.9518335
0.85004014 0.6380518 1.4031053 0.4627395 3.5110648 1.0852872 1.2338647 1.9311632
2.4755766 1.4727404 2.1321688 0.75842506 0.84202164 1.900978 1.0806223 0.72711134
1.5091535 0.7266013 2.0570347 0.9240482 0.5568276 0.6896961 1.2191986 1.2930869

conv.10.weight f4 [128, 64, 3]
00000000: 1ac0 333e 2cff 83bc d537 2c3e e0e2 363e
00000010: 034f 133e 30f4 6b3e c41e 51bd 1d55 6d3d
00000020: 6dc9 d4bd bd97 a8bc 1e93 8cbd 0364 343d
00000030: e46f 92be 6151 d0bd 95c7 00be aa10 97bd
00000040: fc4b 193e 0308 1bbc 1cad 273e 5d06 7a3e
00000050: a09d b23e 16e6 3fbc 2a4e c63d 2361 c9bb
00000060: a7f1 4a3d 2d71 603c 2371 4abe a1fd 5bbe
00000070: faa8 ee3c 7c7b 16be 24c8 363a b22e 6b3d
00000080: 4478 bb3d d503 3c3e 30b6 f93d 31c0 063e
00000090: 800f 8b3e 2e35 fe3d 4317 253d d50d 353d
000000a0: a40d 89bb 6978 8b3c 9316 eb3d 6c70 a63d
000000b0: a644 493d afdf d63c 8554 a73d b210 223d
000000c0: 3e4a 363c 0e6b 9e3d 53c2 6bbe dd69 e63d
000000d0: c54d 983d 70e3 b63d 8252 283d 2726 f53d
000000e0: 5331 42bd c498 2b3e e875 9e3d 6570 8a3e
000000f0: 20d1 a63d 0cbd 6c3c 1768 82bd c776 623d
00000100: a0fe 513e 817e 4c3c 5155 a5bd e013 7bbd
00000110: 4814 b7bd 1cf9 113d 468d 6c3e 5f0e 753c
00000120: b0a6 44be 5549 3fbe 4d03 21be b656 b03d
00000130: c983 bb3c dd59 bfb9 9d22 97be 0761 bcbe
00000140: 3790 94be c33f 26be 6c66 c3bd 96e6 073d
00000150: f5ac 09be 1ae1 2e3c 06e6 2dbe 930f 1ebe
00000160: 8241 08be f325 b6bd f2bd 823d a729 c63d
00000170: 9a9d 2b3e 3d1f a83d dbbb b53d 10eb 113d
00000180: b418 6f3d 3da5 d43d 436d 203d d948 893e
00000190: 4abf 2e3c 4e39 18be 68a7 f93d adf9 ce3b
000001a0: d90a 88bc 4ce7 c63c 4a47 c1bd 67c3 b3bd
000001b0: 3c10 753d 2819 013e d860 fe3d ab4c 623e
000001c0: d452 f53d ac0b f43d 1a53 7a3e 10eb 663e
000001d0: 29f6 d53d 6f02 ad3c 0b17 5e3d 10e1 5b3d
000001e0: 820a e2bc e71e dbbd 9c1f acbd 995a 153e
000001f0: ddaf e43c 2119 803d 6fc7 05bd 3dbe 733d
00000200: feeb c2bd eb23 cabd 5b0e 6a3c 5d7b 52bc
00000210: a134 43bd c4bd e2bd 7122 01be df8a a5bd
00000220: 6db1 d53d 55db 803d b017 0fbd 7574 643d
00000230: 8153 84bd 6952 603e 7654 fe3d 9832 493e
00000240: f874 b1ba deff edbb 2b47 64bc bfc8 243d
00000250: dfe1 983d b8b3 b53d 287c 2cbc c177 76bc
00000260: 5fa8 a63d 335f 26bd 2d78 edbc 1bd1 3bbe
00000270: facb 5cbd 667b 11be 1b89 91bc 421b 33be
00000280: 0a4a a23b 8885 85bd eeec 04bd 07cd c93c
00000290: 58eb d4bd b129 293d a394 e63d 1c4e 92bc
000002a0: 8e6f d4bd e0a7 d13d 7bd2 e8bc d4c1 32be
000002b0: 0ada 5bbd 0762 863d 7d72 6d3d 7a06 463e
000002c0: 5d19 cc3d f254 553e 21f0 2d3e 773f 933e
000002d0: a3cb 02be 8c44 cbbc f488 4cbe 103e 833e
000002e0: 5061 073e 4608 453e ec1d 0f3e 8839 3a3e
000002f0: 37fd 62bd 5c7e 1f3e 761d 0c3e 33a6 ae3d
00000300: f5df 0abd 6f82 7dbe 5161 a4be e51a 5fbe
00000310: a610 a0be 2123 a3be 7669 e8bd e95a 1fbb
00000320: 97f8 64bd 2943 723d dd18 e9bc 7542 5fbd
00000330: 7c87 5c3d be38 a3bd 6404 7b3d c824 dfbd
00000340: 31a4 b5bd d9d3 80bd fa76 d139 48aa 153c
00000350: 16a9 a7bb 9541 1cbe 947b 24be d28d 17be
00000360: f799 a23d 65c9 053e f6c4 fc3d 3428 183e
00000370: fe2e a03d ddfd ccbc 493b 30bc d2b6 96bd
00000380: 0434 0ebd 8849 3dbd 125d 083e 43f3 a23c
00000390: 5943 46bc 2e45 b2bd 6336 02be a1f9 57bd
000003a0: 6e5e f6bd e48b 793c fa7b de3d 8955 5ebd
000003b0: c710 96bd 2e01 b03c de0f f4bc 274a 91bd
000003c0: 18c4 9dbd 07a9 6abd 462a 833d 8cfd 2fbc
000003d0: 258e afbd ddf4 913c 0d93 12bd c421 ddbd
000003e0: 9f02 233e 32f0 1abe e1a7 58be 91f5 67bd
000003f0: 011d 4d3d 58a2 e8bd 2f1a 8dbd 45b8 e3bd
0.1755375 -0.016112886 0.16818173 0.17859983 0.1438561 0.23042369 -0.05105473 0.0579425
-0.103899814 -0.020580167 -0.06863998 0.04404069 -0.2860099 -0.10171772 -0.12576135 -0.07376225
0.14970392 -0.009462359 0.1637463 0.2441649 0.34885883 -0.011712572 0.09682877 -0.006145613
0.049546864 0.013698858 -0.1976972 -0.2148347 0.029133309 -0.14695543 0.00069725723 0.05741758
0.09153798 0.18360837 0.12192953 0.13159253 0.27160263 0.12412487 0.040305387 0.044202644
-0.0041825343 0.01702519 0.11478915 0.081269115 0.049137734 0.026229708 0.08170418 0.039566703
0.011126099 0.07735263 -0.23023348 0.112506606 0.07436708 0.08930099 0.04109431 0.119701676
-0.04741032 0.16757494 0.077373326 0.27038875 0.08145356 0.014449369 -0.0636751 0.055289056
0.20507288 0.012481333 -0.080729134 -0.06129825 -0.08939415 0.03563796 0.23100767 0.01495704
-0.19204211 -0.18680318 -0.15723915 0.08610289 0.022889988 -0.00036497312 -0.29518595 -0.36792776
-0.29016277 -0.1623526 -0.0954102 0.03317889 -0.13444884 0.010673786 -0.16982278 -0.15435629
-0.13306239 -0.08893957 0.063838854 0.09675913 0.16759339 0.08209083 0.08873721 0.035624564
0.058373168 0.10383079 0.0391667 0.2681339 0.010665724 -0.1486561 0.12190133 0.0063163848
-0.016606735 0.024280213 -0.094374254 -0.087775044 0.059829935 0.12607253 0.12420815 0.22099559
0.11978689 0.11916289 0.24445763 0.22550607 0.10447342 0.021119324 0.054221194 0.053681433
-0.027592901 -0.106992535 -0.084044665 0.14585342 0.02791589 0.06254793 -0.032660898 0.059507597
-0.09517668 -0.09870132 0.014285649 -0.012846795 -0.047657613 -0.11071351 -0.12610795 -0.08083128
0.10434232 0.06291834 -0.0349347 0.055775125 -0.064612396 0.21906437 0.124184534 0.19648206
-0.0013538888 -0.0072631678 -0.013932983 0.04023051 0.074649565 0.08872169 -0.010527648 -0.0150432
0.08137583 -0.040618133 -0.028987968 -0.18341486 -0.053905465 -0.14207229 -0.017765572 -0.17490867
0.004952674 -0.0651961 -0.032452516 0.024633897 -0.10396451 0.041299526 0.11258819 -0.017859511
-0.1037284 0.10237098 -0.028420677 -0.17456752 -0.053674735 0.06561666 0.057970513 0.19338408
0.09965775 0.20833185 0.16986133 0.28759357 -0.12772994 -0.02481296 -0.19974118 0.25633287
0.13220716 0.19241437 0.13976258 0.18186009 -0.055417266 0.15575546 0.13683113 0.08527794
-0.03390499 -0.24756788 -0.32105497 -0.21787603 -0.31262702 -0.3186274 -0.1134824 -0.0024315661
-0.055901136 0.05914608 -0.028454239 -0.054506738 0.053840145 -0.07969807 0.061283484 -0.10895687
-0.08869208 -0.06290407 0.0003995223 0.0091348365 -0.005116592 -0.15259393 -0.16062766 -0.14800194
0.07939523 0.13065107 0.12342255 0.14859086 0.07821463 -0.025023395 -0.010756322 -0.07359089
-0.034717575 -0.046212703 0.13316754 0.019891387 -0.012101018 -0.08704601 -0.1271606 -0.0527283
-0.1202973 0.015231106 0.108634904 -0.05428079 -0.07327419 0.021484938 -0.029792722 -0.070942216
-0.077034175 -0.057290103 0.064045474 -0.010741603 -0.08572034 0.017816955 -0.03578477 -0.10797456
0.15918969 -0.1513069 -0.2115779 -0.056630675 0.05007649 -0.113590896 -0.0688976 -0.11119131

conv.10.bias f4 [128]
00000000: 889a 913d 5201 ef3c e1b6 51bb a9b7 653c
00000010: 4b99 0f3d 6fa2 283d ef10 78bd ea07 0f3d
00000020: c7c6 e53b 4459 43bd 3981 3ebd 3229 c03c
00000030: 63ac 603d e37e 4abd 85e9 e4bc 8aba b63c
00000040: 8a90 853c 6188 09bd 17e0 c2bc 85ab 2cbd
00000050: 41c1 b53c 3ff9 b2bc f686 513d 7e1a 843d
00000060: 7866 453d a737 363d 48f5 abbc 0d40 213d
00000070: e51f 7d3d 38e3 1cbd 9d48 84bd 68d3 c8bc
00000080: 602d 80bc 8189 20bd 1069 6cbd 6d36 52bd
00000090: 1c7b 8cbd f944 2f3d 73fe 03bb bbc4 293d
000000a0: 5e2a 1bbd 5f23 743d 36f6 97ba 2611 e4bb
000000b0: 0a97 14bd 7fc6 813d 79e0 87bd 8618 32bd
000000c0: 2794 803d 4028 913d fc98 1cbd 7133 3cbd
000000d0: e1ae 62bd 212d 4f3c 10fe 23bd c86c a63c
000000e0: 8165 d3bb a4b9 813b d303 e53c f89a 763c
000000f0: 1eeb c4bc 0dac 23bd 5bb9 a5bd 4b6f 36bd
00000100: 6ffb 5fbd 8f22 babc 1498 0d3d 12f7 9c3d
00000110: b35e 35bd 884c 373d 8f3a 78bd 5a0b 88bc
00000120: da96 693d 6f24 7a3c 0754 eebc 1126 593d
00000130: d1bf 8f3d e9cf 9c3a 3b90 a43d a1fd 693d
00000140: 1547 1dbd 538d f63c fe1c 3bbd 7e4a 46bd
00000150: 3f01 943d 4923 debc f734 8aba b12c 8abd
00000160: ebb7 ff3b a6d8 b33c 0b5b 31bd 32a7 9f3c
00000170: bbd0 7b3d e3dd 353d 5797 99b9 4e05 7f3d
00000180: 8d7f f33c 39d2 cf3a f556 6f3c cd69 a83d
00000190: 4725 6cbc 234a bd3c 2e6a b8ba 5295 2f3b
000001a0: 9b2f ff3c 7fea 873d fe94 4ebd 3b67 c3bc
000001b0: 75d8 d6bc 0c78 84bd e197 0a3b ee95 d33c
000001c0: 6d6b da3c 03fe 00bc 5596 273b c410 6e3d
000001d0: f779 2bbd 58d6 10bd f701 a4bc bcb4 043d
000001e0: 02a3 8c3d cd5c 21bd 44ba d13c cb8d 84bb
000001f0: f47d 4abc 1774 2dbd a8b8 25bd a52f 79bc
0.071095526 0.029175434 -0.0031999873 0.014020839 0.0350583 0.041170534 -0.060563024 0.034919657
0.0070122215 -0.047692552 -0.046509955 0.023457143 0.0548519 -0.049437415 -0.027943382 0.022305746
0.016304273 -0.033577327 -0.023788495 -0.04215576 0.022186877 -0.021847365 0.0511541 0.064503655
0.048193425 0.044486668 -0.020990983 0.039367724 0.061797995 -0.03830263 -0.064591624 -0.024514869
-0.015646636 -0.039193634 -0.057717383 -0.051321436 -0.06859419 0.042790387 -0.0020140677 0.041447382
-0.0378822 0.059604045 -0.0011593762 -0.006960052 -0.036276855 0.06336688 -0.06634612 -0.04348042
0.06278258 0.07087755 -0.038231835 -0.045947496 -0.05534256 0.012645037 -0.040037215 0.020315543
-0.006451309 0.0039588977 0.027955925 0.015051596 -0.024037894 -0.039959002 -0.080919944 -0.04453973
-0.054683145 -0.022721557 0.03456886 0.076643124 -0.044279765 0.04475072 -0.06060272 -0.016606975
0.05702863 0.0152674755 -0.029092802 0.05301482 0.07019008 0.0011963818 0.08035322 0.057126645
-0.038397867 0.030096686 -0.045681946 -0.048410885 0.072268 -0.027116435 -0.0010544349 -0.067468055
0.007803907 0.021953892 -0.043299716 0.019488905 0.061478358 0.04440106 -0.0002929519 0.06226092
0.029723907 0.0015855498 0.0146081345 0.08223305 -0.0144131845 0.02310664 -0.001406973 0.0026791883
0.03115063 0.066365235 -0.05043506 -0.023852935 -0.026226262 -0.064682096 0.0021147656 0.025828328
0.026662553 -0.007873061 0.0025571783 0.058121458 -0.04186436 -0.035360664 -0.020020468 0.032398924
0.06867029 -0.039395142 0.025601514 -0.0040452234 -0.012359131 -0.04234704 -0.040459305 -0.015209113

conv.11.weight f4 [128]
00000000: bc2b 9e3f 82fc 7e3f b7ff 733f f514 a13f
00000010: 3808 9e3f 7dda a43f 8546 693f 26a9 783f
00000020: cfdd c43f 4daa 993f c5d7 933f bb46 983f
00000030: 7923 7d3f 424c 733f 0c3c a03f b6be 8e3f
00000040: 5952 b63f 7fa4 a13f e9c9 943f 7f12 723f
00000050: 81cd 673f 988f 973f 527e 8f3f 038d 813f
00000060: 831d ad3f 6c97 853f c47f a33f f163 de3f
00000070: d93c 9d3f d548 6b3f ebde a03f 0b76 953f
00000080: 4454 bd3f a7ad a73f 46e1 833f 78c9 b63f
00000090: 126c 9f3f 35e0 be3f b7b7 773f 1e44 e53f
000000a0: 84b5 e13f d9b5 a73f 9783 8b3f c247 d03f
000000b0: cdaf 713f ff09 703f 13b6 9e3f e3a2 9d3f
000000c0: c62c 9e3f a224 893f 4bfb ef3f 285d bc3f
000000d0: 7de7 b23f 9e21 af3f 9e12 803f 0f4d b13f
000000e0: 6ea5 d43f 9bd9 7b3f af3f 7a3f 1d43 683f
000000f0: 6d77 b73f 7d76 ac3f 1f61 a03f a00b f43f
00000100: 71b2 893f cdb8 693f d51c 833f 13ae 8e3f
00000110: 7073 733f 17aa 8b3f e168 c23f 17b8 953f
00000120: 4a27 7e3f 2179 ae3f b41a aa3f 38cd cc3f
00000130: 1a1f b53f 14e8 9f3f a124 933f a71a 923f
00000140: 5a3d 953f 5eb9 743f 5626 b73f f6b0 ec3f
00000150: 2bd7 9c3f 4e84 993f 14d5 993f 566e 993f
00000160: 74e0 9d3f da1f 753f fae6 763f 74ab 8e3f
00000170: fcec 8b3f 3047 883f cf47 813f 7a92 833f
00000180: 8588 933f 043f 6d3f feaa e03f 2dd5 793f
00000190: 349a 9a3f 8a6c 8f3f c8ef 773f ba23 ac3f
000001a0: 3b68 a33f 6eef b03f 5809 a23f b5bd ab3f
000001b0: f00c 9f3f 2b87 b23f d858 a23f edf5 9e3f
000001c0: 34f2 813f 74d1 cf3f f83d 783f a12e 7c3f
000001d0: 2ba1 993f 2e15 6e3f c737 a33f f206 713f
000001e0: 83cf 713f 1248 b53f 4a6d 953f 946b 943f
000001f0: d5a2 b03f 4ec6 6a3f a3e3 8e3f f594 793f
1.2357097 0.99604046 0.95312065 1.258452 1.2346258 1.2879177 0.9112323 0.971331
1.5380191 1.2005097 1.1550223 1.1896585 0.9888225 0.95038235 1.2518325 1.115195
1.424388 1.2628325 1.1624118 0.9455947 0.9054795 1.1840696 1.1210425 1.0121158
1.3524631 1.0436835 1.2773366 1.737425 1.2284194 0.9190801 1.2568029 1.1676649
1.4791341 1.309987 1.0303123 1.4280233 1.2454855 1.4912173 0.967647 1.7911413
1.7633519 1.310237 1.0899533 1.6271899 0.94408876 0.9376525 1.2399315 1.2315334
1.2357414 1.0714304 1.8748564 1.4715929 1.3976895 1.3682134 1.0005682 1.3851641
1.6612985 0.98378915 0.97753423 0.90727407 1.4333321 1.347366 1.2529639 1.9066048
1.0757581 0.9129761 1.0243174 1.1146873 0.9509802 1.0911282 1.5188257 1.1696805
0.992787 1.3630716 1.3289399 1.6000128 1.4150116 1.24927 1.1495553 1.1414384
1.1659348 0.9559535 1.4308574 1.8491504 1.2253164 1.1993501 1.2018151 1.1986797
1.2334123 0.95751727 0.9644619 1.1146073 1.0931697 1.0646725 1.0100039 1.0279076
1.1526037 0.9267428 1.7552183 0.97590905 1.2078309 1.1204998 0.9685025 1.3448403
1.2766184 1.3823068 1.2659101 1.3417269 1.2425823 1.39475 1.2683363 1.24188
1.015204 1.6235795 0.96969557 0.9850865 1.200231 0.9300107 1.2751397 0.9415122
0.9445726 1.4162619 1.1673977 1.159533 1.3799692 0.9170884 1.1163219 0.97492915

conv.11.bias f4 [128]
00000000: 6c10 22be fa7e 02be 9278 38be bec7 b5bb
00000010: 6304 053e 63cd 023e e511 4cbe e99a a4bd
00000020: 7082 d43b ce10 0d3e 4444 573d 7248 643d
00000030: c8c8 20be bd14 54be 0bdb 40bf 4b4a 083e
00000040: 17cb e2bc dca8 023e 52f5 ee3d 3f16 74be
00000050: 4fd2 77be 010c f33d d306 bebe 258a 783d
00000060: 1659 713e 29cf 05be 5d47 b4be f8eb 893d
00000070: e3c2 6a3d f9b1 67be 715a fd3d e408 863d
00000080: aed7 013d 8d1d c93d f746 7f3c ff66 1a3d
00000090: 59d9 e13d 8d49 b83d 8c48 35be b6cf 5a3e
000000a0: 9365 e33d 0b8f 873d 9461 bc3d b26b a03d
000000b0: 6071 74be 212d a6be 714d 883d b003 c13d
000000c0: 260c 743e 3632 1dbe b0f5 173c 79f1 44be
000000d0: 8d42 103d 14cc 5b3d 32c4 dfbd 03c8 a73d
000000e0: 6e1f b23d 0a47 f0bd 3531 42be 8fb6 3abe
000000f0: 4999 063e 0309 e13d d802 333d d023 36be
00000100: 4837 94be 0474 a3be 0d2a 3abe 92e4 babe
00000110: 1309 9cbe 5020 81bb 658c a13d fbd3 543d
00000120: 5447 2abe ee6a c63d 7fd2 ac3d f548 3d3d
00000130: 7756 923d cb9f 5e3a 2e29 a33b 2c3e 8c3d
00000140: 7e66 213e 45d2 49be 161b ce3d 3369 7fbd
00000150: 8114 053e 3904 263e aa08 fb3c d0e0 91be
00000160: 02f9 e33d 9c40 70be 2a2e 24be 2aa0 c43d
00000170: a8e4 fb3d 39a7 d23d 2e7b 2bbe 1820 1bbe
00000180: 19e7 db3d 7398 66be 2adc b33d 78de 3fbe
00000190: b8d4 ef3d e940 dabe 8f4d 8fbe a09c 2a3e
000001a0: 0de3 bc3d f1a0 0d3e 0845 bc3d 4640 46bd
000001b0: 6f77 213d 377a d03d 6122 193e d933 a03d
000001c0: 0d96 69be 5331 cf3d ba5f 52be c145 16be
000001d0: 84be 883c ee6a 8dbe fc91 06be 345e 78be
000001e0: e0f9 8fbe 1399 d5bc 323e 573d 179c 913d
000001f0: 8060 21be e324 2dbe 45a3 06be a6cc 9dbe
-0.15826577 -0.1274375 -0.18014744 -0.0055474928 0.12989955 0.12773661 -0.19928701 -0.08037359
0.006485276 0.13775942 0.052555338 0.05573315 -0.15701592 -0.20711036 -0.75334233 0.1330959
-0.027684731 0.12759727 0.11667885 -0.23836611 -0.2420132 0.11867524 -0.3711458 0.06067862
0.2356914 -0.13067307 -0.35210696 0.067344606 0.057314765 -0.22626485 0.12370766 0.065446645
0.03169983 0.098200895 0.015580884 0.03769588 0.11027784 0.08998404 -0.17703456 0.21368298
0.11103358 0.0661908 0.09198299 0.07833041 -0.23871374 -0.32456306 0.06655396 0.094245315
0.2383276 -0.15351185 0.009274885 -0.1923274 0.035219718 0.05366142 -0.10926093 0.08192446
0.08697401 -0.117322996 -0.18964083 -0.18233703 0.13144411 0.10988047 0.043703884 -0.17787099
-0.28948426 -0.3192445 -0.18180104 -0.3650251 -0.30475673 -0.0039406195 0.07888106 0.051959973
-0.16628772 0.09688364 0.084385864 0.046212155 0.07145398 0.0008492439 0.0049792742 0.06847796
0.15761754 -0.19709118 0.1006376 -0.062356185 0.12996103 0.16212548 0.03064378 -0.2849183
0.11131479 -0.23462147 -0.16033235 0.09600861 0.12299472 0.102858014 -0.16746208 -0.15148962
0.10737438 -0.22519092 0.08782227 -0.18737209 0.11710495 -0.42627648 -0.2798886 0.1666131
0.09222994 0.13830926 0.09192854 -0.04840114 0.03942054 0.10179561 0.14954521 0.07822389
-0.22811146 0.1011683 -0.2054433 -0.14675047 0.016692407 -0.27620643 -0.13141626 -0.24254686
-0.28120327 -0.026073968 0.05254955 0.0710985 -0.15759468 -0.16908602 -0.1314822 -0.30820197

conv.11.running_mean f4 [128]
00000000: f7b2 e13f 6af4 34c0 3d86 fabf 5b51 54bf
00000010: 098f 903e 2585 c03d 6e92 6dc0 6f18 97bf
00000020: 4997 3740 9664 f93e ec89 be3e dec3 0b3f
00000030: 1bb3 43c0 276f b0bf 6787 9ebf 1433 ea3e
00000040: 7113 0140 7af3 603f d504 aa3d 3aa2 2fc0
00000050: f508 4ebf ef78 363d 40f0 14c0 f15e 973f
00000060: 3407 103f e603 e6bf 097b 02c0 48d2 ee3f
00000070: 8ad0 2f3f c409 25c0 b163 d03e 3039 693f
00000080: f207 6b3d 1c63 123f 00ae c53e a663 fd3e
00000090: a63f 593f af11 b4be 4f2f 03c0 2253 4540
000000a0: f38f 4140 6d0a d63e 12cb 70bf 5668 903e
000000b0: a96b 2fc0 803e d0bf f6b4 79bf bf9d fcbe
000000c0: 8053 0940 9eb0 da3e 2acf 3540 ca44 1540
000000d0: a23c 8b3f 87cf 2c3f f6f7 d5bf 7d94 bc3e
000000e0: 615f 22be 178c 19c0 47ed e6bf b8c6 4cc0
000000f0: d833 9b3e 35bd b93f c0d1 52be 8e98 cf3f
00000100: 3ff1 8bbf eb32 1fc0 27a3 42c0 87a5 03bf
00000110: f5ee 3ec0 0526 b63f cb68 eebd b99f 373f
00000120: 288f 0ac0 e6a8 0e40 e5f4 3940 9d77 c13f
00000130: 908f 0340 3c4f ad3f 9ea5 00be f76d 703d
00000140: bd0c 5c3f 03d4 48c0 4df0 3cbd 352d c03d
00000150: 2047 f93e 646c cebc 5551 313f debb 9bbf
00000160: f82c a93f da34 2fc0 1cdc 8ec0 b31e 603e
00000170: 09d8 92be 55df d23e 8669 53be c13a 2dc0
00000180: 7bff 0940 e83e 23c0 8dd4 f53e 4232 bfbf
00000190: 8ed3 a63e 9f7d 2a3e c50d 95be 368e b3be
000001a0: f6fe 0c3f dd6c 293f b5c2 7abf bb39 3640
000001b0: ad7e 973f 48ac 7940 ebb3 5e3f cb43 f93d
000001c0: c568 0bc0 88e0 e63d 3a9e 49c0 10d7 8cbf
000001d0: 5c92 da3e d14a 4fbf 917e cb3d 39fb 02c0
000001e0: 9f19 05c0 62fd 0540 dbe4 913f a109 10bf
000001f0: 19a5 ce3e c587 87c0 d025 22bf aaf9 5bbf
1.7632741 -2.8274179 -1.9572216 -0.8293664 0.28234127 0.09400395 -3.7120624 -1.1804332
2.8686087 0.48709553 0.372146 0.54595745 -3.0578067 -1.3783921 -1.2385072 0.45742095
2.0168116 0.87871516 0.08301703 -2.7442765 -0.8048242 0.044548925 -2.3271637 1.1825849
0.5626099 -1.796994 -2.0387595 1.8657923 0.6867758 -2.578721 0.40701059 0.91102886
0.057380624 0.5718248 0.38609314 0.49490088 0.84862745 -0.35169742 -2.0497625 3.083199
3.024411 0.4180483 -0.9405986 0.28204602 -2.740946 -1.6269073 -0.9754175 -0.493391
2.1457214 0.42712873 2.8407693 2.3323236 1.0877879 0.6750416 -1.6716297 0.36832038
-0.15856697 -2.3991754 -1.8041161 -3.1996288 0.3031299 1.4510866 -0.20587826 1.6218431
-1.0932997 -2.4874828 -3.041208 -0.5142445 -2.9833348 1.4230353 -0.116410814 0.7172809
-2.1649876 2.2290587 2.9055722 1.5114628 2.0556374 1.3539805 -0.12563178 0.05869862
0.8595694 -3.1379402 -0.046127606 0.093836226 0.48687077 -0.025198169 0.6926473 -1.2166708
1.3216848 -2.7376008 -4.464369 0.21886711 -0.28680447 0.41186014 -0.20645723 -2.706711
2.1562183 -2.5507145 0.48013726 -1.4937212 0.32583278 0.16649483 -0.29112068 -0.35069436
0.5507654 0.6618174 -0.9795335 2.8472736 1.1835533 3.9011402 0.86993283 0.121711336
-2.1782696 0.11273295 -3.1502824 -1.1003132 0.42689788 -0.80973536 0.0993625 -2.0465834
-2.0796888 2.0935903 1.1397966 -0.5626469 0.40360335 -4.2353234 -0.6333895 -0.8592783

conv.11.running_var f4 [128]
00000000: 765c 1a40 554e dc40 ef0d 2e40 2aab 8a40
00000010: 7902 1440 953d 8240 8abb c540 04a6 8440
00000020: 355f 8541 5cbf 3640 726e 6640 a87d 6b40
00000030: 8f3b 7b40 b955 2840 14de 0540 c3f0 2e40
00000040: ddfe 1a41 70df 9940 70f5 f53f ab10 c140
00000050: bffa 3240 b5b5 6d40 8fad ad40 a219 5040
00000060: bb2c 7740 073a 4d40 e0ee c140 1754 5741
00000070: e956 4e40 e3dd ac40 13d8 5040 3403 4540
00000080: 787d ad40 84f8 8240 520d 2b40 c91c 0340
00000090: 1bf0 1040 3713 5140 7e2c 6f40 b67a 4041
000000a0: 598f 9041 8c42 1340 e918 da3f 7ec4 b840
000000b0: 273a 8f40 502c 5940 202d 7c40 78fc e93f
000000c0: 386b 0741 c57e 6c40 311b 8041 ba1b b040
000000d0: d58e 8740 f481 3740 e3ab 7140 6d62 a640
000000e0: 81bf 3641 9069 b140 9b38 7740 ec5d 7740
000000f0: 4b95 8140 b6fb 3040 a506 2c40 63c4 ab40
00000100: 22bb b740 a95c 8f40 5767 f040 8071 a940
00000110: efaa 0841 0e86 5e40 aa50 1d41 0834 1341
00000120: 9ef2 1840 5c62 4640 37f0 4941 0bae 5e40
00000130: 955c 6041 9c82 2140 3f1a b43f 688f 5540
00000140: b744 4e40 3341 a740 0991 5640 fd9a d340
00000150: 49d5 5a40 444f 4d40 0895 b540 daa9 b540
00000160: 8694 8540 c912 9840 efc1 0c41 6a00 5740
00000170: 8254 3740 efe9 4940 1e54 dc40 d1aa 4340
00000180: 9bc4 ca40 4afc 5240 b2a8 1741 4eb6 bb40
00000190: 5971 2640 64ce b840 3c50 2540 77a8 2040
000001a0: 1559 1e40 b185 4040 78fa 4140 40f8 3441
000001b0: 74e7 cd40 f920 1541 9253 7040 5301 4340
000001c0: 0193 1a40 29f9 c840 0cb6 b540 efc8 2c40
000001d0: 0d8a 4540 a985 4b40 b4e7 cb40 58d1 4540
000001e0: 2852 c540 8de0 cc40 f461 4640 2d7e 6a40
000001f0: 0bf2 9d40 0114 0141 b9ff a540 e9de 3c40
2.4118934 6.884562 2.7196004 4.333394 2.312651 4.0700173 6.179143 4.1452656
16.671488 2.8554296 3.600491 3.6795444 3.9255102 2.630232 2.0916796 2.733445
9.6872225 4.808525 1.9215527 6.0332847 2.7965543 3.7142155 5.4274364 3.2515645
3.8621051 3.2066667 6.0604095 13.45803 3.2240546 5.402086 3.2631881 3.0783205
5.421566 4.0928364 2.672688 2.048632 2.2646549 3.2667978 3.7370906 12.029959
18.069994 2.3009367 1.7038852 5.773986 4.4758487 3.3933296 3.9402542 1.8280172
8.463676 3.6952374 16.013277 5.5033846 4.2361856 2.8673067 3.7761161 5.199515
11.421754 5.544136 3.86283 3.8651075 4.0494742 2.7653632 2.6879056 5.367723
5.7415934 4.480061 7.5126147 5.295105 8.541732 3.476932 9.832193 9.200203
2.3898082 3.0997534 12.621146 3.4793727 14.022603 2.5235968 1.407051 3.3368778
3.222944 5.226709 3.3526022 6.6126695 3.419268 3.207963 5.6744423 5.676984
4.1743803 4.752293 8.797347 3.3594003 2.864533 3.1549032 6.885268 3.0573008
6.3364997 3.2966485 9.478685 5.866004 2.6006682 5.775194 2.583022 2.5102823
2.4741871 3.0081599 3.0309124 11.310608 6.4345036 9.32055 3.7551007 3.0469558
2.4152224 6.280415 5.6784725 2.699764 3.086551 3.180033 6.372034 3.0909023
6.166279 6.402411 3.0997286 3.6639512 4.9357963 8.067384 5.187466 2.9511054
