output/energy_cnn_20260221_204822/checkpoints/epoch_95.pt (torch, 174824 bytes, 21 tensors)

conv.0.weight f4 [32, 14, 3]
00000000: e89d ecbd 6282 9bbc 2621 bb3c c763 f9bb
00000010: 77a0 ca3d f053 abbd baa1 c0bd 16e5 d73d
00000020: 82c5 bdbd 55b0 1d3c 1c9e b5bd ca85 2bbc
00000030: 3020 023c b166 baba 5b66 1ebb 13e8 b83c
00000040: 57ba 453d 9fbc 79bd 6bcd c63c 5533 133e
00000050: 652d e23b 1018 aa3c 378c c1bd 9010 ad3c
00000060: 68db fa3e f038 da3e 8ca8 123f 812a 59bf
00000070: 103d 62bf 8bdf 77bf 3965 6bbe d555 7bbe
00000080: f19b 33be 9a14 86bb 836e 353d d242 08bd
00000090: a0e7 efbd 7572 dc3d d049 a03b 738e 8bbd
000000a0: 03e3 b23b 0e13 9e3d b6c9 54be d8be c23d
000000b0: 6067 a83d 5add 323e 40e4 c13d 165c c23c
000000c0: da30 f0bd 5734 63bc 9306 bdbc 3edd 3d3e
000000d0: d049 243e ef5f 52be b4c8 363d 9a2a 15bd
000000e0: 9839 9b3d 681f 4d3d 9b87 883c ceeb 8cbd
000000f0: 267b 083c 63e9 3c3d 8f64 373e 8588 bebc
00000100: f80f bfbc 7026 463d 232e 44be 8579 cebc
00000110: 56cd 90bc 8549 5f3e 39a5 793e 73e4 c83e
00000120: df96 07bf 32c8 1bbf baae 07bf 3660 fc3c
00000130: 6cad cd3d d582 58be 8843 713d 719d acbd
00000140: 19f2 10bd f9d1 133d edd9 8abd e71e e33d
00000150: 136a ae3d 7aa0 173e 5389 7abe df8c 163d
00000160: caa0 453d f8fd 893d aae5 84bc 1597 483d
00000170: 4641 33be 2e1f d9bd 28e5 063e 05c1 2cba
00000180: 0134 8d3d 8dd6 6ebd e002 9539 9d32 f639
00000190: bdf7 cf3c 9f4c adbc bc48 8f3d b0dc e83d
000001a0: f370 57bd 1681 77bc 2246 243d d4e4 c9bd
000001b0: a210 78bf fc07 36bf 4293 68bf c893 233d
000001c0: ae27 863e 4a0e a53e 644d 313e a8d1 2d3d
000001d0: efa0 8e3e ea4d 05bb 7603 49bc ee55 2d3d
000001e0: 5b43 34bd 76b5 123e 9526 c9bd 5ee1 97bd
000001f0: 5ec2 cfbc 6f11 eb3d 1e0b 713e 35c8 bc3c
00000200: 0620 d4bd 671b bebd 8e02 003d 10d2 7d3a
00000210: 84c1 d73c 92c2 533d d7ca dabd 5d35 3d3e
00000220: 6eff ca3d 2848 823d 8f24 983c 8d6f aa3b
00000230: d9ec 8abd 3b58 863d e10b 883d 7e7d 4abc
00000240: 1aec bc3c 21ee 033e c05b 59be 67cb 543d
00000250: 5437 3cbe 49b3 553d a917 993a d193 773d
00000260: da7b 0b3e f52f bd3d e3db 393e 8e18 9e3e
00000270: c8e5 cf3e ebd8 d63e ff0e d73e 1926 b03e
00000280: 37b4 113e 0e1a 013e d466 a43d aaa6 9cbd
00000290: 59bb 6cbd 21ae 2abc 1e25 5b3d 953a 923d
000002a0: 68b1 f23d aa40 74bd 5e4a afbd 8786 973c
000002b0: 8898 97bd a556 00bd affd 8b3d 9a72 ba3c
000002c0: cb10 2cbc 7d6b 903d 6524 3c3d d26b 94bd
000002d0: c95f 773c ab98 1dba 3af4 0dbd 4303 93bb
000002e0: affe 31bc 9403 d7bb 718d 6bbc 5557 50bc
000002f0: 6df0 98bd 0fd1 363d 5c7a aa3c 893f 623c
00000300: 508c 003f d7ca 083f 2551 1c3f 314a 4f3d
00000310: 6a3c 853e 3f1a 9d3e 8fd3 863e 62c1 b93e
00000320: 870c c33e 60cd 013d 4700 853d eb8b dcbb
00000330: 41ac e13c 6256 0b3c 3ec8 c3bc 053c 81bd
00000340: 5522 db3c a1f9 093d d55e ef3b 3e7e c83d
00000350: 676c abbd 0214 233e 1842 dfbd 05b5 b23d
00000360: f694 5ebc dfd9 95bd f148 dfbd e53a 09be
00000370: 47ae 843d 6f73 93bd 337c 243c bd92 bd3b
00000380: 0cf2 c63c c7de 45bc 7e5e f2bb a70d 32ba
00000390: 0688 393c 3d60 6c3e c484 22be 5316 d03d
000003a0: a8ec d4bd 612c 22bf 70ce e23d 044c 783e
000003b0: 8aaa 063e 9293 edbe b09d 12bf ec47 0dbf
000003c0: 198e d63e 58cf 363e e9b8 c53e 733d c73d
000003d0: acef a43d 3ece c63c 1615 80bc 1cdc 1d3d
000003e0: 4111 693d ec2f ae3d 1e4a f93b 22de 26be
000003f0: 7999 11be 52d4 2abe 1482 753e 3e79 03bc
-0.11553556 -0.01898307 0.022842955 -0.0076107713 0.098938875 -0.08365619 -0.09405847 0.105417415
-0.09266187 0.00962456 -0.088680476 -0.0104689095 0.007942244 -0.0014221278 -0.0024169895 0.0225716
0.04827341 -0.0609709 0.024267873 0.1437505 0.006902384 0.020763427 -0.09450572 0.021126062
0.4899552 0.42621565 0.5728843 -0.8483048 -0.88374424 -0.96825475 -0.22987832 -0.24544461
-0.17539956 -0.0040918114 0.044294845 -0.03326685 -0.11714101 0.107640184 0.0048916116 -0.068142794
0.005459191 0.07718478 -0.20780072 0.09509057 0.08222842 0.17467251 0.09467363 0.02372555
-0.11728068 -0.013867459 -0.023074424 0.18541428 0.16043782 -0.20544408 0.044625 -0.03641758
0.075793445 0.05007878 0.016666224 -0.06880914 0.008330142 0.046121012 0.17909454 -0.023258457
-0.023323044 0.0483765 -0.19158225 -0.02520443 -0.017676037 0.21805389 0.24379434 0.39236793
-0.52964586 -0.6085235 -0.53000987 0.030807596 0.10042843 -0.21143658 0.058902293 -0.08428467
-0.035387132 0.036088917 -0.06779847 0.110898785 0.08516326 0.1480731 -0.24466448 0.03675544
0.048249044 0.06737894 -0.016222794 0.048972208 -0.17505369 -0.1060165 0.13173354 -0.00065900414
0.068946846 -0.05831008 0.00028421637 0.00046958486 0.025386686 -0.0211547 0.06996295 0.11370218
-0.05259795 -0.01510646 0.040105946 -0.098580986 -0.9690038 -0.71105933 -0.908497 0.039935857
0.26202148 0.32237464 0.17314678 0.042436272 0.27857158 -0.002034063 -0.012268892 0.042318277
-0.044009548 0.14327034 -0.09821812 -0.07416032 -0.025361236 0.114779346 0.23539397 0.023044685
-0.103576705 -0.0928257 0.031252436 0.0009682486 0.026337393 0.05169923 -0.1068322 0.18477388
0.099120006 0.06361419 0.01857212 0.005201286 -0.06783456 0.065597974 0.06642891 -0.012359021
0.0230618 0.12883808 -0.21226406 0.051951792 -0.18380481 0.052172933 0.0011680025 0.060443703
0.13621464 0.09237663 0.18150286 0.3087811 0.40604997 0.4196237 0.4200363 0.34404066
0.14228903 0.12607595 0.080274254 -0.07648976 -0.057795856 -0.010417492 0.053502195 0.0714008
0.11850244 -0.05963198 -0.08559106 0.018496765 -0.0740214 -0.03133263 0.06835496 0.022759724
-0.010502051 0.07051752 0.045933146 -0.072471276 0.015098521 -0.0006011824 -0.03465674 -0.004486473
-0.010863944 -0.006561706 -0.014376984 -0.012716134 -0.074677326 0.044632968 0.020810299 0.013809093
0.502141 0.5343451 0.61061317 0.050607864 0.26022655 0.30684087 0.2633328 0.36280352
0.38095495 0.03169 0.064941935 -0.0067305467 0.027547957 0.008504482 -0.023899194 -0.06310276
0.02674977 0.03368533 0.007305006 0.09789704 -0.083702855 0.15925601 -0.10901278 0.08725933
-0.01358532 -0.07316946 -0.10902584 -0.13401373 0.06478553 -0.071997516 0.010039377 0.005785315
0.024285339 -0.01207704 -0.0073965183 -0.00067921955 0.011323934 0.23083587 -0.15870959 0.10160508
-0.10396701 -0.63348967 0.11074531 0.24247748 0.13150993 -0.4640165 -0.5727186 -0.5518787
0.41905287 0.17852533 0.38617638 0.097285174 0.08053526 0.024268266 -0.015635055 0.03853999
0.05690122 0.08505234 0.0076077124 -0.16295674 -0.14218701 -0.16682556 0.23975402 -0.008024512

conv.0.bias f4 [32]
00000000: 645c 083e 0145 ea3c c5cf 8b3d 531a 3d3e
00000010: 611a 893e 3447 613e f4d5 f6bd ed96 af3c
00000020: 29bd 273d e81e 003e bb87 d73c 5853 c23d
00000030: 873b 00be 4ff0 efb9 6b54 cebc 0d2f dbbd
00000040: 1dae 12bd 7d9c 7a3d 3010 423e 6142 713d
00000050: f774 db3c 6614 983e 9b9d 8b3e c2e7 01be
00000060: 8685 d83d 13ea ca3d 56bd 293d d864 313e
00000070: 1041 80bd 3d40 c5bb c74f 173e 0945 0a3e
0.13316494 0.028597357 0.06826738 0.18467073 0.26777938 0.21999818 -0.12052527 0.021434272
0.04095188 0.1251179 0.026309839 0.09488553 -0.12522708 -0.00045764676 -0.025186738 -0.107023336
-0.03581058 0.061184395 0.18951488 0.058901194 0.026789172 0.29703063 0.2726868 -0.12686065
0.105723426 0.09907927 0.04144033 0.17323625 -0.0626241 -0.0060196207 0.14776526 0.13502897

conv.1.weight f4 [32]
00000000: ce07 903f c7a8 2c3f 204d 883f 648e 2d3f
00000010: abce 5c3f c9f4 0f3f 261f 7c3f 2164 3e3f
00000020: 34d3 e03e da08 343f a472 793f 5b10 e63e
00000030: a116 3d3f f43a 1c3f 73d8 273f a8e2 823f
00000040: 405e 3b3f 2632 903f 7da8 423f ac0e 863f
00000050: 50ad 5b3f 02af 573f 711e 493f d375 833f
00000060: e175 633f 8fa4 a73f e8c0 463f a412 163f
00000070: 24b2 593f 11b6 393f 925c 3f3f 77e3 643f
1.1252382 0.67445034 1.0648537 0.67795396 0.8625285 0.5623289 0.9848503 0.74371535
0.43911135 0.70326006 0.9744055 0.44934353 0.73862654 0.61027455 0.6556465 1.022542
0.7319069 1.1265304 0.7603834 1.0473228 0.8581133 0.84251416 0.78562075 1.0270332
0.88851744 1.3097094 0.776381 0.58622193 0.85037446 0.72543436 0.74750626 0.89409584

conv.1.bias f4 [32]
00000000: a77f c0be da74 e6be 408b aebe 6769 ccbe
00000010: fee9 bdbe 0557 1fbf 2a25 b2be ac7c a5be
00000020: 0275 78be 0d8b f7be 6929 80be 71ce 88be
00000030: bf04 0dbf 8e79 a0be f421 38be 6997 aebe
00000040: 8264 ecbe 4ba2 14bf dbda dcbe 83ab 96be
00000050: 8400 eebe d62b 35bf 4278 31bf 9393 083e
00000060: 261f bdbd f81b 9bbe babb cabe 6063 19bf
00000070: cdf2 a5be 839b 7abe d589 dbbe 9803 eabe
-0.3759739 -0.45011026 -0.34090614 -0.39924166 -0.37092584 -0.62242156 -0.3479398 -0.3232168
-0.24263385 -0.48348275 -0.25031593 -0.26720002 -0.55085367 -0.3134274 -0.17981702 -0.34099892
-0.4617043 -0.5806014 -0.43135723 -0.29427728 -0.46484768 -0.70770013 -0.69324124 0.13337545
-0.09234457 -0.30294776 -0.3959635 -0.5991726 -0.32411805 -0.24473386 -0.42878595 -0.45705867

conv.1.running_mean f4 [32]
00000000: 7cf5 303d ee6d 1a3d c320 d53c 33dc 6e3e
00000010: ad22 b83e b56a 383e 034a 3abe 850a 71bd
00000020: 9fa5 253d 3fd7 ed3c 77ab c2bc b439 183e
00000030: ec86 4fbe 872f 00be f6a9 c4bd 2b09 89be
00000040: e73e 09be 7672 32bd 4146 7d3d 6fae 78bc
00000050: 60c6 95bd af68 8d3e e15c 6f3e 0a89 463d
00000060: f93a a43d aec7 893d fcbe d2bd 9526 ee3d
00000070: a680 2fbe c7b7 47bd 1484 373e 54b8 ab3d
0.043202862 0.037702493 0.026016599 0.23326187 0.35963956 0.18009456 -0.18192296 -0.058847923
0.04044115 0.029033301 -0.023763401 0.14865762 -0.20266312 -0.1251813 -0.0960273 -0.26764807
-0.13402902 -0.04356619 0.061834577 -0.015178307 -0.07313228 0.2761893 0.23375274 0.048470534
0.08019061 0.06727539 -0.10290334 0.11628453 -0.17138919 -0.048759248 0.17921478 0.08384767

conv.1.running_var f4 [32]
00000000: ba37 b240 f8b2 5440 e282 b940 a29d 2e40
00000010: e7b9 a240 64c2 5740 daba cd40 ccd4 a540
00000020: c9e2 f23f cee7 e940 8126 ea40 40ad ca40
00000030: 892d 1741 7227 0f41 1f4b bd40 4290 5a41
00000040: 7443 b540 c0cc c740 a06b 4941 1952 2f41
00000050: 36c3 eb40 bdef fc40 402b d33f 248d 8541
00000060: bfbc 0841 2df8 d740 522f 5041 bf5c 5f40
00000070: 3d32 f440 e864 3e40 edbc 8c3f 2d49 9940
5.5693026 3.3234234 5.797227 2.7283711 5.085193 3.3712397 6.429059 5.182226
1.8975459 7.3095465 7.3172 6.3336487 9.448617 8.94713 5.91542 13.660219
5.664484 6.243744 12.588776 10.957543 7.3675795 7.904265 1.6497574 16.693916
8.546081 6.749045 13.011553 3.4900358 7.6311326 2.9749088 1.0995156 4.7901826

conv.5.weight f4 [64, 32, 3]
00000000: 2415 953c 35fc e43d 07a7 b1bd 2f05 d6bd
00000010: 117f fcbd 546d 09be e18d a3be 8aca 90be
00000020: 72cd 81be 0541 e93c cce7 5cbd f56a 00bd
00000030: 1876 5abb ff65 333e a1a2 09be eca4 833b
00000040: c720 813e bef0 bbbd 99b8 16bd 1194 343e
00000050: d7eb eebc edd8 043e da3b 04bd 22d1 c63d
00000060: 35a0 bc3c 06b3 053d 3d19 95bd 0fc7 cc3d
00000070: dfc9 f03d 4dca 4e3e d927 38bd 8b5a 19bd
00000080: ca0c aa39 3ede 9bbb 0ab3 173d fa41 0a3c
00000090: cb18 b33c 8b77 fc3d 4d37 6f3e c8bb b13d
000000a0: 5411 383d 1407 a73d 059e 0c3b 48d9 b53d
000000b0: b260 60bd 5cde 223e 11e0 e43d f833 603e
000000c0: 8aba a23c ba6c 6bbd 95a2 2b3d bcd0 a83d
000000d0: 37fb 7f3d e0d4 dbbd 0ac2 433e 7395 9f3d
000000e0: 51c9 8e3d 8950 79bc f22b 1a3d 00a7 09be
000000f0: 8e23 da3e 6615 983e abb8 e13e c2e1 debd
00000100: e2c5 1abe a314 14bf be0c 35be 0c3b e83e
00000110: 11a0 a5be 398e c5bd a7ff b9bd 671f 92bd
00000120: cd25 2fbe f619 58be 39d0 a4be 31e3 e7be
00000130: a6a3 bebe 0d57 05bf febb b63d d00e 933e
00000140: b880 73be d47d 5a3d bd13 6e3e b48a a83d
00000150: 90fb 503e 4842 143e 22e9 853d 5607 1abe
00000160: 81d1 49be 0ff8 b23d 62b6 923c 6466 ba3e
00000170: 52e4 bebd 784d b4bd 0a57 debd f654 1bbe
00000180: 702d 44bd d89a fa3b 48a8 60bd dd75 bd3c
00000190: 1647 f03c 271e 9bbc c440 c63e d30b fa3e
000001a0: 22e3 163f 2d84 143e 0252 f1bc 3360 923e
000001b0: 90ef c53e 5507 a03c 8a61 2d3e 194c 98bb
000001c0: 2e5f 4cbd 3a4a 9b3d 48d8 55bd 7a66 663d
000001d0: 63bd 063d 1561 003e 9ec3 d93d 381f 643e
000001e0: 8e8f c9bd 0024 d2bd 4665 573d dda9 403c
000001f0: 1949 aebd 8ca1 5cbd dc71 0dbe ce94 b1bd
00000200: ecb5 9dbd 82ec 8cbd 1d2e d0bc 5d99 8dbd
00000210: c6b0 f7bd 8236 96be 57c2 73bd 062b e9bd
00000220: 7610 6bbe 61ea 21be eeb2 08be 82d0 03bd
00000230: 6618 ccbd f846 38be 5236 c1bd ebeb d0bd
00000240: 1be3 e8bd 85e6 20be 03bd 58be 8852 81bb
00000250: adf4 f83c f9d0 253d 4407 163d a8ab d33d
00000260: f44d 253e 8aeb aabc 195b 603d b1eb a7bc
00000270: e9ed 9dbd 8f6b 1f3d 4f4f 82bd 339c 383d
00000280: 29bb d93d 72bb cb3c ae99 64bd 3727 f03c
00000290: ab71 143e 45a4 003d 12a4 a53d 8e0a 013c
000002a0: 03d5 84bd 516d 81bb 28fa 693d 8458 563e
000002b0: 7a9a ef3d 3343 a23f 7c57 bd3d 3d47 4e3e
000002c0: 49b0 083d da86 d2bd b019 59bd d6a9 0c3d
000002d0: f8f8 5abd d9bf d23d 4084 c93b 0697 05be
000002e0: 4551 91bd 40fd 6dbd 9643 f23c ac7f 493e
000002f0: ab3e 0f3e c21f 3f3d 3f81 973d cc1c df3d
00000300: ecb0 9dbd 318a a4bd 2c6b e03c 1e5d c43d
00000310: eeb5 c2bc 149a 3ebd 16bd 933e a47a 953e
00000320: b0c3 ea3e 976e 133e 3484 bcbc e254 23be
00000330: 1889 4dbc a8de 57bd 45a9 e6bc 72c3 88bd
00000340: 8c68 c6bd 248a 07be b022 0fbf 5266 0fbf
00000350: c56f ffbe 6ed6 f03d 717d 91bd 6839 48bd
00000360: 3333 53bd 7dc0 d2bd 9c22 0ebd db3f 453d
00000370: 97aa e4bd e562 ac3d 54f6 8fbe 8638 6fbe
00000380: 1627 8cbe 989b 083d 3d09 0fbe b183 853d
00000390: a975 1ebe b333 36be 60db 75be cf11 b0bc
000003a0: dc3c 5ebe 7dfe 58be dacc ffbb b37a f0bd
000003b0: 06c1 26be dc72 ddbd 2bf1 17be 0b35 12bd
000003c0: df6e 74bd 3ad6 a8bd 3b57 5cbd 6e65 88bd
000003d0: c6eb 393c dba1 d6bc 7125 04bc 2c99 5f3d
000003e0: b4eb ae3d a8e5 27bf 3ed8 39bf 9429 22bf
000003f0: f264 cdbd bbff abbc 4dab fdbd 1095 953e
0.018198557 0.11180917 -0.08674436 -0.104502074 -0.123289235 -0.13420612 -0.31944183 -0.28279525
-0.25352055 0.028473387 -0.053931996 -0.031352002 -0.003333455 0.17519377 -0.13440944 0.004017463
0.2522032 -0.09176777 -0.03679714 0.17634608 -0.029165192 0.12973376 -0.03228364 0.09707858
0.023025611 0.032641433 -0.072802044 0.09998905 0.11757254 0.20194359 -0.044959877 -0.037439864
0.00032434455 -0.004756718 0.03703598 0.008438582 0.021862408 0.123274885 0.2336094 0.086783946
0.0449384 0.08155647 0.0021456492 0.08879334 -0.054779716 0.15905136 0.1117555 0.21894825
0.01986434 -0.057476737 0.041903097 0.08242938 0.062495437 -0.10733962 0.19116989 0.07792177
0.06971992 -0.015216955 0.037639566 -0.13442612 0.4260525 0.29703826 0.44086203 -0.10882904
-0.15114549 -0.5784399 -0.17680642 0.4535755 -0.32348683 -0.096462674 -0.09081965 -0.07134896
-0.17104264 -0.21103653 -0.3219011 -0.4529052 -0.3723423 -0.52085954 0.089225754 0.2872224
-0.23779571 0.053342655 0.23249717 0.082295805 0.20408463 0.1447841 0.06538607 -0.15041861
-0.19708826 0.0873872 0.017909233 0.36406243 -0.093208924 -0.088038385 -0.10856445 -0.15169129
-0.047894895 0.0076478533 -0.054847986 0.02312749 0.029330771 -0.018935276 0.38721287 0.48837146
0.5894033 0.14503546 -0.02945805 0.2858902 0.38659334 0.019534746 0.1693174 -0.0046477434
-0.049895458 0.07582517 -0.052208215 0.056250073 0.032895457 0.12537034 0.10633014 0.22277534
-0.09841834 -0.10260773 0.052586816 0.011759249 -0.08510036 -0.053865 -0.13812965 -0.0867096
-0.077007145 -0.06881048 -0.025412614 -0.06914017 -0.12094264 -0.2933846 -0.05951151 -0.11385159
-0.22955498 -0.15812065 -0.13349506 -0.03218127 -0.09965591 -0.17995822 -0.09434189 -0.10201248
-0.11371442 -0.15712936 -0.21165852 -0.003946606 0.030390108 0.040482495 0.036628023 0.10335475
0.16143018 -0.020864267 0.054774377 -0.020498129 -0.077113934 0.038920935 -0.06362783 0.04507084
0.10631401 0.024869654 -0.055810623 0.029315574 0.14496486 0.03140666 0.080879346 0.007876052
-0.06485941 -0.003949799 0.057123333 0.20932204 0.11699386 1.2676758 0.09245202 0.20144363
0.033371244 -0.10279627 -0.053003013 0.034341656 -0.05346009 0.10290498 0.0061497986 -0.13045892
-0.07095579 -0.058102846 0.029573243 0.19677609 0.1398875 0.046661146 0.073976986 0.108941644
-0.07699761 -0.080341704 0.027394854 0.09588073 -0.023768391 -0.04653366 0.288552 0.2919513
0.45852423 0.14397655 -0.023012258 -0.15950349 -0.012544893 -0.052702576 -0.028156886 -0.06677903
-0.096879095 -0.1323629 -0.55912304 -0.56015503 -0.4988996 0.11759649 -0.07104004 -0.048882872
-0.0515625 -0.102906205 -0.034700975 0.0481566 -0.1116535 0.084173 -0.2811762 -0.23361406
-0.2737357 0.03335151 -0.13968368 0.06519259 -0.15474571 -0.17793159 -0.24009466 -0.021492867
-0.21702904 -0.2119083 -0.0078064026 -0.11742153 -0.1628457 -0.10812923 -0.14838092 -0.035695117
-0.059676047 -0.082439855 -0.053794127 -0.06659971 0.011347717 -0.026200226 -0.008065567 0.054589435
0.085410506 -0.655848 -0.72595584 -0.63344693 -0.100290194 -0.020995965 -0.12386189 0.29215288

conv.5.bias f4 [64]
00000000: 649d 5dbc cc53 113e d105 14bd e749 b03d
00000010: 65dc 1fbe 420c bc3d 5672 f03c 6138 f7bc
00000020: c5e3 413d 3300 4bbd f0ab 50bd fca7 01bd
00000030: ef97 d3bc a8b1 49bd b9a6 adbc 7915 d53d
00000040: e288 103e 0c1b 043d 4ddb dd3c 7080 813c
00000050: 7340 303b 3b04 5f3c 07a5 3e3d 2b06 96bd
00000060: 8756 873d a435 49bd 10ed 98bd 74bd a93d
00000070: 6a46 7ebd 75d5 d03a 7731 873d b07c b53d
00000080: 93ae 133e faed 533d fab7 51bc cded d93b
00000090: dbe8 6ebc 3f71 2ebd d9f0 653d 6e68 983d
000000a0: 7ab0 3abd b9bf 34bd 3d60 ec3c 3379 46bd
000000b0: 9d3b a2bd 4210 d43d 5697 61bd 1bfa f9ba
000000c0: 6060 c0bc acc2 e33c f589 c1bc dfbb 9d3d
000000d0: d2ba adbd 1d4a 0abc d061 c03d b054 063d
000000e0: 2dd4 38bc 1a8c 81bc 16e9 a03d 35a6 9a3d
000000f0: c89a 5dbd b5e9 e83c 4438 edba 0d55 ff3c
-0.013526294 0.14192122 -0.03613836 0.08607846 -0.15611418 0.091820255 0.029351395 -0.03017825
0.04733636 -0.049560737 -0.050945222 -0.031654343 -0.025829284 -0.04924169 -0.021197664 0.10404486
0.14114717 0.032252356 0.02708211 0.015808314 0.0026893883 0.0136118485 0.0465441 -0.07325395
0.06608301 -0.04912342 -0.07467091 0.082880884 -0.06207887 0.0015932756 0.066012315 0.08861673
0.14422064 0.051740624 -0.012800211 0.0066506625 -0.014581884 -0.04258847 0.056137893 0.074417934
-0.045578457 -0.044128153 0.028854484 -0.04845543 -0.079215266 0.103546634 -0.055075966 -0.001907173
-0.023483455 0.027802788 -0.023625353 0.07701849 -0.08482899 -0.008440522 0.09393656 0.032795608
-0.011281055 -0.015813876 0.078569576 0.07551233 -0.05410269 0.028431753 -0.0018098434 0.031168485

conv.6.weight f4 [64]
00000000: 8370 763f 4c7b 7d3f d0c7 863f 4689 553f
00000010: 4005 753f 45e1 4f3f 9f52 623f db05 6f3f
00000020: ffbc 803f 7350 703f 6141 703f 8e92 583f
00000030: 7954 483f e44a 343f 7127 6a3f eee9 5a3f
00000040: 5095 8c3f 3e78 6f3f 104b 7f3f 90d8 573f
00000050: 070e 723f 79ac 673f dc3e 773f 85fb 823f
00000060: 1426 6e3f ae4e 663f 0349 843f 0105 8a3f
00000070: db3b 4e3f 6073 5e3f d719 853f 578c 863f
00000080: 3bd3 813f f2a6 663f e022 483f 8dd8 753f
00000090: 76b6 5d3f b795 283f 025a 803f c82d 6a3f
000000a0: c5af 643f 0e56 5d3f b60a 623f 227a 483f
000000b0: f8c3 713f 8142 423f 9f98 4b3f 4f1d 973f
000000c0: d0d0 6e3f bb3b 753f f8d4 623f 53a8 6c3f
000000d0: 8bef 663f f68d 723f e891 733f 473d 523f
000000e0: b655 623f d9aa 3d3f 06d8 803f 93e4 673f
000000f0: c1cc 573f 0f84 743f 1631 653f 0da5 6c3f
0.9626543 0.9901626 1.0529728 0.8341259 0.95711136 0.8120311 0.8840732 0.9336831
1.0057677 0.93872756 0.9384976 0.84598625 0.78253895 0.70426774 0.9146643 0.855132
1.0983067 0.9354285 0.9972391 0.84314823 0.94552654 0.9049755 0.9658029 1.0233008
0.9302685 0.89963806 1.0334781 1.0782777 0.8056008 0.868948 1.0398511 1.0511578
1.0142587 0.9009849 0.78178215 0.96033555 0.8660654 0.65853447 1.0027468 0.91476107
0.89330703 0.86459434 0.88297594 0.7831136 0.9443965 0.75882727 0.79529756 1.1805819
0.9328737 0.95794266 0.88606215 0.9244434 0.90209264 0.94747865 0.9514451 0.8212475
0.88412035 0.7408882 1.0065925 0.9058315 0.84296805 0.95514005 0.89528024 0.9243935

conv.6.bias f4 [64]
00000000: 54c2 b7be abff 2abe ab45 fbbe 2fe8 fbbe
00000010: 48ae a8be 31c2 b9be 97e0 cdbe b98a 84be
00000020: 39a0 c0be f8a7 babe ff45 04bf 0763 8fbe
00000030: 68e6 3cbf 6b8c ccbd e06f b3be 7ed8 bdbe
00000040: 757d 94be f8f8 a9be 87ff e7be c1e3 debd
00000050: 0160 b4be 2bae ffbe 4aad 12be 76ca debe
00000060: 218c 09be 8265 c2be 26c2 d3be f2aa b1be
00000070: fb67 0abf 84bb 7ebe f8d8 04be 3cc5 80be
00000080: efff 1dbf cf8d efbe 5791 11be 4ad0 9abe
00000090: 6db8 89be fed4 c8be 6765 e8be 181b 01bf
000000a0: ecfb 9bbe 6163 76be 6547 a9be 28a4 67bf
000000b0: d60e 84be d9ee b2be 8eb8 01bf 821c 8bbe
000000c0: c2b6 bbbe a138 19bf 3946 93be c293 aabe
000000d0: 19ef 85be 2258 b1be c985 0bbf b2d6 c2be
000000e0: 5c80 bfbe 0c18 03bf 925a 93be 1ddb 3abf
000000f0: b6ba 85be 6857 1ebf b656 f8be 1a50 ccbe
-0.35890448 -0.16699092 -0.4907659 -0.4920058 -0.32945466 -0.3628097 -0.4021041 -0.25887087
-0.3762224 -0.36456275 -0.51669306 -0.2800524 -0.7378907 -0.0998772 -0.3504629 -0.37079233
-0.29001966 -0.3319776 -0.4531214 -0.10883284 -0.35229495 -0.49937567 -0.14323917 -0.4351384
-0.13432361 -0.3796807 -0.4135906 -0.34700733 -0.5406491 -0.24876219 -0.12973392 -0.25150478
-0.6171865 -0.4678788 -0.14215599 -0.30237037 -0.26898518 -0.39225 -0.45389864 -0.50431967
-0.3046564 -0.24061348 -0.33062282 -0.9048486 -0.2579257 -0.3494785 -0.50672233 -0.27170187
-0.3666287 -0.59852034 -0.28764513 -0.33315855 -0.2615898 -0.34637552 -0.54501015 -0.38054425
-0.37402618 -0.5120857 -0.28780037 -0.7299059 -0.26119012 -0.6185212 -0.48503655 -0.39904863

conv.6.running_mean f4 [64]
00000000: 2c46 d2be d477 3e3f 6381 53bf 5a24 743f
00000010: aae7 8cbf 2d33 12bf 7184 83bf 8e7a eabe
00000020: e2d8 22bf edc3 43bf 62ad 61bf d6cc c1bf
00000030: 98db 453f ef57 c73d 2854 f7be 1860 19bf
00000040: 64eb 8abe cb97 42be 400d 7abf b1b2 d93d
00000050: e22b 1abf 026c 65bf 6b21 abbf 8a01 1dbf
00000060: 4fe4 98be 4190 20bf 9f7e a8bf 2c49 ffbd
00000070: 2e79 4cbf f349 8abf f4ea 93be ad3e b9bd
00000080: 90ab d7bf eaee c6be e3b0 f1be 55f5 7cbf
00000090: 7714 9cbf dace 823d 1e1d c6bf c1eb 66bf
000000a0: 21a8 c4bc 04db 183f 4046 48bf d2b5 bdbd
000000b0: 4ed1 c3bf ae27 75bf 3ded 77bf 2b43 35bf
000000c0: b0a5 87bf 3735 ebbf 6494 43bf ae1e 3cbf
000000d0: 88df 32bf 2c6a 42bf d825 29bf d909 a7be
000000e0: 4557 9dbe 1f81 0dbf 5ff2 59be 526e 1c3f
000000f0: 5d4a 58bf 2b27 0f3f 99b0 723e dc2f 4d3f
-0.41069162 0.74401593 -0.82619303 0.9536797 -1.1008198 -0.5710934 -1.0274793 -0.45796627
-0.63612187 -0.76470834 -0.88155186 -1.5140636 0.772882 0.09733569 -0.48306394 -0.5991225
-0.27132714 -0.19003217 -0.9767647 0.10629786 -0.6022321 -0.8961793 -1.3369573 -0.61330473
-0.29861686 -0.62720114 -1.3163642 -0.12465128 -0.79872406 -1.0803818 -0.28890193 -0.090451576
-1.6849232 -0.38854152 -0.47205266 -0.98811847 -1.2193745 0.0638711 -1.5477636 -0.9020348
-0.024005951 0.5970919 -0.78232193 -0.09263195 -1.529825 -0.9576367 -0.9684637 -0.70805615
-1.0597439 -1.8375615 -0.763983 -0.73484313 -0.6987233 -0.75943255 -0.6607337 -0.326247
-0.30730644 -0.5527515 -0.21283863 0.61105835 -0.8448847 0.5591914 0.23700179 0.8015115

conv.6.running_var f4 [64]
00000000: 1ae7 553f 0ce6 9b3f bd67 843f f739 313f
00000010: 65a4 923f e615 7d3f 8577 c73f ab94 9d3f
00000020: b2cf 1c3f 5bc1 193f 8e48 0140 12b9 2940
00000030: a1cc 383f 32dc bb3f cf5e 003f ff0d c33f
00000040: 4efe a93f bf14 973f ff39 dd3f 0433 cc3f
00000050: 043d 733f 9d75 8e3f 6d84 c540 5d19 b13f
00000060: e539 be3e fd4e 413f 69a9 1f40 3f9e e53e
00000070: 4883 f23e ab11 7640 b5e6 2d40 5b18 a13f
00000080: 0849 3740 b139 0b3f b8be 1540 c612 6b40
00000090: fd93 ca3f d68d 203f ad81 1940 6dc1 0e40
000000a0: c674 e83e 1402 2e3f 23ec 2340 0cf5 793e
000000b0: 2dee 9040 a2aa 913f 8684 8f3f 1a70 2340
000000c0: 4518 2440 9f47 3440 110e 2e40 b880 a23f
000000d0: 7d9d b63f 1ec1 bb3f 1dd8 db3f 231d 683f
000000e0: 995b 843f 4b59 eb3e c49f e33f c022 5d3f
000000f0: 616f 843f 985b 873e 3f07 713f 3e3e bd3f
0.8355576 1.217958 1.0344158 0.6922907 1.1456419 0.9886154 1.558335 1.2310995
0.6125442 0.6006066 2.0200534 2.6519208 0.7218724 1.4676573 0.50144666 1.5238646
1.3280733 1.1803206 1.7283324 1.5953069 0.9501498 1.1129643 6.1724153 1.3835865
0.37153545 0.7551115 2.494715 0.44847295 0.47365785 3.8448284 2.7172062 1.2585558
2.8638325 0.54384905 2.3397655 3.6730208 1.5826412 0.62716424 2.3985398 2.2305558
0.4540159 0.6797192 2.5612876 0.24409884 4.529074 1.1380198 1.1212318 2.5537171
2.5639813 2.8168714 2.7196085 1.2695532 1.4266812 1.466831 1.7175328 0.9066946
1.0340453 0.45966563 1.7783132 0.8638115 1.034649 0.26437068 0.9415168 1.478462

conv.10.weight f4 [128, 64, 3]
00000000: 3181 f43c debc 023d 220c f13d 139a a93d
00000010: 3e13 843d 572d 603e 00df 053e d3b0 aa3e
00000020: 0140 e13d 7747 823e 6114 ad3d 572f a93d
00000030: 0ec6 4ebe 1013 afbc 4691 9ebd 1b9d a83c
00000040: 1f19 973d 4b01 493e ac65 aabd 21ba 343d
00000050: e8f3 833d 09c4 a33d 7c9a e13d 0af2 d73c
00000060: 3c35 f3bd df2c 3cbe 457a 8a3d 8382 99be
00000070: 4c15 b83d bf1a 78be 864f 933d 8979 023e
00000080: d1c8 e13d c012 90bc bdfa 523e 5981 763b
00000090: b719 c63e 5ed2 2a3e 1646 623c 6184 90bc
000000a0: 3122 243d 227a a83c f785 bd3d 5032 67bb
000000b0: b096 6abb f33b f0bb b3b7 fbbc a0ed 163d
000000c0: a602 003e fa5a 8c3e 604d 6c3d ddea b53d
000000d0: 36b5 a93c 79c4 e43d c496 353d af3b 9b3d
000000e0: 7dd9 4e3d 6266 9f3d 9446 ea3c cc4e e83d
000000f0: 4cca 123e 9d9e 283e 9134 333e 1284 ee3d
00000100: 5ce4 823e bb69 a0bd 4dad 9cbd 35e2 b8bd
00000110: 3ab1 82bd 18a6 ca3c c0ca 1f3e bb9b a33d
00000120: 6682 a6be 300f 8cbe a5de 21be 8102 ad3d
00000130: 9201 d4bc f6a5 56be 0145 ecbe 6c48 c7be
00000140: dc7a adbe b913 333e 5b00 c73d 875d 343e
00000150: 8679 d2bc fb1e 08bc db48 d4bd f286 97bd
00000160: 7d96 b1bd 0529 dabe 4837 b13d c98b 023e
00000170: 81b1 1a3e 6f3c 00bd f0df 54bd 0c49 9e3d
00000180: 4f95 523e 7267 7a3e 1367 4b3e 278d 4e3e
00000190: 70fc 243e d490 21bd a655 2c3d 2568 25bd
000001a0: ef75 25be 0b00 b23b 73a4 18bd 1603 a9be
000001b0: 2fd6 763d 321f 8d3e d960 2f3e d069 903e
000001c0: 9da1 663e f8bf 403e 603c 183e 8e95 49bd
000001d0: 142b 5e3d c82c 403d 561d d83d 9069 233e
000001e0: 67de 4bbc 895e cfbc d294 323d e76f 7e3d
000001f0: 9c67 ae3d b5dd ee3d 9f12 14be f952 2ebc
00000200: aa16 28be 2904 c23d 594d 113e 494a 0f3e
00000210: a486 063d 3750 a93d a6ca c2be 5d99 743d
00000220: 3845 a43e 24b7 f23e 29e9 8abe 43ef 42be
00000230: 5b4a 84be 5193 f1bc 07a3 ddbb 949e a13d
00000240: 907f c2be 182c c5bd 70f6 e5be 65ac 2b3e
00000250: 6e9f 323e b4c0 2e3e 9a29 e8bd 2bbd 0abe
00000260: 88ac e7bc 118e b0bd 95bb babd 289f 56be
00000270: 3ffa 9f3d 4011 163e a869 2f3e dc9c 87be
00000280: 0d6b 34be 7d7d aabe b4b1 bfbd 6ef3 103d
00000290: a473 a8bd 67a5 aabd d910 ad3d a4cf 423e
000002a0: 5960 9ebd fe0b 4d3e d025 e63d e899 70bd
000002b0: a6a5 de3c a01b c33d 91e7 153d ed51 583e
000002c0: bd57 113e d306 9f3e cfac da3e 90f4 283f
000002d0: e163 71be 27ce 55be 12f3 a9be ad26 c73e
000002e0: 4e8e 8a3e 09b3 de3e 64d7 833e 0ac4 123e
000002f0: 7751 983d a869 3d3e b310 253e 216c 923e
00000300: 9165 60bd 991e d9be 919b cfbe 6e4a 4bbe
00000310: 7e8d 8ebe 7408 94be 20ac 51be a83c 0bbd
00000320: fc37 0cbe ad92 b5bc e07c 09be 1054 98bd
00000330: ba83 a03d 8231 453c 1a8b c13d c297 7fbe
00000340: c475 e2bd 869d a13d 9c0a 0c3d 77c6 3c3d
00000350: 894b d03d c28d 0bbe 70ca 1bbd d3a1 7d3c
00000360: 5f75 fbbb 78e9 5f3e 0ff4 833e 4dc9 553d
00000370: 443d 013e d1b4 d4bd 328a 543c bae6 2abe
00000380: 3143 7fbd 279d 2abe 5737 22bc 914e 3ebe
00000390: 6ec0 c2bc 0b7c 3fbe 4e90 19be e681 303d
000003a0: 9941 2fbd 951d 0a3d e68f 303e 701d dcbd
000003b0: ffb2 30be 92e3 21bb 161b fdbc 6a52 5b3c
000003c0: a5df 35be 4626 0abd 7142 433d 07d1 9d3d
000003d0: 578b a9bc f616 7d3d 808e 14bd c690 75be
000003e0: 3b55 033e 1c1f aabd dfe7 1ebe 62e5 473c
000003f0: 9036 233e f1ee 03bd ebf4 17bb 5299 08bf
0.02984676 0.0319184 0.11769892 0.082813405 0.06448983 0.21892296 0.13073349 0.3333803
0.10998536 0.25445148 0.084511526 0.082609825 -0.2019274 -0.021371394 -0.077425525 0.020582726
0.07377838 0.196294 -0.083201736 0.04412282 0.06443006 0.07996375 0.11015794 0.02636053
-0.11875388 -0.18376492 0.06761602 -0.29982385 0.08988437 -0.24228953 0.07192902 0.12741674
0.11024631 -0.017587066 0.20603462 0.0037613718 0.38691494 0.16681811 0.013810655 -0.017641248
0.04007167 0.02056605 0.092540674 -0.0035277791 -0.0035795383 -0.0073313653 -0.030727243 0.03684771
0.1250101 0.2741316 0.057690978 0.08882687 0.02071629 0.11170287 0.044333234 0.07579743
0.05050038 0.077832 0.028598107 0.11343154 0.14334983 0.16466756 0.17500521 0.11646284
0.2556485 -0.078326665 -0.07650242 -0.090275206 -0.063814595 0.024737403 0.15604687 0.079886876
-0.3252136 -0.27355337 -0.15807588 0.08447743 -0.025879655 -0.20961747 -0.46146396 -0.3892244
-0.33882797 0.17487992 0.09716865 0.17613803 -0.025692713 -0.008308168 -0.103654586 -0.07398786
-0.086712815 -0.4260942 0.08653122 0.12748636 0.15106775 -0.031307634 -0.051971376 0.07728776
0.20564769 0.24453524 0.19863538 0.20171033 0.16111922 -0.03944476 0.04207387 -0.040382523
-0.1615827 0.005432134 -0.037266206 -0.33010167 0.060262855 0.27562863 0.17126788 0.2820573
0.22522588 0.1882323 0.14866781 -0.049214892 0.0542403 0.046917707 0.105524704 0.15958238
-0.012443162 -0.025313633 0.043598957 0.062118437 0.08515856 0.11663381 -0.14460228 -0.010639899
-0.16414896 0.0947345 0.14189662 0.13993181 0.032843247 0.08267253 -0.38045233 0.05971657
0.3208406 0.4740535 -0.27131012 -0.19036584 -0.2583798 -0.029489191 -0.006763819 0.078915745
-0.37987947 -0.09627551 -0.4491458 0.16764982 0.1744363 0.17065698 -0.1133606 -0.13548724
-0.028280511 -0.08620847 -0.0911781 -0.20959151 0.078114025 0.14655018 0.17130148 -0.26486862
-0.17618962 -0.33298865 -0.09360066 0.035388403 -0.08225182 -0.08332329 0.08450479 0.19024521
-0.077332206 0.20024106 0.11237681 -0.058740526 0.027178597 0.095267534 0.036597792 0.21125002
0.14193626 0.31059894 0.42709967 0.6599817 -0.23573257 -0.20879422 -0.3319326 0.38896695
0.27061695 0.43495968 0.25750268 0.14332595 0.07437413 0.18497336 0.16119651 0.2859812
-0.05478436 -0.42406157 -0.40548375 -0.19852611 -0.27842325 -0.289127 -0.20475817 -0.033993393
-0.13693231 -0.022164667 -0.13426542 -0.07437909 0.07837625 0.012035729 0.0945036 -0.24960235
-0.11057618 0.07891373 0.034189805 0.04608771 0.10170657 -0.13628295 -0.038034856 0.015480476
-0.007673904 0.21866405 0.2577214 0.05219393 0.12621027 -0.103860505 0.012972401 -0.16689578
-0.062319938 -0.16661511 -0.009900889 -0.18584658 -0.023773398 -0.18699662 -0.14996454 0.04309263
-0.04278717 0.033719618 0.17242393 -0.10747802 -0.17255782 -0.0024702293 -0.030896705 0.013386348
-0.17761095 -0.033727907 0.047670785 0.077058844 -0.020696325 0.061789475 -0.03626871 -0.23981008
0.12825482 -0.08306715 -0.1551814 0.012200685 0.15938783 -0.032210294 -0.0023186754 -0.5335895

conv.10.bias f4 [128]
00000000: be07 9a3d c429 ed3c 4f85 693b 3840 c13c
00000010: 6149 133d f2ee 2c3d f171 7cbd e2ec d03c
00000020: b400 6a3c f642 34bd 7078 30bd d0d2 b63c
00000030: 683f 6e3d e0d0 89bd 1a23 b3bc 22f9 a13c
00000040: 4dec 473c 8c9d 0bbd f131 c1bc 5f8b 18bd
00000050: 5171 ff3c c7a8 c3bc e710 513d 48fa 843d
00000060: c6b0 413d dc81 2d3d e398 c8bc 36ba 333d
00000070: 4649 8a3d 4a91 24bd be33 7bbd b476 a0bc
00000080: 8715 67bc fa75 24bd b0da 65bd 325a 1bbd
00000090: e50a 8ebd f49b 473d fa26 3f38 ccf8 333d
000000a0: 9654 fabc 6494 863d 5cb3 813b ad70 903c
000000b0: bd65 fbbc 200b 823d e702 8cbd 6600 32bd
000000c0: f0f5 823d edd0 903d 0e9f 3fbc 2e2e 1dbd
000000d0: dfe1 4cbd 9fdc ca3c be06 13bd 342e ba3c
000000e0: 6573 d53b 2d4d d93b f9fc 003d 037e 84bb
000000f0: 7478 26bd a406 03bd 0470 b1bd 0f5b 29bd
00000100: e54a 53bd 9e4a b7bc 50cb 1c3d 9a43 9f3d
00000110: 624d 16bd da10 363d 0012 2fbd d1be 77bc
00000120: 6a26 773d 52f9 d93b e921 eabc d943 943d
00000130: 4861 923d cf16 2a3b 0e19 a03d dea1 563d
00000140: 0038 0ebd 2ef0 253d e517 38bd fe5d 43bd
00000150: d756 9f3d aa13 d9bc 4d0f bdba 2179 62bd
00000160: b85e 8e3c 3c85 ad3c 6062 39bd 7d20 863c
00000170: 6758 803d cdcc 3f3d 2a42 1ebc 6fc4 7d3d
00000180: b8a5 063d 5915 063c e4d9 f13c 39ef ae3d
00000190: ca7d 2bbc c02d 133c 71e3 033c c36a 0d3c
000001a0: 5cec 1f3d a2db 633d ef8f 37bd 0311 c1bc
000001b0: 58a9 babc 6fa6 80bd 62b3 28ba 4e01 cf3c
000001c0: 76d5 053d 240f b8bc 1d68 1a3c 69f4 8a3d
000001d0: ad71 21bd ea7c 06bd 50c4 80bc 6d54 fb3c
000001e0: 7e08 723d 857a 01bd 42c3 d03c 658e 4fbb
000001f0: 4ec4 b5bc ea92 2dbd a035 14bd e7d6 dd3b
0.07521008 0.02895058 0.0035632437 0.023590192 0.03595865 0.042220064 -0.0616321 0.02550358
0.014282394 -0.04400917 -0.04308361 0.02231732 0.058165938 -0.06729293 -0.021867324 0.019772116
0.012202335 -0.034085795 -0.023583384 -0.03724229 0.031181963 -0.02388419 0.05104151 0.0649305
0.047287725 0.04236017 -0.024486965 0.043878756 0.06752257 -0.04017762 -0.061328642 -0.019587852
-0.014104254 -0.040151574 -0.05611676 -0.037927814 -0.06935672 0.048732713 4.557425e-05 0.043938443
-0.030557912 0.06571272 0.003958149 0.017631853 -0.030688161 0.06349778 -0.06836491 -0.04345741
0.06394565 0.070710994 -0.011695636 -0.03837412 -0.050020095 0.024763403 -0.0358951 0.02272711
0.0065140002 0.0066315145 0.031491254 -0.004043342 -0.040642217 -0.031988755 -0.086639434 -0.041346606
-0.051585097 -0.022374447 0.03827983 0.07776566 -0.03669489 0.044449665 -0.042741776 -0.015121178
0.06033937 0.0066520358 -0.028580623 0.072395034 0.07147461 0.0025953536 0.07817279 0.052400462
-0.034721375 0.040512256 -0.044944663 -0.04769706 0.07780235 -0.026498634 -0.0014424116 -0.0552913
0.01737915 0.021181695 -0.045259833 0.016372913 0.062668614 0.046826173 -0.009659329 0.06195491
0.032872885 0.008183801 0.029522844 0.08541722 -0.010467002 0.008983076 0.008049832 0.008631411
0.03904377 0.05562938 -0.044815 -0.023567682 -0.022785828 -0.06281745 -0.00064354215 0.025269177
0.032674275 -0.022468157 0.009424237 0.06784899 -0.03941505 -0.03283397 -0.01571861 0.030679906
0.05909013 -0.031610984 0.025483731 -0.0031670567 -0.022188332 -0.042376436 -0.036183953 0.006770003

conv.11.weight f4 [128]
00000000: 82ab 9c3f 49f3 8a3f bd53 623f 4c34 a33f
00000010: 04fa 8e3f bdfa b33f dfab 6d3f 3d6d 6b3f
00000020: 8289 b63f 5a52 8c3f e83c 8d3f 9821 b03f
00000030: 5590 803f 4b99 7e3f fa17 ae3f f640 883f
00000040: 5629 bf3f 5ef0 be3f 0bcc 903f 7fb0 6d3f
00000050: 149b 713f 85cc 863f e94b 913f 6ccf 6d3f
00000060: 48f0 af3f 9914 823f 041e 9c3f 3ea4 da3f
00000070: 5c5d 943f d146 6a3f 274f 923f cee4 913f
00000080: 3808 ee3f d618 ba3f fd1e 5f3f f714 b03f
00000090: ce77 993f 1eb1 c53f 4155 703f 8289 ef3f
000000a0: b2ea f93f 2163 a83f 1b75 873f 469e ef3f
000000b0: 06ab 643f 3507 693f 8799 ae3f eee8 983f
000000c0: fda1 a23f e318 7a3f d5e4 f73f 0cc3 ad3f
000000d0: 1b6b bd3f f02e ab3f 2ac5 863f 1a8d af3f
000000e0: bb2a 0440 9ca0 6c3f f959 7c3f 37ab 6c3f
000000f0: 810a c73f 33da a53f 4769 a93f a9df f53f
00000100: 42a1 8a3f bc22 5f3f e5cf 7d3f 1352 9a3f
00000110: 1453 763f a0c1 7c3f 878d 0040 9f03 923f
00000120: a26b 943f ee4e b73f b7c5 c63f 53c4 f93f
00000130: 7622 a43f 687a 9d3f fdcf 893f 2edc 8a3f
00000140: 09f6 8c3f 94c7 683f 99bc d13f ebb0 0740
00000150: 80b9 ba3f ea46 a33f db24 983f 02cc a13f
00000160: 5319 973f 3fdc 683f 0555 7d3f ee46 863f
00000170: 1ca4 8b3f 999f 773f 3bf2 7f3f db49 7b3f
00000180: 4b99 ad3f 36ad 593f da11 1240 8877 883f
00000190: 12ff 893f 868d 893f 4ef0 813f c053 ae3f
000001a0: 804b ae3f f688 b53f 5d8b bf3f bc2e b33f
000001b0: 6da5 a83f a6fe a83f cb6b 973f fa21 9e3f
000001c0: 3845 7c3f d07e fc3f 7917 683f a744 6f3f
000001d0: d5d5 8e3f a22a 6b3f d2f0 a43f 33a5 5d3f
000001e0: d406 623f fa1d be3f bf96 943f f0e5 893f
000001f0: d84e aa3f 56de 7d3f 8c9f 9b3f 4070 6c3f
1.223984 1.0855495 0.88409024 1.2750335 1.1170049 1.4060894 0.9284038 0.9196356
1.4260714 1.0962632 1.1034212 1.3760252 1.0044047 0.99452657 1.3601067 1.0644825
1.493449 1.4917104 1.1312269 0.92847437 0.94377255 1.0531164 1.1351291 0.92894626
1.3745203 1.0162536 1.219666 1.7081373 1.1590991 0.9151431 1.1430405 1.1397951
1.8596258 1.4538829 0.8715666 1.3756398 1.1989686 1.5444677 0.9388009 1.8713839
1.9524748 1.3155252 1.0582613 1.8720176 0.8932346 0.9102662 1.3640603 1.1946084
1.2705685 0.97694224 1.9366709 1.3575149 1.4798311 1.3373699 1.052892 1.3714936
2.065108 0.9243257 0.9857479 0.92448753 1.555008 1.2957214 1.3235253 1.9208881
1.0830462 0.87162375 0.99145347 1.2056297 0.9622052 0.9873295 2.0086381 1.1407355
1.1595347 1.4320962 1.5529088 1.9513038 1.2823017 1.230298 1.0766598 1.0848444
1.1012584 0.9092953 1.638568 2.1201732 1.458786 1.2756016 1.1886247 1.2640383
1.1804603 0.9096107 0.98957855 1.0490396 1.0909457 0.967279 0.9997899 0.9815957
1.3562406 0.85029924 2.2823396 1.0661478 1.0780966 1.0746315 1.015146 1.3619308
1.3616791 1.4182422 1.4964405 1.3998637 1.3175484 1.3202713 1.1829771 1.2354119
0.9854312 1.97262 0.90660816 0.9346413 1.1159006 0.9186193 1.2885993 0.865802
0.8829167 1.4852898 1.1608504 1.0773296 1.3305311 0.9916738 1.2158065 0.9235878

conv.11.bias f4 [128]
00000000: 36df bfbe 5b75 4bbd 0978 9fbe 5259 02be
00000010: fdc0 513d 4fda a1bc 1ea0 efbd aff5 04be
00000020: 7881 83bd f4ea d2bd 467b 14bc fba9 09bd
00000030: a14a 17be d1ff d9bd 8dd1 72bf 2e5a 9c3d
00000040: c72c c9bd 490d 8e3d b18c e9bb 74f3 a4be
00000050: 62a5 09bf 0d98 3cbd e098 22bf f8c2 d7be
00000060: 3564 6f3e 1176 7bbe 703f 22bf 4563 803b
00000070: 5145 14be c352 49be 1da5 84b9 2492 e6bd
00000080: f61e 533a 1325 bdbc 8b5e 6ebe d0d6 84be
00000090: 557f 48be 662b cb3c 0756 84be 0cfa 733e
000000a0: ef6e 8e3d 8590 7d3d 04e4 67bf e1df c8bc
000000b0: 059c a2be b981 dfbe 6d01 163d c004 f5bc
000000c0: ddd1 593d 72b1 2dbf dde3 75bd e20e d5be
000000d0: b30b 97bd 5dac 98bd 675a fcbd 08ed c23c
000000e0: cfe6 203d 5e66 46be 07c6 3bbe 1512 57be
000000f0: 1f60 223e a173 0cbe bd34 35be 9ba5 15bf
00000100: f655 d1be 3139 20bf 80e4 89be bcd8 f4be
00000110: 9170 c5be 9f45 11be 12d9 cb3c df92 84bd
00000120: 10e0 7ebe f3e1 45bd e315 2fbe aad1 a1be
00000130: dd96 7aba 9054 d8be b301 d7be cd71 95bd
00000140: 570a c03d 51d6 64be d299 5f3c 158e 2bbe
00000150: fac7 0dbe 6c40 353e a8ea 14be f0ab d5be
00000160: 02c2 3fba 3cfb bfbe 2e81 a3bd 9e9c 033c
00000170: 7c35 d0bd f259 8bbe 7b99 7ebe 1122 4ebe
00000180: 5d99 e3bc 8555 a3be da88 7a3d bbaf 8ebe
00000190: 939a 0dbb 71f7 01bf 4b75 d9be b266 933d
000001a0: 75ce 3cbe b43b 8f3d da19 93bd deda bfbd
000001b0: a510 65bc d784 fdbc e634 2d3d 5661 1cbe
000001c0: 0aa9 87be 3f5a 65bd 14ca b9be aab3 99be
000001d0: ca66 c8bd 30e8 e8be 97fa f8be 5ca5 c6be
000001e0: 6c99 cabe 03ab b5be 3ae6 2fbc 4ae2 a2b8
000001f0: e251 82be c727 b3bd 28ab 0ebe 9330 06bf
-0.37474984 -0.049672466 -0.31146267 -0.12729385 0.05120944 -0.019757418 -0.11700462 -0.12984346
-0.064211786 -0.1029872 -0.009062594 -0.03360937 -0.14774562 -0.10644496 -0.94851 0.07634388
-0.09822994 0.06936128 -0.0071273674 -0.3221699 -0.5376798 -0.046043444 -0.6351452 -0.42140937
0.2337807 -0.24556758 -0.6337805 0.003918084 -0.14479567 -0.19660477 -0.0002530002 -0.11258343
0.0008053625 -0.023088967 -0.23278253 -0.2594514 -0.19579823 0.024800967 -0.25846884 0.23825854
0.06954753 0.061905403 -0.905823 -0.024520816 -0.31759658 -0.43653658 0.036622453 -0.029909492
0.053178657 -0.67848885 -0.06003176 -0.41612917 -0.07375278 -0.07454751 -0.123219304 0.023794666
0.039282616 -0.19374987 -0.1833726 -0.21002991 0.1585698 -0.13715984 -0.176959 -0.5845582
-0.40885895 -0.6258727 -0.26932144 -0.47821605 -0.38562444 -0.14186715 0.02488378 -0.06473326
-0.2489016 -0.048311185 -0.17098193 -0.31605273 -0.00095592235 -0.42252016 -0.41993484 -0.072970964
0.09376972 -0.2234738 0.013647513 -0.16753419 -0.13845816 0.17700356 -0.1454264 -0.4173274
-0.0007314981 -0.37496364 -0.079836234 0.008032946 -0.10166451 -0.2721706 -0.24863236 -0.20130183
-0.02778309 -0.31901184 0.061165668 -0.27868447 -0.0021607026 -0.5076819 -0.424723 0.07197322
-0.18438132 0.06993809 -0.07182665 -0.093679175 -0.013981019 -0.030947132 0.042286776 -0.15271506
-0.26496154 -0.05599427 -0.36286986 -0.30019885 -0.097852305 -0.45489645 -0.48628685 -0.38798034
-0.39570177 -0.35482034 -0.010736043 -7.7669116e-05 -0.25453097 -0.08747821 -0.13932478 -0.5241787

conv.11.running_mean f4 [128]
00000000: 86d6 b73f de1c f8bf 937b c4bf 4ca9 cfbe
00000010: b618 3e3e 2d60 413f 5f1f 34c0 9fc3 15be
00000020: ebe7 3940 afaa 053e 3c35 b03e 130f a63e
00000030: 8960 dbbf 429a b7bf 3d2b d4bf 5f41 403d
00000040: 7ae2 ba3f 6ab8 85be 2a50 f5be bd24 a1bf
00000050: 4105 9abf 71e0 a13d d1b2 11c0 c21e 6b3f
00000060: 516b 84be 012a 04bf b1ed f8bf 766a ba3f
00000070: d0aa ba3e 2f97 bbbf 81c7 a63f 3c43 f13f
00000080: 46dc 07bf 9fbf 453f 61b0 ccbe 2804 ed3e
00000090: 3d00 f73f 2bbc 10bf 5072 fcbf fba2 fb3f
000000a0: 5310 e93f ec41 28bf c1e3 8dbf eee2 aabe
000000b0: 8755 c3bf 8ef9 38bf f7e9 22bf f86b 9d3e
000000c0: 0762 b43f 884f 90bf 8b0e 1540 1fcb cb3f
000000d0: 1f44 a43e 10c1 953f 6b4d d7bf 61b1 c53e
000000e0: 6f73 24bd c469 11c0 d1bb d1bf 07d4 13c0
000000f0: c5a6 2abf 57eb d53f 6d49 b93d 4825 6a3b
00000100: 0e86 9bbf 6ac5 f7bf 0486 34c0 5419 14bf
00000110: 3edd c1bf 8e5e 853f 223d 00bf 5397 3bbe
00000120: 95af b1bf f1c8 e83f f034 0b3f e7ac 9e3e
00000130: 1842 1f40 a8bb 1d40 00bd 17be cf37 b03e
00000140: 5e87 ff3e bc37 4ac0 47ff 953d b71c 23be
00000150: 6029 c3be de4f 06bf 061e 283f 4ca4 c9bf
00000160: cbd7 693f bfaa e7bf ac79 4dc0 dd0f 4dbf
00000170: e670 4fbf f1c2 3a3f d0b8 78bf d59d 03c0
00000180: bbb5 8c3f 273e fcbf 3145 2dbf 684f 3cbf
00000190: 9abd d3be 30f3 6cbd 2787 8abe 5972 6dbe
000001a0: 5826 ad3f b47d 773e 4afa 0bbf bed4 e93f
000001b0: 78b6 893f 3860 2740 c68e 1e3f 0531 33bf
000001c0: a4b6 abbf edfd f3be afe5 bebf f57a 02bf
000001d0: 39ac 98be 2573 fcbe 8293 4dbf 6f55 03be
000001e0: 067e 0dc0 a918 34be 9d81 d93e a3b5 f1be
000001f0: c205 02bc 1111 30c0 afad 8bbf 20f7 cfbe
1.4362342 -1.938381 -1.5350212 -0.4055885 0.18564114 0.7553738 -2.8144147 -0.14625405
2.9047801 0.13053392 0.34415615 0.32433376 -1.7138835 -1.4343951 -1.6575695 0.046937343
1.4600365 -0.2611726 -0.47912723 -1.2589337 -1.2032853 0.07904137 -2.276539 0.9184381
-0.25863126 -0.5162659 -1.9447538 1.4563739 0.36458445 -1.4655513 1.3029634 1.8848643
-0.53070486 0.77245516 -0.39978316 0.46292233 1.9296948 -0.5653712 -1.9722385 1.9659113
1.8208107 -0.6572559 -1.108513 -0.3337626 -1.5260476 -0.7225579 -0.6363825 0.30746436
1.4092416 -1.1274271 2.3290126 1.5921363 0.32083222 1.1699543 -1.6820501 0.38611892
-0.04014915 -2.2720804 -1.6385442 -2.3098161 -0.6666072 1.6712445 0.09047208 0.0035727788
-1.2150285 -1.9357121 -2.8206797 -0.5785115 -1.5145643 1.0419481 -0.5009328 -0.18319444
-1.3881708 1.8186322 0.5437765 0.3099129 2.488409 2.4645786 -0.14818192 0.3441758
0.49907964 -3.1596518 0.07324081 -0.15928923 -0.38117504 -0.5246562 0.6567081 -1.5753264
0.913449 -1.8098983 -3.2105513 -0.8010233 -0.81031644 0.72953707 -0.97157 -2.0565083
1.099296 -1.9706467 -0.676837 -0.73558664 -0.41355592 -0.05784911 -0.27056238 -0.23188151
1.3527327 0.24169046 -0.54678786 1.8268049 1.075881 2.6152477 0.61936605 -0.6999667
-1.3415112 -0.47654667 -1.4913844 -0.5096887 -0.29818895 -0.49306598 -0.80303204 -0.12825559
-2.2108169 -0.17587532 0.424817 -0.4720889 -0.007935943 -2.7510417 -1.0912379 -0.4061823

conv.11.running_var f4 [128]
00000000: 8f2e 6940 ed1b c540 2298 0440 e669 1540
00000010: 4029 2140 eace 2840 d672 c340 1f5c 7740
00000020: 258e 1541 be5f 0740 6e3d 6c40 0f09 5440
00000030: 5a20 3540 e55e 2d40 400d 8040 4654 3940
00000040: 703a 8e40 8e6f 8e40 58d6 d93f e386 c140
00000050: 2461 5940 d528 7b40 bc46 db40 237e da3f
00000060: d48a 6340 200f 3440 560e c440 d076 0b41
00000070: bc70 fe3f 4770 8740 9048 f23f 54a2 1b40
00000080: 01ff 3140 826d 5440 3199 0540 b458 2d40
00000090: ccfb 4540 4a46 a140 f887 8340 5152 1a41
000000a0: 682a 4d41 d0c9 1340 7bdf 703f 9727 2c40
000000b0: 8efe 8b40 1dfa dd3f eb75 5540 f5c0 f33f
000000c0: c464 f340 3520 7140 3380 c140 b24e c840
000000d0: ac81 5940 2bd9 ea3f 57ed 8140 2148 9740
000000e0: 3f09 b840 72e6 ec40 d82f ee40 8224 a63f
000000f0: 92dc 7840 166a 3d40 5004 dc3f d1ff 8640
00000100: a8ce b440 b7c3 0840 8932 1d41 9b25 de40
00000110: 00ac 8540 25b1 1240 cdee d840 c008 a940
00000120: 5913 4140 4656 2340 6a93 b740 5138 d040
00000130: 21e6 f340 9168 4440 0c92 be3f 748f 8b40
00000140: fe1b 5b40 6f5f e840 f0b1 0640 df09 2b40
00000150: d64e 6740 5f82 7240 1638 8640 fd3d 1941
00000160: 2ff9 4240 4f2c 8240 2611 0c41 ebaf 3140
00000170: 7da2 b73f 5748 d93f 0d10 e440 306e 5840
00000180: f53f 9840 f908 4640 5250 0241 6c16 c340
00000190: 8466 df3f 7085 8a40 6f7a 2640 e28e 1c40
000001a0: 5162 ea3f bba4 1640 c749 2e40 dfec c740
000001b0: ce94 8e40 04e2 bb40 3dd2 3740 5990 6240
000001c0: 26dc 6740 8b02 ab40 1054 2a40 1824 0240
000001d0: ef18 fe3f a22a 1940 abf7 2040 04bb 0640
000001e0: 54d9 d640 7bac 4540 63e4 ff3f a098 3140
000001f0: 3ff7 8940 c121 8240 f071 e640 5d77 2240
3.6434667 6.159659 2.0717854 2.3345885 2.5181427 2.637629 6.107768 3.8649976
9.347203 2.1152186 3.6912494 3.313053 2.8300996 2.708917 4.0016174 2.8957686
4.4446335 4.4511175 1.7018538 6.0477157 3.396554 3.9243672 6.8523846 1.7069744
3.5553484 2.8134232 6.12675 8.716507 1.9878154 4.2324557 1.8928394 2.4317827
2.7811892 3.3191838 2.087475 2.708539 3.0934935 5.03983 4.1103477 9.645097
12.822853 2.3091927 0.94091004 2.6899164 4.3748236 1.7341954 3.3353221 1.9043261
7.6060505 3.7675908 6.0468993 6.2596064 3.3985395 1.8347524 4.060222 4.727555
5.7511287 7.4031305 7.4433403 1.2979891 3.8884625 2.9596 1.7188816 4.2187276
5.6502266 2.1369455 9.824838 6.9420905 4.177246 2.292062 6.7791505 5.282318
3.016806 2.5521407 5.736745 6.5068746 7.621842 3.0688822 1.488832 4.3612614
3.4235835 7.2616496 2.1046104 2.6724775 3.6141868 3.7892072 4.1943464 9.577634
3.046459 4.067909 8.754187 2.7763622 1.4346462 1.6975201 7.1269593 3.3817253
4.7578073 3.0942976 8.144609 6.096487 1.745316 4.3287888 2.6012228 2.4462209
1.8311254 2.3538043 2.723253 6.247665 4.4556646 5.87134 2.872207 3.5400603
3.6228118 5.3440604 2.6613808 2.033453 1.9851359 2.393227 2.5151165 2.1051645
6.7140293 3.0886524 1.9991573 2.7749405 4.3114314 4.0666203 7.2014084 2.5385354
