output/electricity_cnn_20260221_165736/checkpoints/model_best.pt (torch, 174882 bytes, 21 tensors)

conv.0.weight f4 [32, 14, 3]
0.21528774 -0.17099506 -0.15089089 -0.13371694 -0.049747676 0.0020876057 0.11380014 0.02803553
0.097618476 -0.022103475 0.03032937 0.08560192 0.10795788 -0.074894115 -0.058966376 -0.059344072
-0.110785075 0.13598774 0.049318414 -0.10939354 -0.0004429401 0.21961717 -0.0040328056 0.13928767
0.14503735 0.35947388 0.25559235 -0.0901914 -0.026782516 -0.21876007 -0.1159941 0.07517036
0.044033214 0.70137995 0.19087179 0.19532834 0.05013505 -0.08894523 0.04293325 0.05126776
0.002671487 0.1135993 0.1532242 -0.0026133803 0.06629767 0.031635076 0.080431044 -0.0115598235
0.049448736 -0.057636976 -0.056616064 -0.0423608 -0.033086427 0.07449006 0.00075438176 0.030736808
-0.06961426 -0.03555148 0.064174384 -0.0049813204 -0.031917267 -0.028836584 -0.03182743 0.045357626
-0.06750934 -0.04047599 -0.9491231 -0.8295746 -0.6688965 0.2459359 0.3336652 0.3034784
0.020576878 0.20930944 0.14114635 0.014677077 0.020997923 0.013469481 0.049862895 0.0133968545
-0.06612703 -0.021262784 -0.016501343 0.051031027 0.048565738 0.14659482 0.14794947 0.11907814
0.000653096 -0.046138495 0.12153761 -0.024162134 0.12359825 0.33440933 -0.2957929 -0.15480572
-0.12717092 0.0028624798 0.094283015 0.012534005 -0.046477202 0.021778468 0.066228114 -0.0657798
0.09426183 -0.11344115 0.09542912 -0.029809875 -0.45089892 -0.18547577 -0.24385211 -0.07072163
-0.15249908 -0.18242945 -0.21198973 0.011837448 -0.058709603 -0.28137338 -0.1154412 -0.42379725
-0.10085475 -0.04941747 0.0067788637 0.11040045 0.06357525 -0.0009417633 0.18379985 0.06879179
-0.009024163 -0.019083966 0.05526594 0.027476327 0.23817177 0.19665752 0.30729988 0.08282656
0.1324912 0.23749138 -0.07161011 -0.022088462 0.18067764 -0.02598326 -0.0448117 0.12956142
-0.015726643 0.19825403 0.23836073 0.17135489 -0.2056334 0.028175728 0.0381611 0.13972029
0.048762552 -0.032810118 0.09519991 0.2078098 -0.15848404 -0.08937774 -0.25147885 -0.008390732
0.06359454 0.092455 0.028201276 -0.00742363 0.13525222 0.056408525 0.10529144 -0.01048796
-0.067170806 -0.2306447 0.122591734 -0.024958659 -0.015635394 -0.117034376 -0.026982374 -0.100869566
0.10795468 0.076389804 -0.21531275 0.030975278 -0.11261034 0.011494145 0.062389083 -0.015797393
0.07037556 0.12365386 -0.12725434 -0.31087145 0.035677973 -0.052264184 -0.032194372 -0.0070722452
0.25117743 0.26905194 0.42530438 0.06600778 -0.21170805 0.012162419 0.13034546 0.061617874
0.35428914 -0.122801736 -0.07283048 -0.014377233 0.04140192 0.053124566 -0.0060547264 0.048723448
-0.015102538 -0.013984468 0.1318777 0.3194032 0.25630078 -0.14712198 -0.19307944 -0.046058677
-0.0013405617 0.075604156 0.054046184 -0.05129209 0.04221956 0.26813126 -0.015226547 0.03375069
0.017220395 0.07768993 -0.010184342 0.019440548 0.15097263 0.074365176 0.2745189 -0.34505436
-0.30103418 0.010526826 0.09774646 -0.10165605 -0.037223585 -0.121315636 0.048847895 0.011754623
0.008659621 0.08505743 0.24245502 0.39401004 0.29311416 0.31071132 0.11699318 -0.034788467
-0.030121531 0.10958185 -0.046627898 0.026740555 -0.17249855 -0.06795579 -0.053872876 -0.09468872
00000000: 6474 5c3e 5419 2fbe 2483 1abe 18ed 08be
00000010: 38c4 4bbd 36d0 083b 0c10 e93d c5aa e53c
00000020: 32ec c73d 5912 b5bc 4d75 f83c 0f50 af3d
00000030: 0519 dd3d 1662 99bd ba86 71bd c512 73bd
00000040: 49e3 e2bd 5f40 0b3e 1b02 4a3d b809 e0bd
00000050: 6a3a e8b9 53e3 603e a025 84bb 6da1 0e3e
00000060: ac84 143e f60c b83e 00dd 823e 45b6 b8bd
00000070: 0267 dbbc a402 60be 518e edbd ebf2 993d
00000080: 2c5c 343d a38d 333f e573 433e 2704 483e
00000090: 695a 4d3d eb28 b6bd c7da 2f3d 25fe 513d
000000a0: 1d14 2f3b c0a6 e83d cee6 1c3e 3f45 2bbb
000000b0: 13c7 873d c893 013d 08b9 a43d 6a65 3dbc
000000c0: c28a 4a3d c014 6cbd 3fe6 67bd 8582 2dbd
000000d0: a285 07bd 3f8e 983d b4c1 453a c2cb fb3c
000000e0: ec91 8ebd 6e9e 11bd dc6d 833d 583a a3bb
000000f0: aebb 02bd b33a ecbc 7b5d 02bd ebc8 393d
00000100: 5642 8abd 27ca 25bd bbf9 72bf 005f 54bf
00000110: cd3c 2bbf 9fd6 7b3e 2ad6 aa3e 8561 9b3e
00000120: d790 a83c 3755 563e ab88 103e 1f78 703c
00000130: d603 ac3c 19af 5c3c 093d 4c3d 7b7e 5b3c
00000140: 9c6d 87bd 4a2f aebc d32d 87bc e905 513d
00000150: deec 463d f41c 163e 1180 173e 3ddf f33d
00000160: 8834 2b3a b8fb 3cbd b6e8 f83d abef c5bc
00000170: 1421 fd3d b337 ab3e 2b72 97be 6485 1ebe
00000180: 1839 02be 7198 3b3b 7417 c13d 6d5b 4d3c
00000190: e15e 3ebd c268 b23c 9ba2 873d 8fb7 86bd
000001a0: 590c c13d d553 e8bd 5870 c33d d733 f4bc
000001b0: 39dc e6be 5ced 3dbe 5eb4 79be 80d6 90bd
000001c0: b828 1cbe c9ce 3abe d613 59be dbf1 413c
000001d0: 7b79 70bd 2c10 90be 706c ecbd f4fb d8be
000001e0: ef8c cebd f969 4abd 3b21 de3b a219 e23d
000001f0: be33 823d aae0 76ba 0736 3c3e b6e2 8c3d
00000200: 15da 13bc fa55 9cbc 8a5e 623d 0916 e13c
00000210: 4de3 733e 9760 493e 6956 9d3e f9a0 a93d
00000220: c6ab 073e f130 733e 52a8 92bd ddf2 b4bc
00000230: 8f03 393e d8da d4bc 798c 37bd c0ab 043e
00000240: 29d5 80bc 1b03 4b3e d614 743e a877 2f3e
00000250: 9091 52be c9d0 e63c d04e 1c3d d612 0f3e
00000260: 3ebb 473d e763 06bd 2cf8 c23d 18cc 543e
00000270: a449 22be ad0b b7bd d6c1 80be 4879 09bc
00000280: db3d 823d 0c59 bd3d 5d06 e73c ec41 f3bb
00000290: 8f7f 0a3e a00c 673d 0aa3 d73d b1d5 2bbc
000002a0: d990 89bd 202e 6cbe 6011 fb3d 1a76 ccbc
000002b0: cc15 80bc b8af efbd 240a ddbc b494 cebd
000002c0: 5817 dd3d 4272 9c3d f27a 5cbe debf fd3c
000002d0: 40a0 e6bd f051 3c3c b28b 7f3d 8969 81bc
000002e0: 1021 903d 3c3e fd3d f64e 02be 8b2a 9fbe
000002f0: 1123 123d f812 56bd 3fde 03bd 4bbe e7bb
00000300: 549a 803e 2dc1 893e 7fc1 d93e 162f 873d
00000310: ffc9 58be e244 473c 4879 053e 0663 7c3d
00000320: 6365 b53e 7a7f fbbd 2628 95bd 7c8e 6bbc
00000330: 0f95 293d 2599 593d ba66 c6bb 3d92 473d
00000340: a370 77bc 1c1f 65bc f30a 073e d188 a33e
00000350: db39 833e 25a7 16be 9eb6 45be 06a8 3cbd
00000360: c9b5 afba 5ad6 9a3d 885f 5d3d a817 52bd
00000370: 6bee 2c3d 8048 893e c478 79bc 2a3e 0a3d
00000380: c911 8d3c e61b 9f3d 3adc 26bc c941 9f3c
00000390: 9298 1a3e c54c 983d be8d 8c3e f7aa b0be
000003a0: 2721 9abe b578 2c3c 4c2f c83d 0c31 d0bd
000003b0: c277 18bd 5574 f8bd bb14 483d 7696 403c
000003c0: 15e1 0d3c 9732 ae3d 2146 783e afbb c93e
000003d0: 0f13 963e 8e15 9f3e 1f9a ef3d 5a7e 0ebd
000003e0: 6ec1 f6bc 736c e03d e5fc 3ebd 020f db3c
000003f0: 76a3 30be 682c 8bbd cea9 5cbd 29ec c1bd

conv.0.bias f4 [32]
0.01089473 0.13307303 0.13516773 0.11877027 0.039764877 -0.08460488 -0.019164432 0.18668936
0.0023988762 0.15330799 -0.080686815 -0.069088034 -0.13590834 0.13535035 0.016184384 -0.037241712
-0.13993551 0.14227092 -0.102369085 -0.01695159 -0.05008877 0.0732875 0.057429124 -0.026186137
-0.16243473 0.0093535455 -0.0027985869 -0.07043919 0.17612001 0.068382986 -0.113507204 0.060272485
00000000: cf7f 323c 4c44 083e 6969 0a3e d43d f33d
00000010: 7fe0 223d 5345 adbd bafe 9cbc 7f2b 3f3e
00000020: 7736 1d3b c5fc 1c3e 213f a5bd 077e 8dbd
00000030: 8e2b 0bbe 4899 0a3e 1d95 843c c48a 18bd
00000040: 414b 0fbe 78af 113e e2a6 d1bd 10de 8abc
00000050: e229 4dbd c217 963d cd3a 6b3d 4f84 d6bc
00000060: 4a55 26be 9d3f 193c 7f68 37bb 6c42 90bd
00000070: ce58 343e 610c 8c3d 7776 e8bd 48e0 763d

conv.1.weight f4 [32]
0.65162814 1.3074423 0.8696008 0.66715145 0.8039282 0.58839786 0.7292715 0.7071187
1.2336799 0.73653114 0.752344 0.7401829 1.0348774 0.67673784 0.67777914 0.80899435
1.0228937 1.0143206 0.72025007 0.67782444 0.6917399 0.81375235 0.6487976 0.64268327
1.1912339 1.1614829 0.8252826 1.027199 0.84539104 1.1516671 0.708192 0.984844
00000000: 1ad1 263f 455a a73f 289e 5e3f 70ca 2a3f
00000010: 3dce 4d3f 3ea1 163f 89b1 3a3f bb05 353f
00000020: 39e9 9d3f 4e8d 3c3f 9e99 403f a07c 3d3f
00000030: dd76 843f b13e 2d3f ef82 2d3f 411a 4f3f
00000040: 2eee 823f 42d5 813f 4f62 383f e785 2d3f
00000050: de15 313f 1352 503f 9917 263f e486 243f
00000060: 5a7a 983f 79ab 943f b845 533f 427b 833f
00000070: 8c6b 583f d469 933f 124c 353f bd1e 7c3f

conv.1.bias f4 [32]
-0.18427487 -0.2326921 -0.37121668 -0.5974459 0.024720388 -0.37268156 -0.16137028 -0.20540732
-0.21563171 -0.21394297 -0.2754632 -0.36592045 0.18643299 -0.21537389 -0.22632821 -0.3194991
-0.14709759 -0.17500137 -0.19618183 -0.44770512 -0.5281439 -0.560159 -0.39319956 -0.41027772
-0.29059398 -0.37947196 0.06863826 -0.35565832 -0.4084108 -0.57374793 0.14216842 0.20316981
00000000: 8db2 3cbe d646 6ebe 1d10 bebe 37f2 18bf
00000010: 6982 ca3c 1ed0 bebe 403e 25be 4c56 52be
00000020: 8fce 5cbe de13 5bbe 8309 8dbe ed59 bbbe
00000030: 4ae8 3e3e f98a 5cbe 95c2 67be 6395 a3be
00000040: c0a0 16be 8f33 33be e4e3 48be 9b39 e5be
00000050: 7034 07bf 9566 0fbf 7451 c9be ec0f d2be
00000060: bcc8 94be 264a c2be 3792 8c3d d918 b6be
00000070: 381b d1be 25e1 12bf 9994 113e bf0b 503e

conv.1.running_mean f4 [32]
0.0077068526 0.14666015 0.16213879 0.15052001 0.019387443 -0.06749653 0.0010925744 0.16760147
0.02094679 0.157453 -0.09040314 -0.06641461 -0.1683562 0.12209681 0.028336806 0.013280813
-0.13471521 0.14512487 -0.09183734 -0.018851701 -0.050373573 0.08594499 0.039602652 0.0076542953
-0.15500435 0.013556325 -0.011065841 -0.04773026 0.20930925 0.075356215 -0.13826446 0.02771461
00000000: c489 fc3b 142e 163e b607 263e eb21 1a3e
00000010: 6ad2 9e3c 9f3b 8abd b734 8f3a b89f 2b3e
00000020: 9a98 ab3c 5c3b 213e 4825 b9bd 6204 88bd
00000030: 9165 2cbe e40d fa3d 9722 e83c c497 593c
00000040: c9f2 09be 9d9b 143e 3715 bcbd e26e 9abc
00000050: 8554 4ebd ed03 b03d 6436 223d e2d0 fa3b
00000060: 76b9 1ebe 591b 5e3c 804d 35bc ce80 43bd
00000070: 2a55 563e 5c54 9a3d 3395 0dbe c009 e33c

conv.1.running_var f4 [32]
1.3485504 3.9419692 1.8500435 2.264435 1.3257085 5.281417 5.4933634 2.3785615
5.0763736 1.3531486 2.5458946 1.7352848 13.640858 1.5861473 2.3729062 1.89544
4.523005 3.1145818 1.7070467 1.2244424 1.9030185 2.1867633 3.0732164 2.5382888
3.91947 4.0977044 1.203083 6.053709 3.8995893 2.5307968 8.3744 10.96717
00000000: 4d9d ac3f 3949 7c40 3ace ec3f 81ec 1040
00000010: d1b0 a93f 5e01 a940 a2c9 af40 5a3a 1840
00000020: a771 a240 f933 ad3f f0ef 2240 d01d de3f
00000030: f440 5a41 e006 cb3f b2dd 1740 c79d f23f
00000040: 75bc 9040 4f55 4740 8280 da3f 87ba 9c3f
00000050: 1c96 f33f eef3 0b40 94af 4440 5373 2240
00000060: 99d8 7a40 6520 8340 a0fe 993f fcb7 c140
00000070: df92 7940 93f8 2140 8bfd 0541 8779 2f41

conv.5.weight f4 [64, 32, 3]
-0.0013162658 -0.024837451 0.048433453 0.4237033 0.091964014 0.40946183 -0.06025608 -0.12031718
-0.07547393 -0.05304479 0.07913462 -0.06741782 -0.07792932 0.11425733 -0.16833627 0.16026974
-0.011786276 0.01761666 -0.0094767725 0.019029763 -0.19072464 -0.018093128 0.08335674 -0.016121931
-0.10900881 -0.2359238 -0.2522272 0.05800516 0.039183844 -0.1721756 0.086917795 0.053370196
-0.17067325 -0.032081783 -0.07576259 0.078745455 0.020107444 -0.002028444 0.030435909 0.11210478
0.050746202 -0.12692527 0.01938197 0.06888466 -0.2709208 -0.14683867 -0.20805569 0.024360385
0.06918886 -0.068918034 -0.2548942 0.16377732 0.18669322 -0.10586801 0.04928939 0.022225335
-0.12592295 0.0057466053 0.014138124 0.11853948 0.20144005 0.07407051 0.06297157 0.0112861805
-0.019188311 -0.07044008 -0.070500374 -0.13084705 0.0035317787 -0.002252204 0.083413705 -0.03908894
-0.32096174 -0.18716708 -0.21575217 -0.14838943 -0.2506616 -0.2629409 -0.14512426 0.10542528
0.086066075 0.0044670296 -0.14111896 -0.42674318 0.015662394 -0.047283985 0.07337433 -0.17485435
-0.25226527 -0.37798184 0.07683309 0.008367324 0.053711448 0.10583675 0.08309045 0.17298844
-0.02174968 -0.23346148 -0.014365226 0.012731272 0.074041694 0.0715639 -0.047144584 0.020586627
-0.044687804 0.12778229 -0.06925675 0.04660664 0.05759433 -0.014982918 -0.023998147 -0.043567643
-0.13146588 0.1343374 0.002308876 -0.055104427 0.1465267 -0.22091633 -0.19980392 -0.04301451
-0.13462457 -0.016807504 0.01576016 -0.11525399 -0.15899937 0.041699056 -0.04735614 -0.071376756
-0.003608502 0.07666686 0.06381275 0.013876762 0.043414894 0.039314315 -0.12441411 0.28588533
0.11801699 0.03050398 0.142029 -0.010812907 -0.008841433 -0.114407234 -0.05805371 0.06642884
-0.09066151 -0.069147855 -0.05366873 0.1671172 0.14199197 0.10687797 0.08984129 -0.05827578
0.007815465 -0.008360319 -0.38180503 -0.38346696 -0.48266563 -0.4851669 -0.22376387 -0.14804958
-0.034585543 0.007494944 -0.012604996 -0.12065611 0.054723836 0.021724759 0.0038622492 0.17089455
-0.049893424 -0.027053535 -0.016740816 0.043733638 0.049672972 0.007994652 -0.09089957 -0.061648536
0.05712879 -0.09831183 -0.013984987 -0.10788313 -0.13453105 -0.0984178 -0.15111059 -0.21704137
0.017963937 0.00571298 -0.06746556 -0.08272504 -0.10938305 -0.103553884 -0.2224087 -0.15255372
-0.09219505 -0.14926995 -0.01377007 0.23299342 0.33054444 0.08948423 -0.059110377 -0.14684163
-0.17263383 0.10401786 0.099890806 -0.1828125 -0.12281581 0.014820675 -0.04095468 0.10862666
-0.127567 0.042319193 -0.2917401 -0.3486543 -0.40807807 -0.011597756 -0.19147645 0.05594099
0.026089031 -0.2718794 -0.2003146 -0.032842483 0.08643173 0.034558587 -0.044087395 -0.13267338
-0.088221624 0.033994325 0.003403193 -0.12590666 0.1701984 0.027734242 -0.044396717 0.071626514
-0.025187042 0.038479418 -0.11631404 -0.31700432 -0.4148275 0.120045565 -0.016962271 -0.12075777
0.0003744349 0.015646664 -0.17055765 -0.050043758 0.008789864 0.059181664 -0.07099892 -0.09984972
-0.38756746 0.11791526 0.02732802 -0.034561083 -0.059543025 0.267537 0.10657904 -0.06496049
00000000: 8d86 acba e977 cbbc 2862 463d a4ef d83e
00000010: a157 bc3d fba4 d13e 14cf 76bd db68 f6bd
00000020: 1392 9abd 7e45 59bd 5511 a23d 5b12 8abd
00000030: 6899 9fbd bfff e93d 5860 2cbe c01d 243e
00000040: 391b 41bc d050 903c 7744 1bbc 4ee4 9b3c
00000050: 524d 43be 0a38 94bc f0b6 aa3d 2412 84bc
00000060: 0340 dfbd 0296 71be ec23 81be d296 6d3d
00000070: 3d7f 203d cd4e 30be f501 b23d b59a 5a3d
00000080: f8c4 2ebe 3068 03bd 6b29 9bbd 4c45 a13d
00000090: 5eb8 a43c a5ef 04bb ba54 f93c 3197 e53d
000000a0: 40db 4f3d b3f8 01be f0c6 9e3c 6713 8d3d
000000b0: 22b6 8abe e05c 16be 8d0c 55be 6e8f c73c
000000c0: e4b2 8d3d e624 8dbd 7e81 82be 3eb5 273e
000000d0: 822c 3f3e 54d1 d8bd ace3 493d e811 b63c
000000e0: f2f1 00be 054e bc3b 97a3 673c d4c4 f23d
000000f0: 4d46 4e3e 48b2 973d 3df7 803d ace9 383c
00000100: ce30 9dbc e342 90bd 8062 90bd c5fc 05be
00000110: 6a75 673b b799 13bb ced4 aa3d b91b 20bd
00000120: 1955 a4be baa8 3fbe 23ee 5cbe 66f3 17be
00000130: b856 80be 31a0 86be 749b 14be 36e9 d73d
00000140: 6943 b03d 2960 923b 7d81 10be 157e dabe
00000150: 6c4e 803c daac 41bd 4845 963d 050d 33be
00000160: ea28 81be d686 c1be ab5a 9d3d 1a17 093c
00000170: 8900 5c3d f0c0 d83d 532b aa3d e223 313e
00000180: 632c b2bc 8710 6fbe 205c 6bbc d396 503c
00000190: 2ca3 973d 1890 923d ae1a 41bd 49a5 a83c
000001a0: 8f0a 37bd 5cd9 023e 7cd6 8dbd 9be6 3e3d
000001b0: 08e8 6b3d ea7a 75bc c397 c4bc fc73 32bd
000001c0: fe9e 06be be8f 093e 8350 173b 2eb5 61bd
000001d0: 180b 163e e437 62be 6699 4cbe fc2f 30bd
000001e0: 06db 09be e4af 89bc 731b 813c 490a ecbd
000001f0: bbd0 22be a1cc 2a3d 83f8 41bd fa2d 92bd
00000200: 9e7c 6cbb 8403 9d3d 42b0 823d 5c5b 633c
00000210: d1d3 313d 0c08 213d d3cc febd 905f 923e
00000220: e4b2 f13d 7ce3 f93c 0d70 113e 9e28 31bc
00000230: a8db 10bc 574e eabd bac9 6dbd d80b 883d
00000240: beac b9bd 649d 8dbd bed3 5bbd c520 2b3e
00000250: 5866 113e d6e2 da3d b6fe b73d 96b2 6ebd
00000260: 700c 003c b8f9 08bc f37b c3be c855 c4be
00000270: f31f f7be cc67 f8be 5b22 65be 4f9a 17be
00000280: 92a9 0dbd 2698 f53b 2f85 4ebc 8d1a f7bd
00000290: 1a26 603d 1ff8 b13c ca1d 7d3b fbfe 2e3e
000002a0: 0c5d 4cbd 609f ddbc 0924 89bc 0b22 333d
000002b0: e375 4b3d 00fc 023c 8e29 babd 2d83 7cbd
000002c0: e1ff 693d b657 c9bd 4921 65bc d5f1 dcbd
000002d0: 82c2 09be 468f c9bd bcbc 1abe 1840 5ebe
000002e0: 1b29 933c f333 bb3b 622b 8abd bf6b a9bd
000002f0: 3804 e0bd 0f14 d4bd 1bbf 63be 0b37 1cbe
00000300: c2d0 bcbd 39da 18be dc9b 61bc d495 6e3e
00000310: 1f3d a93e 8243 b73d b91d 72bd a75d 16be
00000320: ecc6 30be 5107 d53d 8d93 cc3d 3333 3bbe
00000330: db86 fbbd 6bd2 723c 18c0 27bd a877 de3d
00000340: eca0 02be e456 2d3d f55e 95be d182 b2be
00000350: 9cef d0be 8404 3ebc 6712 44be 6122 653d
00000360: aab8 d53c c733 8bbe 451f 4dbe d785 06bd
00000370: 1e03 b13d 4e8d 0d3d fc94 34bd 88db 07be
00000380: 8aad b4bd a23d 0b3d 1b08 5f3b aded 00be
00000390: 7d48 2e3e ec32 e33c 55d9 35bd ecb0 923d
000003a0: 0e55 cebc 989c 1d3d 0e36 eebd 644e a2be
000003b0: 4564 d4be 73da f53d 76f4 8abc da4f f7bd
000003c0: cd4f c439 6f2d 803c aaa6 2ebe affa 4cbd
000003d0: 5d03 103c 7968 723d e267 91bd 037e ccbd
000003e0: 3e6f c6be 8e7d f13d 03df df3c ec8f 0dbd
000003f0: 63e3 73bd 9cfa 883e 1d46 da3d 010a 85bd

conv.5.bias f4 [64]
0.0070815235 0.0340972 0.06624087 0.0071217585 0.016146854 -0.05119172 -0.016938323 -0.02624862
-0.04760935 -0.00053365424 0.052568052 0.035503563 0.024637531 0.029312592 -0.08683026 -0.040457506
-0.015713656 0.008656691 0.047335774 -0.05651616 0.055958398 -0.017005995 -0.0013989318 -0.055946246
-0.02767438 0.03917929 0.10674161 0.028782293 0.059923247 -0.029788535 -0.017636443 -0.058451742
-0.0069410284 0.06604356 -0.098779865 0.09045683 0.0057774945 -0.030534912 -0.07737965 0.013613851
0.026211338 0.037258856 0.10244786 0.015206206 0.14190273 0.0015674231 -0.0731642 0.04716455
-0.025199326 -0.04935605 0.04900987 -0.009444298 0.053104237 0.100251734 0.07466738 0.05799104
0.07633634 0.099012256 -0.014459095 0.023295721 0.049160454 -0.04100786 0.055583447 -0.06347007
00000000: 200c e83b 81a9 0b3d 4ba9 873d a45d e93b
00000010: 6846 843c 69ae 51bd 3dc2 8abc 5907 d7bc
00000020: 0602 43bd eee4 0bba 9951 573d 2f6c 113d
00000030: a6d4 c93c f620 f03c 10d4 b1bd c5b6 25bd
00000040: edb9 80bc cbd4 0d3c 28e3 413d 7d7d 67bd
00000050: a234 653d 2850 8bbc 5d5c b7ba e427 65bd
00000060: 62b5 e2bc 777a 203d 589b da3d d8c8 eb3c
00000070: 1472 753d 1607 f4bc 4d7a 90bc 186b 6fbd
00000080: 9171 e3bb d941 873d 194d cabd 6e41 b93d
00000090: 2351 bd3b 5a24 fabc 3979 9ebd a10c 5f3c
000000a0: 29b9 d63c be9c 183d 2fd0 d13d 7323 793c
000000b0: f34e 113e fe71 cd3a 1dd7 95bd 9d2f 413d
000000c0: d16e cebc 9229 4abd 93be 483d 42bc 1abc
000000d0: d483 593d c850 cd3d 36eb 983d 0388 6d3d
000000e0: 3a56 9c3d f0c6 ca3d d7e5 6cbc abd6 be3c
000000f0: 795c 493d dcf7 27bd 78ab 633d 99fc 81bd

conv.6.weight f4 [64]
0.91381013 0.9629829 0.85935754 0.9600615 0.89866763 0.9036914 0.9768531 0.9723968
1.1139805 1.1315655 0.81145155 0.8219872 1.1252265 1.2244471 1.0643735 0.93809736
0.7530215 1.016655 0.9118075 1.0733461 0.8476278 0.94815737 0.90690917 0.9183045
0.8589242 1.0806355 0.94495773 0.9306281 0.94678336 0.872866 0.9295852 0.96263516
1.0374434 0.834889 1.2663769 0.9518075 1.0801214 0.89768934 0.9448091 1.0529417
1.1400894 0.87947875 1.0246769 0.98591495 0.96933055 0.9251907 1.195514 0.8649099
1.0087141 1.0868292 0.87200564 0.82638884 0.8370595 0.90928966 1.1364832 0.92977506
0.95479816 0.90309346 0.95414567 0.9978878 0.95638895 1.1141 0.99761796 0.8785822
00000000: 76ef 693f 0c86 763f dbfe 5b3f 97c6 753f
00000010: 150f 663f 5258 673f 0b13 7a3f ffee 783f
00000020: ea96 8e3f 23d7 903f 4abb 4f3f c16d 523f
00000030: 6c07 903f afba 9c3f 643d 883f 2627 703f
00000040: 04c6 403f c021 823f 376c 693f 6863 893f
00000050: 23fe 583f 71ba 723f 332b 683f 0116 6b3f
00000060: 75e2 5b3f 4452 8a3f c0e8 713f a53d 6e3f
00000070: 6560 723f 2574 5f3f 4cf9 6d3f 426f 763f
00000080: f2ca 843f 49bb 553f a318 a23f a8a9 733f
00000090: 6b41 8a3f f8ce 653f 02df 713f cbc6 863f
000000a0: 73ee 913f 8525 613f 9d28 833f ec64 7c3f
000000b0: 0c26 783f 4cd9 6c3f 9a06 993f bc6a 5d3f
000000c0: 8b1d 813f 381d 8b3f c33b 5f3f 388e 533f
000000d0: 8849 563f 35c7 683f 4878 913f bd05 6e3f
000000e0: a76d 743f 2231 673f e442 743f 9375 7f3f
000000f0: e8d5 743f d49a 8e3f e463 7f3f c3ea 603f

conv.6.bias f4 [64]
-0.19221842 -0.34178087 -0.38457105 -0.23810229 -0.24620965 -0.43335155 -0.02874143 -0.32330462
-0.17741928 -0.23829414 -0.19840209 -0.22742422 -0.20393588 -0.19993383 -0.27903852 -0.5019749
-0.2828668 -0.3402522 -0.34181553 -0.12651773 -0.38158512 -0.18793644 -0.3896831 -0.26201937
-0.41024718 -0.26368603 -0.054628838 -0.4447089 -0.13108593 -0.26118964 -0.2574797 -0.24485597
-0.1740314 -0.3613081 -0.15605524 -0.17101686 -0.15004227 -0.44497553 -0.36862922 -0.28547394
-0.15947391 -0.20257613 -0.28986996 -0.15310325 -0.3119298 -0.42859668 -0.21013471 -0.43312055
-0.19483687 -0.28553432 -0.03881289 -0.3798487 -0.37145093 -0.28642744 -0.13540392 -0.14543469
-0.3044981 -0.21666712 -0.43403888 -0.015451388 -0.27781177 -0.10702674 -0.16329522 -0.32602546
00000000: e8d4 44be e7fd aebe 7fe6 c4be 16d1 73be
00000010: 621e 7cbe 41e0 ddbe 2673 ebbc 2f88 a5be
00000020: 66ad 35be 6103 74be eb29 4bbe e5e1 68be
00000030: 91d4 50be 74bb 4cbe 23de 8ebe 6d81 00bf
00000040: ebd3 90be 8935 aebe 7202 afbe dd8d 01be
00000050: 205f c3be 6972 40be 8b84 c7be 6727 86be
00000060: eb0b d2be db01 87be 7dc2 5fbd e3b0 e3be
00000070: 643b 06be a6ba 85be 61d4 83be 86bb 7abe
00000080: 4a35 32be 60fd b8be f2cc 1fbe 0b1f 2fbe
00000090: aea4 19be d5d3 e3be f8bc bcbe a429 92be
000000a0: 214d 23be 1e70 4fbe d669 94be 19c7 1cbe
000000b0: 43b5 9fbe 0671 dbbe 8e2d 57be fac1 ddbe
000000c0: 5183 47be 8e31 92be 44fa 1ebd 877b c2be
000000d0: d12e bebe 9ea6 92be 53a7 0abe d5ec 14be
000000e0: 2de7 9bbe fcdd 5dbe 583a debe d227 7dbc
000000f0: 583d 8ebe d630 dbbd dd36 27be cfec a6be

conv.6.running_mean f4 [64]
-0.4605493 -0.626401 -0.4226498 -0.27733377 0.65810275 -1.5522906 0.99180716 -0.32010874
0.0005510797 -1.5653541 -0.7062254 -0.5933159 -1.3312732 -0.15759158 -0.29186207 -1.0041018
-0.56611747 -1.7216108 -1.1441566 -0.104835235 -0.9672957 -0.17242776 -0.577236 0.44866657
-0.52641094 -0.61999387 1.1643049 -1.1690482 -0.112683125 -0.23094378 0.035064865 -0.42687833
-0.36485642 0.043963987 -0.22069742 -0.12306038 -0.73361146 -1.3642174 -1.5379835 -1.0025102
-0.19836713 0.26482472 -0.49417832 1.4746783 -0.5061177 -0.22412679 -1.102125 0.22551899
-0.55216026 -0.33172452 -0.7359883 -0.3136492 -1.1160221 -1.9008595 -1.4501874 0.7094631
-0.37245607 -1.3364761 -0.45575598 -0.59471613 -1.1839724 -0.19171932 -0.8228418 0.39116618
00000000: 1ecd ebbe d15b 20bf 8e65 d8be b1fe 8dbe
00000010: 6c79 283f 75b1 c6bf 13e7 7d3f 4be5 a3be
00000020: 5576 103a 865d c8bf 30cb 34bf 8de3 17bf
00000030: 2967 aabf b05f 21be f26e 95be 6886 80bf
00000040: 13ed 10bf be5d dcbf b973 92bf dbb3 d6bd
00000050: b1a0 77bf e790 30be bdc5 13bf a0b7 e53e
00000060: dec2 06bf ebb7 1ebf f107 953f 5fa3 95bf
00000070: 69c6 e6bd 877c 6cbe 2da0 0f3d cc8f dabe
00000080: 76ce babe 9513 343d 81fe 61be 1507 fcbd
00000090: f6cd 3bbf ad9e aebf a5dc c4bf 4152 80bf
000000a0: c120 4bbe 1b97 873e f104 fdbe 42c2 bc3f
000000b0: ee90 01bf 7e81 65be 6f12 8dbf 73ee 663e
000000c0: 605a 0dbf ccd7 a9be bb69 3cbf a196 a0be
000000d0: d0d9 8ebf 5d4f f3bf be9f b9bf 609f 353f
000000e0: 90b2 bebe a611 abbf d958 e9be 513f 18bf
000000f0: 688c 97bf 1252 44be c3a5 52bf ef46 c83e

conv.6.running_var f4 [64]
1.2161882 1.0094936 0.6326758 0.5287936 0.87194365 2.3772209 0.58869946 0.8152618
1.3764485 4.40775 1.299584 0.7768083 6.077857 0.9516701 1.4620662 2.920214
1.1456587 5.10803 1.8218188 1.1756359 2.1291914 1.8549341 0.63212216 0.44828296
2.0886672 1.4343749 0.60468423 1.6539975 1.0801121 0.920074 1.2049955 1.6557277
3.8548138 0.5133581 1.4596225 0.8762474 1.6354791 5.367772 7.221745 0.98041964
2.6987648 0.51494557 1.3633527 1.5940609 0.6882971 0.48266265 3.3431385 0.72943676
2.1229937 0.89812064 1.051742 0.48731825 1.4402597 9.260559 5.877051 1.4809434
0.9379486 0.88950294 1.9199252 3.1793137 10.340489 1.8025564 2.797535 0.5801261
00000000: 0eac 9b3f 1637 813f 0bf7 213f 045f 073f
00000010: b337 5f3f 6324 1840 02b5 163f ffb4 503f
00000020: 772f b03f 4a0c 8d40 c558 a63f e9dc 463f
00000030: ce7d c240 a7a0 733f fc24 bb3f c9e4 3a40
00000040: f2a4 923f fb74 a340 5c31 e93f 3d7b 963f
00000050: ac44 0840 7b6e ed3f c2d2 213f 5885 e53e
00000060: b9ac 0540 9999 b73f 96cc 1a3f 31b6 d33f
00000070: 1d41 8a3f f889 6b3f 4b3d 9a3f e3ee d33f
00000080: 45b5 7640 706b 033f e9d4 ba3f c051 603f
00000090: 6157 d13f cac4 ab40 8918 e740 c8fc 7a3f
000000a0: 90b8 2c40 79d3 033f 5782 ae3f 300a cc3f
000000b0: 3d34 303f 8f1f f73e fbf5 5540 5ebc 3a3f
000000c0: 21df 0740 3ceb 653f 7b9f 863f c781 f93e
000000d0: 6e5a b83f 402b 1441 cd10 bc40 8e8f bd3f
000000e0: 661d 703f 77b6 633f 1cc0 f53f e079 4b40
000000f0: a572 2541 2bba e63f d00a 3340 2583 143f

conv.10.weight f4 [128, 64, 3]
-0.026587231 0.09192745 0.039951034 0.19490372 -0.003977967 0.15215789 -0.008325024 0.13819538
0.028834717 -0.05326324 -0.11908621 0.008930065 -0.20837763 -0.18731177 -0.18929137 -0.106771015
-0.038728286 -0.10513924 -0.07071102 -0.046905767 0.0055643977 -0.054679144 -0.043247245 -0.034341447
0.018545065 0.11861055 0.07392675 -0.07685887 0.16242163 0.27923578 0.12098307 0.064282954
0.07508411 -0.00058743387 0.11626539 0.032878317 0.046336293 0.029624688 -0.008420265 0.16931902
0.22577631 0.13249584 0.08835827 -0.0113793705 0.03118322 -0.20218697 -0.2667665 -0.15759853
-0.15449242 0.016283017 0.100198776 0.19367799 0.06509546 0.16183802 0.13280256 0.019395517
0.09945846 0.013788948 0.2273388 0.06279071 -0.010876931 -0.10251142 -0.23673515 -0.032888878
0.07263449 -0.026379406 0.009591977 0.117894165 0.048459366 -0.108709075 -0.035427824 -0.106724694
-0.3113136 -0.2164892 -0.11981949 0.33419377 -0.09584651 -0.033707276 -0.027453853 -0.123436734
-0.13759589 -0.122668706 -0.13427262 -0.043126855 -0.041801866 0.07200306 -0.07961441 -0.07288703
0.06773326 0.14872019 -0.031576183 0.006998897 0.004522298 -0.135816 0.15087235 0.012322255
-0.2454751 -0.26523724 -0.058758516 -0.0035461646 0.055699654 0.06667263 -0.04425596 0.082361005
0.010997077 -0.1735994 0.10056855 -0.027656093 0.14756711 0.015440284 0.14760035 -0.09318859
-0.14004847 -0.113410994 -0.07287175 0.0033817184 -0.110375665 -0.083292626 -0.14296384 0.16034302
-0.2420207 -0.122855835 -0.072546855 -0.021898905 -0.15534717 -0.11652867 0.05297065 0.06336379
-0.012151743 -0.05934072 -0.068909496 -0.00018816051 0.013554227 0.08173205 0.10879157 -0.055739004
0.12494198 0.010397876 0.14866452 0.2227083 0.11093821 -0.18074995 -0.21696687 -0.25890955
0.0218881 0.106606126 0.037805673 0.23241267 0.082049794 0.23826125 -0.17893513 -0.008065172
0.06876717 -0.027419537 0.058623902 0.058033794 -0.08590618 -0.10683704 -0.14809676 0.1946547
-0.060360927 0.054006465 0.023647154 0.13902925 0.046788715 -0.20679167 -0.20629291 -0.15029798
-0.09347313 -0.101607 -0.046388518 -0.003680495 -0.10818479 0.33475652 -0.36128348 -0.27352533
-0.29233763 -0.09693369 -0.008377398 -0.038145863 -0.16121632 -0.13734788 -0.24223046 0.15903236
0.048581995 -0.0012151739 0.18267047 0.020969156 0.008144376 -0.050062157 0.0106859645 -0.011919819
-0.0024819097 0.0033529475 -0.040434353 0.011347087 -0.0005936942 -0.073200196 0.02486347 0.062284358
-0.07291959 -0.0672192 0.015711796 0.06588293 -0.029310638 0.05945066 0.056688335 0.18646881
0.04308314 0.11989854 -0.3550569 -0.28480095 -0.121639594 0.06397098 0.0740499 0.25957265
-0.023625985 -0.013696715 -0.011461474 -0.018537503 -0.18354446 0.047607597 -0.053568307 0.018199483
0.10427518 0.024763156 -0.025926007 0.068120055 -0.015004104 -0.119202234 -0.1114853 0.11621375
0.09591711 0.10702909 -0.1572703 0.043072 -0.1238872 0.15287995 0.015706845 0.2383998
0.08696629 0.09383601 0.080877535 -0.10982803 -0.049728207 -0.04712709 0.035383318 -0.039006535
-0.004577709 -0.10595373 -0.13143606 -0.102547534 0.15570925 0.14414012 0.04582341 -0.23294842
00000000: 77cd d9bc 7544 bc3d b2a3 233d d794 473e
00000010: 9b59 82bb 47cf 1b3e ae65 08bc 1783 0d3e
00000020: c936 ec3c 8e2a 5abd 79e3 f3bd 684f 123c
00000030: f260 55be a8ce 3fbe 99d5 41be c3aa dabd
00000040: 8da1 1ebd 3e53 d7bd f0d0 90bd 4320 40bd
00000050: 8d55 b63b 3df7 5fbd 0624 31bd 9ea9 0cbd
00000060: d2eb 973c 17ea f23d e866 973d 2f68 9dbd
00000070: db51 263e fef7 8e3e f9c5 f73d c8a6 833d
00000080: b3c5 993d 05fe 19ba 8c1c ee3d 6aab 063d
00000090: 20cb 3d3d 79af f23c 27f5 09bc f761 2d3e
000000a0: e831 673e fdac 073e 2ef5 b43d 8a70 3abc
000000b0: f473 ff3c 1a0a 4fbe 9e95 88be 8261 21be
000000c0: 4333 1ebe f663 853c 0435 cd3d 8653 463e
000000d0: c550 853d deb8 253e 65fd 073e 59e3 9e3c
000000e0: e1b0 cb3d 0aeb 613c 81cb 683e 6a98 803d
000000f0: 2835 32bc 82f1 d1bd b36a 72be 7db6 06bd
00000100: 64c1 943d a019 d8bc ab27 1d3c 7f72 f13d
00000110: 547d 463d dda2 debd c41c 11bd 7a92 dabd
00000120: 7f64 9fbe 58af 5dbe ec63 f5bd 721b ab3e
00000130: 2d4b c4bd a410 0abd e7e6 e0bc 66cc fcbd
00000140: f0e5 0cbe bb39 fbbd c37e 09be c9a5 30bd
00000150: 6f38 2bbd 5776 933d e10c a3bd cc45 95bd
00000160: bcb7 8a3d 1b4a 183e 0756 01bd 0157 e53b
00000170: c92f 943b 5913 0bbe 487e 1a3e 49e3 493c
00000180: d35d 7bbe 2dcd 87be c5ac 70bd c566 68bb
00000190: 5225 643d a98b 883d bd45 35bd e3ac a83d
000001a0: 162d 343c 0bc4 31be e2f6 cd3d 088f e2bc
000001b0: d51b 173e 3ff9 7c3c 8c24 173e a9d9 bebd
000001c0: de68 0fbe 0644 e8bd c93d 95bd d29f 5d3b
000001d0: a30c e2bd 5395 aabd 1d65 12be f630 243e
000001e0: 46d4 77be d79b fbbd 7293 94bd 5565 b3bc
000001f0: 5413 1fbe 95a6 eebd c1f7 583d e0c4 813d
00000200: 1b18 47bc 410f 73bd 6c20 8dbd f44c 45b9
00000210: 8c12 5e3c 2263 a73d 1dce de3d 954e 64bd
00000220: 95e1 ff3d da5b 2a3c 833b 183e a50d 643e
00000230: 9233 e33d 8416 39be 902c 5ebe cb8f 84be
00000240: ac4e b33c 5054 da3d 1fda 1a3d 96fd 6d3e
00000250: b909 a83d c2fa 733e c53a 37be c823 04bc
00000260: cdd5 8c3d f09e e0bc 9e1f 703d d8b4 6d3d
00000270: 94ef afbd 61cd dabd ada6 17be 9053 473e
00000280: 053d 77bd e235 5d3d adb7 c13c af5d 0e3e
00000290: 86a5 3f3d 32c1 53be 733e 53be b7e7 19be
000002a0: d76e bfbd 5517 d0bd e301 3ebd 7634 71bb
000002b0: fd8f ddbd 3565 ab3e 26fa b8be 830b 8cbe
000002c0: 47ad 95be 2c85 c6bd 5b41 09bc d63e 1cbd
000002d0: e415 25be eca4 0cbe 430b 78be 61d9 223e
000002e0: eafd 463d 7846 9fba f80d 3b3e 82c7 ab3c
000002f0: fd6f 053c fa0d 4dbd 2f14 2f3c 584b 43bc
00000300: 89a7 22bb 20bd 5b3b 7e9e 25bd 22e9 393c
00000310: 25a2 1bba fce9 95bd 7aae cb3c e21d 7f3d
00000320: de56 95bd 38aa 89bd 06b6 803c a1ed 863d
00000330: dd1c f0bc 8982 733d 0732 683d aef1 3e3e
00000340: f277 303d 5e8d f53d 05ca b5be 6ed1 91be
00000350: 2e1e f9bd 3803 833d 79a7 973d b5e6 843e
00000360: 488b c1bc 3068 60bc e8c8 3bbc f6db 97bc
00000370: 14f3 3bbe 2f00 433d 716a 5bbd 1517 953c
00000380: 3a8e d53d 1adc ca3c c762 d4bc 8782 8b3d
00000390: c6d3 75bc 4d20 f4bd 6852 e4bd 7901 ee3d
000003a0: 3170 c43d 1132 db3d 770b 21be 446c 303d
000003b0: 93b8 fdbd 908c 1c3e a4ab 803c 141f 743e
000003c0: 621b b23d 182d c03d 1fa3 a53d 85ed e0bd
000003d0: ceaf 4bbd 5608 41bd 19ee 103d 51c5 1fbd
000003e0: 9b00 96bb 45fe d8bd 2d97 06be 7104 d2bd
000003f0: 3f72 1f3e 7899 133e 54b1 3b3d 088a 6ebe

conv.10.bias f4 [128]
-0.012051892 0.06070414 0.0016592691 -0.04493962 -0.025131522 0.027063698 -0.012589805 0.060841553
0.0018678288 -0.028739912 -0.053640634 -0.016303161 0.0038551907 0.0033725514 -0.012713256 0.036596593
-0.057011172 0.044509873 -0.080217406 -0.045123573 -0.062122557 -0.0676135 -0.048288543 0.025857586
-0.03687671 0.0069830967 0.04690534 -0.0051451116 -0.078922465 0.023844736 -0.065151654 -0.076388426
0.025566593 0.06892053 0.06886026 0.043645605 -0.03689591 -0.034906734 -0.020556893 -0.0040945564
-0.012699697 0.05908389 0.0629847 -0.050166313 0.0028369047 -0.04473765 -0.0098283505 -0.02997634
0.04223441 -0.08145967 -0.0028724452 0.06286502 0.016464645 -0.05453851 -0.053382434 -0.025642248
0.017154394 0.04907033 0.021954203 0.06380694 0.05142981 -0.05304139 2.5571839e-05 -0.035536572
-0.047305997 0.01285839 0.0017713677 0.038101457 -0.025032494 0.036405545 -0.05064157 0.022933245
-0.044076808 0.0061745327 -0.00055993936 0.053505242 -0.01667494 0.01051376 -0.04403095 -0.069759764
-0.055419132 -0.024048138 0.012384689 -0.03321183 0.0060485504 -0.029021744 -0.0069079627 -0.051399834
0.06934822 -0.015583294 -0.035905 -0.03161348 0.065149836 -0.022943357 0.053325515 -0.012608272
0.0067588696 -0.042516567 0.01625711 -0.03342961 -0.0020265046 0.025027532 -0.04947212 -0.066516146
-0.040891826 0.030538555 -0.055103738 -0.07375865 0.0026081484 0.028711772 -0.060627077 -0.06186868
0.023342235 -0.06937419 0.06188244 0.059140828 -0.007461356 0.017982805 0.020203218 -0.029599614
-0.0073547713 -0.0084445905 -0.046920385 -0.019699914 0.04227943 0.017163808 -0.013954291 0.04008697
00000000: 4c75 45bc e8a4 783d d57b d93a 9b12 38bd
00000010: 9fe0 cdbc b0b4 dd3c 7845 4ebc fe34 793d
00000020: efd1 f43a f76f ebbc 48b6 5bbd 358e 85bc
00000030: 5ea7 7c3b 0606 5d3b 434b 50bc 4fe6 153d
00000040: 8c84 69bd fc4f 363d 0649 a4bd 7fd3 38bd
00000050: 3974 7ebd f278 8abd 35ca 45bd 4ad3 d33c
00000060: 080c 17bd 76d2 e43b d01f 403d 5398 a8bb
00000070: 1aa2 a1bd 0956 c33c 3b6e 85bd 8971 9cbd
00000080: 0871 d13c 3526 8d3d 9c06 8d3d bcc5 323d
00000090: 2a20 17bd 5dfa 0ebd ee66 a8bc a12b 86bb
000000a0: 6412 50bc f301 723d 1ffe 803d 317b 4dbd
000000b0: 5deb 393b d33e 37bd 1707 21bc f190 f5bc
000000c0: fdfd 2c3d 54d4 a6bd a23f 3cbb 60bf 803d
000000d0: dde0 863c c663 5fbd 8aa7 5abd b10f d2bc
000000e0: 5f87 8c3c f8fd 483d 4dd9 b33c 37ad 823d
000000f0: 10a8 523d ee41 59bd 1b83 d637 cc8e 11bd
00000100: efc3 41bd ffab 523c 3d2d e83a 4610 1c3d
00000110: f210 cdbc fb1d 153d 896d 4fbd 80de bb3c
00000120: e289 34bd bc53 ca3b e5c8 12ba 5028 5b3d
00000130: e299 88bc e841 2c3c cc59 34bd 35de 8ebd
00000140: 2cff 62bd 9a00 c5bc 27e9 4a3c 2109 08bd
00000150: eb32 c63b 02bf edbc 315c e2bb a288 52bd
00000160: 7106 8e3d 1351 7fbc 1f11 13bd 237d 01bd
00000170: 476d 853d b5f3 bbbc db6b 5a3d ed92 4ebc
00000180: 8279 dd3b da25 2ebd a12d 853c 7ded 08bd
00000190: 1bcf 04bb 8a06 cd3c 47a3 4abd 9e39 88bd
000001a0: 307e 27bd fe2b fa3c 75b4 61bd c60e 97bd
000001b0: 78ed 2a3b f334 eb3c 1954 78bd 036a 7dbd
000001c0: 3738 bf3c 0e14 8ebd 7178 7d3d a73d 723d
000001d0: 647e f4bb ad50 933c 3881 a53c e47a f2bc
000001e0: 4b00 f1bb 2e5b 0abc 972f 40bd b761 a1bc
000001f0: 322d 2d3d 1d9b 8c3c 8aa0 64bc 3c32 243d

conv.11.weight f4 [128]
1.1827598 1.0007839 1.1431013 1.4307187 1.1310887 0.9388723 1.13586 0.95133567
1.1783488 1.4501265 1.1432099 0.9549902 1.2500529 1.2602271 1.0015589 1.531944
1.3326458 1.3400692 1.9633402 1.0154973 1.1491251 1.036586 1.0197664 1.3650707
0.9697322 0.9070788 1.4354979 1.4479465 1.468128 1.5720189 1.2690014 1.3513541
1.3817254 1.1903727 0.97144836 0.9628294 1.3087832 1.3291754 0.99895036 1.4276019
1.2753261 1.3509252 1.3272007 1.2088078 1.2500215 0.98052776 1.460418 1.3216878
1.4538323 1.0599998 1.2084738 1.3997399 1.544611 1.3845204 0.9534825 0.9190106
1.3586375 1.4191267 1.618051 1.0276232 1.013002 1.1482416 0.9706429 1.3366096
1.2570871 1.6948148 1.5714266 1.2485697 1.3578209 1.483737 1.0008534 1.2532408
1.1446364 0.9544604 1.4155235 0.999056 1.163576 1.2961909 1.0427085 1.2818472
1.3479116 1.2135907 1.5425057 1.4996394 1.4238822 1.2313505 1.2472174 0.9768778
1.0788643 1.1438673 1.1952434 1.6660382 0.9860873 1.2913419 1.0764384 0.98084086
1.7997476 0.9706481 1.1026559 0.96245205 1.2506412 2.3409252 1.1463087 1.2938678
1.0720407 1.2630744 0.94960445 1.3339447 0.952406 0.94355565 1.6033182 1.6442113
1.0298207 0.96553934 1.0131327 1.232457 0.94980115 1.6849388 1.1452905 0.96228147
1.9447511 1.178723 1.1985551 1.3070624 1.2151246 0.98572505 1.0373751 1.0566113
00000000: ac64 973f b019 803f 2551 923f ca21 b73f
00000010: 84c7 903f ef59 703f dc63 913f bc8a 733f
00000020: 22d4 963f bf9d b93f b454 923f 3d7a 743f
00000030: bc01 a03f 1f4f a13f 1533 803f be16 c43f
00000040: 2394 aa3f 6387 ab3f bb4e fb3f d1fb 813f
00000050: 8816 933f daae 843f b587 823f a3ba ae3f
00000060: 5f40 783f 5136 683f 65be b73f 5056 b93f
00000070: 9eeb bb3f ea37 c93f a36e a23f 2cf9 ac3f
00000080: 61dc b03f 225e 983f d7b0 783f fd7b 763f
00000090: 3586 a73f 6b22 aa3f 36bb 7f3f a9bb b63f
000000a0: e33d a33f 1eeb ac3f b6e1 a93f 37ba 9a3f
000000b0: b400 a03f de03 7b3f faee ba3f 112d a93f
000000c0: 2d17 ba3f 13ae 873f 45af 9a3f ad2a b33f
000000d0: d0b5 c53f f737 b13f 6e17 743f 4744 6b3f
000000e0: d5e7 ad3f f2a5 b53f 4c1c cf3f 2889 833f
000000f0: 0daa 813f 95f9 923f 0e7c 783f 0616 ab3f
00000100: 3be8 a03f b1ef d83f 8224 c93f 22d1 9f3f
00000110: 13cd ad3f 18eb bd3f f71b 803f 326a a03f
00000120: 7283 923f 8457 743f e02f b53f 22c2 7f3f
00000130: 0ff0 943f 95e9 a53f 7977 853f 9213 a43f
00000140: 5e88 ac3f f156 9b3f d470 c53f 2ff4 bf3f
00000150: c641 b63f e59c 9d3f d2a4 9f3f aa14 7a3f
00000160: 3a18 8a3f 3e6a 923f bcfd 983f bd40 d53f
00000170: 3870 7c3f b14a a53f bcc8 893f 6318 7b3f
00000180: 215e e63f 657c 783f d423 8d3f 4263 763f
00000190: 0315 a03f b8d1 1540 3eba 923f 769d a53f
000001a0: a138 893f 6cac a13f 4719 733f b3be aa3f
000001b0: e1d0 733f dd8c 713f 8839 cd3f 8475 d23f
000001c0: 2ad1 833f 962d 773f 55ae 813f 27c1 9d3f
000001d0: 2b26 733f 13ac d73f e198 923f 1458 763f
000001e0: 9bed f83f 65e0 963f 416a 993f d24d a73f
000001f0: 3489 9b3f 7a58 7c3f b5c8 843f 0a3f 873f

conv.11.bias f4 [128]
0.14177059 -0.27585873 0.09352317 0.12501526 0.10966353 -0.2635441 0.087798215 -0.19543612
0.06887958 0.13371699 -0.014597504 -0.3023654 0.113236636 0.213354 -0.4471977 0.16083658
0.12233582 0.036468614 0.16350159 -0.22691034 -0.30647552 -0.10096714 -0.12763825 0.09854983
-0.13290505 -0.21571748 0.15441653 0.041689925 0.20779108 0.16735743 0.1392188 0.22225125
-0.090285756 0.12534653 -0.1590174 -0.19074956 0.12093962 0.10539556 -0.25017515 0.14872289
0.14473398 0.22348332 0.17754926 0.10516836 0.071224034 -0.24113856 0.14068274 0.073440656
0.13063605 -0.34707153 -0.09198063 0.19008118 0.14038631 0.15695968 -0.18956073 -0.2206341
-0.04864297 0.16167904 0.1468144 -0.29001445 -0.2296429 0.14561194 -0.14699343 0.020044962
0.12811613 0.14698718 0.07551596 0.24347723 0.19358115 0.062274996 -0.17743312 0.1656238
0.008491706 -0.13282026 0.21208867 -0.26144174 0.14863758 -0.019032924 0.003649516 -0.019501058
0.05476077 0.1512331 0.01414232 -0.03860088 0.184489 0.114534184 0.17853935 -0.15181917
-0.07877991 0.015377401 -0.16842431 0.20366119 -0.15215948 0.19038568 -0.11679009 -0.2609057
-0.11221771 -0.14066428 -0.16424988 -0.22452521 0.09384635 0.08890579 0.0730771 0.05900155
-0.22456814 0.15635447 -0.21428971 0.12745735 -0.17657696 -0.22942054 0.030446013 0.17333835
-0.19750246 -0.31091842 -0.17745134 0.13402817 -0.19461764 0.112233795 0.04750853 -0.23177001
0.004402018 0.117121935 -0.092988074 0.046652842 0.1241921 -0.24134926 -0.13451539 -0.2486569
00000000: 4f2c 113e 5b3d 8dbe 1389 bf3d 0004 003e
00000010: 4697 e03d 41ef 86be 8dcf b33d 6820 48be
00000020: bd10 8d3d 1bed 083e 5f2a 6fbc a3cf 9abe
00000030: 9ce8 e73d 7979 5a3e 19f7 e4be 58b2 243e
00000040: 348b fa3d 1d60 153d f66c 273e 2f5b 68be
00000050: 5cea 9cbe dcc7 cebd 9ab3 02be 7ed4 c93d
00000060: 4318 08be 0be5 5cbe 5e1f 1e3e 0ec3 2a3d
00000070: 2fc7 543e bf5f 2b3e 608f 0e3e d595 633e
00000080: bde7 b8bd d75a 003e 75d5 22be da53 43be
00000090: 31af f73d a1d9 d73d f516 80be d04a 183e
000000a0: 2535 143e d0d8 643e 79cf 353e 8262 d73d
000000b0: e8dd 913d 07ed 76be 230f 103e 0e68 963d
000000c0: 75c5 053e 5cb3 b1be 5760 bcbd a4a4 423e
000000d0: 6ec1 0f3e 0aba 203e 351c 42be e8ed 61be
000000e0: da3d 47bd 318f 253e 8456 163e c67c 94be
000000f0: 8227 6bbe 4c1b 153e 7285 16be 5535 a43c
00000100: e030 033e cf83 163e 1da8 9a3d 1852 793e
00000110: 233a 463e 1114 7f3d 07b1 35be 4999 293e
00000120: cc20 0b3c 0902 08be c62d 593e b1db 85be
00000130: 7334 183e efea 9bbc b82c 6f3b afc0 9fbc
00000140: d44c 603d dadc 1a3e 30b5 673c f51b 1ebd
00000150: afea 3c3e e690 ea3d 05d3 363e 7c76 1bbe
00000160: 5d57 a1bd 7ff1 7b3c 6c77 2cbe 8f8c 503e
00000170: b2cf 1bbe 77f4 423e a52f efbd 6f95 85be
00000180: 66d2 e5bd 4c0a 10be 1f31 28be f0e9 65be
00000190: 8432 c03d 3d14 b63d 72a9 953d 9cab 713d
000001a0: 31f5 65be 631b 203e c36e 5bbe 2e84 023e
000001b0: 97d0 34be 38ed 6abe eb69 f93c 9c7f 313e
000001c0: 163e 4abe b330 9fbe ceb5 35be ae3e 093e
000001d0: d949 47be d5da e53d 4e98 423d 1e55 6dbe
000001e0: ce3e 903b a0dd ef3d 8870 bebd 0d17 3f3d
000001f0: 6d58 fe3d 4324 77be 67be 09be ea9f 7ebe

conv.11.running_mean f4 [128]
-0.13891935 -1.9835337 0.18613303 -0.100784056 -0.96306413 -1.8267927 0.2787696 -1.7304251
0.23034674 1.118974 -0.36308217 -1.8364222 -0.7040957 -0.14900987 -1.3856083 1.7802576
-1.0751239 -0.24184896 1.1860718 -0.0862571 0.4570584 -0.081427574 -0.77158284 -0.73978937
-2.6110063 -2.0122402 -0.08656266 2.0754957 1.2315693 1.3716494 0.22084297 -0.75212055
1.7775152 -0.4056067 -2.0899222 -1.7184256 3.8785653 0.31055057 -1.592805 -0.2569471
1.916793 -0.41471925 0.1586058 -0.39307106 0.14958829 -1.7583039 0.30742547 -0.3592156
0.88280505 -1.7949046 -0.7183444 0.60218483 0.29208693 0.47142142 -0.30276006 -1.751677
0.8850627 0.057817984 -0.01284287 -1.6239972 -1.1302319 0.25567478 -2.7303388 -0.60687596
-0.13763456 0.868708 2.226835 0.6753848 1.5526938 -0.28014666 -0.21107744 -0.122173324
0.27711505 -2.636756 0.50032324 -1.3412995 0.35484535 -1.1934025 -0.14499213 0.94773513
0.4133017 -0.21548611 2.063498 2.0956774 -0.015591188 1.7120851 0.95383054 -0.4236112
0.13742964 2.3980749 -0.2893558 0.70835614 -2.3094661 -0.34588078 -0.30766192 -1.5650018
-0.123584904 -2.0839236 -0.89519703 -0.11623219 0.5955258 1.0121939 -0.18496469 -0.12965715
-0.8494907 -0.119094126 -1.1955507 0.35875952 -2.0305839 -1.99723 1.331146 2.0177753
-0.5814784 -1.742462 -0.9936629 -0.5043165 -1.9138813 0.086075395 -0.7512256 -0.8404624
1.2129974 0.03160065 -0.5999542 0.85499984 0.7375111 -0.59475076 -0.8171203 -1.4276073
00000000: e040 0ebe 6fe4 fdbf a899 3e3e df67 cebd
00000010: 5f8b 76bf 58d4 e9bf e4ba 8e3e 927e ddbf
00000020: 04e0 6b3e 8a3a 8f3f e8e5 b9be e20f ebbf
00000030: 9e3f 34bf 0b96 18be 9d5b b1bf 7bdf e33f
00000040: a99d 89bf 41a7 77be 33d1 973f 90a7 b0bd
00000050: 8f03 ea3e 80c3 a6bd 7486 45bf d662 3dbf
00000060: ba1a 27c0 8bc8 00c0 c447 b1bd ecd4 0440
00000070: 10a4 9d3f 3592 af3f a924 623e f98a 40bf
00000080: 9e85 e33f aeab cfbe 49c1 05c0 5ff5 dbbf
00000090: 6a3a 7840 7c00 9f3e 09e1 cbbf 928e 83be
000000a0: 7959 f53f 1556 d4be 8f69 223e 9c40 c9be
000000b0: ac2d 193e 1a10 e1bf df66 9d3e 1beb b7be
000000c0: 83ff 613f 6fbf e5bf 6be5 37bf c928 1a3f
000000d0: 6b8c 953e 265e f13e 5e03 9bbe f436 e0bf
000000e0: 7893 623f 8dd2 6c3d e76a 52bc 24df cfbf
000000f0: 70ab 90bf cee7 823e dfbd 2ec0 395c 1bbf
00000100: 13f0 0cbe a663 5e3f 7784 0e40 05e6 2c3f
00000110: acbe c63f 626f 8fbe af24 58be 0236 fabd
00000120: 06e2 8d3e 9cc0 28c0 2f15 003f b4af abbf
00000130: 4aae b53e 6ac1 98bf d178 14be c59e 723f
00000140: 489c d33e 64a8 5cbe 5a10 0440 941f 0640
00000150: 2f72 7fbc 9b25 db3f 3d2e 743f 91e3 d8be
00000160: 5bba 0c3e 0f7a 1940 7226 94be d456 353f
00000170: 4bce 13c0 4917 b1be dd85 9dbe fb51 c8bf
00000180: 151a fdbd 015f 05c0 a22b 65bf 240b eebd
00000190: 6174 183f 928f 813f 6267 3dbe d8c4 04be
000001a0: 3978 59bf 9fe7 f3bd ce07 99bf 54af b73e
000001b0: 16f5 01c0 3ca5 ffbf fe62 aa3f 3b23 0140
000001c0: c5db 14bf ff08 dfbf b160 7ebf e31a 01bf
000001d0: 10fa f4bf 4c48 b03d 5250 40bf 8b28 57bf
000001e0: 8043 9b3f af6f 013d 9996 19bf 45e1 5a3f
000001f0: 87cd 3c3f 9641 18bf cc2e 51bf d6bb b6bf

conv.11.running_var f4 [128]
2.3528206 11.612726 2.9345334 3.9417346 2.3384924 2.0995617 2.0461087 5.199008
2.9585726 2.9383159 1.7932643 4.8110337 2.4198692 2.2423213 7.1447983 8.268814
2.0462441 2.0350041 10.646547 3.1524546 1.4223264 3.914263 4.8825636 2.0453222
5.103065 3.5421588 2.5807557 7.222013 5.9136424 3.5478935 3.8316221 2.8787527
4.2223315 1.3991829 3.583147 3.694272 6.6036205 2.1802583 2.2024968 1.6471788
3.0959892 1.9195511 2.0000267 1.8900894 1.5931622 7.3356156 1.8161229 2.105757
2.4429543 8.95583 7.3607354 4.2038784 2.5615447 2.834349 3.218286 3.7072775
2.8955739 3.09983 8.430426 7.3683624 7.2520514 1.7629211 4.665838 2.1432767
1.6915215 5.353387 9.599881 2.8096318 4.1291556 4.3772106 1.9682332 2.1338525
2.5091891 4.6678624 5.9468775 7.958417 2.3343124 2.1331728 2.3176563 2.666288
2.3026059 1.7447913 8.959784 5.8601832 1.9691603 4.1175895 3.5691526 3.6803734
4.1238756 4.939042 10.915373 5.391544 3.856195 2.564526 4.2963877 6.3332934
9.476455 5.553207 5.9147587 3.5427327 2.736325 14.384023 1.3583734 2.4922879
5.0860014 1.8145063 5.037692 2.9641652 3.1514184 6.195256 9.617293 7.759395
5.0433807 8.689071 2.4514463 2.7228744 6.0182714 8.767391 1.884215 1.3412668
12.138666 2.3142807 7.425632 3.892361 2.8674326 3.6638205 5.372981 6.780141
00000000: 9d94 1640 bacd 3941 65cf 3b40 6145 7c40
00000010: dca9 1540 385f 0640 72f3 0240 465e a640
00000020: 4159 3d40 5e0d 3c40 af89 e53f fdf3 9940
00000030: 23df 1a40 3182 0f40 30a2 e440 104d 0441
00000040: aaf5 0240 823d 0240 4258 2a41 d1c1 4940
00000050: cb0e b63f 4983 7a40 f63d 9c40 8fe6 0240
00000060: 4f4c a340 bbb2 6240 1a2b 2540 bb1a e740
00000070: 8f3c bd40 b010 6340 4c39 7540 7c3d 3840
00000080: 571d 8740 6d18 b33f 4852 6540 f46e 6c40
00000090: dc50 d340 5a89 0b40 b5f5 0c40 c1d6 d23f
000000a0: b024 4640 dab3 f53f 7000 0040 73ee f13f
000000b0: bdec cb3f 5dbd ea40 b776 e83f b9c4 0640
000000c0: 5d59 1c40 144b 0f41 258b eb40 2c86 8640
000000d0: 59f0 2340 f965 3540 66f8 4d40 0944 6d40
000000e0: 1551 3940 9d63 4640 06e3 0641 a0c9 eb40
000000f0: ce10 e840 66a7 e13f 8b4e 9540 722b 0940
00000100: c783 d83f f24e ab40 1d99 1941 02d1 3340
00000110: 0b22 8440 1c12 8c40 11ef fb3f 0a91 0840
00000120: 8e96 2040 215f 9540 d24c be40 5aab fe40
00000130: 6065 1540 e785 0840 7b54 1440 76a4 2a40
00000140: e55d 1340 5255 df3f 465b 0f41 9f86 bb40
00000150: 720d fc3f 4bc3 8340 ff6c 6440 3d8b 6b40
00000160: caf6 8340 a20c 9e40 5ea5 2e41 8787 ac40
00000170: e6cb 7640 3221 2440 027c 8940 57aa ca40
00000180: 8f9f 1741 dfb3 b140 b445 bd40 22bc 6240
00000190: f31f 2f40 f524 6641 2edf ad3f a581 1f40
000001a0: 86c0 a240 be41 e83f c634 a140 e2b4 3d40
000001b0: d7b0 4940 8a3f c640 6fe0 1941 f74c f840
000001c0: 6063 a140 6f06 0b41 7fe4 1c40 9343 2e40
000001d0: ae95 c040 3c47 0c41 f52d f13f a1ae ab3f
000001e0: fa37 4241 2d1d 1440 c79e ed40 711c 7940
000001f0: 0484 3740 097c 6a40 76ef ab40 eaf6 d840
